rl_energy_manager_20250325_1542/models/checkpoint_200/actor.pth (torch, 82676 bytes, 6 tensors)

layer1.weight f4 [128, 18]
0	0x3e5b6a8a	0.2142736
1	0x3e190964	0.14944988
2	0xbdd4e146	-0.1039453
3	0x3dc4faed	0.09618173
4	0xbde1bff3	-0.110229395
5	0x3b64aca8	0.003489295
6	0xbe209775	-0.15682776
7	0x3df8e9b0	0.12153947
8	0x3e25006c	0.16113442
9	0xbe31115e	-0.17291781
10	0x3e5adcdb	0.21373312
11	0x3dbb2d40	0.0913949
12	0x3e79e8d8	0.24405229
13	0x3cc809d2	0.024418745
14	0x3dd27f41	0.10278178
15	0xbc877874	-0.016536929
16	0x3e39e2ac	0.18152875
17	0x3d373ea9	0.04473749
18	0xbde15a26	-0.110035226
19	0x3d76168c	0.060080096
20	0xbdde67ee	-0.10859667
21	0xbce27060	-0.027641475
22	0xbdc40f5e	-0.095732436
23	0x3e201c53	0.15635805
24	0xbe3e858d	-0.18605633
25	0xbdde89c0	-0.108661175
26	0xbd884eb4	-0.066556364
27	0xbe111f62	-0.14172128
28	0x3cb63de8	0.022246316
29	0xbe6e62a7	-0.2327982
30	0x3e59f93f	0.21286486
31	0xbe4d06e3	-0.20022158
32	0x3e3a55f9	0.18196858
33	0x3d20aac4	0.039225355
34	0xbd9cbda4	-0.076533586
35	0x3e1525d9	0.14565219
36	0x3ea42244	0.32057393
37	0x3e65f930	0.22458339
38	0x3d86ac81	0.06575871
39	0xbd12e460	-0.035862327
40	0x3d92df2f	0.07171475
41	0xbcfdf0d8	-0.030998632
42	0x3dec1998	0.11528319
43	0x3eac9002	0.3370362
44	0x3e330f76	0.17486367
45	0xbdd307fa	-0.10304256
46	0x3e838830	0.2568984
47	0x3e320eb0	0.17388415
48	0x3e978de5	0.29600444
49	0x3c7ed6e0	0.01555416
50	0xbe025f1e	-0.12731597
51	0x3d60dffd	0.054901112
52	0xbd5d6902	-0.05405522
53	0x3eb2421b	0.3481606
54	0x3d8b09ba	0.067889646
55	0x3dc7f2ce	0.09763108
56	0x3d98aa3e	0.07454346
57	0xbb865b80	-0.004100263
58	0x3e3ce3bf	0.18446253
59	0xbe2b7d2a	-0.16746965
60	0x3c732650	0.014840677
61	0xbe24bcc0	-0.16087627
62	0x3d94d8de	0.07267927
63	0xbda63d56	-0.08117168
64	0x3d93e9aa	0.07222302
65	0xbd4923f4	-0.049106553
66	0x3e482e69	0.19548954
67	0xbe0f0dd4	-0.13970119
68	0xbe0ff233	-0.14057235
69	0xbe0ff46c	-0.14058083
70	0x3e5916b7	0.21200071
71	0x3da0ddca	0.07854803
72	0x3e82d424	0.25552475
73	0xbe3973e8	-0.18110621
74	0xbe6ac62d	-0.2292716
75	0xbdaf61a0	-0.08563542
76	0xbe225c12	-0.15855435
77	0x3ddee085	0.108826675
78	0x3dc86d51	0.097864754
79	0x3e6b5ec4	0.22985369
80	0xbde3282f	-0.11091649
81	0xbe248990	-0.16068101
82	0x3bd2dd8d	0.0064351023
83	0xbe7031b9	-0.23456468
84	0xbcb68ffc	-0.022285454
85	0xbd7d3dd5	-0.061826546
86	0x3d5e5595	0.054280836
87	0xbe9ccd03	-0.30625162
88	0xbe5dbfce	-0.21655199
89	0x3cb1d0b0	0.021705955
90	0x3d5b3940	0.053521395
91	0xbd55454f	-0.05206805
92	0x3e0dc566	0.13844833
93	0x3e217328	0.15766585
94	0xbe3bcfd9	-0.18341006
95	0xbdf46268	-0.11932832
96	0x3e586c86	0.21135148
97	0xbd93ce25	-0.07217053
98	0xbd9f8745	-0.077894725
99	0xbe6989ac	-0.22806424
100	0xbe50f80c	-0.20407122
101	0x3bcfc7ce	0.0063409572
102	0xbdcdaf34	-0.10043183
103	0xbe43bbc4	-0.19114596
104	0xbd381c16	-0.04494866
105	0xbe660dd8	-0.22466218
106	0xbe7fe5c7	-0.24989997
107	0xbe19f71f	-0.15035675
108	0xbe374eb7	-0.17901121
109	0xbd540aee	-0.051768236
110	0x3eab50e8	0.33460164
111	0x3e9e739b	0.30947575
112	0x3e2f38f2	0.17111567
113	0xbdfac452	-0.122444764
114	0xbd7743d7	-0.06036743
115	0x3e8f0f27	0.27941248
116	0x3e0acf31	0.135556
117	0xbe546085	-0.20739944
118	0xbe53f316	-0.20698199
119	0xbe736849	-0.2377025
120	0xbdb98a3c	-0.09059569
121	0xbd9e6309	-0.07733733
122	0xbd814c43	-0.06313374
123	0xbe84aabb	-0.25911507
124	0xbe715714	-0.23568374
125	0xbe66a135	-0.22522433
126	0xbd5af628	-0.05345741
127	0xbe47e438	-0.19520652
128	0x3e40fb22	0.188458
129	0x3b3f884e	0.002922553
130	0x3e4645f4	0.19362622
131	0x3d839fb4	0.06426945
132	0xbe55c605	-0.2087632
133	0x3e715ace	0.23569795
134	0xbd979997	-0.07402342
135	0xbdb909da	-0.09035082
136	0xbe721b5a	-0.23643246
137	0xbe8541b9	-0.26026705
138	0x3d07e5eb	0.03317825
139	0xbd7f6915	-0.062356073
140	0x3d84a1e0	0.06476188
141	0xbe706b51	-0.23478438
142	0x3e13e06d	0.1444108
143	0xbe4a595d	-0.19760652
144	0xbd885cde	-0.06658338
145	0x3d4abcfd	0.04949664
146	0x3d88ec1a	0.06685658
147	0x3e236f19	0.15960349
148	0x3daa6ea7	0.083218865
149	0xbe373797	-0.178923
150	0x3d7e50af	0.062088665
151	0xbdde9b95	-0.10869519
152	0xbd38c54d	-0.045110036
153	0xbe34a7a8	-0.17642081
154	0x3e8c1feb	0.273681
155	0xbd978e9b	-0.07400247
156	0x3e4ae8d9	0.19815387
157	0x3dd678a3	0.104722284
158	0x3dd68907	0.10475355
159	0xbdb4d813	-0.088302754
160	0x3e8d0d3e	0.27549165
161	0x3dce92cc	0.10086593
162	0x3ceebdd9	0.02914326
163	0xbe5b1637	-0.21395193
164	0x3db63854	0.088974625
165	0xbc985d53	-0.018599188
166	0xbdf9ca82	-0.121968284
167	0x3e49a408	0.19691479
168	0x3d44de59	0.04806361
169	0xbe23c9ac	-0.159949
170	0xbe020c45	-0.12699993
171	0xbc386ba0	-0.011256129
172	0x3bf0ba79	0.007346448
173	0xbe227a30	-0.15866923
174	0xbe684f30	-0.22686458
175	0xbdb77827	-0.08958464
176	0xbe60e25a	-0.21961346
177	0xbc4a1281	-0.012333513
178	0x3d943397	0.072364025
179	0xbe8b4781	-0.2720299
180	0x3d31a4c8	0.04337004
181	0x3d736695	0.059424
182	0xbcc8bfe2	-0.02450556
183	0xbdf97617	-0.12180727
184	0x3d319d62	0.043362983
185	0x3d87593f	0.06608819
186	0x3d10e151	0.03537113
187	0xbdb6b82e	-0.08921848
188	0xbe01d1db	-0.1267771
189	0x3cce9108	0.02521564
190	0x3af2777f	0.0018498747
191	0x3c1abb05	0.009444003
192	0x3e6ba95a	0.23013821
193	0x3e46cfec	0.19415253
194	0xbadcc50f	-0.0016843396
195	0xbc5b4467	-0.013383008
196	0x3cf381f5	0.029725054
197	0xbc3d52d2	-0.01155539
198	0x3d681a14	0.056665495
199	0x3d87461e	0.06605171
200	0xbe5b374f	-0.21407817
201	0xbdb22428	-0.086983025
202	0x3e4b4171	0.19849183
203	0x3dbc0b9a	0.091819
204	0xbc4012f0	-0.011723265
205	0xbe11844d	-0.14210625
206	0xbe13aa2c	-0.14420384
207	0xbe583395	-0.21113427
208	0xbd9d5916	-0.076830074
209	0x3da30416	0.07959764
210	0x3e19e553	0.15028886
211	0x3ddedea6	0.108823106
212	0xbe555913	-0.2083476
213	0xbe1124f2	-0.1417425
214	0xbd185ca8	-0.03719774
215	0x3e697a87	0.22800647
216	0x3d0ba85c	0.034096107
217	0xbd7a0510	-0.061039984
218	0x3dc7b53a	0.09751363
219	0xbdb7dbc4	-0.08977464
220	0xbe1c3897	-0.15255962
221	0x3e302a39	0.17203607
222	0xbddb7e2a	-0.10717423
223	0xbd4189b4	-0.047250465
224	0xbe701ae6	-0.23447761
225	0x3e2188d9	0.1577486
226	0x3e36dcad	0.17857619
227	0x3dafed02	0.085901275
228	0xbe284b22	-0.16434911
229	0xbe6e34fa	-0.23262396
230	0xbe4406dc	-0.19143242
231	0x3e33fb47	0.17576323
232	0x3de7c17e	0.113162026
233	0x3e4b1ad3	0.19834451
234	0x3e3aeefd	0.1825523
235	0x3d74582c	0.0596544
236	0xbb174480	-0.00230816
237	0xbd89b1f6	-0.067233965
238	0xbe4eca2f	-0.20194314
239	0xbe61c142	-0.22046378
240	0x3dc59b42	0.09648754
241	0x3da91c4c	0.0825735
242	0xbd424bec	-0.047435686
243	0xbe0ae748	-0.1356479
244	0xbe419dfa	-0.1890792
245	0xbe98bc8f	-0.2983136
246	0xbe897e91	-0.26854375
247	0xbe03c74a	-0.12868991
248	0xbe448051	-0.19189574
249	0xbcd56b45	-0.026052127
250	0xbe4e9d35	-0.20177157
251	0xbe966750	-0.29375696
252	0x3965782b	0.00021883908
253	0xbe05f15c	-0.13080353
254	0xbda8c516	-0.08240716
255	0xbe889df1	-0.26683

layer1.bias f4 [128]
0	0x3c649036	0.013950398
1	0xbe3f939a	-0.1870865
2	0x3d8e9ea4	0.06963852
3	0xbe443640	-0.1916132
4	0xbd303056	-0.043014847
5	0x3e4f50c3	0.20245652
6	0x3e08d56b	0.13362662
7	0xbbd9237d	-0.006626545
8	0x3d3da53b	0.046300154
9	0x3d99a058	0.07501286
10	0xbc70781d	-0.014677075
11	0xbe42ac90	-0.1901114
12	0xbe14b453	-0.14521913
13	0xbe0b0331	-0.13575436
14	0x3cae5438	0.021280393
15	0xbe5cf0c8	-0.21576226
16	0xbd0c146a	-0.034199156
17	0x3d3dba85	0.046320457
18	0x3e5e1c80	0.2169056
19	0x3e4ba38d	0.19886608
20	0x3e23f99c	0.16013187
21	0x3c4ccf69	0.012500622
22	0xbb34fa25	-0.0027614918
23	0x3d5920da	0.053009845
24	0xbe26c31e	-0.16285369
25	0xbdcde19a	-0.10052796
26	0xbc51cfa0	-0.012805849
27	0x3b1bbce2	0.0023763706
28	0xbe64a3d9	-0.22328128
29	0x3e0a9149	0.13531984
30	0x3e5ef849	0.21774401
31	0xbdd26e2d	-0.102749206
32	0x3daf14c0	0.085488796
33	0x3b004a27	0.0019575448
34	0x3c9dc889	0.019260662
35	0x3e032324	0.12806374
36	0x3e62082e	0.22073433
37	0x3cd7de3e	0.02635109
38	0xbbfc7084	-0.0077038426
39	0xbdada3ea	-0.0847853
40	0x3dd856c3	0.105634235
41	0x3d8bfee9	0.0683573
42	0xbb5430d1	-0.003237773
43	0xbd199cb0	-0.037502944
44	0x3c188b3e	0.009310542
45	0x3e1cbfb9	0.15307511
46	0xbdcb2a0d	-0.0992013
47	0x3d8a92bb	0.06766268
48	0x3dcbeca1	0.09957243
49	0x3e435ae0	0.19077635
50	0xbcc2f84c	-0.023800038
51	0x39e9cfd2	0.0004459606
52	0x3e2c3f00	0.16820908
53	0x3d086b2e	0.03330534
54	0x3d39f60c	0.045400664
55	0x3db42c54	0.087975174
56	0x3d653e10	0.05596739
57	0xbe4f092e	-0.20218346
58	0x3dc8de21	0.09807993
59	0xbcff670b	-0.031177064
60	0x3e714a25	0.2356344
61	0x3e247d55	0.16063435
62	0x3dc7ce5a	0.09756155
63	0x3e3eae27	0.18621121
64	0xbdaf0656	-0.0854613
65	0x3e4c458e	0.19948408
66	0x3e4c2ac4	0.19938189
67	0xbca60b70	-0.020269126
68	0xbe4a1724	-0.1973539
69	0x3d031ed9	0.03201184
70	0xbdb1db2f	-0.08684384
71	0x3d09787f	0.03356218
72	0xbe5ad41c	-0.21369976
73	0x3ce14751	0.027499827
74	0xbd667da9	-0.056272183
75	0x3dd97405	0.10617832
76	0xbd3e96a6	-0.04653039
77	0xbd818ad9	-0.06325311
78	0xbe602802	-0.21890262
79	0xbd583884	-0.052788273
80	0x3d8d00d6	0.06884925
81	0x3e258d10	0.16167092
82	0x3e53ea55	0.2069486
83	0xbe3956ee	-0.18099567
84	0x3daced9e	0.084437594
85	0xbd20474b	-0.03913049
86	0xbe3a9bc6	-0.18223485
87	0x3ab3ea2a	0.0013726403
88	0xbda2ae9e	-0.07943462
89	0xbe4fdea2	-0.20299771
90	0xbe618f14	-0.22027236
91	0xbde49659	-0.11161489
92	0x3e2dbf5c	0.16967529
93	0x3e03fce7	0.12889443
94	0xbd70bf2f	-0.058776077
95	0x3c843cef	0.016142337
96	0xbdeea9c5	-0.11653475
97	0xbd8c1b3b	-0.06841131
98	0xbdc6a342	-0.09699108
99	0x3e2ec3b7	0.17066847
100	0x3dad1aa8	0.0845235
101	0x3e175ef8	0.14782321
102	0x3e1bd9ec	0.1521985
103	0xbe33bb93	-0.17552023
104	0xbe44a1e3	-0.1920238
105	0x3d4a0445	0.049320478
106	0xbe08455a	-0.13307706
107	0x3d9406e2	0.07227875
108	0x3e490cab	0.19633739
109	0xbdfc7606	-0.12327199
110	0xbe286c5c	-0.16447586
111	0x3ddec4e4	0.10877398
112	0xbe083b76	-0.13303933
113	0x3e648eb5	0.22320063
114	0xbe03fe11	-0.12889887
115	0x3e249ab0	0.16074634
116	0xbe3fec05	-0.18742378
117	0xbda3ab88	-0.07991701
118	0x3d3b48e2	0.045723803
119	0x3d9239f7	0.07139962
120	0x3e30f866	0.17282256
121	0x3e73a7fc	0.2379455
122	0x3c328a48	0.010897227
123	0x3e3c2696	0.18374094
124	0x3cae64fb	0.021288386
125	0xbd604320	-0.054751515
126	0xbc656a75	-0.014002432
127	0xbe2d4d6e	-0.16924068

layer2.weight f4 [128, 128]
0	0xbc96122e	-0.018319216
1	0x3d78176e	0.06056922
2	0x3e506c7e	0.20353886
3	0x3d8e8cd3	0.06960454
4	0x3d4bd993	0.04976804
5	0x3d584414	0.0527993
6	0x3d9811a7	0.07425242
7	0xbd41face	-0.047358327
8	0x3c132a6f	0.008982285
9	0x3d16f76b	0.03685705
10	0x3d90890d	0.0705739
11	0xbdb02bac	-0.0860208
12	0x3d00acde	0.03141486
13	0xbd7f61bb	-0.062349062
14	0x3d4f14ab	0.05055682
15	0x3d74efea	0.059799112
16	0x3d170b3c	0.03687595
17	0xbd5005c5	-0.050786752
18	0x3c67b0fe	0.014141319
19	0x3dd88bab	0.105735146
20	0x3da60a8f	0.08107483
21	0x3da83e09	0.08214957
22	0xbd73a38c	-0.059482142
23	0xbb4a3a24	-0.0030857408
24	0x3d90311b	0.07040616
25	0x3d823aa3	0.0635884
26	0x3dc1657d	0.094431855
27	0xb8cdf112	-9.8200646e-05
28	0x3d8cf9ff	0.068836205
29	0x3d04fc7e	0.032467358
30	0x3dbe76c8	0.092999995
31	0x3da141c4	0.07873872
32	0x3cf9ec02	0.030508045
33	0xbd30f0aa	-0.043198265
34	0x3dbcbf6e	0.092162
35	0xbd758417	-0.059940424
36	0x3dbed6eb	0.09318336
37	0xbd363167	-0.044480707
38	0xbd47ba7a	-0.048761822
39	0xbd9dd293	-0.077061795
40	0xbca7917f	-0.02045512
41	0x3dad9d08	0.08477217
42	0xbd2fd0e1	-0.04292381
43	0xbd7645cb	-0.060125154
44	0x3e09062c	0.1338126
45	0xbce458e3	-0.027874416
46	0xbd01f3ee	-0.03172677
47	0xbcb963a1	-0.022630515
48	0xbcfe8f83	-0.031074291
49	0x3c3bdb1c	0.011465814
50	0x3e0cfbeb	0.13767974
51	0xbcc89e94	-0.024489678
52	0xbbc5c335	-0.0060352334
53	0xbcec27d9	-0.028827595
54	0xba0a5348	-0.0005276692
55	0x3d97d2f7	0.07413285
56	0x3d2b9a26	0.041895054
57	0x3c526600	0.0128417015
58	0xbdb06666	-0.08613281
59	0x3e08e037	0.13366781
60	0x3d4edc38	0.050502986
61	0xbb32cb40	-0.002728179
62	0x3be896d2	0.0070980573
63	0x3cd7993e	0.026318189
64	0x3d9373d7	0.07199829
65	0x3d81c290	0.06335938
66	0x3dc56727	0.096388154
67	0x3d26c199	0.040711973
68	0x3d9f8a75	0.077900805
69	0x3d3b503a	0.045730807
70	0xbc1c9526	-0.009557044
71	0x3c07609b	0.008262779
72	0xbda9d573	-0.08292665
73	0xbcaa94bb	-0.020822873
74	0x3d126e38	0.035749644
75	0x3d85491e	0.065080866
76	0x3d79c208	0.06097606
77	0x3aad607c	0.0013227607
78	0xbd77694a	-0.060403146
79	0x3deea11f	0.11651825
80	0xbd1408c5	-0.036141176
81	0x3dbd4607	0.09241872
82	0x3dc5baeb	0.096547924
83	0xbd6758e3	-0.056481253
84	0x3d10a108	0.03530982
85	0x3df1f312	0.1181394
86	0x3daf7905	0.085680045
87	0xbc947f68	-0.018127158
88	0x3d57a6f8	0.05264947
89	0xbd8e1372	-0.06937303
90	0xbd6b3b14	-0.05742939
91	0x3d8eee9d	0.069791056
92	0x3d01c160	0.031678557
93	0x3e047b60	0.12937689
94	0x3d8da190	0.06915581
95	0xbd42e4de	-0.047581546
96	0x3db8f3c1	0.09030867
97	0x3dd1f505	0.10251812
98	0x3c0665c0	0.00820297
99	0xbd907890	-0.070542455
100	0x3be6e352	0.0070461417
101	0xbdebe0f4	-0.11517516
102	0x3dda4e6a	0.106594875
103	0x3d030ec9	0.031996522
104	0x3c986f10	0.018607646
105	0x3dc166c7	0.09443431
106	0x3d050087	0.032471206
107	0xbc5c2619	-0.013436818
108	0x3ddf6270	0.10907447
109	0x3d780ba9	0.060557995
110	0xbd5f7fe6	-0.054565333
111	0x3d7e983d	0.062156904
112	0xbcdf8222	-0.027283732
113	0x3caf4cb7	0.021398885
114	0xbcf02f8a	-0.029319543
115	0xbd318d29	-0.04334751
116	0xbdb17aad	-0.08665977
117	0x3d9ab267	0.07553559
118	0x3dc4378a	0.09580906
119	0x3c90fcea	0.017698724
120	0x3dd1e98e	0.10249625
121	0xbcae628f	-0.02128723
122	0x3d857b2b	0.06517633
123	0x3c379684	0.011205319
124	0xbbb30d89	-0.00546426
125	0x3d1258ca	0.035729207
126	0x3d84751b	0.064676486
127	0xbd1b754f	-0.03795367
128	0xbd1f5cac	-0.03890674
129	0x3d7d0f4e	0.061782174
130	0x3db590cf	0.08865511
131	0x3c686690	0.014184609
132	0xbcec1a9e	-0.028821286
133	0x3ce4aaa1	0.027913393
134	0xbca8a506	-0.020586502
135	0x3d8cf9d8	0.068835914
136	0x3c9c2f04	0.019065388
137	0x3bdb88b0	0.006699644
138	0x3c39b78b	0.011335264
139	0x3d409b9e	0.047023408
140	0xba8f2500	-0.0010921061
141	0x3d75ad1c	0.059979543
142	0x3d6e3cbb	0.058163386
143	0xbd88c879	-0.06678862
144	0x3c3b0c5f	0.011416524
145	0xbce130aa	-0.027489025
146	0xbd6be8c9	-0.057595048
147	0x3ce38f9a	0.027778435
148	0x3cfa5a6f	0.0305607
149	0x3b8cfbe1	0.0043024872
150	0x3da20b00	0.07912254
151	0xbd215be1	-0.039394263
152	0xbd17b9a9	-0.037042294
153	0xbc67ea68	-0.014155008
154	0x3c78e0f1	0.015190349
155	0xbc2bd618	-0.010488056
156	0x3da2fcdf	0.079583876
157	0xbcac3908	-0.021023288
158	0xbd057fb6	-0.032592498
159	0xb951d467	-0.00020010919
160	0x3da6fef0	0.08154094
161	0x3b602f79	0.0034207983
162	0x3d398f29	0.045302544
163	0x3cf89314	0.03034357
164	0x3dbce95b	0.092241965
165	0x3d86b081	0.06576634
166	0x3d21adcb	0.039472383
167	0xbc430d50	-0.011905029
168	0xbd9253c1	-0.07144881
169	0xbcbb7793	-0.022884166
170	0x3cdf020e	0.02722266
171	0x3d80fc96	0.06298177
172	0xbcb53976	-0.022122126
173	0x3e052b66	0.13004836
174	0x3bccb1e0	0.0062467903
175	0x3b15d6f9	0.002286373
176	0x3c7f5320	0.015583783
177	0xb95428cb	-0.00020233092
178	0x3dd4cb78	0.10390371
179	0x3c9e5499	0.019327449
180	0x3d76827f	0.060183045
181	0xbd7da4cd	-0.061924744
182	0xbd0b221c	-0.033968076
183	0x3c9f64a4	0.019457169
184	0x3d92ec36	0.0717396
185	0x3d2c5cae	0.042080574
186	0x3ce9474a	0.028476376
187	0xbd8f4b6a	-0.06996806
188	0x3c8befeb	0.017082175
189	0xbd51284d	-0.051063824
190	0xbd9188db	-0.07106181
191	0x3cb822b4	0.022477485
192	0xbd8b0972	-0.06788911
193	0x3db6f766	0.08933906
194	0xbd24a47c	-0.040195927
195	0x3d072726	0.03299632
196	0x3d5480d6	0.05188068
197	0xbd84e336	-0.064886495
198	0x3d8a4867	0.06752091
199	0xbbddba43	-0.006766589
200	0x3d3b984e	0.045799546
201	0x3dcfc9dc	0.101459235
202	0xbd95f950	-0.07322943
203	0xbcf6bc3f	-0.03011906
204	0x3d757dfe	0.05993461
205	0x3d0de2ff	0.03464031
206	0xbc106db0	-0.008815214
207	0x3d85bae8	0.0652979
208	0x3c11e7ef	0.008905395
209	0x3c1e216d	0.009651524
210	0x3d9c3ea0	0.07629132
211	0x3d0d7d1a	0.034543134
212	0xbd59009a	-0.05297909
213	0x3ceb7858	0.028743908
214	0xbd8a040b	-0.067390524
215	0xbce741a4	-0.028229542
216	0x3d8c7d05	0.06859783
217	0xbcc0f9bc	-0.023556583
218	0xbd38682f	-0.045021232
219	0x3b05fbd1	0.0020444284
220	0x3d10bc6f	0.035335954
221	0xbd2049a2	-0.03913272
222	0xbd7958d1	-0.060875718
223	0x3ce88f70	0.028388709
224	0x3b95a678	0.0045669638
225	0xbd88bc18	-0.06676501
226	0x3bdcb910	0.0067359284
227	0xbd0c6965	-0.0342802
228	0xbd63d6af	-0.05562466
229	0x3d834196	0.06408994
230	0xbd766bfa	-0.06016157
231	0xbcd14099	-0.025543498
232	0xbb349020	-0.0027551726
233	0xbd802301	-0.062566765
234	0xbda3e494	-0.08002582
235	0x3d95a566	0.07306938
236	0x3cdb0208	0.026734367
237	0xbd18a7a7	-0.03726926
238	0xbb4098c0	-0.002938792
239	0x3d864fcb	0.06558188
240	0xbdb58d33	-0.08864822
241	0xbd04e53e	-0.032445185
242	0xbd2b6ba6	-0.04185071
243	0xbc2af33e	-0.01043397
244	0xbb475740	-0.0030416995
245	0xbd9f8a82	-0.0779009
246	0x3d9567ec	0.07295212
247	0xbd5b8f18	-0.05360326
248	0x3db50550	0.08838904
249	0xbd5d74a1	-0.054066304
250	0xbbf3bfd4	-0.007438639
251	0x3d9f43b7	0.077765875
252	0xbd309316	-0.043109022
253	0x3da67915	0.08128563
254	0xbd4a2bff	-0.049358364
255	0xbd1988b0	-0.03748387

layer2.bias f4 [128]
0	0x3dd9d215	0.10635773
1	0x3d667624	0.05626501
2	0x3d27f19a	0.041001894
3	0xbc8478e1	-0.01617092
4	0xbd271480	-0.040791035
5	0x3d465d39	0.048428748
6	0x3d1f3463	0.03886832
7	0x3ca2bb46	0.01986469
8	0xbdb21b0a	-0.086965635
9	0xbd5a4e25	-0.05329718
10	0xbcb8eb90	-0.022573262
11	0xb8397d8a	-4.4224354e-05
12	0x3db08ca7	0.08620577
13	0x3c8c19ab	0.017102083
14	0xbd21298b	-0.03934626
15	0xbd5ba22b	-0.053621452
16	0xbd9608d3	-0.07325902
17	0xbd957110	-0.072969556
18	0x3d46e1e6	0.048555277
19	0xbce42621	-0.027850213
20	0xbd56cfce	-0.05244427
21	0xbc634e12	-0.013873594
22	0x3ce4fa51	0.027951391
23	0xbd8ffbff	-0.07030486
24	0x3bf27cb6	0.0074001206
25	0x3c907c1d	0.017637307
26	0x3c3beafd	0.0114696
27	0x3d882359	0.06647367
28	0xbcbb6b28	-0.022878245
29	0xbd9e2e6b	-0.07723697
30	0x3d29dba6	0.04146924
31	0x3dc90ff9	0.098175
32	0x3dce29e0	0.10066581
33	0x3cdf5f31	0.02726707
34	0x3e0046f7	0.12527071
35	0x3c6610c7	0.014042086
36	0xbd9df00b	-0.077118
37	0x3caebc08	0.021329895
38	0xbd22c96f	-0.039742883
39	0x3ca693b2	0.020334098
40	0x3ced4d54	0.028967537
41	0xbc2e6cd8	-0.010646068
42	0xbd93542c	-0.07193789
43	0x3dc53d75	0.096308626
44	0x3c9a7283	0.018853432
45	0x3d30778b	0.043082755
46	0xbc1ada13	-0.009451407
47	0x3cc05676	0.023478728
48	0xbb8a2733	-0.0042160987
49	0xbd039738	-0.032126635
50	0xbca0ec89	-0.019644039
51	0x3d37f7ef	0.044914182
52	0xbc87304f	-0.016502528
53	0xbd2e0dd7	-0.042493667
54	0x3dce7133	0.10080185
55	0xbc4d4cab	-0.012530486
56	0x3c910ca2	0.01770622
57	0xbd3bc7a9	-0.045844708
58	0x3d6091bb	0.05482648
59	0xbd8a8629	-0.0676387
60	0xbd5e6d9e	-0.054303758
61	0xbd9f3bb5	-0.0777506
62	0xbd3c9870	-0.046043813
63	0x3dad0fab	0.08450254
64	0x3d3aa9bb	0.045572024
65	0x3d297cc9	0.04137877
66	0x3d782a8b	0.060587447
67	0x3da9e050	0.08294737
68	0x3d3d09ac	0.046151802
69	0x3d5e8e02	0.054334648
70	0xbd529110	-0.051407874
71	0x3da47ba7	0.08031397
72	0x3d426cac	0.04746692
73	0x3def3f4f	0.11681997
74	0xbcba3dbb	-0.022734514
75	0x3df19323	0.11795642
76	0xbc63cf20	-0.013904363
77	0xbdacc499	-0.084359355
78	0xbd0805e7	-0.033208754
79	0xbbe70acc	-0.0070508476
80	0x3d581c65	0.052761454
81	0x3cec2fbb	0.028831353
82	0x3d8390ae	0.0642408
83	0x3d6a4b1a	0.05720053
84	0x3d39c640	0.04535508
85	0xbd4da570	-0.0502066
86	0xbbde2640	-0.006779462
87	0xbc4a3850	-0.0123425275
88	0x3c2988cb	0.010347555
89	0xbd870b9d	-0.06594012
90	0xbd133552	-0.035939522
91	0x3d400d08	0.046887428
92	0xbdb22520	-0.08698487
93	0x3de69410	0.112587094
94	0x3c2d5701	0.010579825
95	0x3b112270	0.002214577
96	0xbcaf977a	-0.021434534
97	0xbd6482ab	-0.055788677
98	0xbda4832b	-0.08032831
99	0xbda0d9b8	-0.078540266
100	0x3d564bff	0.05231857
101	0xbba3786c	-0.0049887206
102	0x3cd8a9dd	0.026448185
103	0xbc6d8088	-0.014495976
104	0xbdab36d9	-0.08360071
105	0x3c9d38d1	0.019192131
106	0xbda844df	-0.08216261
107	0x3c93439d	0.017976576
108	0xbc84a35c	-0.016191177
109	0xbc1578c2	-0.009123029
110	0x3d58dd2c	0.0529453
111	0xbd44652f	-0.04794806
112	0xbbbbc23b	-0.005729941
113	0xbd7120f0	-0.058869302
114	0xbd06893d	-0.032845724
115	0xbd71200e	-0.05886846
116	0xbdc78c02	-0.09743501
117	0x3d21e56e	0.03952544
118	0x3d1061fa	0.035249688
119	0xbd2d828b	-0.042360824
120	0xbd946a94	-0.07246891
121	0x3db2c3e9	0.08728773
122	0xbd8cb7e1	-0.068710096
123	0xbd9a1ae7	-0.075246625
124	0xbda3438d	-0.07971869
125	0x3c96c718	0.018405482
126	0x3c1f0031	0.0097046355
127	0x3d979cfd	0.0740299

layer3.weight f4 [9, 128]
0	0xbd97413d	-0.0738549
1	0xbd974640	-0.07386446
2	0x3dd0d794	0.10197368
3	0x3e4bb725	0.19894083
4	0xbd9de76d	-0.077101566
5	0xbdebc44f	-0.11512052
6	0x3d02a8ff	0.03189945
7	0xbdad9d30	-0.08477247
8	0x3c7c6270	0.015404329
9	0x3cd7dd97	0.02635078
10	0xbd6a5bc7	-0.057216432
11	0x3e806059	0.25073507
12	0x3e004267	0.1252533
13	0x3b217dfd	0.0024641745
14	0xbda5d601	-0.08097459
15	0xbcfe2c1e	-0.031026896
16	0x3d13c706	0.036078475
17	0x3db9907a	0.0906076
18	0xbd2f795a	-0.04284034
19	0xbdd065fc	-0.10175702
20	0xbddea23b	-0.10870787
21	0x3d6cb3a4	0.057788506
22	0xbd160457	-0.036625233
23	0x3d848349	0.06470353
24	0xbdba0fce	-0.09085046
25	0xbd459384	-0.048236385
26	0x3c97a946	0.018513333
27	0xbdb06c6a	-0.08614428
28	0xbe0ba516	-0.13637194
29	0x3d0aab60	0.033854842
30	0x3cb49ccf	0.022047428
31	0xbcb2f930	-0.021847337
32	0xbd4d30f2	-0.050095506
33	0x3cc00d80	0.023443937
34	0xbe3cc3b9	-0.18434037
35	0xbd5806c7	-0.05274084
36	0xbcdf3996	-0.027249139
37	0x3d3f2d07	0.0466738
38	0xbde46dbb	-0.11153742
39	0xbdf97323	-0.12180164
40	0xbd543cf0	-0.051815927
41	0xbd79e9c5	-0.061013956
42	0x3d70850c	0.058720633
43	0x3d415efc	0.047209725
44	0xbcf6a807	-0.030109419
45	0xbd8ae59a	-0.06782074
46	0x3ceb4179	0.028717743
47	0xbc3881e5	-0.011261438
48	0x3d24733d	0.040148962
49	0xbd810459	-0.062996574
50	0xbbefcf3e	-0.0073184064
51	0x3d784555	0.060612995
52	0xbbb0f651	-0.005400457
53	0x3dac0c7f	0.08400821
54	0xbd0ed165	-0.034867663
55	0xbc914c87	-0.017736686
56	0xbd4fc4a7	-0.05072465
57	0xbd08c48d	-0.03339057
58	0xbcc69df7	-0.024245245
59	0xbd044f46	-0.032302164
60	0x3c4d77bc	0.012540754
61	0x3daffa5f	0.08592676
62	0x3ea02a30	0.31282187
63	0xbc1ebe6b	-0.009688954
64	0x3d05c87f	0.03266191
65	0xbd907cf2	-0.070550814
66	0xbd9d7326	-0.076879784
67	0xbcd6fb93	-0.026243007
68	0x3d1418c8	0.036156446
69	0xbd0d4314	-0.0344878
70	0x3ddbc629	0.107311554
71	0xbe04c653	-0.1296628
72	0x3c334414	0.010941524
73	0x3da84006	0.082153365
74	0xbd49f044	-0.0493014
75	0xbd2500ee	-0.04028409
76	0xbcf0d0bb	-0.029396405
77	0xbd9b2ea9	-0.07577259
78	0xbd2580ff	-0.040406223
79	0xbd7cfa2b	-0.061762016
80	0xbcaae15f	-0.020859418
81	0xbe001d07	-0.12511073
82	0x3d3f3fd2	0.046691723
83	0x3b2e054c	0.002655345
84	0x3cf89a11	0.030346902
85	0x3db41f79	0.087950654
86	0xbcf506d2	-0.029910479
87	0xbd606828	-0.05478683
88	0xbd94952f	-0.07255017
89	0xbd4f7f31	-0.05065841
90	0xbd9982f4	-0.074956805
91	0x3c5fe882	0.013666274
92	0x3d55ee22	0.052229054
93	0xbcc46af0	-0.023976773
94	0xbd6fa533	-0.058507156
95	0xbe29fecb	-0.16601102
96	0xbc82baae	-0.015958156
97	0xbd53a851	-0.05167419
98	0xbd2d2db5	-0.042279918
99	0xbce39ae3	-0.027783817
100	0xbd346a59	-0.044046734
101	0xbdf12014	-0.117736965
102	0x3dcb976f	0.09940993
103	0x3d826ab1	0.06368006
104	0xbd84295c	-0.06453201
105	0xbe2c72aa	-0.16840616
106	0x3d191707	0.037375476
107	0x3d4219d3	0.04738791
108	0xbddb11b5	-0.10696737
109	0x3bef9776	0.0073117567
110	0xbe0e525e	-0.13898608
111	0xbd9063cb	-0.07050284
112	0xbe35788a	-0.17721763
113	0xbc99d417	-0.01877789
114	0x3d9278cc	0.071519464
115	0x3bb052d6	0.0053809686
116	0xbda0303e	-0.078217015
117	0x3d433546	0.047658227
118	0x3d8aab74	0.06770983
119	0x3d6eb96d	0.058282305
120	0x3da55704	0.080732375
121	0xbde8641a	-0.11347218
122	0xbd695f7c	-0.056975827
123	0x3d630468	0.055424124
124	0xbd8e9820	-0.06962609
125	0xbc2ab1dc	-0.010418382
126	0x3d646067	0.055756
127	0x3c489ed2	0.012244897
128	0xbc691802	-0.014226915
129	0x3d59c702	0.053168304
130	0x3d26b61d	0.04070102
131	0x3c275b67	0.010214663
132	0x3cbad8f7	0.022808535
133	0xbcd4b220	-0.025963843
134	0x3d6aa911	0.05729014
135	0x3d0e6c96	0.034771524
136	0x3d5bdd32	0.053677745
137	0x3db12308	0.0864926
138	0x3c9db259	0.019250082
139	0x3dffe18c	0.124941915
140	0xbdc8bbbc	-0.098014325
141	0x3b5ca319	0.003366655
142	0xbd54e35f	-0.05197465
143	0x3d5c0dbe	0.053724043
144	0xbb070fad	-0.0020608709
145	0xbd3b9bce	-0.045802884
146	0x3d02c35b	0.031924587
147	0x3dc66f9c	0.096892565
148	0xbd18cd42	-0.037305124
149	0x3d05aa0d	0.032632876
150	0xbbcf27eb	-0.0063218973
151	0xbc63c375	-0.013901581
152	0xbcb53398	-0.022119328
153	0x3d174f23	0.036940705
154	0x3b92c23c	0.004478721
155	0xbd4cd8db	-0.050011497
156	0xbd5b9291	-0.053606573
157	0xbd52951d	-0.051411737
158	0xbd3a7e0a	-0.045530356
159	0x3b958dbc	0.004564015
160	0x3d45f56f	0.048329767
161	0xbc6a697d	-0.014307377
162	0xbd268e97	-0.040663328
163	0x3d0befda	0.034164287
164	0xbd5fa9f6	-0.054605447
165	0x3c82a219	0.015946435
166	0x3d69998a	0.057031192
167	0x3c84eddb	0.0162267
168	0xbcdb218b	-0.026749393
169	0xba47887f	-0.0007611587
170	0xbd6a6f19	-0.057234857
171	0x3dfd35c1	0.12363768
172	0xb9f22e73	-0.00046192444
173	0xbd170538	-0.03687021
174	0xbd80a1c7	-0.062808566
175	0x3d08e8a2	0.03342498
176	0xbd4a8c8a	-0.049450435
177	0x3c1c14df	0.00952646
178	0xbbdc4cd3	-0.0067230253
179	0xbd8eb609	-0.06968314
180	0x3d7876fb	0.060660344
181	0x3d0ab1de	0.033861034
182	0x3be8805e	0.0070953807
183	0xbcdb0a68	-0.02673836
184	0xbddbf7a1	-0.10740591
185	0x3d14a2ea	0.03628818
186	0xbd5a9ba3	-0.053371083
187	0x3d160024	0.036621228
188	0x3d9a78d9	0.07542581
189	0xbc33e358	-0.010979496
190	0x3d5fa1ad	0.054597545
191	0x3d958ad9	0.07301874
192	0xbda82574	-0.082102686
193	0xbaecd750	-0.0018069539
194	0xbda15ca9	-0.07879002
195	0x3cba0bdc	0.022710733
196	0x3d706c4c	0.05869703
197	0xbdf265c7	-0.11835819
198	0xbd1f1665	-0.038839716
199	0x3dbc7d1f	0.092035525
200	0x3d46c410	0.048526824
201	0x3e722566	0.23647079
202	0xbd9e6919	-0.077348895
203	0x3e7f3ab3	0.24924736
204	0xbcf64b50	-0.030065209
205	0xbd7ca26d	-0.06167834
206	0xbcf209e4	-0.029545732
207	0x3cc453bf	0.023965714
208	0x3db30b2f	0.087423675
209	0xbb9181f1	-0.004440539
210	0xbea27340	-0.31728554
211	0x3ca2eb5d	0.01988762
212	0xbdb34137	-0.08752673
213	0xbd90308e	-0.07040511
214	0x3d1c95cf	0.038228806
215	0x3d6fb4e4	0.05852212
216	0xbd057a71	-0.032587472
217	0x3d4adfdc	0.049529895
218	0xbe294f49	-0.16534151
219	0xbcde4af7	-0.027135355
220	0x3d5f33e3	0.054492842
221	0x3e6a0a58	0.22855508
222	0xbd0ff53a	-0.035145976
223	0xbc9d0db2	-0.01917157
224	0x3d61187b	0.054954987
225	0x3db4ff47	0.08837753
226	0x3d881b55	0.06645838
227	0x3b84e8b0	0.004056059
228	0xbd338ee8	-0.043837458
229	0x3d277ac6	0.04088857
230	0xbd9ae104	-0.075624496
231	0xbb39ec40	-0.0028369576
232	0xbda6d0e4	-0.081453115
233	0x3c059137	0.008152298
234	0x3c51f476	0.012814632
235	0x3db27820	0.08714318
236	0x3bd574bc	0.00651416
237	0xbd08399c	-0.033258066
238	0x3d50e1a4	0.050996438
239	0x3cbb1488	0.022836939
240	0xbdc13e29	-0.09435684
241	0xbd1e8d6e	-0.038709097
242	0x3c703890	0.014661923
243	0xbd2c6fbb	-0.042098742
244	0xbd05cfeb	-0.03266899
245	0xbd397eed	-0.04528706
246	0xbd8b1317	-0.067907505
247	0xbd7c2f48	-0.06156853
248	0xbc18f764	-0.009336326
249	0x3d8e0be1	0.069358595
250	0x3d6015bb	0.054708224
251	0xbd886304	-0.06659511
252	0x3d9ae89f	0.075639
253	0x3dd71faf	0.1050409
254	0xbdb99606	-0.09061818
255	0x3da9070e	0.08253299

layer3.bias f4 [9]
0	0x3c99bd55	0.018767038
1	0x3ce31fdd	0.027725155
2	0xbd462840	-0.04837823
3	0x3a8eb96b	0.0010888999
4	0x3b17f72f	0.0023188104
5	0xbaf68ccb	-0.001881027
6	0x3d0d988d	0.034569312
7	0xbd41d2dc	-0.04732023
8	0xbbe9b1c5	-0.0071317875
