rl_energy_manager_20250325_1542/models/checkpoint_200/critic.pth (torch, 165410 bytes, 10 tensors)

layer1_1.weight f4 [128, 27]
000000 31 f7 cb 3d 92 59 f8 bc ae d5 18 3e f7 c5 af 3c
       0.099592574 -0.030316148 0.14925262 0.021456702
000010 92 06 21 be 81 db 5a bd fd 4e 1f 3e b8 df 2b be
       -0.15725163 -0.05343199 0.15557475 -0.1678456
000020 d6 79 6f bd ec 11 70 3d d4 22 1e 3e 96 31 38 3e
       -0.0584658 0.05861084 0.15442973 0.17987666
000030 67 c8 ae 3d cb 11 10 bd 62 d3 27 3e 07 52 69 bd
       0.085343175 -0.03517322 0.1638923 -0.056962993
000040 02 ff d4 3d dd c9 44 3d b0 ec f7 bd 90 b1 20 3e
       0.104002014 0.048044074 -0.121056914 0.15692735
000050 b8 7a b7 bc da db 83 3c 19 42 95 3d 03 19 10 3e
       -0.022397384 0.016096044 0.07287998 0.14072041
000060 44 fe 8b bd 17 f5 82 3d f3 e5 41 3e 42 9f 57 3e
       -0.06835607 0.063944034 0.18935375 0.21056846
000070 25 2e 3d bd 51 01 38 3d 14 9c 9d bd 52 fe 71 3d
       -0.046186585 0.04492313 -0.07695785 0.05908043
000080 6b 3f 47 be 43 cb 90 bd f1 3d a6 3c bf c3 3b be
       -0.19457786 -0.07070019 0.020293208 -0.1833639
000090 c0 33 b9 bd 25 27 9f bd d4 01 da bd b4 9a ac bd
       -0.09043074 -0.07771138 -0.1064488 -0.08427945
0000a0 f0 13 8a 3d 1f 70 65 bd 8c f6 7a 3e a9 15 54 bd
       0.06742084 -0.05601513 0.24508113 -0.05177847
0000b0 bc d2 ca bd 01 97 ab 3d f0 87 21 3e 42 1f 0f be
       -0.09903476 0.08378411 0.15774512 -0.13976768
0000c0 5f 79 1a be d2 ce 97 ba 98 06 66 bd 3f 70 bd 3d
       -0.15085362 -0.0011582023 -0.056158632 0.09249925
0000d0 16 e6 5a 3d 26 35 21 be 08 3b 83 3e 1d 37 57 bd
       0.053442083 -0.15742931 0.25630975 -0.052542794
0000e0 e0 f7 14 bd 06 41 71 3e 13 c3 1c be 97 6e dd 3d
       -0.036369205 0.2355996 -0.1530879 0.10812109
0000f0 fd 4d 0e be dd 00 4a bd 28 7f 05 bd 3f ef d9 bd
       -0.13896938 -0.04931723 -0.03259197 -0.10641336
000100 30 27 5e 3d 5b 0a 32 3e 0e 29 ba bd dc ab 5a bd
       0.05423659 0.17386763 -0.09089862 -0.053386554
000110 a9 bc df bb 3c 83 c1 3d e8 f9 1f be a2 60 23 3e
       -0.00682791 0.09448859 -0.15622675 0.15954831
000120 22 3f 9b 3d 21 f5 18 bd 3b ae 52 be ba 03 14 be
       0.07580401 -0.03734315 -0.20574276 -0.14454547
000130 92 b9 64 be 65 c6 ff bd 81 83 6d 3e 57 dc 6a be
       -0.22336414 -0.12489013 0.23194696 -0.22935615
000140 60 a4 01 3e 1e 0f 94 3d 2c 39 af 3d 87 89 1d bd
       0.1266036 0.07229446 0.085558265 -0.038461234
000150 5d eb f7 3d 1d 30 82 3d 86 d7 5a bd b3 a9 6c 3c
       0.12105439 0.06356833 -0.053428195 0.014444756
000160 c6 39 cb bb 37 80 ac 3d e7 bc 2d 3e f4 60 24 be
       -0.0062019555 0.084228925 0.16966592 -0.1605261
000170 ff 20 20 be 1e e7 94 be 7d df a0 3d 09 5c 49 be
       -0.15637587 -0.29082578 0.07855127 -0.19664015
000180 fb 19 9b be d4 10 5c bc 9f 27 82 bd 68 ab 81 3e
       -0.3029326 -0.0134317465 -0.063552134 0.25326085
000190 d0 44 5a 3d 17 82 04 3e 63 33 7d bd 38 8a 07 be
       0.05328828 0.1294025 -0.061816584 -0.1323632
0001a0 ce b0 5d be df da 7e be fe d4 5a 3c 52 6e e3 3c
       -0.21649477 -0.2488818 0.013356445 0.027762566
0001b0 b6 c2 83 3e 9d 3a 88 bc 0e 36 10 be 17 9a de 3d
       0.2573449 -0.016629511 -0.1408312 0.10869234
0001c0 78 1b 0a be f3 ec d5 bd da 97 e0 3d 16 69 eb 3d
       -0.13487041 -0.10445585 0.109664634 0.11494653
0001d0 9c 66 d5 bb b2 7c e3 3d 23 c4 0b 3e 37 3a b6 bd
       -0.006512476 0.11107768 0.13649039 -0.08897822
0001e0 d5 b9 05 bd ae 0c 6e 3e 55 15 34 bd 58 92 96 3c
       -0.032647926 0.23247024 -0.043965656 0.018380329
0001f0 77 3c 88 3d 4e 75 02 3e aa 6b 04 3e 96 48 b5 bd
       0.06652158 0.1274006 0.12931696 -0.08851735
000200 4a 13 7f 3d 4e 09 9e bc 17 e0 23 be b1 d9 c3 bd
       0.062274255 -0.019291546 -0.16003452 -0.09563006
000210 73 c5 1f bd 0d f9 59 be 52 cb 25 3d 4b 1b e8 bc
       -0.03900666 -0.21286412 0.040477104 -0.028333327
000220 30 cf a1 bd af ee 7d 3d c3 b9 33 bc 75 bd f3 3d
       -0.07900846 0.061995205 -0.010969582 0.119013704
000230 41 c9 40 3d 6a 19 47 bd 06 9a 07 3e db 1b a9 bd
       0.04706693 -0.04860822 0.13242349 -0.08257266
000240 b3 ae 27 3e 03 45 12 3c 6e bb 2e 3e 88 35 17 3e
       0.16375236 0.0089275865 0.17063686 0.14766514
000250 40 bc 6b bd a1 ff 7a bc 6f b1 a7 3c 83 28 d9 3d
       -0.057552576 -0.015319736 0.02047035 0.1060343
000260 8e 53 8c bc 8c 7c b2 bc 90 b8 b6 ba a0 76 a3 bd
       -0.017129686 -0.021787904 -0.0013940502 -0.0798161
000270 ae ff 3a 3e d2 2c 1c 3e 81 2d 07 be 9a 2a 66 3e
       0.18261597 0.15251473 -0.13200952 0.22477189
000280 e7 70 ff 3d 61 30 10 be b4 b9 e2 3d df 5d 06 be
       0.12472706 -0.14080955 0.11070576 -0.13121746
000290 fa 03 f0 bd 4c 33 47 3e 1f 5c 6d 3c aa c1 45 bd
       -0.117195085 0.19453162 0.014487295 -0.048280396
0002a0 51 ac 3f bd 30 2b 22 bd 4d ac d0 bd 46 ab a0 3d
       -0.046795193 -0.039591968 -0.10189114 0.07845168
0002b0 bc 5a c9 3d ad 17 b1 3d 96 1e b3 bc c0 3b 9a bd
       0.09831759 0.08647094 -0.02186517 -0.07530928
0002c0 e7 07 05 bd f3 1d ce 3d 63 17 9f bd 9e a6 2a 3e
       -0.03247824 0.10064306 -0.077681325 0.16665122
0002d0 00 55 7b bd bd 40 b1 bd 86 d1 ba 3c 71 c0 5b be
       -0.06136036 -0.08654926 0.022804987 -0.2146013
0002e0 78 74 64 3e 75 49 1c 3e 12 66 38 be 85 88 1f be
       0.22310054 0.15262397 -0.18007687 -0.15579422
0002f0 2d c8 44 3e 24 3a db bd 77 7a 6c bd 2f 04 8d bd
       0.19216986 -0.10704449 -0.05773398 -0.068855636
000300 e7 62 03 be e2 03 9d 3d aa 82 e0 3d 02 6f a1 3d
       -0.12830697 0.07666756 0.10962422 0.07882501
000310 7f a8 0f bc bc 8d 03 3e 72 74 10 be 28 41 48 bd
       -0.0087682 0.12847036 -0.1410692 -0.048890263
000320 97 cf af 3d 05 5c cf 3d 20 e6 d9 bc 60 cb 03 be
       0.085845165 0.10124973 -0.02659899 -0.1287055
000330 5c 4d c9 3d c1 29 08 3e 89 5a 25 be 67 ca 2c be
       0.09829208 0.13297178 -0.16147818 -0.16874085
000340 2e 5b e6 bd 3c ae 13 bc 65 eb f3 3b fe 8f 42 be
       -0.1124786 -0.009013709 0.0074438327 -0.19000241
000350 32 b8 0d be 64 43 c2 bd e8 8f 22 3d 96 af d8 bd
       -0.13839796 -0.0948551 0.03968802 -0.10580365
000360 13 ea 0f 3e e7 29 19 3e 3f b2 05 be cc 28 1b 3e
       0.14054136 0.1495739 -0.13056277 0.15152282
000370 14 b0 2a 3d a3 29 2e be af 49 0a be 08 ce 05 3e
       0.041671827 -0.1700807 -0.1350467 0.13066876
000380 44 ed d3 bc 37 f1 09 be f0 8e 18 3e 56 5f 40 be
       -0.025869973 -0.13470922 0.14898276 -0.18786368
000390 74 f9 c3 bd 83 3b 30 3c d2 0f a5 3d e9 08 8b 3d
       -0.09569064 0.010756376 0.08059658 0.06788809
0003a0 98 4b 01 3e 95 08 6e 3e 72 9d 87 be ba 68 d9 3c
       0.12626493 0.23245461 -0.2648731 0.026539195
0003b0 10 6d 55 3c d2 10 9f bc 24 de 65 3e b0 30 7f bd
       0.013026491 -0.0194172 0.22448021 -0.06230229
0003c0 84 4d a6 3d 6a d3 22 3e f3 98 0d 3e 15 ac dd 3d
       0.08120254 0.1590096 0.13827877 0.10823838
0003d0 fb 0c 32 3e b5 50 2c 3e da f0 9c bd 23 62 19 be
       0.17387764 0.16827662 -0.07663126 -0.14978842
0003e0 ab 87 92 3c b5 b0 36 3e 66 d8 36 3e d5 4c 33 3e
       0.017886957 0.17840846 0.17855987 0.17509778
0003f0 26 d8 ec 3d eb 57 ef 3c 66 b6 35 3e c6 3d 24 3e
       0.115646645 0.029216727 0.1774536 0.1603919

layer1_1.bias f4 [128]
000000 fa aa b5 3e 1f a9 82 3e 2d 9d 05 bd 4d b9 d3 3d
       0.35482007 0.25519654 -0.032620598 0.10338078
000010 8b cf 3f 3e 50 de b9 3e 7a 8d 2e 3e 81 09 4b be
       0.18731515 0.36302423 0.17046157 -0.19827844
000020 ab 5e 29 be 04 25 0c 3d 5a c1 ba 3e bb 04 ae 3e
       -0.16540019 0.03421499 0.3647564 0.33987984
000030 fa 85 3f bc eb fb c8 3e c2 c0 8e 3e cb 54 b4 3e
       -0.011689657 0.39254698 0.27881438 0.35220942
000040 98 4c 86 3e 5c 07 b4 bd 73 f8 4c bc d2 af 8c 3d
       0.2623031 -0.08790466 -0.012510407 0.068694726
000050 f4 79 94 3e 1a c5 a6 3e 8a 77 c9 3d d8 3b 90 3b
       0.28999293 0.32572252 0.098372534 0.004401665
000060 38 c7 83 3e c3 4b ab 3e 1b 4f 55 3e 81 ee 9a 3e
       0.2573793 0.3345624 0.20830958 0.3026009
000070 71 04 b5 3e e3 06 66 3e e4 fa 0c bd b8 92 50 3b
       0.3535495 0.22463565 -0.034418955 0.0031825732
000080 ff 8f 53 3e 45 d6 93 3e 57 3c 68 3e 6a 9e 11 3e
       0.20660399 0.28874412 0.22679268 0.14220586
000090 7e 23 50 3e 99 52 6e bd 52 d9 a8 3e 11 ae 27 3d
       0.20326039 -0.05818424 0.32978302 0.040937487
0000a0 d7 9b 81 3e 1c 38 9f 3e 2e 1f a3 bd 48 7c 8d 3e
       0.2531421 0.31097496 -0.079649314 0.27633882
0000b0 b9 67 17 3e 09 fc 12 3e 98 71 83 3e da a8 5b bc
       0.14785661 0.14353956 0.25672603 -0.013406957
0000c0 6e 87 a9 3e 2d e8 b9 3e 7c 36 8c 3e 7a ec 33 3d
       0.33111137 0.3630995 0.27385318 0.043926693
0000d0 9b 0a 8c 3e 02 f6 69 3e 85 e5 95 3e bd 93 71 bd
       0.2735184 0.22847751 0.29276672 -0.058978785
0000e0 b6 9e a7 bd a0 7f 8f 3e 2d 62 46 3e 99 e1 72 3e
       -0.081845686 0.28027058 0.19373389 0.23718871
0000f0 88 3a bd 3e ff 55 8d bc a4 dc be 3e 2d 62 b1 bd
       0.36958718 -0.01725292 0.3727771 -0.08661304
000100 4d 9c 9d 3e 95 3a 37 3e f6 4f 2f 3e 81 76 78 3d
       0.3078331 0.17893441 0.17120346 0.06065989
000110 31 86 9a 3e 1f df 20 3e c2 ae 3e 3e d5 49 a3 3e
       0.30180505 0.15710114 0.18621352 0.31892267
000120 73 ed 81 3e 6b 27 67 3e 74 31 a8 3e 58 89 b2 3e
       0.25376472 0.2257363 0.3285023 0.3487041
000130 f2 9d a8 3e 80 27 3f bd d7 25 b7 3e b7 79 9a 3e
       0.32933003 -0.04666853 0.35771057 0.30170986
000140 f3 2a 63 bd f8 7f 17 3e 45 dd b7 3e 0f cd a8 3e
       -0.05546088 0.1479491 0.35911003 0.32968947
000150 f8 a3 ae 3e f0 bf 33 3e 59 a8 7a 3e 36 3b 4f 3d
       0.34109473 0.17553687 0.24478282 0.050593577
000160 09 b7 0c 3e cb c8 8d 3e d7 af fb 3d f0 72 be bd
       0.13741697 0.27692255 0.12289398 -0.09299266
000170 eb cf ea 3c 79 39 6d 3e 26 66 60 3e 0c 9f a6 3e
       0.028663596 0.23166455 0.21913967 0.32543218
000180 68 f2 13 3e 20 fa 85 3e 5a 22 4d 3b 8c 9f 30 3e
       0.1444794 0.26167393 0.0031300993 0.17248362
000190 8f b4 6d 3e be e7 71 3e 2c 8f d0 3e 16 4f 18 3e
       0.23213409 0.23623559 0.4073423 0.14873919
0001a0 5d d5 81 3e 87 ba c9 3e 74 b4 7d 3e ac ae 8c 3e
       0.25358096 0.39400122 0.24775869 0.27477014
0001b0 8d a0 39 3d 8e bf 30 bb a8 f2 be 3e a7 96 9f 3e
       0.04531913 -0.0026969644 0.37294507 0.31169626
0001c0 09 75 b2 3d 8e 71 84 3e 84 0c 85 3e 73 3b 8c 3e
       0.08713729 0.25867885 0.2598611 0.27389106
0001d0 47 11 e0 3d da 02 8f bd 3e 95 9d 3e 10 7e 3e 3c
       0.109407954 -0.06982966 0.30777925 0.011626735
0001e0 c3 ad 62 3e 87 f7 3e 3e 56 ca bd bd 87 42 05 3e
       0.22136597 0.18649112 -0.09267108 0.1301366
0001f0 a0 49 a3 3c 62 b6 a3 3e 97 12 85 3e a6 38 ac 3e
       0.019932568 0.31975085 0.25990745 0.3363697

layer2_1.weight f4 [128, 128]
000000 0f 6a 88 3c 0b 7d 3d 3c 4c 2d a2 bd 0f 65 1b bd
       0.016652135 0.011565457 -0.07918796 -0.037938174
000010 8b fe e9 bc fc 7d 18 3d fc 39 90 bd c8 3a 36 3c
       -0.028563758 0.037229523 -0.0704231 0.011122413
000020 e3 c6 7a bd dc a1 89 bd a9 bb 62 bd ab c8 9a bd
       -0.06122483 -0.06720325 -0.055354748 -0.07557806
000030 4b 99 8c bd b0 74 25 bb 61 d9 ac bd c8 23 1e bd
       -0.06865176 -0.0025246553 -0.08439899 -0.038608342
000040 8f 14 88 bd 87 74 a3 3d 3f 73 86 3d ce 3e 72 3d
       -0.06644546 0.0798121 0.0656495 0.059141926
000050 29 5e 34 bd 4c 42 8f 3d 50 26 d7 3c a4 dc 26 bd
       -0.04403511 0.06995067 0.026263386 -0.040737763
000060 f7 32 96 3d cd b8 86 bd 62 43 a1 bd ac 6b 8f 3d
       0.073339395 -0.06578217 -0.078741804 0.07002959
000070 36 25 88 3d cc 5b 10 bd 80 28 be bc b6 36 39 3d
       0.066477224 -0.035243794 -0.023212671 0.045218192
000080 44 5b ae bd c5 3e 95 3d 8a ed a6 3d 0b ae 8d 3d
       -0.08513501 0.07287363 0.08150776 0.06917962
000090 70 9d 82 bc 4a 6b 22 3d c0 5a 66 bd d7 7d 2f bd
       -0.015944213 0.0396531 -0.05623889 -0.04284462
0000a0 85 83 8b bc 65 b4 73 3c ea db b1 bd 60 c2 25 3a
       -0.017030487 0.014874552 -0.086845234 0.00063232146
0000b0 b6 60 87 bd c7 ec 59 bd f9 4b af 3c 32 2a 33 3d
       -0.06610243 -0.053204324 0.021398531 0.043741412
0000c0 6d 59 91 bc 20 b4 fd bb 02 42 95 3d c2 fd 17 3d
       -0.017742837 -0.00774242 0.072879806 0.037107237
0000d0 37 9e 31 bd 44 8e 78 3d 89 9e a2 bd b2 fc 18 3d
       -0.043363776 0.06068255 -0.079403944 0.037350364
0000e0 02 07 1b 3d aa 77 a2 bd 60 43 32 3b 6a 24 a5 bd
       0.03784848 -0.0793298 0.0027200803 -0.08063586
0000f0 e9 45 8f bd 17 01 a5 3d 50 cd fb 3c 78 62 cd 3c
       -0.06995756 0.080568485 0.030737549 0.025071368
000100 20 57 8f 3d 78 d1 86 3c 90 1d 98 bc 4f ff 20 bd
       0.0699904 0.016457304 -0.018568784 -0.03930598
000110 9e 24 3d 3d 41 30 35 3d 5b 2f a1 bd 34 2f 54 3d
       0.0461775 0.04423547 -0.078703605 0.05180283
000120 aa e0 9e bd ed d0 92 3d 9a b5 fd bc dc 32 ce 3c
       -0.07757695 0.07168756 -0.030970383 0.025170736
000130 d2 ce 2e 3d 90 63 83 3c e6 e8 06 bd c4 1e a7 3d
       0.042677708 0.016038686 -0.032936953 0.08160165
000140 13 51 81 3d 6e ed 44 3d f1 b0 82 bd 39 98 b5 3b
       0.06314292 0.048077993 -0.06381405 0.005541828
000150 33 fe 97 3d ec 07 48 bd 78 ff f0 3c 78 bd 72 3c
       0.074215315 -0.04883568 0.029418692 0.014815681
000160 90 8c b4 bd d4 4d 54 3d 00 76 7e 3b 80 4e 8e bc
       -0.08815873 0.051832035 0.0038827658 -0.017371416
000170 af 56 4c 3d 3d 11 1b bd bb 91 08 3d 58 6f 00 3d
       0.049887355 -0.037858237 0.033342104 0.031356186
000180 22 8f b0 bd e7 1a a3 bc a0 dd e8 3b 51 fa e1 bc
       -0.086210504 -0.019910289 0.007106498 -0.02758518
000190 c1 0f 87 3d 64 9f 05 bd 1a 1c 5e 3d 79 c5 db 3c
       0.06594802 -0.03262271 0.05422602 0.02682756
0001a0 60 03 88 bd 38 c5 b3 bd 1b 8e 02 3d b3 c5 db b9
       -0.06641269 -0.08777851 0.031873804 -0.00041918232
0001b0 a4 c9 08 bd 54 91 bb bd 54 bd a1 bd e8 9f 62 bd
       -0.033395424 -0.091585785 -0.078974396 -0.05532828
0001c0 86 04 b3 bc 8c eb 9b 3d ec 1b a4 bd 19 01 e2 bc
       -0.021852743 0.076132864 -0.08013138 -0.027588414
0001d0 7a 89 5e 3d e1 df 7c bd fa c0 77 3d 27 8e 46 bc
       0.054330327 -0.061736945 0.06048677 -0.012118853
0001e0 89 d2 b0 bb 36 0b a2 bd 85 24 b3 bd d4 ce 0d bb
       -0.0053961915 -0.079122946 -0.087472 -0.0021638172
0001f0 22 e3 1c bd 32 b9 a1 bd 97 a6 4a bd bf 38 50 3d
       -0.03830255 -0.07896651 -0.04947528 0.050835367
000200 a7 23 33 3e d3 5b 91 3d 34 04 a1 3b 4b 4b 9c 3c
       0.17494069 0.07097592 0.004913831 0.019078871
000210 ff 62 86 3d fb 42 62 3e 5c 6d 16 3e 6d 80 85 3d
       0.06561851 0.22095864 0.14690155 0.06518636
000220 05 46 24 be 89 85 eb 3d bc c9 1b 3e 1b d2 56 3d
       -0.16042335 0.11500079 0.15213674 0.052446466
000230 1c 04 01 3d c6 16 a1 3d a8 d1 45 3e 2e 24 ef 3d
       0.03149806 0.07865672 0.19318259 0.116768226
000240 54 c4 9f 3e d7 cc 57 bd 66 b2 93 3c b4 1e d9 3d
       0.31204474 -0.052685585 0.018029403 0.10601559
000250 dc 41 45 3e 9c f9 99 3e 6d 40 7a 3d b3 8e 61 3d
       0.19263405 0.3007325 0.061096597 0.05506773
000260 3c 9a 1c 3e 74 1a a5 3d 28 d4 d3 3d 54 46 50 3e
       0.1529321 0.08061686 0.103432 0.20339328
000270 5b a3 3a 3d 39 f7 75 3d 56 41 f8 3c c2 b6 6d bc
       0.045565944 0.060050223 0.030304592 -0.014508905
000280 40 79 54 3e 0f 53 04 3d 69 a9 6f 3e b2 06 1f 3e
       0.20749378 0.032305773 0.23404469 0.15529898
000290 ee 7e 1e 3e 63 70 5c bd 9e f7 3d 3e a0 44 65 3d
       0.15478107 -0.053818118 0.1855149 0.05597365
0002a0 82 c0 3f 3e 73 04 2b 3e 1f 89 dc 3d 3f a5 0f 3e
       0.1872578 0.16700916 0.10768341 0.1402788
0002b0 79 68 ea 3d 0e 97 1a 3e a0 fc 1c 3e 36 2b 6a 3d
       0.11445708 0.15096685 0.15330744 0.057170115
0002c0 85 7f af 3e f1 29 ab 3e 6a 3a 9a 3d 06 34 2c 3e
       0.34276977 0.33430436 0.07530673 0.1681672
0002d0 3c b3 bb 3d e9 ca a3 3d 64 69 87 3d 71 9c 04 be
       0.091650456 0.079976864 0.066118985 -0.12950303
0002e0 e3 b9 b4 3d 31 f7 a1 3d f9 27 12 3e c9 35 ef 3d
       0.088245176 0.07908476 0.14273061 0.116801806
0002f0 87 a0 ea 3e 68 30 ff 3d 18 fb 89 3e fd 33 ac 3d
       0.45825598 0.12460405 0.26949382 0.084083535
000300 52 30 d7 3d c7 29 4c 3e a8 88 f0 3d e4 24 da 3d
       0.10507263 0.19937812 0.11744815 0.106515676
000310 ff 00 36 3e b0 0b a2 3d 2e 5b 32 3e 7f a2 50 3e
       0.17773817 0.079123855 0.17417595 0.20374487
000320 b8 07 58 3e 8e 7f 23 3e dc b3 cc 3d e7 a8 70 3e
       0.21096694 0.15966627 0.09995243 0.23501931
000330 e4 1c d1 3e c7 e2 7b 3c 7e b2 5a 3e 67 e6 1a 3e
       0.40842354 0.015373892 0.21357152 0.15126954
000340 e9 c3 98 3d c6 4c ce 3d 18 75 5b 3d de 54 0c 3e
       0.07459242 0.10073237 0.053578466 0.1370425
000350 ef 91 03 3e fb b5 50 3e a4 82 d5 3d 47 f7 75 3d
       0.12848638 0.2038192 0.10425308 0.060050275
000360 53 2b 93 3d f5 86 56 3e 2b ad 6f 3c 0d 74 87 bd
       0.07185998 0.2094992 0.014628689 -0.06613932
000370 d3 d3 dc 3c 89 7b 68 3d c2 b5 97 3e 8c 80 44 3e
       0.026956474 0.056758437 0.29630858 0.19189662
000380 dc 8c 54 3e fc ce 83 3e ba 6a 92 bc 76 5f 91 3d
       0.20756859 0.25743854 -0.017873157 0.07098286
000390 47 e1 28 3e d0 66 1b 3e dc fa ee 3e 77 e8 44 3e
       0.16492186 0.15175939 0.46675766 0.19229303
0003a0 b3 e1 0b 3e 30 2d 6e 3e ab 8c 58 3e 2c a6 22 3e
       0.13660316 0.23259425 0.2114741 0.15883702
0003b0 f5 c9 0c 3e a9 ca b4 3d 21 f4 99 3d ea 1f 63 3d
       0.13748915 0.08827717 0.07517267 0.055450357
0003c0 cf da 42 3d 7d 63 10 3e cb a4 68 3e cc 3d ac 3d
       0.047571953 0.14100452 0.22719114 0.08410224
0003d0 84 c6 01 3e 17 40 34 bd b8 2f 0f 3e 63 b0 0b 3e
       0.12673384 -0.044006433 0.13983047 0.13641505
0003e0 60 3b b8 3d 43 a5 2b 3e 6e 53 d0 3c 30 02 7a 3d
       0.089957 0.16762261 0.025430407 0.061037242
0003f0 8b 58 81 3d 72 03 40 3e 1c 1e 45 3e 3b dc 60 3e
       0.06315716 0.18751314 0.19249767 0.21959011

layer2_1.bias f4 [128]
000000 ae a6 fb bc 15 60 4b 3e 8c b5 6f bc 19 5f 75 3d
       -0.030719128 0.19860871 -0.0146306865 0.059905145
000010 9a 5c 81 3d b1 73 9a 3c 41 cf b1 bd 04 9a 8a 3e
       0.063164905 0.018853994 -0.08682109 0.2707063
000020 26 41 2b 3d d6 c1 c7 3c 0b 09 df 3d 2c c2 d9 3e
       0.041810177 0.02438442 0.10890397 0.42530954
000030 92 03 3b 3d c1 5c 8f 3d 74 4e 3c 3d df d1 a7 3e
       0.0456577 0.07000113 0.045973256 0.32777306
000040 ab cd 7e 3d e3 7f 08 3e 75 ea 27 bd 15 0c 62 be
       0.06220786 0.13330035 -0.04099508 -0.22074921
000050 61 54 ea bc aa d2 36 3e 8e 83 3e bc 67 e1 22 3e
       -0.028604688 0.178538 -0.011628045 0.15906297
000060 ad 8e 2a 3e 69 29 cb bb 10 2a 17 3e 58 c5 93 3d
       0.16655989 -0.006200005 0.1476214 0.07215375
000070 9b 3f 52 3d 4a 8b 27 3e ef c2 a2 bd b6 b8 cc 3c
       0.05133019 0.16361728 -0.07947337 0.02499042
000080 e0 15 8b 3d 99 09 5b 3c 2e 2e 59 be ce 74 7d 3d
       0.06791282 0.0133689875 -0.21209022 0.06187897
000090 68 b4 c7 3c 31 8f c6 3b f9 16 aa b9 cc c4 1a 3e
       0.024378017 0.00605955 -0.00032442043 0.15114135
0000a0 76 c1 1d bd 22 37 cc 3c a3 49 98 3d 6a 29 c2 bd
       -0.038514577 0.024928633 0.0743592 -0.09480555
0000b0 52 97 c4 bd 5f 0f 31 3e 25 7b 2b 3e d4 ce 29 3e
       -0.095991746 0.1729102 0.16746195 0.16582805
0000c0 b3 fd ad 3c 7c b4 25 3d 28 b7 ff 3c 33 5f a7 3d
       0.021239137 0.040455326 0.031215265 0.08172455
0000d0 55 99 e2 3d 34 5e 77 bc a6 33 9a bd 92 db fb 3d
       0.11064402 -0.015098143 -0.075293824 0.12297739
0000e0 d9 8c d5 3d c4 52 17 bd 3e bf 1c 3d fe 95 01 3c
       0.10427255 -0.036944166 0.03826832 0.007909296
0000f0 37 8c b8 3e c4 d7 49 be e4 e4 cf 3d 34 f7 a9 3d
       0.36044475 -0.19711214 0.10151079 0.082991034
000100 38 ec 90 3d 5a b7 27 3e 7c 3c 20 3e b8 5b 65 bc
       0.07076305 0.16378537 0.15648073 -0.013998918
000110 92 c9 80 bd 0b 81 13 3e 74 24 4e bd 89 0e db 3c
       -0.062884465 0.14404695 -0.050327733 0.02674033
000120 9f 8f 5a 3e 27 a0 38 3e f4 d3 a3 bd bf 29 35 3e
       0.2134385 0.18029843 -0.07999411 0.17691706
000130 9c 9b 45 3d 4e c5 e0 3d cf 62 47 3c 1f 2c 75 3d
       0.048244104 0.10975133 0.012169554 0.05985653
000140 42 84 13 3e 5c 36 4c 3d be 07 38 3e 45 a9 1c 3e
       0.14405921 0.04985653 0.17971703 0.15298946
000150 79 9e ba 3d 7a 8d f2 3d 89 cb fd 3d 08 8a 2e 3e
       0.091122575 0.11843391 0.12392337 0.17044842
000160 3e 75 3c 3d f9 3e 0b 3e 5b ce 3e 3e 8f 2d 19 3e
       0.04601025 0.13598241 0.18633406 0.14958785
000170 b0 9c 29 3d df 7e d4 bc 75 e7 1b bd d2 ae 43 bc
       0.041409194 -0.025939403 -0.03806253 -0.011943536
000180 8b 12 d0 3d a4 bc ab bd 94 be f8 3d ec 1d 8b 3d
       0.10159787 -0.0838559 0.12145725 0.067928165
000190 41 56 d9 3c c7 b6 61 bd 7a fd a1 3c bc 9c 7b be
       0.026530387 -0.05510595 0.019774187 -0.24571508
0001a0 5c e8 8a 3d ae ad 93 bb bd 94 50 3d 22 44 ac 3d
       0.067826 -0.004506788 0.050923098 0.08411433
0001b0 4e c6 3e 3d cf ca 2f bd 04 90 08 be 95 99 d9 3d
       0.046575837 -0.042918023 -0.13336188 0.106249966
0001c0 f3 b5 39 3e 2a 26 f8 3d f4 1d 30 3e 1e 97 14 3c
       0.18135814 0.12116654 0.17198926 0.009069232
0001d0 6a 5f 77 3d 39 4d 95 3d e3 6b b5 bd 78 ba 92 3d
       0.06039373 0.0729012 -0.088584684 0.07164472
0001e0 c0 48 27 bd ba 99 75 3e b4 e8 a5 bd e0 fd d9 3d
       -0.040840864 0.23984423 -0.08101025 0.10644126
0001f0 ec 65 24 3d 48 c4 89 bd 78 d1 0f 3e 2d 26 82 3d
       0.040136263 -0.06726891 0.1404475 0.06354938

layer3_1.weight f4 [1, 128]
000000 02 d6 34 3b de cd 1c be 38 fa 87 3d 50 19 da 3d
       0.002759338 -0.15312907 0.06639522 0.10649359
000010 31 ea 4b be bd ad 99 3d c0 35 01 3d 8d 49 00 bf
       -0.19913556 0.07503841 0.0315454 -0.5011223
000020 2f 13 4a 3d 9b 63 25 be f5 2c 52 be 39 18 cd be
       0.0493347 -0.16151278 -0.20524962 -0.40057543
000030 6f d9 83 be 0f fe e2 3c fd d7 3d be 69 ea f2 be
       -0.25751826 0.027709035 -0.18539424 -0.47444466
000040 82 27 71 be 5b 9a b0 be 1b 88 8a 3d e8 11 e2 3e
       -0.23550227 -0.34492764 0.06764241 0.44154286
000050 71 38 28 3c 8a 61 25 be 43 02 2b 3d c3 1e 31 be
       0.010267363 -0.1615049 0.041750204 -0.17296891
000060 8c 34 36 be 35 64 0f 3d b4 a5 43 be 5c aa 46 3d
       -0.17793483 0.035007674 -0.1910618 0.04850231
000070 49 f0 ce 3c eb 8c 3d be 3c 1c 9a bc eb 12 5e be
       0.025261061 -0.18510787 -0.018812291 -0.21686904
000080 8d 77 5f be a4 05 87 3c ab 66 ff 3e 71 df 2f be
       -0.21822949 0.016482182 0.49883017 -0.1717508
000090 2c 58 9d 3d 97 0c 5f 3c 7a 27 8b 3d 38 7e 37 be
       0.07682833 0.0136138415 0.06794639 -0.17919242
0000a0 2a f6 28 3d 8a 05 f2 3c f2 5e 84 be cd 64 17 3e
       0.041250385 0.029543657 -0.25853688 0.14784546
0000b0 f6 f5 a2 3e 5d 9e 33 be b5 99 21 be 4f 6c 1b be
       0.31828278 -0.1754088 -0.15781291 -0.15178035
0000c0 f3 f6 31 be f7 5d a0 3d 28 56 77 be 89 70 5c be
       -0.1737936 0.07830422 -0.2415396 -0.21527304
0000d0 98 c9 24 be 70 da 60 3d 79 e1 23 3b 81 6a 27 be
       -0.16092527 0.05489582 0.0025006218 -0.16349222
0000e0 f6 23 5e be ec ef 8d 3c 62 18 19 3d 7a c0 5e 3d
       -0.21693406 0.017326318 0.03737677 0.05438278
0000f0 29 53 f4 be f0 86 01 3f fc 50 1e be 9b 69 31 be
       -0.47719696 0.50596523 -0.1546058 -0.17325442
000100 f2 3d 68 be e7 44 62 be b7 4e 3b be 1e 6c 14 bd
       -0.2267988 -0.22096597 -0.18291746 -0.03623592
000110 b9 c9 ab bd 53 5f 1c be 64 4e 08 3c cc dd 75 be
       -0.08388085 -0.15270738 0.008319471 -0.2401039
000120 a7 23 1d be 73 f0 9d be 7a 99 75 3d 27 4b 19 be
       -0.15345632 -0.3084751 0.05996082 -0.14970075
000130 b1 66 65 be 61 a8 43 be 96 35 fb 3c b1 76 56 3d
       -0.22402455 -0.191072 0.0306652 0.052359287
000140 31 e3 42 be 53 52 6c 3c 46 84 19 be 0b 99 1c be
       -0.19031979 0.0144239245 -0.14991865 -0.15292756
000150 c7 70 5c be 32 8f 52 be a2 3e 1e be 7e a6 9a be
       -0.21527396 -0.20562437 -0.1545358 -0.30205148
000160 bd 62 27 3d 0c 36 22 be 31 97 10 be 92 61 19 be
       0.04086565 -0.1584093 -0.14120175 -0.14978626
000170 97 68 8c 3d 60 66 7f 3c b9 5e 8a 3d 82 de 57 3d
       0.068558864 0.015588373 0.06756348 0.052702434
000180 f7 da 3b be 0e 06 53 3d 70 cc 1f be 4a ce 4c be
       -0.18345247 0.051519446 -0.1560533 -0.20000568
000190 c0 b8 70 be 6f 71 95 3d fd 47 01 3d 16 58 f1 3e
       -0.23507977 0.07297026 0.031562794 0.47137517
0001a0 4e 80 5e be dd a3 dd 3c f3 08 30 be 25 5a 37 be
       -0.21728632 0.027055675 -0.17190914 -0.17905481
0001b0 e1 c3 5f be a1 c7 50 3d a7 14 b5 3e 71 86 49 be
       -0.21852066 0.05097163 0.3536732 -0.19680192
0001c0 8b 1f 1d be 07 8b 40 be 7b 99 3b be f1 c2 8d 3d
       -0.15344064 -0.18803035 -0.18320267 0.06921948
0001d0 30 07 df 3c 5f ec 35 3d 67 ee 23 3d af d3 18 be
       0.027225107 0.044414874 0.04002228 -0.14924501
0001e0 68 f6 3c 3d 39 df 32 be 67 a0 84 3d 04 82 54 be
       0.04613343 -0.17467965 0.06475907 -0.20752722
0001f0 74 f6 6c be fd 8b b8 3b 69 8d 36 be f2 5a 2f be
       -0.2314089 0.0056319223 -0.17827381 -0.17124537

layer1_2.weight f4 [128, 27]
000000 6b 1f dc 3d a4 be 06 be 5c f1 98 bd de b7 52 3e
       0.1074818 -0.13158661 -0.07467911 0.20577952
000010 71 51 3e 3e b0 c8 21 be 56 ef f0 3d 84 1c 3b 3d
       0.18585755 -0.15799212 0.117644 0.04568149
000020 17 9b ba bd 60 8e f5 3c 93 83 21 3e be 21 15 3e
       -0.09111612 0.029975116 0.15772848 0.14563653
000030 19 3d 02 3d a0 f7 97 bd 2b d9 57 3e 1d 54 45 3e
       0.03179655 -0.074202776 0.21078937 0.19270368
000040 b0 a7 bc 3c 08 1d 7a 3d 2d de 8e bd 24 58 e8 bd
       0.023029178 0.061062843 -0.069759704 -0.113449365
000050 98 bf 16 be 12 91 56 3c e2 02 8d 3d 02 d9 19 3e
       -0.14721525 0.013096111 0.068853155 0.15024188
000060 e0 b7 2c be 41 8f 04 bd dd 39 69 be 60 3d 51 3b
       -0.16867018 -0.03236318 -0.2277598 0.0031927451
000070 ab c0 c0 3d b2 78 db bd c7 77 8a 3d e7 26 05 3e
       0.094117485 -0.1071638 0.06761127 0.13003121
000080 73 c7 08 3e 80 11 96 bd 88 4c ae 3d 83 c8 c5 bd
       0.13357334 -0.073275566 0.08510691 -0.09657385
000090 67 a9 03 be 5c fc be bd 89 82 dd 3d be 13 68 3e
       -0.1285759 -0.093254775 0.10815913 0.22663781
0000a0 9f 3a c8 3d 69 f3 0c be 8f 10 39 3d f8 58 26 be
       0.09776806 -0.13764729 0.045181807 -0.16244876
0000b0 b9 eb a0 3d 2d bc 46 be 85 a6 8f 3d 28 c4 3d 3d
       0.078574605 -0.19407721 0.07014183 0.046329647
0000c0 80 8d 78 be c3 29 01 be 06 4a 62 be a6 10 01 3e
       -0.24272728 -0.12613587 -0.2209855 0.12604007
0000d0 bd 2c 78 bd 8f 6c ce bc 6b 3a ea 3d a1 e9 bf 3d
       -0.06058954 -0.02519825 0.114369236 0.09370733
0000e0 86 37 29 3e 81 b3 d4 bd df 71 39 bd 47 9f 60 3e
       0.16525087 -0.103858 -0.04527461 0.2193576
0000f0 4f 9a fe 3d a4 4a c4 3d e9 75 40 3e 64 66 6e 3d
       0.12431776 0.09584549 0.18794979 0.058203116
000100 37 61 26 3e a5 c5 5f 3e 18 ae b0 3d 88 e5 42 bd
       0.16248022 0.21852739 0.08626956 -0.04758218
000110 a9 1b 02 be 09 26 07 3d 1c 9d 11 be 38 7f fa bd
       -0.12705864 0.032995258 -0.14220089 -0.12231296
000120 24 e2 3c 3e f6 f0 80 3e df 8d a1 3d 96 3f 34 3e
       0.18445641 0.2518384 0.07888388 0.17602381
000130 98 cf 3c 3e 4c 10 5d 3e 7d 25 94 3d b3 05 d0 3d
       0.18438566 0.21588248 0.07233713 0.10157337
000140 96 84 47 3e d7 71 50 3d a0 21 c7 bc c3 84 a8 bd
       0.19484171 0.050889816 -0.024308026 -0.08228447
000150 05 64 57 bc 32 bd 3a bd 74 a0 18 be 9f 3d f3 bd
       -0.013146405 -0.045590587 -0.14904958 -0.11876988
000160 6b 87 a2 bd e2 09 07 3e c0 b4 81 bd 75 e3 36 3e
       -0.07935985 0.13187364 -0.063333035 0.17860205
000170 ba 30 f4 bd 94 c1 93 3d 88 17 27 3e 33 28 81 3d
       -0.11923356 0.072146565 0.1631757 0.063064955
000180 fc bb 3d 3d ea 08 11 3e 6f 5c 12 3d 9d 4b 3f be
       0.046321854 0.14163557 0.035732683 -0.18681188
000190 23 15 77 3e a2 75 0c be b1 03 55 be d5 37 8f bd
       0.24129157 -0.13716748 -0.2080219 -0.06993071
0001a0 40 53 2a be 2d 85 d9 3c 72 1b 1e 3d dc c2 38 bd
       -0.1663332 0.026552761 0.038600393 -0.045107707
0001b0 06 58 c5 3d 5a d4 21 be 12 7f 40 bd 41 49 85 3d
       0.0963593 -0.15803662 -0.046996184 0.06508113
0001c0 69 a3 b7 3d a6 84 43 3d 40 ea 15 be 47 8f 55 3e
       0.08966715 0.047733925 -0.1464014 0.20855437
0001d0 61 16 31 be 35 37 39 3e 32 21 4c be 17 8d 38 be
       -0.17293693 0.18087466 -0.19934538 -0.18022572
0001e0 a1 20 0c be d6 d3 09 3e 5b f4 e1 bd 54 d4 91 3c
       -0.13684322 0.13459715 -0.11032935 0.017801441
0001f0 51 9f 9e bd 14 cf 24 be 5d 82 46 3d d5 9b 11 be
       -0.07745231 -0.16094619 0.048464168 -0.14219601
000200 8d b7 99 3c 3c c4 c8 3d 5f d1 23 be bc ce 8d 3c
       0.018764282 0.09803054 -0.15997837 0.017310493
000210 4c e4 08 be 0e 51 84 3c 00 8d 3c 3e 3d 95 d9 3d
       -0.13368338 0.016151931 0.18413162 0.10624168
000220 ff f7 39 3b 32 35 2b be b0 3d 55 bc 77 01 ff bc
       0.0028376577 -0.16719511 -0.013015196 -0.031128628
000230 bb b7 a3 3d a3 05 f0 bd 4b b3 af 3d 49 d8 26 3e
       0.07994028 -0.11719825 0.08579119 0.16293444
000240 97 72 d4 bd 18 d3 45 3e 7c 79 9e bd 50 6c 75 3e
       -0.10373419 0.19318807 -0.07738015 0.23967099
000250 09 24 4a 3e cb b9 2c 3e 3d 78 6d 3e 7b 7f 9f 3d
       0.19740309 0.1686775 0.23190399 0.07787987
000260 c5 a8 c2 bd 71 d1 fe 3c 82 b6 7e 3e 3f 59 19 3e
       -0.095048465 0.031105729 0.24874309 0.14975451
000270 4c 82 41 3d 97 52 54 be 2c 8b 82 3c 00 e0 8f 3c
       0.0472434 -0.2073463 0.015935503 0.017562866
000280 5a fb 32 3e 17 a4 23 be 7e 03 a3 bd 93 15 71 bd
       0.17478696 -0.15980564 -0.079596505 -0.058858465
000290 23 fd b1 bd c4 ef 71 3d 21 a6 88 3c f1 7f d9 3b
       -0.0869086 0.05906655 0.016680779 0.0066375663
0002a0 e8 18 1c 3e 6b ca 4e bd 2c 02 c4 3d 10 13 de 3c
       0.15243876 -0.05048601 0.09570727 0.0271087
0002b0 ee 51 98 bd f7 b5 80 3e 7c 38 a1 3e 49 87 9d bb
       -0.07437502 0.25138828 0.31488407 -0.004807387
0002c0 45 82 0b 3e 80 bd 30 3e 9d 2f 24 bc ab 9c 12 3e
       0.13623913 0.17259789 -0.0100211175 0.14317577
0002d0 12 7c 8f 3d 47 90 1c be 17 81 33 3e 2c 77 86 bd
       0.070060864 -0.15289412 0.17529713 -0.06565699
0002e0 69 a8 4b be 29 50 14 3d 8c 48 67 be 35 ac d5 bd
       -0.19888462 0.03620926 -0.22586268 -0.104332365
0002f0 71 d5 c4 3d 33 68 84 3e a9 2e 41 be 02 93 56 bd
       0.09611023 0.25860748 -0.18865456 -0.05238629
000300 9b c7 a4 3e cf fb 22 be 22 9b fa bc a3 04 80 3d
       0.32183537 -0.1591637 -0.030591551 0.062508844
000310 5a 01 86 bd 3a 9f a7 3d 00 fb 18 3a c3 dc ac bd
       -0.065432265 0.08184667 0.0005835742 -0.084405445
000320 ea 10 97 3c 92 ca 6d bd 01 94 9e be 8d aa 0b be
       0.018440682 -0.058054514 -0.30972293 -0.13639279
000330 34 4d 33 be 61 f2 7c 3d 5c dc 88 be a9 8f 3e 3e
       -0.1750992 0.061754588 -0.2673062 0.1860949
000340 57 21 11 3c 3c fc 85 3e 96 a8 4f be 4a d9 ec 3d
       0.0088580465 0.26169002 -0.20279154 0.11564882
000350 7f b5 12 be 28 ad a0 3e 9e ec 12 be 4d 15 7a 3e
       -0.14327048 0.31382108 -0.14348075 0.24422188
000360 45 a6 d9 bd 4b d4 03 3e a4 16 62 3d 1c a1 95 bd
       -0.106274165 0.12873952 0.055197373 -0.0730612
000370 af 9b 6d bd 96 79 52 3e 15 d6 c5 bd 36 99 48 3e
       -0.0580098 0.20554194 -0.096599735 0.19589695
000380 5a e5 2a 3e b6 c6 d1 3d 32 c6 25 be 40 4e 89 3d
       0.16689053 0.10242979 -0.16188887 0.06704378
000390 82 56 88 bd 56 18 bf 3b 9d 52 16 3e 81 a0 a0 3c
       -0.06657125 0.0058317585 0.14679952 0.019607784
0003a0 e4 45 ec 3c a0 12 b7 bc 8f 99 38 be b5 16 25 bc
       0.02884192 -0.022347748 -0.18027328 -0.010076215
0003b0 af 74 b1 3c 79 12 b2 bc ef 20 be bd 47 fa fd bd
       0.021662084 -0.021737324 -0.09283625 -0.12401252
0003c0 5d 71 e1 bd 10 66 b4 bd fa b6 86 bd 86 a4 47 3d
       -0.110079505 -0.088085294 -0.06577869 0.048740886
0003d0 7b 94 ac 3d 6d 0a 5e 3d 5f 07 1e 3e 3a e5 39 3e
       0.08426758 0.05420916 0.154325 0.18153849
0003e0 14 68 f2 3d d0 bb 22 be 58 ca 1d be 08 d1 2a bd
       0.118362576 -0.15891957 -0.1540922 -0.041703254
0003f0 30 fc 7b 3c 24 5f cd 3d 75 c9 6d be 5e a4 ea 3d
       0.01537995 0.10027912 -0.23221381 0.11457132

layer1_2.bias f4 [128]
000000 1e a6 a5 3e d1 aa 72 3e ea 54 59 3e f7 9d 55 3e
       0.323533 0.23697974 0.21223798 0.2086104
000010 c8 ad 8e 3e 5c 8a 11 3e b2 61 25 3e 04 6b 73 3c
       0.2786696 0.14212936 0.16150549 0.0148570575
000020 f7 88 3e be 5e 95 a1 3e 7e d3 75 3e 22 27 4c 3e
       -0.18606935 0.3155927 0.24006459 0.19936803
000030 00 9d ce 3e e5 0e 87 3e b6 5d 27 3e 28 73 b4 3e
       0.40354156 0.2637855 0.16344342 0.35244107
000040 5a 74 45 3e a3 11 82 3e 92 29 ce 3e 80 d0 8a 3e
       0.19282666 0.2540408 0.4026609 0.27112198
000050 46 1f 0f 3e 04 5c 1a 3e 6f f1 49 3d 42 ec a4 3e
       0.13976774 0.15074164 0.049302515 0.322115
000060 74 69 60 3e 40 0c af 3e b8 89 8a 3e e8 59 8a 3e
       0.21915227 0.34189034 0.27058196 0.27021718
000070 f6 1c b0 3e af f0 71 3e 16 96 a7 3e f7 f5 97 bd
       0.34397095 0.2362697 0.32731694 -0.07419961
000080 d9 fc 4b 3e 46 d0 b7 3e 72 df 8a 3e 41 d5 9f 3d
       0.19920672 0.35901088 0.271236 0.07804347
000090 00 10 89 3e 8f 6d b5 3e 9e 20 87 3e a5 d7 ab 3e
       0.2677002 0.3543515 0.26392072 0.3356296
0000a0 6f a9 3b 3d 39 6d 92 3e 8c d7 1e 3e c2 20 9d 3d
       0.04581588 0.28598955 0.15511912 0.07672264
0000b0 fe ec 36 3e da 9c b4 3e bc d7 a7 3e 67 88 cd 3d
       0.17863843 0.35275918 0.3278178 0.10035782
0000c0 0b 11 9a 3e 14 49 c1 3e 8c 8d bd 3e f8 04 ba 3e
       0.30091128 0.37751067 0.37022054 0.36331916
0000d0 49 53 8f 3e 15 dc 8a 3e 72 e3 87 3e c7 b4 e9 3d
       0.2799323 0.27121034 0.26540715 0.11411434
0000e0 48 41 b0 3d b0 8c a8 3e 8d 81 ab 3e e2 4a 0b be
       0.086062014 0.32919836 0.33497277 -0.13602784
0000f0 39 b1 66 3e df 56 ce 3e e7 ca ca 3e a6 e2 99 3d
       0.22528543 0.40300652 0.39607927 0.07513933
000100 87 c5 aa 3e ab 6d 99 3d f5 32 1d 3e 38 07 af 3e
       0.33353826 0.07491621 0.1535147 0.34185195
000110 fe ac a9 3e 4b ae a5 3e bb fe c5 bc f8 45 ac 3e
       0.33139795 0.32359537 -0.024169317 0.33647132
000120 6b 2a 61 3e c4 3d 9e 3e 8c c9 b8 3e 91 91 86 3e
       0.21988837 0.30906498 0.36091268 0.26282933
000130 7c c5 80 3e 62 36 8d 3e 49 2c 01 3e 20 98 44 3e
       0.2515067 0.27580553 0.1261455 0.19198656
000140 e2 16 b4 3e 2e c2 86 3e 02 9e 98 3e 0f ab 29 3e
       0.35173708 0.26320022 0.2980805 0.1656916
000150 4a 1d 83 3e 40 16 b9 3e e2 3b ad 3d 0d 2c b7 3e
       0.25608283 0.36149788 0.08458687 0.35775796
000160 19 6b b4 3e 86 f7 a2 3e a7 8a a8 bd bc 8c 0b bd
       0.3523796 0.3182947 -0.08229571 -0.03406976
000170 f8 1d a0 3e a2 c1 75 bc 95 a3 23 3e 4d b0 9d 3e
       0.31272864 -0.014999779 0.1598037 0.3079857
000180 8a 75 91 3e 3e 73 ad 3e af 4b a1 3e 15 83 a8 3e
       0.28409988 0.33876985 0.31503054 0.32912508
000190 c5 ea 3e 3e a3 fe b1 3e da 27 77 3e 0c 8d 9c 3e
       0.18644245 0.34764585 0.24136296 0.3057636
0001a0 18 5a b6 3e c9 74 61 3e 72 a6 84 3d 55 fa a9 3e
       0.3561561 0.22017206 0.064770594 0.331988
0001b0 f7 6f 99 3e 1a 2d 9e 3e 42 e5 fd 3b 73 53 a1 3e
       0.29968235 0.30893785 0.007748277 0.3150898
0001c0 1b b0 67 3e 6a a7 3a 3e 88 c1 74 3e 79 bf b0 3e
       0.22625773 0.18227926 0.23901951 0.34521082
0001d0 c6 cc 8e 3e 05 63 a2 3e ff 85 b4 3e 2d bb d6 3e
       0.27890605 0.3171617 0.3525848 0.4193968
0001e0 79 3d cf bd 02 7a 06 3d b3 e4 6f 3e bb 64 8c 3e
       -0.10119147 0.0328312 0.23427086 0.274206
0001f0 8d af 60 3d 13 4c b8 3e 4f b5 55 3e ad 6b 98 3e
       0.05485492 0.3599554 0.20869945 0.2976965

layer2_2.weight f4 [128, 128]
000000 7c 20 8a 3d c9 60 74 3e 9d a4 68 3e 44 a9 23 3e
       0.06744477 0.23865046 0.22719045 0.15982538
000010 3b 24 02 3e 9e c0 eb 3d 9a 66 23 3e dc 81 0a 3e
       0.12709133 0.11511348 0.15957108 0.135261
000020 2e 2a 66 3e 0b fb 40 3e f2 49 a1 3d 19 3b 35 3e
       0.22477028 0.18845765 0.07875432 0.17698325
000030 e0 ae 31 3e a0 f5 0a 3e fd 3f 0a 3e 23 65 67 3e
       0.17351866 0.13570261 0.13500972 0.22597174
000040 be b2 30 3e 92 bb ea 3d a3 66 bc 3e cb 5e 8a 3d
       0.17255685 0.114615574 0.36797056 0.067563616
000050 c7 2b 23 3e f0 2a 4e 3b 82 fc fd 3c 64 99 8d 3d
       0.15934668 0.0031458698 0.031004194 0.069140226
000060 14 5c 08 3e 1c 00 21 3e 11 1f 06 3d 8f fa 9c 3d
       0.13316375 0.15722698 0.03274447 0.07664978
000070 db 0d 4a 3e 69 a7 fe 3d 99 a8 d9 3d 14 6b c3 3d
       0.19731848 0.12434275 0.106278606 0.09541908
000080 5e 80 46 3e b0 0f 0b 3e 54 a5 1e 3e 0b 6b db 3d
       0.19384906 0.13580203 0.15492755 0.10713776
000090 47 fa 47 3e 3d 86 ba 3d 86 60 d1 3d 40 e4 5a 3e
       0.19529067 0.09107635 0.102234885 0.21376133
0000a0 e4 b1 9d 3a 3c 95 ff 3d cb b8 03 3e 7b 7b 19 3d
       0.0012031165 0.12479636 0.12863462 0.037471276
0000b0 bf 4b 2a 3e d3 b1 c5 3d 99 c4 41 3d 81 83 b1 3d
       0.16630457 0.09653058 0.04730663 0.086676605
0000c0 33 64 6d 3d b0 6d 0b 3e 6a 5f 81 3d a1 61 01 3e
       0.057956886 0.13616061 0.06317027 0.12634899
0000d0 c7 23 0e 3e 7e 1d 86 3d 11 6e 28 3e 68 58 22 3c
       0.13880835 0.06548594 0.16448237 0.009908773
0000e0 1c 7d fd 3d 0f 03 44 3e 5d 58 d9 3d 6e 7b 6a 3d
       0.12377378 0.19141792 0.10612557 0.057246618
0000f0 f8 6b d5 3d aa 44 fd 3d 1e a0 0d 3f ee 61 05 3e
       0.10420984 0.12366612 0.55322444 0.13025638
000100 c4 fd 29 3d 62 e2 42 3a 89 33 35 3e 37 40 dd 3d
       0.041501775 0.00074342464 0.1769544 0.10803264
000110 84 63 51 3e b1 06 f7 3d 98 f0 9c 3d 45 3d 73 3d
       0.20448118 0.12061823 0.07663077 0.059384603
000120 99 89 4f 3e 2a da 8b 3e ae a1 c9 3e 87 71 0f 3e
       0.20267333 0.27314883 0.39381164 0.14008151
000130 54 7c 2a 3e 27 86 57 3d a9 44 fc 3c 9c 4f 40 3e
       0.1664899 0.052618172 0.030794458 0.18780369
000140 ce 59 c1 3e 18 3e 3a 3e ff cb 61 3d c3 12 5b 3e
       0.37763828 0.1818775 0.055126186 0.21393876
000150 47 b3 83 3d 69 42 18 3e 27 bc ed 3d 3b f2 50 3e
       0.06430679 0.14869083 0.11608153 0.20404904
000160 f9 75 7b 3e 93 3d 3b 3e db 4d 85 3d a6 74 6d 3d
       0.24556722 0.18285207 0.065089904 0.057972573
000170 1c 79 f4 3d 29 49 ee 3d 28 2f 02 3e 42 25 1a 3e
       0.11937162 0.11635048 0.12713301 0.15053275
000180 a7 6b 8c 3e ae eb 18 3e ff 0c 55 3e 40 a8 03 3e
       0.27425882 0.14933655 0.20805739 0.12857151
000190 2a 85 66 3e 2d a1 9f 3d 64 78 24 3e 1f b0 ad 3e
       0.22511736 0.07794414 0.1606155 0.33923432
0001a0 45 5c ae 3d f7 07 08 3e 12 b5 fd 3d 57 77 2c 3e
       0.08513693 0.13284288 0.12388052 0.168424
0001b0 09 d6 d2 3d fc f4 d3 3d 7a f7 70 3c ff fa 9a 3e
       0.1029473 0.103494614 0.0147074405 0.3026962
0001c0 71 5d e5 3d d6 b2 d5 3d 8f 2d 4c 3e bb ef 23 3e
       0.11199463 0.10434501 0.19939254 0.16009419
0001d0 35 c7 06 3e 52 90 22 3e cb 8a 65 3d 0b 6c 01 3f
       0.13161929 0.15875366 0.056040566 0.50555485
0001e0 33 e3 77 3c a2 35 aa 3d e2 1e c1 3d 55 a3 bb 3d
       0.015129852 0.08311011 0.094297186 0.091620125
0001f0 67 aa 06 3e 4c 78 13 3d 45 f0 e7 3d 06 bc b4 3d
       0.13150941 0.036003396 0.11325125 0.08824925
000200 77 f7 d5 3d f7 e9 83 3e 8a 4f 86 3e c9 3b 68 3e
       0.10447591 0.2576444 0.26232558 0.22679056
000210 ec 0c 11 3e 36 94 b0 3d a3 4e 0b 3e 85 cb c8 3d
       0.14165086 0.08622019 0.13604216 0.09804443
000220 66 ff d9 3d 92 d1 1e 3e 28 6c 28 3e 43 4f 59 3e
       0.106444165 0.15509632 0.16447508 0.21221642
000230 40 c2 fc 3d ff e8 3a 3e 13 9c cd 3d d4 4b 99 3e
       0.12341738 0.18252943 0.100395344 0.29940665
000240 e5 8d 2e 3e 7c 0a 45 3e 6a f3 01 3f d3 da 0e 3e
       0.17046316 0.1924228 0.50762045 0.13950662
000250 72 15 fe 3d 8b c8 a9 3d 6e 02 c0 3d 7d 15 b4 3d
       0.12406434 0.08290204 0.093754634 0.08793161
000260 d5 3a c6 3d 2c 63 68 3e d9 2b 55 3e f6 32 fe 3d
       0.0967919 0.22694081 0.20817508 0.12412064
000270 5b 3f 70 3e 4f 60 58 3e 6c b8 78 3e 71 0c 58 3d
       0.23461668 0.21130489 0.24289101 0.05274624
000280 da 38 30 3e 29 f0 56 3e 7b 02 84 3e f8 49 91 3d
       0.17209187 0.20990051 0.25783142 0.070941865
000290 d8 ba 7a 3e 27 f6 4d 3e 8a 30 14 3e b6 32 68 3e
       0.24485338 0.20113431 0.14471641 0.22675595
0002a0 61 3b e2 3d 88 5f 24 3e 17 e5 a1 3d 3b 3c 9b bc
       0.11046482 0.16052067 0.079050235 -0.018949619
0002b0 39 4c 60 3e 6b 84 55 3e 1e 92 d3 3d 91 9a 07 3e
       0.21904077 0.20851295 0.10330604 0.13242556
0002c0 d8 7d f3 3d fe 66 3c 3e e2 b3 5e 3e 59 fb 55 3e
       0.11889237 0.18398663 0.21748307 0.20896663
0002d0 3a a2 32 3e 8c 89 43 3e 67 5b 50 3e fc 15 6f 3d
       0.17444697 0.19095439 0.20347367 0.058370575
0002e0 0e 24 aa 3d 95 d3 2b 3e 14 de 97 3e e6 54 17 bd
       0.08307658 0.16779931 0.2966162 -0.0369462
0002f0 5a 52 36 3e fc 53 9b 3e 65 d7 22 3f 29 2b cd 3b
       0.17804852 0.30337512 0.63609916 0.0062612486
000300 af 10 77 3e dc 1f 3c 3d dd 90 1e 3e 7b a9 33 3e
       0.24127458 0.04592882 0.15484948 0.1754512
000310 4e 12 07 3e 80 d2 02 3e 12 7c 82 3c ec 46 4e 3e
       0.13190576 0.12775612 0.015928302 0.20144242
000320 aa 8b 7c 3e c6 88 57 3e 90 e0 f2 3e 6d 06 28 3e
       0.24662653 0.21048269 0.47436953 0.16408701
000330 60 42 88 3e 6c 38 68 3e b3 3a 11 3d 50 96 6b 3e
       0.2661314 0.22677773 0.03545637 0.23006558
000340 1a b8 e3 3e 36 65 6b 3e 2e 2a b5 3d eb 39 6d 3e
       0.44476396 0.22987828 0.08845936 0.23166625
000350 a5 9b 00 3e b6 4a 79 3e b0 a7 f8 3d b3 28 22 3e
       0.12559374 0.24344906 0.12141359 0.15835838
000360 ad b7 9d 3e 4d a4 82 3e c8 af 1a bd 4c 34 7b bd
       0.30804196 0.25515977 -0.037765294 -0.06132917
000370 63 8b 81 3e 3e 19 9f 3c a8 8b 9d 3d ae de 83 3e
       0.25301656 0.019421216 0.07692653 0.2575583
000380 27 7a a8 3e 6b a1 58 3e c9 4e 93 3e a3 43 2c 3e
       0.32905695 0.21155326 0.28771046 0.16822676
000390 f7 45 95 3d 19 2b 89 3e 5d 9f 64 3e eb f6 ad 3e
       0.07288735 0.26790693 0.22326417 0.33977446
0003a0 50 e0 13 3e 40 18 70 3e 45 ee c3 3d ef 57 05 3e
       0.14441037 0.2344675 0.09566931 0.13021825
0003b0 68 ab 5f 3e 01 b4 a9 3d be 3c 18 bd 8c 06 81 3e
       0.2184273 0.08286286 -0.037167303 0.25200307
0003c0 50 84 53 3e 91 45 42 3d 47 e0 fd 3d cc a9 84 3e
       0.20655942 0.047429625 0.12396293 0.25910795
0003d0 df ef 84 3e 9a eb 47 3e 76 0c 63 3e 05 95 e5 3e
       0.25964257 0.19523469 0.22172722 0.44840255
0003e0 b0 aa 8a bd 76 4e aa 3d 2e 37 20 3e 80 c5 3b 3e
       -0.06770837 0.083157465 0.1564605 0.18337059
0003f0 44 42 94 3d 96 d2 13 3e 54 44 45 3e 04 15 a7 3e
       0.07239202 0.14435801 0.19264346 0.3263322

layer2_2.bias f4 [128]
000000 0f 8c d3 3d 4a d6 59 3e 5d 98 3c 3e b2 dc 43 3e
       0.103294484 0.21273151 0.18417497 0.19127157
000010 ff c3 01 be 88 13 5d 3d 80 66 ce 3d 9c d5 52 3d
       -0.12672423 0.053973705 0.10078144 0.051473245
000020 2e ea 9a 3c 1c 4b 60 bd 8a 05 62 bd c3 88 c1 3d
       0.018910494 -0.05475913 -0.055181064 0.09449913
000030 c1 e3 b7 bc 5c 7e 0c 3e 40 16 d9 3d 26 65 93 3d
       -0.022447469 0.13720077 0.10599947 0.07197027
000040 f4 a7 87 bd c0 11 d9 bc 8b 68 fc bc 77 b6 f8 3d
       -0.066238314 -0.026497722 -0.030811569 0.121441774
000050 c4 4c d3 3e 83 63 f5 3d 0d ce 16 3d d3 01 8a 3d
       0.41269505 0.11981871 0.0368176 0.06738629
000060 4c ac 4a bb ff 61 50 bc 1e a4 19 bd cb ce 21 3e
       -0.003092545 -0.012718677 -0.03751003 0.15801542
000070 d5 36 82 bd 04 19 d9 3c 5d be 04 3d e2 ff 52 3e
       -0.06358115 0.026501186 0.032408107 0.20605424
000080 1c 01 e4 bd fa 03 9c 3d 8b f5 06 bc 78 c0 37 3e
       -0.11133024 0.07617946 -0.008237253 0.17944515
000090 d8 2a 21 3e 75 59 1a 3e d2 46 c9 3d c5 5d 6b bd
       0.15739 0.15073188 0.09827961 -0.057462472
0000a0 4b 7e 2e 3e 98 b0 1d 3e 9a f7 8a 3d 4b 99 08 3e
       0.17040364 0.15399396 0.067855075 0.13339727
0000b0 d4 df 52 3e 4a 01 81 3d 2c e8 0c 3e 01 e6 11 3e
       0.20593196 0.06299074 0.13760442 0.14247896
0000c0 f5 9e ac bd b7 93 7c be 41 5b 4c 3d 89 fc 44 bd
       -0.08428756 -0.24665724 0.049891714 -0.0480924
0000d0 3a 9f 86 3d 6b ea 0e 3e 4c 55 2e 3d bd a8 a0 bd
       0.06573339 0.13956611 0.042561814 -0.07844684
0000e0 3b d6 11 3d b3 41 10 3e 43 bc 16 3b 44 9e d4 bd
       0.035604697 0.14087562 0.0023000396 -0.10381749
0000f0 92 1e 2b 3e 4c 93 5e 3d 92 e2 56 3e ca 22 2e 3e
       0.1671088 0.054339692 0.20984867 0.17005458
000100 23 ab 0f 3e 1a 24 bd bd 19 95 fe bc 25 e2 52 bd
       0.14030127 -0.092354015 -0.031076955 -0.0514852
000110 cf 3b 70 be d5 ab 3e 3d f7 3b 48 3c ab 27 c8 bd
       -0.23460315 0.04655059 0.012221328 -0.09773191
000120 27 cf 7d 3d ed 93 6d 3d 11 91 8d 3e 11 18 0f 3e
       0.061965134 0.0580024 0.2764974 0.13974024
000130 b4 a9 1e 3d 64 35 cd 3d e8 34 92 bd 46 37 88 bd
       0.03873606 0.10019949 -0.07138997 -0.066511676
000140 b8 b4 82 3d 39 95 82 3c 6b 09 11 3e a9 dd 18 3e
       0.063821256 0.015940296 0.14163749 0.14928307
000150 16 f9 9a 3d 14 83 6a bd f5 26 b4 bd 15 16 66 bd
       0.075670406 -0.057253912 -0.08796493 -0.056173403
000160 83 87 06 3e 10 9a d8 3c 5d d1 71 bc a9 a3 67 3d
       0.13137631 0.02644065 -0.014759389 0.056552563
000170 16 48 43 3e b4 8d c7 3b d4 cc 73 bd 3d 54 9e bd
       0.19070467 0.0060898904 -0.05952151 -0.07730911
000180 67 30 c9 3c 10 1a 46 3c ff a9 95 3d 95 fc 4f 3d
       0.024559213 0.012091175 0.07307815 0.05077799
000190 e3 2b 92 bc f5 4a 72 bd d2 37 ff 3c 8e 11 7e 3e
       -0.017843192 -0.059153516 0.031154547 0.24811384
0001a0 33 cb 51 3c 7b 9a c4 3d 2e cd 7f be e3 b3 0c 3e
       0.012804794 0.09599777 -0.24980614 0.13740496
0001b0 cf 4a 94 bc b2 75 6e 3d c8 f0 fb 3d e4 5f 0e 3d
       -0.018102078 0.05821771 0.12301785 0.034759417
0001c0 21 68 35 3c 44 1a 15 3e 74 16 a8 bd 85 7c 0f 3d
       0.01107219 0.14560801 -0.082074076 0.03503086
0001d0 e5 c5 31 3e 99 e6 ed bc 85 8a 90 3d 45 c7 da 3c
       0.17360647 -0.029040622 0.070576705 0.026706347
0001e0 0f 18 81 3c 37 9e ad 3d 15 d8 33 bd db c0 01 3d
       0.015758542 0.08477443 -0.043907244 0.031678062
0001f0 7a 70 b0 bd a0 4c d6 3b 2c 45 62 bd 77 53 de 3d
       -0.08615203 0.006539896 -0.05524175 0.108557634

layer3_2.weight f4 [1, 128]
000000 4f 3e 5a be 8e 6f 3e be 2e ba 49 be 22 a1 3c be
       -0.21312831 -0.18597242 -0.19699928 -0.18420842
000010 5c 4a d2 3e c2 b4 ba 3c 20 12 4d be ad 81 5a be
       0.41072357 0.02279127 -0.20026445 -0.2133853
000020 30 7b 75 3c 96 3f 92 3d 0d ca f2 3c b1 39 5c be
       0.0149829835 0.07141034 0.029637361 -0.21506383
000030 30 66 64 3d 97 e6 2f be 8c 4d 4e be 8c 94 5f be
       0.055761516 -0.17177807 -0.2014677 -0.2183401
000040 29 3e 5a 3e fb 1f 57 3c 35 e0 a0 3d 1e 8f 51 be
       0.21312775 0.013130183 0.07855264 -0.20464751
000050 8a f9 dd be 8b 89 33 be 4e 26 0d 3d bf ec 49 3d
       -0.43354446 -0.17532937 0.03446036 0.049298044
000060 39 b1 57 3d bc fa 9f 3d 10 78 a6 bc da 2f 35 be
       0.052659247 0.07811496 -0.020320922 -0.17694035
000070 3e 48 e4 3c 02 e7 71 3d d2 f1 5a be 90 be 30 be
       0.027866479 0.059058197 -0.2138131 -0.17260194
000080 2c 71 04 3f e9 ed 6e be 12 67 b8 3d f8 5a 39 be
       0.51735187 -0.23332943 0.09004034 -0.18101108
000090 2c 45 2a be 65 7d 49 be 2a f5 58 be 23 53 f6 3c
       -0.1662795 -0.1967674 -0.21187273 0.03006894
0000a0 73 1f 66 be e6 d2 59 be 5b 70 38 be c9 5d 3a be
       -0.22472934 -0.21271858 -0.1801161 -0.18199839
0000b0 5d 3f 23 be cc 52 3b be 7f ce 23 be 12 c2 6d be
       -0.1594214 -0.18293303 -0.15996741 -0.23218563
0000c0 71 65 ae 3d d6 f4 cd 3e fb dd 50 be f1 b3 5a bd
       0.08515442 0.40225857 -0.20397179 -0.05339426
0000d0 73 02 26 be fd 03 74 be 56 77 87 3d 4e 00 82 3d
       -0.16211872 -0.23829646 0.066145584 0.06347714
0000e0 ce 50 86 be 77 b3 47 be ca 56 1a 3c be 25 ba 3e
       -0.26233524 -0.19502054 0.009420106 0.3635692
0000f0 b0 3f 21 be 14 42 c0 3c 0a 94 36 be e2 e8 43 be
       -0.15746951 0.023469009 -0.1782991 -0.19131806
000100 94 65 42 be c1 2f 81 3d 7f 06 ea 3b 70 8c 94 bb
       -0.18984061 0.063079365 0.0071418877 -0.004533343
000110 1a 4c fa 3e a9 17 7c be a6 aa 54 3d a5 eb c0 3e
       0.48886186 -0.246184 0.051920556 0.37679783
000120 0c 8c 2e be 1c 6d 59 be f5 10 8b be 57 a0 4f be
       -0.17045611 -0.21233028 -0.27161375 -0.20276009
000130 d2 63 7a 3d 43 d3 3b be c3 9b 22 3d 04 93 ac 3c
       0.061130352 -0.18342309 0.039699327 0.021066196
000140 28 0f 88 3c 06 4a 9f 3c 13 58 62 be 77 db 33 be
       0.01660879 0.019444477 -0.2210391 -0.17564188
000150 c7 f2 46 be 8c 6a 84 3d 86 32 ce 3e 45 70 fd 3c
       -0.1942855 0.06465635 0.4027292 0.030937323
000160 1e 2c 45 be 49 cf 40 be db 27 18 3d d0 02 65 3d
       -0.1925511 -0.18829073 0.037147384 0.055910885
000170 29 d0 30 be 98 1f 48 3c 84 b4 aa 3d d1 16 a0 3e
       -0.17266907 0.012214564 0.08335212 0.31267408
000180 31 e2 49 3c d0 ff cb 3c c6 20 47 3c 5f 50 69 be
       0.012321995 0.024902254 0.01215381 -0.22784565
000190 53 cd 78 3c 0f 79 81 3d c5 8b 7a 3d a5 9d 9d be
       0.015185672 0.06321918 0.06116845 -0.30784336
0001a0 75 af 75 3b 51 05 57 be 5a 09 eb 3e f6 47 4c be
       0.0037488614 -0.20998122 0.45905572 -0.19949326
0001b0 60 6a a9 3c 0b 21 9b 3d 60 e0 26 be 2f 67 6d be
       0.020680606 0.07574662 -0.1629653 -0.23183893
0001c0 36 37 65 3b 3f 95 2a be 36 67 6a 3e 94 27 71 be
       0.0034975535 -0.16658495 0.22890934 -0.23550254
0001d0 8a 69 60 be 31 2c c8 3b ef fc c8 3c 37 cc 52 3c
       -0.2191526 0.0061087837 0.02453467 0.012866071
0001e0 22 40 d7 3c db 12 34 be 60 b1 54 3d 37 b7 dc 3a
       0.026275698 -0.17585318 0.05192697 0.001683927
0001f0 c4 26 0f 3c 89 bb 59 3d fd 59 56 3c 4b c7 67 be
       0.00873727 0.053157363 0.013082978 -0.22634618
