rl_energy_manager_20250326_0841/models/best_reward_model/actor.pth (torch, 117576 bytes, 14 tensors)

layer1.weight f4 [128, 18]
00000000: 8986 863d 3286 8dbd 62ec 7d3d 0115 bbbd
00000010: 152a a93d ad38 3dbd ed67 a73d 2731 abbb
00000020: 8129 bb3d 44b3 853d ae58 4ebd 2946 5a3b
00000030: ba29 f4bd 5521 3ebd 9a46 56bc bc79 f83d
00000040: d6fa f5bc b927 b9bd e016 dcbc 41d9 ac3d
00000050: 35ef dd3c 62ed 27bd bae8 003e 4632 3f3b
00000060: b2d5 40bc ea35 e93a 4e6c abbd 0d26 d2bb
00000070: e009 593d 6479 2c3d 5e43 ce3c 3772 3f3d
00000080: 9d1f bbbd 661c 29bc e7d8 3b3d 9e98 333c
00000090: 3451 2ebc c00d c93d ec68 963d 8371 d23d
000000a0: f22a e3bc 4d09 993c 90d5 14be 65fc ad3d
000000b0: 7aee a63c 4baf 503d aaa5 df3d 9aef 40bc
000000c0: 3a5a e0bd d121 243b 8a0d 34bb 2839 ea3d
000000d0: 4a73 223d 2ae9 12bd 09ef 78bc ba9c 2f3d
000000e0: 56b5 4ebd 271e db3d 788c 13bc aeb4 cb3d
000000f0: 036e e73b 585d 8abd c974 973d e8eb d2bd
00000100: 9e9c 9abd 05c9 9bbd 1d0e 153e c75d b7bd
00000110: aff7 d8bc 173e b43d 3fec bd3d 6607 443e
00000120: b1fa 9bbd 2a5f 1b3d f2c0 403e ec5a 59be
00000130: e8fe 9cbb 0974 45bd 48d9 25be 83d8 38bd
00000140: 9c46 ea3c 7a5c 37be dbaa d73c 6049 923d
00000150: 75ed 323d 71e1 25be 3c3a 4f3c 6011 1cbe
00000160: f956 09be f17e 783d 242a 963d 51be a9bd
00000170: 98db b1bd 51c8 dbbd 7d94 e1bc 92a9 95bd
00000180: 0c7a f43c 0a5c 763d 1fe3 143e 9a80 853e
00000190: 4196 96bd 5237 c4bd f6c7 cf3d 96e6 32bd
000001a0: 6e9c fb3d ab7f 28bd 5156 edbd 8fcd 5cbd
000001b0: d759 b23b 5b55 093e 30e2 1a3e 1629 d63c
000001c0: 23bd ce3d bb59 21bd 01a6 ec3d 2a65 3abd
000001d0: 8f07 0a3e d1a9 143e 04eb 56bc ecfa 4dbd
000001e0: ac57 00bc 833b 363c 7ee2 f43d 359a 1dbd
000001f0: e162 103e 3b2c b23c 677c 83bd cb3b 493d
00000200: 5a3f 1abe 827c 693d 2815 25be 85d4 a13d
00000210: a78d 42be ae55 1a3e aea3 cfbd 65de 6e3e
00000220: 1ca2 fa3d be7c 18be c7df 24bd 68d8 e5bc
00000230: 15e9 44bd 444a 80bd 4a82 923b 162d 90bd
00000240: 5b10 50bd a5a7 003a 55c6 8c3c 6ac2 20bd
00000250: 4823 0a3d 4bcd 93bd 2963 f2bd c16b e83c
00000260: 5931 493d 7af6 963c f929 99bc 12d2 0e3e
00000270: 250c 883d fe51 30bc 5080 60bd dd81 d0bc
00000280: 3a01 983c 983c 8c3d a093 ebbc 0be6 10bd
00000290: d40e df3d 4c7f 9b3b a592 1dbd 288b e63d
000002a0: 4eb8 c2bd 9e03 533c b14a d83d 5de2 cf3c
000002b0: a1c4 ef3c 8cef 823e c95c 443b bbe5 e8bb
000002c0: a575 753d 52c4 d33d 4161 68bc 2b98 a8bd
000002d0: 593e 9cbd f953 d2bd 63e8 313e e521 ebbd
000002e0: 0e1d 9dbd cf46 223d c4b2 f0bd 3c1c c5ba
000002f0: 63ac 833d 6618 18be 9969 75bd 4c7b d7bc
00000300: f55c 1abe 5301 edbd 194d d9bd 48ea c7bd
00000310: 2d2b 113d b604 babd df9e ed3d 18c9 b3bd
00000320: c1ad 5b3c d061 c13c 8d7a 16bd 83af 06be
00000330: 57af 41be f3e3 41be d11d 4b3b 3479 fc3c
00000340: 6632 10bd 75ad 863d 042a 1b3c 7a84 ce3c
00000350: bfff fc3c 7326 cfbc e8f5 373b d3f9 fcbd
00000360: 993b 03be ca8b 85bd 30a4 11bd e384 05bc
00000370: 411f dc3d 1f44 4bbd 69d8 febc 1b89 d73d
00000380: 9135 4fbc 6454 ffbc e492 643d baa1 61bc
00000390: 76b5 d1bd 45ee 2bbe b77f dcbd 6de4 453b
000003a0: 13c8 9e3b 89ee 233e a28f 6c3d 41bb bbbd
000003b0: 6944 873c 50e3 ce3d 1f68 a7bd 7df4 6a3d
000003c0: 74e0 d0bd 1720 083e ed84 cebb 521b 053e
000003d0: 1a0a 26bd 9b4f 923d cbff f33d 5334 b33c
000003e0: d54b 7abb ceb0 83bd 4068 e8bb 7e84 5a3e
000003f0: 2d94 023e 4850 d93d 401f 19be 9490 39be
0.06568629 -0.06910361 0.06199301 -0.091348656 0.0825998 -0.04619663 0.08174119 -0.0052243653
0.091387756 0.06528333 -0.05037754 0.003330598 -0.11922021 -0.046418507 -0.013078356 0.12132594
-0.030026834 -0.090407796 -0.026866376 0.084398754 0.027091602 -0.04099787 0.12588778 0.0029174252
-0.011769699 0.0017792557 -0.08370267 -0.0064132274 0.052987933 0.042107955 0.025178608 0.046739783
-0.09136889 -0.010321712 0.04586115 0.01096168 -0.0106394775 0.09817076 0.07344231 0.10275557
-0.027730439 0.018681193 -0.14534593 0.08495406 0.020377386 0.050948422 0.1092027 -0.011775875
-0.10954709 0.002504457 -0.002747389 0.11436683 0.03966073 -0.035866894 -0.015193709 0.042874075
-0.050465904 0.106991105 -0.009005658 0.09946571 0.007062675 -0.06756085 0.07395322 -0.10298902
-0.075494036 -0.07606701 0.14556165 -0.089534335 -0.026485292 0.08800905 0.09273576 0.19143447
-0.07616175 0.037932552 0.18823603 -0.2122609 -0.0047911294 -0.048206363 -0.16196167 -0.045128357
0.028598122 -0.17906371 0.026326587 0.071429014 0.043683488 -0.1619928 0.0126481615 -0.15241003
-0.13412084 0.060667936 0.073322564 -0.08288253 -0.08684462 -0.10731567 -0.027536625 -0.073077336
0.029843353 0.06014637 0.14539765 0.26074678 -0.073528774 -0.09580864 0.101455614 -0.043676935
0.12285696 -0.04113738 -0.11588729 -0.053906973 0.0054428387 0.13411467 0.15125346 0.026142638
0.10094669 -0.039392214 0.115551 -0.045506634 0.13479446 0.14517905 -0.0131175555 -0.050288126
-0.007833403 0.011122587 0.119572625 -0.03847714 0.1410022 0.021749606 -0.06420212 0.04912929
-0.15063229 0.057003506 -0.16121352 0.07901863 -0.18999349 0.15071747 -0.10138641 0.23327024
0.12237951 -0.14891335 -0.040252473 -0.028057292 -0.048073847 -0.06264165 0.004471098 -0.070398495
-0.050796848 0.00049077935 0.017184416 -0.039247908 0.033725053 -0.07216891 -0.118353195 0.028371694
0.049119327 0.018428076 -0.018696772 0.13947323 0.066429414 -0.010761736 -0.05480987 -0.025452549
0.018555272 0.06847495 -0.028756917 -0.035375636 0.108915 0.0047453996 -0.03846993 0.11257011
-0.095078096 0.01287928 0.10561121 0.025376493 0.029268565 0.25573385 0.002996253 -0.007107464
0.059926648 0.103401795 -0.014183343 -0.08232149 -0.07629079 -0.10269923 0.17373805 -0.11481074
-0.07671557 0.03961831 -0.11752847 -0.0015038322 0.064293645 -0.14853057 -0.05991516 -0.02630391
-0.15074523 -0.11572518 -0.10610408 -0.097614825 0.035441566 -0.0908293 0.11602568 -0.0877859
0.013408125 0.023606211 -0.036737967 -0.1315289 -0.18914543 -0.18934612 0.0030993114 0.030819513
-0.035204314 0.06576053 0.0094704665 0.025209654 0.030883668 -0.025286889 0.0028070156 -0.12352338
-0.12815703 -0.06520803 -0.035556972 -0.008149358 0.10748149 -0.049625512 -0.031109052 0.10524198
-0.012647049 -0.03116817 0.05580415 -0.013771469 -0.10239689 -0.16790111 -0.10766547 0.0030195967
0.004845628 0.16008963 0.057754166 -0.09166575 0.016512113 0.1010195 -0.081741564 0.05736207
-0.10199061 0.13293491 -0.006302467 0.12998703 -0.040536977 0.0714409 0.11914023 0.021875536
-0.0038192172 -0.06430207 -0.0070925057 0.21339604 0.12751837 0.106110156 -0.14953327 -0.18121558

layer1.bias f4 [128]
00000000: 2ab7 673b 198d 10bb 3268 173b 1708 163b
00000010: 7816 93bb 5992 eeba 9cfa db3a d411 67bb
00000020: b001 1139 03d8 473a f54f 56ba 4a41 a7ba
00000030: 9d0f ceb9 c9c3 333b 6e04 3d3b 7cb9 28bb
00000040: 07b3 423b 5997 8b3b a68d 95ba 5fa5 0b3a
00000050: 2544 63bb 3cda 92bb 8374 833b 1a87 95bb
00000060: 4c18 8e3b 0517 2dbb 5f32 6e3a c802 1d3b
00000070: 84a8 14bb 0af7 78bb 22c0 3dbb 71d7 baba
00000080: fab5 38bb ea41 a438 3024 d3ba 2b77 f83a
00000090: b7c2 92bb 4f80 fc3a 8f72 5f3a c039 453b
000000a0: 43ca 4f3b 370e 35bb ae9d 82b9 d78f 9b3a
000000b0: 5201 06bb 11ae 41bb c7fb 7c3b 17da 223b
000000c0: ae03 1abb 6c32 3a37 02be 0fbb ccb1 bcb9
000000d0: 8fa2 c83a 3916 acba 8e2f 4d3b d86c 92bb
000000e0: 60c8 b83a 6fee 2d3a 475a 00bb fa22 53b9
000000f0: 3ba8 9eb8 6b9e 8bbb 1c72 db3a 579a 95bb
00000100: 981b 20bb 0a74 8f3a 4110 b2ba 6177 89bb
00000110: 67cd 92bb 5baa d239 72fb 783a abc9 e1ba
00000120: f439 2abb 9830 083b 7816 25bb 8958 10bb
00000130: d500 813b 7054 0dba 825b 303b d7da 3abb
00000140: ba38 72bb 5309 3bbb dba0 bdba dfa7 123b
00000150: 245e 28bb 2eb1 373b e037 c938 ad6d 7f3b
00000160: 925c 93bb bde0 723b 98d2 41ba 3749 953b
00000170: bece 273b 5f6c 45bb bfc7 e0ba ae4f 93bb
00000180: f55d 04bb a440 93bb 72be 92bb ae76 7fba
00000190: 7401 5abb 2a82 29ba dcce 8b3b 1021 a139
000001a0: f23c 5abb 969c 7aba 4da4 363b 6cf0 8fbb
000001b0: d5fb 6cbb 0765 82bb edb4 58bb f5b2 8b3b
000001c0: f258 bfb9 9da7 8fbb 1283 c33a 8813 5dbb
000001d0: efe1 213b 3046 75bb aa26 85ba 87c2 8ebb
000001e0: 2ccf 8d3a ea25 a5ba d2f3 053b 5cf5 553b
000001f0: 90b8 cdba cfa1 023a 273f 3bba 1997 fa3a
0.0035356977 -0.0022056757 0.0023102877 0.0022893006 -0.0044887625 -0.0018201574 0.0016783061 -0.003525843
0.00013828906 0.0007623436 -0.00081753667 -0.0012760547 -0.00039303015 0.002742993 0.0028841752 -0.0025745323
0.002970876 0.0042599854 -0.0011410012 0.00053270714 -0.0034678068 -0.004481582 0.004011692 -0.0045632245
0.0043363925 -0.0026411426 0.00090864854 0.0023957957 -0.002268345 -0.0037989044 -0.0028953631 -0.001425488
-0.0028184638 7.832407e-05 -0.0016108807 0.0018956413 -0.004478778 0.0019264313 0.00085238455 0.0030094236
0.003170625 -0.002762688 -0.00024913013 0.0011868429 -0.0020447564 -0.0029553215 0.003860222 0.002484923
-0.0023500728 1.1098204e-05 -0.0021933322 -0.00035990623 0.0015307235 -0.0013129181 0.0031308862 -0.0044685416
0.0014097802 0.00066349556 -0.001958506 -0.00020135558 -7.5653625e-05 -0.0042608283 0.0016742381 -0.004565518
-0.002443051 0.0010944617 -0.0013585166 -0.0041951393 -0.0044800523 0.00040181246 0.00094979175 -0.001722624
-0.0025974484 0.0020780917 -0.0025190394 -0.0022025427 0.0039368668 -0.00053913053 0.0026910012 -0.0028511786
-0.0036960081 -0.0028539493 -0.0014467494 0.002237789 -0.0025690878 0.0028029191 9.5948344e-05 0.0038975284
-0.004497119 0.0037060224 -0.00073937466 0.004555847 0.0025605406 -0.0030124409 -0.0017149373 -0.0044955825
-0.0020197604 -0.0044937897 -0.0044782693 -0.00097451627 -0.0033265026 -0.00064662343 0.004266603 0.00030732946
-0.0033300486 -0.0009560076 0.0027868927 -0.004392674 -0.0036160846 -0.0039793286 -0.0033066825 0.0042632767
-0.00036496628 -0.0043839947 0.0014916381 -0.0033733565 0.0024701317 -0.0037425868 -0.0010158618 -0.0043566856
0.0010819188 -0.00125998 0.0020439518 0.0032647466 -0.0015695263 0.0004983218 -0.00071428943 0.0019118517

layer2.weight f4 [128, 128]
00000000: 6e7b c13d 17af a83c 01b2 a33d 0f9f 4e3d
00000010: 089c 09be 070b e0bc d85d c43d cc9d 38be
00000020: 5dad 8f3d d863 b9bc 19cb 273e 516a e0bd
00000030: b137 e43d 2eef a23d f4fb ac3d af4b 333b
00000040: 8a54 40bd 4ae3 89bd 1cc8 0ebd 43de 0bbe
00000050: 85aa 37bd 8483 5f3d 8c48 533a 1814 92bd
00000060: 3c35 e7bc 8121 08be fc39 1dbb 3d44 5dbd
00000070: bfca f6bc 3d9c ab3d 86e4 3a3d 8b85 1c3e
00000080: 6cff 913d 1c28 bb3d ac65 d4bc 4553 cabd
00000090: 3f25 a63d efa7 e53c 38f6 873c 3233 063e
000000a0: a58b ed3c cd35 913d 90f0 69bd 28cd 073e
000000b0: eb48 8d3d e212 dd3d 58a3 82bd fb9a 9e3d
000000c0: 5102 b2bd c3fd 623d f85d ee3d 6b68 f0bd
000000d0: 8c55 0fbe 5c23 d13d 21d2 933c 4138 08bd
000000e0: 45bd 72bd 99a9 433e af43 9c3d 7b2f 5abd
000000f0: d22e 643d 57c8 75bd b7a5 273e 70b8 563d
00000100: cb89 ab3d 30f5 e1bc 429c 363e 8061 4838
00000110: 112e 32be f8e7 3fbc 721e 9d3c 1e08 153e
00000120: e2f7 05be 8a3e 193e 1d58 593d caec 783e
00000130: 2a68 343e f461 353e e17c 2fbd 8a05 2bbe
00000140: cb4d a8bc e6dc cb3d 1095 00bc 2183 b53d
00000150: 2ba4 993c bd12 053d 08b4 cdbd f9be bf3b
00000160: cd2d 2c3d 6e5d bbbc 07d3 cdbc b0f8 9abd
00000170: c719 0d3d 3a38 a23d c150 e4bc 42ae bdbd
00000180: afda 7a3c 89d9 b9bc 24ba 0e3e a7fa 96bb
00000190: 3fde 4d3d f435 003e 9d28 563c 20f9 92bd
000001a0: 8a92 b6bd 50b9 feb8 9897 df3d a156 d93c
000001b0: f683 813c 4348 c4bd 10c2 ce3d 8a52 213d
000001c0: 21dd 643d 9d31 13bc bd36 9f3d b5c4 f83d
000001d0: b88a df3d 3679 c6bc 2399 a4bd b454 06bd
000001e0: e51a 68bd 55e9 933d 3aeb 57bd 7d1a 1abc
000001f0: 67b3 d3bc 66b7 d7bc 5398 c93d dada ef3d
00000200: 21b7 403e f812 cc3c 9a47 723d a51f 3fbe
00000210: a964 e73d 1ac3 babc 7374 723d faeb 01bd
00000220: 068a 2c3d 3a43 b93d b66e 973c 2e21 153d
00000230: 1570 96bd 2484 04be a54e 233c 2320 89bd
00000240: eac3 a9bd b38b f63d 28b7 b6bc db17 b8bd
00000250: 153b 1f3e 5976 053e beaf 5abc 9747 003e
00000260: bbe0 793c 9384 863d 1a21 39bb dd43 ca3d
00000270: 8dc5 a5bd b4fe 9a3c 1b3d 82bb 1b37 7bbd
00000280: 1801 f53c 3376 14be bbdd d93d a670 16bd
00000290: 674f 71bd 3ab8 a53d dcc9 933d 16ca 933d
000002a0: 0cb9 d3bd e8d2 62be 8730 a6bd 7847 363e
000002b0: 2f3b 49bc 15e4 533c 8dff 193c 72e8 273e
000002c0: 18bf 47bd 59dc 5d3d e43c b73c 2550 5dbd
000002d0: 3759 103d 71ef 1cbd 2850 903d 59b9 063e
000002e0: cd7f 553d 9047 a63d a91d 5ebd 9ce6 7c3c
000002f0: fc3a b93c 3e93 ddbc de62 e63d 1205 9abd
00000300: 10b4 d7bc 07de f73c 1eb2 4c3e fbcc 5cbc
00000310: 14f5 963b 37cd 2a3d 879b 3fbd 3242 e23c
00000320: fabf 723d 3ec0 dc3d f296 2cbd eb66 3bbe
00000330: 5f27 b1bd c5fc 9f3d ad0c f13d e02e eb3d
00000340: 1773 223c 1669 283e f896 40bd a20b 34bc
00000350: 9436 10be 30af c93c 636a 563d 020e 8c3d
00000360: 8ec7 febc 306f 4cbd c64c f33d 338c 803d
00000370: 4322 e13d ae82 9f3d 2400 f33b 48f7 d2bd
00000380: 5972 a9bd 263a d9bc beb0 253d 493f 813e
00000390: 5b52 a0bd 5e54 83bd b134 893d 3ee6 99bc
000003a0: 79f6 113b 4b6f e93c a511 b43d 0330 8ebd
000003b0: 40ed bd3c 6b64 083e 711e b7bc bc5c e63d
000003c0: 13c7 cc3c 2804 09be 6634 103d 66da 73bd
000003d0: 02b5 fabc 5683 ecbc ef77 0f3d d050 573e
000003e0: 1b7f 833d beab 133e eba8 9dbd 8620 b63d
000003f0: b5e7 e6bd bfc3 7fbd f142 71bd 4291 143d
0.094473705 0.020591302 0.07992936 0.05044466 -0.13438427 -0.027349008 0.09588212 -0.18028945
0.07015488 -0.022630617 0.1638607 -0.10957778 0.11143435 0.07955776 0.08446494 0.0027358343
-0.046955623 -0.06732805 -0.034858808 -0.13659005 -0.044840354 0.054568782 0.00080598216 -0.07132739
-0.028223626 -0.1329403 -0.002399086 -0.054020155 -0.030125974 0.083794095 0.045628093 0.15285318
0.07128796 0.0913851 -0.025927387 -0.09879164 0.08112573 0.028034179 0.016596898 0.13105467
0.028997252 0.0709034 -0.057114184 0.13261855 0.068986736 0.10794617 -0.063788116 0.07744404
-0.08691848 0.055417787 0.11639017 -0.11738666 -0.13997477 0.102118224 0.018044533 -0.033256773
-0.059262533 0.19107665 0.07630097 -0.053267937 0.055708714 -0.060005512 0.16371809 0.052421987
0.08375891 -0.027582735 0.17833045 4.777452e-05 -0.17400385 -0.0117130205 0.019179557 0.14553878
-0.13082841 0.14965263 0.053062547 0.24309078 0.1761786 0.17713147 -0.042843703 -0.16701332
-0.020544907 0.099542424 -0.007848039 0.088629015 0.01875504 0.032488573 -0.10044104 0.005851623
0.042035867 -0.0228717 -0.02512504 -0.075669646 0.03444841 0.079208806 -0.027870538 -0.09261753
0.015310927 -0.022686737 0.13938195 -0.004607517 0.05026078 0.12520581 0.013071206 -0.07176423
-0.08914669 -0.00012146181 0.10917586 0.026530566 0.015809994 -0.09584095 0.10095608 0.039385356
0.055874947 -0.008983997 0.077741124 0.12146894 0.109151304 -0.02422772 -0.08037021 -0.032795623
-0.056666274 0.07222239 -0.052714564 -0.009405729 -0.025842382 -0.026332568 0.09843507 0.117116645
0.18819858 0.024911389 0.059150316 -0.18664415 0.11298496 -0.02279811 0.059193086 -0.031719185
0.042123817 0.090460256 0.018485408 0.036408596 -0.07345597 -0.12941033 0.009967481 -0.06695583
-0.08289321 0.12038364 -0.022304133 -0.08988925 0.15549882 0.13033427 -0.013347564 0.1252731
0.015251334 0.06568255 -0.002824849 0.09876225 -0.080943204 0.01892028 -0.0039745695 -0.06133185
0.029907748 -0.14498214 0.10637995 -0.036728524 -0.058913615 0.08091779 0.07216236 0.07216279
-0.10338029 -0.22150767 -0.081147246 0.178007 -0.012282177 0.012932797 0.009399307 0.16397265
-0.048766226 0.054165218 0.022367902 -0.05403151 0.035241332 -0.038314287 0.070465386 0.13156642
0.052123833 0.08119118 -0.054227505 0.015435841 0.022611134 -0.02704775 0.11249326 -0.07520498
-0.026330978 0.030257238 0.19989821 -0.0134766055 0.0046068523 0.041699614 -0.04677918 0.027619455
0.059265114 0.10778855 -0.04213614 -0.18300979 -0.086500876 0.07811884 0.11769996 0.1148355
0.009915135 0.16446337 -0.047018975 -0.010989102 -0.1408332 0.024619669 0.052347552 0.06838609
-0.031101014 -0.049910724 0.11879878 0.06276741 0.10992863 0.07788597 0.0074157882 -0.103010714
-0.08273763 -0.026516985 0.040451758 0.25243595 -0.07828208 -0.06412576 0.06699503 -0.018786546
0.0022272153 0.028495451 0.08792428 -0.06942751 0.023184419 0.13319556 -0.022353383 0.112481564
0.02499727 -0.13380492 0.03520622 -0.059534453 -0.03060389 -0.02887122 0.035026487 0.21026921
0.06420728 0.14420983 -0.07698234 0.08892922 -0.11274663 -0.062442537 -0.05890173 0.03627134

layer2.bias f4 [128]
00000000: 7956 c83a 770d 7539 5872 3c3a a567 2fbb
00000010: 74d8 003b 503f 9d3a 6e93 0fba 4980 16bb
00000020: 4740 a33a 2204 7f3b 5391 103b 3859 8d3b
00000030: a30d e6ba e873 49bb 41d7 52bb 3a06 373b
00000040: ac26 2d3a e4d4 9e3a b0ce 7639 56a3 783b
00000050: 6630 2b3b 3172 45bb 4d83 1d3a 1fe7 fe3a
00000060: baa6 e3ba 33bf 36bb e309 86bb c0dc 863b
00000070: fed4 e2ba 3590 063b 5ceb 9eb9 c901 d33a
00000080: a3bc 503a 24f4 563a 444e 8639 a053 b03a
00000090: 26d7 893b 0e94 3bba 8fa2 16bb 1377 323b
000000a0: 11a6 453b 8c21 9b3b adfe caba 4c4b 863b
000000b0: 80fa 9b3a 3233 1dba 565a 713a e8a6 87ba
000000c0: ce20 2639 bade 573a 6564 91bb 5d4a 13bb
000000d0: c095 8138 f2aa 4939 f672 213b 518f 19bb
000000e0: c3c7 143a 52bd 86ba 4baa 3fbb 74c8 253b
000000f0: 2a60 37bb 767e 33bb fdb1 11bb b96e 473b
00000100: 709b 2c39 6aad 253b 5fa0 ab3a ccb4 183b
00000110: d2b6 12bb 41ee 753a 29e5 83bb 7928 2bba
00000120: c644 193b eefe 933a 53ad 9a3a 98c9 083b
00000130: 3503 4a3a e6bf 3a3b de03 253a c88b 45ba
00000140: 1268 8639 1c89 873b bd8c 25bb 9fe0 8db9
00000150: c6e0 21bb 06f6 903a 7e29 303b c857 3cba
00000160: fa15 4b39 d469 64bb 24f2 54bb 2dd0 c93a
00000170: ac53 44bb 4894 9ab9 cbdb baba d61f 163b
00000180: bf21 93bb 82cd 08bb c37d 51bb c4f0 51ba
00000190: 503b 97ba 5cc9 93ba 3062 04ba 5857 acba
000001a0: 5500 63bb f097 703b bbc8 a13a 63a6 4fbb
000001b0: 5837 93b9 13f4 983a 6b81 c739 ac10 20bb
000001c0: 7ea4 0f39 55f4 223a 32f8 1dba c0e4 a13a
000001d0: 4dbe 9a39 9ecf 1bbb fb57 993b e79d 843a
000001e0: 04b2 b13a 7b25 f13a 0e33 69ba 519c b03a
000001f0: 3175 363b 1f1c 2b3b ba13 e3ba 7cf6 973a
0.001528456 0.00023370037 0.00071886694 -0.0026764658 0.0019660266 0.0011997018 -0.0005476986 -0.0022964648
0.0012455069 0.0038912375 0.0022059276 0.004313614 -0.0017551671 -0.0030739252 -0.0032171758 0.0027927295
0.0006605189 0.001211789 0.00023537385 0.0037939153 0.0026121377 -0.0030127878 0.000600864 0.0019447542
-0.0017368414 -0.002788496 -0.004090534 0.004115671 -0.0017305908 0.0020532731 -0.00030311465 0.0016098554
0.00079626794 0.0008199832 0.00025616784 0.0013452657 0.004206556 -0.0007155546 -0.0022985076 0.0027231618
0.0030158798 0.0047342237 -0.0015487276 0.0040983316 0.0011900216 -0.00059967034 0.00092068815 -0.0010349425
0.00015843214 0.0008234788 -0.004437017 -0.0022474744 6.1790925e-05 0.00019232536 0.0024635172 -0.002343137
0.0005675519 -0.001027981 -0.002924579 0.0025296481 -0.0027980902 -0.002738861 -0.0022231333 0.0030430986
0.00016461103 0.0025280365 0.0013094059 0.0023301123 -0.0022386801 0.0009381511 -0.0040251208 -0.0006529163
0.002338694 0.0011291185 0.0011800922 0.0020872112 0.00077061664 0.0028495728 0.0006294827 -0.00075357826
0.0002563601 0.0041362178 -0.0025260889 -0.00027060971 -0.0024700626 0.0011059649 0.00268802 -0.0007184711
0.00019367776 -0.0034853118 -0.003249296 0.0015397124 -0.00299571 -0.00029483647 -0.0014256177 0.002290716
-0.004490107 -0.0020874445 -0.003196583 -0.0008008594 -0.0011538062 -0.001127522 -0.00050500315 -0.0013148589
-0.003463765 0.0036711656 0.0012343148 -0.0031684868 -0.0002807926 0.001166942 0.00038052662 -0.0024424
0.00013698821 0.0006216218 -0.00060260587 0.0012351498 0.00029514954 -0.0023774873 0.0046796775 0.0010117859
0.0013557081 0.0018398011 -0.00088958524 0.001347432 0.0027840848 0.002610929 -0.0017324605 0.0011593844

layer3.weight f4 [64, 128]
00000000: 980c 8cbd 5c4f d43d 2495 5bbd 102f 553e
00000010: e2e3 cb3c fbaa d1bc 08c7 eabd c49e 79bd
00000020: eba4 833b 0aa7 8d3d d7c5 a9bd 08c7 b53c
00000030: 6d35 efbd deb6 a2bc 027b 033e 7af4 753d
00000040: 2f7f 6e3d f1d2 e9bd f8c2 0ebe 76eb e7bc
00000050: 9e89 84bd 296d a53d d103 b53d a3b1 d53d
00000060: 8bf9 22bd ab30 96bd 6bd9 073c bb69 1abe
00000070: f928 3d3d df24 e9bd ecd1 753d c8b9 713d
00000080: 0130 cb3b 65ce a5bd e30f 35bd 38d4 983c
00000090: a820 793d 6e7f d6bb a195 003d ed62 42bd
000000a0: ff89 87be 8e1e 68be b2d0 b0bd 746a 3ebe
000000b0: 9717 88bd 0ee3 51bd c27c 773d bc05 be3d
000000c0: 8221 04bc f529 a23c 3154 113c ca58 71bd
000000d0: 74a5 62bd 1034 7ebc 35e2 08bd a6c3 0cbe
000000e0: 491a 193c 8e1f db3d 2e15 a6bc 718d 193d
000000f0: 5946 f7bb 8a99 813d 6b5a 693d a0b2 3f3d
00000100: b3e6 18bc 18a4 5d3d 4960 7ebd af04 a73d
00000110: 0792 3b3d 672b 15be d392 6dbd 09d5 5d3d
00000120: 85e9 ecbd df4b c23d 016d a8bc 6ca4 17be
00000130: 326b e03c b23a 07be 1bc4 2f3e b1eb df3c
00000140: 5913 80bd 7f2b 973e b25c 0f3d aa77 2bbc
00000150: 581c 31bd afd8 91bd 6528 063d b73e 9f3d
00000160: bad1 6dbd e9de cb3d eada 61bc dd75 c73d
00000170: ab49 e43d 6c98 50bd bee8 7d3d 163a 29be
00000180: 2561 7a3d cec7 923d cd96 743d 404f e33d
00000190: 1f1c 38bd 6f4d 9bbd 486e b3bc c411 c33d
000001a0: bfe3 0abe b52f ca3d ccd0 bebd bf3a 9d3c
000001b0: 49ce 16bd 0767 cebd 7cf0 d73d bd1f 0c3e
000001c0: 0d5d 3a3d d2ec f5ba 53c2 2c3d 9261 803d
000001d0: f3b0 4b3c 78e4 5abd 07bb 1dbc d3fe 0d3e
000001e0: a634 8fbd 13dd 8fbc 7449 f6bb 19c0 fcbd
000001f0: b47f b8bc a863 943d 76cb b8bd 906b 81bd
00000200: 1fe9 08bd f40b ec3d 78bc 823d e179 513d
00000210: 7c3f 8b3c 7529 de3a 337c a53c 7bc2 1d3d
00000220: 736a 073e a4c6 3b3d cfb3 163e a402 9bbc
00000230: 696b e3bc abfd f93b 5a6e b5bd 6848 16bd
00000240: 2479 613d 411e e93d 3f39 683c 9a99 493d
00000250: 2fca 8cbc ae92 053d 5bb4 29be 34b4 c73d
00000260: b09b 15bd e47c 88bd d5b0 803c 68dd 1cbd
00000270: 8e6b 713d c6a8 d9bd fe2c b7bd ca83 7dbd
00000280: 2c48 ecbd d35d 253e e5e3 0b3d b4ef 223c
00000290: d433 87bd f12e 63be 1625 123e 5979 da3d
000002a0: a46e 983d 8df9 183b 9736 bb3c 296f 8c3d
000002b0: 9697 e7bd a948 4ebd dfbf 5cbd 5d44 463e
000002c0: e831 c7bc abd2 1e3e 048f 293d 4179 93bd
000002d0: 0370 1d3e 5d42 91bd 3f28 a33c 9253 d2bd
000002e0: 738f 823d c806 773d b948 3cbe 8e19 e13c
000002f0: 1f97 273d 1ade 87be d68e 1ebd 3138 253d
00000300: 9f1b b93d d444 e13d d9de 183d 6acb 333d
00000310: 8b6c 593e e2ec 0a3e 196e acb8 116c de3d
00000320: 1de8 713d 3efa 6d3d d73f 113d 3fb6 af3c
00000330: 7449 ca3d 7d11 673c 9f8c 3cbe a2e5 4c3d
00000340: 8f34 ac3d 0c87 493e 08d4 d63d 65ae 023c
00000350: 05d1 bebc 4369 2cbd f1f2 493c 7d10 573d
00000360: 73e5 c63d 7b81 9cbd 7755 36bd d237 e8bd
00000370: 9879 3cbd 40bf 09be eba8 af3d 0039 3fbd
00000380: b7e0 d63b 0dd8 78bd a0dd b4bd 8f30 a4bd
00000390: 7863 d4bc 2e4b 28bd 285b bb3d 5dda 6b3d
000003a0: 2c33 00be e447 7b3d f606 82bc e035 223d
000003b0: df7e 8ebd b8c3 da3d c56f 9fbd 6470 1bbd
000003c0: 472f 533d 74c1 ac3d 794f 76bc 96ff 033e
000003d0: 3bb7 bc3d b55f 8d3c e146 4b3e c09f 3e3d
000003e0: 711f 56bd feb4 44bd 6fb9 6cbd 1ccb ef3c
000003f0: 8797 62bd a664 61bd e893 f23d e301 ae3b
-0.068383396 0.10366699 -0.05360903 0.20818734 0.024888936 -0.025594225 -0.114637434 -0.060942426
0.0040174625 0.06916626 -0.08289688 0.022189632 -0.11680112 -0.019862588 0.12839893 0.060047604
0.05822676 -0.11417187 -0.13941562 -0.028310519 -0.06471561 0.08077461 0.088386185 0.10434272
-0.039788764 -0.073335014 0.008291583 -0.15079395 0.046181653 -0.11383986 0.06001465 0.059015065
0.006200791 -0.08096007 -0.044204604 0.018655881 0.06082216 -0.0065459525 0.031392697 -0.047457624
-0.2647247 -0.22667906 -0.086335555 -0.18595296 -0.066451244 -0.051241927 0.060421713 0.092784375
-0.0080646295 0.019795397 0.00887017 -0.058922566 -0.05533357 -0.015515342 -0.033418853 -0.13746509
0.009344646 0.10699378 -0.020273771 0.037488405 -0.007546228 0.063281134 0.056970995 0.04680121
-0.009332347 0.05411157 -0.062103543 0.0815519 0.04579356 -0.14567338 -0.05800135 0.054158244
-0.11567978 0.094871275 -0.02055979 -0.14808816 0.027394865 -0.13205984 0.17164652 0.027334066
-0.0625369 0.29525372 0.03500051 -0.010465542 -0.04323992 -0.07121407 0.032753367 0.07775634
-0.05806134 0.09954626 -0.013785103 0.097392775 0.111468635 -0.05092661 0.06198954 -0.16526064
0.0611278 0.07167016 0.059714127 0.110991 -0.044948693 -0.07583129 -0.021903172 0.09524873
-0.1356344 0.09872381 -0.093171686 0.019193051 -0.036817823 -0.10078245 0.10543916 0.13683982
0.045498896 -0.0018762595 0.04217751 0.0626861 0.012432325 -0.05344054 -0.00962711 0.13866739
-0.06992464 -0.017561471 -0.0075160805 -0.12341327 -0.022521831 0.072455704 -0.09023182 -0.06319344
-0.033425447 0.115257174 0.06383604 0.051141623 0.016998045 0.0016949611 0.020200824 0.03851555
0.13224201 0.045843735 0.14717029 -0.018922158 -0.027761178 0.0076291165 -0.088589385 -0.036690146
0.05504717 0.113827236 0.014173805 0.04921875 -0.017186252 0.032610588 -0.16572706 0.09751168
-0.03652543 -0.06664446 0.01570932 -0.038297087 0.058940463 -0.10627894 -0.089441285 -0.061893262
-0.11537203 0.16149072 0.034152884 0.009944845 -0.06601682 -0.22185875 0.1427196 0.106676765
0.07442978 0.0023342103 0.022853179 0.068571396 -0.113082096 -0.050362263 -0.05389392 0.19362016
-0.02431579 0.15510051 0.041396156 -0.07200862 0.1537476 -0.07092736 0.019916652 -0.10269846
0.06375017 0.0603092 -0.18387116 0.027478006 0.040915605 -0.26536638 -0.038710438 0.04033679
0.090384714 0.10999456 0.0373219 0.043895163 0.21232812 0.13566926 -8.2221064e-05 0.10860456
0.05905925 0.058099978 0.035461273 0.021449206 0.09877291 0.014103291 -0.18413018 0.050023682
0.08408462 0.19680423 0.104896605 0.007976149 -0.023293028 -0.042092573 0.012325988 0.05250596
0.09711733 -0.07641884 -0.0445151 -0.11338772 -0.0460144 -0.13451862 0.085771404 -0.04668522
0.00655755 -0.060752917 -0.08831334 -0.08017074 -0.025926337 -0.041087322 0.09148246 0.057581294
-0.1251952 0.061347857 -0.01587246 0.03960216 -0.069577925 0.10681862 -0.0778499 -0.03794898
0.05155876 0.08435336 -0.015033596 0.12890467 0.09214636 0.01725755 0.19851257 0.04653907
-0.05227608 -0.04802417 -0.05779403 0.029271655 -0.05532029 -0.055027626 0.11844617 0.0053102835

layer3.bias f4 [64]
00000000: fcd5 33bb 85c7 e53a 55ed 6bbb 81e0 f539
00000010: 01f0 633b 4fd3 89bb fc7b 66bb 38ca 5e3b
00000020: 7c30 53bb 2c2a 19bb efa6 ef3a 3b1f 623b
00000030: 9417 f5ba 82b7 5e3b 2482 a7ba 7f23 26ba
00000040: bc1e 863b 3cc1 c6ba c574 6f3b b71d 10bb
00000050: acb3 0bba d867 8abb 7245 fb3a 2e38 11bb
00000060: 77d7 7e3b 840c de39 2ba8 c7ba 5f4c 573b
00000070: b951 70bb 1790 25bb b411 30ba 06dd 16bb
00000080: dfa5 8cbb fceb c4ba a726 6f39 f808 6dbb
00000090: a16d d9b9 ba3a cbba 983a 7ebb 40f0 83b9
000000a0: 4b78 03bb c2dc 903a 933a c8ba 70f0 653a
000000b0: 130a 63bb 77e1 09ba 740a b9ba 09c3 e3ba
000000c0: 0bcb 7fbb b85b 7abb b2e1 7bb9 e3f2 8b3b
000000d0: f945 98bb cd09 d13a 48d8 2f39 7c6e 5ebb
000000e0: c029 dbba 2a63 81bb 8471 7eba a8eb 8abb
000000f0: 4d06 e739 fb1d 743b feee 8bbb 865a 733b
-0.0027440777 0.0017530775 -0.0035999615 0.0004689731 0.0034780505 -0.004206098 -0.0035169115 0.0033995043
-0.0032224944 -0.0023371084 0.0018284003 0.0034503478 -0.0018699043 0.003398389 -0.0012779874 -0.0006337687
0.0040930193 -0.001516379 0.0036538106 -0.0021990368 -0.00053292024 -0.004223805 0.0019170477 -0.002215873
0.0038885751 0.00042352465 -0.0015232613 0.0032851917 -0.0036669804 -0.0025262886 -0.0006716505 -0.0023019924
-0.0042922343 -0.0015023942 0.00022807215 -0.0036168676 -0.00041471145 -0.0015505173 -0.0038792249 -0.00025165267
-0.0020060714 0.0011052119 -0.0015276246 0.0008771485 -0.0034643456 -0.0005259732 -0.0014117495 -0.0017376851
-0.0039030935 -0.0038201641 -0.00024021303 0.0042708977 -0.0046470133 0.0015948355 0.00016769872 -0.0033940366
-0.0016720816 -0.003948589 -0.0009706246 -0.004239518 0.00044064448 0.0037249315 -0.0042704334 0.0037132814

layer4.weight f4 [9, 64]
00000000: fe45 f33d 76c1 cfb8 8623 0ebe 2af7 e83c
00000010: 0288 ac3d b802 4a3e a380 06be 6e7d 10be
00000020: 4d50 85bd c915 8bbd fad3 5d3e 1377 1e3e
00000030: f8e0 03be 70c5 5cbe 1287 c8bd db51 9d3d
00000040: d4c7 843e 0460 b3bc ccb1 b23c f596 4a3e
00000050: 2a56 803d 2baf 59bb e9da 98bd 48dd 6cbc
00000060: e9fd d8bd e95c 91bd 19c7 6f3e 3523 e93d
00000070: 7ebf 0ebe 709a 923e d8a5 a93d 2d49 ed3b
00000080: 63fe 7cbd 875a 323e 934b 4f3b 4b5e 053e
00000090: fc43 173e 3ee4 413e 0643 603d 9735 ed3c
000000a0: 76e3 81bd d3e2 8d3b 4e0a f5bd e2f6 523e
000000b0: 161f c9bd 70b2 1d3e 92ae 4f3e ed16 c23d
000000c0: 708f 5c3d 561a 3cbd 79a9 473e b24a 12bd
000000d0: f2ce ddbd 5f05 693d 607a 373d 5d98 9d3d
000000e0: 1893 51be 4ac8 073d 9a6e 9abd 5071 2f3d
000000f0: bd78 61bb 813c 16be fbb6 0bbe bdf1 9d3d
00000100: f25e 49be 07d3 4e3c 789b 00be d28b 47bd
00000110: fffd 353e c554 dcbc 4f2d 773d ae4d 813b
00000120: 05fa 4ebe 46ed d7bd af33 913e 0617 c13c
00000130: 1601 283e 7083 103a a2a6 8d3e be85 40be
00000140: e796 663e fc50 9bbc 21e7 d73d 1a7a 393d
00000150: 35c8 8c3e 9d3b eb3a b014 d0bd 7ec3 9e3d
00000160: 13aa c4bd e0b2 573e 6ff3 cbbd 0ca0 41be
00000170: 3642 033d 25e1 60be b0de 033e a9b1 5bbd
00000180: a321 39be 9492 383c e4a6 953d 6272 05be
00000190: 29ac 75bd 3178 3f3e e8df 90bc c7ed 493d
000001a0: 22d2 ccbd e989 19bd bf39 ea3d 52fb c33d
000001b0: 2dc1 fc3c 6967 e33c b348 5fbd d605 40bd
000001c0: 1369 bcbd 6bec 493e 6b0a e5bc e02d 1c3d
000001d0: 794e ce3d 53e5 013e 55dc 66bd 4783 a13c
000001e0: 5846 a93a 1333 5abc df7b babd d825 fabd
000001f0: 31b8 613d 185c 003e 434a 68be 96e2 f0bd
00000200: 9802 553c 1188 1a3d 68fa 29be 66dc cd3d
00000210: 4cda 09be 5cbc ed3d 6b38 6fbd 3fa6 a1bd
00000220: 2ce5 213b a807 c6bd 7612 5dbd 5b23 efbc
00000230: a49f 193e 4fa1 7b3d eabe 5bbe 6b2b 7cbd
00000240: a93b 8b3b 2059 023d b159 00be 5c7e 6bbc
00000250: fe76 ca3d a436 a63d 4b55 c8bd a3d1 723e
00000260: 3ac6 7dbe b291 7bbc 6a0d c7bc aa41 a53c
00000270: d486 233e 7ade 953b 5050 333d b6bb 523e
00000280: 0573 0ebd 5ca6 41be c4b6 333e 1b7e f33d
00000290: bf43 593e 62fb 873d 88c6 4abd 2747 6f3e
000002a0: fbe5 f83d dc8b 9a3e b740 593e 0d8d e0bd
000002b0: 93a5 17bd f5e4 c23d 1d20 bbbc 146f 94ba
000002c0: 75d8 3bba a655 b23d 114f 59be d9dd 47bc
000002d0: 1300 043e efce 2abd 7a76 413d 5400 e63d
000002e0: 437e 38be 0191 aabd f82b 9e3e af8d b83d
000002f0: 728d d9bb 8d48 a9bc 5635 4f3d d218 143c
00000300: 1cbf f0bb 2762 c9bd f23a 0ebe 142e 3f3d
00000310: 7feb d6bd 45b3 3fba bb3f 6e3e ddd1 d6ba
00000320: 338d c13d a5e8 063d bdf0 b33e dd00 553d
00000330: 5d62 1cbd ab85 2fbe caba 69be 025e 6a3c
00000340: 852a 013e cdee c33d 7c9d 883d ac2a 053d
00000350: 8b02 513c 2287 4c3e 7fc4 2e3e d9ce 203e
00000360: 2e21 393e f324 21bd 8c54 96bc c7b0 f5bc
00000370: 912c d8bd 4b7a 1abe 8b98 dcbc 317b 95bd
00000380: ebfe 163e d6fb edbd 0463 ec3d d3c9 0e3d
00000390: 4fbe 753d 90cc f1bd b322 8cbc dbad 0dbe
000003a0: dcb8 6abd dcc3 103e 7e4f 2d3e 5315 d63c
000003b0: 1759 a0bd e40c 43be 193e f139 8a87 953d
000003c0: 5c96 9a3d ec4b eebc a9b9 a03d 456d 1fbd
000003d0: a430 e5bd 1f59 3ebe 9111 733e 409d 7ebd
000003e0: dc80 883d b9f5 883e da7a 233d 691d d4bd
000003f0: 45c5 bf3d b483 8b3e 3de6 0fbd 3ebf 893c
0.11878584 -9.906564e-05 -0.13880739 0.02843817 0.08424379 0.197276 -0.13135009 -0.14110348
-0.06509457 -0.067912646 0.21662894 0.1547511 -0.12878788 -0.21559691 -0.097913876 0.07681628
0.25933707 -0.02189637 0.021813296 0.19784148 0.062664345 -0.003321598 -0.07463629 -0.014457054
-0.105953045 -0.07097799 0.23415793 0.11383668 -0.13940236 0.2863345 0.08283585 0.0072413892
-0.06176604 0.17417346 0.003163074 0.13024251 0.14772028 0.18934724 0.05475142 0.028956218
-0.06342213 0.004330018 -0.11964856 0.20601991 -0.09820382 0.154001 0.20281437 0.09477029
0.05384773 -0.045923553 0.19498242 -0.035715766 -0.10830487 0.056889888 0.04479444 0.076950766
-0.20466268 0.033149995 -0.07540627 0.042832673 -0.003440424 -0.14671518 -0.1364402 0.077121235
-0.19665125 0.012623555 -0.12559307 -0.048717327 0.17772673 -0.02689589 0.060345944 0.0039460277
-0.20212562 -0.10543303 0.28359744 0.023570549 0.16406664 0.000551275 0.27666193 -0.18801019
0.22518502 -0.018959515 0.10542131 0.04528246 0.27496496 0.0017946843 -0.10160196 0.07752131
-0.096027516 0.21064329 -0.09958541 -0.1890871 0.032045566 -0.21960886 0.12877917 -0.053636227
-0.18079238 0.011265416 0.073072225 -0.13031915 -0.059978638 0.18698193 -0.017684892 0.049299028
-0.10001017 -0.037485037 0.114367954 0.0956942 0.030853832 0.02775927 -0.05451269 -0.046880566
-0.09199729 0.19719093 -0.02795907 0.038129687 0.10073561 0.12685136 -0.05636247 0.019715918
0.0012914641 -0.013317841 -0.09105658 -0.12214249 0.0551073 0.12535131 -0.22684579 -0.11761968
0.013001107 0.03772742 -0.16599429 0.10051803 -0.1346218 0.11608192 -0.058403414 -0.07893037
0.0024703247 -0.09669429 -0.053972684 -0.029191663 0.15002304 0.061433133 -0.21459547 -0.061564844
0.0042490554 0.031823277 -0.12534215 -0.014373388 0.09885977 0.081158906 -0.09781893 0.23712783
-0.24782649 -0.015354561 -0.024298389 0.020172913 0.15969402 0.0045736404 0.043777764 0.20579419
-0.03477766 -0.18911117 0.17550188 0.11889287 0.2121725 0.06639744 -0.04950574 0.23366986
0.1215324 0.3018483 0.21216093 -0.10964403 -0.03702314 0.09516326 -0.022842461 -0.0011324608
-0.00071657385 0.087077424 -0.21221568 -0.012198889 0.12890653 -0.041701254 0.04723213 0.11230531
-0.18016915 -0.083284386 0.3089292 0.09011399 -0.006639176 -0.020664478 0.050587974 0.009039121
-0.0073470008 -0.09833174 -0.13889673 0.046674803 -0.10494136 -0.0007312785 0.23266499 -0.0016389448
0.0945076 0.03293671 0.35144606 0.052002776 -0.038179744 -0.17140834 -0.2282516 0.01430464
0.12613876 0.09567032 0.06670663 0.0325114 0.012756954 0.19973424 0.17067145 0.15703906
0.18079063 -0.03934188 -0.018350862 -0.02999152 -0.10555375 -0.15085714 -0.026928207 -0.072988875
0.14745681 -0.116202995 0.11542323 0.034860443 0.059995946 -0.11806595 -0.01710639 -0.13835852
-0.057305202 0.14137214 0.16924855 0.026133215 -0.078294925 -0.19047886 0.00046013368 0.07301243
0.0754821 -0.029088937 0.07847912 -0.038922567 -0.11190918 -0.18588684 0.2373717 -0.062161684
0.06665203 0.26749972 0.039912082 -0.10357172 0.09363798 0.2724892 -0.03513168 0.016814824

layer4.bias f4 [9]
00000000: 4c52 053b 4cb2 3c3b e411 22bb 3ffc 133b
00000010: 8b6f ba3a b911 833b 9d00 e739 b988 45bb
00000020: 410d 7dba
0.0020343242 0.0028792797 -0.0024729902 0.002258077 0.0014223916 0.0039999154 0.0004406021 -0.0030141308
-0.0009653159

layer_norm1.weight f4 [128]
00000000: c562 803f 1cd7 7f3f 7e51 803f 5c1a 803f
00000010: 0000 803f a772 7f3f 3e3c 803f 382f 7f3f
00000020: 722d 803f d606 803f 4b03 803f f0fa 7f3f
00000030: 7933 803f 7150 803f d547 803f c5b7 7f3f
00000040: 3479 803f c171 803f bf94 7f3f 1a2c 803f
00000050: 3d07 7f3f 0000 803f 4e67 803f 9ae6 7e3f
00000060: d380 803f 2908 7f3f bc35 803f 784c 803f
00000070: 136b 7f3f 300e 7f3f 3ed2 7f3f c97c 7f3f
00000080: d2a2 7f3f 6832 803f 0fc0 7f3f b026 803f
00000090: 0000 803f 693b 803f 9f26 803f b34b 803f
000000a0: de66 803f 16a2 7f3f 9bcb 7f3f e015 803f
000000b0: 8d7f 7f3f 0785 7f3f 815b 803f e14f 803f
000000c0: 7346 7f3f affb 7f3f 8688 7f3f eb22 803f
000000d0: 3065 803f 039e 7f3f f580 803f 0000 803f
000000e0: 7f15 803f e12a 803f a4a6 7f3f b8fd 7f3f
000000f0: 8410 803f be31 7f3f e941 803f 68ec 7e3f
00000100: 7c84 7f3f 9a44 803f a1c9 7f3f 3f0c 803f
00000110: 0000 803f d1a1 7f3f ec00 803f 58d3 7f3f
00000120: f979 7f3f 006a 803f 7275 7f3f 4d58 7f3f
00000130: 8275 803f dcee 7f3f 3a73 803f db7f 7f3f
00000140: fd36 7f3f 2e4c 7f3f d05d 7f3f 0218 803f
00000150: aad1 7f3f 9859 803f d1d0 7f3f 8273 803f
00000160: 0000 803f bd4b 803f 22cf 7f3f fe74 803f
00000170: c345 803f 7736 7f3f a78f 7f3f 0000 803f
00000180: b841 803f 0000 803f 0000 803f 012d 803f
00000190: 2938 7f3f 95ec 7f3f 4c9b 803f 59e6 7f3f
000001a0: b90d 803f 871d 803f 5f5f 803f 7608 803f
000001b0: 0ca4 7f3f 4d0c 7f3f 4a4d 7f3f 1383 803f
000001c0: c502 803f 87bf 7f3f ed61 803f e0f7 7f3f
000001d0: 773f 803f a4f5 7e3f 2b45 7f3f 6ce7 7f3f
000001e0: 3e22 803f f259 7f3f 6822 803f cd6f 803f
000001f0: a27a 7f3f 571b 803f c3ce 7f3f a330 803f
1.0030142 0.99937606 1.002487 1.0008044 1.0 0.9978432 1.0018384 0.99681425
1.0013869 1.0002086 1.0001005 0.99992275 1.0015708 1.0024549 1.0021921 0.99889785
1.0036988 1.0034715 0.99836344 1.0013459 0.9962042 1.0 1.0031526 0.9957062
1.0039314 0.99621826 1.0016398 1.0023336 0.9977276 0.99631023 0.9993018 0.9979978
0.9985782 1.0015383 0.99902433 1.0011806 1.0 1.001813 1.0011786 1.0023102
1.0031393 0.998567 0.9992005 1.0006676 0.99804 0.9981236 1.0027925 1.0024377
0.9971687 0.99993414 0.99817693 1.0010656 1.003088 0.9985048 1.0039355 1.0
1.000656 1.0013086 0.9986365 0.9999652 1.000504 0.99685276 1.0020114 0.9957948
0.9981153 1.0020936 0.99917036 1.0003737 1.0 0.9985629 1.0000281 0.9993186
0.9979549 1.0032349 0.9978858 0.9974411 1.003586 0.99973845 1.0035164 0.99804467
0.9969328 0.99725616 0.9975252 1.0007327 0.99929297 1.0027342 0.99928004 1.003525
1.0 1.0023113 0.99925435 1.0035703 1.002129 0.9969248 0.9982857 1.0
1.0020056 1.0 1.0 1.0013734 0.9969507 0.9997037 1.0047393 0.9996086
1.0004188 1.0009011 1.0029105 1.0002582 0.9985969 0.99628145 0.9972731 1.0040001
1.0000845 0.9990162 1.0029885 0.999876 1.0019368 0.9959357 0.99714917 0.99962497
1.001045 0.9974662 1.00105 1.0034119 0.997965 1.0008343 0.9992487 1.0014843

layer_norm1.bias f4 [128]
00000000: d9b1 773b 294e 73ba 4b8d e03a 10d3 383b
00000010: 0000 0000 511d d8ba 6fd7 323b 4548 5ebb
00000020: 6657 c93a f479 2a3a de9f 6eba 55f6 4739
00000030: 0e91 a63a 0ae4 4c3b 4b7c 2c3b ff13 10bb
00000040: e4c2 603b b5cc 7c3b 51d1 99ba 6b0d 183a
00000050: f607 51bb 0000 0000 f20d 7d3b 5ede 91bb
00000060: 57bb 813b ca72 3dbb d41c 6e3a 5912 233b
00000070: a120 1cbb 3899 7cbb 8750 35ba 38dc 7fba
00000080: e241 27bb d726 8239 51e3 43ba 3506 ee3a
00000090: 0000 0000 9003 f23a c5a6 913a a6ce 443b
000000a0: 1dae 4b3b f984 d4ba f293 69ba 0da3 513a
000000b0: a1d2 c7ba 759d f4ba 1207 6e3b 9cad 273b
000000c0: 0969 35bb 05fe 3639 b7d8 eeba b7c7 843a
000000d0: ec16 343b 6ef1 01bb e2cd 733b 0000 0000
000000e0: 25f8 5c3a 9635 df3a 8bc4 93ba 8038 30b8
000000f0: cca0 a5b9 621f 83bb 1501 063b eb86 88bb
00000100: fc72 00bb 82b4 f33a 35ea 1bba fd36 e539
00000110: 0000 0000 23d4 6538 35f4 5e3a c2e5 a3ba
00000120: 5721 02bb f999 273b f293 33bb 9168 29bb
00000130: 0a42 703b a8ad feb9 d3c5 3b3b c18a 07bb
00000140: 9207 22bb bc5c 24bb 7588 b1ba 83b6 f53a
00000150: 6160 43ba f796 363b 2434 463a c1da 7e3b
00000160: 0000 0000 6912 643b 403f 56ba 176a 933b
00000170: 4a12 373b 5dac 3abb d4fa 73ba 0000 0000
00000180: 1773 f23a 0000 0000 0000 0000 70fb cdb8
00000190: 4e99 53bb 803f cdb9 2747 8f3b 7063 e139
000001a0: 0ffc 24bb 969c 85b8 9cc5 483b 5de0 8739
000001b0: d73b eeba 0528 85bb 70f0 27bb 0163 893b
000001c0: ddf2 31b9 99a7 8bba 5fce 3e3b 6813 54b9
000001d0: 9e1b 0c3b b966 74bb a513 b5ba b084 d7b9
000001e0: 6c9e bb3a 0e2a 0c3a 139e fe3a ac18 5b3b
000001f0: fe09 beba 0fe5 043b 5bad dbb9 5c53 8e3a
0.0037795214 -0.0009281361 0.0017131952 0.0028201975 0.0 -0.0016488229 0.0027289053 -0.0033917588
0.001536113 0.0006503158 -0.00091028016 0.00019069885 0.0012708025 0.0031263852 0.0026319202 -0.0021984575
0.0034295851 0.0038574163 -0.0011735355 0.0005800339 -0.0031895614 0.0 0.0038613048 -0.004451557
0.0039591 -0.002890753 0.0009083275 0.0024882762 -0.002382316 -0.0038543474 -0.00069166016 -0.0009760293
-0.0025521447 0.0002482447 -0.00074725325 0.0018159809 0.0 0.0018464196 0.0011112323 0.0030030399
0.0031079121 -0.0016213945 -0.000891029 0.0007997014 -0.0015245267 -0.0018662649 0.0036320132 0.0025585657
-0.0027681014 0.00017451502 -0.0018222545 0.001013032 0.0027479483 -0.0019827741 0.0037201573 0.0
0.00084293104 0.001702952 -0.0011273784 -4.201429e-05 -0.00031591055 -0.004001544 0.0020447422 -0.004166474
-0.0019599786 0.0018593224 -0.00059476803 0.00043719253 0.0 5.4795422e-05 0.00085050176 -0.0012504386
-0.0019856298 0.0025573953 -0.0027401415 -0.002584968 0.0036660456 -0.0004857604 0.0028651848 -0.002068207
-0.002472375 -0.0025079688 -0.0013544696 0.0018746409 -0.0007453021 0.0027860978 0.000756087 0.0038887712
0.0 0.0034801012 -0.0008172877 0.004498731 0.0027934485 -0.0028484084 -0.00093070907 0.0
0.0018497434 0.0 0.0 -9.8219956e-05 -0.0032287422 -0.00039147958 0.0043724957 0.0004298943
-0.0025174653 -6.3711006e-05 0.0030635362 0.0002591637 -0.0018175793 -0.0040636086 -0.002562549 0.0041927104
-0.00016970509 -0.0010654806 0.0029114706 -0.00020225125 0.0021378766 -0.0037292673 -0.0013815059 -0.00041106855
0.0014314181 0.0005346843 0.0019425772 0.0033431454 -0.0014498828 0.002027813 -0.00041900095 0.0010858583

layer_norm2.weight f4 [128]
00000000: d511 803f 5ff8 7f3f c7fe 7f3f c375 7f3f
00000010: 9c10 803f 0000 803f 3bd5 7f3f f17a 7f3f
00000020: 0000 803f 3590 803f c13f 803f 9898 803f
00000030: 2d94 7f3f f15e 7f3f 6429 7f3f 080d 803f
00000040: 8138 803f 0000 803f 3cf7 7f3f 4c80 803f
00000050: ae55 803f 6b2e 7f3f 9d1a 803f 0544 803f
00000060: 143b 803f 9358 7f3f 3907 7f3f a360 803f
00000070: c986 7f3f 0837 803f 91af 7f3f a344 803f
00000080: 412d 803f 41bd 7f3f bbe5 7f3f 1d11 803f
00000090: 787d 803f b5b5 7f3f 5b5a 7f3f 064d 803f
000000a0: ba50 803f b55f 803f 1970 7f3f fc86 803f
000000b0: 0000 803f 29be 7f3f 5003 803f f4af 7f3f
000000c0: e9ad 7f3f dbec 7f3f 38e1 7e3f 880d 7f3f
000000d0: 38cb 7f3f e598 7f3f ca21 803f 0089 7f3f
000000e0: 2e15 803f 68b8 7f3f 5f4c 7f3f 904a 803f
000000f0: d85f 7f3f 8f57 7f3f ee83 7f3f 4a64 803f
00000100: 90d3 7f3f 9151 803f 13ca 7f3f c539 803f
00000110: d726 7f3f f937 803f 6526 7f3f 5cee 7f3f
00000120: 7c01 803f a4e8 7f3f 0202 803f 8a4e 803f
00000130: 1d35 803f 0c4a 803f 1332 803f 36ce 7f3f
00000140: a6c1 7f3f 326d 803f ec0b 7f3f 79da 7f3f
00000150: 9c5d 7f3f cad1 7f3f 4e52 803f 7e09 803f
00000160: 3709 803f 0e3c 7f3f 792f 7f3f 5d0d 803f
00000170: 5967 7f3f 1e6a 7f3f 318a 7f3f 0350 803f
00000180: 60d2 7e3f 2127 7f3f cb3c 7f3f e16d 7f3f
00000190: c77d 7f3f 9af0 7f3f 61af 7f3f 1588 7f3f
000001a0: da5c 7f3f f446 803f 0000 803f 2253 7f3f
000001b0: dea4 7f3f 3fd5 7f3f bf02 803f df88 7f3f
000001c0: 5202 803f 3ce6 7f3f 618d 7f3f 0000 803f
000001d0: 9af2 7f3f b476 7f3f f399 803f ed00 803f
000001e0: d106 803f 224b 803f cfc1 7f3f c622 803f
000001f0: 2461 803f 465c 803f 2f91 7f3f c213 803f
1.0005442 0.9998836 0.99998134 0.99789065 1.0005069 1.0 0.9993474 0.9979697
1.0 1.0044008 1.0019456 1.0046568 0.99835473 0.99754244 0.9967253 1.0003977
1.0017244 1.0 0.99986625 1.0039153 1.0026147 0.99680203 1.0008122 1.0020758
1.0018029 0.9974453 0.99620396 1.0029491 0.9981504 1.0016794 0.9987727 1.0020946
1.001381 0.99898154 0.99959916 1.0005223 1.003829 0.9988664 0.99747247 1.0023506
1.0024636 1.0029207 0.9978042 1.0041194 1.0 0.99899536 1.0001011 0.9987786
0.9987474 0.9997079 0.99562407 0.9963002 0.9991946 0.99842674 1.0010312 0.9981842
1.0006464 0.99890757 0.9972591 1.0022755 0.9975562 0.9974298 0.99810684 1.0030606
0.99932194 1.0024892 0.99917716 1.001763 0.9966864 1.0017081 0.9966796 0.9997308
1.0000453 0.99964356 1.0000613 1.0023968 1.0016209 1.0022597 1.0015281 0.9992403
0.9990486 1.0033324 0.99627566 0.9994274 0.9975221 0.9992949 1.0025117 1.0002897
1.0002812 0.9970101 0.9968181 1.0004078 0.9976707 0.99771297 0.9982024 1.0024418
0.99539757 0.9966908 0.9970214 0.99777037 0.99801296 0.99976504 0.9987698 0.9981702
0.99751055 1.0021653 1.0 0.99736226 0.9986094 0.9993476 1.0000838 0.99818224
1.0000708 0.99960685 0.998251 1.0 0.99979556 0.997905 1.0046982 1.0000283
1.000208 1.0022929 0.99905103 1.0010612 1.0029645 1.002816 0.9983091 1.000603

layer_norm2.bias f4 [128]
00000000: f886 ce3a 4097 0539 e53f c339 9407 31bb
00000010: 7e69 f13a 0000 0000 cc58 00ba 705f 22bb
00000020: 0000 0000 8c5d 7f3b 5df0 0c3b 20a9 8d3b
00000030: 1f77 e1ba e27b 46bb 892d 5ebb a14b 303b
00000040: 82ae 153a 0000 0000 f82f f1b9 3746 793b
00000050: 5f75 293b 6a33 49bb d5cc 9239 fe18 003b
00000060: e9a3 f3ba 4619 36bb 1910 84bb 8c5f 863b
00000070: d45c f6ba 6b3a ee3a ef97 00ba 4718 c13a
00000080: 1e6f 5d3a fb31 b2ba 67ab 1fba bb5a b339
00000090: cd51 883b 27f9 7dba ac8c 1ebb fd3d 2e3b
000000a0: 3ac9 443b 8d22 9a3b 5474 beba 8e62 863b
000000b0: 0000 0000 65d9 2fba 802a bd38 725c 94ba
000000c0: 0db7 a2b9 8c71 1c3a e462 92bb 87df 11bb
000000d0: 607e 80ba 0cda 3238 ea2d 183b 35ef 14bb
000000e0: 4144 ec39 510d 90ba c04a 3ebb 2c3c 193b
000000f0: 33a2 33bb ce9a 32bb 0470 13bb 4c26 453b
00000100: 233a 8eba 1276 273b 0da8 983a 1c73 153b
00000110: 3b2b 18bb 5c9e 4b3a b2fe 82bb 68d6 94ba
00000120: 315d 083b 174b bbb9 9d9a 2e39 fb30 033b
00000130: 059b 193a aaca 383b 30bc 043a 4af9 81ba
00000140: 8fc2 6e39 2378 853b df7e 27bb 1fea bab9
00000150: dd9d 1ebb 2a60 61ba 3a7d 323b 4e66 5fba
00000160: d426 61b8 f0dd 60bb 2692 53bb 67eb bf3a
00000170: f434 43bb 89b0 cdb9 b5c1 c0ba be56 173b
00000180: 1a15 92bb 6d7a 0ebb 0124 53bb 3b25 58ba
00000190: 7961 fcba 5ff9 8dba 1fd1 f6b9 0f59 c8ba
000001a0: 839f 5cbb 99f6 683b 0000 0000 8a08 50bb
000001b0: c050 beb9 8400 32ba 06d3 4439 d947 2bbb
000001c0: 18ad 1839 a65a 0b3a b2a8 1dba 0000 0000
000001d0: 3401 4bba 86a0 23bb d825 983b 7342 f737
000001e0: 798d 5739 6f21 f23a 5ddf 68ba 11f8 b33a
000001f0: 18a2 383b 0b78 213b 7a33 e1ba ae5a 7e3a
0.0015756777 0.00012740213 0.00037240903 -0.0027012574 0.001841828 0.0 -0.0004896044 -0.0024776123
0.0 0.003896567 0.0021505572 0.00432314 -0.0017201639 -0.0030286242 -0.0033901653 0.0026900547
0.00057099026 0.0 -0.00046002842 0.0038036236 0.0025857312 -0.0030700811 0.00027999902 0.0019546147
-0.0018588278 -0.002778606 -0.0040302393 0.0041007455 -0.0018795975 0.0018175369 -0.00049054524 0.0014731967
0.00084470387 -0.0013595218 -0.00060909096 0.0003420914 0.004160142 -0.00096883107 -0.0024192734 0.002658724
0.0030027167 0.004703826 -0.0014530518 0.004101104 0.0 -0.00067081145 9.0201385e-05 -0.0011319055
-0.0003103543 0.00059678475 -0.004467355 -0.0022258477 -0.0009803288 4.264158e-05 0.0023220726 -0.0022725586
0.0004506428 -0.0010990297 -0.0029036254 0.0023381812 -0.002740991 -0.0027252915 -0.0022497186 0.0030082641
-0.0010851066 0.0025552553 0.0011646763 0.0022804206 -0.0023219127 0.0007767433 -0.003997647 -0.0011355402
0.00208075 -0.00035723366 0.00016651531 0.0020018208 0.00058595865 0.002819697 0.00050634425 -0.0009916213
0.00022769927 0.0040731593 -0.0025557799 -0.00035651118 -0.002420298 -0.00085973984 0.0027235285 -0.00085220195
-5.368034e-05 -0.0034311973 -0.0032283156 0.0014642299 -0.0029786201 -0.00039232176 -0.0014706167 0.0023092474
-0.004458082 -0.0021740452 -0.0032217505 -0.0008245294 -0.0019255123 -0.0010831765 -0.00047076584 -0.0015285331
-0.0033664412 0.0035547374 0.0 -0.003174337 -0.00036299787 -0.0006790238 0.00018770629 -0.0026135354
0.00014560332 0.0005315937 -0.0006014212 0.0 -0.0007744015 -0.0024967506 0.004643183 2.9475637e-05
0.000205567 0.0018473099 -0.00088833814 0.0013730546 0.0028172787 0.0024638202 -0.0017181479 0.00097028434

layer_norm3.weight f4 [64]
00000000: 7239 7f3f f377 803f 500b 7f3f 6051 803f
00000010: d98e 803f 02f9 7f3f e14d 7f3f ac7f 803f
00000020: f9b2 7f3f 8a7a 7f3f db2d 803f 367a 803f
00000030: 9092 7f3f 8f6f 803f 636e 7f3f e68e 7f3f
00000040: 9c90 803f aa54 7f3f 9797 803f f0bb 7f3f
00000050: c9f4 7f3f 0000 803f 1a3d 803f 1ef6 7e3f
00000060: 8b7a 803f 47f3 7f3f 0f52 803f 3e3b 803f
00000070: 8156 7f3f 6fbc 7f3f 4920 803f edae 7f3f
00000080: 42f2 7f3f ad6a 7f3f 9409 803f 0000 803f
00000090: 83d0 7f3f 2fd6 7f3f 0000 803f 0c6f 7f3f
000000a0: 4e9b 7f3f 76b0 7f3f 9aa9 7f3f 2119 803f
000000b0: 2bc7 7f3f 05d0 7f3f b593 7f3f 7264 7f3f
000000c0: 0000 803f c6ce 7f3f c932 803f 9595 803f
000000d0: d4d4 7e3f 4219 803f ad02 803f 1927 7f3f
000000e0: 2eb2 7f3f 0000 803f 39ff 7f3f 61ec 7f3f
000000f0: 5bd4 7f3f cd2d 803f 0000 803f 1c85 803f
0.9969703 1.0036606 0.99626637 1.0024834 1.0043594 0.9998933 0.9972821 1.0038962
0.99882466 0.99796355 1.0013994 1.0037296 0.9983301 1.0034045 0.9977781 0.9982742
1.0044131 0.9973856 1.0046262 0.99896145 0.9998289 1.0 1.0018647 0.99594295
1.0037397 0.99980587 1.0025042 1.0018079 0.9974137 0.998969 1.0009853 0.9987629
0.9997903 0.9977215 1.0002923 1.0 0.9992754 0.99936193 1.0 0.9977882
0.9984635 0.99878633 0.99868166 1.0007669 0.9991328 0.9992679 0.9983476 0.9976264
1.0 0.99924886 1.0015498 1.0045649 0.995435 1.0007708 1.0000817 0.99669033
0.99881256 1.0 0.99998814 0.9997006 0.99933404 1.0013977 1.0 1.0040622

layer_norm3.bias f4 [64]
00000000: 0cde 36bb bd0e d93a 13fd 6ebb 2531 a33a
00000010: a9b2 633b 5c3d dc38 c5f0 60bb 14e1 5f3b
00000020: 5dbd f8ba d32c 09bb c5e2 cc3a 39ee 693b
00000030: 2dd7 02bb 3b1f 633b 803f acba 5d84 10ba
00000040: 86ef 883b 31b5 c1ba d993 8e3b 9a6b 13bb
00000050: 4b5a 06ba 0000 0000 59cc 0a3b 7158 25bb
00000060: d7ac 803b fb51 7539 9594 393b 0f66 533b
00000070: 3a05 71bb e4ca 64ba c43b 42b9 032d 93ba
00000080: 7457 f3b9 3585 01bb 84e9 1e3a 0000 0000
00000090: 6678 bfb9 4439 c6ba 0000 0000 b267 3dba
000000a0: 32c4 bfba 6d8a 893a 7c27 bdba 34cd 2b3a
000000b0: 7171 6cba 412e b8b9 2940 c7ba 4660 e7ba
000000c0: 0000 0000 7d81 78ba 25a3 cab9 e563 8e3b
000000d0: a532 9fbb bc9c 9d3a 7971 0a39 111e 62bb
000000e0: 635b e7ba 0000 0000 9c9b bfb9 a762 9db9
000000f0: 65b2 c639 33bb 743b 0000 0000 c153 6e3b
-0.0027903346 0.0016560178 -0.0036466762 0.0012450559 0.003474394 0.000105018466 -0.0034323197 0.0034161257
-0.0018977333 -0.0020931258 0.0015631547 0.003569497 -0.001996468 0.0034656066 -0.0013141483 -0.0005512888
0.004178944 -0.0014778731 0.004351121 -0.0022494555 -0.0005125149 0.0 0.002117893 -0.0025229717
0.003926854 0.00023395561 0.0028317322 0.0032256877 -0.0036776797 -0.0008727743 -0.00018523546 -0.0011228624
-0.0004641373 -0.0019763235 0.0006062018 0.0 -0.00036520063 -0.0015123268 0.0 -0.00072252296
-0.0014630614 0.0010493525 -0.0014431323 0.000655371 -0.00090195896 -0.00035129677 -0.0015201616 -0.0017652593
0.0 -0.00094797445 -0.00038649995 0.0043454044 -0.004858332 0.001202486 0.00013202977 -0.0034502784
-0.0017651137 0.0 -0.00036546297 -0.00030018875 0.00037898417 0.0037343025 0.0 0.003636584
