rl_energy_manager_20250326_0841/models/best_reward_model/critic.pth (torch, 239522 bytes, 26 tensors)

q1_layer1.weight f4 [128, 27]
000000 49 f3 f7 bd 88 b7 90 3d 77 a2 ed bc fe a0 f3 bd
       -0.1210695 0.07066256 -0.029008133 -0.11895941
000010 e6 38 bf 3c c0 af 38 bd c4 92 e4 3d fd 5f 21 3d
       0.023342561 -0.045089483 0.11160806 0.039398182
000020 d0 50 9b 3c 4c 74 c5 bc 76 a2 a9 3d 0c a5 5d bd
       0.018959433 -0.024103306 0.0828294 -0.05411248
000030 ee f7 a3 3d 15 6c b6 bd a7 83 ec 3d 30 2f 1a bd
       0.08006273 -0.08907334 0.11548548 -0.037642658
000040 7f 0f 33 3e 57 91 20 be 14 14 4a 3d 67 95 a8 bd
       0.1748638 -0.15680443 0.049335554 -0.08231621
000050 60 71 9b 3d 54 17 b1 3c a6 a3 fe 3d fd b3 08 3d
       0.07589984 0.021617569 0.12433557 0.033374775
000060 34 be b3 bc 48 3b b4 3c e8 d1 3b bc e8 f2 a0 3d
       -0.021941282 0.022000924 -0.01146362 0.07858831
000070 2f d5 c9 3a d2 12 0e 3e a4 91 4c bd 5f 61 80 bd
       0.0015398617 0.13874367 -0.04994358 -0.06268572
000080 6a de 7a 3d 9e 45 3a 3c 1d 3b 47 3e fc fd 4e 3d
       0.061247267 0.011369137 0.19456144 0.050535187
000090 ce 25 4d be ad c8 12 bd 11 85 b0 3d 3f 46 a0 bd
       -0.20033953 -0.03583591 0.086191304 -0.078258984
0000a0 6b d4 0a 3d fa c0 4b bd 71 90 b2 3c 54 31 2e be
       0.033893984 -0.049744584 0.02179739 -0.17011005
0000b0 6f 65 c0 bd cc d0 04 3e ce 97 7c 3d 57 fe bd bd
       -0.09394347 0.12970275 0.06166821 -0.09277027
0000c0 79 13 74 3d 13 ca bd 3b 4e 5a 4d 3d 06 02 8c 3b
       0.059588883 0.0057919114 0.05013495 0.004272702
0000d0 e5 d3 4f ba 2b c8 99 3c 5a 4d 7e bc 21 fb de 3c
       -0.0007927998 0.018772205 -0.015521372 0.027219357
0000e0 22 75 79 3d 73 89 55 3d 23 e2 1b 3d 6c 23 75 3d
       0.060902722 0.052133035 0.038057458 0.059848234
0000f0 02 5d c0 bd 98 1d d3 3d 68 bf 14 be a4 97 1d 3d
       -0.0939274 0.10308379 -0.1452614 0.038474694
000100 f5 ea bd bd da 93 e1 3d 97 4e e2 3d d3 a4 6d 3d
       -0.0927333 0.110145286 0.11050146 0.058018517
000110 7f 9d 9d 3d b2 eb 41 be b8 d6 6c bd 17 50 9d 3d
       0.076960556 -0.18937567 -0.05782196 0.076812916
000120 82 7c d9 3d 63 18 d5 3d 64 cd e4 bc cc 08 dd 3c
       0.10619451 0.10405042 -0.02792997 0.026981734
000130 a1 da cd bc 8a c3 10 bc 60 ce 4a 3d 0d 13 e6 bc
       -0.025128664 -0.008835683 0.04951322 -0.028085256
000140 a2 69 f7 bc f7 a2 ef bd f0 6a 8d 3d 00 70 26 be
       -0.030201737 -0.11701005 0.06905162 -0.16253662
000150 a3 90 5d be 61 88 64 bd 71 34 46 3d f0 17 7d bc
       -0.21637206 -0.055794124 0.048389856 -0.015447602
000160 7b 81 49 3d d9 b7 c9 bd 62 0f b0 3d cd 5c c7 3d
       0.049195748 -0.09849519 0.08596684 0.09734497
000170 d8 0a b8 3d ea 4f 67 3d 84 27 57 3d a8 9a 10 3b
       0.08986443 0.056472696 0.05252792 0.0022064839
000180 d9 65 38 3d 4e 41 3b 3d c5 06 66 bd 88 d6 c9 bd
       0.045019004 0.045716576 -0.0561588 -0.09855372
000190 33 99 f0 3b 23 f1 f2 3d d8 89 63 bd d0 fb ac 3d
       0.0073424815 0.118623994 -0.05555138 0.08446467
0001a0 da b4 9c bc 75 23 0c be 5d a1 a4 3d 2e 62 19 3d
       -0.019129205 -0.13685401 0.0803859 0.037447147
0001b0 f4 6b 02 bd 5e bc 3d bc e8 43 3e bd e1 05 f3 bc
       -0.031841233 -0.011580555 -0.04645148 -0.02966589
0001c0 80 5f ad 3d 08 e4 a6 3c e7 4b a1 3d cd 63 41 bc
       0.08465481 0.020372406 0.07875805 -0.0118035795
0001d0 e7 a7 65 bd ec fb 65 be 78 7b 43 3c 98 fc 06 3e
       -0.056068327 -0.22459382 0.011931293 0.13182294
0001e0 ad c8 cf bd 9f 15 eb 3c 0c c9 2e bd 1a 3d 7c 3d
       -0.10145698 0.028696833 -0.042672202 0.06158171
0001f0 43 d1 93 3d 47 cf 85 3e 21 e0 bd 3d ec 7c 9f 3d
       0.07217648 0.26134703 0.09271265 0.07787499
000200 dc 4d 9f 3d 01 ec 01 be ba 6d e4 bd 11 71 0f 3e
       0.07778522 -0.12687685 -0.11153741 0.14007975
000210 5c 8a 0a be cd 33 06 3e d9 df bf bd aa b1 ac bc
       -0.13529342 0.13105698 -0.093688674 -0.02108081
000220 f9 11 96 3c 61 5a 03 be fe 42 37 bd 36 fd b0 bd
       0.018319117 -0.12827446 -0.044741623 -0.08642046
000230 29 6d 48 3e d1 f2 49 3c fa d8 56 3d 2f 45 2d bd
       0.19572891 0.012325958 0.05245302 -0.042302307
000240 21 ce bc bc 6a a9 57 bd 52 fc 21 3d 4f df 9b bb
       -0.023047509 -0.0526518 0.039547272 -0.004756845
000250 11 27 4d 3e 06 34 c6 3c 45 01 46 bd 78 61 80 bd
       0.20034434 0.024194729 -0.048341054 -0.06268591
000260 0c 22 23 3e 8e 93 04 3e eb e5 38 3d 84 7e 68 3d
       0.15930957 0.12946913 0.04514114 0.05676128
000270 53 bd d5 bc c0 8b 57 3b c3 41 9a 3d 0f 75 55 3d
       -0.026091253 0.0032889694 0.07532074 0.05211359
000280 08 00 73 3d ba a5 b5 bd de a8 0b be 4d b9 8e bd
       0.0593262 -0.088695005 -0.13638636 -0.06968937
000290 74 58 eb 3d 86 bc e7 bd 45 e1 39 bd a7 a6 8c 3d
       0.114914805 -0.11315255 -0.04538085 0.06867724
0002a0 5a b7 21 bd ac 6a 99 bd 99 89 05 3d 1d 2a 39 ba
       -0.0394815 -0.07491049 0.032601926 -0.00070634653
0002b0 72 a4 36 3d e2 a8 6f 3d c5 07 06 3e 48 be 9b bc
       0.04459042 0.05851067 0.13088901 -0.019011632
0002c0 e9 78 6b bd b7 90 ab bd af 69 45 3d ac 06 5b bd
       -0.057488356 -0.083772115 0.04819649 -0.05347316
0002d0 a7 e2 62 bb e8 77 76 3d ce c7 9a bd 78 71 04 3d
       -0.0034619959 0.060172945 -0.07557641 0.032334775
0002e0 af f5 88 bd c5 e6 65 3d bd 0a 54 bd 14 73 ce bd
       -0.066874854 0.056128282 -0.051768053 -0.10080543
0002f0 aa a6 b8 3b b4 7e ee bd 01 fd 09 3e 9c 6e 1f bd
       0.0056351023 -0.116452605 0.1347542 -0.038923845
000300 0b 3d a9 bd 1b a1 02 be 87 fa 9d bd a4 fa 18 3e
       -0.08263596 -0.1275677 -0.077138 0.14939362
000310 ea 67 c7 bc b8 14 52 bd 62 2d e8 bc 91 e7 9a 3d
       -0.024341542 -0.05128929 -0.028341953 0.07563699
000320 18 04 93 bc b5 a5 34 be 74 42 fd 3c 66 b3 3b bc
       -0.017946288 -0.17641337 0.030915476 -0.011456346
000330 ba e7 0f 3d 15 41 f1 bd 5e cb 09 be 52 7e e0 bd
       0.0351331 -0.117799915 -0.13456485 -0.10961594
000340 8c cd 2c bd 5d d4 e9 bd a2 f8 a5 3d a0 b8 2a 3d
       -0.042188212 -0.11417458 0.081040636 0.04167998
000350 96 fd f8 bc 54 ec 44 3d 27 24 49 bd b4 35 b3 3d
       -0.030394357 0.048076943 -0.049106743 0.087504774
000360 35 2d 08 bd 77 8b e5 bd a3 04 e5 bc 70 17 11 bc
       -0.033246238 -0.112082414 -0.027956313 -0.008855686
000370 97 a2 14 3b 7b 83 cc 3d 91 81 95 3c 0f 1d 0a bd
       0.002267992 0.099860154 0.018250259 -0.03371912
000380 b1 eb e5 bc cd db cc bc 01 02 d3 bc b8 20 ea 3d
       -0.028066488 -0.025007153 -0.025757791 0.11432022
000390 f7 65 12 3d 08 4b c8 bd 19 13 77 bc c8 1b 14 be
       0.035741773 -0.09779936 -0.015080237 -0.14463723
0003a0 95 a0 6f 3c 5b cf b0 3d 83 e1 ca 3d 68 1b 41 be
       0.014625688 0.086333 0.09906294 -0.18858111
0003b0 20 bc c5 bc 3e 11 c2 bb 3a 00 56 bc 51 28 7d 3d
       -0.024137557 -0.0059224656 -0.013061577 0.061806027
0003c0 4b 04 27 be 42 fd d4 bc 03 ad 9e bd cd 90 2e be
       -0.16310231 -0.025999669 -0.07747843 -0.17047425
0003d0 a2 18 c6 3c e3 cd de 3d 0f 45 d3 bc 28 1e 83 bd
       0.024181668 0.108791135 -0.025789766 -0.06402236
0003e0 40 4d e2 bd 9c e8 5a 3b 2b 62 76 3e 36 41 35 3d
       -0.110498905 0.0033402806 0.24060886 0.044251643
0003f0 a8 9e fc bd 38 a5 f1 bb c1 dc 70 bd cd 05 26 3c
       -0.12334949 -0.007374432 -0.058804277 0.010133219

q1_layer1.bias f4 [128]
000000 fc 84 d1 ba 5f a6 bd ba 2e e6 51 ba b4 48 48 b9
       -0.0015985067 -0.0014469138 -0.0008007017 -0.0001910057
000010 f8 21 11 3b b8 bb 4c bb 10 7b e2 ba c1 b5 16 bb
       0.002214549 -0.0031239819 -0.0017279107 -0.0022996517
000020 92 f6 fb ba 17 1d df 3a c3 cb 95 3b 3f 38 a3 3a
       -0.0019223264 0.0017022219 0.0045714094 0.0012452676
000030 64 b8 63 ba b6 9c d1 b9 cb 2a 22 bb 7a 02 22 39
       -0.0008686839 -0.00039980345 -0.0024744745 0.00015450447
000040 03 84 13 3b 3e be 47 3b 5e 01 13 3b b1 bd 37 b8
       0.0022509105 0.0030478383 0.0022431235 -4.3807264e-05
000050 9b c0 3c 3a 62 a6 44 bb 5a b4 1c ba 3d be 8e 3b
       0.00072003313 -0.0030006398 -0.0005977802 0.0043561743
000060 ee 42 64 3b 69 d8 c0 3a 9a 8f 09 bb 59 74 eb 3a
       0.0034829932 0.0014712933 -0.0020990134 0.0017963751
000070 b2 10 1e 3a cd 82 4a 3b 5d d3 14 3a 4d 78 87 39
       0.00060297095 0.0030900717 0.00056772475 0.00025838838
000080 53 81 a0 bb 00 90 3a ba 2c c5 3a 3a 01 b4 39 bb
       -0.004898229 -0.00071167946 0.0007124718 -0.002833605
000090 ae de 9f ba 93 ed d9 3a 0b e7 b3 b9 8f 32 da 3a
       -0.0012197101 0.0016626589 -0.0003431368 0.0016647148
0000a0 15 a8 78 ba 02 d5 3e ba 91 6e 69 bb 51 58 40 bb
       -0.00094854954 -0.00072796654 -0.0035618881 -0.0029349516
0000b0 c2 0a 80 bb 7a 70 83 bb 9e de 5e 3b 0f 87 4f bb
       -0.0039075324 -0.004011211 0.0034007202 -0.0031666195
0000c0 0b f4 4d b9 a9 a0 94 3a 17 86 0b 3b 23 c7 15 bb
       -0.00019641237 0.0011339384 0.002128964 -0.002285429
0000d0 20 ef b6 ba 3e 33 1d bb 92 22 71 3a f5 3a 11 3b
       -0.0013956763 -0.0023986842 0.0009198572 0.0022160385
0000e0 67 2d 69 bb 2c 05 23 3b 36 74 64 3b d4 52 90 ba
       -0.003558004 0.002487491 0.0034859306 -0.0011011013
0000f0 12 1d 5e bb b4 c6 06 bb bb eb 21 3b ca b5 02 3a
       -0.003389184 -0.0020565214 0.0024707157 0.0004986195
000100 e3 8b 58 bb b3 a2 f7 3a 37 6e 00 bb a1 ec 78 b9
       -0.0033042363 0.0018893093 -0.0019596943 -0.00023739274
000110 cc 79 02 3b 2c fe 6d 3a 07 a4 4b 3b 66 1a 0a bb
       0.0019909022 0.0009078707 0.003107311 -0.0021072864
000120 e0 a6 64 bb 0d 5d a7 38 6d df 83 3b 6d 5f a6 b9
       -0.0034889504 7.9805126e-05 0.004024437 -0.00031733085
000130 61 d9 8a ba 63 a2 0f 3b a1 4c 4b 3b ac 87 11 b8
       -0.0010593348 0.0021916858 0.0031021016 -3.469705e-05
000140 6a 4e f2 3a 56 01 3e 3b 9f e5 06 ba d6 46 2e 3b
       0.0018486504 0.0028992495 -0.00051459105 0.0026592514
000150 de 3f de ba 41 ab eb ba cb 08 64 3b f8 ca 67 3b
       -0.001695629 -0.0017980115 0.003479528 0.0035368782
000160 79 44 07 3b fa e7 64 ba 6a 26 24 3b 6d bb 4e 3a
       0.0020640178 -0.0008732077 0.002504731 0.0007886205
000170 6b de 0e 3b 94 57 1b 3b 94 1f b8 3a 79 4d f1 38
       0.0021800052 0.0023703324 0.0014047497 0.00011506206
000180 6d d0 8a ba da c3 44 3a 0b e3 a5 3a b3 81 d1 39
       -0.001059068 0.0007505991 0.0012656165 0.0003996022
000190 7d ca 12 39 96 1f cc ba 9a 6d 15 3b b2 1c 33 ba
       0.00013999078 -0.0015573378 0.0022800923 -0.0006832584
0001a0 6f 43 7a bb bd 43 34 bb 23 46 67 bb 9e 78 45 3b
       -0.0038187166 -0.0027506195 -0.0035289607 0.0030131708
0001b0 b6 40 7a bb 06 89 00 3b c2 ca d1 ba 53 e3 25 ba
       -0.0038185543 0.0019612922 -0.0016005861 -0.00063281244
0001c0 77 ea aa 39 a2 7b 91 3a 45 e2 7d 3b 14 af 93 bb
       0.00032599617 0.0011099468 0.0038739603 -0.004506955
0001d0 d8 31 39 bb fb 90 27 bb 78 1a 9e bb 9f be 89 3b
       -0.002825847 -0.0025568593 -0.0048249327 0.004203632
0001e0 26 9e ad ba 5f 6e 25 3b 6a 09 79 3b 76 10 9c 3b
       -0.0013245984 0.0025242788 0.0037999996 0.0047627045
0001f0 02 3c 85 3a 48 d7 97 ba 48 80 6a ba 8f 7a 87 bb
       0.0010164978 -0.0011584545 -0.0008945507 -0.004134483

q1_layer2.weight f4 [128, 128]
000000 4f 7e 39 bb cf f9 24 be 80 ec c8 3c c3 a2 0d bd
       -0.0028304046 -0.1611092 0.024526834 -0.03457905
000010 22 52 87 3d d1 ab 91 3d 33 91 fc bc 8f a7 c9 3d
       0.066074625 0.071128495 -0.030830955 0.098464124
000020 51 7a 0b 3e 4f 12 27 3c 41 e1 d9 bb 83 fb bb bd
       0.13620879 0.010197236 -0.006649167 -0.091788314
000030 91 7d 80 3d 09 20 14 be 38 ce cf 3c 3b 3c 24 bd
       0.0627395 -0.14465345 0.025366887 -0.040096503
000040 99 e1 16 3e 53 e7 dc bc a3 1f 99 3d ce 6b 86 3d
       0.14734496 -0.026965773 0.07476737 0.06563531
000050 83 35 82 3d 3d e0 8d 3d 37 eb 10 be cb 64 7f bd
       0.06357863 0.06927536 -0.14152227 -0.062351983
000060 2b d3 3e bd e2 a4 ef 3c 17 d4 38 bc 7a f8 11 bd
       -0.046588104 0.029253427 -0.011281035 -0.035637356
000070 0a 52 09 be 5c 09 1c be 53 36 a3 3d e3 9e bf 3d
       -0.13410202 -0.15237945 0.07969346 0.09356477
000080 3e bb a0 3d 43 e1 e1 3d 35 4c 11 3e 9a f4 c8 bb
       0.078482136 0.110292934 0.14189227 -0.0061326744
000090 e1 e5 b0 3d cf 2b ad be 9b ab 1e 3d 59 d6 b3 3d
       0.08637596 -0.33822486 0.038737874 0.08781118
0000a0 88 12 96 bd 66 94 59 bc 71 82 8b 3c 56 ba be 3d
       -0.07327753 -0.01328001 0.017029973 0.093128845
0000b0 33 30 7b bd 3f d0 d0 3c 6e 50 bf bd 5a fc 0c 3d
       -0.061325263 0.025489924 -0.093415126 0.03442035
0000c0 e0 6c 80 3d fc ac d0 3c 05 82 38 3d 1c 0e d3 bd
       0.06270766 0.02547311 0.04504587 -0.103054255
0000d0 d9 59 7a bd 60 30 ba bc 5d 6a f5 bd 55 1a 0e bc
       -0.06112084 -0.022728145 -0.11983178 -0.00867327
0000e0 10 74 f9 3c 49 8c a9 bb 13 e3 93 3d 81 92 a7 3c
       0.03045085 -0.005174194 0.07221045 0.0204556
0000f0 78 ea b1 3d ad dd 82 3d 89 87 a1 3d fb f3 5e be
       0.086872995 0.063899375 0.078871794 -0.21772759
000100 1e b2 10 3e 27 ff 10 be c1 ff 0e 3e 87 21 c6 3d
       0.14130446 -0.14159833 0.1396475 0.096743636
000110 25 96 48 bd 90 3a 55 3d 54 5e eb 3c fd 89 93 bc
       -0.048971314 0.052057803 0.028731503 -0.018010134
000120 1c 19 b1 3d f3 85 12 be ae ae 9f bd 97 40 fc 3d
       0.08647367 -0.1430891 -0.077969894 0.12317007
000130 56 3f 87 3d b8 a4 ad bd bd 61 cc bd 4d d7 39 bd
       0.06603877 -0.08478683 -0.099795796 -0.045371342
000140 aa 80 d0 bc ea 26 f1 bd 97 ad 02 bd 45 45 19 3b
       -0.025451977 -0.117750004 -0.03190383 0.0023387235
000150 02 5c 85 3c 32 a6 71 3d 0d b4 96 3d d7 3f 4c bd
       0.016279224 0.058996387 0.07358561 -0.04986557
000160 6a 1a 08 3c b8 1a e4 3c 8d 7a 1f be 9c 14 4f 3c
       0.008307079 0.027844772 -0.15574093 0.012639191
000170 cb 5c 36 bd 47 03 2d bd 15 2c 80 3d c8 3a 78 bd
       -0.044522088 -0.042239454 0.06258408 -0.060602933
000180 47 24 09 3e 21 56 09 3d 9a 1c 71 bd fb 38 82 bd
       0.13392745 0.033529405 -0.058865167 -0.063585244
000190 39 7e d4 bd 38 2f 98 bc ef 20 28 be 5d 78 1e 3d
       -0.103756376 -0.018577203 -0.16418813 0.038689006
0001a0 4c 15 9e 3c eb 7c de 3c cb 72 0d 3d 07 14 0d 3e
       0.019297265 0.027159175 0.034533303 0.13777171
0001b0 63 35 da 3a de 95 f0 3d cf 0f 86 3d 39 b1 99 bd
       0.001664799 0.11747335 0.06545984 -0.07504506
0001c0 64 0b bb bd ac 06 fb bb a1 37 0d 3e 70 46 e1 3c
       -0.09133032 -0.0076607075 0.13790752 0.027499408
0001d0 82 80 ea 3c f0 32 78 3d ea 8d 93 3d f8 89 c3 bd
       0.02862573 0.060595453 0.07204802 -0.095478
0001e0 3f e3 12 bd ca 02 28 be e2 b3 a4 3c da ed 04 3e
       -0.03586125 -0.16407314 0.020105306 0.12981358
0001f0 e9 ab 3b 3e d2 51 83 bd f8 1f 6a 3d 37 d6 87 3d
       0.18327297 -0.0641209 0.057159394 0.06632655
000200 a1 8a 5d bc 61 a4 65 3d a5 9d 09 bc 15 a4 db 3c
       -0.013521821 0.056064967 -0.008399402 0.026811639
000210 1e 92 f4 3d 72 08 c5 3d dd c9 10 3e 5e d0 a9 3d
       0.11941932 0.096207514 0.14139505 0.08291696
000220 1c d7 6b 3c d3 d5 fc 3d c8 93 8d 3d d7 28 cd 3d
       0.014394548 0.12345471 0.06912953 0.10017555
000230 f8 f1 da bd 83 de 25 3e f5 78 ea 3a d5 64 05 3e
       -0.10690683 0.16198163 0.0017888831 0.13026746
000240 4e 1c 57 bc 8c a5 e7 bd 29 1c fc 3d 85 8c ee 3c
       -0.013129307 -0.113108724 0.123100586 0.02911974
000250 66 60 00 3e c2 08 87 bc d2 8d f8 3c 75 83 0b bd
       0.12536773 -0.016483668 0.030341063 -0.034060914
000260 e1 a8 46 bb d4 39 1a 3d 1f 3a 30 3d 2d ca b2 bc
       -0.0030313062 0.037652805 0.04302418 -0.02182492
000270 0f 8a 0c be eb f5 9a bd 34 b0 25 3c a7 43 3d bd
       -0.1372454 -0.075664364 0.010112811 -0.046207096
000280 7a 86 55 be cf 03 51 bd b6 66 d7 bd 12 0b 5c 3c
       -0.2085208 -0.051029023 -0.105176374 0.013430374
000290 b3 97 da bd 82 71 41 ba 72 af e9 bd 34 5f 7b bc
       -0.106734656 -0.00073792797 -0.11410417 -0.015342522
0002a0 4c 7b 5f 3e ac 78 a0 3d c8 f0 04 3c d4 34 f1 3d
       0.21824378 0.07835516 0.008114047 0.11777654
0002b0 44 04 60 3d 7e 25 f3 3d 0a 0e 91 bc a4 cd a8 bd
       0.054691568 0.118723854 -0.01770689 -0.08242348
0002c0 02 9d 72 3d 08 5e 52 3d cf 4a 1d ba 4b 2f 1c 3e
       0.059231766 0.051359206 -0.0006000222 0.15252416
0002d0 8a 2d 8d 3d 32 56 12 be 7a 1f 8c 3d 50 af b4 3c
       0.068934515 -0.14290693 0.06841941 0.022056252
0002e0 0b 99 83 bd 28 4e 46 3c f2 cb 02 bd f2 6c 36 3d
       -0.06425675 0.012103595 -0.03193278 0.044537492
0002f0 c3 3f 50 3d 41 7f 5b bb c2 f7 4a bd 06 93 a8 bd
       0.050842058 -0.0033492597 -0.049552687 -0.082311675
000300 0b eb 31 be 13 fd da 3d f4 94 a8 3d dd 50 2d be
       -0.17374818 0.10692801 0.082315356 -0.16925378
000310 1c 0d 2a 3d 0a d8 77 3c 12 e3 a0 3d 87 57 52 3d
       0.04151641 0.015127191 0.0785581 0.051353004
000320 0e 37 12 3d ea ed 09 bd 3d 49 b5 bd 44 b0 74 3d
       0.035697035 -0.03367416 -0.0885186 0.059738412
000330 fa b2 ad ba 4f 78 8d bb 26 0a 3e 3d 16 cd 31 3e
       -0.0013252192 -0.0043173204 0.046396397 0.1736339
000340 51 f6 25 be 34 5e d5 bd 83 dd 6a bd 86 36 b9 bc
       -0.16207244 -0.104183584 -0.057340156 -0.022609007
000350 93 53 ff bc 7e 31 23 3d 2b 13 eb 3d a9 26 69 3d
       -0.031167781 0.03984212 0.114782654 0.056921635
000360 c8 66 0a be 64 cc ad 3d 65 c6 30 bd 39 dd 30 bd
       -0.1351577 0.0848625 -0.043157954 -0.043179724
000370 0b 45 1d 3d f5 5b ff bc d9 a0 23 3d 82 b1 b4 3c
       0.038395923 -0.031171778 0.03994832 0.022057299
000380 77 ac 28 bc 0c 5f 26 3d 55 3e 26 3e cf ac a0 3d
       -0.010295025 0.040617988 0.16234715 0.078454606
000390 78 d1 a5 3c c6 2e f1 bb 6c e9 65 be 57 d8 94 bc
       0.020241484 -0.007360312 -0.22452325 -0.018169565
0003a0 6e 08 75 bd 6f 2d ce 3d ff df d4 bc bc 2f 8f bd
       -0.059822492 0.100672595 -0.025985716 -0.069915265
0003b0 da b7 05 be 5c 8c 19 bd 2f 24 22 3e cb 89 a9 3d
       -0.13058415 -0.037487373 0.15834115 0.08278235
0003c0 2e 05 98 bd 9b 4d cf bc 01 58 1a 3d 88 7a 93 3b
       -0.07422863 -0.02530556 0.037681583 0.004500691
0003d0 ac 03 82 3e d3 85 5e 3c b2 4e b5 bd 06 55 08 be
       0.25393426 0.013581711 -0.088529006 -0.13313684
0003e0 52 e1 0b bd a9 d5 66 3d 6e db a1 bc ee 8a fa 3c
       -0.03415043 0.056356106 -0.019757953 0.030583825
0003f0 8a 24 c2 3d 0a 77 f1 bd da 1b 18 be 59 8f e0 3c
       0.094796255 -0.11790283 -0.14854375 0.027412103

q1_layer2.bias f4 [128]
000000 49 19 73 bb ba f8 30 3a 74 a0 0f 3a 0f 68 76 3b
       -0.0037093929 0.00067509303 0.00054789265 0.0037598645
000010 4a 0a 0b bb 29 c5 24 3b f1 9f e8 3a 9d ef 91 bb
       -0.002121585 0.002514193 0.0017747862 -0.004453613
000020 04 69 02 bb 76 1e 35 3a 53 b2 a7 3a 79 92 af ba
       -0.001989902 0.0006909141 0.0012794234 -0.0013395093
000030 d2 8a fd ba b0 85 30 3b fa 7c 4e 3a c5 32 46 bb
       -0.001934374 0.0026935153 0.00078768993 -0.0030242663
000040 74 24 eb b7 f1 72 bf bb 96 17 5e 3a 9d 39 66 3b
       -2.8031158e-05 -0.0058425595 0.00084721425 0.0035129555
000050 1c d6 9c 3b 21 cf 04 3a 1f b3 ba ba 77 eb 43 3b
       0.004786266 0.0005066265 -0.0014244056 0.0029894987
000060 e2 46 51 3b 26 2f e2 ba 9f 19 23 3b 7d f6 2d bb
       0.0031933119 -0.0017256483 0.0024887098 -0.0026544624
000070 9e f2 e8 3a ae c0 96 bb 82 92 5c bb dd 62 18 3b
       0.0017772501 -0.004600606 -0.0033656661 0.0023252286
000080 c2 83 b4 ba b5 04 9a 3a 03 81 c0 3a 1d 0f 47 3a
       -0.0013772177 0.001175067 0.0014686886 0.00075934996
000090 d9 6d 0a bb 62 92 30 bb d9 de 18 3a ca ec b4 3a
       -0.0021122603 -0.002694272 0.0005831547 0.0013803479
0000a0 fc 8f 16 bb 9f b1 5a b9 cf 57 30 3b 6f 65 4f ba
       -0.0022974005 -0.00020856269 0.0026907807 -0.0007911538
0000b0 79 85 35 3b a6 41 ff 3a 67 89 81 bb d5 44 75 3a
       0.0027697964 0.0019474521 -0.003953147 0.0009356265
0000c0 4d 67 ed ba ea 3e 91 3a 3a 17 e8 ba d7 67 0c 3b
       -0.0018112451 0.0011081372 -0.0017707117 0.0021424198
0000d0 7b ff 0e 3b fc 61 e5 ba 0b 9c 07 3b 79 07 96 3a
       0.0021819759 -0.0017500515 0.0020692374 0.0011446319
0000e0 89 24 86 3a 78 bd b8 3a 66 33 af bb c7 84 ac bb
       0.0010234277 0.0014094552 -0.0053467033 -0.0052648517
0000f0 50 48 83 38 8e 55 53 3a ed c5 05 bb a0 4f 25 bb
       6.260036e-05 0.000806176 -0.0020412162 -0.0025224462
000100 90 b5 83 bb 5c c4 f6 ba e0 e3 b3 ba b4 23 58 3b
       -0.0040194467 -0.001882683 -0.0013724528 0.0032980265
000110 80 fe 55 3b a4 af db ba 3c 0a f3 39 88 b9 4f 3b
       0.0032652915 -0.0016760719 0.00046356197 0.0031696279
000120 aa f4 10 3b 52 2b 9a bb 47 c8 43 bb 2e e8 91 b8
       0.0022118487 -0.004704871 -0.0029874013 -6.9573856e-05
000130 81 ec 67 3a 70 a3 87 ba 3d a4 22 3b 9a e6 44 bb
       0.00088471925 -0.0010348391 0.0024817132 -0.0030044676
000140 02 f6 fe b9 76 2e 00 ba 40 6e 41 3b f2 5b 97 3b
       -0.00048629945 -0.0004889736 0.0029515177 0.004619115
000150 5c ce 34 bb 25 a0 6b bb bf 17 9c bb 03 df 7a bb
       -0.002758882 -0.0035953608 -0.004763573 -0.0038279898
000160 fe cc 5b 3a e3 c4 62 bb 52 bd 5b bb 02 b7 c7 ba
       0.0008384733 -0.0034602217 -0.0033529592 -0.0015237036
000170 7b 3b 8b bb 5e f4 2b 3b 9a 91 7e b9 25 2c 0c b9
       -0.004249034 0.0026238183 -0.00024277568 -0.00013367886
000180 5e d6 49 ba a5 b4 30 bb 22 2a 80 ba fa d4 a5 ba
       -0.00076994847 -0.0026963141 -0.0009778182 -0.0012651973
000190 1c a5 d8 ba 07 b3 35 3b 6c f5 d5 3a 7d 8b f0 38
       -0.0016528699 0.0027725117 0.0016323752 0.000114700735
0001a0 89 e5 11 3b a4 8a ec 3a dd a7 9c 39 2b 3a 38 bb
       0.0022262058 0.0018046689 0.00029879707 -0.0028110843
0001b0 c6 5d da ba 8c 1a ff b9 31 ba e5 3a e8 e4 9b bb
       -0.0016660027 -0.0004865717 0.0017526803 -0.0047575124
0001c0 0c cd 81 bb eb 1c 60 ba 61 96 b5 3a e3 a4 a5 b9
       -0.003961211 -0.0008549231 0.001385402 -0.00031594103
0001d0 94 61 84 3b 4f b2 d6 3a d1 b3 bf 38 e0 49 46 3b
       0.0040399525 0.0016380044 9.141083e-05 0.0030256435
0001e0 de 25 8f 3b ab 23 db 3a b3 5f 19 ba 05 53 83 bb
       0.004368528 0.0016719004 -0.0005850747 -0.0040076994
0001f0 01 9d 83 ba 5a ca 94 bb 9b b4 72 ba b4 48 88 3b
       -0.0010041298 -0.0045407237 -0.00092584797 0.0041590575

q1_layer3.weight f4 [64, 128]
000000 b8 5b 28 be b4 e9 38 3e 2e 55 5f 3d a8 80 9b bd
       -0.16441238 0.180579 0.054524593 -0.075928986
000010 41 62 37 3d 32 f8 e7 3c 0e 32 d9 bd 7c 5b 68 bd
       0.044771437 0.028316591 -0.1060525 -0.05672787
000020 0e 8e 87 be 21 1e c9 bd 26 45 4c be fe c7 54 bd
       -0.26475567 -0.098202 -0.19948253 -0.05194854
000030 5d f7 8b 3d e2 c7 12 bd 5c 35 15 bd a6 48 03 bc
       0.0683429 -0.035835154 -0.03642784 -0.008012926
000040 af ca c9 bd de b2 89 3c af 12 a3 3d 0e 72 19 be
       -0.09853112 0.016808923 0.07962548 -0.14984915
000050 63 e8 09 bc 69 70 4e 3c 75 cc ca bd 4e 86 79 3d
       -0.008417222 0.012600043 -0.09902278 0.0609191
000060 44 ae 08 3e f0 a6 af bd 08 b9 0b 3d 65 02 a4 3d
       0.13347727 -0.08576763 0.034112006 0.08008269
000070 de 98 94 3d 23 5d 0f bd 09 1b b1 3d b9 e4 8e 3d
       0.072557196 -0.03500093 0.08647735 0.06977219
000080 74 e5 58 3d e0 7e 8c 3c 3b 6a 9d bd 86 53 23 be
       0.0529532 0.017150342 -0.076862775 -0.1594983
000090 25 cf 72 bd 3f 35 01 bd 0f a9 e5 bd 27 d3 a0 3c
       -0.05927958 -0.03154492 -0.11213886 0.019631935
0000a0 78 87 a7 3d 31 0b 6d 3d 5c 35 07 bd 34 0b d8 bd
       0.081801355 0.057872 -0.03300987 -0.10549012
0000b0 d8 55 b5 bb 03 d3 08 3e a4 67 2c 3e d6 6e 81 bc
       -0.005533915 0.13361745 0.16836411 -0.015799921
0000c0 81 b6 f5 ba 94 9a 2b bd 8d dc 80 bd f2 53 86 3d
       -0.0018746407 -0.041895464 -0.06292067 0.0655898
0000d0 a1 b0 73 3d 4e 83 f0 3d ea 8d 43 3c 86 f4 a2 bd
       0.05949462 0.117437944 0.01193569 -0.079567954
0000e0 13 2f e9 3d 30 10 77 3d 06 61 8f bd 82 bb 2b 3e
       0.11385932 0.060318172 -0.070009276 0.16770747
0000f0 20 c8 b7 3d ba d6 0a 3e eb 69 36 3e eb 28 73 3d
       0.08973718 0.13558474 0.17813842 0.059365194
000100 e8 97 1a be 8d a8 90 bd 24 1d eb bc 06 0b a2 3d
       -0.1509701 -0.070633985 -0.028700419 0.07912259
000110 30 a1 c6 bd 48 3f 7f bd 3a 3c 4a 3e b1 78 a6 bd
       -0.09698713 -0.06231621 0.19749537 -0.08128489
000120 c8 46 af bc 8f 46 3f bd 92 d6 54 bb 3c 60 12 be
       -0.021396056 -0.04669815 -0.0032476527 -0.14294523
000130 9c 22 1c bc 89 3a e1 bd 5a de 07 bd be 18 c1 3d
       -0.009529736 -0.10997493 -0.033171035 0.09428547
000140 7b 33 9a 3d 21 bf 4b bd 95 c9 31 be 5f a9 e8 bd
       0.0752935 -0.04974282 -0.17362054 -0.1136043
000150 92 d8 b2 3b 29 c5 1c 3d aa 73 3f 3e 05 1a 83 bc
       0.005457946 0.038273964 0.18696466 -0.016003618
000160 6a 56 3b 3e ea c0 55 bd c0 6e 9a 3d b4 b0 01 3e
       0.18294683 -0.05218593 0.07540655 0.12665063
000170 2a 9e 68 bd e7 5a 8f bd 51 ac c3 bc 33 f2 66 bd
       -0.056791462 -0.0699976 -0.023885878 -0.056383323
000180 00 6d b6 3d 3b ae b6 bc 1f 23 09 3d d7 69 2b 3d
       0.08907509 -0.022299876 0.03348076 0.041848984
000190 e3 86 03 bd e2 8a 5e 3c 9c 65 b2 3b 22 58 ab 3d
       -0.03211106 0.013582917 0.0054442417 0.083664194
0001a0 b9 ea 0f bd 00 05 2c bd 25 98 3f 3d ba 06 61 3d
       -0.03513596 -0.041996956 0.046775956 0.054938056
0001b0 3c 07 c3 3d ad 05 fb bc 26 83 9b 3d 3b f7 eb 3c
       0.09522864 -0.030642355 0.07593374 0.028804412
0001c0 9c d9 67 3d d9 30 40 bd 0f 19 b1 bd fe a5 66 bb
       0.056604013 -0.046921585 -0.08647358 -0.0035194154
0001d0 4b 4b 57 be 4e 67 0c 3d b4 3c 64 bd c5 c5 f1 3c
       -0.21024816 0.034278207 -0.055721954 0.02951325
0001e0 0b 65 50 bd f7 67 05 3e ea 44 cc bb 57 25 3b 3c
       -0.050877612 0.1302794 -0.006233801 0.011422477
0001f0 cd 22 78 bc 9e 4c d2 bb d5 61 90 3c 61 fe a9 bb
       -0.015145016 -0.006417825 0.017624775 -0.005187795
000200 e1 51 22 bc fc 85 13 3e d8 11 12 bc aa 8a 6c 3d
       -0.009907217 0.1440658 -0.008915387 0.057749428
000210 73 9b 6c 3e e2 d8 5d bd 64 62 3b bc 94 54 51 bc
       0.23106174 -0.054161914 -0.011437032 -0.012776513
000220 4c 1c b3 bc 2a 4e 92 3d 1f 97 b7 3d 6c 7a b1 bd
       -0.021864079 0.07143815 0.08964371 -0.08665928
000230 af 6b f3 bc 8d 55 bd 3d 43 17 55 3d 2a eb e5 3c
       -0.029714433 0.09244833 0.052024137 0.028066237
000240 fc 62 94 3d a1 22 cb bb 7e d6 44 be dc c5 33 3c
       0.07245442 -0.0061991964 -0.19222447 0.010972466
000250 10 3e 22 3e 5b 70 c3 bc 8b 73 1a be 65 d3 c9 3d
       0.15843987 -0.023857286 -0.15083139 0.098547734
000260 02 0e ae 3d 1d 96 64 bd 93 62 03 bd d4 57 e9 3c
       0.084987655 -0.05580722 -0.03207643 0.028484263
000270 88 94 9d 3d c3 40 8d bd 58 48 a0 bd 12 ff 73 3d
       0.07694346 -0.06897118 -0.078262985 0.059569426
000280 05 b2 5d bd b5 56 7c 3d f3 dd 1a 3e 86 dd 4f 3d
       -0.05412485 0.061606128 0.1512373 0.05074837
000290 b8 57 9a 3d d9 a5 06 be 57 57 0c 3e 75 4c 1e 3d
       0.07536262 -0.13149203 0.13705193 0.038647134
0002a0 66 b7 f7 3c 9a 47 67 3e 58 8e bd bd 1f 68 16 3e
       0.030238818 0.22585908 -0.092556655 0.14688157
0002b0 ba b0 9e 3d 96 55 3d be ac a1 a2 bc 6f 21 cf 3c
       0.07748552 -0.1848968 -0.019852482 0.025284497
0002c0 00 38 4f 3b 75 01 a3 3c 64 89 f1 ba e0 c9 4a bc
       0.0031619072 0.019898156 -0.0018427786 -0.012377232
0002d0 d8 c9 d2 bd a8 f0 4a 3c b2 04 8a 3d 69 49 72 bd
       -0.10292405 0.0123864785 0.06739177 -0.05915204
0002e0 e8 40 86 3d 79 d7 de 3d be 2a 9b 3d fc 33 75 bd
       0.06555349 0.10880942 0.07576512 -0.05986403
0002f0 b2 5a 1c be a9 31 cf bc 15 03 9c 3c a1 14 6f bd
       -0.15268973 -0.025292234 0.019044438 -0.058369283
000300 6a cb 03 be 94 4b 5f 3d 23 3a a1 bd ac 0a a4 bd
       -0.12870565 0.054515436 -0.07872417 -0.08009848
000310 f4 b1 e5 3d 94 87 92 3c 04 db ef 3d 33 d1 e6 3d
       0.112155825 0.017886914 0.11711696 0.1127037
000320 0e bd 61 bc 43 28 00 be ef 7f bd 3d 01 24 05 ba
       -0.013777984 -0.12515359 0.09252917 -0.00050789124
000330 3d a4 92 bd c0 0f 6b be b4 d0 2e bd f4 46 86 3d
       -0.07160232 -0.22955227 -0.042679504 0.06556502
000340 70 49 3d 3e 83 00 36 bb 8d aa fa 3c 4f 99 70 bd
       0.18485045 -0.00277713 0.030598903 -0.058739956
000350 f9 57 07 be 73 12 9a bd cc b8 21 3d 4d b6 98 3c
       -0.13217153 -0.0752305 0.039482877 0.018641615
000360 1a bf e0 bc 8f 6b 70 3c 37 4d b2 bd 14 74 4c bc
       -0.027434874 0.0146740815 -0.08706134 -0.012478847
000370 63 aa a5 3c 6f 8e 35 3c f6 87 dd 3d 6a 23 fd bd
       0.020222848 0.011081322 0.10816948 -0.1236027
000380 f5 7c 2a bc 48 e3 fb bd 02 5e 1b bd 65 a4 13 be
       -0.010405769 -0.1229921 -0.03793145 -0.1441818
000390 a2 a7 06 3d 58 73 e8 3c 3b 84 53 3c 2e d2 5b 3b
       0.03287471 0.028375313 0.012909944 0.0033542025
0003a0 ea 65 cc 3d 0a 7a 11 3e b0 d6 3d bd 6d f6 74 3d
       0.09980376 0.1420671 -0.04634732 0.059805322
0003b0 00 07 cd bc 07 9c 6b bd bc 3b 17 3d e5 ba 3d 3d
       -0.025027752 -0.057521846 0.0369222 0.046320815
0003c0 31 77 9e 3d 68 12 c7 bc 98 6f e4 3c a5 ec 23 3d
       0.07737578 -0.024300769 0.027885243 0.040020604
0003d0 d6 ef 2b 3d 40 ae 14 3a f0 dc 61 bd a1 f1 88 3d
       0.041976772 0.0005671717 -0.055142343 0.06686712
0003e0 d6 90 04 3e 04 ad a8 3d 54 2a c8 3d 02 24 a1 bd
       0.12945876 0.08236125 0.097736984 -0.07868196
0003f0 c2 6f c4 bd 17 eb 88 3e d7 f3 9a bc a8 8c 75 bd
       -0.095916286 0.2674186 -0.0189151 -0.059948593

q1_layer3.bias f4 [64]
000000 83 e6 62 ba 59 11 2b 3b 06 bb 2b 3b ea 40 7c 3a
       -0.0008655565 0.002610287 0.0026204004 0.000962271
000010 db a0 bf 3b 13 0d 49 3a 15 9c 33 bb cd 1b 73 3b
       0.005848033 0.000766949 -0.0027406265 0.0037095428
000020 10 45 1e 3b df 81 b8 bb 55 9c cb 3b e5 e2 cc b9
       0.0024150051 -0.005630716 0.0062137046 -0.00039078962
000030 dc 1b 23 b9 b9 1d 43 39 c0 2a 91 ba 0a f7 9e ba
       -0.0001555527 0.00018607722 -0.0011075363 -0.0012128067
000040 dd 56 32 bb f5 d0 d9 39 44 37 fe 39 1a 46 c5 bb
       -0.002721242 0.0004154515 0.0004848783 -0.0060203196
000050 e2 77 48 3b 63 71 76 bb 5c f8 82 ba a0 6a 44 3b
       0.0030589034 -0.0037604205 -0.000999223 0.002997078
000060 d8 23 5e bb f2 0f c2 3b 36 0b 37 bb de 5d 8e ba
       -0.0033895876 0.005922311 -0.0027930266 -0.0010861715
000070 b8 1b 0f b9 3e 4b 32 3b 22 cd a8 37 2d bd c9 3a
       -0.00013647869 0.0027205492 2.0122683e-05 0.0015391462
000080 c9 97 4c 3b 75 49 82 3b 0d dd 88 ba 03 75 b3 3b
       0.00312184 0.003976042 -0.0010441855 0.0054765954
000090 3a 00 13 3b 49 56 73 3b fe aa 80 3a cf c6 32 3b
       0.0022430555 0.0037130287 0.0009816585 0.0027279144
0000a0 2f e5 74 ba f7 f4 31 3a 9b 75 3c 3b 0a 6a c4 3b
       -0.00093420123 0.0006788517 0.0028756622 0.005994086
0000b0 2a 59 76 bb d5 17 03 39 ab 77 47 3a 7c 98 1f 3b
       -0.0037589767 0.00012502012 0.00076090795 0.0024352362
0000c0 02 3d 87 3a ff 47 48 bb 43 fa 85 3b 0b 1c 23 bb
       0.0010317864 -0.003056049 0.0040886714 -0.002488854
0000d0 c8 96 48 bb 35 50 8a 39 f5 6e 8a 3a b4 27 c6 bb
       -0.003060745 0.0002638117 0.0010561632 -0.0060472135
0000e0 86 98 47 bb 34 61 26 3b 59 8b 1c 39 65 ad 6f bb
       -0.0030455901 0.0025387527 0.0001492923 -0.0036571857
0000f0 9d 2f d3 b9 ce cf a1 bb 97 ff 1a 3a 95 ee cc 3b
       -0.0004028053 -0.0049381023 0.00059127196 0.006254027

q1_layer4.weight f4 [1, 64]
000000 92 0e 26 3d 7c 09 4e be ae 24 8b bb 74 d9 0b be
       0.04054124 -0.20120806 -0.004246316 -0.1365717
000010 d8 3f 2f bc d4 95 51 be e1 b3 2c 3d db 38 92 bd
       -0.010696374 -0.20467311 0.042163733 -0.071397506
000020 df 7d 2e 3d 6f 99 49 bc 07 84 32 bd 7a f3 12 3e
       0.04260051 -0.012304648 -0.043582942 0.14350691
000030 35 db d6 3c d6 5f 81 ba 61 aa 4a be f8 15 b2 be
       0.026227573 -0.000987048 -0.19791557 -0.34782386
000040 c4 2e 3d 3e b4 13 13 be 68 8c 7d 3d 64 6b 30 3e
       0.18474871 -0.14362985 0.06190148 0.17228466
000050 7f 1c 0f bd 85 41 10 be 8a b8 a1 3d 2d eb a8 bd
       -0.034939285 -0.14087494 0.07896526 -0.08247981
000060 07 15 1f 3e 37 8f 58 bc cd 7c 80 be cb 0e d6 3d
       0.15535365 -0.013217739 -0.25095215 0.1045204
000070 99 f6 c0 3d 96 6d c9 bd c7 6f 82 3c 20 9f 14 3d
       0.09422035 -0.09835355 0.01592244 0.036284566
000080 1a f9 0e be 9e 8a 69 bd fc 64 47 be 18 4f 64 bd
       -0.13962212 -0.05701696 -0.19472116 -0.055739492
000090 fd 59 68 3c a6 dc d6 ba 19 c4 59 3c 0e 3d d6 ba
       0.014181611 -0.0016392663 0.013291382 -0.00163451
0000a0 dc bf 5e 3d f5 28 d5 3d 66 d3 fc bb c8 56 e1 bc
       0.05438219 0.104082026 -0.0077156303 -0.0275072
0000b0 fd 3e 4f 3e 8a d4 17 3c 61 16 7b bd 0b 4a fd bd
       0.20238872 0.009266982 -0.06130064 -0.12367638
0000c0 13 4b dc bd 2d 9e 47 3d 4e 5f a8 3b 42 91 20 3e
       -0.10756507 0.048734833 0.0051383143 0.15680411
0000d0 b6 fc 11 3e 75 66 7d bd dd e1 de 3b 88 3f 4c bb
       0.14256558 -0.06186529 0.0068018273 -0.0031165797
0000e0 98 17 08 3e 8c 54 96 be 40 d9 e3 3d 22 91 1f 3e
       0.1329025 -0.2936138 0.111254215 0.15582708
0000f0 7b ce 16 3e 4b 8e 2e 3d f1 4f 8e be dc c6 9b bc
       0.14727204 0.04261617 -0.27795365 -0.019015722

q1_layer_norm1.weight f4 [128]
000000 34 b5 7f 3f 0c 3d 7f 3f 69 f8 7f 3f c3 f8 7f 3f
       0.9988587 0.99702525 0.9998842 0.99988955
000010 0d 03 80 3f d2 79 7f 3f 6b cf 7f 3f ea e2 7f 3f
       1.0000931 0.9979526 0.9992587 0.9995562
000020 c4 e1 7f 3f c9 1f 80 3f 91 8b 80 3f 4b 38 80 3f
       0.99953866 1.00097 1.0042592 1.0017179
000030 69 18 80 3f b7 ba 7f 3f 91 ba 7f 3f 99 f2 7f 3f
       1.0007449 0.9989428 0.9989405 0.9997955
000040 55 6a 80 3f d1 70 80 3f 90 4d 80 3f c9 13 80 3f
       1.003245 1.0034429 1.002367 1.0006038
000050 76 e3 7f 3f 27 3b 7f 3f 29 39 80 3f a0 74 80 3f
       0.9995645 0.99699634 1.0017444 1.0035591
000060 52 5a 80 3f fa 76 80 3f 7c a1 7f 3f 63 22 80 3f
       1.0027564 1.0036309 0.9985578 1.0010494
000070 c7 f8 7f 3f 38 51 80 3f 4f 0d 80 3f f4 45 80 3f
       0.9998898 1.0024786 1.0004061 1.0021348
000080 39 b8 7e 3f 2b 11 80 3f b0 e8 7f 3f a6 62 7f 3f
       0.9949985 1.0005239 0.9996443 0.997599
000090 93 53 7f 3f 08 24 80 3f 85 25 80 3f 83 a9 7f 3f
       0.997369 1.0010996 1.001145 0.9986803
0000a0 a7 d9 7f 3f 4a f3 7f 3f dc 5f 7f 3f 5b 5c 7f 3f
       0.99941486 0.99980605 0.99755645 0.997503
0000b0 b6 5d 7f 3f 2c 34 7f 3f f4 7a 80 3f cb 6a 7f 3f
       0.99752367 0.9968898 1.0037522 0.9977233
0000c0 9e 1a 80 3f c6 5e 80 3f 1a bf 7f 3f 49 76 7f 3f
       1.0008123 1.0028923 0.9990097 0.99789864
0000d0 b9 0f 80 3f 2c 0c 80 3f 10 05 80 3f 8b 22 80 3f
       1.0004798 1.0003715 1.0001545 1.0010542
0000e0 ae 79 7f 3f 87 62 80 3f f7 63 80 3f 0f bc 7f 3f
       0.99795043 1.0030068 1.0030507 0.9989633
0000f0 c8 33 7f 3f 7b 58 7f 3f 9d 43 80 3f 00 cc 7f 3f
       0.99688387 0.99744385 1.0020634 0.99920654
000100 fd 8f 7f 3f c3 16 80 3f a3 d9 7e 3f a0 45 80 3f
       0.99829084 1.0006946 0.9955084 1.0021248
000110 b1 45 80 3f dc 0f 80 3f 4a 3d 80 3f 86 48 7f 3f
       1.0021268 1.000484 1.0018704 0.99720037
000120 2a 56 7f 3f c9 ef 7f 3f 66 8a 80 3f 1d ef 7f 3f
       0.9974085 0.9997526 1.0042236 0.9997423
000130 3c a4 7f 3f c3 45 80 3f eb 60 80 3f 7f b2 7f 3f
       0.99859977 1.002129 1.0029577 0.9988174
000140 7d 40 80 3f 69 b5 80 3f 8a d0 7f 3f 7f 3b 80 3f
       1.001968 1.0055362 0.9992758 1.0018157
000150 17 63 7f 3f fc 7f 7f 3f e3 59 80 3f f6 60 80 3f
       0.99760574 0.99804664 1.0027431 1.002959
000160 5a 5a 80 3f 29 6c 7f 3f a5 48 80 3f ec 60 80 3f
       1.0027573 0.99774414 1.0022169 1.0029578
000170 cc 54 80 3f 7e 55 80 3f 29 c5 7f 3f 14 06 80 3f
       1.0025878 1.002609 0.9991022 1.0001855
000180 7c c5 7f 3f 28 12 80 3f 59 25 80 3f 86 3d 80 3f
       0.9991071 1.0005541 1.0011398 1.0018775
000190 fb 18 80 3f 82 dc 7f 3f ba 12 80 3f c9 51 80 3f
       1.0007623 0.99945843 1.0005715 1.0024959
0001a0 dc 38 7f 3f 79 31 7f 3f f6 9a 7f 3f e0 3c 80 3f
       0.99696136 0.99684864 0.99845827 1.0018578
0001b0 21 ff 7e 3f d3 e1 7f 3f f1 02 80 3f 87 11 80 3f
       0.99608046 0.99953955 1.0000898 1.0005349
0001c0 aa c4 7f 3f 04 3a 80 3f ac 50 80 3f 88 f2 7e 3f
       0.9990946 1.0017705 1.0024619 0.99588823
0001d0 6d 02 7f 3f 3f 62 7f 3f 5d dc 7e 3f 29 77 80 3f
       0.99613076 0.99759287 0.99555 1.0036365
0001e0 2b b8 7f 3f cc 74 80 3f 9f 96 80 3f fd 9d 80 3f
       0.99890393 1.0035644 1.0045966 1.0048214
0001f0 7f 6e 80 3f 14 88 7f 3f 18 47 7f 3f 67 6a 7f 3f
       1.0033721 0.99817014 0.99717855 0.9977173

q1_layer_norm1.bias f4 [128]
000000 9b c2 00 ba 3c e4 6b b9 4b 90 d5 b8 b0 c6 8b 3a
       -0.0004911811 -0.0002249637 -0.00010183508 0.0010664072
000010 cb 7a ce 3a 3d 6d 0b bb b1 fd 95 b9 60 99 af ba
       0.0015753148 -0.0021274828 -0.0002860851 -0.001339715
000020 21 d2 47 ba 5f 98 ed 3a b9 46 99 3b be 34 17 3b
       -0.0007622559 0.0018127075 0.0046776203 0.0023072208
000030 a3 36 0d 39 39 22 e9 b9 ac f2 bb ba 52 4e 04 3a
       0.00013467162 -0.0004446672 -0.001433929 0.0005047071
000040 56 61 33 3b 40 d3 6d 3b 38 84 20 3b eb e3 96 3a
       0.002737125 0.0036289245 0.002449287 0.0011512017
000050 5a b1 79 3a c0 6d 30 bb 1c 1b a4 b8 1f 51 90 3b
       0.00095250236 -0.0026920885 -7.825179e-05 0.0044042016
000060 f8 7d 5d 3b 76 d3 17 3b 95 16 ec ba b3 b9 ff 3a
       0.0033797007 0.0023166812 -0.0018012101 0.0019510299
000070 cb bf b3 3a 77 a9 3a 3b 98 c1 98 37 78 ec 98 3a
       0.0013713775 0.0028482357 1.8209961e-05 0.0011667153
000080 18 31 98 bb 7e 64 98 b9 96 40 6f 3a a6 e1 0a bb
       -0.0046445243 -0.00029066572 0.00091267505 -0.0021191626
000090 a5 57 79 ba 3c 9a 1d 3b a9 2c 84 3a 34 33 c2 3a
       -0.0009511656 0.002404823 0.001008411 0.0014816285
0000a0 b3 78 76 ba f6 af e6 38 a3 33 5b bb 30 fb 17 bb
       -0.0009402141 0.0001100003 -0.0033447526 -0.002319049
0000b0 c9 9d 4a bb cf 46 67 bb 27 6e 63 3b a5 4e 20 bb
       -0.0030916801 -0.0035290008 0.0034703107 -0.0024460938
0000c0 46 01 62 b9 55 96 f9 3a 09 0f 13 3b 45 da bb ba
       -0.00021553514 0.0019041995 0.0022439382 -0.0014332017
0000d0 34 73 f9 b9 bf b4 b6 ba de fa 65 3a 81 97 ed 3a
       -0.00047578814 -0.0013939365 0.0008773039 0.0018126817
0000e0 29 48 38 bb f9 34 73 3b c3 e0 52 3b 79 3e 82 ba
       -0.0028119183 0.0037110432 0.0032177425 -0.0009936831
0000f0 8b 97 5b bb e1 2c 99 ba 71 79 1c 3b 2b e1 c3 3a
       -0.0033507075 -0.0011686349 0.0023876096 0.0014944425
000100 29 25 17 bb de f6 e7 3a 41 a5 83 ba d4 35 7f 3a
       -0.002306292 0.0017697474 -0.0010043756 0.0009735499
000110 18 d1 36 3b b6 df ee 3a 60 df 76 3b 73 6e da ba
       0.0027895626 0.001822463 0.0037669763 -0.0016664997
000120 85 53 2f bb 0b 36 5b 3a 1f c8 97 3b 8b 0e e1 b9
       -0.0026752662 0.000836224 0.0046320106 -0.0004292618
000130 91 94 67 b9 8e 37 35 3b b5 ad 80 3b 69 c1 9a 3a
       -0.00022085222 0.0027651521 0.0039269575 0.0011806908
000140 c9 69 42 3b cb 18 76 3b dd cc f8 37 e2 d1 15 3b
       0.0029665104 0.00375514 2.96593e-05 0.0022860696
000150 31 a2 a7 ba ae 5a de ba bb 8f 7e 3b 67 68 5d 3b
       -0.0012789426 -0.001696428 0.0038842994 0.0033784152
000160 66 3e 17 3b 3d 64 95 ba d9 28 2b 3b d6 90 f1 3a
       0.0023077964 -0.0011397671 0.0026116876 0.0018430005
000170 ed fd 54 3b 0d ea 42 3b fd 4f a0 3a 5c 78 a1 39
       0.0032499984 0.0029741556 0.001223087 0.00030797988
000180 ca cb 4a ba 30 b1 e6 3a eb bd a3 3a a0 8d b0 3a
       -0.00077360554 0.0017600413 0.0012492513 0.0013469942
000190 87 11 99 3a b8 b1 e6 b9 d8 20 0b 3b 4d dc 26 3a
       0.0011678197 -0.0004400143 0.0021229293 0.0006365225
0001a0 96 39 4c bb 48 cd 05 bb bd 1c 41 bb 11 19 60 3b
       -0.0031162254 -0.0020416547 -0.0029466592 0.0034194628
0001b0 98 65 59 bb a1 eb b2 3a 0c 57 4d ba c5 1b 31 3a
       -0.0033172127 0.0013650545 -0.00078331004 0.0006756152
0001c0 6a 59 e0 39 1a 30 d8 3a 51 83 63 3b 7e 1d 89 bb
       0.00042791228 0.0016493828 0.0034715722 -0.004184424
0001d0 61 d3 41 bb c3 df f8 ba 9e 37 96 bb 3a e3 9b 3b
       -0.0029575455 -0.0018987585 -0.004584267 0.004757312
0001e0 f7 d1 94 b9 84 43 5d 3b 37 7d 92 3b e7 fd a3 3b
       -0.00028385196 0.0033762166 0.004470493 0.0050046328
0001f0 8e 2b 00 3b 3c 32 b5 ba 24 40 9c ba a1 37 55 bb
       0.001955721 -0.0013824175 -0.0011920971 -0.0032534378

q1_layer_norm2.weight f4 [128]
000000 fa 0c 7f 3f 37 28 80 3f 3f 3e 80 3f 78 89 80 3f
       0.99629176 1.0012273 1.0018996 1.0041952
000010 af b1 7f 3f f9 80 80 3f 43 69 80 3f 5d db 7e 3f
       0.998805 1.0039359 1.0032123 0.9955347
000020 2a 6f 7f 3f 71 45 80 3f 75 34 80 3f 0c a8 7f 3f
       0.99779 1.0021192 1.0016009 0.99865794
000030 89 f6 7f 3f 91 58 80 3f 8c 2c 80 3f 5d 78 7f 3f
       0.9998556 1.0027028 1.0013595 0.99793035
000040 4f 14 80 3f 02 13 80 3f c7 53 80 3f ba 9c 80 3f
       1.0006198 1.0005801 1.0025567 1.0047829
000050 8c ac 80 3f b8 d4 7f 3f 64 76 7f 3f d0 8b 80 3f
       1.0052657 0.9993396 0.99790025 1.0042667
000060 d3 6e 80 3f 63 ad 7f 3f 88 6f 80 3f 3f 32 7f 3f
       1.0033821 0.9987394 1.0034037 0.99686044
000070 e6 23 80 3f 84 01 7f 3f 75 1c 80 3f 9b 9d 80 3f
       1.0010955 0.9961169 1.0008684 1.0048097
000080 d5 f1 7f 3f 65 13 80 3f 2a 2c 80 3f 2d 2d 80 3f
       0.9997838 1.0005919 1.0013478 1.0013787
000090 9d 2a 7f 3f 40 41 7f 3f b2 2a 80 3f 48 27 80 3f
       0.996744 0.9970894 1.001303 1.0011988
0000a0 c0 53 7f 3f d6 f4 7f 3f 52 46 80 3f 47 07 80 3f
       0.9973717 0.99982965 1.002146 1.0002221
0000b0 4f 56 80 3f 79 3c 80 3f 57 8a 7f 3f 91 45 80 3f
       1.0026339 1.0018455 0.99820465 1.002123
0000c0 51 72 7f 3f 98 37 80 3f 33 87 7f 3f 95 4e 80 3f
       0.9978381 1.0016966 0.9981567 1.0023981
0000d0 b5 32 80 3f bf d3 7f 3f e5 5b 80 3f 2a 19 80 3f
       1.0015475 0.99932474 1.0028044 1.000768
0000e0 e4 c0 7f 3f 3e 55 80 3f f3 eb 7e 3f 41 9a 7f 3f
       0.999037 1.0026014 0.9957878 0.9984475
0000f0 18 07 80 3f 40 29 80 3f 6f 4e 7f 3f 6e f3 7f 3f
       1.0002165 1.0012589 0.99729055 0.9998082
000100 67 b1 7f 3f c5 db 7e 3f 32 1c 7f 3f dc 79 80 3f
       0.9988007 0.9955409 0.996524 1.0037189
000110 4f 98 80 3f b7 37 80 3f e9 16 80 3f 4c 76 80 3f
       1.0046481 1.0017003 1.0006992 1.0036101
000120 6d 5f 80 3f 22 d0 7e 3f 6e 04 80 3f ea f7 7f 3f
       1.0029122 0.99536335 1.0001352 0.9998766
000130 9a 32 80 3f 26 27 80 3f 33 32 80 3f a3 10 7f 3f
       1.0015442 1.0011947 1.001532 0.9963476
000140 7c 01 80 3f 14 07 80 3f 8f 84 80 3f d4 95 80 3f
       1.0000453 1.000216 1.0040454 1.0045724
000150 36 33 80 3f 5d 66 7f 3f 2f 0e 7f 3f 87 09 7f 3f
       1.0015628 0.9976557 0.9963102 0.9962391
000160 51 45 80 3f 7b 27 7f 3f 89 6a 7f 3f 48 e8 7f 3f
       1.0021154 0.9966962 0.99771935 0.9996381
000170 3e 92 7f 3f 9b 31 80 3f 46 19 80 3f 4d b7 7f 3f
       0.9983252 1.0015138 1.0007713 0.9988907
000180 c1 98 7f 3f a2 95 7f 3f d5 0b 80 3f 39 7e 7f 3f
       0.9984246 0.99837697 1.0003611 0.99801975
000190 a2 e2 7f 3f 6a 34 80 3f 82 4f 80 3f 07 95 7f 3f
       0.9995519 1.0015996 1.0024264 0.9983677
0001a0 b3 80 80 3f d9 fc 7f 3f f5 ce 7f 3f 96 b2 7f 3f
       1.0039276 0.9999519 0.99925166 0.99881876
0001b0 40 1e 7f 3f 49 dc 7f 3f 00 80 80 3f c1 f5 7e 3f
       0.9965553 0.99945503 1.0039062 0.9959374
0001c0 eb 36 7f 3f 7e fe 7f 3f 43 2b 80 3f 08 18 80 3f
       0.99693173 0.999977 1.0013202 1.0007334
0001d0 e3 8e 80 3f 72 16 80 3f b8 dd 7f 3f cf 75 80 3f
       1.0043606 1.000685 0.9994769 1.0035952
0001e0 7d 79 80 3f 33 5c 80 3f 02 ed 7f 3f 5e 40 7f 3f
       1.0037075 1.0028137 0.9997102 0.9970759
0001f0 bb d3 7f 3f 8e ff 7e 3f 4c 61 7f 3f 24 79 80 3f
       0.9993245 0.99608696 0.9975784 1.0036969

q1_layer_norm2.bias f4 [128]
000000 06 b9 42 bb 29 f2 ba 3a 07 91 0e 3b 06 a9 81 3b
       -0.0029712333 0.0014262843 0.0021753924 0.0039569167
000010 e6 cf 71 ba ea ad 52 3b ad a6 4c 3b e6 79 84 bb
       -0.00092243997 0.0032147118 0.0031227276 -0.0040428517
000020 62 b4 be ba 1e 90 0b 3b a7 91 00 3b 6b e4 fc b9
       -0.0014549608 0.0021295617 0.0019618066 -0.0004823537
000030 88 26 9e ba 86 99 48 3b 5b 1f ab 3a 10 86 06 bb
       -0.0012065927 0.0030609085 0.0013055609 -0.0020526685
000040 4e f0 14 3a f5 5f 3c b9 ff ec 12 3b bd e3 88 3b
       0.000568156 -0.00017964824 0.0022419093 0.004177539
000050 60 72 ab 3b 20 e1 6f 3a f2 f0 9c ba 6b 7e 81 3b
       0.0052321404 0.00091506727 -0.0011973663 0.003951838
000060 53 35 6c 3b d8 69 8f ba 4e 0c 7c 3b 8f 74 06 bb
       0.0036042526 -0.0010941578 0.0038459483 -0.0020516252
000070 57 ca 18 3b 36 46 8d bb 1d d2 3c ba fb a2 6d 3b
       0.0023313963 -0.0043113483 -0.000720294 0.0036260474
000080 f8 1a da 39 0c 88 fb 3a 47 28 15 3b 63 33 d7 3a
       0.00041600293 0.0019190325 0.0022759603 0.0016418513
000090 57 2c ad ba 6a 39 70 ba e0 fe 9a 3a 93 b0 ff 3a
       -0.0013212067 -0.0009163829 0.0011825226 0.0019507579
0000a0 7f b2 cb ba ee 30 38 39 86 18 5b 3b e1 03 e5 38
       -0.0015540867 0.00017565835 0.0033431365 0.000109202934
0000b0 a4 41 4b 3b 63 f0 20 3b b8 57 48 bb 83 dd d6 3a
       0.0031014467 0.0024557344 -0.0030569863 0.001639292
0000c0 de cb b5 ba 6b a7 18 3b 0c e7 cd ba 80 2e 36 3b
       -0.0013869961 0.0023293148 -0.0015709116 0.0027798712
0000d0 e4 de 1a 3b 9d 38 9a b9 62 8b 36 3b 47 b4 e5 3a
       0.0023631388 -0.0002941535 0.0027854075 0.001752504
0000e0 88 41 cf 3a d9 74 20 3b d6 3c 98 bb 2e 71 9e ba
       0.0015812377 0.002448371 -0.004645924 -0.0012088174
0000f0 43 93 4d 3a 36 46 d3 3a 0a 45 d7 ba 02 c2 a8 ba
       0.0007842073 0.0016118947 -0.0016423773 -0.0012875202
000100 60 76 27 ba 55 65 cd ba 21 3d 83 ba 5f d2 84 3b
       -0.00063881837 -0.0015670458 -0.0010012725 0.0040533985
000110 8b 74 82 3b de 69 e5 3a a4 ba 91 3a 7f 22 80 3b
       0.003981178 0.0017502864 0.0011118245 0.0039103623
000120 4e c4 33 3b 19 2b 90 bb 7f b5 0f bb a0 59 89 3a
       0.002743024 -0.004399669 -0.0021928248 0.0010478981
000130 67 66 d7 3a 2f c7 20 39 1f 94 3b 3b 05 5f 14 bb
       0.0016433717 0.00015332991 0.0028622223 -0.0022639644
000140 ff 52 a5 3a e7 13 87 39 c4 63 5f 3b a0 7c a0 3b
       0.0012613236 0.00025764035 0.0034086565 0.004897669
000150 46 3a f7 3a d3 42 27 bb 35 d6 84 bb bd bc 6a bb
       0.0018861971 -0.0025522008 -0.004053856 -0.0035818063
000160 0c 60 06 3b 0a ba 48 bb c0 02 4d bb ee 74 8a b9
       0.0020504026 -0.0030628466 -0.0031282157 -0.0002640853
000170 a3 d0 45 bb 4f 9c 3c 3b 2e 1e da 3a 3f 4a a1 3a
       -0.0030184172 0.002877969 0.0016641074 0.0012305452
000180 37 05 8d b9 9c bd 13 bb 8c 3c 2d 3a 53 0c 8d b9
       -0.000268975 -0.0022543436 0.00066084485 -0.00026902798
000190 7c 7b ae b9 49 32 4b 3b 20 f5 21 3b 33 00 01 3a
       -0.0003327987 0.0031005314 0.0024712756 0.0004920989
0001a0 56 c5 5d 3b 9d c6 0c 3b 97 2d a2 3a ad 4d de ba
       0.0033839545 0.0021480687 0.0012373206 -0.0016960405
0001b0 60 6c c9 ba fe 94 84 39 4d fc 4d 3b c4 78 86 bb
       -0.0015367381 0.0002528801 0.00314309 -0.004103752
0001c0 55 5c 4b bb 20 6d c2 b9 4c ff 06 3b f4 35 0a 3a
       -0.0031030376 -0.00037083868 0.0020598946 0.0005272322
0001d0 0e ff 99 3b 89 98 26 3b d6 f5 bd 39 7c ca 7a 3b
       0.0046995943 0.0025420508 0.0003623205 0.0038267663
0001e0 c9 85 94 3b eb b2 10 3b d8 e3 e6 b8 e3 1a 43 bb
       0.00453255 0.00220793 -0.00011009694 -0.0029770664
0001f0 a8 72 b2 39 e3 31 75 bb 77 4a ea b9 f2 f9 92 3b
       0.0003403623 -0.0037413768 -0.0004468744 0.004485362

q1_layer_norm3.weight f4 [64]
000000 94 c5 7f 3f d4 1a 80 3f c0 5c 80 3f 7b 91 7f 3f
       0.99910855 1.0008187 1.0028305 0.9983136
000010 10 3d 80 3f 63 12 80 3f de 52 7f 3f 88 42 80 3f
       1.0018635 1.0005611 0.9973582 1.0020304
000020 ae 60 80 3f 87 b8 7f 3f b6 2d 80 3f ff ac 7f 3f
       1.0029504 0.9989094 1.001395 0.99873346
000030 45 79 7f 3f f4 f3 7f 3f f7 9c 7f 3f 80 f8 7e 3f
       0.9979442 0.9998162 0.99848884 0.9959793
000040 e1 3c 7f 3f 17 18 80 3f 06 bc 7f 3f 77 2c 7f 3f
       0.9970227 1.0007352 0.99896276 0.9967722
000050 7e c7 7f 3f 02 4e 80 3f bc 7a 7f 3f 93 2f 80 3f
       0.99913776 1.0023806 0.9979665 1.0014518
000060 20 05 7f 3f 81 29 80 3f 73 ea 7e 3f e3 56 7f 3f
       0.99617195 1.0012666 0.9957649 0.99741954
000070 72 2b 7f 3f 7e 26 80 3f d2 f0 7e 3f 6d 43 7f 3f
       0.9967567 1.0011747 0.9958621 0.9971226
000080 e9 51 80 3f d2 e3 7f 3f 4a 2c 7f 3f 82 33 80 3f
       1.0024997 0.99957 0.99676955 1.0015719
000090 96 f4 7f 3f c5 0e 80 3f 69 7d 7f 3f d9 fc 7f 3f
       0.99982584 1.0004507 0.99800736 0.9999519
0000a0 e0 85 7f 3f b0 12 80 3f e5 7b 7f 3f 7a 2a 80 3f
       0.9981365 1.0005703 0.99798423 1.0012963
0000b0 a4 f1 7e 3f 88 dc 7f 3f 88 c7 7f 3f 37 cf 7f 3f
       0.99587464 0.9994588 0.99913836 0.9992556
0000c0 60 c3 7f 3f 88 3a 7f 3f 0b d7 7f 3f 54 04 7f 3f
       0.99907494 0.99698687 0.99937505 0.9961598
0000d0 78 fa 7e 3f 29 08 80 3f fe 89 7f 3f 28 4f 80 3f
       0.99600935 1.000249 0.99819934 1.0024157
0000e0 3f f9 7f 3f 1d 8f 7f 3f b3 1d 80 3f 69 d4 7e 3f
       0.99989694 0.9982775 1.0009063 0.9954286
0000f0 ad 1e 7f 3f 43 e3 7e 3f e0 00 7f 3f b1 1e 80 3f
       0.9965618 0.99565524 0.9961071 1.0009366

q1_layer_norm3.bias f4 [64]
000000 1a d4 5d ba 8a ea c3 3a 23 ec 2e 3b d0 b1 a8 b9
       -0.00084620866 0.0014947217 0.0026691041 -0.00032175938
000010 c3 ca 16 3b 92 e7 c7 3a 4e 81 02 bb 65 b5 76 3a
       0.002300904 0.0015251508 -0.0019913497 0.0009411185
000020 7d 88 b1 3a 49 d2 b5 ba b9 a4 bc 3a 6f 1d 90 ba
       0.0013544705 -0.0013871874 0.0014392353 -0.00109951
000030 50 7b d9 b9 86 c2 2c ba 26 e5 4b ba 23 f1 e3 ba
       -0.0004148134 -0.00065902655 -0.0007777981 -0.001739059
000040 25 9a 39 bb a9 3c 96 b9 1b 54 eb ba 22 95 6b bb
       -0.0028320637 -0.00028655425 -0.0017954143 -0.0035947044
000050 c8 28 58 b9 83 25 2f 3b c4 d5 21 bb 33 e8 8b 3a
       -0.00020614557 0.002672524 -0.0024694065 0.0010674059
000060 18 b0 4c bb 36 26 e7 3a 9b 3b 46 bb 9b 5d fc ba
       -0.003123289 0.0017635289 -0.003024793 -0.0019253971
000070 f9 97 ae ba ce c7 b2 3a dd 96 1c bb d8 82 ba ba
       -0.0013320438 0.0013639869 -0.0023893632 -0.0014229668
000080 a3 09 05 3b 69 80 c1 39 07 8f d8 ba 61 f0 ca 3a
       0.0020299933 0.00036907502 -0.0016522118 0.0015483015
000090 88 6d ff b8 1f 33 cd 3a ab f5 11 bb 25 37 05 b9
       -0.00012179749 0.0015655494 -0.0022271674 -0.00012704411
0000a0 36 1b f4 ba 76 1c 9e b7 12 ff 9f ba 97 84 ee 3a
       -0.0018623832 -1.884832e-05 -0.0012206754 0.0018197474
0000b0 81 c4 75 bb 61 9c d9 b9 e8 60 4f b7 29 23 d7 39
       -0.0037501159 -0.00041505977 -1.2360724e-05 0.00041034192
0000c0 ea 18 5e 3a a2 6a 48 bb 7b e5 bb ba ba 33 3b bb
       0.00084723404 -0.0030581136 -0.0014335358 -0.0028564767
0000d0 5c d4 4e bb 69 d9 33 39 24 ee 3b bb 47 01 53 3b
       -0.0031559682 0.00017151762 -0.0028675878 0.0032196806
0000e0 41 12 42 3a 3d 58 b5 3a 97 62 a3 3a 04 0b 80 bb
       0.0007403233 0.0013835501 0.0012465295 -0.003907563
0000f0 86 f7 9c ba 03 08 73 bb 72 dc 1d b9 4c 5d 94 3a
       -0.0011975623 -0.0037083633 -0.00015054809 0.0011319309
