rl_energy_manager_20250326_0915/models/best_self_sufficiency_model/critic.pth (torch, 865250 bytes, 26 tensors)

q1_layer1.weight f4 [256, 27]
0	0xbc537d26	-0.012908256
1	0x3d86c3a7	0.065802865
2	0xbd6ae28b	-0.057344954
3	0x3d3f1114	0.046647146
4	0x3d281d5b	0.04104362
5	0xbd98b5aa	-0.07456525
6	0xbda0ae02	-0.07845689
7	0xbddf9a1e	-0.109180674
8	0xbba25311	-0.00495375
9	0x3d28d1bf	0.041215654
10	0xbd3066d3	-0.04306681
11	0xbc29899d	-0.010347751
12	0x3daac2c8	0.08337933
13	0xbd4d6dba	-0.05015347
14	0xbe15e10d	-0.14636631
15	0x3d648a9b	0.055796247
16	0x3d56a659	0.052404735
17	0xbd14fce9	-0.036374006
18	0x3cff25c4	0.031145938
19	0x3d8042ca	0.06262739
20	0x3ca24a3f	0.019810794
21	0xbcbf1c90	-0.02332905
22	0x3cc4ca3b	0.024022212
23	0xbdd0ef07	-0.10201841
24	0x3de17feb	0.110107265
25	0xbbf70ee4	-0.007539617
26	0x3c91e782	0.017810587
27	0x3a84386f	0.0010087619
28	0xbdc83503	-0.09775736
29	0x3cb1e738	0.021716699
30	0xbdb696cc	-0.08915481
31	0xbe1cccf3	-0.15312557
32	0x3d09ab3d	0.03361057
33	0xbd337921	-0.04381669
34	0x3c1e737a	0.009671086
35	0x3cf4d3a0	0.029886067
36	0xbc599bd1	-0.013281778
37	0x3a9efd7e	0.001212999
38	0x3d8f0b21	0.069845445
39	0x3dcdbee8	0.10046178
40	0xbb2e4e0a	-0.0026596808
41	0x3d9e71b8	0.07736534
42	0x3d03a313	0.03213794
43	0xbc020167	-0.007934905
44	0x37bf6248	2.281474e-05
45	0x3de4f6d3	0.111798905
46	0x3cb318f8	0.021862492
47	0xbb9a2fc9	-0.0047054035
48	0x3d5ccb0e	0.053904586
49	0x3d47b446	0.048755907
50	0x3c76ff2c	0.015075486
51	0x3cef3c25	0.029203484
52	0x3dc9407c	0.098267525
53	0x3d7cdca1	0.061733846
54	0x3c85d708	0.016337886
55	0xbd20d2eb	-0.039263647
56	0xbc6ff7b9	-0.014646464
57	0xbce73b9f	-0.028226672
58	0x3dd0f181	0.10202313
59	0xbbbbed55	-0.0057350793
60	0xbd086a77	-0.033304658
61	0x3c8985e3	0.016787475
62	0x3cb022a3	0.021500891
63	0x3ccf5262	0.025307838
64	0x3e0e6344	0.13905054
65	0x3d2931de	0.041307323
66	0xbd9d2e1a	-0.07674809
67	0xbcd9ca20	-0.026585639
68	0xbd478ed7	-0.048720207
69	0xbd9bca4a	-0.07606943
70	0xbdafa82c	-0.08576998
71	0x3cc25916	0.02372412
72	0xbd4e17ac	-0.050315544
73	0x3da84dac	0.0821794
74	0x3daa8426	0.083259866
75	0x3d560a6b	0.05225603
76	0x3b1af905	0.0023646962
77	0xbcebe1ac	-0.028794132
78	0x3b6fa4e2	0.0036566784
79	0x3cb6b685	0.022303829
80	0x3d502895	0.050819952
81	0xbd01e218	-0.03170976
82	0x3cfd8d8d	0.030951286
83	0x3d1dc9e2	0.03852261
84	0x3ccef6c6	0.025264155
85	0x3ad0713f	0.0015902891
86	0x3c83070e	0.015994575
87	0xbc1eb029	-0.009685555
88	0xbc52afc4	-0.012859289
89	0xbcbd5c2f	-0.023115246
90	0xbd2d1b90	-0.042262614
91	0x3d14d8d4	0.036339596
92	0x3cd0f6b7	0.025508268
93	0xbd22d3d0	-0.03975278
94	0xbd1a4146	-0.037659906
95	0xbd0aa87b	-0.03385208
96	0xbd5899a3	-0.052880894
97	0x3c869910	0.016430408
98	0x3d306eae	0.043074302
99	0xbd53e52e	-0.051732235
100	0xbd0b8faf	-0.034072574
101	0xbd385d88	-0.045011073
102	0x3da1802b	0.07885774
103	0xbd80fa8f	-0.0629779
104	0xbdfce349	-0.12348039
105	0xbdc6c60d	-0.09705744
106	0xbd41ae54	-0.047285393
107	0x3de670ba	0.1125197
108	0xbdc4dbc9	-0.09612233
109	0xbda9f91a	-0.082994655
110	0x3bcf131d	0.006319417
111	0x3d52954d	0.051411916
112	0x3d8335ea	0.06406768
113	0x3d83e942	0.06440975
114	0xbc20ebd6	-0.009821853
115	0x3d44ade9	0.048017416
116	0xbdcf0e73	-0.10110178
117	0xbdbf0e51	-0.093289025
118	0x3ca4a08b	0.020096084
119	0x3d6a55e4	0.057210818
120	0x3cacf030	0.021110624
121	0xbde98269	-0.11401827
122	0xbdee4697	-0.11634558
123	0x3d0424d3	0.03226168
124	0xbcce97ab	-0.025218805
125	0xbc9c7b43	-0.019101745
126	0xbc3e2f29	-0.011607924
127	0xbccc8565	-0.024965951
128	0xbd6287b5	-0.0553052
129	0x3dd1b7e8	0.102401555
130	0x3d0837e5	0.03325643
131	0x3d7d3afd	0.061823834
132	0xbc3f5c91	-0.011679784
133	0x3d9b79e0	0.07591605
134	0x3d3b65ee	0.045751505
135	0xbc84c48c	-0.016207002
136	0x3de254a6	0.11051302
137	0x3bdc5046	0.0067234365
138	0xbd29051e	-0.041264646
139	0x3d8ee704	0.069776565
140	0x3c88e2b7	0.016709669
141	0xbd4baa76	-0.04972311
142	0xbc048608	-0.008088596
143	0x3d6a6809	0.057228122
144	0xbd8aa16f	-0.06769072
145	0x3c9ffb96	0.019529145
146	0x3c7e1f79	0.015510433
147	0x3d938ef8	0.072050035
148	0xbdc0c5ab	-0.09412702
149	0xbdc03edb	-0.09386989
150	0xbc9da1e5	-0.019242236
151	0xbdb32826	-0.08747892
152	0x3dcfea1d	0.101520754
153	0x3a9c585a	0.0011928186
154	0xbdd82b6d	-0.10555158
155	0x3da27fd1	0.07934535
156	0x3cba3323	0.022729462
157	0x3d8b0cfe	0.067895874
158	0xbc157d5b	-0.009124125
159	0x3cfef7fd	0.03112411
160	0x3c87be65	0.01657028
161	0xbc0ed946	-0.008718794
162	0xbdcfca98	-0.101460636
163	0xbcada6de	-0.021197733
164	0x3dd6df4d	0.1049181
165	0x3c421efb	0.011848207
166	0x3c38fdf1	0.011291013
167	0xbc9089bc	-0.017643802
168	0xbd8f3c5e	-0.06993936
169	0x3de9b890	0.11412156
170	0xbd95cc57	-0.07314365
171	0x3cf7d05f	0.030250726
172	0xbca7349a	-0.020410825
173	0x3e07a367	0.13245927
174	0x3cbf2017	0.023330731
175	0x3d02dd1e	0.031949155
176	0x3d06a0ea	0.032868303
177	0xbd83ea9f	-0.06441235
178	0xbdb31157	-0.08743542
179	0xbcb2090d	-0.021732831
180	0xbcd4779e	-0.025935944
181	0xbc935252	-0.01798359
182	0xbddd5e2f	-0.1080898
183	0xbcdaa154	-0.026688255
184	0x3d08c03b	0.03338645
185	0x3d8e0a59	0.069355674
186	0x3d9f61da	0.077823356
187	0x3d0ad7df	0.033897277
188	0xbb2ab552	-0.0026048017
189	0x3c8273b3	0.01592431
190	0x3d3ea2d9	0.046542022
191	0xbcd8b916	-0.026455443
192	0xbb109acf	-0.002206493
193	0x3d93f6c6	0.07224803
194	0xbccf1476	-0.025278311
195	0x399d7e89	0.0003003965
196	0x3dc0b338	0.09409183
197	0xbbdb6c46	-0.006696257
198	0x3cdd3e80	0.027007341
199	0x3c1fe9ed	0.009760362
200	0xbdfc3fa5	-0.12316827
201	0x3d2fbdf1	0.04290575
202	0xbd6700b7	-0.056397166
203	0x3d133720	0.035941243
204	0x3dad599b	0.084643565
205	0xbcc56c22	-0.024099413
206	0x3da89a31	0.08232535
207	0x3d7c9320	0.061663747
208	0x3d8ef9e3	0.06981256
209	0x3d67cb2f	0.056590255
210	0xbc210f30	-0.009830281
211	0xbcb63d8c	-0.022246145
212	0xbd58fd1a	-0.05297575
213	0xbd0ce00b	-0.03439335
214	0x3dc30997	0.095233135
215	0x3d8a9a2c	0.06767687
216	0xbcd23abf	-0.025662778
217	0x3de7f40b	0.113258444
218	0xbc7f9ad1	-0.015600876
219	0xbd57ba60	-0.052667975
220	0x3cb35eb2	0.02189574
221	0x3cc30571	0.023806306
222	0x3d8582c4	0.06519082
223	0xbd1d2c82	-0.038372524
224	0x3da7e20c	0.08197412
225	0xbd198059	-0.037475917
226	0xbc5852ba	-0.013203317
227	0x3c03cf1b	0.008044983
228	0x3d85192a	0.0649894
229	0x3db7e0be	0.08978413
230	0xbc0a1a1a	-0.008429075
231	0x3d7c3eff	0.061583515
232	0x3ceced2c	0.028921686
233	0xbc5ec595	-0.013596912
234	0xbcd21a51	-0.025647314
235	0xbccef5ec	-0.025263749
236	0x3c886984	0.016651876
237	0xbb8ba95d	-0.004262133
238	0xbdad99bb	-0.084765874
239	0x3d1d7054	0.038437203
240	0xbd0da41c	-0.034580335
241	0xbc2760fd	-0.010215995
242	0x3d03811e	0.032105558
243	0x3cbe366a	0.023219306
244	0xbda7c3bb	-0.081916295
245	0xbc332288	-0.010933526
246	0xbc396683	-0.011315945
247	0x3d91caac	0.07118735
248	0x3d58b0ad	0.052902866
249	0xbd30b477	-0.043140855
250	0xbca06498	-0.019579217
251	0x3df6bbaf	0.120475166
252	0xbdc6ad6e	-0.09701048
253	0x3cb83418	0.022485778
254	0x3d90af3b	0.070646726
255	0x3e4e7a03	0.20163731

q1_layer1.bias f4 [256]
0	0x3ba857c1	0.005137414
1	0x39ae4a2e	0.00033243134
2	0x3ae0f015	0.0017161394
3	0x3b355e89	0.0027674756
4	0xbad981cd	-0.001659447
5	0x39a65393	0.00031724255
6	0xba92ca3a	-0.0011199184
7	0xbb0b84ec	-0.0021288944
8	0x3b97cfb5	0.004632915
9	0x3b86cf0b	0.004114037
10	0x3a057bc0	0.00050919876
11	0xb81a9554	-3.6855534e-05
12	0xbb35d419	-0.0027744828
13	0xbaaffcdf	-0.0013426802
14	0xbbd4456c	-0.0064780023
15	0xbc0e1237	-0.008671335
16	0xbb296525	-0.002584764
17	0x3ae69831	0.0017592964
18	0xbb1df579	-0.0024102612
19	0x3bdc1d9f	0.0067173983
20	0x3ba64820	0.005074516
21	0x3abdffe3	0.0014495816
22	0xb967a1f7	-0.00022090213
23	0xbac35b2c	-0.0014904491
24	0xbbb04c21	-0.005380169
25	0x3aa78f64	0.0012783823
26	0xbb748e3a	-0.003731622
27	0xbbdbb18d	-0.0067045153
28	0x3ac8000f	0.0015258807
29	0xbb9ccce0	-0.004785165
30	0xbb02462a	-0.0019878247
31	0xba9ee3c6	-0.0012122325
32	0x3ab18415	0.0013543392
33	0xba579cd0	-0.0008224966
34	0x3b91097a	0.0044261785
35	0x3a2964d3	0.00064618624
36	0xbba5e505	-0.0050627016
37	0xbae2bf4e	-0.0017299445
38	0x3a991c66	0.0011681437
39	0x3a3c442d	0.000718179
40	0xbac46e65	-0.0014986513
41	0xbba9f6ef	-0.0051869075
42	0xbba75e96	-0.005107711
43	0x3b42e23c	0.0029736897
44	0xbbc3e81d	-0.005978598
45	0xba9b1165	-0.0011830745
46	0x3b841062	0.0040302733
47	0xbb823ae9	-0.003974308
48	0x3bfb2e37	0.0076654213
49	0xbbb762c9	-0.005596493
50	0xbb2ff705	-0.0026850116
51	0x3b50ec1f	0.003187902
52	0x3b641eb3	0.0034808337
53	0x3a79f0f7	0.0009534503
54	0x3b912179	0.004429039
55	0xbab497ef	-0.001377819
56	0xbb4e57ac	-0.0031485362
57	0x38a51538	7.8717654e-05
58	0x3af34196	0.0018558975
59	0x3b8fa7ba	0.0043840082
60	0x3abc9a5c	0.0014389264
61	0xbb0782b5	-0.0020677273
62	0xbb4056d0	-0.002934862
63	0xb5304258	-6.566165e-07
64	0x39b6c4f2	0.0003486048
65	0x3b238486	0.0024950816
66	0xbac96d3d	-0.0015367639
67	0x3b844e3b	0.004037646
68	0x3b9bb2fc	0.004751561
69	0x3b1ae9f4	0.0023637982
70	0xbaabe25f	-0.0013113728
71	0x3bdc368a	0.0067203688
72	0xbba2fe2f	-0.0049741487
73	0x3bc23320	0.0059265047
74	0x3b464d8c	0.0030258624
75	0xbaec0ec1	-0.0018009768
76	0x3b90eaa1	0.004422501
77	0xbb9b77bf	-0.0047444995
78	0xbb1de76e	-0.0024094242
79	0xbb6836c2	-0.0035433029
80	0x3a6a1f5f	0.0008931066
81	0x3b528947	0.003212528
82	0x39245a91	0.00015673997
83	0x39c0caa2	0.00036772067
84	0xbba34f02	-0.0049837837
85	0x3b9ccd6e	0.0047852313
86	0xb999688a	-0.00029260322
87	0x3b6e4d87	0.0036362128
88	0x3b4cf331	0.0031272883
89	0xbb120a10	-0.002228383
90	0xbba69536	-0.0050837053
91	0x3b187e68	0.0023268703
92	0x3ba7c41e	0.0051198145
93	0x3b5b6418	0.0033476409
94	0xbbae7cdf	-0.0053249444
95	0xbabfe1cf	-0.001463944
96	0xba14e877	-0.0005680392
97	0xbb1386c7	-0.0022510753
98	0xbb2d2031	-0.0026416893
99	0x3b2cf7d1	0.0026392827
100	0xbabdccd2	-0.0014480597
101	0xbb66b69a	-0.0035204054
102	0x3abf684c	0.0014603226
103	0x3b4988e5	0.0030751762
104	0xba800393	-0.000976669
105	0xbb086ff1	-0.0020818675
106	0xba7eafdb	-0.00097155356
107	0x3ad83fcc	0.0016498505
108	0x3c035dad	0.0080179395
109	0xbbdcd852	-0.0067396546
110	0x38f5de67	0.00011723936
111	0x3b8f7bb8	0.004378762
112	0xbb96672e	-0.0045899367
113	0xbb2ae0cd	-0.0026073933
114	0x3b0a2d2b	0.002108405
115	0xba21ba0c	-0.0006169386
116	0xbb5628b6	-0.0032678074
117	0xbb6a2a90	-0.0035730936
118	0x3aed3eb2	0.001810035
119	0xbc0b681c	-0.008508708
120	0xb9477876	-0.00019022994
121	0xbb235274	-0.0024920972
122	0x3aae9926	0.0013320788
123	0xbbd27389	-0.0064224643
124	0xb89b11b4	-7.3942734e-05
125	0x3ac93bc9	0.00153529
126	0xbb6614cd	-0.0035107613
127	0x39b906db	0.00035291057
128	0x3b72e2b2	0.003706139
129	0x3b12d857	0.002240678
130	0x3b67b341	0.0035354646
131	0x3b0b6e63	0.0021275512
132	0xba2976ac	-0.0006464522
133	0x3ab9699a	0.0014145852
134	0x3b079e07	0.0020693557
135	0xbb80df28	-0.0039328523
136	0xbba27a5c	-0.004958434
137	0xb8d451ab	-0.000101241596
138	0xba9325f2	-0.0011226519
139	0x3961c4d2	0.00021530993
140	0x3bbddaee	0.0057939207
141	0x3b543291	0.0032378773
142	0x3bb3ce76	0.0054872585
143	0x3bb6aef9	0.0055750576
144	0xba826245	-0.00099475
145	0x3b2a02b4	0.0025941553
146	0xba937775	-0.0011250811
147	0x3adcf81e	0.0016858613
148	0x3974bbbb	0.00023339588
149	0x38be721a	9.081159e-05
150	0x3a347ad6	0.0006884759
151	0xbbb56dfa	-0.005536792
152	0x3b9eb877	0.0048437673
153	0xbb873bc5	-0.004126998
154	0x3b908b26	0.004411119
155	0x3bba9eb5	0.005695189
156	0x3b383067	0.0028105022
157	0xbb485afa	-0.0030571804
158	0xbb9da126	-0.00481047
159	0xbbbe285d	-0.0058031515
160	0xbb1e9761	-0.0024199116
161	0x3bd613fc	0.006533144
162	0x3ae8c10a	0.0017757725
163	0xba82e50a	-0.0009986472
164	0x3b648c65	0.003487372
165	0xbaf89f69	-0.0018968406
166	0x3aac3a31	0.0013139901
167	0x3b92a9cc	0.004475808
168	0x3bbfe5cd	0.005856252
169	0xbb1dac54	-0.0024059014
170	0xbb24b212	-0.0025130552
171	0x3a9cd2d4	0.0011964687
172	0xb7a117b3	-1.9203731e-05
173	0x3b3acd09	0.0028503558
174	0xbb68b11a	-0.0035505951
175	0xbade793a	-0.0016973384
176	0x3ae95f4e	0.0017804892
177	0x3ace5335	0.001574135
178	0x3b1fdaf7	0.0024391988
179	0x3b94d7ac	0.0045423117
180	0xbb8664c5	-0.004101368
181	0xb9cf844b	-0.00039580683
182	0xbb52b3e6	-0.0032150685
183	0xbb5ba365	-0.0033514139
184	0xbacffaac	-0.0015867553
185	0xbb4b650c	-0.003103557
186	0x3b06a7a4	0.00205467
187	0xbb38885d	-0.002815745
188	0x3aeaadd2	0.0017904586
189	0xbb60d2fc	-0.0034305444
190	0xbb2ed65e	-0.0026678066
191	0x3a2bf5bc	0.00065597496
192	0xbb44745a	-0.0029976577
193	0xbbb6b4b8	-0.0055757426
194	0x383abe7e	4.4523265e-05
195	0x3aa8266b	0.0012828832
196	0xbb81bfbf	-0.0039596255
197	0x3a0c5355	0.00053529936
198	0x3b60a038	0.0034275185
199	0xbae9a0b2	-0.001782438
200	0x3ae88d0f	0.0017742234
201	0xbb013da0	-0.001972057
202	0xbb6e5aac	-0.0036369963
203	0xba923444	-0.0011154492
204	0xbb88d0d0	-0.004175283
205	0x3acb9e49	0.0015534844
206	0x3ab1b596	0.0013558145
207	0xbb27d161	-0.0025606977
208	0xbb6d6460	-0.0036223158
209	0xb96a16c5	-0.00022324461
210	0x3b7755ba	0.0037740306
211	0x3bb1fd22	0.005431787
212	0xbb494224	-0.003070959
213	0x3a3acfcc	0.0007126301
214	0xbba48178	-0.0050203167
215	0x3ad6c42a	0.0016385366
216	0xbb21706e	-0.0024633664
217	0xbbabce0f	-0.00524307
218	0x3b070687	0.0020603256
219	0xbae52763	-0.0017483052
220	0x382d4e89	4.1319556e-05
221	0x3baa651a	0.0052000405
222	0xbacb6325	-0.0015517218
223	0xbb05a4a3	-0.002039232
224	0x3ac81b80	0.0015266985
225	0xbb2f6ab1	-0.0026766474
226	0x3a8d8964	0.0010798392
227	0xbb41ad09	-0.00295526
228	0x3a94c5c0	0.0011350438
229	0xbb4adefd	-0.0030955665
230	0x3a695e65	0.00089023105
231	0xbb18c2e5	-0.0023309526
232	0x3bbae90f	0.0057040523
233	0x3b05d1b0	0.0020419173
234	0x3ade7bb6	0.0016974125
235	0x3b25144c	0.00251891
236	0xbb230c9d	-0.0024879344
237	0x3a53ad3a	0.0008074824
238	0x3a5d4931	0.00084413873
239	0xbb8375f6	-0.004011865
240	0xbaba8308	-0.0014229724
241	0xbad38838	-0.0016138619
242	0xbb715e62	-0.0036829938
243	0xbb1ffaa9	-0.002441088
244	0xbb7079c3	-0.003669367
245	0x3b71ab6d	0.003687586
246	0xbad16fe1	-0.0015978777
247	0xba22c9c6	-0.0006209876
248	0x3b4a2426	0.00308443
249	0xbb9356bb	-0.004496423
250	0xbbe79106	-0.0070668487
251	0x3ba9e8f9	0.005185243
252	0xbb49398d	-0.003070447
253	0xb94f46fe	-0.00019767505
254	0x3a2edc4f	0.0006670402
255	0xbb6a1d20	-0.0035722926

q1_layer2.weight f4 [256, 256]
0	0x3bf8e192	0.0075952495
1	0x3d2a763d	0.041616667
2	0x3e141059	0.14459361
3	0xbdd38759	-0.1032855
4	0xbc709c99	-0.014685773
5	0xbd7748ab	-0.060372036
6	0x3da52cea	0.08065207
7	0x3d14f911	0.03637034
8	0x3e0622bb	0.13099186
9	0xbdd3620a	-0.10321434
10	0xbc3a7c97	-0.011382244
11	0xbaf09a04	-0.0018356447
12	0x3db86723	0.09004047
13	0x3ad8332f	0.0016494746
14	0xbcf2e56e	-0.029650416
15	0xbcd6cd51	-0.02622095
16	0x3c300b54	0.010744888
17	0xbd6b6f1a	-0.057479
18	0x3c119852	0.008886414
19	0x3e0aeb01	0.1356621
20	0x3c33e054	0.010978777
21	0xbc83959a	-0.016062547
22	0x3d459c1a	0.048244573
23	0xbd4bdd64	-0.04977168
24	0xbd1ac426	-0.037784718
25	0xbcc9f352	-0.024652157
26	0xbd06c0d1	-0.032898728
27	0xbd7574da	-0.05992589
28	0xbc3f3008	-0.011669166
29	0x3cabbd21	0.020964207
30	0x3cba5c69	0.022749143
31	0xbc8d27c5	-0.017230878
32	0xbdc466ec	-0.09589943
33	0x3b989c60	0.004657313
34	0xba7324da	-0.00092752057
35	0xbd495177	-0.049149957
36	0x39d4e417	0.0004060573
37	0xbc95b678	-0.018275484
38	0x3d2c4de2	0.042066462
39	0xbdce0bfc	-0.100608796
40	0xbde191a8	-0.1101411
41	0xb95af329	-0.00020880684
42	0x3cc1e0ad	0.023666704
43	0x3d8efc4d	0.06981716
44	0x3d45fdd4	0.048337772
45	0x3c0118f7	0.007879487
46	0x3cd0d511	0.025492223
47	0x3d44d1a8	0.048051506
48	0x3de04198	0.10950011
49	0xbd8e1b7e	-0.069388375
50	0x3d6a7d9c	0.057248697
51	0x3dc2a40f	0.09503948
52	0x3b272a80	0.002550751
53	0xbd9ae9ed	-0.07564149
54	0x3da9e7d0	0.08296168
55	0xbd218f3c	-0.03944324
56	0x3e0978be	0.13424966
57	0xbae066ff	-0.0017120539
58	0xbcf8c190	-0.030365735
59	0x3c807a40	0.015683293
60	0xbdf9dd44	-0.12200406
61	0xbd3b0565	-0.04565944
62	0x39431458	0.00018604228
63	0x3d7fb0ce	0.062424473
64	0x3d9c007b	0.07617279
65	0x3d12cab4	0.035837844
66	0xbc2dd719	-0.010610365
67	0x3d8348ea	0.06410392
68	0xbb020806	-0.0019841208
69	0xbdb66116	-0.089052364
70	0x3bb1d7f7	0.0054273563
71	0x3c110f54	0.008853752
72	0xbd136648	-0.035986215
73	0xbddb3385	-0.10703186
74	0x3d93946c	0.072060436
75	0x3ba56b96	0.0050482256
76	0xbd84f25f	-0.06491541
77	0x3dd0c1e5	0.101932324
78	0x3d835894	0.06413379
79	0xbcd57e8b	-0.026061317
80	0x3c10ca8c	0.008837353
81	0x3d077d85	0.03307869
82	0xbb24335e	-0.0025055031
83	0xbb2beaee	-0.0026232558
84	0xbda2639d	-0.07929156
85	0x3dc966a0	0.09834027
86	0xbd88bb9e	-0.0667641
87	0x3c823872	0.015896056
88	0xbda67ec7	-0.081296496
89	0x3c1792e4	0.00925133
90	0xbd7a77ad	-0.061149288
91	0x3c4caa06	0.012491709
92	0xbd37755d	-0.04478966
93	0xbb839ec5	-0.0040167295
94	0xbb79c717	-0.0038113052
95	0x3ca4ee7b	0.020133248
96	0xbc3bf64d	-0.011472297
97	0xbc116663	-0.008874509
98	0xbe04e91e	-0.12979552
99	0xbe012a5b	-0.12613814
100	0xbd834f04	-0.064115554
101	0xbc94b7d4	-0.018154062
102	0xbd5a21df	-0.05325496
103	0xbd36c185	-0.04461815
104	0xbdb14822	-0.08656336
105	0x3d5f885b	0.054573398
106	0xbcfe4b26	-0.031041693
107	0xbdb45f1a	-0.08807202
108	0xbe3a1563	-0.18172221
109	0x3b82a307	0.0039867195
110	0x3cdfe61f	0.02733141
111	0xbcdbffed	-0.026855433
112	0xbc0ca8c8	-0.008585162
113	0x3b88c258	0.004173558
114	0xbc9e477f	-0.019321201
115	0x3cdec164	0.027191825
116	0x3cca8f27	0.024726463
117	0xbd3baeff	-0.045821186
118	0xbd6d5550	-0.05794269
119	0x3cf55780	0.02994895
120	0xbadb0234	-0.0016709031
121	0x3c22e9fd	0.0099434825
122	0xbdc91b2d	-0.098196365
123	0x3c6eb284	0.014568929
124	0xbdb0f450	-0.08640349
125	0xbe5e1eed	-0.21691485
126	0xbda26b2b	-0.07930597
127	0xbc83b446	-0.016077172
128	0x3d25a281	0.04043818
129	0xbd3cb121	-0.04606736
130	0x3d79c49b	0.060978513
131	0xbd1e6960	-0.038674712
132	0x3d52267c	0.051306233
133	0xbd17c598	-0.037053674
134	0x3d23c886	0.039986156
135	0xbb82f0bf	-0.0039959843
136	0xbca31467	-0.01990719
137	0x3d6f4fb5	0.058425624
138	0xbb849f50	-0.004047312
139	0xbd38ff70	-0.04516548
140	0x3c85eead	0.016349161
141	0xbc11e57a	-0.008904809
142	0x3d7bec62	0.06150473
143	0xbd242d50	-0.040082276
144	0xbc67b57f	-0.014142393
145	0xbdeb1821	-0.114792116
146	0x3d57e223	0.052705895
147	0x3c018a23	0.0079064695
148	0x3d87657e	0.06611155
149	0x3d86a68e	0.065747365
150	0xbcf96e0e	-0.030447986
151	0x3d71a405	0.05899431
152	0xbdd32ee9	-0.10311682
153	0x3c18a37c	0.009316321
154	0x3e288453	0.16456728
155	0x3d5f9ec6	0.054594778
156	0x3c0a398b	0.008436571
157	0x3c335ada	0.010946954
158	0xbd8e6a42	-0.06953861
159	0xbd7703fa	-0.060306527
160	0xbc15e9bd	-0.009149966
161	0xbdcfd467	-0.101479344
162	0xbd61c3c4	-0.055118337
163	0xbe08f10b	-0.133732
164	0xbd62da48	-0.05538395
165	0xbd6d3ef7	-0.057921376
166	0xbcef8e6d	-0.029242719
167	0x3d950765	0.07276801
168	0x3bc131a4	0.00589581
169	0x3d1b474d	0.037909795
170	0x3dd59722	0.10429217
171	0x3d215030	0.039383113
172	0xbe1a055e	-0.1504111
173	0xbdb5ce8b	-0.088772856
174	0x3c924036	0.017852884
175	0x3d32dadf	0.043665763
176	0xbde5f60f	-0.112285726
177	0x3df057fc	0.11735532
178	0xbd16532b	-0.03670041
179	0xbd204183	-0.039124977
180	0xbcd192a5	-0.02558262
181	0xbce04a94	-0.027379312
182	0x3b066f9a	0.0020513297
183	0x3b304b9c	0.0026900535
184	0x3cc39379	0.023874031
185	0xbb89d931	-0.0042067994
186	0xbcb4a6b1	-0.02205214
187	0xbd4c0a9e	-0.049814813
188	0xbdccc6a5	-0.09998826
189	0x3d767756	0.0601724
190	0xbc2e1257	-0.01062449
191	0xbd64705b	-0.055771213
192	0xbbc5cab2	-0.006036126
193	0x3c9efb36	0.019406896
194	0x3c6b7ff0	0.014373764
195	0x3cb0dd8c	0.021590017
196	0x3d2cdf8a	0.04220537
197	0x3d191586	0.037374042
198	0xbc9f028d	-0.019410396
199	0xbdcb865f	-0.099377386
200	0x3dbafbe2	0.09130074
201	0xbdc62319	-0.09674663
202	0xba25cbc1	-0.0006324612
203	0xbc5f6c65	-0.013636683
204	0xbcba2e76	-0.022727232
205	0xbdb1c96d	-0.08680997
206	0x3c81c988	0.015843168
207	0xbd463afa	-0.04839609
208	0x3da5dbfc	0.08098599
209	0xbe0c9035	-0.13726886
210	0x3d8e94d9	0.06961984
211	0xbd44b36a	-0.048022665
212	0xbe23987b	-0.15976135
213	0x3ae33233	0.0017333686
214	0xbd40ac3c	-0.047039255
215	0xbcc66002	-0.024215702
216	0x3d517f9a	0.05114708
217	0x3b3ff78e	0.0029291841
218	0xbd474c31	-0.048656646
219	0x3d980e3c	0.0742459
220	0x3cef73a1	0.02922994
221	0x3ccbd2b5	0.024880746
222	0x3de37a07	0.11107259
223	0x3ce7bc03	0.028287893
224	0x398282a1	0.00024892858
225	0xbcce2a52	-0.025166664
226	0x3d08b797	0.03337821
227	0xbd48fa76	-0.049066983
228	0x3dbf2640	0.093334675
229	0x3dad09cb	0.084491335
230	0x3d495b6e	0.04915946
231	0xbb5c95bf	-0.0033658592
232	0x3e1ca04f	0.15295528
233	0xbd76bbf9	-0.06023786
234	0x3dc86f19	0.09786815
235	0xbda86e64	-0.0822418
236	0xbdb6430d	-0.08899508
237	0x3c18a3ff	0.009316443
238	0xbd54b36e	-0.05192893
239	0xbc2ca387	-0.010537035
240	0xbaa93e8f	-0.0012912321
241	0x3c094e24	0.008380447
242	0x3bc7c4fc	0.0060964804
243	0x3d514e89	0.051100288
244	0xbd0b50ba	-0.034012534
245	0xbc7550bf	-0.014972865
246	0x3c95af3d	0.018272037
247	0x3b9e6190	0.0048334077
248	0xbdd71c85	-0.105034865
249	0xbd9ee872	-0.07759179
250	0x3cfdad9b	0.03096657
251	0x3c889067	0.016670419
252	0x3c9a2a12	0.018818889
253	0x3d947e9f	0.072507136
254	0x3de79700	0.11308098
255	0xbd427871	-0.047478143

q1_layer2.bias f4 [256]
0	0xbb2bbf23	-0.0026206456
1	0xbb8e0721	-0.004334346
2	0xbae95f52	-0.0017804897
3	0xbb81e514	-0.003964076
4	0x3a7deb1f	0.000968622
5	0x3bab5eb6	0.0052297963
6	0xbba55c66	-0.005046415
7	0xbb597c7b	-0.0033185768
8	0x3baf0eec	0.005342355
9	0xbb8f7f5a	-0.004379195
10	0x3b5b9883	0.0033507652
11	0xbb63d4c1	-0.0034764262
12	0xbb6717fc	-0.0035262099
13	0x3bcc0d06	0.0062271385
14	0xb9cc327e	-0.00038947532
15	0xb9e84711	-0.00044303437
16	0xbb977d02	-0.0046230564
17	0x3b9e53ce	0.0048317676
18	0x3b47e72a	0.0030502775
19	0xbb0bcfaf	-0.0021333506
20	0x3b1b8df1	0.0023735727
21	0xbb93e83f	-0.00451377
22	0xbbab889b	-0.0052347905
23	0x3ba9b663	0.005179213
24	0x3b35cbb8	0.0027739834
25	0xbb9ac1f9	-0.0047228304
26	0x3bcd8da8	0.0062729903
27	0xbb970619	-0.004608881
28	0x3b2644f3	0.0025370687
29	0xbbe20811	-0.0068979342
30	0xbc06860b	-0.008210669
31	0xbbb6e484	-0.0055814404
32	0xbb9ef407	-0.0048508677
33	0xbb928cfe	-0.004472374
34	0x3a383520	0.0007026959
35	0x3b9e35e1	0.0048282
36	0xbaa78207	-0.001277984
37	0x36f16071	7.193587e-06
38	0x3ba7f2d9	0.0051253852
39	0xbbb19119	-0.0054189083
40	0xbb5ffde9	-0.0034178442
41	0x3b7e649b	0.003881729
42	0xba6ed677	-0.0009110937
43	0xbbb6e3e2	-0.005581365
44	0xbb597837	-0.0033183226
45	0x39eabfc1	0.00044774826
46	0x3bc7af18	0.006093871
47	0xbb633e41	-0.0034674557
48	0xb8f8503a	-0.00011840505
49	0x3b1a6fa0	0.002356507
50	0x3bd5dff7	0.006526943
51	0xbb76cea9	-0.00376598
52	0x3a2ad988	0.00065174
53	0xbb823b81	-0.0039743786
54	0xbb3ee72d	-0.002912949
55	0x3ba27bd1	0.0049586077
56	0xbba24e50	-0.0049531832
57	0xbb25f5bd	-0.0025323473
58	0x3ba608eb	0.005066981
59	0xbb49cedd	-0.0030793466
60	0xbb82189f	-0.00397022
61	0x3b4b792f	0.0031047573
62	0x380f3ce6	3.4150573e-05
63	0x3bab432f	0.005226515
64	0x3b9bafba	0.004751173
65	0x3bebc299	0.0071948287
66	0x3b874a67	0.0041287425
67	0x3c091144	0.008365933
68	0x3b0a65a2	0.0021117707
69	0x3b38c566	0.002819383
70	0xbb9cf5b4	-0.0047900323
71	0xbb97bc55	-0.004630605
72	0x3bbab937	0.005698349
73	0x3bb5efb6	0.0055522574
74	0x3b50b2fb	0.0031844962
75	0x3b429e8b	0.002969655
76	0x3b7956f4	0.0038046213
77	0x3b540653	0.0032352402
78	0x3a6bffe8	0.00090026716
79	0x3bcf228d	0.0063212574
80	0xbb67f6f3	-0.0035394996
81	0xbabd8d1b	-0.0014461608
82	0x3a56d7f5	0.0008195632
83	0x3bb43946	0.0054999916
84	0xbb150c4a	-0.002274292
85	0xbb9a065d	-0.0047004656
86	0x3b8dc26a	0.0043261545
87	0xbba190de	-0.0049305996
88	0xbb9f8297	-0.0048678624
89	0x3c34689a	0.011011267
90	0xbaf8d521	-0.0018984416
91	0x3bc794e9	0.0060907495
92	0xbb98b5d3	-0.004660347
93	0xbc0dedef	-0.008662685
94	0xba99c35f	-0.0011731199
95	0xbba7a988	-0.0051166452
96	0xbbdae788	-0.0066804327
97	0xbc36117d	-0.011112568
98	0xbb759b74	-0.003747669
99	0xbc25c1f7	-0.010117046
100	0x3b3d1685	0.0028852534
101	0xbbf820b9	-0.00757226
102	0xbbc77024	-0.0060863663
103	0xbb60e6f6	-0.003431735
104	0xbbb62612	-0.0055587376
105	0x3c02a22d	0.007973236
106	0xbbe6cab3	-0.0070432066
107	0x3b888ded	0.0041673095
108	0x3bdf363c	0.006811885
109	0xbb6e873d	-0.0036396526
110	0xbc0e3314	-0.00867917
111	0xba379227	-0.00070026744
112	0xbb9793fb	-0.004625795
113	0x3c2c6dc3	0.010524216
114	0xbbdaffac	-0.0066833105
115	0xbbac9637	-0.0052669304
116	0xbba0763a	-0.004896906
117	0xbb919017	-0.0044422257
118	0xbb92f928	-0.004485268
119	0xbb8d8bb2	-0.0043196315
120	0xbba72538	-0.0051008724
121	0x398c2889	0.00026733082
122	0x3bb2cdd6	0.0054566665
123	0x3b2d02bf	0.0026399342
124	0xbb4497b2	-0.0029997644
125	0x3a06af89	0.0005137851
126	0xb9634468	-0.0002167389
127	0x3bacdabe	0.0052750995
128	0x39ba15b4	0.00035492855
129	0x3ba57df0	0.0050504133
130	0x3b5d8859	0.0033803193
131	0x3b0caf45	0.0021466773
132	0x3b71b1c4	0.0036879638
133	0x3a89b099	0.0010504901
134	0xbbccdd7b	-0.0062519885
135	0xbb5e67a4	-0.0033936286
136	0xbb855cd2	-0.004069903
137	0x3bce4d0c	0.006295806
138	0xbb3c1c00	-0.0028703213
139	0x3bc68647	0.0060584876
140	0xbb8faac8	-0.0043843724
141	0xbaed7ff0	-0.0018119793
142	0xbb9e2608	-0.004826311
143	0xba63620d	-0.00086739735
144	0x3bc07fae	0.0058745956
145	0xbb73e9a2	-0.0037218113
146	0xbbb5ccc4	-0.0055480916
147	0xbb191650	-0.0023359247
148	0xba935922	-0.0011241774
149	0x3bb13cf6	0.0054088784
150	0xbc2726dc	-0.010202136
151	0xbab2923a	-0.0013623901
152	0x3a7b1583	0.00095780956
153	0x3a3eb4ad	0.00072748476
154	0xbc0caf70	-0.008586749
155	0xbaa8b6d9	-0.0012871876
156	0xbba124eb	-0.004917731
157	0x3b912665	0.004429626
158	0xb7d071a2	-2.4848447e-05
159	0xba810a2a	-0.0009844948
160	0xbafe823f	-0.0019417478
161	0xb8e037bf	-0.00010691536
162	0xbbb78dc9	-0.005601619
163	0x3b139bdb	0.0022523317
164	0xbb804fbe	-0.003915756
165	0xbb52538b	-0.0032093253
166	0xbad538e4	-0.0016267565
167	0x3b0cf00b	0.0021505381
168	0x3a96963c	0.0011488865
169	0x3bcd4369	0.0062641394
170	0xbbc4f594	-0.0060107205
171	0x3aa37bc6	0.00124728
172	0x3bba0c94	0.005677769
173	0xbbae2d3e	-0.005315452
174	0xbbf14e02	-0.0073640356
175	0xbb8b813c	-0.0042573493
176	0x3b960ccb	0.0045791618
177	0xbb2b00af	-0.0026092937
178	0xbbe74450	-0.007057704
179	0x3b3cb4ae	0.0028794217
180	0xbbb166a6	-0.005413848
181	0x3b8a0caa	0.0042129355
182	0x3bc6fa0f	0.00607229
183	0xbba4fce0	-0.005035028
184	0x3b09332d	0.0020935044
185	0xbb84388f	-0.0040350626
186	0x3bad989b	0.005297733
187	0x3abf4a55	0.0014594296
188	0xbb113d0e	-0.0022161636
189	0xbba0d4b9	-0.004908171
190	0xb997b9a0	-0.00028939266
191	0x3b8cab6c	0.004292896
192	0x3bc9e02a	0.0061607556
193	0xbc0d3d43	-0.008620563
194	0x3b6f2317	0.003648942
195	0x3ba6a353	0.0050853877
196	0x3b2659bf	0.0025383083
197	0xbb5207d5	-0.0032048125
198	0xbb91147f	-0.004427492
199	0x3bbade83	0.005702795
200	0xbb9a629d	-0.0047114627
201	0x3b924348	0.004463587
202	0xbb849502	-0.0040460834
203	0x3b9d2c5d	0.0047965483
204	0xbbc31395	-0.005953262
205	0xbbe95f41	-0.007121951
206	0xbb95a497	-0.00456674
207	0x3aae3b67	0.001329285
208	0xbb6fb286	-0.0036574914
209	0xbb7d3617	-0.0038636976
210	0x3bac8afc	0.0052655917
211	0xbb5c3f89	-0.0033607206
212	0x3bb3dc61	0.0054889177
213	0xbb48404c	-0.0030555902
214	0xbba0c202	-0.00490594
215	0xbbc3eeaa	-0.0059793787
216	0x3ac60ea8	0.0015110569
217	0xbb884d70	-0.004159622
218	0xbb9c4000	-0.0047683716
219	0xbc25b4b8	-0.0101138875
220	0x3b8fc695	0.0043876865
221	0xbb3514fc	-0.0027630916
222	0xba85e95b	-0.001021664
223	0x3b8e3fcf	0.0043411027
224	0x3b92ed87	0.004483882
225	0xbc764db4	-0.015033174
226	0xbadff9fe	-0.0017088053
227	0xbbc6a915	-0.0060626366
228	0x3a9ad086	0.0011811412
229	0xbbdae6af	-0.0066803317
230	0x3baa2d51	0.0051933904
231	0x3bafe323	0.005367653
232	0xbb08df0f	-0.0020884906
233	0xbc134f41	-0.008991064
234	0xbc494f9f	-0.01228705
235	0x3b365c51	0.002782602
236	0x3b2afddd	0.0026091256
237	0xbbad8024	-0.0052948166
238	0xbba3e278	-0.0050013624
239	0xbbaf52ef	-0.0053504626
240	0x3ac5edbe	0.001510076
241	0x3bc5c0b4	0.006034935
242	0xbb96ff67	-0.004608083
243	0x3bb3be80	0.005485356
244	0x3ba2a060	0.004962966
245	0xbba74ab9	-0.005105343
246	0xbb8c05f1	-0.004273169
247	0xbb507eda	-0.003181389
248	0xbba9ae32	-0.0051782364
249	0x3ba3694a	0.0049869167
250	0xbb245ae8	-0.0025078598
251	0x3bb596e6	0.00554167
252	0x3bf86735	0.0075806626
253	0xbb81d4db	-0.003962142
254	0x3bee1192	0.007265278
255	0x3adc82fe	0.0016823707

q1_layer3.weight f4 [128, 256]
0	0x3d87d99f	0.06633305
1	0x3d1c3fea	0.03814689
2	0x3d1b8bf4	0.037975267
3	0x3d395959	0.045251224
4	0xbdf87d95	-0.12133328
5	0xbcd2cfea	-0.025733907
6	0xbaf0f6b7	-0.0018384074
7	0x3b51e891	0.003202949
8	0xbcad93c8	-0.021188632
9	0xbd91eee6	-0.071256444
10	0x3d4d033c	0.050051913
11	0x3d682286	0.05667355
12	0x3d876739	0.06611485
13	0xbd94cc57	-0.07265537
14	0xba44f25e	-0.0007512922
15	0x3bfbbaa1	0.00768216
16	0xbc65c4b9	-0.014023953
17	0x3dbb37b1	0.09141482
18	0xb995e366	-0.0002858892
19	0xbd419fe4	-0.047271624
20	0x3d23f53b	0.040028792
21	0xbd6fd09d	-0.05854856
22	0xbdb787bf	-0.089614384
23	0xbd45adb0	-0.048261344
24	0x3d8ed4f8	0.06974214
25	0xbd36a459	-0.044590328
26	0xbdd81f9b	-0.10552903
27	0x3c872150	0.016495377
28	0x3c3c2e81	0.011485697
29	0x3cdcfe24	0.026976652
30	0xbe09f537	-0.13472448
31	0xbd065ddb	-0.03280435
32	0x3d93a2dd	0.07208798
33	0x3d9bdd20	0.076105356
34	0xbdf4aa74	-0.11946574
35	0x3db2a6bc	0.08723208
36	0xbaf99726	-0.0019042238
37	0x3d56bde4	0.052427188
38	0xbc54c092	-0.012985365
39	0x3ce8894b	0.028385779
40	0x3dadc3d6	0.08484618
41	0xbbcf0cf6	-0.0063186837
42	0xbdbc4843	-0.0919347
43	0x3e0af722	0.13570836
44	0x3c832e72	0.016013358
45	0x3dc0bd8d	0.09411154
46	0x3ceb6611	0.028735192
47	0xbcb6d3f3	-0.022317862
48	0xbb5b7d95	-0.00334916
49	0x3d8fa88a	0.07014568
50	0x3d8d9d2f	0.06914746
51	0x3dd7834c	0.1052309
52	0x3ccefceb	0.025267085
53	0xbda9b963	-0.08287313
54	0x3d872646	0.06599097
55	0xbd6024d3	-0.05472262
56	0xbd798400	-0.0609169
57	0xbd6e69a9	-0.058206234
58	0x3d0eff73	0.034911584
59	0x3cf0dfde	0.029403623
60	0xbcd392f6	-0.025826912
61	0x3d9ee3d1	0.07758296
62	0xbcba63c0	-0.022752643
63	0xbd544c0c	-0.051830336
64	0x3d7d2f58	0.06181273
65	0x3d871e5d	0.06597588
66	0x3c43a452	0.0119410325
67	0x3c753ade	0.014967648
68	0xbcd961ed	-0.026535952
69	0xbd26fbd7	-0.040767517
70	0xbd7cf57b	-0.061757546
71	0x3d6bb9cd	0.05755024
72	0xbc78c14a	-0.015182802
73	0xbdaeba49	-0.08531625
74	0x3caa4a9d	0.020787532
75	0xbd95d6c5	-0.07316355
76	0x3cfc3943	0.030789023
77	0xbcceb7f4	-0.0252342
78	0xbdc7cea7	-0.09756213
79	0xbcc691ba	-0.02423941
80	0x3d751be0	0.059841037
81	0x3d987c09	0.07445533
82	0x3e19cf34	0.15020448
83	0x3d553fed	0.052062918
84	0xbd25beab	-0.04046504
85	0xb9d6071b	-0.00040822555
86	0xbcc8f89f	-0.024532614
87	0xbdafdcad	-0.085870124
88	0x3c94d3cc	0.018167399
89	0x3dabf15c	0.08395645
90	0x3c810f56	0.015754383
91	0x3c85e502	0.016344551
92	0x3d1ba604	0.03800012
93	0xbd89960f	-0.067180745
94	0xbdf41615	-0.11918274
95	0xbd89a3fc	-0.06720731
96	0xbd3bd1d0	-0.04585439
97	0x3d0e1d3d	0.034695853
98	0xbdf4b104	-0.119478256
99	0xbb37d1ca	-0.0028048628
100	0x3b0fa9bb	0.0021921236
101	0xbd966dc7	-0.07345157
102	0xbcd68dae	-0.026190605
103	0xbc3371ea	-0.010952452
104	0xbdb4cf99	-0.088286586
105	0x3cfc93b6	0.030832153
106	0x3d59d988	0.05318597
107	0x3d3f0496	0.046635233
108	0x3bb915bb	0.0056483424
109	0x3c6e8acb	0.014559458
110	0xbbb29853	-0.0054502874
111	0xbe022898	-0.12710798
112	0xbccc0462	-0.024904434
113	0xbe34ab9f	-0.17643593
114	0xbd64602d	-0.055755783
115	0xbd6b7970	-0.05748886
116	0x3d4562bf	0.048189875
117	0xbe0d26fe	-0.13784406
118	0x3c8bd3b1	0.017068716
119	0xbd3da3b7	-0.04629871
120	0x3b833bcc	0.004004931
121	0xbc04f80c	-0.00811578
122	0xbceff083	-0.02928949
123	0xbcd2b826	-0.025722574
124	0xbe2ed6d3	-0.17074136
125	0xbd4e93d3	-0.050433945
126	0xbc0d2a42	-0.008616032
127	0xbd212e9a	-0.039351083
128	0x3d17f03b	0.037094336
129	0x3d8c43bc	0.06848857
130	0x3df009a2	0.11720587
131	0xbd83e295	-0.064397015
132	0x3cff6d23	0.03117997
133	0xbd440567	-0.047856715
134	0xbdb700a2	-0.089356676
135	0x3bf57aaf	0.0074914317
136	0x3c4be94a	0.012445757
137	0xbd3b35e0	-0.045705676
138	0xbd0ae769	-0.033912096
139	0xbd5b4cb2	-0.05353994
140	0x3af6eef2	0.0018839522
141	0x3dc821be	0.09772061
142	0x3d9a1873	0.075241946
143	0xbdb3fd75	-0.087885775
144	0x3d8aaa0f	0.06770717
145	0xbc63a146	-0.013893431
146	0xbbb27f22	-0.0054472843
147	0x3b43f03c	0.002989783
148	0x3d6c633d	0.05771183
149	0xbc258424	-0.010102306
150	0xbe0372ca	-0.12836757
151	0xbe2a92fa	-0.1665763
152	0xbccac84f	-0.024753718
153	0x3c6c398c	0.014418017
154	0xbcf1bff2	-0.029510472
155	0x3e067db6	0.13133892
156	0x3d347eb1	0.044066135
157	0xbd8338da	-0.06407328
158	0x3e34d607	0.1765977
159	0xbc815f11	-0.015792402
160	0xbd886783	-0.06660368
161	0x3cb32b52	0.021871243
162	0x3d9707fb	0.07374569
163	0xbd7aadc4	-0.061200872
164	0x3bcddc89	0.0062823934
165	0xbd16f565	-0.03685512
166	0x3d85be30	0.06530416
167	0x3c3b3506	0.011426216
168	0xbd5e55f9	-0.05428121
169	0xbc81056e	-0.01574966
170	0xbc0c5de7	-0.00856731
171	0x3c862348	0.016374245
172	0x3cb4f856	0.022091072
173	0x3ae7e420	0.0017691888
174	0xbc1b4f84	-0.009479407
175	0xbd4e854f	-0.0504201
176	0xbcbaa599	-0.022784041
177	0x3b467dca	0.0030287378
178	0x3d1ffcce	0.039059453
179	0xbd8d180e	-0.06889354
180	0x3d856343	0.06513073
181	0xbd306091	-0.043060843
182	0x3c3024f3	0.010750997
183	0x3bfbf751	0.0076893945
184	0xbdef1257	-0.1167342
185	0x3d95a007	0.073059134
186	0xbda224ee	-0.079172
187	0xbcd05569	-0.025431352
188	0xba59dd44	-0.0008310864
189	0x3db83496	0.08994405
190	0xbd403249	-0.046922956
191	0xbdc3a0e9	-0.095521756
192	0xbcff3b3e	-0.031156179
193	0xbd1709fa	-0.03687475
194	0xbde8d547	-0.113688044
195	0x3dcfe659	0.10151357
196	0x3dc8074e	0.09767018
197	0xbd14be0f	-0.036314066
198	0x3c3d514c	0.011555027
199	0xbd8f81ce	-0.0700718
200	0x3d4af0b4	0.04954596
201	0x3c1dc30b	0.009629021
202	0x3d5de058	0.05416903
203	0x3d4c5d5a	0.049893714
204	0xbd7a8c0b	-0.06116871
205	0x3dd78ec0	0.10525274
206	0xbcba78cf	-0.022762684
207	0xbd2d10e9	-0.042252455
208	0x3dac93fe	0.08426665
209	0xbc4e474f	-0.0125902435
210	0xbdbf0f81	-0.09329129
211	0xbc87d37a	-0.016580332
212	0xbdb87939	-0.090074964
213	0xbe0a14df	-0.13484524
214	0xbc9a4d44	-0.018835671
215	0xbe1b5ac4	-0.15171343
216	0xbd9ab5b0	-0.075541854
217	0xbd965047	-0.073395304
218	0xbd0321fd	-0.032014836
219	0xbd5fbec3	-0.054625284
220	0x3c0aa48e	0.008462084
221	0x3ca50719	0.020144986
222	0xbc6bd2b8	-0.014393501
223	0xbd56f049	-0.052475248
224	0x3d366b2e	0.04453581
225	0x3c91247b	0.01771759
226	0x3ca6e4f6	0.020372849
227	0xbdc7bed5	-0.09753195
228	0xbc9bc8cc	-0.019016646
229	0xbd1c770a	-0.038199462
230	0x3d665546	0.056233667
231	0x3c78cb16	0.015185138
232	0xbd1d51fc	-0.038408265
233	0xbcce4667	-0.025180055
234	0x3d1fdefe	0.03903102
235	0xbd53a956	-0.051675163
236	0x3c03c7a8	0.008043207
237	0xbd0cab49	-0.034343038
238	0xbd89bbb9	-0.067252584
239	0xbc8203ee	-0.015871014
240	0x3ce85b79	0.02836393
241	0xbd2bda5d	-0.041956294
242	0x3cea46bf	0.028598187
243	0xbdd118f5	-0.10209838
244	0x3cce0125	0.02514703
245	0x3d0893ac	0.033343956
246	0x3ca08018	0.01959233
247	0xbd81de53	-0.06341233
248	0x3d13e372	0.03610558
249	0x3cb70c9c	0.02234488
250	0x3da2298b	0.0791808
251	0x3cfe899a	0.031071473
252	0x3b822e05	0.003972771
253	0x3cb6fe1e	0.02233797
254	0xbd5a7b32	-0.053340144
255	0x3d1be661	0.038061503

q1_layer3.bias f4 [128]
0	0xbb336ab4	-0.0027376832
1	0xbb8293e9	-0.0039849174
2	0x3bdfc9af	0.0068294625
3	0x39080e70	0.00012975349
4	0xbbc89f0e	-0.0061224764
5	0x3b080f51	0.0020761082
6	0xbbb5006c	-0.005523732
7	0xbbbd4a7c	-0.0057767015
8	0xbb97c4a4	-0.0046315957
9	0xbadaffa5	-0.0016708268
10	0xbb63c5e8	-0.0034755412
11	0x3b75d061	0.0037508237
12	0x3bc6a7f0	0.0060625
13	0xbb6e3904	-0.0036349902
14	0xbbbe6149	-0.005809937
15	0xbb57dfc6	-0.0032939776
16	0xbba6a7b1	-0.0050859083
17	0x3ba03a42	0.0048897574
18	0x394c339e	0.00019474185
19	0x3b2e3851	0.002658386
20	0xba2e4c90	-0.0006648982
21	0xbbb7abba	-0.005605188
22	0xbb98f4ae	-0.00466784
23	0xba3dd48a	-0.00072414486
24	0xbbaa69f3	-0.0052006184
25	0x3b59f2e9	0.0033256358
26	0x3bd9ebdc	0.006650431
27	0x3bd70940	0.006562382
28	0x3ba88a1a	0.005143416
29	0xba46f3c7	-0.0007589426
30	0x3b534150	0.0032234974
31	0xbb9ac317	-0.0047229636
32	0xbbaccade	-0.005273207
33	0xbb4da618	-0.0031379517
34	0xbace2b48	-0.0015729452
35	0x3bc29d86	0.0059391884
36	0xbb9e6d80	-0.0048348308
37	0xbb8706ad	-0.004120669
38	0xbb8cc703	-0.004296185
39	0xbb2ef5f6	-0.0026696897
40	0x3bb8c05a	0.0056381645
41	0x3b9172bc	0.004438726
42	0x3bc324d7	0.0059553194
43	0xbba397c8	-0.004992459
44	0x3b804cf0	0.0039154217
45	0x3bc6738e	0.0060562557
46	0x3b502baa	0.0031764307
47	0xb9b4b9d1	-0.0003447072
48	0xbb9c5bdc	-0.0047716927
49	0xbb8dbb76	-0.0043253256
50	0x3c0b8155	0.008514722
51	0x3ad8bc0a	0.0016535532
52	0x3bed8f90	0.00724978
53	0x3bdbc2da	0.0067065777
54	0xbbbaef15	-0.0057047703
55	0xbbb9de61	-0.0056722616
56	0x3bae7109	0.0053235334
57	0xbba74c9e	-0.005105569
58	0xbb8e58e1	-0.0043440913
59	0x3b84c175	0.004051382
60	0xbb988d85	-0.0046555423
61	0xbb680279	-0.0035401864
62	0xbb920f43	-0.0044573857
63	0xba95f600	-0.0011441112
64	0xbbb8499c	-0.0056240093
65	0x3af20589	0.0018464784
66	0x3aad1f65	0.0013208209
67	0xbb94e67b	-0.004544077
68	0xbb91e579	-0.004452404
69	0xbbbd513d	-0.0057775066
70	0x3b94cf6c	0.004541328
71	0x398d2fd0	0.0002692924
72	0xbb05c52a	-0.0020411708
73	0xbb876be3	-0.004132734
74	0xbbb6074d	-0.0055550695
75	0xba3d8d65	-0.0007230847
76	0xbbb8480e	-0.005623824
77	0x3abcc2e2	0.0014401341
78	0x3c074e9b	0.008258487
79	0xb912fe07	-0.00014018278
80	0xba288cca	-0.00064296706
81	0xbbaef8c9	-0.005339716
82	0xb88ac46f	-6.6169414e-05
83	0xbbad1595	-0.005282114
84	0xbb2474be	-0.0025093998
85	0x3b1ffe15	0.002441292
86	0xbbb13d1e	-0.005408897
87	0x3b8f8412	0.0043797577
88	0x3bf7d54f	0.00756327
89	0x3b82f17b	0.003996072
90	0xbb89409b	-0.00418861
91	0x3b9d6352	0.0048030997
92	0xbb9e006c	-0.0048218276
93	0x3ac28c3f	0.0014842822
94	0xbafe19e3	-0.0019386377
95	0x3b12db00	0.0022408366
96	0x3be0a379	0.006855425
97	0x3b9ee595	0.0048491457
98	0x396bce21	0.00022488135
99	0x3bc13fca	0.005897497
100	0xbbb431d5	-0.0054991045
101	0xbb8e0ecd	-0.0043352605
102	0x3b991501	0.0046716933
103	0x3bd91fbf	0.006626099
104	0xbb8840c2	-0.0041581104
105	0xbb8c6a0a	-0.004285102
106	0xbbcd7088	-0.0062695183
107	0xbaf01b27	-0.0018318639
108	0xbb52ed6f	-0.0032184978
109	0x3bd3147e	0.006441652
110	0xbb924e80	-0.0044649243
111	0x3b38583c	0.0028128764
112	0x3adf448d	0.001703398
113	0xbb6b471a	-0.0035900534
114	0x3bb19c78	0.005420264
115	0xbbbc926a	-0.0057547586
116	0xba305dfb	-0.00067278714
117	0xbba41203	-0.00500703
118	0x39e0fbc8	0.000429122
119	0xbbb837bb	-0.005621878
120	0xbb0d065a	-0.0021518678
121	0xbac8a921	-0.0015309193
122	0x3ad633e9	0.0016342375
123	0x3b2f936c	0.002679075
124	0x3bb09711	0.0053891023
125	0x3b98a892	0.004658767
126	0xbbb32a77	-0.0054677087
127	0x3bd20ebe	0.006410449

q1_layer4.weight f4 [1, 128]
0	0x3ddd68a0	0.10810971
1	0x3debd4b2	0.11515178
2	0xbdb1e67f	-0.08686542
3	0x3da99195	0.08279721
4	0x3da157ee	0.078780994
5	0xbdc94002	-0.09826662
6	0x3d31bbb7	0.04339191
7	0x3d9d0e7f	0.076687805
8	0x3d166d01	0.036725048
9	0xbcbcea67	-0.02306099
10	0x3d9c738f	0.076392286
11	0xbd77f036	-0.060531817
12	0xbddabb4c	-0.10680255
13	0x3e199421	0.14997913
14	0xbb550268	-0.0032502655
15	0xbcd909b0	-0.026493877
16	0xbc52c7be	-0.012865005
17	0xbd9b6eec	-0.07589516
18	0xbd4d168f	-0.05007034
19	0xbe4e4028	-0.20141661
20	0x3d9916a0	0.074750185
21	0x3bf61ed8	0.007511001
22	0x3e4b2705	0.19839104
23	0xbcc2c18e	-0.023773935
24	0x3b6ca891	0.0036111216
25	0xbdfd3b9b	-0.123648845
26	0xbe0039b5	-0.12522013
27	0xbe5a48a3	-0.21316771
28	0xbd8459b6	-0.064624235
29	0xbcef6fec	-0.029228173
30	0xbd511d46	-0.051053308
31	0x3d18863a	0.037237383
32	0x3dd30b81	0.103049286
33	0x3befb826	0.0073156534
34	0xbc875df0	-0.016524285
35	0xbd94d0c8	-0.07266384
36	0xbbf1cec0	-0.007379383
37	0x3ddd4e46	0.10805945
38	0x3ceaad9b	0.028647235
39	0x3d378051	0.044800106
40	0xbdd91707	-0.10600095
41	0xbd60809f	-0.054810163
42	0xbdb0b3ea	-0.08628066
43	0xbce68fd4	-0.028144754
44	0xbdbd8416	-0.09253709
45	0xbdb27490	-0.08713639
46	0xbd0f2caf	-0.034954723
47	0x3df33e75	0.11877147
48	0x3d6327e8	0.05545798
49	0x3e1a06df	0.15041684
50	0xbd9e09b0	-0.077166915
51	0x3c2b0e56	0.01044043
52	0xbded2fda	-0.115813926
53	0xbe5cc916	-0.21561083
54	0x3d319cdc	0.043362483
55	0xbc8a7dc4	-0.016905673
56	0xbdbd8036	-0.0925297
57	0x3dcf6772	0.101271525
58	0xbd122bfb	-0.035686474
59	0xbd67dfb1	-0.056609813
60	0xbc6d2407	-0.014473922
61	0x3e0ccd60	0.1375022
62	0x3cb8870c	0.022525333
63	0xbd0a2d7c	-0.033734784
64	0xbc8fadcc	-0.017538927
65	0xbdc28b34	-0.09499207
66	0xbd6beee6	-0.05760088
67	0x3d219f3a	0.03945849
68	0x3d903432	0.070412055
69	0x3e0a67c4	0.13516146
70	0xbddf7c1c	-0.10912344
71	0xbd2a15fd	-0.041524876
72	0xbb8da3b8	-0.0043224953
73	0x3dd1d715	0.10246102
74	0x3cd4e62d	0.025988663
75	0xbd2ecca0	-0.042675614
76	0x3e1ddaea	0.1541554
77	0xbd0dbb87	-0.034602668
78	0xbdb0ff04	-0.0864239
79	0xbd0d99ea	-0.034570612
80	0x3d081353	0.033221554
81	0x3cb0d760	0.021587074
82	0x3c0dac87	0.008647091
83	0x3e150a14	0.14554626
84	0x3da14527	0.07874518
85	0xbe42de2b	-0.19030063
86	0x3bdfef32	0.006833934
87	0xbdca3a77	-0.098744325
88	0xbda1d4eb	-0.07901939
89	0xbd80258a	-0.0625716
90	0x3ca5dde6	0.020247411
91	0xbd36f34d	-0.044665623
92	0x3dfbcb66	0.122946545
93	0xbd3f0310	-0.04663378
94	0xbc985206	-0.0185938
95	0xbd675598	-0.056478113
96	0xbe3f4207	-0.18677531
97	0xbdc29e8b	-0.09502896
98	0xbd8b93be	-0.06815289
99	0xbe22020b	-0.15821092
100	0xbbc201c1	-0.0059206192
101	0x3d97d1ac	0.074130386
102	0xbda9615e	-0.082705244
103	0xbe2b554b	-0.16731755
104	0x3d7af386	0.0612674
105	0x3d013a90	0.03154999
106	0x3caabde8	0.020842507
107	0x3dc68c66	0.096947476
108	0xbc82807a	-0.015930403
109	0xbdd5cae3	-0.10439088
110	0x3d7a3029	0.061081085
111	0xbd5a4e2e	-0.053297214
112	0xbd73a324	-0.059481755
113	0x3d38d184	0.045121685
114	0xbdfb60a8	-0.12274295
115	0x3d082fec	0.033248827
116	0x3cb56751	0.022143992
117	0x3e091e7f	0.1339054
118	0xbdb7a49f	-0.08966946
119	0x3d225203	0.039628994
120	0x3e4034d3	0.18770151
121	0x3db0b2e8	0.08627874
122	0xbdad23c4	-0.084540874
123	0xbdcc7713	-0.09983649
124	0xbe0f798a	-0.14011207
125	0xbd9ba541	-0.07599879
126	0x3d978e6b	0.07400211
127	0xbdf91fba	-0.121642545

q1_layer_norm1.weight f4 [256]
0	0x3f81100b	1.0083021
1	0x3f803e9e	1.0019109
2	0x3f804c3a	1.0023263
3	0x3f80abfa	1.0052483
4	0x3f7fbe73	0.9989998
5	0x3f808c32	1.0042784
6	0x3f803f4f	1.001932
7	0x3f7f87e8	0.9981675
8	0x3f81136d	1.0084053
9	0x3f8086cc	1.0041137
10	0x3f7f92bc	0.99833274
11	0x3f7fd218	0.9992995
12	0x3f7f49b5	0.99721843
13	0x3f7e79fb	0.9940488
14	0x3f7e43cd	0.99322206
15	0x3f7efa3e	0.9960059
16	0x3f7fa0ca	0.9985472
17	0x3f80a5ec	1.0050635
18	0x3f800756	1.0002239
19	0x3f812a05	1.0090948
20	0x3f80cf1d	1.0063206
21	0x3f806f37	1.003394
22	0x3f7fb2d3	0.9988224
23	0x3f7f36c2	0.9969293
24	0x3f7e95fa	0.99447596
25	0x3f804a8d	1.0022751
26	0x3f7e7bc2	0.9940759
27	0x3f7dcfa0	0.99144936
28	0x3f80041a	1.0001252
29	0x3f7e55ec	0.99349856
30	0x3f801db4	1.0009065
31	0x3f7f2a5b	0.99674004
32	0x3f80c0de	1.0058858
33	0x3f7f764d	0.9978989
34	0x3f809a4f	1.0047091
35	0x3f7ff0de	0.9997691
36	0x3f7f748e	0.99787223
37	0x3f7e81fd	0.99417096
38	0x3f809abd	1.0047222
39	0x3f8020de	1.001003
40	0x3f7f07ba	0.99621165
41	0x3f7f1b34	0.99650884
42	0x3f7e67c6	0.99377096
43	0x3f80ddd6	1.0067699
44	0x3f7fc115	0.99903995
45	0x3f7f39cd	0.9969757
46	0x3f8073a7	1.0035294
47	0x3f7ea11c	0.99464583
48	0x3f81047b	1.0079492
49	0x3f7e64e9	0.99372727
50	0x3f7fcab2	0.99918664
51	0x3f802dcc	1.0013976
52	0x3f806bae	1.0032861
53	0x3f803d4f	1.001871
54	0x3f80e8fd	1.0071102
55	0x3f7fafc9	0.998776
56	0x3f7eeebb	0.99583024
57	0x3f7fdffd	0.99951154
58	0x3f80b827	1.0056199
59	0x3f80f744	1.007546
60	0x3f80836d	1.0040108
61	0x3f7fa173	0.99855727
62	0x3f7edd95	0.9955686
63	0x3f8043d1	1.0020696
64	0x3f7f03f8	0.9961543
65	0x3f8043dd	1.002071
66	0x3f7f9aba	0.9984547
67	0x3f80e72d	1.0070549
68	0x3f803b49	1.0018092
69	0x3f7f9c9a	0.9984833
70	0x3f7f6973	0.9977028
71	0x3f80d60b	1.0065321
72	0x3f7eae0a	0.9948431
73	0x3f80ba6f	1.0056895
74	0x3f8055e1	1.0026208
75	0x3f801a4d	1.0008026
76	0x3f80d837	1.0065984
77	0x3f7eb6ac	0.99497485
78	0x3f7f2f88	0.996819
79	0x3f803a1e	1.0017736
80	0x3f803324	1.0015607
81	0x3f808299	1.0039855
82	0x3f801e81	1.0009309
83	0x3f80a388	1.0049906
84	0x3f7eee63	0.995825
85	0x3f811408	1.0084238
86	0x3f7fd855	0.9993947
87	0x3f80e7fb	1.0070795
88	0x3f808d95	1.0043207
89	0x3f7e3704	0.993027
90	0x3f805945	1.0027243
91	0x3f80d2f2	1.0064375
92	0x3f807216	1.0034816
93	0x3f806d38	1.0033331
94	0x3f7ea817	0.99475235
95	0x3f7fd3fb	0.9993283
96	0x3f7f5822	0.99743855
97	0x3f7ec81d	0.995241
98	0x3f7eb401	0.99493414
99	0x3f7ff217	0.99978775
100	0x3f7efd06	0.99604833
101	0x3f7f935a	0.99834216
102	0x3f80a2aa	1.0049641
103	0x3f809204	1.004456
104	0x3f7f701e	0.9978045
105	0x3f7ea541	0.9947091
106	0x3f802834	1.0012269
107	0x3f80d9e2	1.0066493
108	0x3f80ed4e	1.007242
109	0x3f7e1629	0.99252564
110	0x3f802157	1.0010175
111	0x3f808798	1.004138
112	0x3f7ee0d4	0.9956181
113	0x3f7ecdcc	0.9953277
114	0x3f803dd3	1.0018867
115	0x3f7f2ade	0.99674785
116	0x3f7f2c0e	0.996766
117	0x3f800c51	1.0003759
118	0x3f802aed	1.00131
119	0x3f7d9f8b	0.9907157
120	0x3f8019e7	1.0007905
121	0x3f7feae8	0.99967813
122	0x3f805cd6	1.0028331
123	0x3f7e02e6	0.9922317
124	0x3f7f75bb	0.9978902
125	0x3f8031b6	1.001517
126	0x3f7f43e0	0.99712944
127	0x3f7f62b7	0.9976
128	0x3f807adf	1.0037497
129	0x3f8025a1	1.0011483
130	0x3f803ede	1.0019186
131	0x3f805893	1.0027031
132	0x3f7f0c65	0.9962829
133	0x3f802407	1.0010995
134	0x3f804516	1.0021083
135	0x3f7ff6d4	0.99986005
136	0x3f7ef7c7	0.9959683
137	0x3f7fc414	0.99908566
138	0x3f800cd5	1.0003916
139	0x3f7fb896	0.9989103
140	0x3f80e20f	1.0068988
141	0x3f806dc7	1.0033501
142	0x3f80efd4	1.007319
143	0x3f8062ee	1.0030191
144	0x3f7f6c84	0.99774957
145	0x3f80359d	1.0016361
146	0x3f802c7f	1.0013579
147	0x3f80798d	1.0037094
148	0x3f7f6be4	0.99774003
149	0x3f7f6e58	0.99777746
150	0x3f7f99a8	0.99843836
151	0x3f7ed124	0.99537873
152	0x3f807642	1.003609
153	0x3f7ea2cb	0.9946715
154	0x3f80990c	1.0046706
155	0x3f803c06	1.0018318
156	0x3f807889	1.0036784
157	0x3f7ed899	0.9954925
158	0x3f7f1a62	0.9964963
159	0x3f7e8b1d	0.9943102
160	0x3f804e0a	1.0023816
161	0x3f80fa8f	1.0076464
162	0x3f804186	1.0019996
163	0x3f807d68	1.0038271
164	0x3f80bd9e	1.0057867
165	0x3f805f12	1.0029013
166	0x3f7ff097	0.99976486
167	0x3f7fe244	0.9995463
168	0x3f80ee5f	1.0072745
169	0x3f7ed509	0.99543816
170	0x3f7fbe9a	0.9990021
171	0x3f804efa	1.0024102
172	0x3f802452	1.0011084
173	0x3f808ed2	1.0043585
174	0x3f802a7e	1.0012968
175	0x3f802b5c	1.0013232
176	0x3f807046	1.0034263
177	0x3f802999	1.0012695
178	0x3f804233	1.0020202
179	0x3f80e20d	1.0068985
180	0x3f7fb982	0.9989244
181	0x3f806045	1.0029379
182	0x3f7efacb	0.9960143
183	0x3f7f9ca3	0.99848384
184	0x3f8066ae	1.0031335
185	0x3f7eba87	0.9950337
186	0x3f7f392a	0.996966
187	0x3f7e69cb	0.9938018
188	0x3f803972	1.0017531
189	0x3f7f175c	0.9964502
190	0x3f7eb560	0.99495506
191	0x3f8017a2	1.0007212
192	0x3f7eaf49	0.99486214
193	0x3f7ef102	0.995865
194	0x3f7f00b3	0.9961044
195	0x3f8051c8	1.0024958
196	0x3f7ff69c	0.9998567
197	0x3f80557f	1.0026091
198	0x3f80658d	1.0030991
199	0x3f7f52db	0.997358
200	0x3f7f7c3e	0.99798954
201	0x3f7eec9e	0.995798
202	0x3f7eea8d	0.99576646
203	0x3f7ee085	0.9956134
204	0x3f7f3a89	0.9969869
205	0x3f8075f4	1.0035996
206	0x3f8052cb	1.0025266
207	0x3f7f7b0b	0.99797124
208	0x3f7edae8	0.99552774
209	0x3f806584	1.003098
210	0x3f80c304	1.0059514
211	0x3f80ab12	1.0052207
212	0x3f7e919f	0.9944095
213	0x3f80249d	1.0011173
214	0x3f7eb72c	0.9949825
215	0x3f805474	1.0025773
216	0x3f7eda37	0.9955172
217	0x3f7e7600	0.99398804
218	0x3f80d26d	1.0064217
219	0x3f7f3118	0.99684286
220	0x3f7f7387	0.99785656
221	0x3f80baee	1.0057046
222	0x3f7f4e6f	0.99729055
223	0x3f7ed9f6	0.9955133
224	0x3f80042c	1.0001273
225	0x3f7efb50	0.9960222
226	0x3f800bbd	1.0003582
227	0x3f7eb65d	0.99497014
228	0x3f807d81	1.0038301
229	0x3f802b8f	1.0013293
230	0x3f805739	1.0026618
231	0x3f7e73af	0.9939527
232	0x3f805d0b	1.0028394
233	0x3f803cb1	1.0018522
234	0x3f80061e	1.0001867
235	0x3f8024ae	1.0011194
236	0x3f8008a3	1.0002636
237	0x3f803938	1.0017462
238	0x3f806907	1.0032052
239	0x3f80021d	1.0000645
240	0x3f7ee713	0.9957134
241	0x3f7f7226	0.9978355
242	0x3f7f374e	0.99693763
243	0x3f7f5fb0	0.9975538
244	0x3f7ee947	0.995747
245	0x3f808750	1.0041294
246	0x3f7f3f2a	0.99705756
247	0x3f7fe8bc	0.999645
248	0x3f80d05c	1.0063586
249	0x3f7e9f36	0.99461687
250	0x3f7e4761	0.99327666
251	0x3f80c13d	1.0058972
252	0x3f7fc451	0.9990893
253	0x3f8000ea	1.0000279
254	0x3f803797	1.0016965
255	0x3f7e553b	0.993488
