rl_energy_manager_20250326_0759/models/best_reward_model/actor.pth (torch, 117576 bytes, 14 tensors)

layer1.weight f4 [128, 18]
0	0x3d8f6b59	0.07002897
1	0xbd864372	-0.06555833
2	0x3d801d1e	0.06255554
3	0xbdb63e43	-0.08898594
4	0x3daa0fd5	0.08303801
5	0xbd3608bb	-0.04444192
6	0x3dad3d5d	0.0845897
7	0xbb27c6f9	-0.0025600775
8	0x3dc11122	0.09427096
9	0x3d85b344	0.06528333
10	0xbd4e9202	-0.050432213
11	0xba10233d	-0.0005498415
12	0xbdf5cbb3	-0.12001743
13	0xbd3409c4	-0.043954626
14	0xbc89f874	-0.016842104
15	0x3df2aaea	0.118490055
16	0xbd0742a3	-0.033022534
17	0xbdc013e6	-0.09378795
18	0xbd0b6138	-0.034028262
19	0x3dad372e	0.0845779
20	0x3cf6707b	0.030082932
21	0xbd1e206b	-0.038605135
22	0x3e01abd5	0.12663205
23	0x3ad2d6e4	0.0016085771
24	0xbc35ec0c	-0.011103641
25	0x3b49340e	0.0030701193
26	0xbdacec7f	-0.084435456
27	0xbbd2260d	-0.0064132274
28	0x3d459b1c	0.048243627
29	0x3d1ad720	0.037802815
30	0x3ca55fbf	0.020187257
31	0x3d31b615	0.043386538
32	0xbdc48e28	-0.09597427
33	0xbc78f5ec	-0.015195351
34	0x3d2af083	0.041733276
35	0x3bdacfb2	0.0066775912
36	0xbc2f5db7	-0.010703496
37	0x3dce14c9	0.10062558
38	0x3d9506eb	0.0727671
39	0x3dd3aa78	0.10335249
40	0xbce413da	-0.027841497
41	0x3cb23f6d	0.02175876
42	0xbe13face	-0.14451143
43	0x3daf3ebf	0.0855689
44	0x3cbc6d6b	0.023001393
45	0x3d50af4b	0.050948422
46	0x3ddf66c9	0.109082766
47	0xbc1fa2a5	-0.009743367
48	0xbdde06c3	-0.108411334
49	0x3b9c2d38	0.0047661327
50	0xbb1085ec	-0.002205248
51	0x3deff9b8	0.11717552
52	0x3d27b055	0.040939648
53	0xbcf598e6	-0.029980134
54	0xbc92d60a	-0.017924327
55	0x3d06801a	0.03283701
56	0xbd684429	-0.056705628
57	0x3dcaadde	0.09896444
58	0xbc82800e	-0.015930202
59	0x3db0a0e3	0.08624437
60	0xba8be1f8	-0.0010672202
61	0xbd9b01f7	-0.07568734
62	0x3d832d3a	0.06405111
63	0xbdd2ebe8	-0.10298902
64	0xbdac4317	-0.08411234
65	0xbdaad30d	-0.08341036
66	0x3e0c9560	0.13728857
67	0xbdc9c19a	-0.0985138
68	0xbd12e50d	-0.03586297
69	0x3da0acd8	0.07845467
70	0x3daaee38	0.08346218
71	0x3e394afd	0.18095012
72	0xbda53fe1	-0.080688246
73	0x3d002bb6	0.031291686
74	0x3e3c3772	0.18380526
75	0xbe5fd077	-0.21856867
76	0xbc17a438	-0.009255461
77	0xbd6d071f	-0.05786812
78	0xbe2cb007	-0.16864024
79	0xbd559829	-0.052147064
80	0x3ca8e074	0.02061484
81	0xbe375c7a	-0.17906371
82	0x3cf7f459	0.030267881
83	0x3d9fa668	0.07795411
84	0x3d4e326a	0.050341047
85	0xbe2a4f34	-0.16631776
86	0x3c38b306	0.011273151
87	0xbe1c7a1a	-0.15280953
88	0xbe0768dd	-0.13223596
89	0x3d73932f	0.059466537
90	0x3d8eea0f	0.06978237
91	0xbdaece88	-0.085354865
92	0xbdb4ccdf	-0.088281386
93	0xbde09e91	-0.10967744
94	0xbd01ff7b	-0.031737786
95	0xbd9d6850	-0.07685912
96	0x3cdec456	0.02719323
97	0x3d6bc70a	0.057562865
98	0x3e116f99	0.14202727
99	0x3e85809a	0.26074678
100	0xbd9c5453	-0.07633271
101	0xbdc8375c	-0.09776184
102	0x3dcb899f	0.099383585
103	0xbd3e68d9	-0.04648671
104	0x3def301a	0.116790965
105	0xbd33b694	-0.043875292
106	0xbdf22ba6	-0.118247315
107	0xbd63cf5d	-0.05561768
108	0x3a85a338	0.0010195738
109	0x3e07a653	0.13247041
110	0x3e1e34df	0.15449856
111	0x3ceed951	0.029156359
112	0x3ddd161b	0.10795232
113	0xbd2bfd3e	-0.041989557
114	0x3def6792	0.11689676
115	0xbd329108	-0.043595344
116	0x3e06ab8f	0.13151382
117	0x3e14a9d1	0.14517905
118	0xbc86cee7	-0.01645608
119	0xbd59a305	-0.053133983
120	0xbc4a740e	-0.012356771
121	0x3c4d0ba2	0.0125149805
122	0x3df7562d	0.120769836
123	0xbd288934	-0.041146472
124	0x3e0ec77d	0.13943286
125	0x3c8f084f	0.017460017
126	0xbd80246d	-0.06256948
127	0x3d4fec33	0.050762367
128	0xbe15cb6b	-0.14628379
129	0x3d6bf436	0.057605945
130	0xbe21d939	-0.1580552
131	0x3da2e914	0.079546124
132	0xbe409552	-0.18806961
133	0x3e1b36df	0.1515765
134	0xbdcd4335	-0.10022584
135	0x3e6ede65	0.23327024
136	0x3df49fc2	0.11944534
137	0xbe1b5ac2	-0.1517134
138	0xbd2f23c2	-0.04275871
139	0xbcf28829	-0.029605942
140	0xbd532e9b	-0.05155812
141	0xbd8264b5	-0.063668646
142	0x3b038d60	0.002007328
143	0xbd8e121a	-0.06937046
144	0xbd4a839c	-0.04944192
145	0x3b9d2298	0.0047953837
146	0x3cc21cb8	0.023695335
147	0xbd071c13	-0.032985758
148	0x3d2b3032	0.04179401
149	0xbd8bff20	-0.068357706
150	0xbde6ef66	-0.112761304
151	0x3d0c5c0d	0.034267474
152	0x3d56374a	0.05229882
153	0x3c96f67a	0.018428076
154	0xbc68dfd3	-0.01421352
155	0x3e13ce0a	0.14434066
156	0x3d8f9226	0.070102975
157	0xbbb3a1c1	-0.005481929
158	0xbd4fa59b	-0.050695043
159	0xbcad175d	-0.021129305
160	0x3cbf8e02	0.023383144
161	0x3d9601c0	0.073245525
162	0xbcc92445	-0.024553427
163	0xbd0cbda6	-0.03436055
164	0x3de09b98	0.10967177
165	0x3bd75411	0.006571301
166	0xbd1cd456	-0.038288437
167	0x3de889c7	0.11354404
168	0xbdbe7671	-0.09299935
169	0x3c72019e	0.014770893
170	0x3ddae538	0.10688251
171	0x3ccfe25d	0.025376493
172	0x3cef1414	0.029184379
173	0x3e82d4bc	0.25552928
174	0x3adef5b5	0.0017010482
175	0xbb648e1a	-0.0034874738
176	0x3d7ffce9	0.062497053
177	0x3dd921c9	0.10602147
178	0xbc3dc345	-0.0115822
179	0xbda1115a	-0.07864638
180	0xbdaf6774	-0.08564654
181	0xbde9e7d5	-0.114211716
182	0x3e27664c	0.16347617
183	0xbe00532f	-0.12531732
184	0xbda923c1	-0.08258773
185	0x3ce34e48	0.027747288
186	0xbe02f7b0	-0.12789798
187	0xbc48c518	-0.012254022
188	0x3d5c35a3	0.05376209
189	0xbe181866	-0.14853057
190	0xbd47198c	-0.048608348
191	0xbc5f05ed	-0.013612253
192	0xbe0e1282	-0.13874248
193	0xbdd67e12	-0.10473265
194	0xbdc01e87	-0.09380823
195	0xbdaf194e	-0.08549748
196	0x3d43177f	0.04762983
197	0xbd9fd725	-0.078047074
198	0x3de25b0f	0.11052524
199	0xbdbec357	-0.09314602
200	0x3c0fe329	0.008782187
201	0x3c937125	0.017998287
202	0xbd2e104b	-0.042496007
203	0xbe0cead3	-0.13761453
204	0xbe476742	-0.19472983
205	0xbe47a5d0	-0.19496846
206	0xbb477f58	-0.0030440893
207	0x3cfc7934	0.030819513
208	0xbd01aace	-0.031657033
209	0x3d9197ad	0.07109008
210	0x3c5fffc3	0.013671818
211	0x3cca7680	0.024714708
212	0x3d055710	0.032553732
213	0xbcb4a116	-0.022049468
214	0x3bcc9611	0.0062434752
215	0xbdf59001	-0.11990357
216	0xbe0850ad	-0.13312025
217	0xbd894375	-0.067023195
218	0xbd0f3c5e	-0.03496968
219	0xbc1702c2	-0.009216966
220	0x3ddb7495	0.10715596
221	0xbd52c8cf	-0.051461037
222	0xbd063f83	-0.032775413
223	0x3dd52cb1	0.10408915
224	0xbc8092f8	-0.01569508
225	0xbcff5464	-0.03116817
226	0x3d64ae66	0.05583038
227	0xbc6c0281	-0.014404894
228	0xbdd0bd47	-0.10192352
229	0xbe2c9cb7	-0.16856657
230	0xbde03c27	-0.10948973
231	0xba19e454	-0.00058705104
232	0x3b9baea4	0.0047510434
233	0x3e1f59f0	0.15561652
234	0x3d761f8b	0.060088675
235	0xbdadbc05	-0.084831275
236	0x3cbedf11	0.023299726
237	0x3dddbcc7	0.10827022
238	0xbd9750b9	-0.073884435
239	0x3d8151cd	0.063144304
240	0xbdc36a7c	-0.09541795
241	0x3e0f3679	0.13985623
242	0xba5ecc4e	-0.00084990717
243	0x3e051b52	0.12998703
244	0xbd1943e9	-0.03741828
245	0x3d96be93	0.07360568
246	0x3dfbd5e8	0.12296659
247	0x3cdcbbd9	0.026945041
248	0x39df51fc	0.00042594958
249	0xbd75f412	-0.060047217
250	0xbaef5734	-0.0018260241
251	0x3e5fb9a3	0.21848159
252	0x3e067326	0.13129863
253	0x3de79749	0.11308152
254	0xbe13380e	-0.14376852
255	0xbe34a8c1	-0.176425

layer1.bias f4 [128]
0	0x3be64eb8	0.007028427
1	0xbb5357ba	-0.0032248334
2	0x3b5e5ead	0.0033930943
3	0xbba61dd9	-0.005069476
4	0xbc2c218f	-0.010506048
5	0xbb8c1e25	-0.0042760544
6	0x3abd00d3	0.0014419801
7	0xbabee670	-0.0014564525
8	0x3b965483	0.0045877113
9	0x3b39fdd1	0.0028380046
10	0xbc39ad61	-0.011332841
11	0xbbdda261	-0.006763742
12	0xbb3a5cf5	-0.0028436754
13	0x3bfdee38	0.007749345
14	0x3c0a8710	0.008455053
15	0x3c2423b9	0.010018283
16	0x3b607c1b	0.003425366
17	0x3c20b410	0.009808555
18	0xbba89d5d	-0.0051457123
19	0x3a9e0bc8	0.0012057954
20	0xbbe2eb42	-0.0069250176
21	0xbc2a9b25	-0.010412966
22	0xbb94a908	-0.0045367517
23	0xbb74eedb	-0.0037373814
24	0x3b75f1a5	0.0037528065
25	0x3ac494c7	0.0014997952
26	0xb97b682c	-0.00023976032
27	0x3be928e5	0.0071154707
28	0x3c0b6cee	0.008509858
29	0xbadacf8d	-0.0016693935
30	0xbbcad000	-0.0061893463
31	0xbb5b9633	-0.0033506274
32	0xbc001f01	-0.007819892
33	0xbaf19027	-0.0018429802
34	0xbba3d06b	-0.0049992106
35	0x3bcf021b	0.0063173897
36	0xbc28d6c2	-0.0103051085
37	0x3b85593c	0.0040694755
38	0xbbdc1130	-0.006715916
39	0xbc07e86e	-0.008295162
40	0xbadcc970	-0.0016844701
41	0xbae0588d	-0.0017116234
42	0x3b476c3b	0.00304295
43	0x3b451a7b	0.0030075598
44	0xbbacd103	-0.0052739396
45	0x3b71a061	0.0036869275
46	0xbac4d672	-0.0015017523
47	0xbaa9f680	-0.001296714
48	0xbb9cdfd4	-0.0047874246
49	0x3b381566	0.0028088926
50	0x3abbe5c1	0.001433544
51	0x3c0b77c2	0.008512439
52	0x3b6669f8	0.0035158377
53	0xb9c75840	-0.0003802199
54	0x3bb15365	0.0054115527
55	0xbc267d0b	-0.0101616485
56	0x3b31d34f	0.0027134006
57	0x3a18ee48	0.00058338465
58	0xbad94702	-0.0016576948
59	0x3b381bc4	0.0028092721
60	0x3b91b4e4	0.0044466127
61	0xbba04173	-0.0048906147
62	0xbbb37902	-0.0054770717
63	0xbb5de31a	-0.0033857287
64	0xbbbf7ba8	-0.0058435984
65	0xbab89295	-0.0014081771
66	0xbba4a7bb	-0.005024878
67	0xbb7fba30	-0.0039020889
68	0xbc289356	-0.010289034
69	0x39b0e94d	0.0003374316
70	0xbb321013	-0.0027170226
71	0x3ba052fd	0.0048927055
72	0x3c623c10	0.013808265
73	0xbb38d54e	-0.0028203311
74	0x3c2d742f	0.010586782
75	0x3aaa71a8	0.0013003843
76	0x3b9e2cf7	0.0048271376
77	0x3bcd552b	0.0062662563
78	0x366f9158	3.5698376e-06
79	0xba2224cd	-0.00061852933
80	0x3be41d23	0.006961481
81	0xbb497b31	-0.0030743594
82	0x3bcc9261	0.0062430357
83	0xba2c771e	-0.0006579029
84	0x38afc75e	8.381785e-05
85	0x3a34d2c4	0.00068978616
86	0x38a84c02	8.025022e-05
87	0x3b4abc37	0.0030934939
88	0xbc2b96cf	-0.010472967
89	0x3b708e9d	0.0036706098
90	0xbb5a1d37	-0.0033281574
91	0xbad6b606	-0.0016381152
92	0x3baa441d	0.005196108
93	0xbc3a864f	-0.011384561
94	0xbb7d9746	-0.0038694902
95	0xbc293fd1	-0.010330156
96	0xbbd7b8e9	-0.0065833223
97	0xbc2e68f8	-0.010645144
98	0xbc277e33	-0.010222959
99	0xbb880218	-0.00415064
100	0x3b31e92b	0.0027147036
101	0xba93ce9b	-0.0011276783
102	0x3bcd61fe	0.006267785
103	0x3a619855	0.0008605768
104	0x3bb2c255	0.005455295
105	0xbb9850a1	-0.0046482836
106	0x3acc24ca	0.0015574929
107	0xbc22a59e	-0.0099271815
108	0xbbcd4064	-0.0062637795
109	0xbb86aae7	-0.0041097286
110	0x3b250d9e	0.0025185118
111	0x3a2a0890	0.0006486261
112	0xbbf91125	-0.0076009207
113	0xbc17bce6	-0.0092613455
114	0x3aaf28bd	0.0013363581
115	0xbb922eaf	-0.0044611315
116	0xba96ea87	-0.0011513986
117	0xbb0c09ab	-0.0021368067
118	0xbbe31879	-0.0069304076
119	0xbc1fb277	-0.009747139
120	0xbbb06c0b	-0.0053839735
121	0x3a271fe1	0.0006375295
122	0xbb908d9c	-0.0044114124
123	0x3c0cdbe3	0.008597347
124	0xbbe1ae6a	-0.006887247
125	0xbbb9855e	-0.0056616506
126	0xbc144440	-0.009049475
127	0x3a0baef4	0.0005328499

layer2.weight f4 [128, 128]
0	0x3dc79622	0.097454324
1	0x3ca2f51a	0.019892264
2	0x3d99bf17	0.075071506
3	0x3d2ec542	0.04266859
4	0xbe099c08	-0.13438427
5	0xbcc6a17c	-0.024246924
6	0x3dbf8dde	0.09353231
7	0xbe3e9a22	-0.18613485
8	0x3d829d1e	0.06377624
9	0xbce308e5	-0.027714202
10	0x3e27cb14	0.16386062
11	0xbdd659f2	-0.104663745
12	0x3de34474	0.11097041
13	0x3da09f3c	0.078428715
14	0x3dad533c	0.08463141
15	0xbc59dd64	-0.013297413
16	0xbd4e269e	-0.050329797
17	0xbd88bbbe	-0.06676434
18	0xbd17f7db	-0.037101608
19	0xbe0922af	-0.13392137
20	0xbd3e28b9	-0.046425555
21	0x3d5f8384	0.054568782
22	0x3b3edcce	0.002912331
23	0xbd9bd8be	-0.076097
24	0xbceee562	-0.029162113
25	0xbe03e738	-0.12881172
26	0xbb70e2ea	-0.0036756345
27	0xbd5639c5	-0.052301187
28	0xbce65bc7	-0.028119935
29	0x3da69eac	0.08135733
30	0x3d2eb0e9	0.042649183
31	0x3e1a5c65	0.15074308
32	0x3d8bec7f	0.068322174
33	0x3db095b8	0.086223066
34	0xbd01459f	-0.031560536
35	0xbdcc2ab7	-0.09969085
36	0x3da6253f	0.08112573
37	0x3cf338c1	0.029690148
38	0x3caefaf6	0.021359902
39	0x3e021f13	0.12707166
40	0x3ce27631	0.027644249
41	0x3d88b905	0.06675915
42	0xbd64ac10	-0.055828154
43	0x3e08b368	0.13349688
44	0x3d9359d6	0.07194869
45	0x3de240ab	0.11047491
46	0xbd827334	-0.063696295
47	0x3d92623c	0.07147643
48	0xbdb269f9	-0.08711619
49	0x3d59d9a2	0.053186066
50	0x3de7dd76	0.11321537
51	0xbdf8fa9d	-0.12157176
52	0xbe129a69	-0.14316715
53	0x3dd814af	0.1055082
54	0x3cb06a00	0.02153492
55	0xbd083841	-0.033256773
56	0xbd7d113c	-0.061784014
57	0x3e41c1b2	0.18921545
58	0x3da3941c	0.07987234
59	0xbd68dff2	-0.056854196
60	0x3d4bf010	0.04978949
61	0xbd8c9493	-0.06864276
62	0x3e25e4cc	0.1620056
63	0x3d49f260	0.049303412
64	0x3da6a299	0.08136482
65	0xbcc8d71f	-0.02451664
66	0x3e3775db	0.17916052
67	0xbac596b3	-0.0015074819
68	0xbe322e11	-0.17400385
69	0xbc52ed71	-0.012873993
70	0x3c6a6ec0	0.014308631
71	0x3e11e596	0.14247736
72	0xbe04c0af	-0.12964128
73	0x3e1999c0	0.15000057
74	0x3d63f44b	0.055652898
75	0x3e77664e	0.2416012
76	0x3e3263c0	0.17420864
77	0x3e32b419	0.17451514
78	0xbd1f0d1d	-0.038830865
79	0xbe2dabb9	-0.16960038
80	0xbc9b25aa	-0.018938858
81	0x3dc41a24	0.095752984
82	0xbc28104d	-0.010257793
83	0x3db809d8	0.089862525
84	0x3cab97ea	0.020946462
85	0x3d10df8f	0.035369452
86	0xbdd32139	-0.10309071
87	0x3c13fe5c	0.009032812
88	0x3d2c2dcd	0.042035867
89	0xbcb21df8	-0.021742806
90	0xbcf3c550	-0.029757172
91	0xbd991e73	-0.07476511
92	0x3d02327f	0.031786438
93	0x3da37420	0.079811335
94	0xbcec9936	-0.02888165
95	0xbdbdae42	-0.09261753
96	0x3c43e0a2	0.011955412
97	0xbcb9d989	-0.022686737
98	0x3e0eba24	0.13938195
99	0xbb179ed7	-0.0023135447
100	0x3d54e062	0.0519718
101	0x3df88e44	0.1213651
102	0x3c2f9b42	0.010718169
103	0xbd9e7b3e	-0.0773835
104	0xbdb50b13	-0.08840003
105	0xba630c4b	-0.00086611946
106	0x3de39e28	0.1111415
107	0x3cd95623	0.026530331
108	0x3c363c25	0.011122738
109	0xbdc35523	-0.09537723
110	0x3dcdb337	0.10043948
111	0x3d0e2e8a	0.03471235
112	0x3d51db87	0.05123475
113	0xbc1bddde	-0.0095133465
114	0x3da33502	0.07969095
115	0x3df6bf7b	0.12048241
116	0x3de616cb	0.11234816
117	0xbcaacdf2	-0.020850156
118	0xbda1632d	-0.078802444
119	0xbd064c40	-0.03278756
120	0xbd5dad78	-0.05412051
121	0x3d8614bd	0.06546924
122	0xbd77aa08	-0.06046489
123	0xbbe30efc	-0.0069292765
124	0xbcb76145	-0.022385249
125	0xbd06d214	-0.03291519
126	0x3dca0699	0.0986454
127	0x3df5355c	0.11973068
128	0x3e3e06b6	0.18557248
129	0x3cdcdf51	0.026961954
130	0x3d6062dc	0.05478178
131	0xbe472766	-0.19448623
132	0x3de764a9	0.11298496
133	0xbca62c7e	-0.020284887
134	0x3d5d291d	0.053994287
135	0xbcbe2bec	-0.023214303
136	0x3d432efb	0.047652226
137	0x3db600c7	0.08886867
138	0x3cae1242	0.02124894
139	0x3d218bb1	0.03943986
140	0xbd9fc579	-0.07801337
141	0xbe063d09	-0.1310922
142	0x3bcced5d	0.006253882
143	0xbd92f7de	-0.07176183
144	0xbda7af77	-0.08187764
145	0x3defe572	0.11713685
146	0xbca43136	-0.020042997
147	0xbdbc4222	-0.09192301
148	0x3e1b9816	0.15194735
149	0x3e057659	0.13033427
150	0xbc6bbde5	-0.014388536
151	0x3df3d123	0.11905124
152	0x3c339ee2	0.010963174
153	0x3d7faccb	0.062420648
154	0xbb40ef71	-0.0029439593
155	0x3dc886f0	0.09791362
156	0xbdabc4e8	-0.08387166
157	0x3c78a1eb	0.015175323
158	0x3a2c5a75	0.00065747584
159	0xbd88a28d	-0.06671629
160	0x3cef7de4	0.029234834
161	0xbe168e2f	-0.14702676
162	0x3dce3314	0.10068336
163	0xbd15989f	-0.036522504
164	0xbd714f67	-0.058913615
165	0x3da4cec6	0.080472514
166	0x3d8e5f0e	0.06951724
167	0x3d8ae448	0.067818224
168	0xbdce1df0	-0.10064304
169	0xbe5e76eb	-0.21725051
170	0xbdacdcd1	-0.08440555
171	0x3e3380e5	0.17529638
172	0xbc801838	-0.015636548
173	0x3c21bb11	0.00987126
174	0x3bf10895	0.0073557594
175	0x3e32057d	0.17384906
176	0xbd63687a	-0.05551956
177	0x3d5e27b5	0.054237086
178	0x3cbefcdb	0.02331393
179	0xbd55ba06	-0.05217936
180	0x3d18bde8	0.037290484
181	0xbd131d9f	-0.03591692
182	0x3d9349b7	0.07191794
183	0x3e06b959	0.13156642
184	0x3d4878de	0.048943393
185	0x3d9fa674	0.0779542
186	0xbd5ad681	-0.053427223
187	0x3c4f30a5	0.012645875
188	0x3cc27350	0.023736626
189	0xbd06a67b	-0.032873612
190	0x3de98ec4	0.114041835
191	0xbda3f4aa	-0.0800565
192	0xbcff78c6	-0.031185519
193	0x3cd9fa5f	0.026608644
194	0x3e48518f	0.19562362
195	0xbc7ca861	-0.015421004
196	0x3b96f514	0.0046068523
197	0x3d3df76a	0.04637853
198	0xbd525000	-0.051345825
199	0x3cdb835d	0.026796037
200	0x3d6dc25b	0.05804668
201	0x3ddafd61	0.106928594
202	0xbd42dec6	-0.047575735
203	0xbe3c3df7	-0.18383013
204	0xbdbceb68	-0.09224588
205	0x3d8d339a	0.06894608
206	0x3df4cc80	0.11953068
207	0x3df57735	0.119856276
208	0x3b81305a	0.0039425315
209	0x3e23eb5a	0.16007748
210	0xbd4de354	-0.050265625
211	0xbc2cf6b5	-0.010556866
212	0xbe10c5fe	-0.14138028
213	0x3cbd4bbe	0.023107406
214	0x3d5f4146	0.05450561
215	0x3d8c18a2	0.06840636
216	0xbcfec78e	-0.031101014
217	0xbd42d600	-0.047567368
218	0x3de7b814	0.11314407
219	0x3d8058e4	0.062669545
220	0x3dd52c39	0.104088254
221	0x3d97a4ff	0.074045174
222	0x3ab7f5f7	0.0014035095
223	0xbdd2f748	-0.103010714
224	0xbdab39a3	-0.08360603
225	0xbcd93a26	-0.026516985
226	0x3d25b0be	0.040451758
227	0x3e822b6c	0.25423753
228	0xbd96e96f	-0.07368743
229	0xbd832e1f	-0.06405281
230	0x3d7f9cb0	0.06240529
231	0xbc972007	-0.018447889
232	0x3b8121cd	0.003940797
233	0x3cf29067	0.029609872
234	0x3daac277	0.083378725
235	0xbd8e2d88	-0.06942278
236	0x3cdf7d19	0.02728133
237	0x3e03a59a	0.1285614
238	0xbccab865	-0.02474613
239	0x3ddf941e	0.10916923
240	0x3cb81048	0.022468701
241	0xbe0860c9	-0.1331817
242	0x3d0df7e5	0.03466024
243	0xbd6d61e5	-0.057954688
244	0xbd0ac362	-0.033877738
245	0xbd0ee31a	-0.03488455
246	0x3d12091a	0.03565321
247	0x3e57518d	0.21027203
248	0x3d78e084	0.06076099
249	0x3e1179c3	0.14206605
250	0xbda0b414	-0.07846847
251	0x3db0c744	0.08631757
252	0xbde115ce	-0.10990487
253	0xbd737348	-0.059436113
254	0xbd6b2200	-0.05740547
255	0x3d0291b5	0.03187724

layer2.bias f4 [128]
0	0x3aec02f1	0.0018006248
1	0xbb6e173b	-0.0036329764
2	0xbb8917dd	-0.004183753
3	0xbb19a109	-0.0023441932
4	0x3b1a1317	0.0023509914
5	0xbc33fb33	-0.0109851835
6	0x3b8e33fb	0.0043396926
7	0xbb35d3cd	-0.0027744651
8	0xbc32dfb9	-0.010917597
9	0xbb82d89a	-0.003993106
10	0x3b6c756f	0.0036080738
11	0xba9f8b19	-0.0012172192
12	0x3c5c8263	0.013458821
13	0xba85a0d5	-0.0010195026
14	0xbb893081	-0.0041866903
15	0x3ba4d421	0.0050301705
16	0x3a5844b0	0.00082499813
17	0xbc32822d	-0.010895294
18	0xbbfae51b	-0.007656706
19	0xb9b6ce05	-0.00034867242
20	0x3bac9de4	0.0052678455
21	0xbbcf4c52	-0.0063262368
22	0x3a9e5bb7	0.0012081777
23	0x3b1c6ebc	0.0023869714
24	0x3c41f88b	0.011839042
25	0xba8e46de	-0.001085486
26	0xbbc59702	-0.0060299644
27	0x388b80ca	6.652025e-05
28	0xba3773bb	-0.0006998141
29	0xbc2a0055	-0.010376056
30	0xb99ab3d6	-0.00029507157
31	0x3a00b606	0.0004909936
32	0x3b76f84a	0.0037684613
33	0xbc31fc8a	-0.010863433
34	0xbc08a45d	-0.0083399685
35	0xbc2fb3ed	-0.01072405
36	0xbb9eb93e	-0.00484386
37	0xbbb5dbec	-0.0055498984
38	0x3bf18aa0	0.0073712617
39	0x3b8c75b7	0.0042864936
40	0xba84d944	-0.0010135551
41	0x3a8c558d	0.0010706648
42	0xbabb5726	-0.001429294
43	0xba25b50f	-0.00063212303
44	0xbc345e06	-0.011008745
45	0xbb6cc676	-0.0036129034
46	0xbc03c26e	-0.008041961
47	0xbbbcf117	-0.005766045
48	0xba8e29b1	-0.0010846165
49	0xbb0e8918	-0.0021749195
50	0xbacb44a3	-0.0015508126
51	0x3b5cf60e	0.0033715996
52	0xbc0f657d	-0.008752224
53	0x3bc1e2c4	0.005916925
54	0x3ad16639	0.0015975899
55	0x3c372201	0.011177541
56	0xbb85e0e4	-0.004085647
57	0xbb91c190	-0.0044481233
58	0x3b82feab	0.003997644
59	0xbbc40607	-0.005982164
60	0xbb990fec	-0.0046710875
61	0x3ad1ffb5	0.0016021641
62	0xbba17ec7	-0.004928443
63	0x3b46fde7	0.003036374
64	0x3bcb7bf2	0.006209844
65	0xbb757e5c	-0.003745935
66	0x3c2b82f4	0.010468233
67	0x3bc4213d	0.0059854076
68	0xbbe6b0ba	-0.0070401104
69	0xbb8c0743	-0.0042733266
70	0x391c2455	0.00014890854
71	0x3c98ece5	0.018667648
72	0x3b4dd741	0.003140882
73	0xbc351042	-0.011051239
74	0xbc3177d8	-0.010831796
75	0xbc02a95e	-0.007974951
76	0x3bd46c03	0.0064826026
77	0x3abce0f6	0.0014410305
78	0xbaaf4108	-0.0013370821
79	0xbb062010	-0.0020465888
80	0xbb0cd433	-0.0021488785
81	0x3a9307cb	0.0011217532
82	0xba57c314	-0.0008230668
83	0xb8bf1d48	-9.113044e-05
84	0xbab9a204	-0.0014162664
85	0xbc33369c	-0.010938313
86	0xbb789817	-0.003793245
87	0xbbb8ee47	-0.0056436392
88	0x3c36569c	0.011129048
89	0x395f4774	0.00021293556
90	0xbba83359	-0.0051330742
91	0x3b08d446	0.0020878478
92	0xbb36f772	-0.0027918485
93	0xbb607ed4	-0.0034255283
94	0xbbeee324	-0.007290261
95	0xba7179cc	-0.00092115696
96	0x3b83698f	0.0040103863
97	0xb95f1838	-0.0002127596
98	0xbc17f435	-0.009274532
99	0xbc093f81	-0.008376957
100	0x3ab1c5ed	0.0013563015
101	0x39e719d4	0.00044078997
102	0xbbecd8c1	-0.0072279875
103	0x3c0cb19b	0.008587266
104	0x3b192f6d	0.0023374215
105	0xbc3529b4	-0.011057306
106	0xbc32175f	-0.01086983
107	0x3c019f73	0.007911551
108	0xbbd4e547	-0.0064970586
109	0xbc3234a0	-0.010876805
110	0xbbfeb9fe	-0.007773637
111	0x37e4383b	2.7205902e-05
112	0x39a4f7de	0.00031465193
113	0x3b9982d1	0.004684784
114	0x3c1728ec	0.009226065
115	0xbc3616a3	-0.011113795
116	0x3bbc08ac	0.0057383385
117	0xbc01cd72	-0.007922517
118	0x3a564d2c	0.00081749517
119	0xbc2fcab9	-0.010729485
120	0xbc28934c	-0.010289025
121	0xbb6e9769	-0.0036406165
122	0x3b83d6a3	0.0040233894
123	0xbb3bed5c	-0.0028675413
124	0xbbcb6790	-0.006207414
125	0x3b219029	0.0024652577
126	0x3c113d70	0.0088647455
127	0x3beb4da6	0.0071808873

layer3.weight f4 [64, 128]
0	0xbd8c6ff9	-0.068572946
1	0x3dd27105	0.10275463
2	0xbd81eb4c	-0.063437074
3	0x3e57ef72	0.21087435
4	0x3ca41e0e	0.020033862
5	0xbcd1aafb	-0.025594225
6	0xbdeacb6e	-0.114645824
7	0xbd94e388	-0.07269961
8	0x3b83a4eb	0.0040174625
9	0x3d8ea9d2	0.069659844
10	0xbda76d90	-0.08175194
11	0x3cb5e193	0.022202289
12	0xbe06c659	-0.13161601
13	0xbc911c66	-0.017713737
14	0x3e053aa2	0.13010648
15	0x3d6e868a	0.058233775
16	0x3d68fddd	0.056882728
17	0xbde9d2f1	-0.11417187
18	0xbe0f971a	-0.14022484
19	0xbce4a1df	-0.027909217
20	0xbd870128	-0.065920174
21	0x3da02a48	0.078205645
22	0x3dac51c3	0.08414032
23	0x3dcfb5c2	0.101420894
24	0xbd478372	-0.04870934
25	0xbd8fd4ef	-0.07023036
26	0x3bc37f32	0.0059660906
27	0xbe16e6f3	-0.14736538
28	0x3d43f4fe	0.047841065
29	0xbde86d53	-0.11348977
30	0x3d769696	0.060202204
31	0x3d7fa463	0.06241263
32	0x3c0cb287	0.008587486
33	0xbda51956	-0.08061473
34	0xbd31143c	-0.043232188
35	0x3c9a0628	0.018801764
36	0x3d7d87f0	0.06189722
37	0xbc1b4b1d	-0.009478358
38	0x3d135c69	0.0359768
39	0xbd2f79fe	-0.04284095
40	0xbe8577f6	-0.26068085
41	0xbe6cf05e	-0.23138568
42	0xbdc154e2	-0.09440018
43	0xbe3d1f35	-0.18468936
44	0xbd881797	-0.066451244
45	0xbd695183	-0.0569625
46	0x3d747ecb	0.05969123
47	0x3db6ce7e	0.08926104
48	0xbb87ba93	-0.0041421144
49	0x3c3953b4	0.01131146
50	0x3c006c37	0.0078383
51	0xbd655c88	-0.055996448
52	0xbd630633	-0.055425834
53	0xbc6ff415	-0.014645596
54	0xbd20dcab	-0.039272945
55	0xbe152314	-0.14564162
56	0x3bfde2eb	0.007747998
57	0x3de00733	0.10938873
58	0xbc53500e	-0.0128975045
59	0x3d150a49	0.03638676
60	0xbc1c7f7a	-0.009551877
61	0x3d730593	0.059331488
62	0x3d619e56	0.05508264
63	0x3d31e6bb	0.043432932
64	0xbcaeb296	-0.02132539
65	0x3d5aa4ff	0.05338001
66	0xbd9f8da4	-0.07790688
67	0x3dbf9098	0.09353751
68	0x3d43581a	0.047691442
69	0xbe151165	-0.14557417
70	0xbd5d3f34	-0.054015353
71	0x3d884fc4	0.06655839
72	0xbde02bdf	-0.10945868
73	0x3dc3070a	0.09522827
74	0xbcb3019c	-0.021851353
75	0xbe1214f7	-0.1426581
76	0x3cd3d256	0.025857132
77	0xbdfe0937	-0.12404101
78	0x3e2f9ea7	0.17150365
79	0x3cda9f90	0.026687413
80	0xbd6d823d	-0.057985533
81	0x3e9835f8	0.29728675
82	0x3d0f0007	0.034912135
83	0xbc09721d	-0.008389023
84	0xbd2e334a	-0.04252938
85	0xbd938d5c	-0.072046965
86	0x3d11af39	0.035567496
87	0x3d8ec402	0.06970979
88	0xbd9c4af5	-0.076314844
89	0x3dcbee7c	0.09957597
90	0xbc50dcf0	-0.012747988
91	0x3dc13033	0.094330214
92	0x3dda5bcc	0.1066204
93	0xbd7705c5	-0.060308237
94	0x3d704de2	0.058668025
95	0xbe2a0a16	-0.1660541
96	0x3d758421	0.05994046
97	0x3d770d44	0.060315385
98	0x3d738540	0.05945325
99	0x3dda4759	0.1065814
100	0xbd16826b	-0.03674547
101	0xbd9e8b1a	-0.07741375
102	0xbcb9b299	-0.02266817
103	0x3db3a52c	0.087717384
104	0xbe0d2eb6	-0.1378735
105	0x3dc25e71	0.094906695
106	0xbdbed0cc	-0.093171686
107	0x3c90a4ce	0.01765671
108	0xbd16aa2a	-0.036783375
109	0xbdccf9a7	-0.10008555
110	0x3dd77136	0.1051964
111	0x3e04f2ce	0.12983248
112	0x3d22a863	0.039711367
113	0xbac4e761	-0.001502257
114	0x3d4549a9	0.04816595
115	0x3d806192	0.0626861
116	0x3c421964	0.011846874
117	0xbd65dd9a	-0.05611954
118	0xbc169a67	-0.009192086
119	0x3e0e5165	0.13898237
120	0xbd8b5304	-0.06802943
121	0xbcb5f87d	-0.022213215
122	0xbb0d7821	-0.0021586495
123	0xbdf7a90b	-0.12092789
124	0xbcdd3388	-0.027002111
125	0x3d89ac1f	0.067222826
126	0xbdba974a	-0.09110887
127	0xbd949225	-0.07254437
128	0xbd303df7	-0.043027844
129	0x3de1aba0	0.11019063
130	0x3d904a78	0.07045454
131	0x3d4884d5	0.048954803
132	0x3c5275fe	0.012845514
133	0x3ade2975	0.0016949611
134	0x3c32e681	0.010919214
135	0x3d06d432	0.03291721
136	0x3e076a73	0.13224201
137	0x3d41718f	0.04722744
138	0x3e12871c	0.14309353
139	0xbcbcb325	-0.023034642
140	0xbd061b8b	-0.03274111
141	0x3befe716	0.0073212488
142	0xbdb9d5a4	-0.09073952
143	0xbd12178f	-0.035667
144	0x3d4b3754	0.049613312
145	0x3de91e41	0.113827236
146	0x3c7cb1db	0.015423263
147	0x3d24d047	0.04023769
148	0xbca0c9c4	-0.01962746
149	0x3cd5d7c9	0.026103871
150	0xbe2b58a8	-0.16733038
151	0x3db710d3	0.08938756
152	0xbd4732a5	-0.048632283
153	0xbd9d0250	-0.07666457
154	0x3bfd1989	0.0077239913
155	0xbd20abf2	-0.03922648
156	0x3d72a894	0.0592428
157	0xbddd95a8	-0.1081956
158	0xbdbe7bd7	-0.09300964
159	0xbd8336fe	-0.06406973
160	0xbdfa8c96	-0.12233846
161	0x3e24d9c2	0.16098693
162	0x3d0ab37c	0.033862576
163	0x3c08a3c5	0.008339827
164	0xbd850098	-0.06494254
165	0xbe64d622	-0.2234731
166	0x3e12d7c5	0.14340122
167	0x3dca7e2a	0.09887345
168	0x3d99f138	0.07516712
169	0xbb92546f	-0.0044656317
170	0x3c7a31e1	0.015270681
171	0x3d91cd9c	0.07119295
172	0xbde79796	-0.113082096
173	0xbd64ab2e	-0.055827312
174	0xbd6330ad	-0.055466343
175	0x3e3de1e9	0.18543209
176	0xbce32456	-0.027727287
177	0x3e1a296e	0.15054867
178	0x3d086331	0.03329772
179	0xbd909769	-0.07060129
180	0x3e1dd4ff	0.15413283
181	0xbda2bc47	-0.07946067
182	0x3c4e90f2	0.0126078
183	0xbde24a40	-0.11049318
184	0x3d6c38d9	0.0576714
185	0x3d607b45	0.05480506
186	0xbe50a15e	-0.20374057
187	0x3cd9703a	0.026542772
188	0x3d1e4562	0.038640387
189	0xbe8b8cd0	-0.2725587
190	0xbd44959c	-0.04799424
191	0x3d01c341	0.03168035
192	0x3db3b776	0.08775227
193	0x3dd56889	0.10420329
194	0x3d03923c	0.03212188
195	0x3d328978	0.04358813
196	0x3e511614	0.20418578
197	0x3e0b050f	0.13576148
198	0xbc070e77	-0.008243195
199	0x3dc6cd2d	0.09707103
200	0x3d719fa1	0.058990125
201	0x3d6c842f	0.057743248
202	0x3d116102	0.035492904
203	0x3c978f2c	0.018500887
204	0x3db62c61	0.08895183
205	0x3c77f44f	0.015133931
206	0xbe44ec2d	-0.19230719
207	0x3d377c67	0.044796374
208	0x3da49878	0.080368936
209	0x3e44af8f	0.19207595
210	0x3dd3c870	0.10340965
211	0x398a5bcf	0.00026389814
212	0xbcf5a0f6	-0.029983979
213	0xbd2d915e	-0.04237496
214	0x3c187ad4	0.009306628
215	0x3d48553e	0.04890942
216	0x3dbe6b53	0.09297814
217	0xbda7deda	-0.081968024
218	0xbd3d3319	-0.04619131
219	0xbdf1e468	-0.11811143
220	0xbd59f35f	-0.053210612
221	0xbe0c11a0	-0.13678598
222	0x3db22dc0	0.08700132
223	0xbd417b25	-0.04723658
224	0x3b408392	0.0029375297
225	0xbd84f420	-0.06491876
226	0xbdb018e4	-0.085984975
227	0xbdaeeace	-0.08540879
228	0xbd166e59	-0.03672633
229	0xbd41b447	-0.047291066
230	0x3db2b3cb	0.08725699
231	0x3d77ceb3	0.060499858
232	0xbe0a88d2	-0.13528755
233	0x3d69a501	0.057042126
234	0xbc8206f6	-0.01587246
235	0x3cfab242	0.030602578
236	0xbd92709a	-0.07150383
237	0x3dda5ef9	0.10662646
238	0xbdaa9324	-0.08328846
239	0xbd36dd63	-0.044644725
240	0x3d39ea85	0.04538967
241	0x3da48369	0.08032877
242	0xbcda7fef	-0.026672332
243	0x3e03ff96	0.12890467
244	0x3dab7a5c	0.083729476
245	0x3ca292c5	0.019845376
246	0x3e4a161e	0.19735
247	0x3d3aeec3	0.045637857
248	0xbd56b1b1	-0.052415553
249	0xbd3e6825	-0.04648604
250	0xbd73b8c2	-0.05950237
251	0x3ca82333	0.020524597
252	0xbd700fa7	-0.058608677
253	0xbd510e13	-0.051038813
254	0x3de36394	0.111029774
255	0x3aea90e7	0.0017895967

layer3.bias f4 [64]
0	0xbb81bef6	-0.003959532
1	0xbbb8e7c0	-0.005642861
2	0xb9c6233d	-0.00037791757
3	0x3bd4c028	0.0064926334
4	0xbb179196	-0.0023127547
5	0xbbb986d5	-0.005661825
6	0x3a9a7fd5	0.0011787364
7	0x3bd86d7e	0.0066048494
8	0x3abeb93f	0.0014551057
9	0xbac35cbf	-0.001490496
10	0xba8949af	-0.001047423
11	0x3a120514	0.00055702147
12	0x3c20bd12	0.009810703
13	0x3b019ed3	0.0019778505
14	0x3959826a	0.00020743316
15	0xbb91ef49	-0.004453574
16	0xbb96c2bd	-0.0046008513
17	0xb9858435	-0.0002546624
18	0xbacfec40	-0.0015863255
19	0x3b337351	0.0027381966
20	0xbb610cdc	-0.003433994
21	0x3bfb4efc	0.007669328
22	0x3c8962c0	0.01677072
23	0xbbd1b5ef	-0.006399862
24	0x3c275ef1	0.010215507
25	0x3bbdc58f	0.005791373
26	0x3bd2722e	0.0064223027
27	0x3a60500e	0.0008556851
28	0xbb9f7c18	-0.004867088
29	0xbb9ce109	-0.0047875685
30	0x3c07b520	0.00828293
31	0xbb85cec9	-0.0040834886
32	0x3a623e4a	0.00086304976
33	0xbbfcee7f	-0.0077188606
34	0xbb8f96fb	-0.004382012
35	0x3b9d84b6	0.00480708
36	0xbbe27e5c	-0.006912036
37	0x3b2d6817	0.0026459747
38	0x3c0ae041	0.008476318
39	0xbc2560e4	-0.010093901
40	0x3b9351fe	0.004495858
41	0xbaf2dc71	-0.0018528831
42	0x3afbab7b	0.0019200885
43	0xbbfe8f0a	-0.0077685164
44	0xba7b755e	-0.0009592379
45	0xbb5be6df	-0.0033554358
46	0xbbb47978	-0.0055076443
47	0x3a1b9e9f	0.0005936417
48	0x3b823846	0.0039739935
49	0x3c1ab6b0	0.00944297
50	0x3bf7f4e3	0.0075670346
51	0xbaba1b3f	-0.0014198794
52	0xbc1997a8	-0.009374537
53	0x3b65ec32	0.003508341
54	0x3bd0d16b	0.006372621
55	0xbc4894f0	-0.012242541
56	0x3bb4d565	0.0055186027
57	0x3bad0b89	0.005280916
58	0xba6ebd30	-0.00091071706
59	0x3a161ebe	0.0005726627
60	0x3b7c40f5	0.0038490866
61	0x3b9eb2b4	0.0048430804
62	0x3bfa973b	0.0076474226
63	0xbba94ade	-0.0051663956

layer4.weight f4 [9, 64]
0	0x3ddf4d2e	0.10903393
1	0xbc076b62	-0.008265348
2	0xbe1941c4	-0.14966494
3	0x3c801a0d	0.015637422
4	0x3d9e9595	0.07743374
5	0x3e454231	0.19263531
6	0xbe1856d2	-0.1487687
7	0xbe204152	-0.15649918
8	0xbd9a65ef	-0.075389735
9	0xbda41715	-0.08012215
10	0x3e4e9c92	0.20176914
11	0x3e0f37d0	0.13986135
12	0xbe1733be	-0.14765832
13	0xbe6cba37	-0.2311791
14	0xbde78eba	-0.1130652
15	0x3d847551	0.06467689
16	0x3e8100b6	0.25195855
17	0xbcb1f8c5	-0.021725068
18	0x3c9896c8	0.018626586
19	0x3e45a499	0.1930107
20	0x3d82f83a	0.06395002
21	0x3c3f3c2f	0.011672064
22	0xbdc88633	-0.097912215
23	0xbcc1e216	-0.023667376
24	0xbe01e8de	-0.12686488
25	0xbdac1b60	-0.08403659
26	0x3e6d3137	0.23163305
27	0x3dd4ba34	0.10387078
28	0xbe1fb443	-0.15596108
29	0x3e93a641	0.2883778
30	0x3daf987b	0.08574005
31	0xb98468c8	-0.0002525507
32	0xbd78bc05	-0.060726184
33	0x3e2303e2	0.1591945
34	0x3b0278f8	0.0019908529
35	0x3dfbce07	0.12295156
36	0x3e11aa94	0.14225227
37	0x3e404616	0.18776736
38	0x3d604306	0.05475142
39	0x3cb35d53	0.021895086
40	0xbd98bab5	-0.074574865
41	0xbbc43b0e	-0.005988485
42	0xbe076935	-0.13223727
43	0x3e4d6b17	0.20060383
44	0xbdccb651	-0.099957116
45	0x3e1e0cb0	0.15434527
46	0x3e450897	0.19241558
47	0x3d9cc682	0.0765505
48	0x3d5b80a1	0.053589467
49	0xbd60fb3b	-0.054927092
50	0x3e431cf0	0.19054008
51	0xbd5ed76b	-0.054404657
52	0xbe027014	-0.12738067
53	0x3d2b6d9e	0.041852586
54	0x3cf4d29e	0.029885586
55	0x3d87e095	0.066346325
56	0xbe5a32ad	-0.21308394
57	0x3d07c84a	0.033149995
58	0xbda55a45	-0.08073858
59	0x3d2f7535	0.042836387
60	0xbc7ccf3b	-0.015430267
61	0xbe30aaaa	-0.17252603
62	0xbe0b4b60	-0.13602972
63	0x3d89df0f	0.06731998
64	0xbe4d7e5a	-0.2006773
65	0x3c0623f0	0.008187279
66	0xbdf32190	-0.11871636
67	0xbd685525	-0.056721825
68	0x3e2d4c1f	0.16923569
69	0xbceb6d71	-0.02873871
70	0x3d6d88a6	0.057991646
71	0xbb63aeaf	-0.003474157
72	0xbe4f77e0	-0.20260572
73	0xbdd79264	-0.10525969
74	0x3e8eef8d	0.27917138
75	0x3cab8bd0	0.020940691
76	0x3e21b857	0.15792976
77	0xbba00095	-0.004882882
78	0x3e8c020c	0.27345312
79	0xbe3f7769	-0.18697895
80	0x3e60ea7a	0.21964446
81	0xbc9c68c8	-0.019092932
82	0x3dd16a3a	0.10225339
83	0x3d5d5dee	0.054044656
84	0x3e909b22	0.28243357
85	0x3c202891	0.009775297
86	0xbde019f5	-0.10942451
87	0x3d98c556	0.07459514
88	0xbdcce167	-0.100039296
89	0x3e5650ca	0.20929256
90	0xbdc676dd	-0.0969064
91	0xbe482127	-0.19543897
92	0x3d0c99d3	0.034326386
93	0xbe5f7243	-0.21820931
94	0x3e0ce8b6	0.13760647
95	0xbd498dc2	-0.049207456
96	0xbe36e450	-0.17860532
97	0x3b3679a8	0.002784351
98	0x3d958b7b	0.073019944
99	0xbe0b0f16	-0.13579974
100	0xbd775d70	-0.060391843
101	0x3e43339e	0.19062659
102	0xbc90dfe8	-0.017684892
103	0x3d6a9c8a	0.057278194
104	0xbddee1cd	-0.10882912
105	0xbd3510b3	-0.04420538
106	0x3dda7321	0.1066649
107	0x3dc5daa5	0.09660844
108	0x3d00cc24	0.031444684
109	0x3cba7fec	0.022766076
110	0xbd746b17	-0.05967244
111	0xbd5d6f8c	-0.054061458
112	0xbdbcf57b	-0.09226509
113	0x3e4ae365	0.19813307
114	0xbc824dce	-0.01590624
115	0x3d022dbc	0.031781897
116	0x3dca8d79	0.09890265
117	0x3dfabf03	0.12243464
118	0xbd72b108	-0.05925086
119	0x3c608a79	0.013704889
120	0x3bfe898c	0.0077678617
121	0xbc5a3313	-0.013317841
122	0xbdaee593	-0.085398816
123	0xbdfa2629	-0.1221431
124	0x3d8bb929	0.06822426
125	0x3e030328	0.12794173
126	0xbe669e4a	-0.2252132
127	0xbdfdbd04	-0.123895675
128	0x3c3e0397	0.011597536
129	0x3d1a0620	0.037603498
130	0xbe2f5bc8	-0.17124856
131	0x3dbcfecd	0.09228287
132	0xbe060e2f	-0.13091348
133	0x3dd86db7	0.105678014
134	0xbd8f8bd2	-0.070090905
135	0xbdb32b51	-0.08748496
136	0x3bce09fc	0.0062878113
137	0xbdd73b0c	-0.10509309
138	0xbd73d02b	-0.059524696
139	0xbcffbfc5	-0.031219373
140	0x3e0c0dd0	0.13677144
141	0x3d60f751	0.05492336
142	0xbe65384d	-0.22384758
143	0xbd5d38b3	-0.05400915
144	0x3bb50314	0.0055240486
145	0x3d027dec	0.03185837
146	0xbdfb17a0	-0.122603655
147	0xbcb25e61	-0.021773519
148	0x3dcbfa0e	0.099598035
149	0x3d8723db	0.06598636
150	0xbde48914	-0.11158958
151	0x3e70d8b6	0.23520169
152	0xbe862c4c	-0.2620567
153	0xbcbaed19	-0.022818135
154	0xbca2a265	-0.019852826
155	0x3c747d8e	0.014922513
156	0x3e1c1bdb	0.15245001
157	0x3bb3880d	0.005478865
158	0x3d12493b	0.03571437
159	0x3e55e87d	0.20889468
160	0xbd25b8d8	-0.040459484
161	0xbe43b8fc	-0.19113535
162	0x3e328284	0.174326
163	0x3de1f408	0.110328734
164	0x3e5f087e	0.21780583
165	0x3d87df35	0.0663437
166	0xbd4ac688	-0.04950574
167	0x3e6a4481	0.22877695
168	0x3dde165c	0.108441085
169	0x3e97d328	0.29653287
170	0x3e4f5650	0.2024777
171	0xbddfc52f	-0.10926282
172	0xbd1daa66	-0.038492583
173	0x3dc600ba	0.09668107
174	0xbcbf37a3	-0.02334196
175	0xbc4cbb75	-0.012495865
176	0xba807779	-0.0009801231
177	0x3d902c34	0.07039681
178	0xbe643942	-0.22287467
179	0xbc89c4f0	-0.01681754
180	0x3df7b577	0.120951585
181	0xbd459082	-0.048233517
182	0x3d1bc281	0.03802729
183	0x3de626fc	0.112379044
184	0xbe410eba	-0.18853274
185	0xbdaa9101	-0.083284386
186	0x3e9b41d0	0.30323648
187	0x3db88d77	0.09011357
188	0xbc9c1934	-0.019054987
189	0xbd1428db	-0.036171775
190	0x3d47b332	0.04875488
191	0x3c0a35c3	0.008435669
192	0xbbdd4b74	-0.0067533795
193	0xbdd1229e	-0.10211681
194	0xbe0a82fa	-0.13526526
195	0x3d28c9d9	0.041208122
196	0xbddf12fa	-0.10892291
197	0xba879ce2	-0.0010346437
198	0x3e70610a	0.23474517
199	0xbb2c8116	-0.0026322058
200	0x3dc997ce	0.098434076
201	0x3ce74908	0.028233066
202	0x3eb54aef	0.35408732
203	0x3d59476d	0.053046633
204	0xbd04688f	-0.032326277
205	0xbe2c762c	-0.16841954
206	0xbe649e1c	-0.22325939
207	0x3cb6bfa7	0.022308184
208	0x3dff043b	0.12451979
209	0x3dc8ef8a	0.098113135
210	0x3d84ec0c	0.06490335
211	0x3cf94cd4	0.030432142
212	0x3c4aac3e	0.012370167
213	0x3e45019a	0.19238892
214	0x3e33d7ad	0.17562743
215	0x3e1bfd0b	0.15233247
216	0x3e41af36	0.18914494
217	0xbd112cd4	-0.035443142
218	0xbcb5e9ce	-0.022206213
219	0xbd0f71a4	-0.035020486
220	0xbdc4328d	-0.09579954
221	0xbe17c4ca	-0.14821163
222	0xbce53ba7	-0.027982546
223	0xbd99f9a4	-0.07518318
224	0x3e172f5a	0.14764157
225	0xbdea7bc4	-0.11449388
226	0x3dee35f8	0.116313875
227	0x3d0b4200	0.03399849
228	0x3d735535	0.05940743
229	0xbdfa593a	-0.1222405
230	0xbc8c22b3	-0.01710639
231	0xbe0d05f7	-0.13771807
232	0xbd95082b	-0.072769485
233	0x3e15de11	0.14635493
234	0x3e2fbb7e	0.17161366
235	0x3cd8412c	0.026398264
236	0xbda25507	-0.07926374
237	0xbe41af2d	-0.1891448
238	0x3a2884c6	0.0006428476
239	0x3d9ca386	0.07648377
240	0x3d9b1874	0.075730234
241	0xbd1cae8d	-0.038252402
242	0x3da4b352	0.08042015
243	0xbd3ba8a6	-0.045815133
244	0xbdd843d7	-0.105598144
245	0xbe3cb3fb	-0.18428032
246	0x3e75072b	0.23928516
247	0xbd793748	-0.060843736
248	0x3d8b2fea	0.06796248
249	0x3e88f5b9	0.26749972
250	0x3d207298	0.039171785
251	0xbdd41d5d	-0.10357163
252	0x3dcda4cf	0.100412
253	0x3e918a51	0.2842584
254	0xbd07150a	-0.03297905
255	0x3c3a51ce	0.011372043

layer4.bias f4 [9]
0	0xbc6931b9	-0.014233046
1	0xbaa24517	-0.001238021
2	0xbc22f741	-0.009946645
3	0x3b8f434d	0.0043720366
4	0xbbf113af	-0.007357083
5	0xb8f622e2	-0.000117366915
6	0xbb1a826a	-0.0023576268
7	0xbbac1a2f	-0.0052521448
8	0xbc4a0295	-0.012329717

layer_norm1.weight f4 [128]
0	0x3f80c8f6	1.0061328
1	0x3f8034f1	1.0016156
2	0x3f806ed8	1.0033827
3	0x3f7cd770	0.9876623
4	0x3f800000	1.0
5	0x3f7f09d8	0.99624395
6	0x3f8079eb	1.0037206
7	0x3f7efd4f	0.9960527
8	0x3f815a85	1.0105749
9	0x3f7fc098	0.9990325
10	0x3f7d0b25	0.9884513
11	0x3f7eb2c4	0.99491525
12	0x3f8067ac	1.0031638
13	0x3f811c4f	1.0086764
14	0x3f80f361	1.0074273
15	0x3f81725d	1.0113026
16	0x3f806a11	1.0032369
17	0x3f81900c	1.0122085
18	0x3f7dc4fb	0.99128693
19	0x3f808d70	1.0043163
20	0x3f7e5195	0.99343234
21	0x3f800000	1.0
22	0x3f7f1712	0.9964458
23	0x3f7e5b78	0.9935832
24	0x3f804e35	1.0023867
25	0x3f7fd5c4	0.99935555
26	0x3f801138	1.0005255
27	0x3f81534f	1.0103549
28	0x3f8092ac	1.0044761
29	0x3f7f9980	0.998436
30	0x3f7f65fd	0.99764997
31	0x3f7eb68e	0.99497306
32	0x3f7e3ba7	0.9930977
33	0x3f7fd7c7	0.99938625
34	0x3f7e00e5	0.99220115
35	0x3f80d959	1.0066329
36	0x3f800000	1.0
37	0x3f8079bf	1.0037154
38	0x3f7dd851	0.991582
39	0x3f7dd91e	0.9915942
40	0x3f7e9b0f	0.9945535
41	0x3f8006f7	1.0002126
42	0x3f8001d7	1.0000561
43	0x3f7fa1d3	0.998563
44	0x3f7f152d	0.99641687
45	0x3f80ee14	1.0072656
46	0x3f8020b1	1.0009977
47	0x3f7e4ab1	0.9933272
48	0x3f7e46fb	0.9932706
49	0x3f7f65bd	0.99764615
50	0x3f812e64	1.0092282
51	0x3f81992a	1.0124867
52	0x3f8084f6	1.0040576
53	0x3f801caf	1.0008754
54	0x3f80d125	1.0063826
55	0x3f800000	1.0
56	0x3f804f46	1.0024192
57	0x3f8040c7	1.0019768
58	0x3f7fa9b2	0.9986831
59	0x3f80d48d	1.0064865
60	0x3f803015	1.0014673
61	0x3f805e65	1.0028807
62	0x3f7f75f9	0.99789387
63	0x3f8026bc	1.0011821
64	0x3f7e5894	0.9935391
65	0x3f804a97	1.0022763
66	0x3f7e6167	0.99367374
67	0x3f8016ee	1.0006998
68	0x3f800000	1.0
69	0x3f7ffc86	0.99994695
70	0x3f7f6d26	0.9977592
71	0x3f8103c4	1.0079274
72	0x3f817305	1.0113226
73	0x3f7f4c22	0.99725544
74	0x3f8198aa	1.0124714
75	0x3f7fa66e	0.99863327
76	0x3f807df5	1.0038439
77	0x3f808b0a	1.0042431
78	0x3f7f5d75	0.9975198
79	0x3f7f937f	0.99834436
80	0x3f80e82b	1.0070852
81	0x3f7f669a	0.9976593
82	0x3f801d2c	1.0008903
83	0x3f807965	1.0037047
84	0x3f804b50	1.0022984
85	0x3f80490a	1.002229
86	0x3f8032b0	1.0015469
87	0x3f803ad7	1.0017956
88	0x3f800000	1.0
89	0x3f7f5740	0.9974251
90	0x3f7ff499	0.999826
91	0x3f804056	1.0019634
92	0x3f803a70	1.0017834
93	0x3f7d3aab	0.98917645
94	0x3f7eef26	0.9958366
95	0x3f800000	1.0
96	0x3f803177	1.0015095
97	0x3f800000	1.0
98	0x3f800000	1.0
99	0x3f7f18d1	0.9964724
100	0x3f8042a8	1.0020342
101	0x3f802ae2	1.0013087
102	0x3f80a361	1.0049859
103	0x3f7f939c	0.9983461
104	0x3f81780e	1.0114763
105	0x3f8022fe	1.0010679
106	0x3f803f29	1.0019275
107	0x3f800877	1.0002583
108	0x3f7f0b54	0.9962666
109	0x3f7e3bf2	0.9931022
110	0x3f80825f	1.0039786
111	0x3f80c6e8	1.0060701
112	0x3f7e6d43	0.9938547
113	0x3f7ffa77	0.99991554
114	0x3f809a58	1.0047102
115	0x3f800693	1.0002006
116	0x3f7e906c	0.9943912
117	0x3f7ef491	0.9959193
118	0x3f7ed704	0.9954684
119	0x3f7fe780	0.99962616
120	0x3f7e2419	0.9927383
121	0x3f801f96	1.0009639
122	0x3f7f7db1	0.99801165
123	0x3f80f117	1.0073575
124	0x3f7ddf45	0.9916881
125	0x3f7e8910	0.9942789
126	0x3f7d6f5d	0.9899805
127	0x3f80c7c2	1.0060961

layer_norm1.bias f4 [128]
0	0x3bebf8c8	0.007201288
1	0xbb882588	-0.0041548647
2	0x3b0de791	0.0021652917
3	0xba9eadd2	-0.0012106246
4	0x00000000	0.0
5	0xbb80088a	-0.003907268
6	0x3b526065	0.0032100913
7	0xbaefbc06	-0.0018290288
8	0x3bbad5f0	0.005701773
9	0x3b61e2d1	0.0034467469
10	0xbc4a4c4b	-0.012347291
11	0xbbc0dbc8	-0.005885575
12	0x3a9bfbe4	0.0011900631
13	0x3c13cf06	0.009021526
14	0x3bffa64d	0.007801807
15	0x3c2efb94	0.010680098
16	0x3b8fb980	0.004386127
17	0x3c36874b	0.011140655
18	0xbbb988cd	-0.00566206
19	0x3b5f6ac3	0.0034090735
20	0xbbd15262	-0.0063879946
21	0x00000000	0.0
22	0xbba4b9c6	-0.0050270287
23	0xbb2e3109	-0.002657952
24	0x3b32bbd9	0.002727261
25	0x3a86f270	0.0010295641
26	0xba7a9927	-0.00095595646
27	0x3c231201	0.009953023
28	0x3bba8976	0.005692656
29	0xbb97f678	-0.0046375357
30	0xbb162c81	-0.002291471
31	0xba4be93b	-0.00077785895
32	0xbc05afb9	-0.008159571
33	0xbb2851cd	-0.0025683523
34	0xbb879495	-0.0041375854
35	0x3be5e3fc	0.0070157032
36	0x00000000	0.0
37	0x3bbed5b7	0.0058238166
38	0xbbed5fbc	-0.0072440784
39	0xbbefc952	-0.0073177004
40	0xbb1d2570	-0.0023978613
41	0x3a16ee4e	0.0005757556
42	0x3af9df3a	0.0019063719
43	0x3a5e680d	0.00084841327
44	0xbbc8455b	-0.0061117834
45	0x3bbb2a91	0.0057118614
46	0xbaf3de99	-0.0018605768
47	0xba7d2f6c	-0.00096582505
48	0xbbfa2bd4	-0.0076346193
49	0x3910b2e6	0.00013799555
50	0x3bbd1b1a	0.005771053
51	0x3c30a1a9	0.01078073
52	0x3b9bb1e3	0.0047514304
53	0x3a84843b	0.0010110209
54	0x3bca4d6d	0.0061737807
55	0x00000000	0.0
56	0x3ab56fb1	0.0013842491
57	0x3b86b850	0.004111327
58	0xba02bbbe	-0.0004987082
59	0x3b289273	0.0025722056
60	0x3b690da5	0.0035561111
61	0xbbeac2ae	-0.007164321
62	0xbbb988fd	-0.005662082
63	0xbb066ace	-0.0020510438
64	0xbbcb246c	-0.00619941
65	0x392b23b3	0.0001632113
66	0xbba98384	-0.0051731486
67	0x3ac88bac	0.0015300415
68	0x00000000	0.0
69	0x3ac2473a	0.0014822253
70	0xba6ecad3	-0.00091092027
71	0x3bf9fb02	0.0076287994
72	0x3c689857	0.014196477
73	0xbb1115fa	-0.0022138343
74	0x3c470051	0.0121460715
75	0x3a9379dd	0.0011251528
76	0x3bb1e6cb	0.005429124
77	0x3bbd85bc	0.0057837646
78	0x39b98e84	0.00035392132
79	0x3a93fe0e	0.0011290924
80	0x3c110ad8	0.008852683
81	0xbb04b238	-0.0020247828
82	0x3c251cae	0.010077639
83	0x3aafabe6	0.001340267
84	0x3b0701a1	0.0020600336
85	0x3b003f73	0.0019569069
86	0x3b086e12	0.002081756
87	0x3b7c0fc8	0.0038461555
88	0x00000000	0.0
89	0x3ae51fe2	0.0017480815
90	0xbb486d2c	-0.003058265
91	0xba7b2bd7	-0.0009581423
92	0x3bd27f6f	0.0064238827
93	0xbc3c28cd	-0.011484337
94	0xbb491def	-0.0030688008
95	0x00000000	0.0
96	0xbaf7262d	-0.0018855982
97	0x00000000	0.0
98	0x00000000	0.0
99	0xbb58f12e	-0.0033102739
100	0x3b703fe8	0.0036659185
101	0x38bfec91	9.151654e-05
102	0x3bec9c16	0.0072207553
103	0x3a2c82f3	0.0006580792
104	0x3c0a64f8	0.008446924
105	0xbb7a9d13	-0.0038240596
106	0x3b94a52e	0.0045362925
107	0x3987fbba	0.00025936757
108	0xbb1d9940	-0.0024047643
109	0xbbbde722	-0.0057953754
110	0x3b52cb75	0.0032164727
111	0xba8f406d	-0.0010929235
112	0xbbed13db	-0.007235033
113	0xba319f92	-0.0006775792
114	0x3b3bfd04	0.0028684745
115	0x3a9948b1	0.0011694637
116	0xbb23473b	-0.0024914283
117	0xbb326f12	-0.0027226848
118	0xbbc7d2b6	-0.0060981167
119	0xb9d6b393	-0.00040951054
120	0xbbb7bb25	-0.005607026
121	0x3b6dfcce	0.0036314013
122	0xbb888b90	-0.004167028
123	0x3c1959b2	0.009359764
124	0xbbf28aaa	-0.007401784
125	0xbb941e4f	-0.0045202146
126	0xbc1669a2	-0.009180458
127	0xb969f83d	-0.00022313088

layer_norm2.weight f4 [128]
0	0x3f7fbe0e	0.99899375
1	0x3f7ef916	0.99598825
2	0x3f807c61	1.0037957
3	0x3f7fc21a	0.9990555
4	0x3f8081ef	1.0039653
5	0x3f800000	1.0
6	0x3f8067ee	1.0031717
7	0x3f7f1757	0.9964499
8	0x3f800000	1.0
9	0x3f7f313b	0.99684495
10	0x3f8047a8	1.0021868
11	0x3f7e805f	0.9941463
12	0x3f828538	1.0196905
13	0x3f7ee4de	0.99567974
14	0x3f7f1f8a	0.996575
15	0x3f7feee1	0.99973875
16	0x3f804591	1.002123
17	0x3f800000	1.0
18	0x3f7fcd9a	0.999231
19	0x3f7fa71b	0.9986436
20	0x3f80dc4a	1.0067227
21	0x3f7ee458	0.99567175
22	0x3f803ba1	1.0018197
23	0x3f80b53f	1.0055312
24	0x3f82b954	1.0212808
25	0x3f80235d	1.0010792
26	0x3f7ee966	0.9957489
27	0x3f80455b	1.0021166
28	0x3f7ee0b3	0.99561614
29	0x3f7fe6b4	0.999614
30	0x3f801b59	1.0008346
31	0x3f7fa790	0.99865055
32	0x3f805785	1.0026709
33	0x3f7fe954	0.99965405
34	0x3f7fd3d0	0.99932575
35	0x3f7fec7b	0.99970216
36	0x3f7ed854	0.9954884
37	0x3f7f8b7e	0.99822223
38	0x3f819a22	1.0125163
39	0x3f7f6fec	0.99780154
40	0x3f7fd9f0	0.9994192
41	0x3f8002a8	1.0000811
42	0x3f7fc824	0.99914765
43	0x3f7feabc	0.9996755
44	0x3f800000	1.0
45	0x3f7f7cf6	0.9980005
46	0x3f800de6	1.0004241
47	0x3f7e8bc4	0.99432015
48	0x3f7ff58a	0.9998404
49	0x3f7f4772	0.9971839
50	0x3f7eb1f8	0.9949031
51	0x3f801d70	1.0008984
52	0x3f7fcd3c	0.9992254
53	0x3f80cfd7	1.0063428
54	0x3f801d68	1.0008974
55	0x3f81ebc6	1.0150077
56	0x3f7ede6e	0.9955815
57	0x3f7eb697	0.9949736
58	0x3f81482b	1.0100149
59	0x3f7feda4	0.99971986
60	0x3f7f15f8	0.99642897
61	0x3f803e47	1.0019006
62	0x3f7ecf38	0.9953494
63	0x3f8021eb	1.0010351
64	0x3f8246fb	1.0177912
65	0x3f7f3cf3	0.99702376
66	0x3f81c27d	1.0137478
67	0x3f8161e3	1.0107998
68	0x3f7e3a02	0.9930726
69	0x3f7f2cdd	0.9967783
70	0x3f804154	1.0019937
71	0x3f830cda	1.0238297
72	0x3f809cdd	1.0047871
73	0x3f800000	1.0
74	0x3f7feded	0.9997242
75	0x3f7eaa93	0.99479026
76	0x3f80abb7	1.0052403
77	0x3f80a967	1.0051697
78	0x3f7fa923	0.9986746
79	0x3f7fddbc	0.99947715
80	0x3f800f9c	1.0004764
81	0x3f7f81dc	0.99807525
82	0x3f80299a	1.0012696
83	0x3f7f4417	0.9971327
84	0x3f7f0d23	0.9962942
85	0x3f800000	1.0
86	0x3f7f58ae	0.9974469
87	0x3f7f47fe	0.99719226
88	0x3f823003	1.0170902
89	0x3f8051f7	1.0025014
90	0x3f7f309c	0.9968355
91	0x3f80bae2	1.0057032
92	0x3f7eb0ec	0.9948871
93	0x3f7ef965	0.99599296
94	0x3f7ecd23	0.99531764
95	0x3f7f915d	0.9983118
96	0x3f80ce3c	1.0062938
97	0x3f7f494d	0.99721223
98	0x3f7da908	0.99086046
99	0x3f7e8b15	0.9943097
100	0x3f806d49	1.0033351
101	0x3f80637a	1.0030358
102	0x3f7e4035	0.9931672
103	0x3f80d454	1.0064797
104	0x3f8058da	1.0027115
105	0x3f7d63b1	0.9898024
106	0x3f800000	1.0
107	0x3f80ecab	1.0072225
108	0x3f7e56b3	0.9935104
109	0x3f800000	1.0
110	0x3f7e7a6b	0.99405545
111	0x3f804425	1.0020796
112	0x3f80229b	1.0010561
113	0x3f8000b3	1.0000213
114	0x3f809937	1.0046757
115	0x3f800000	1.0
116	0x3f8133c5	1.0093924
117	0x3f7e87e2	0.9942609
118	0x3f8034c1	1.0016099
119	0x3f7fc780	0.9991379
120	0x3f802256	1.0010478
121	0x3f7fb2e9	0.9988237
122	0x3f7f9a72	0.9984504
123	0x3f7fd71b	0.999376
124	0x3f7feb1b	0.9996812
125	0x3f809975	1.0046831
126	0x3f812de7	1.0092133
127	0x3f81511d	1.0102879

layer_norm2.bias f4 [128]
0	0x3b075873	0.0020652085
1	0xbb52929e	-0.0032130848
2	0xb8d8b8f8	-0.00010334136
3	0xbaa18574	-0.0012323097
4	0x3b30b677	0.0026964226
5	0x00000000	0.0
6	0x3b9bb7ae	0.004752121
7	0xbb227fa4	-0.0024795318
8	0x00000000	0.0
9	0xbb17e6da	-0.002317837
10	0x3b96d836	0.004603411
11	0xba52f3a0	-0.0008047167
12	0x3c65938c	0.014012229
13	0x388e133f	6.7746725e-05
14	0xbb00ca29	-0.0019651747
15	0x3bb90373	0.005646163
16	0x3a6bbbec	0.0008992541
17	0x00000000	0.0
18	0xbaafc6f1	-0.001341073
19	0x3835a653	4.3308664e-05
20	0x3bb11d11	0.0054050763
21	0xbbcbee45	-0.0062234723
22	0x3aec70b3	0.0018038958
23	0x3b3c6321	0.002874561
24	0x3c4d19db	0.012518371
25	0xba2b16e0	-0.0006526541
26	0xbbb81163	-0.005617307
27	0x3a9adafa	0.0011814528
28	0xb8ce5aa3	-9.839728e-05
29	0x38924c50	6.976037e-05
30	0xb981ac53	-0.0002473319
31	0x3a4fbb3e	0.00079243246
32	0x3b83f078	0.004026469
33	0xb9b24b1e	-0.00034006772
34	0xba880a92	-0.0010379127
35	0xb9a01e9d	-0.00030540387
36	0xbb935fab	-0.0044974885
37	0xbb3ce072	-0.0028820303
38	0x3c086610	0.008325115
39	0x3b9c990f	0.004778988
40	0xb9f6862d	-0.00047020745
41	0x3ad867a9	0.0016510385
42	0xba75d424	-0.000937762
43	0xb9485b4f	-0.00019107501
44	0x00000000	0.0
45	0xbb4bcf5a	-0.0031098933
46	0x38dacb80	0.00010432955
47	0xbbac0b71	-0.0052503874
48	0x39679f34	0.00022089184
49	0xbb0bc17a	-0.0021325038
50	0xbaa5eb69	-0.0012658659
51	0x3b83e11e	0.004024639
52	0xbaa8e8c9	-0.0012886758
53	0x3bd234f9	0.0064150062
54	0x3b04be3b	0.0020254988
55	0x3c3e8778	0.011628978
56	0xbb7e1d76	-0.0038774884
57	0xbb81ee76	-0.0039651943
58	0x3b9d57d5	0.00480173
59	0xba251860	-0.00062978826
60	0xbb772a8f	-0.0037714576
61	0x3afeca22	0.0019438902
62	0xbb9e25f5	-0.004826302
63	0x3b614f1d	0.003437943
64	0x3c3ca0bd	0.011512932
65	0xbb6103ac	-0.0034334464
66	0x3c390911	0.0112936655
67	0x3c025fb7	0.0079573905
68	0xbbde916c	-0.006792238
69	0xbb7c1e50	-0.0038470216
70	0x39e09aab	0.00042839846
71	0x3ca548d0	0.020176321
72	0x3ba4f3ff	0.0050339694
73	0x00000000	0.0
74	0xb991b40b	-0.00027790698
75	0xbba80373	-0.0051273643
76	0x3be4fe0e	0.0069882935
77	0x3af68a00	0.0018809438
78	0xba8d3e50	-0.0010776017
79	0xba8a4ffd	-0.0010552403
80	0xbb039c49	-0.0020082167
81	0x3aae76e4	0.0013310579
82	0xb994829e	-0.00028326077
83	0x3a31d6ed	0.00067840406
84	0xbaa0ab26	-0.0012258037
85	0x00000000	0.0
86	0xba0c4aba	-0.00053517113
87	0xbbb5b9b9	-0.0055458215
88	0x3c4e6d17	0.012599251
89	0x3a868343	0.0010262508
90	0xbba3d2bf	-0.004999488
91	0x3b16686c	0.0022950424
92	0xbb2f586c	-0.0026755584
93	0xbb6e602c	-0.003637324
94	0xbbcc9754	-0.0062436257
95	0xba657da8	-0.0008754381
96	0x3b968dd8	0.004594546
97	0x3a161573	0.0005725242
98	0xbc15428a	-0.009110102
99	0xbc0b4090	-0.00849928
100	0x3b2f6675	0.002676395
101	0x3a390a9a	0.00070587697
102	0xbbdedbf4	-0.006801123
103	0x3c2fe797	0.010736368
104	0x3b36a23a	0.002786769
105	0xbc3c2560	-0.01148352
106	0x00000000	0.0
107	0x3c0a278a	0.008432278
108	0xbbbfc7c8	-0.005852673
109	0x00000000	0.0
110	0xbbfe0ae7	-0.0077527645
111	0x39164c41	0.00014333522
112	0x3a1a2c2d	0.00058812165
113	0x3ba5b823	0.005057351
114	0x3c1ce7b4	0.009576727
115	0x00000000	0.0
116	0x3c277eec	0.010223132
117	0xbbed90b6	-0.007249917
118	0x3a8abeeb	0.0010585462
119	0xba183cfd	-0.0005807428
120	0x3a52f628	0.00080475444
121	0xbb090ee8	-0.0020913426
122	0x3b97a2f2	0.004627579
123	0xbb1bdeca	-0.0023783916
124	0xbbc35bb5	-0.00596186
125	0x3b826666	0.003979492
126	0x3c132268	0.008980371
127	0x3c012967	0.007883406
