rl_energy_manager_20250326_0852/models/checkpoint_100/critic.pth (torch, 239522 bytes, 26 tensors)

q1_layer1.weight f4 [128, 27]
-0.20300604 -0.010037818 -0.11129496 -0.20067553 -0.042479947 -0.1391694 0.022930082 -0.04326868
-0.062015776 -0.024103306 0.08421288 -0.03801505 0.098545015 -0.13210592 0.09480629 -0.06180341
0.16377187 -0.16924618 0.035173394 -0.06343074 0.06887256 -0.012118617 0.12249842 0.04455319
-0.02826763 0.012998089 -0.012635054 0.06561899 0.004139164 0.14462712 -0.038828086 -0.026332332
0.07574851 0.023683373 0.19256195 0.054101665 -0.20033953 -0.02477248 0.089159735 -0.07146862
0.0055359625 -0.052330088 0.01568853 -0.17229481 -0.092547186 0.11216997 0.047913693 -0.087612875
0.047017284 -0.0018991344 0.05460627 0.022697765 0.039612822 0.0007902746 0.046635453 0.096473664
0.1460838 0.1369019 0.09896681 0.12948097 -0.005257085 0.19192383 -0.038236424 0.038474694
-0.080803834 0.0814258 0.081808135 0.07225456 0.07565523 -0.16766581 -0.06390887 0.0740617
0.098045535 0.08659213 -0.036450524 0.04292214 -0.056259166 -0.03327113 0.032744717 -0.029667031
-0.031375725 -0.2228375 -0.041371543 -0.27937353 -0.3266801 -0.14682943 -0.07742429 -0.13283314
-0.061069194 -0.20830393 0.08596684 0.08761599 0.11383299 0.08582824 0.00040541455 -0.032850984
0.010953399 0.022995088 -0.08226873 -0.09200199 0.00985644 0.10267044 -0.07569978 0.100052126
-0.0067586564 -0.12008171 0.04936781 0.05394457 0.02233824 0.014774717 0.004615448 0.007083927
0.10373715 0.06909434 0.11661225 0.014387758 -0.016026532 -0.22459382 -0.00855548 0.093951516
-0.12177565 0.016105443 -0.060879823 0.0354231 0.045077085 0.22572443 0.114237025 0.064312994
0.045954205 -0.090127885 -0.1317077 0.10609071 -0.08379118 0.12796053 -0.10637018 0.018121544
0.020018406 -0.09099542 -0.025311468 -0.07097523 0.1748912 0.027518831 0.07932644 -0.018255737
-0.023047509 -0.047996268 0.017175784 -0.0057652867 0.17732768 0.01363636 -0.059189294 -0.079485305
0.13654928 0.085943304 0.028016537 0.010674965 -0.021708084 -0.00617973 0.048896063 0.0011114768
0.053577445 -0.06734814 -0.26035136 -0.17311981 -0.0038269432 -0.22651146 -0.13569827 -0.035567325
-0.16156572 -0.18844669 -0.06841188 -0.00070634653 0.05497421 0.09670577 0.17393239 -0.072732925
-0.08229275 -0.1100136 0.04013947 -0.06833977 -0.017043633 0.06964217 -0.06982661 0.0061090165
-0.04353332 0.080556385 -0.05876825 -0.11797328 0.033039153 -0.19040945 0.04759921 -0.12967798
-0.17095768 -0.20213683 -0.17962103 0.05338981 -0.111983776 -0.1400462 -0.028341953 0.07723826
0.0021338658 -0.15569854 -0.013429376 -0.02964437 0.01467705 -0.12458662 -0.1437496 -0.1305699
-0.0314954 -0.105984956 0.05401002 0.04042189 -0.028122043 0.03560443 -0.046774942 0.106982015
-0.07030655 -0.14673312 -0.05905524 -0.032687496 -0.029081086 0.051542588 -0.021602057 -0.06464147
-0.046436366 -0.025007153 -0.040037684 0.10234717 0.017851291 -0.10666639 -0.032789797 -0.15517266
0.0045076953 0.076786324 0.083628185 -0.17623276 -0.0048358887 -0.048903078 0.013803602 0.062079947
-0.16446818 -0.011104582 -0.040652957 -0.2309535 -0.04256855 0.031081455 -0.10150134 -0.12312345
-0.17907305 -0.07644319 0.16658427 -0.026896494 -0.12334949 0.019518849 -0.022458423 0.04466451
00000000: d1e0 4fbe a975 24bc 9dee e3bd e37d 4dbe
00000010: 74ff 2dbd 6c82 0ebe ded7 bb3c 803a 31bd
00000020: 4104 7ebd 4c74 c5bc cd77 ac3d abb5 1bbd
00000030: f8d1 c93d c646 07be cd29 c23d 9325 7dbd
00000040: d0b3 273e df4e 2dbe fa11 103d fae7 81bd
00000050: 0f0d 8d3d 2a8d 46bc 74e0 fa3d 687d 363d
00000060: 8491 e7bc f0f5 543c 4203 4fbc 4063 863d
00000070: d3a1 873b 2219 143e 330a 1fbd e7b6 d7bc
00000080: 0922 9b3d a203 c23c f62e 453e b599 5d3d
00000090: ce25 4dbe a8ef cabc 6199 b63d 245e 92bd
000000a0: 0567 b53b 1358 56bd 3b85 803c 0d6e 30be
000000b0: 6189 bdbd 5fb9 e53d 2641 443d 616e b3bd
000000c0: 3295 403d 60ec f8ba d3aa 5f3d aaf0 b93c
000000d0: 0e41 223d 6e2a 4f3a d104 3f3d fc93 c53d
000000e0: fe96 153e 0330 0c3e 1caf ca3d a996 043e
000000f0: a043 acbb ae87 443e cc9d 1cbd a497 1d3d
00000100: 7b7c a5bd 92c2 a63d 068b a73d 33fa 933d
00000110: 21f1 9a3d 96b0 2bbe a7e2 82bd a9ad 973d
00000120: 19cc c83d 3757 b13d 254d 15bd 20cf 2f3d
00000130: 0370 66bd 4f47 08bd 531f 063d 4608 f3bc
00000140: d583 00bd 832f 64be 3575 29bd 0c0a 8fbe
00000150: 9d42 a7be 745a 16be a090 9ebd 6905 08be
00000160: b123 7abd a04d 55be 620f b03d 0370 b33d
00000170: 4521 e93d b7c6 af3d d28d d439 c18e 06bd
00000180: e375 333c 3260 bc3c 827c a8bd 8a6b bcbd
00000190: e87c 213c e144 d23d 7c08 9bbd 21e8 cc3d
000001a0: b877 ddbb 66ed f5bd e735 4a3d fbf4 5c3d
000001b0: affe b63c a811 723c 2f3d 973b 4920 e83b
000001c0: 2574 d43d 5581 8d3d 67d2 ee3d a2ba 6b3c
000001d0: 134a 83bc ecfb 65be 492c 0cbc a769 c03d
000001e0: 8365 f9bd 90ef 833c 1f5d 79bd d017 113d
000001f0: c0a2 383d 4e24 673e 1af5 e93d 88b6 833d
00000200: 7a3a 3c3d f894 b8bd 62de 06be 1646 d93d
00000210: b69a abbd 1608 033e 9cd8 d9bd a273 943c
00000220: a4fd a33c cf5b babd ff59 cfbc 765b 91bd
00000230: ae16 333e 2c6f e13c e775 a23d 0e8d 95bc
00000240: 21ce bcbc bc97 44bd 3bb4 8c3c bbea bcbb
00000250: 6395 353e 0a6b 5f3c 7970 72bd 31c9 a2bd
00000260: 93d3 0b3e 0b03 b03d f082 e53c 0ce6 2e3c
00000270: 27d5 b1bc 557f cabb 3d47 483d f9ae 913a
00000280: 0674 5b3d d2ed 89bd c64c 85be 5246 31be
00000290: 74cd 7abb 9ff2 67be 7df4 0abe 0baf 11bd
000002a0: 7c71 25be 2bf8 40be 871b 8cbd 1d2a 39ba
000002b0: a32c 613d ad0d c63d 551b 323e 00f5 94bd
000002c0: 1a89 a8bd cf4e e1bd 4969 243d b9f5 8bbd
000002d0: 179f 8bbc 8ea0 8e3d 4101 8fbd 252e c83b
000002e0: ff4f 32bd bffa a43d fab6 70bd fa9b f1bd
000002f0: 1054 073d b2fa 42be 64f7 423d 4eca 04be
00000300: 880f 2fbe f5fc 4ebe 93ee 37be 46af 5a3d
00000310: c057 e5bd 4568 0fbe 622d e8bc 182f 9e3d
00000320: 54d8 0b3b 706f 1fbe e306 5cbc c0d8 f2bc
00000330: 0278 703c 4527 ffbd 1833 13be 1eb4 05be
00000340: 5201 01bd a40e d9bd 9c39 5d3d 6c91 253d
00000350: 3360 e6bc f3d5 113d 1597 3fbd 6319 db3d
00000360: e1fc 8fbd 3541 16be e8e3 71bd 53e3 05bd
00000370: 753b eebc 521e 533d ccf6 b0bc bf62 84bd
00000380: 0f34 3ebd cddb ccbc 8efe 23bd 659b d13d
00000390: df3c 923c e973 dabd 984e 06bd 95e5 1ebe
000003a0: 4ab5 933b 2642 9d3d 4145 ab3d 5c76 34be
000003b0: 6076 9ebb 984e 48bd 8128 623c 8b47 7e3d
000003c0: 596a 28be feef 35bc b783 26bd 137f 6cbe
000003d0: 5c5c 2ebd 899e fe3c efdf cfbd 2628 fcbd
000003e0: ed5e 37be 3f8e 9cbd 1195 2a3e 0956 dcbc
000003f0: a89e fcbd fee5 9f3c bafa b7bc 22f2 363d

q1_layer1.bias f4 [128]
-0.08077887 0.004808631 0.08291628 -0.1078411 0.034199316 0.015118424 -0.11507072 -0.086227275
-0.030743113 -0.06962833 -0.06163244 -0.018929515 -0.0556261 -0.031786952 -0.0637145 0.09942038
0.0922685 -0.029438293 -0.017369052 -0.034585286 -0.046062954 -0.08576809 0.06056052 -0.03514597
0.010396329 0.06042045 0.035361674 -0.0658041 -0.059380747 0.057012517 0.05012808 -0.065167844
0.0036569661 0.02532249 -0.09546914 -0.058661312 -0.04098223 -0.06739853 -0.0838811 0.040836684
0.077103496 -0.029557755 0.013966067 0.10290855 -0.04320696 -0.047688127 0.082680844 -0.06584786
0.06102999 -0.048740666 -0.061828274 -0.03876605 -0.08116279 -0.06687774 -0.035621937 0.019777782
-0.06968343 -0.072252706 0.037545368 0.024045605 0.017649291 -0.04225188 -0.013533443 -0.065954275
-0.0455795 -0.031625636 -0.043880317 -0.0070739537 -0.012025903 -0.06490285 -0.014993669 0.07262897
0.05048043 0.050856538 -0.053331144 0.08037302 -0.026780445 0.01993803 -0.058417767 -0.070956886
-0.099558085 -0.03162791 -0.06861822 0.06576879 0.06658736 0.05624399 0.015553408 -0.011903294
0.07531263 -0.0106534 -0.038742345 -0.06673224 -0.08390929 -0.027083391 0.06739649 -0.00079121074
0.07956929 -0.063963234 0.07895498 -0.07901507 -0.061372496 -0.022325752 0.061700776 0.030441413
-0.0571913 -0.016550649 -0.074161045 0.066341154 0.0058458066 0.048853662 0.031545796 0.036359258
-0.057566654 -0.021303937 0.06771237 -0.083733924 0.022409597 -0.053043447 -0.019218044 -0.077828735
-0.016339608 0.03432662 -0.053202163 0.109371886 0.07888811 -0.00786982 0.07020418 -0.06760987
00000000: 646f a5bd b891 9d3b 03d0 a93d cbdb dcbd
00000010: 9514 0c3d 44b3 773c 33aa ebbd ed97 b0bd
00000020: fbd8 fbbc 4c99 8ebd 4c72 7cbd 1212 9bbc
00000030: 32d8 63bd 0933 02bd bf7c 82bd ea9c cb3d
00000040: 44f7 bc3d 9328 f1bc 8b49 8ebc 4da9 0dbd
00000050: 82ac 3cbd 2ea7 afbd 4f0e 783d 38f5 0fbd
00000060: 5d55 2a3c 6f7b 773d 67d7 103d 4dc4 86bd
00000070: 3a39 73bd f585 693d 1a53 4d3d b876 85bd
00000080: b6a9 6f3b 1c71 cf3c 5385 c3bd d846 70bd
00000090: fcdc 27bd 3e08 8abd dbc9 abbd 5e44 273d
000000a0: 70e8 9d3d 1b23 f2bc eed1 643c b8c1 d23d
000000b0: c8f9 30bd a054 43bd 9354 a93d 3edb 86bd
000000c0: 95fa 793d 4ba4 47bd a53f 7dbd 26c9 1ebd
000000d0: ad38 a6bd 32f7 88bd 4fe8 11bd 0405 a23c
000000e0: 30b6 8ebd 3af9 93bd 2cc9 193d 4afb c43c
000000f0: 3f95 903c 4f10 2dbd 60bb 5dbc 0913 87bd
00000100: 92b1 3abd e289 01bd d9bb 33bd a0cc e7bb
00000110: 4b08 45bc c9eb 84bd 02a8 75bc 7fbe 943d
00000120: 91c4 4e3d f24e 503d c271 5abd 9c9a a43d
00000130: aa62 dbbc 1455 a33c 7847 6fbd d851 91bd
00000140: 1ce5 cbbd 448c 01bd b687 8cbd cab1 863d
00000150: f45e 883d 1960 663d b9d3 7e3c 0906 43bc
00000160: 823d 9a3d 998b 2ebc 4bb0 1ebd eaaa 88bd
00000170: a2d8 abbd fddd ddbc 2c07 8a3d 4169 4fba
00000180: 39f5 a23d 28ff 82bd 26b3 a13d a7d2 a1bd
00000190: ba61 7bbd 7fe4 b6bc f4b9 7c3d 4560 f93c
000001a0: 6d41 6abd 3a95 87bc bfe1 97bd dfdd 873d
000001b0: 2e8e bf3b c71a 483d 2a36 013d 72ed 143d
000001c0: 03cb 6bbd 9885 aebc c8ac 8a3d b17c abbd
000001d0: 5594 b73c 1644 59bd 296f 9dbc ac64 9fbd
000001e0: a4da 85bc 129a 0c3d 83ea 59bd 5efe df3d
000001f0: 1790 a13d 6bf0 00bc 36c7 8f3d 0b77 8abd

q1_layer2.weight f4 [128, 128]
0.0142352395 -0.11753235 0.072972655 -0.019452298 0.08336359 0.09270873 -0.021879436 0.12268744
0.13239157 0.020808978 0.0049974606 -0.058176205 0.06473833 -0.07639184 0.027829224 0.027380422
0.19012383 0.010562049 0.10714991 0.08127107 0.0923767 0.10567379 -0.07813377 0.0018379875
-0.024672873 0.06346352 0.028181287 0.0016957659 -0.059423078 -0.08790729 0.12313082 0.1264446
0.13554606 0.114222094 0.16154528 0.01692005 0.066319846 -0.2831973 0.037667006 0.1376564
-0.051530622 0.013549524 -0.0012699327 0.12593342 -0.03713923 0.01898912 -0.022447888 0.028069919
0.08376325 0.019002156 0.053360153 -0.0642816 -0.03359514 -0.015807947 -0.05966709 0.047602028
0.053573616 0.014303041 0.12535067 0.0149635 0.096767426 0.08196987 0.08373653 -0.14792931
0.19521935 -0.08884709 0.12786695 0.10259998 -0.043041073 0.069992855 0.052626397 0.056785416
0.12374182 -0.0790494 -0.06132476 0.15878272 0.08908967 -0.0730437 -0.064572126 -0.015542128
0.01507771 -0.043046016 0.0033224353 0.04375969 0.048793446 0.06785515 0.08283867 -0.01643636
0.047829915 0.04077178 -0.12546034 0.031115832 -0.025837312 -0.008919916 0.10806632 -0.010087789
0.17812411 0.008523365 -0.0133707365 -0.06165996 -0.090107605 -0.00934417 -0.09056388 0.067492425
0.04473086 0.050200257 0.050578184 0.17688946 0.032762773 0.13000512 0.10042426 -0.04823029
-0.06845704 0.039715003 0.17119516 0.031240053 0.03221301 0.12911962 0.06833219 -0.059881393
-0.0060848077 -0.11171373 0.051564734 0.16187145 0.20806012 -0.021133963 0.071128935 0.0934826
-8.914314e-05 0.11884865 0.042201675 0.035830464 0.12843409 0.11826605 0.14642489 0.076677285
0.03196419 0.11238856 0.06027922 0.08639616 -0.08326109 0.15894148 0.033409607 0.193484
0.051793285 -0.07150669 0.11823927 0.056896348 0.10855516 0.018324887 0.10650932 0.01255189
-0.011201104 0.07322696 0.07135332 -0.013618378 -0.07331967 0.0071957163 0.09195202 -0.026782747
-0.15138893 -0.03714509 -0.09110095 0.02673468 -0.067905545 0.021641806 -0.1140296 0.040456973
0.26972574 0.09039784 0.010412893 0.14911275 0.050050143 0.08463575 0.05706051 -0.08678769
0.0970256 0.01735192 0.0058253673 0.17850918 0.060229674 -0.14471695 0.087595776 0.09246546
-0.019355629 0.013849264 0.025728008 0.054989494 0.0682723 0.017928934 -0.0074723423 -0.044885047
-0.09691314 0.15858011 0.07934078 -0.14064787 0.016026955 0.017258337 0.07177786 0.07858034
0.093259454 0.03329165 -0.08774905 0.10016543 -0.0019288624 0.0029001848 0.05463576 0.16260788
-0.13062626 -0.04379467 -0.012525901 0.023552323 -0.00016740781 0.042409968 0.12948446 0.06334149
-0.08552199 0.06861804 -0.019435521 -0.021648312 0.039292924 -0.017236428 0.06414768 0.05261602
0.07983227 0.05721896 0.2024379 0.059878163 0.029232737 -0.007585178 -0.13906506 -0.0072268723
-0.07386367 0.10646684 0.011415145 -0.028933687 -0.08496343 0.0053811497 0.1975013 0.060995415
-0.10225571 0.012303617 0.07986341 0.011217722 0.22461474 0.029604992 -0.071633086 -0.07936789
0.0049563344 0.083105564 0.002869809 0.09907597 0.12760143 -0.072463885 -0.10591146 0.06801399
00000000: ec3a 693c cdb4 f0bd b072 953d 6d5a 9fbc
00000010: 88ba aa3d 13de bd3d 813c b3bc 8d43 fb3d
00000020: a891 073e 9777 aa3c bdc1 a33b 2c4a 6ebd
00000030: 8895 843d 5373 9cbd 1dfa e33c e84c e03c
00000040: d2af 423e 720c 2d3c 6971 db3d 7271 a63d
00000050: ff2f bd3d 806b d83d 9904 a0bd a0e8 f03a
00000060: c41e cabc 29f9 813d 71dc e63c 7644 de3a
00000070: 9d65 73bd bd08 b4bd 032c fc3d b17a 013e
00000080: 96cc 0a3e 46ed e93d 206c 253e eb9b 8a3c
00000090: b3d2 873d 3dff 90be b848 1a3d cdf5 0c3e
000000a0: c611 53bd d3fe 5d3c df73 a6ba b1f4 003e
000000b0: 4e1f 18bd 128f 9b3c a2e4 b7bc e3f2 e53c
000000c0: 118c ab3d 69aa 9b3c 2d90 5a3d 12a6 83bd
000000d0: 0f9b 09bd ab7f 81bc 7b65 74bd 58fa 423d
000000e0: 0270 5b3d 4d57 6a3c ed5b 003e 7829 753c
000000f0: 002e c63d d2df a73d 0f7e ab3d c87a 17be
00000100: 95e7 473e 77f5 b5bd 8eef 023e f01f d23d
00000110: d64b 30bd 6a58 8f3d c78e 573d d397 683d
00000120: 5a6c fd3d a7e4 a1bd ac2f 7bbd f097 223e
00000130: a574 b63d ef97 95bd 643e 84bd 69a4 7ebc
00000140: 8008 773c 0551 30bd 37bd 593b 5c3d 333d
00000150: a3db 473d a4f7 8a3d 52a7 a93d 8ca5 86bc
00000160: 4de9 433d 4f00 273d ad78 00be a1e6 fe3c
00000170: c5a8 d3bc d724 12bc e051 dd3d 4147 25bc
00000180: 2b66 363e 95a5 0b3c ef10 5bbc 278f 7cbd
00000190: 568a b8bd 4a18 19bc 8e79 b9bd 7839 8a3d
000001a0: b537 373d c99e 4d3d 122b 4f3d 8322 353e
000001b0: 4232 063d 1020 053e 3cab cd3d 208d 45bd
000001c0: 3433 8cbd 33ac 223d c94d 2f3e 24eb ff3c
000001d0: caf1 033d ef37 043e bff1 8b3d 3146 75bd
000001e0: 1163 c7bb 2bca e4bd 8b35 533d a1c1 253e
000001f0: b60d 553e 2221 adbc 0cac 913d ce73 bf3d
00000200: 5cf2 bab8 ec66 f33d aadb 2c3d f7c2 123d
00000210: 3a84 033e 7935 f23d 68f0 153e fb08 9d3d
00000220: e2ec 023d f92b e63d 58e7 763d 78f0 b03d
00000230: ca84 aabd 8ec1 223e 83d8 083d ab20 463e
00000240: 3225 543d 1972 92bd 6e27 f23d 250c 693d
00000250: 2b52 de3d 131e 963c 8f21 da3d 71a6 4d3c
00000260: d684 37bc 04f8 953d b021 923d 9e1f 5fbc
00000270: a028 96bd 0bca eb3b 5751 bc3d 7e67 dbbc
00000280: b305 1bbe 7325 18bd 2393 babd b002 db3c
00000290: 1012 8bbd 284a b13c 5a88 e9bd 36b6 253d
000002a0: 7e19 8a3e 8122 b93d d79a 2a3c 03b1 183e
000002b0: 6101 4d3d 8255 ad3d 48b8 693d bfbd b1bd
000002c0: 5cb5 c63d 9d25 8e3c b9e2 be3b 1ccb 363e
000002d0: 64b3 763d ae30 14be 6a65 b33d 885e bd3d
000002e0: b28f 9ebc 06e8 623c 8bc3 d23c aa3c 613d
000002f0: 59d2 8b3d b3df 923c 8dda f4bb 62d9 37bd
00000300: 657a c6bd d362 223e 6b7d a23d ff05 10be
00000310: f64a 833c 5b61 8d3c 4500 933d bbee a03d
00000320: d0fe be3d d35c 083d c6b5 b3bd 8823 cd3d
00000330: e2d1 fcba 0711 3e3b bfc9 5f3d ae82 263e
00000340: e4c2 05be 0a62 33bd 7039 4dbc cdf0 c03c
00000350: 318a 2fb9 13b6 2d3d 9397 043e 2fb9 813d
00000360: 2726 afbd 9d87 8c3d 3e37 9fbc cd57 b1bc
00000370: 9ef1 203d 6933 8dbc dc5f 833d e583 573d
00000380: 1a7f a33d 6e5e 6a3d e14b 4f3e ce42 753d
00000390: 7e79 ef3c 168d f8bb 1267 0ebe 66cf ecbb
000003a0: d645 97bd 490b da3d 9706 3b3c 5706 edbc
000003b0: 4f01 aebd 5b54 b03b c83d 4a3e 54d6 793d
000003c0: 716b d1bd 1c95 493c 6d8f a33d 89ca 373c
000003d0: 6801 663e 2b86 f23c 5eb4 92bd a28b a2bd
000003e0: bf68 a23b 4033 aa3d 6813 3c3b 58e8 ca3d
000003f0: f3a9 023e f267 94bd 1ce8 d8bd eb4a 8b3d

q1_layer2.bias f4 [128]
0.035738416 0.040262368 -0.04345159 0.018697888 0.0073568393 -0.028847048 -0.040223084 -0.04078288
0.06030528 -0.031478826 0.031896446 -0.044177648 -0.022194922 0.042196892 -0.029540056 0.04961053
0.0073256996 -0.12202916 -0.030148402 0.056827858 -0.024445448 -0.024022855 -0.023638546 0.0070297294
0.030299887 -0.038225114 -0.04214644 0.0016579893 0.046632815 0.0014354432 -0.0919416 -0.042384785
-0.036592152 -0.03414062 -0.039110836 -0.039612625 -0.042825248 -0.0572245 -0.027031014 -0.033621155
0.02103003 0.026023261 0.01129249 0.028753167 -0.023936043 -0.016331876 -0.050348163 -0.034169286
0.026394317 -0.03834395 -0.009045614 0.034971144 -0.021528278 -0.041475073 -0.031120636 -0.036632102
-0.03466421 -0.03208475 -0.07749241 -0.10488741 -0.031905998 -0.029385839 -0.026771478 -0.051121816
-0.08651201 -0.030687694 0.044389747 -0.029078238 0.033952963 -0.068575464 0.03854227 -0.02909072
-0.025192462 -0.036284026 -0.04235427 0.06716789 0.03943354 -0.05161804 -0.02553236 -0.035220213
-0.06739848 0.011994645 -0.0019509607 -0.023340965 -0.11806434 -0.022711841 -0.009508155 -0.032045
-0.036544703 0.03241699 -0.032079536 -0.04494175 -0.03447848 0.020734312 -0.05459867 0.03933944
0.037115887 -0.025257606 -0.04072103 -0.034571223 0.057223987 0.035531014 -0.0016365788 0.03738088
-0.028217336 0.033899676 -0.0115294745 -0.057547387 -0.025910633 0.040287603 -0.008329306 0.05375578
0.05010875 0.02755138 -0.027800944 0.028044648 0.057615887 -0.0314036 0.032658778 -0.013664778
0.0034619486 -0.0075615714 -0.03778563 -0.07625092 0.015429174 -0.03725698 -0.03056478 0.028481519
00000000: 7262 123d 27ea 243d 4bfa 31bd 502c 993c
00000010: a411 f13b a550 ecbc f6c0 24bd f30b 27bd
00000020: ab02 773d f1ef 00bd d9a5 023d 9ff3 34bd
00000030: 20d2 b5bc a6d6 2c3d fdfd f1bc 6934 4b3d
00000040: 6c0c f03b 6dea f9bd c8f9 f6bc 54c4 683d
00000050: d241 c8bc 94cb c4bc a0a5 c1bc a559 e63b
00000060: 7837 f83c f091 1cbd bfa1 2cbd e450 d93a
00000070: 0d02 3f3d 7b25 bc3a e14b bcbd ab9b 2dbd
00000080: a7e1 15bd 09d7 0bbd af32 20bd d940 22bd
00000090: 8769 2fbd 3d64 6abd 2570 ddbc 56b6 09bd
000000a0: 2b47 ac3c bc2e d53c 2304 393c c38b eb3c
000000b0: 8515 c4bc 6dca 85bc e039 4ebd 18f5 0bbd
000000c0: e538 d83c 8c0e 1dbd 0e34 14bc e73d 0f3d
000000d0: 125c b0bc c4e1 29bd b4f0 febc 8b0b 16bd
000000e0: 0ffc 0dbd 4c6b 03bd 57b4 9ebd 36cf d6bd
000000f0: ddaf 02bd 92ba f0bc dc4f dbbc 1c65 51bd
00000100: 352d b1bd c264 fbbc 06d2 353d 7c35 eebc
00000110: 4312 0b3d 4b71 8cbd 80de 1d3d a94f eebc
00000120: 6c60 cebc 8f9e 14bd ac7b 2dbd 528f 893d
00000130: 1085 213d 706d 53bd 3d29 d1bc 1243 10bd
00000140: 3708 8abd 3085 443c 61b7 ffba 8d35 bfbc
00000150: b7cb f1bd 2f0e babc 18c8 1bbc 9e41 03bd
00000160: e6af 15bd adc7 043d d565 03bd d714 38bd
00000170: 4f39 0dbd 01db a93c dba2 5fbd 6522 213d
00000180: d406 183d 0ae9 cebc 18cb 26bd 8e9a 0dbd
00000190: b363 6a3d f888 113d 7982 d6ba b21c 193d
000001a0: 0b28 e7bc 63da 0a3d 1fe6 3cbc cfb6 6bbd
000001b0: 8942 d4bc 9d04 253d a477 08bc 052f 5c3d
000001c0: d53e 4d3d 6fb3 e13c cebe e3bc e4bd e53c
000001d0: a3fe 6b3d 10a1 00bd 36c5 053d 3ce2 5fbc
000001e0: dce1 623b 0fc7 f7bb 1bc5 1abd 7129 9cbd
000001f0: a5ca 7c3c c69a 18bd fd62 fabc 1352 e93c

q1_layer3.weight f4 [64, 128]
-0.13828284 0.14075118 0.03014937 -0.09992561 0.059792258 0.039931078 -0.07964311 -0.051973265
-0.21293019 -0.10765351 -0.20480177 -0.07843495 0.104151145 -0.03889371 -0.041576438 -0.057516456
-0.05655869 0.014256341 0.0657553 -0.113493435 -0.010231884 0.036828015 -0.094658524 0.024551447
0.11349788 -0.09308906 0.05123972 0.062444847 0.038201887 -0.08693605 0.08605464 0.05323948
0.05649166 0.046957564 -0.09002991 -0.13424478 -0.048695747 -0.03184071 -0.122125775 0.027163003
0.045712806 0.0073232995 -0.047480393 -0.086839624 -0.002483704 0.087207265 0.17316557 -0.008071566
-0.01291157 -0.054338496 -0.047552235 0.0440127 0.047598094 0.10368068 0.000336761 -0.06794121
0.10417952 0.077380285 -0.06383001 0.16690978 0.102438614 0.12466223 0.15752709 0.044349745
-0.14847651 -0.0667923 -0.015196656 0.091654636 -0.11860969 -0.08211165 0.13802426 -0.08170787
-0.01496066 -0.045386378 0.023847671 -0.1010227 0.011302093 -0.107739374 -0.04414733 0.09871911
0.0813956 -0.04285745 -0.12635997 -0.09939367 0.003990974 -0.007215609 0.10880225 -0.011345687
0.16840188 -0.022182409 0.06903605 0.1188338 -0.053656675 -0.036960643 -0.026986174 -0.031510584
0.061562467 -0.021343945 0.017727265 0.045973077 -0.036612775 0.0012347263 0.01975463 0.08993825
-0.058043692 -0.08939328 0.07358411 0.047782563 0.063521475 -0.010000692 0.063190185 0.03915689
0.036850978 -0.072046004 -0.103984155 0.0067449226 -0.14158103 0.04000698 -0.06002941 -0.016771033
-0.03558303 0.11193597 -0.03323936 0.0006517604 -0.0025494932 -0.0024768643 0.022072649 0.001995292
0.023440845 0.16356489 0.00027671538 0.08262316 0.20729539 -0.04455378 -0.00877395 -0.008870828
0.04837889 0.09172579 0.11518955 -0.082756154 -0.0057793637 0.11583121 0.05402122 0.07146477
0.088903815 -0.003698086 -0.18560354 0.06624809 0.16643783 -0.017469106 -0.14093435 0.13707751
0.10259301 -0.047736306 -0.025254697 0.04947203 0.10579719 -0.055436604 -0.07891622 0.07363776
-0.048350826 0.07228205 0.1542508 0.059470918 0.08311446 -0.12588942 0.14882833 0.046595793
0.055836707 0.23965608 -0.057304807 0.15907714 0.085938 -0.16288908 -0.018710539 0.033571128
0.032078777 0.023769146 0.013150902 0.020906772 -0.09293023 0.023243584 0.075415485 -0.047567546
0.07273613 0.1118179 0.0794486 -0.059835736 -0.1443319 -0.018191008 0.03089139 -0.05003313
-0.12985498 0.060090825 -0.02650382 -0.07336255 0.13259521 0.023082342 0.14423469 0.11737623
-0.0030907127 -0.12306349 0.09834324 0.06905609 -0.04133289 -0.22826709 -0.03663582 0.07059475
0.18877238 0.026845897 0.044056635 -0.039577354 -0.13140242 -0.071183965 0.008902836 0.022922518
-0.02021336 0.052971292 -0.0773653 -0.003123634 0.016670164 0.05189129 0.1147073 -0.0817114
0.01827194 -0.1195224 -0.032786854 -0.13918664 0.09579513 0.059160296 0.0360607 0.045954768
0.10332309 0.15814905 -0.022873962 0.062345788 -0.009979297 -0.029164752 0.06108447 0.0905889
0.15037623 0.0008828156 0.032866724 0.10573705 0.113485694 0.014997092 -0.017596513 0.057180483
0.14745204 0.101192415 0.10326068 -0.07408198 -0.0017719726 0.26708195 -0.0097183455 -0.022553736
00000000: 049a 0dbe 1421 103e d0fb f63c cca5 ccbd
00000010: bae8 743d c58e 233d ed1b a3bd ebe1 54bd
00000020: 5f0a 5abe 7279 dcbd 8eb7 51be 81a2 a0bd
00000030: 324d d53d 034f 1fbd 0e4c 2abd 6096 6bbd
00000040: 16aa 67bd 6e93 693c b7aa 863d 3f6f e8bd
00000050: a2a3 27bc f9d8 163d 54dc c1bd 1e20 c93c
00000060: 9471 e83d 7aa5 bebd bee0 513d 2bc6 7f3d
00000070: 9579 1c3d 870b b2bd 6a3d b03d a411 5a3d
00000080: cd63 673d 9356 403d 9a61 b8bd 7777 09be
00000090: 3175 47bd 686b 02bd 141d fabd f284 de3c
000000a0: 5a3d 3b3d 4af8 ef3b cd7a 42bd f9d8 b1bd
000000b0: a3c5 22bb b999 b23d 5152 313e 9a3e 04bc
000000c0: 0d8b 53bc 0b92 5ebd 22c6 42bd a946 343d
000000d0: 38f6 423d 8956 d43d 4c8f b039 c324 8bbd
000000e0: 125c d53d 8e79 9e3d 4fb9 82bd 66ea 2a3e
000000f0: 56cb d13d e94e ff3d c84e 213e 14a8 353d
00000100: 3a0a 18be 67ca 88bd 65fb 78bc 6db5 bb3d
00000110: a3e9 f2bd 272a a8bd 3b56 0d3e 7556 a7bd
00000120: 8e1d 75bc 11e7 39bd 315c c33c fde4 cebd
00000130: 6a2c 393c 76a6 dcbd d5d3 34bd 3f2d ca3d
00000140: bdb2 a63d 4b8b 2fbd 8264 01be e98e cbbd
00000150: b7c6 823b ea70 ecbb b7d3 de3d 43e3 39bc
00000160: 8b71 2c3e e2b7 b5bc c662 8d3d 235f f33d
00000170: 1ac7 5bbd 0b64 17bd 1c12 ddbc 3e11 01bd
00000180: ed28 7c3d 7fd9 aebc c538 913c 444e 3c3d
00000190: 47f7 15bd 8ad6 a13a 76d4 a13c 8c31 b83d
000001a0: 39bf 6dbd d313 b7bd 44b3 963d a6b7 433d
000001b0: 8c17 823d f1d9 23bc db69 813d fa62 203d
000001c0: 0df1 163d db8c 93bd a5f5 d4bd 8304 dd3b
000001d0: 9efa 10be 5cde 233d 66e1 75bd 6863 89bc
000001e0: 83bf 11bd b03e e53d ff25 08bd e6da 2a3a
000001f0: 6615 27bb e352 22bb b3d1 b43c 72c3 023b
00000200: 0407 c03c 8e7d 273e 1c14 9139 5536 a93d
00000210: 3e45 543e 067e 36bd 9dc0 0fbc f356 11bc
00000220: f128 463d bbda bb3d 80e8 eb3d 0f7c a9bd
00000230: d160 bdbb ea38 ed3d 5b45 5d3d 1f5c 923d
00000240: 3413 b63d 965b 72bb db0e 3ebe 14ad 873d
00000250: ae6e 2a3e 5f1b 8fbc 1851 10be 0c5e 0c3e
00000260: 491c d23d 2587 43bd f0e2 cebc 2fa3 4a3d
00000270: 32ac d83d 7e11 63bd d49e a1bd 65cf 963d
00000280: 840b 46bd 9d08 943d ecf3 1d3e c797 733d
00000290: ea37 aa3d 28e9 00be 7466 183e 3bdb 3e3d
000002a0: 08b5 643d 6768 753e 72b8 6abd 1ee5 223e
000002b0: 4300 b03d 65cc 26be d846 99bc e181 093d
000002c0: 0965 033d 83b7 c23c e276 573c ae44 ab3c
000002d0: 3452 bebd 5469 be3c 6f73 9a3d 30d6 42bd
000002e0: aef6 943d c800 e53d f3b5 a23d 5116 75bd
000002f0: becb 13be 4f05 95bc f10f fd3c 8aef 4cbd
00000300: b4f8 04be cc21 763d 8a1e d9bc 1b3f 96bd
00000310: 0ac7 073e 2e17 bd3c 42b2 133e f362 f03d
00000320: 8e8d 4abb b608 fcbd 2e68 c93d 486d 8d3d
00000330: ad4c 29bd d9be 69be 710f 16bd fb93 903d
00000340: 8c4d 413e edeb db3c bb74 343d dd1b 22bd
00000350: 5b8e 06be e6c8 91bd 33dd 113c 01c8 bb3c
00000360: 7d96 a5bc 6df8 583d b371 9ebd e2b5 4cbb
00000370: de8f 883c f68b 543d a9eb ea3d 4e58 a7bd
00000380: 09af 953c 29c8 f4bd 824b 06bd f186 0ebe
00000390: 3d30 c43d 1152 723d 62b4 133d 113b 3c3d
000003a0: 0e9b d33d d3f1 213e 2d62 bbbc 4c5e 7f3d
000003b0: 3580 23bc ebea eebc b633 7a3d ac86 b93d
000003c0: 3afc 193e c16c 673a 429f 063d ab8c d83d
000003d0: 306b e83d 5db6 753c 9026 90bc 1536 6a3d
000003e0: abfd 163e f83d cf3d 567a d33d 4bb8 97bd
000003f0: 8941 e8ba f7be 883e b239 1fbc 9dc2 b8bc

q1_layer3.bias f4 [64]
-0.0036886453 0.028573845 -0.03280786 0.037265796 -0.021142745 -0.0028389967 -0.01855058 0.027123204
-0.024483545 -0.005577499 -0.023630079 -0.023461847 -0.011289158 -0.017425844 -0.018159293 0.032558814
-0.012219982 0.049118966 -0.02957026 -0.0116012115 -0.010448431 0.06130342 -0.020286435 0.032651763
-0.0223255 -0.02818726 0.035039693 -0.021802578 -0.029143905 0.04493582 -0.020286994 -0.031728122
0.030138582 0.045135744 0.03360374 -0.02190738 -0.015190953 -0.029543214 -0.029456563 -0.022895467
-0.014017083 -0.025995513 -0.022519218 -0.024078732 -0.017702213 -0.0073856977 -0.010521754 0.026474833
0.0490461 -0.026653877 -0.02619545 -0.028219352 -0.01625531 -0.007954419 -0.029022269 -0.004534909
0.004055165 0.0219268 -0.02084625 -0.017310752 -0.026036704 -0.013558843 0.040631887 -0.028413652
00000000: 33bd 71bb b213 ea3c 8961 06bd 05a4 183d
00000010: 8d33 adbc 760e 3abb 63f7 97bc 7b31 de3c
00000020: b791 c8bc 74c3 b6bb de93 c1bc 0f33 c0bc
00000030: 29f6 38bc a5c0 8ebc ccc2 94bc 645c 053d
00000040: 5236 48bc f830 493d 543d f2bc 0213 3ebc
00000050: e52f 2bbc 4c19 7b3d bd2f a6bc dbbd 053d
00000060: f8e3 b6bc f8e8 e6bc c885 0f3d 529b b2bc
00000070: 33bf eebc 9f0e 383d e930 a6bc 59f5 01bd
00000080: 30e5 f63c 42e0 383d 13a4 093d 1b77 b3bc
00000090: 7ae3 78bc 9c04 f2bc e44e f1bc 468f bbbc
000000a0: e8a7 65bc 8bf4 d4bc 397a b8bc c340 c5bc
000000b0: 3b04 91bc b903 f2bb 6f63 2cbc c0e1 d83c
000000c0: 90e4 483d 3b59 dabc d797 d6bc 452c e7bc
000000d0: db29 85bc 4053 02bc 1cc0 edbc 9399 94bb
000000e0: 31e1 843b d59f b33c c1c5 aabc 47cf 8dbc
000000f0: ed4a d5bc e925 5ebc 9f6d 263d bfc3 e8bc

q1_layer4.weight f4 [1, 64]
0.028224876 -0.6513404 -0.017500095 -0.601 -0.017697416 -0.20086116 0.031574275 -0.5251271
0.034470893 -0.021726223 -0.064694285 0.13505445 0.010217393 -0.012331422 -0.19862974 -0.79849035
0.17915905 -0.61318374 0.050442066 0.17041288 -0.050377287 -0.63107216 0.07102189 -0.5505915
0.14529675 -0.021523915 -0.7146639 0.09684027 0.08425309 -0.57096213 0.008478427 0.022936467
-0.6001767 -0.5452363 -0.64704674 -0.07801382 0.013939652 -0.0139002595 0.0069278018 -0.008301484
0.048695788 0.09382565 -0.01665841 -0.043811623 0.19874161 -0.0016458037 -0.07743926 -0.5771295
-0.5807728 0.03747102 -0.008691669 0.15091178 0.13870269 -0.070494235 -0.0060829893 -0.011500022
0.12832911 -0.73597175 0.09758149 0.15243226 0.13785402 0.03366203 -0.74026823 -0.033241715
00000000: db37 e73c 3fbe 26bf 5c5c 8fbc 23db 19bf
00000010: 2cfa 90bc 8cae 4dbe 0754 013d bb6e 06bf
00000020: 5a31 0d3d 31fb b1bc 707e 84bd b74b 0a3e
00000030: da66 273c bc09 4abc 9865 4bbe dd69 4cbf
00000040: 7875 373e 9cf9 1cbf 579c 4e3d b780 2e3e
00000050: 6a58 4ebd f28d 21bf ed73 913d 91f3 0cbf
00000060: acc8 143e ec52 b0bc 37f4 36bf 3154 c63d
00000070: e28c ac3d 932a 12bf 1ae9 0a3c 42e5 bb3c
00000080: 2ea5 19bf 9b94 0bbf dba4 25bf b6c5 9fbd
00000090: 2363 643c eabd 63bc 9d02 e33b f302 08bc
000000a0: 3c75 473d aa27 c03d 3877 88bc d173 33bd
000000b0: ec82 4b3e 02b8 d7ba 7a98 9ebd c2be 13bf
000000c0: 87ad 14bf 367b 193d 8167 0ebc 9e88 1a3e
000000d0: 1408 0e3e 485f 90bd d053 c7bb 976a 3cbc
000000e0: b568 033e a568 3cbf ced8 c73d 3417 1c3e
000000f0: 9b29 0d3e 32e1 093d 3882 3dbf 7728 08bd

q1_layer_norm1.weight f4 [128]
0.97622955 1.0119929 1.1074094 0.9755365 0.9795794 0.931615 0.9978783 0.98027265
0.9487725 0.9637619 0.9361715 0.9508555 0.9582212 0.96013117 0.9544249 1.128814
1.1220186 0.9347839 0.95033807 0.9516148 0.9538774 0.9449344 1.0134678 0.94650424
0.9636531 1.0525125 0.96286833 0.9614045 0.9459264 1.0599328 1.0551865 0.95792544
0.9735277 0.9859547 0.93975556 0.9743333 0.93735844 0.94311523 0.95109993 1.0104246
1.0932214 0.9516795 0.9637813 1.1521034 0.94267666 0.98326427 1.0887381 0.9699221
1.0575304 0.96867126 0.9552907 0.95065284 0.96910137 0.9580642 0.92635787 0.97417647
0.92792404 0.9608688 1.0344522 0.99101007 0.99900496 0.951642 0.95308733 0.9574688
0.92901766 0.95267004 0.9320411 0.9697743 0.9540772 0.9814363 0.9555765 1.0516158
1.0087565 1.0471299 0.93651325 1.080891 0.9498662 0.9799048 0.96091723 0.95992696
0.9582153 0.9491236 0.9489412 1.0823941 1.032526 1.0076101 0.9731935 0.9261337
1.0649291 0.9463065 0.92892045 0.9751373 0.932215 0.9604271 1.067481 0.94899756
1.0914502 0.97472626 1.0773923 0.9748045 0.95743704 0.9660853 1.040574 0.9844294
0.97243136 0.96230984 0.9598597 1.0579956 0.98967963 1.026649 0.99943393 1.0030463
0.9691381 0.9293793 1.0687085 0.94659406 0.9835543 0.97560066 0.9464058 0.9612941
0.9457974 1.0132768 0.9411535 1.1508824 1.0825548 0.95746803 1.0025266 0.96886754
00000000: 2eea 793f fc88 813f 97bf 8d3f c3bc 793f
00000010: b7c5 7a3f 527e 6e3f f474 7f3f 26f3 7a3f
00000020: c1e2 723f 1ab9 763f efa8 6f3f 446b 733f
00000030: fc4d 753f 28cb 753f 3155 743f fa7c 903f
00000040: 4e9e 8f3f ff4d 6f3f 5b49 733f 079d 733f
00000050: 4f31 743f 39e7 713f 50b9 813f 1a4e 723f
00000060: f8b1 763f bbb8 863f 8a7e 763f 9b1e 763f
00000070: 3c28 723f e1ab 873f 5a10 873f 9a3a 753f
00000080: 1d39 793f 8767 7c3f d293 703f e86d 793f
00000090: b9f6 6f3f 0070 713f 497b 733f 9855 813f
000000a0: aeee 8b3f 45a1 733f 5fba 763f 2078 933f
000000b0: 4253 713f 35b7 7b3f c55b 8b3f d14c 783f
000000c0: 285d 873f d7fa 773f ee8d 743f fc5d 733f
000000d0: 0717 783f b243 753f ca25 6d3f a163 793f
000000e0: 6e8c 6d3f 7ffb 753f ee68 843f d6b2 7d3f
000000f0: cabe 7f3f cf9e 733f 88fd 733f ad1c 753f
00000100: 1ad4 6d3f 2fe2 733f 3f9a 6e3f 2143 783f
00000110: 673e 743f 693f 7b3f a9a0 743f 599b 863f
00000120: ef1e 813f 5a08 863f 55bf 6f3f a35a 8a3f
00000130: 6e2a 733f 0adb 7a3f acfe 753f c6bd 753f
00000140: 994d 753f c4f9 723f cfed 723f e48b 8a3f
00000150: d029 843f 5ef9 803f 3623 793f 1917 6d3f
00000160: 994f 883f 2541 723f bbcd 6d3f 99a2 793f
00000170: a4a5 6e3f 8dde 753f 38a3 883f 81f1 723f
00000180: a4b4 8b3f a987 793f fee7 893f ca8c 793f
00000190: 981a 753f 5e51 773f 8731 853f 9103 7c3f
000001a0: 43f1 783f f059 763f 5eb9 753f 666c 873f
000001b0: a55b 7d3f 3c69 833f e7da 7f3f d263 803f
000001c0: 6f19 783f cdeb 6d3f 71cb 883f fd53 723f
000001d0: 37ca 7b3f f7c0 793f a747 723f 5f17 763f
000001e0: c71f 723f 0eb3 813f 70ef 703f 1d50 933f
000001f0: 2891 8a3f a01c 753f cb52 803f b407 783f

q1_layer_norm1.bias f4 [128]
-0.017503785 0.03658737 0.11043732 -0.02680795 0.072403006 0.06045696 0.011136592 9.154787e-05
0.03787267 -0.03087386 -0.024387226 0.00309931 -0.023330586 0.010295517 -0.008299582 0.117955215
0.10822489 0.029407801 0.032759517 0.005847331 0.008038287 -0.032015752 0.090131715 0.007623187
0.056474973 0.10526464 0.07325198 -0.014103475 -0.022133488 0.08390978 0.0703538 -0.007786027
0.035915624 0.06488881 -0.022457365 -0.027275087 0.03053727 -0.038881294 0.016507192 0.07210662
0.098621964 0.031297073 0.05177038 0.12529624 0.008507164 0.011508636 0.10387466 -0.028007794
0.09230612 -0.01376504 -0.03416322 -0.024796918 -0.0112590445 -0.002090498 0.011907282 0.058730245
-0.006918583 -0.03610656 0.066543855 0.061251353 0.052324813 -0.014390405 0.021516357 -0.030360023
0.0037364243 0.022701586 -0.024466481 0.012593288 0.05972258 0.013756067 0.0091980295 0.10784036
0.08085089 0.085425615 -0.02271342 0.115117274 0.012454024 0.08009811 -0.024245247 -0.004341001
-0.037699897 0.0090006925 0.0010811322 0.08669294 0.10525914 0.09379071 0.06375186 0.040163234
0.10303955 0.04036673 0.013294739 -0.0015678304 -0.049624424 0.020696811 0.09090005 0.0654495
0.09809293 0.007133094 0.09965408 -0.005381453 0.008114445 0.014801322 0.09533908 0.08457307
-0.002666079 0.0135287875 -0.04768722 0.0939464 0.05571754 0.07250101 0.07980363 0.09012713
-0.025761958 0.025959691 0.08815049 -0.038814433 0.053251892 0.03931354 0.017208114 -0.02645854
0.01877444 0.07866464 0.014601494 0.14033207 0.10324528 0.0344329 0.110222176 -0.028802747
00000000: 1964 8fbc a3dc 153d f62c e23d 599c dbbc
00000010: 0748 943d b8a1 773d 4176 363c 63fd bf38
00000020: 5f20 1b3d 2deb fcbc b8c7 c7bc cb1d 4b3b
00000030: c91f bfbc 87ae 283c f8fa 07bc 8192 f13d
00000040: 03a5 dd3d a1e8 f03c d82e 063d f89a bf3b
00000050: 05b3 033c f322 03bd fa96 b83d edcb f93b
00000060: 4d52 673d fd94 d73d 2205 963d 4312 67bc
00000070: 4a51 b5bc e4d8 ab3d a715 903d ee21 ffbb
00000080: 431c 133d 6de4 843d 82f8 b7bc 0170 dfbc
00000090: 4c29 fa3c fe41 1fbd 173a 873c a3ac 933d
000000a0: 50fa c93d 5c31 003d 2e0d 543d a84d 003e
000000b0: a261 0b3c b88e 3c3c 3dbc d43d 9a70 e5bc
000000c0: fe0a bd3d c386 61bc bcee 0bbd e822 cbbc
000000d0: db77 38bc bd00 09bb c316 433c 208f 703d
000000e0: 48b5 e2bb 79e4 13bd 2548 883d b3e2 7a3d
000000f0: 8b52 563d bcc5 6bbc 1243 b03c 95b5 f8bc
00000100: ccde 743b adf8 b93c ee6d c8bc 1454 4e3c
00000110: aa9f 743d 2061 613c 55b3 163c 68db dc3d
00000120: 2795 a53d a0f3 ae3d 7f11 babc 9bc2 eb3d
00000130: f60b 4c3c 7a0a a43d f89d c6bc f53e 8ebb
00000140: 356b 1abd a477 133c c7b4 8d3a 118c b13d
00000150: 1b92 d73d 5815 c03d 5690 823d 3482 243d
00000160: 6606 d33d 9657 253d 2dd2 593c a97f cdba
00000170: fb42 4bbd 5c8c a93c ce29 ba3d 630a 863d
00000180: f2e4 c83d bbbc e93b 7017 cc3d e656 b0bb
00000190: 73f2 043c 3e81 723c 2341 c33d a534 ad3d
000001a0: 62b9 2ebb d9a7 5d3c ad53 43bd f866 c03d
000001b0: 1338 643d 697b 943d 1670 a33d 9394 b83d
000001c0: be0a d3bc 6ba9 d43c 3e88 b43d e2fb 1ebd
000001d0: a81e 5a3d 3c07 213d 08f8 8c3c 94bf d8bc
000001e0: dbcc 993c ed1a a13d 1b3b 6f3c 36b3 0f3e
000001f0: 4372 d33d 8309 0d3d 2abc e13d bdf3 ebbc

q1_layer_norm2.weight f4 [128]
1.0342847 1.0454265 0.9890657 1.0030954 0.90576553 0.9932033 0.9690709 0.98722154
1.1065515 0.9821273 1.0284703 0.97519374 0.95856315 1.0516367 0.9760678 1.0828093
0.9447715 1.0008215 0.9829586 1.0737131 0.99820143 0.98110473 0.9863514 0.90614325
1.0071778 0.9822498 0.9896191 0.92777145 1.0383807 0.92966294 1.0020508 0.98926026
0.9933733 0.9695785 0.99026644 0.9742018 0.9754029 0.98990494 0.9807178 0.98501456
0.9797853 0.9973504 0.96627074 0.9568305 0.98564225 0.9453834 0.98971903 0.9718046
0.9939876 0.98896134 0.95969725 1.0228833 0.9832183 0.9911269 0.98364365 0.96554315
0.98320884 0.9893231 0.99424547 1.003299 0.99052316 0.9867462 0.97984385 0.98474747
0.99929416 0.975972 1.0188868 0.98471975 0.99476784 1.0077801 1.0150118 0.9965713
0.9788826 0.99179 0.9636206 1.1049069 1.0191996 0.99824613 0.9885063 0.9903193
0.9937765 0.94861245 0.9690433 0.9788796 1.0022513 0.9663567 0.89833033 0.99092984
0.98998433 1.0231642 0.9816878 0.9789958 1.0008222 1.0024527 0.9943114 1.015703
1.0340589 0.9955118 0.9899985 0.98877054 1.0578535 1.0261897 0.9384165 1.0489323
0.98794913 1.0116996 0.9495669 0.99330735 0.9602385 0.98808956 0.94235677 1.0837226
1.0987434 1.0081713 0.9857416 0.99975497 1.0694385 0.9983258 1.0386605 0.9412181
0.9614812 0.94517595 0.9703439 0.9930308 0.88776755 0.9949873 0.9803226 0.9847759
00000000: 7163 843f 89d0 853f 6933 7d3f 6e65 803f
00000010: 40e0 673f 9242 7e3f 0815 783f 8dba 7c3f
00000020: 7ba3 8d3f b26c 7b3f eaa4 833f 4ca6 793f
00000030: 6564 753f 089c 863f 94df 793f 7f99 8a3f
00000040: 8cdc 713f eb1a 803f 2da3 7b3f 6e6f 893f
00000050: 218a 7f3f ae29 7b3f 8681 7c3f 01f9 673f
00000060: 34eb 803f b974 7b3f ad57 7d3f 6e82 6d3f
00000070: a9e9 843f 64fe 6d3f 3343 803f 2940 7d3f
00000080: b64d 7e3f 4c36 783f 1a82 7d3f 4a65 793f
00000090: 01b4 793f 696a 7d3f 5210 7b3f ea29 7c3f
000000a0: 36d3 7a3f 5b52 7f3f 855d 773f d8f2 743f
000000b0: 0d53 7c3f a604 723f 3a5e 7d3f 30c8 783f
000000c0: f975 7e3f 922c 7d3f b8ae 753f d7ed 823f
000000d0: 32b4 7b3f 7eba 7d3f 12d0 7b3f d62d 773f
000000e0: 93b3 7b3f 4744 7d3f df86 7e3f 1a6c 803f
000000f0: ed92 7d3f 669b 7c3f 0cd7 7a3f 6918 7c3f
00000100: bed1 7f3f 4dd9 793f e26a 823f 9816 7c3f
00000110: 1ba9 7e3f f0fe 803f e8eb 813f 4c1f 7f3f
00000120: 0d98 7a3f f3e5 7d3f d7af 763f 976d 8d3f
00000130: 2275 823f 0f8d 7f3f c00e 7d3f 9185 7d3f
00000140: 2368 7e3f 44d8 723f 3913 783f da97 7a3f
00000150: c549 803f 2763 773f faf8 653f 94ad 7d3f
00000160: 9d6f 7d3f 0bf7 823f e44f 7b3f 789f 7a3f
00000170: f11a 803f 5f50 803f 318b 7e3f 8e02 823f
00000180: 0b5c 843f dcd9 7e3f 8b70 7d3f 1120 7d3f
00000190: be67 873f 2f5a 833f 103c 703f 6a43 863f
000001a0: 3cea 7c3f 5f7f 813f d116 733f 6449 7e3f
000001b0: 31d2 753f 70f3 7c3f 4b3e 713f 6cb7 8a3f
000001c0: a0a3 8c3f c20b 813f 9059 7c3f f1ef 7f3f
000001d0: 5ce3 883f 4892 7f3f d4f2 843f abf3 703f
000001e0: a223 763f 0df7 713f 7568 783f 4437 7e3f
000001f0: bc44 633f 7db7 7e3f 6cf6 7a3f 461a 7c3f

q1_layer_norm2.bias f4 [128]
0.062387973 0.07313956 0.00017514499 0.047885425 0.03192108 -0.0063621826 -0.022521112 -0.015540114
0.09548792 0.010358941 0.06496165 -0.033611327 0.016997606 0.06769364 -0.03254151 0.08222057
0.034415204 0.0011202386 -0.006426029 0.08548498 -0.0016657064 -0.023151297 -0.014985762 0.044510007
0.053522557 -0.030654851 -0.013810615 0.01985576 0.07479106 0.026203448 0.00023886802 -0.008028264
-0.008887497 -0.029998038 -0.011913395 -0.03667514 -0.03582802 -0.009931147 -0.015251372 -0.01832667
0.047217857 0.051612087 0.042819276 0.050339837 -0.027034441 -0.0024924327 -0.003506749 -0.023718024
0.057322305 -0.009843405 0.00076273474 0.068126485 -0.028196825 -0.01097342 -0.024960367 -0.04894835
-0.024157323 -0.0051448364 -0.0055284738 0.0037138837 -0.0021495097 -0.014724145 -0.023910658 -0.003162154
0.0026059337 -0.037720002 0.07813897 -0.006398064 0.06246925 0.013948292 0.07021899 -0.014406455
-0.015351047 -0.011485787 -0.020990105 0.109416544 0.06870537 -0.0046224026 -0.017215231 -0.009568572
-0.0063721435 0.03566497 0.01866784 -0.014488427 0.0024358921 0.016924731 0.033776097 -0.01405848
-0.009427385 0.054535486 -0.027666776 -0.019771539 -0.0031791783 0.038065415 -0.004555966 0.068881966
0.063551605 -0.010944478 -0.008121631 -0.0077884346 0.08526455 0.06307414 0.03853555 0.057148017
-0.01943819 0.067469366 0.002938142 -0.0077040447 -0.0337006 0.07531199 0.03350268 0.082057215
0.07935679 0.060482323 -0.019606259 0.058511753 0.088459164 0.0068333284 0.055455647 0.008359059
0.02069895 0.007601105 -0.042254418 -0.008286989 0.04945199 0.0022849548 -0.026050884 0.05370899
00000000: 888a 7f3d 32ca 953d 20a7 3739 8223 443d
00000010: aebf 023d db79 d0bb 327e b8bc f69b 7ebc
00000020: 2c8f c33d 8cb8 293c 9d0a 853d 08ac 09bd
00000030: 903e 8b3c f7a2 8a3d 3f4a 05bd 4263 a83d
00000040: f5f6 0c3d f8d4 923a 7091 d2bb c012 af3d
00000050: d553 daba caa7 bdbc d786 75bc 2050 363d
00000060: 783a 5b3d e21f fbbc eb45 62bc 8ca8 a23c
00000070: 0e2c 993d 9da8 d63c a578 7a39 fb88 03bc
00000080: dd9c 11bc 72be f5bc 6630 43bc ac38 16bd
00000090: 67c0 12bd 40b6 22bc e4e0 79bc d021 96bc
000000a0: 8367 413d 3267 533d 4463 2f3d 2531 4e3d
000000b0: 5577 ddbc 1558 23bb 7cd1 65bb 4d4c c2bc
000000c0: cbca 6a3d 3c46 21bc 43f2 473a e685 8b3d
000000d0: 07fd e6bc dcc9 33bc af79 ccbc 117e 48bd
000000e0: 94e5 c5bc 0496 a8bb 3328 b5bb a164 733b
000000f0: cade 0cbb 8a3d 71bc 49e0 c3bc 243c 4fbb
00000100: 50c8 2a3b 4a80 1abd 5307 a03d daa6 d1bb
00000110: c2df 7f3d 6087 643c f9ce 8f3d 0d09 6cbc
00000120: f582 7bbc e22e 3cbc 71f3 abbc c815 e03d
00000130: 67b5 8c3d 8677 97bb f506 8dbc 80c5 1cbc
00000140: 6acd d0bb 6e15 123d 4ced 983c de60 6dbc
00000150: 7da3 1f3b bca5 8a3c ce58 0a3d 8a55 66bc
00000160: 5275 1abc 9a60 5f3d 6fa5 e2bc ecf7 a1bc
00000170: c359 50bb 7bea 1b3d 364a 95bb fd11 8d3d
00000180: 5827 823d 7850 33bc 9710 05bc 2036 ffbb
00000190: 2e9f ae3d 042d 813d 74d7 1d3d 0a14 6a3d
000001a0: d73c 9fbc 612d 8a3d d88d 403b 3672 fcbb
000001b0: a409 0abd 2c3d 9a3d 1b3a 093d 9d0d a83d
000001c0: d085 a23d 50bc 773d 4e9d a0bc 05aa 6f3d
000001d0: 142a b53d 1dea df3b 7625 633d 6ff4 083c
000001e0: d890 a93c b112 f93b f812 2dbd 27c6 07bc
000001f0: 2b8e 4a3d 2ebf 153b aa68 d5bc f5fd 5b3d

q1_layer_norm3.weight f4 [64]
0.98762363 1.467098 1.0223018 1.4849141 1.0095812 0.99671096 0.98753387 1.4899668
0.99500275 1.0089748 1.0239829 0.990251 0.9853334 1.0171266 0.99918264 1.4549568
0.9914096 1.4909552 0.9879704 0.9947737 1.0153545 1.5103981 0.99024475 1.500534
0.9860026 1.0105228 1.4719795 0.9898762 0.9870863 1.5012907 0.9903181 0.98541117
1.4850568 1.5233029 1.465563 1.0250456 0.9995507 1.0178374 0.99279106 1.0118289
0.99251384 0.9903411 1.0086231 1.0190904 0.99221414 0.9938301 1.015686 1.4767997
1.4976207 0.98645705 1.0086735 0.99024326 0.9921284 1.0087409 0.99849373 1.0177822
0.99531144 1.4512063 0.9873783 0.99197847 0.9872373 0.98724914 1.4695421 1.0167441
00000000: e7d4 7c3f dec9 bb3f c9da 823f aa11 be3f
00000010: f539 813f 7328 7f3f 05cf 7c3f 3bb7 be3f
00000020: 80b8 7e3f 1626 813f df11 833f 1781 7d3f
00000030: cf3e 7c3f 3431 823f 6fca 7f3f 063c ba3f
00000040: 05cd 7d3f 9fd7 be3f a1eb 7c3f 7da9 7e3f
00000050: 23f7 813f ba54 c13f ae80 7d3f 8011 c03f
00000060: ab6a 7c3f d058 813f d369 bc3f 8768 7d3f
00000070: b0b1 7c3f 4b2a c03f 7d85 7d3f e843 7c3f
00000080: 5716 be3f 97fb c23f 9297 bb3f b234 833f
00000090: 8ee2 7f3f 7f48 823f 8e27 7e3f 9c83 813f
000000a0: 6315 7e3f ff86 7d3f 901a 813f 8e71 823f
000000b0: bf01 7e3f a66b 7e3f 0002 823f c607 bd3f
000000c0: 09b2 bf3f 7388 7c3f 371c 813f 9580 7d3f
000000d0: 20fc 7d3f 6c1e 813f 499d 7f3f b046 823f
000000e0: bbcc 7e3f 21c1 b93f d3c4 7c3f 4df2 7d3f
000000f0: 95bb 7c3f 5cbc 7c3f f519 bc3f ac24 823f

q1_layer_norm3.bias f4 [64]
-0.018718574 0.4669258 0.032351762 0.47475943 0.025761643 0.004210639 -0.017370243 0.4875487
-0.005171871 0.02057592 0.04092167 -0.013868522 -0.024714367 0.023712462 0.0032387723 0.45769274
-0.011156086 0.47961414 -0.015743647 -0.009650244 0.023295147 0.50343144 -0.012812004 0.4879972
-0.020295702 0.023026682 0.46393567 -0.012689207 -0.014383922 0.48390937 -0.011557773 -0.01914924
0.4746695 0.49691686 0.46763512 0.04216081 -0.006462889 0.026737604 -0.010159172 0.019095846
-0.010469109 -0.014332981 0.014129696 0.033033244 -0.009756282 -0.005347036 0.021970773 0.47589263
0.4867959 -0.021801671 0.02282074 -0.015702548 -0.0101029165 0.020601815 0.0039787353 0.02608879
-0.005545826 0.4602971 -0.0125257075 -0.0123585025 -0.016510984 -0.017854396 0.46192864 0.021951705
00000000: b257 99bc e610 ef3e 4883 043d ab13 f33e
00000010: 150a d33c 66f9 893b 0a4c 8ebc fc9f f93e
00000020: cc78 a9bb d58e a83c 7b9d 273d cc38 63bc
00000030: c975 cabc a340 c23c 9541 543b b456 ea3e
00000040: 04c8 36bc fc8f f53e d2f8 80bc 0f1c 1ebc
00000050: 77d5 be3c e2e0 003f 71e9 51bc c5da f93e
00000060: 2c43 a6bc 74a2 bc3c fa88 ed3e 64e6 4fbc
00000070: 8baa 6bbc f8c2 f73e d05c 3dbc dede 9cbc
00000080: e107 f33e e36b fe3e df6d ef3e d0b0 2c3d
00000090: a4c6 d3bb d208 db3c a872 26bc e46e 9c3c
000000a0: a086 2bbc e1d4 6abc 3e80 673c de4d 073d
000000b0: d0d8 1fbc 3036 afbb 0dfc b33c 33a8 f33e
000000c0: 503d f93e 6b99 b2bc 8ff2 ba3c a1a2 80bc
000000d0: b486 25bc 23c5 a83c 0d60 823b 28b8 d53c
000000e0: c3b9 b5bb 10ac eb3e a038 4dbc 517b 4abc
000000f0: 0b42 87bc 6243 92bc e981 ec3e 10d4 b33c

q2_layer1.weight f4 [128, 27]
-0.16472562 -0.08450041 -0.07832328 0.027308203 0.051227227 -0.049837347 0.03277632 0.13134779
0.096349575 -0.023491997 0.013756383 -0.076067396 0.1711841 0.070738345 -0.10762114 -0.02721221
-0.106167324 -0.0025452839 -0.21164767 -0.07806205 -0.07486156 0.057247933 -0.006533626 0.10089608
-0.08696619 0.022980528 0.036512706 0.19075535 0.04816046 -0.1159455 0.1455287 0.12160313
0.1274294 0.083272934 0.027593164 -0.108887084 -0.029933352 -0.08133083 0.017665213 -0.037798878
-0.059008274 0.06808013 -0.008889782 0.014519226 -0.0004567118 -0.035856187 -0.0023192714 -0.0107985465
0.043062102 -0.04420491 0.20518728 -0.117580585 -0.05542948 -0.017381664 0.06556012 0.018291157
0.09125668 -0.051334355 -0.02958384 -0.07534353 -0.12161316 0.07706531 0.013703559 -0.04859011
-0.03652143 -0.015577888 0.054726567 -0.02209907 -0.10505175 0.031108966 0.018014064 -0.10419941
0.025638623 0.03336947 0.027464949 -0.03292814 -0.15275908 -0.020438487 -0.069382645 0.02446272
-0.020978207 -0.1853462 0.030735616 -0.04312567 -0.07992124 -0.17165829 -0.02776112 -0.1874004
0.0029264612 0.14870456 0.024205092 -0.028960772 0.060785733 0.11881984 -0.00342438 -0.07756397
0.12278697 0.053432677 -0.004936595 0.015097493 0.023887277 -0.10354411 -0.027557442 0.14309572
0.019428616 0.008579551 -0.057166733 0.015085353 0.13376488 0.047115322 0.14716935 0.03449801
0.19373348 9.3585135e-05 0.08910212 0.029603459 -0.04141262 0.024360767 0.13213524 0.007354617
-0.065703385 0.095066436 0.07800703 0.11203083 0.030544529 -0.054568417 0.030513262 -0.062003687
0.052666698 0.08117508 0.023571359 8.4630985e-05 -0.07860927 0.013052315 0.032498743 -0.20128731
-0.07004108 -0.23258625 -0.090385824 0.049379867 -0.23098837 0.002512585 -0.0425635 -0.09254476
-0.11627709 0.14056478 0.10193525 -0.08574465 -0.16810918 -0.1071857 -0.024713965 0.088046886
-0.121978365 0.112028696 0.10652703 -0.011241101 -0.030003136 0.079238966 -0.018112822 -0.040591326
0.047813535 0.05113752 -0.07085724 -0.021241771 -0.09772417 -0.10088757 0.025822464 0.07070141
-0.040050875 0.12589312 -0.09322065 -0.06173764 -0.053315405 0.08852926 -0.17730607 -0.15073712
-0.0024626602 -0.013387954 -0.06834374 0.019129071 -0.00036052708 -0.035205573 0.0626753 -0.082686745
-0.09937297 0.08394496 -0.027091896 -0.028860463 -0.14352444 -0.098166265 -0.13221607 0.035957668
-0.122949995 -0.15840662 -0.0015773769 -0.14120033 -0.1049359 -0.014986768 0.07786419 0.13402513
0.0610692 0.0048853643 0.0017858708 0.029993447 -0.08192511 0.010069722 -0.03316841 0.0022984014
0.1272887 0.05123899 0.05087773 -0.007040394 0.004437762 -0.004006351 -0.12654902 -0.0027838112
0.035313863 0.06899795 0.013617034 0.15647204 -0.012542773 -0.08096211 -0.0002437625 -0.011170017
-0.07517892 -0.22465931 -0.08666933 0.020306837 -0.007551762 0.09916901 0.033020034 -0.061492845
-0.090578884 0.047830943 0.10908754 -0.098135814 -0.040776633 0.037490316 -0.076616816 0.10808822
0.09461456 -0.09322778 -0.05595382 0.0004927895 -0.18433747 0.06011484 0.0681743 0.027127815
-0.13322376 -0.112172864 0.16720863 0.030160056 -0.040183596 0.12305815 0.07787373 0.0817418
00000000: d5ad 28be 8d0e adbd f567 a0bd 74b5 df3c
00000010: a4d3 513d 3f22 4cbd 7640 063d 0980 063e
00000020: ed52 c53d 4a72 c0bc 7462 613c 39c9 9bbd
00000030: e24a 2f3e 44df 903d 7968 dcbd 24ec debc
00000040: 416e d9bd c7ce 26bb 2bba 58be ffde 9fbd
00000050: 0451 99bd cf7c 6a3d 0718 d6bb 9ba2 ce3d
00000060: 541b b2bd a941 bc3c 598e 153d 5f55 433e
00000070: e743 453d d674 edbd 7a05 153e 100b f93d
00000080: da7c 023e 008b aa3d 0f0b e23c 3100 dfbd
00000090: ca36 f5bc c790 a6bd a3b6 903c ffd2 1abd
000000a0: a9b2 71bd 986d 8b3d 73a6 11bc 0ce2 6d3c
000000b0: d272 efb9 f0dd 12bd ebfe 17bb 63ec 30bc
000000c0: e361 303d 3510 35bd 9d1c 523e 17ce f0bd
000000d0: 060a 63bd fe63 8ebc 6244 863d 56d7 953c
000000e0: c8e4 ba3d f943 52bd cf59 f2bc b54d 9abd
000000f0: 5210 f9bd 6bd4 9d3d e484 603c 6c06 47bd
00000100: 7f97 15bd 663a 7fbc f728 603d 1c09 b5bc
00000110: 5f25 d7bd 3bd8 fe3c 3b92 933c 8066 d5bd
00000120: 1708 d23c 6dae 083d 2cfe e03c a8df 06bd
00000130: e06c 1cbe 9d6e a7bc 7d18 8ebd 0b66 c83c
00000140: 7dda abbc 65cb 3dbe 42c9 fb3c 8ba4 30bd
00000150: bfad a3bd 31c7 2fbe 4a6b e3bc e4e5 3fbe
00000160: dfc9 3f3b 0246 183e c249 c63c 243f edbc
00000170: 76fa 783d d157 f33d 906b 60bb dcd9 9ebd
00000180: bc77 fb3d 39dc 5a3d 29c3 a1bb 7a5b 773c
00000190: 40af c33c ef0e d4bd 25c0 e1bc af87 123e
000001a0: c328 9f3c 3f91 0c3c aa27 6abd 8e28 773c
000001b0: a9f9 083e fffb 403d 90b3 163e c94d 0d3d
000001c0: 1262 463e 2343 c438 2c7b b63d f482 f23c
000001d0: 48a0 29bd 3b90 c73c 764e 073e 00ff f03b
000001e0: 7f8f 86bd 31b2 c23d 26c2 9f3d 6b70 e53d
000001f0: 8538 fa3c 2283 5fbd f3f6 f93c 94f7 7dbd
00000200: 09b9 573d 1f3f a63d b918 c13c ea7b b138
00000210: e6fd a0bd 61d9 553c 671d 053d 431e 4ebe
00000220: b371 8fbd 172b 6ebe 341c b9bd 8b42 4a3d
00000230: 3788 6cbe 2eaa 243b 1157 2ebd 1b88 bdbd
00000240: af22 eebd 37f0 0f3e 6ec3 d03d e49a afbd
00000250: d024 2cbe 2d84 dbbd f174 cabc ed51 b43d
00000260: cbcf f9bd 4d6f e53d d82a da3d 982c 38bc
00000270: 23c9 f5bc 0a48 a23d 5761 94bc 1743 26bd
00000280: 20d8 433d 9375 513d 9a1d 91bd 3903 aebc
00000290: 9c23 c8bd 249e cebd a289 d33c e7cb 903d
000002a0: 630c 24bd 20ea 003e 78ea bebd 9ce0 7cbd
000002b0: 4161 5abd d44e b53d b98f 35be d55a 1abe
000002c0: 9564 21bb 2659 5bbc cef7 8bbd 92b4 9c3c
000002d0: 2005 bdb9 b833 10bd e85b 803d ab57 a9bd
000002e0: 0e84 cbbd 56eb ab3d d3ef ddbc c76c ecbc
000002f0: 12f8 12be 650b c9bd a663 07be 5948 133d
00000300: 35cd fbbd 5835 22be fcbf ceba d296 10be
00000310: a2e8 d6bd 108b 75bc 4377 9f3d e23d 093e
00000320: b323 7a3d 6815 a03b e113 ea3a d1b4 f53c
00000330: 5ac8 a7bd 7afb 243c 99db 07bd c7a0 163b
00000340: f857 023e fadf 513d 2b65 503d 1bb3 e6bb
00000350: a56a 913b b547 83bb 1196 01be 9a70 36bb
00000360: 45a5 103d cc4e 8d3d fb19 5f3c 353a 203e
00000370: 3480 4dbc 76cf a5bd 7f9a 7fb9 7202 37bc
00000380: 68f7 99bd 170d 66be b17f b1bd 865a a63c
00000390: c574 f7bb 1f19 cb3d 0440 073d ecdf 7bbd
000003a0: 6c81 b9bd 61ea 433d 4a69 df3d 6efb c8bd
000003b0: 6605 27bd 728f 193d 47e9 9cbd 5b5d dd3d
000003c0: 47c5 c13d 35ee bebd d52f 65bd 8b2e 013a
000003d0: f6c2 3cbe fa3a 763d f89e 8b3d 273b de3c
000003e0: cf6b 08be e3ba e5bd bd38 2b3e 3912 f73c
000003f0: 8e97 24bd e905 fc3d 437c 9f3d 3f68 a73d
