rl_energy_manager_20250325_1542/models/checkpoint_500/critic.pth (torch, 165410 bytes, 10 tensors)

layer1_1.weight f4 [128, 27]
00000000: 9e19 ab3d 4663 dbbc 3967 123e 13fa b2bb
00000010: 3aa5 1fbe 64cd a2bd f331 163e 0d04 1bbe
00000020: f0c5 2bbd ec11 703d d08f 1c3e e6f4 3c3e
00000030: 3079 bf3d 7a40 2cbd edd9 233e de94 90bd
00000040: 7429 be3d 36b5 273d 43b1 febd 0aad 1d3e
00000050: 79f4 b8bc 07bb 8b3c 44b6 993d 0484 103e
00000060: af72 8bbd 298d 893d 8b3d 433e ffbd 473e
00000070: 1b9b 3dbc e1b8 5b3d 51c1 c3bd 456e 09bc
00000080: 3599 53be 3619 6abd 8eea 6e3d 56fd 03be
00000090: c033 b9bd 067b 97bd 3ea4 c6bd 523f 8fbd
000000a0: fb5b 803d c030 65bd f42c 6f3e ae62 70bd
000000b0: 1319 d2bd 4a21 9a3d b537 213e 33ba 08be
000000c0: fdde 19be 4d3f c13b 7ba5 71bd 7c1a 953d
000000d0: c8dc 633d ff19 17be 5dcf a93e 6226 3ebc
000000e0: 5eb4 a43b b806 ba3e 01bb fcbd ae58 273e
000000f0: 1f8c b4bd e882 123d 80c7 2736 3fef d9bd
00000100: 3fd4 623d a1f9 333e d70d d6bd 1fea 06bd
00000110: 535c 113d 4369 2f3e c5ce 0abe 1fd6 463e
00000120: 4ee4 9f3d 6dc8 f1bd 08e4 43be 7e96 d9bd
00000130: b023 2bbe 00e5 b9bc bbc9 f83d a6f7 52be
00000140: 4955 a33d 55e4 533d cd21 db3c a791 b4bd
00000150: 1298 183e e6b8 073d 7f71 0bbe 540c 91bd
00000160: a657 873d 6595 1f3d e7bc 2d3e e201 05be
00000170: f022 bdbd 3ed3 92be 19ee 3f3d 3f3f 00be
00000180: 5a3a c9be c241 66bb d81c 54bd 3376 323e
00000190: c81e 8a3c 0785 113e ba32 b9bd 19ce b6bd
000001a0: e9cf e6bd 760f 82be 2a35 1a3d 39a5 3e3d
000001b0: 8ab2 7c3e a6ba 053b b567 03be a97e cd3d
000001c0: 6cb2 dbbd 7b10 f1bd cc0b e43d 8aa7 103e
000001d0: b5e8 df3c b27c e33d 5473 fd3d be91 d3bd
000001e0: 2810 2bbd 168b 663e b231 4abd fd11 f53a
000001f0: b296 523d a999 ee3d 452b f03d 4728 bcbd
00000200: 2a44 793d 8287 fabc 024d 1bbe a969 acbd
00000210: 6820 2bbd 96e2 4dbe 7def 3f3d 5ace 3ebd
00000220: 3b49 9cbd 1855 5f3d 8374 28bd e902 f43d
00000230: ad62 a43c e91e 6dbd d189 183e cb00 89bd
00000240: b3ae 273e 1f3b 513b 31df 283e 8e08 153e
00000250: c0ab 88bd 5e4e c7bc 76b6 593b 53db b53d
00000260: 83bb edbc 990b d8bc b1eb 6039 e477 9fbd
00000270: 20e4 373e a5c2 1d3e 7ff8 ffbd eaff 663e
00000280: 6a29 043e fecd 0abe 32e1 ca3d 243b fcbd
00000290: 1193 f0bd 48b2 303e 25ad cb3c 5dbe 91bd
000002a0: 2c4f 5cbd a5cb bebc 3806 a3bd 46ab a03d
000002b0: d764 b43d 4678 8e3d bb82 05bd 0c96 a5bd
000002c0: a511 14bd 8eca ac3d 07a8 bcbd 0b7b 1f3e
000002d0: c7b0 89bd 0070 acbd b2bd d73c 9016 5bbe
000002e0: a28f 673e 3e7b ff3d 1af3 32be 2e99 15be
000002f0: d6ab 483e 2aed 7abd 38fd 72bd 5a8c 88bd
00000300: fb79 06be 4476 b73d dd2b dc3d 7886 9a3d
00000310: cd53 9cbc b0fe 023e 7274 10be 4081 8ebd
00000320: 60a6 803d 1f03 c73c cff6 b33c 8f59 aebd
00000330: 0b4f 4f3d 6d8a 963d d127 67be 8c08 43be
00000340: 6e92 15be eab7 38bb 9432 f23c 4d26 75be
00000350: cb59 2fbe fb54 60be 2b01 103d 68ee a5bd
00000360: 6989 323e 1dfa 103e 3ebe f1bd cd7f 353e
00000370: d513 633d 9b8e 1abe 21db 14be 9427 aa3d
00000380: 5fee 2ebd 37f1 09be 9f48 0a3e 02d8 58be
00000390: d4d0 22be dc26 fd3c 74de c43d e968 a43d
000003a0: 627b 133e 723f 713e 5560 71be 33c9 fc3b
000003b0: a778 f93c ef93 90bc 628b 573e f54f 33bd
000003c0: 9ba1 ef3d 5acf 223e 7b41 fd3d 8738 0c3e
000003d0: c315 3e3e 25b8 383e b064 72bd cf80 06be
000003e0: eed3 863b d645 2d3e 9955 373e 289d 4b3e
000003f0: 26d8 ec3d 4ae9 873d fdd6 673e 8e5c 7a3e
0.083544955 -0.026780736 0.14297189 -0.00546194 -0.15590373 -0.079493314 0.14667492 -0.15138264
-0.041936815 0.05861084 0.15289235 0.18452796 0.093492866 -0.042053677 0.16001101 -0.07059644
0.0928525 0.0409443 -0.12436154 0.1539804 -0.022577511 0.017056955 0.075054675 0.1411286
-0.068089835 0.06716377 0.19066446 0.19506072 -0.011572625 0.05364311 -0.095583566 -0.008388107
-0.20663913 -0.05715295 0.058329158 -0.12889609 -0.09043074 -0.07396512 -0.096992955 -0.06994499
0.06267544 -0.055954695 0.23356992 -0.05868786 -0.10258689 0.07525881 0.15743907 -0.1335228
-0.1502647 0.0058974386 -0.058995705 0.07280442 0.055630475 -0.1475601 0.33166018 -0.011605831
0.0050263843 0.3633325 -0.12340356 0.16342422 -0.088157885 0.035769373 2.5001063e-06 -0.10641336
0.055378195 0.17575695 -0.104518585 -0.03293812 0.035488438 0.17129998 -0.13555439 0.19417618
0.078072175 -0.11805806 -0.19129956 -0.10624407 -0.16712832 -0.022692204 0.12147852 -0.20602283
0.07975251 0.051731426 0.026749516 -0.088168435 0.1490176 0.033135317 -0.13617514 -0.070824295
0.066085145 0.038960833 0.16966592 -0.12989 -0.092351794 -0.2867679 0.046857927 -0.12524126
-0.3930233 -0.003513441 -0.05178532 0.17427902 0.01686038 0.14210902 -0.090428784 -0.08926029
-0.112701245 -0.2540242 0.037648357 0.046544287 0.24677482 0.002040544 -0.1283253 0.10033924
-0.10727391 -0.117707215 0.111350626 0.14126411 0.027332643 0.11107768 0.12375513 -0.103305325
-0.041763455 0.22513995 -0.0493638 0.0018697378 0.051413245 0.11650402 0.11727003 -0.0918737
0.060856022 -0.030582193 -0.15166095 -0.084185906 -0.041778952 -0.20105967 0.046859253 -0.04658351
-0.07631155 0.05452451 -0.04112674 0.119146176 0.020066584 -0.057890806 0.14896323 -0.06689604
0.16375236 0.0031926108 0.16491391 0.14554045 -0.06673384 -0.02432936 0.0033220327 0.088797234
-0.029020077 -0.026372718 0.00021450107 -0.07786539 0.17958117 0.15406282 -0.12498569 0.22558561
0.12906423 -0.13555142 0.09906234 -0.12315968 -0.11746801 0.17255509 0.024862835 -0.07116387
-0.05378644 -0.023290465 -0.079601705 0.07845168 0.08808296 0.06956534 -0.032595377 -0.0808526
-0.03614964 0.08437072 -0.09211736 0.15574281 -0.06723171 -0.084198 0.026335571 -0.21395326
0.22613385 0.124746785 -0.17475548 -0.14609215 0.195968 -0.061261334 -0.05932352 -0.06667395
-0.1313247 0.08958104 0.10750554 0.07545179 -0.019082928 0.12792468 -0.1410692 -0.06958246
0.062817335 0.02429348 0.021968273 -0.08513176 0.05061249 0.07350621 -0.22573783 -0.19046229
-0.1460664 -0.0028185793 0.029565133 -0.23940392 -0.17124097 -0.21907417 0.035157364 -0.08102113
0.1743523 0.1415791 -0.11803864 0.17724533 0.055438835 -0.15093462 -0.14536716 0.0830833
-0.042707797 -0.13470922 0.13504265 -0.2117615 -0.15899974 0.030902319 0.09612742 0.080278225
0.14402536 0.23559359 -0.23571904 0.0077144145 0.03045304 -0.017648665 0.21049264 -0.043777425
0.11700746 0.15899411 0.12366005 0.13693438 0.18562989 0.18038996 -0.059178054 -0.13135074
0.0041146195 0.16921172 0.17903747 0.19884169 0.115646645 0.06636293 0.22640605 0.2444937

layer1_1.bias f4 [128]
00000000: 6819 e43e 2b43 b33e 533b 673b 6f2d 683e
00000010: bef2 903e e5ec e53e 8427 893e 2b40 36be
00000020: 9d4c 38be db60 433e 30b5 e93e 345f dd3e
00000030: 22f7 143e e518 f63e dbba bc3e 24da e03e
00000040: 6f87 ba3e 4d28 1fbe 4945 da3d 53f0 5c3e
00000050: b236 c13e 2be6 d33e b451 643e e2f9 cc3c
00000060: 792f b43e 71f8 da3e d8c7 993e fc3b ca3e
00000070: 27bf e33e 25c4 a13e ab6d 0c3e dd3d 213e
00000080: 73de 9e3e 9dd3 c23e 6bb9 a63e 2252 7c3e
00000090: 687f 9a3e 7f28 d5bd 963d d93e 40a7 453e
000000a0: d2b6 ae3e 44c7 cd3e c7c5 74bd 8365 bb3e
000000b0: aad2 853e bccc 893e f36b b13e 7c02 2f3e
000000c0: 9290 d73e a1ad ea3e 2039 bc3e bb99 5f3e
000000d0: b415 bb3e 0a19 a53e ddbc c33e 202a ebbd
000000e0: 2a4e 88bd cc63 bd3e e96f 9e3e 7166 ac3e
000000f0: 2caf eb3e f91c d23d 7418 ef3e cef6 d8bd
00000100: cf72 ce3e c607 8f3e fd26 8b3e 59a2 313e
00000110: 6eef c63e 27c8 853e a279 923e ccd7 cf3e
00000120: a920 b13e 5710 a43e 3cc8 d63e 6878 de3e
00000130: cddd d73e e0d5 a9bd 3b8f e33e 7e47 c83e
00000140: 7dff e6bb 0e81 7d3e 8d81 e53e 7b80 d53e
00000150: d598 da3e 0d11 933e 893f ad3e ddfa 5f3e
00000160: 8fe3 753e 9ca1 b93e d4a0 723e 354b dbbd
00000170: 781c 7d3e 4e80 a73e 2064 c23e 389e d43e
00000180: 064a 663e c37d b33e 4b41 8a3c 439e 8c3e
00000190: 0879 a43e c50a ad3e 8606 ff3e e711 813e
000001a0: 2be2 b03e d79a f63e e02b ad3e 849b bb3e
000001b0: aeb5 2d3e e358 7d3c e039 eb3e ce50 ce3e
000001c0: 1ad2 5b3e 890f b63e 6887 b33e 0381 bc3e
000001d0: 6485 8c3e 21d2 b4bd 6d1b cb3e 4fd6 a13e
000001e0: 8d01 a13e 34e5 993e 34f6 f1bd 955a 753e
000001f0: 1b4c 243e 7e2a d03e cb30 b43e 503e da3e
0.44550633 0.35012183 0.0035283163 0.22673582 0.28310198 0.449073 0.2678796 -0.17797916
-0.17997976 0.19079916 0.45646048 0.43236697 0.14547399 0.48065868 0.3686131 0.43916428
0.36431453 -0.15542717 0.10657746 0.21576051 0.37737042 0.41386542 0.22296792 0.025021497
0.3519247 0.4276767 0.3003528 0.3949889 0.44481775 0.3159496 0.1371371 0.15746255
0.3102909 0.38052073 0.32563338 0.24640706 0.30175328 -0.10408115 0.424298 0.19302082
0.34123856 0.4019109 -0.059758928 0.36600885 0.26137286 0.26914012 0.3465267 0.17090791
0.42102486 0.45835593 0.36762333 0.21835987 0.36539996 0.32245666 0.3823003 -0.11482644
-0.066555336 0.369902 0.30944756 0.33671907 0.46032083 0.10259432 0.46698344 -0.10593949
0.40321967 0.27935618 0.27178183 0.17347087 0.38854545 0.26129267 0.28608423 0.40594327
0.3459523 0.32043716 0.41949642 0.43451238 0.42161408 -0.082927465 0.44445214 0.39117044
-0.0070494995 0.24756262 0.44825402 0.41699585 0.42694727 0.28723946 0.33837536 0.2187304
0.24012588 0.3625611 0.23694164 -0.10707704 0.24717891 0.32715076 0.37967014 0.4152696
0.22489175 0.35056886 0.016876837 0.27464494 0.3212359 0.3379728 0.49809664 0.2520897
0.34547552 0.48165008 0.33822536 0.36642087 0.16963837 0.015463087 0.45942593 0.40296024
0.21466866 0.35558727 0.35064244 0.36817178 0.2744552 -0.088291414 0.39669362 0.31608817
0.31446496 0.3005768 -0.11814538 0.23960336 0.16044657 0.4065742 0.35193476 0.42625666

layer2_1.weight f4 [128, 128]
00000000: 0f6a 883c 0b7d 3d3c 4c2d a2bd 0f65 1bbd
00000010: 8bfe e9bc fc7d 183d fc39 90bd c83a 363c
00000020: e3c6 7abd dca1 89bd a9bb 62bd abc8 9abd
00000030: 4b99 8cbd b074 25bb 61d9 acbd c823 1ebd
00000040: 8f14 88bd 8774 a33d 3f73 863d ce3e 723d
00000050: 295e 34bd 4c42 8f3d 5026 d73c a4dc 26bd
00000060: f732 963d cdb8 86bd 6243 a1bd ac6b 8f3d
00000070: 3625 883d cc5b 10bd 8028 bebc b636 393d
00000080: 445b aebd c53e 953d 8aed a63d 0bae 8d3d
00000090: 709d 82bc 4a6b 223d c05a 66bd d77d 2fbd
000000a0: 8583 8bbc 65b4 733c eadb b1bd 60c2 253a
000000b0: b660 87bd c7ec 59bd f94b af3c 322a 333d
000000c0: 6d59 91bc 20b4 fdbb 0242 953d c2fd 173d
000000d0: 379e 31bd 448e 783d 899e a2bd b2fc 183d
000000e0: 0207 1b3d aa77 a2bd 6043 323b 6a24 a5bd
000000f0: e945 8fbd 1701 a53d 50cd fb3c 7862 cd3c
00000100: 2057 8f3d 78d1 863c 901d 98bc 4fff 20bd
00000110: 9e24 3d3d 4130 353d 5b2f a1bd 342f 543d
00000120: aae0 9ebd edd0 923d 9ab5 fdbc dc32 ce3c
00000130: d2ce 2e3d 9063 833c e6e8 06bd c41e a73d
00000140: 1351 813d 6eed 443d f1b0 82bd 3998 b53b
00000150: 33fe 973d ec07 48bd 78ff f03c 78bd 723c
00000160: 908c b4bd d44d 543d 0076 7e3b 804e 8ebc
00000170: af56 4c3d 3d11 1bbd bb91 083d 586f 003d
00000180: 228f b0bd e71a a3bc a0dd e83b 51fa e1bc
00000190: c10f 873d 649f 05bd 1a1c 5e3d 79c5 db3c
000001a0: 6003 88bd 38c5 b3bd 1b8e 023d b3c5 dbb9
000001b0: a4c9 08bd 5491 bbbd 54bd a1bd e89f 62bd
000001c0: 8604 b3bc 8ceb 9b3d ec1b a4bd 1901 e2bc
000001d0: 7a89 5e3d e1df 7cbd fac0 773d 278e 46bc
000001e0: 89d2 b0bb 360b a2bd 8524 b3bd d4ce 0dbb
000001f0: 22e3 1cbd 32b9 a1bd 97a6 4abd bf38 503d
00000200: 8efc 6c3e 29eb 093e 3b94 653c 1cb6 893d
00000210: ff21 f43d fd5d a03e d6ab 453e 4a27 ae3c
00000220: 9dd5 2cbe d067 0c3e d8e3 673e d189 ee3d
00000230: e6eb 363d e5bb 3c3e 1871 8f3e a219 5f3e
00000240: 0896 c33e 18b0 dcbd 085f 6c3d 5598 133e
00000250: b5c9 8b3e f92c d43e 206c cf3d 2c43 583d
00000260: a24f 573e 6d47 2b3e 571f 2e3e 8990 953e
00000270: 685e f23d 62da 253e 5852 553d 4814 563d
00000280: 8dd5 963e 4e5e dc3d e237 af3e 25cf 643e
00000290: 7576 603e ecb2 6bbd ffc2 7a3e 087d bf3d
000002a0: 223d 883e 88e7 663e bd93 f73d 85b0 603e
000002b0: 5a23 433e f1c3 663e c75a 633e 8fe8 b13d
000002c0: 957c eb3e 6f36 d33e dc36 053e aef6 633e
000002d0: 01a4 213e d2cb 0e3e fae3 073e 0c7a 1abe
000002e0: 39ca d43d f251 1e3e af75 3a3e f686 483e
000002f0: 9254 0e3f 3b25 0e3e 202e bd3e aa42 5f3d
00000300: 913d 523e d36a 8a3e ba09 353e 9c36 0b3e
00000310: 289e 993e 2e7e db3d f727 863e 58e5 9a3e
00000320: a63d 8c3e 0f35 633e 4f98 2e3e 66bd b53e
00000330: 8049 fe3e 53e1 ad3b 12f9 a53e de5f 873e
00000340: d703 ab3d 0da8 203e 4da5 e53d f407 753e
00000350: a6e9 593e e9bc 8a3e e10e 4a3e fdbc c13d
00000360: 6c78 e03d 4d00 a33e c187 753d 96b7 aabd
00000370: b435 843d 9251 003e 268a fc3e 30c7 843e
00000380: ff98 953e cb17 bb3e e625 84bc 6e46 053e
00000390: 1afa 833e 2280 7d3e 204d 0f3f b797 813e
000003a0: ed52 503e 4720 b43e 768e 9c3e a9ed 673e
000003b0: d882 433e a935 a63d 9b2f 383e 999f 053e
000003c0: 520f af3d 88ae 8b3e dc67 a13e 3bf4 253e
000003d0: abc2 363e 9198 8abd cf31 573e bd53 8d3e
000003e0: de2c 1a3e 3314 663e 9811 5a3c 31f9 ec3d
000003f0: 08d0 c13d 1200 a13e 353d 893e 8000 9b3e
0.016652135 0.011565457 -0.07918796 -0.037938174 -0.028563758 0.037229523 -0.0704231 0.011122413
-0.06122483 -0.06720325 -0.055354748 -0.07557806 -0.06865176 -0.0025246553 -0.08439899 -0.038608342
-0.06644546 0.0798121 0.0656495 0.059141926 -0.04403511 0.06995067 0.026263386 -0.040737763
0.073339395 -0.06578217 -0.078741804 0.07002959 0.066477224 -0.035243794 -0.023212671 0.045218192
-0.08513501 0.07287363 0.08150776 0.06917962 -0.015944213 0.0396531 -0.05623889 -0.04284462
-0.017030487 0.014874552 -0.086845234 0.00063232146 -0.06610243 -0.053204324 0.021398531 0.043741412
-0.017742837 -0.00774242 0.072879806 0.037107237 -0.043363776 0.06068255 -0.079403944 0.037350364
0.03784848 -0.0793298 0.0027200803 -0.08063586 -0.06995756 0.080568485 0.030737549 0.025071368
0.0699904 0.016457304 -0.018568784 -0.03930598 0.0461775 0.04423547 -0.078703605 0.05180283
-0.07757695 0.07168756 -0.030970383 0.025170736 0.042677708 0.016038686 -0.032936953 0.08160165
0.06314292 0.048077993 -0.06381405 0.005541828 0.074215315 -0.04883568 0.029418692 0.014815681
-0.08815873 0.051832035 0.0038827658 -0.017371416 0.049887355 -0.037858237 0.033342104 0.031356186
-0.086210504 -0.019910289 0.007106498 -0.02758518 0.06594802 -0.03262271 0.05422602 0.02682756
-0.06641269 -0.08777851 0.031873804 -0.00041918232 -0.033395424 -0.091585785 -0.078974396 -0.05532828
-0.021852743 0.076132864 -0.08013138 -0.027588414 0.054330327 -0.061736945 0.06048677 -0.012118853
-0.0053961915 -0.079122946 -0.087472 -0.0021638172 -0.03830255 -0.07896651 -0.04947528 0.050835367
0.23143217 0.13468613 0.014012392 0.06724188 0.11920547 0.31321707 0.19303831 0.021258969
-0.16878362 0.13711476 0.22645509 0.1164738 0.044658564 0.18431051 0.2801597 0.21787122
0.38200402 -0.10775775 0.057707816 0.14413579 0.27302328 0.4144056 0.10128045 0.052798435
0.21026471 0.16726466 0.17004143 0.29211834 0.11834413 0.16196588 0.052080482 0.052265435
0.294598 0.10760175 0.34222323 0.22344644 0.21920188 -0.05754368 0.24488448 0.0935002
0.2660914 0.2254926 0.12088726 0.21942337 0.19056454 0.22535683 0.22202598 0.08686935
0.45993486 0.41252467 0.13009208 0.2226207 0.15785219 0.13944939 0.1327056 -0.1508562
0.103901334 0.15460947 0.18208955 0.19582734 0.55597794 0.1388139 0.36949253 0.054506935
0.20531298 0.27034625 0.17679492 0.1359505 0.30003476 0.10717426 0.26202366 0.302531
0.27390784 0.22188209 0.17050289 0.35496062 0.4966545 0.0053064018 0.32416588 0.26440328
0.08350342 0.15689106 0.11213169 0.23928815 0.21280536 0.27097252 0.19732238 0.09459875
0.10960469 0.31836167 0.05994392 -0.083357975 0.064555556 0.12531117 0.4932415 0.25933218
0.2921829 0.3654159 -0.016131353 0.13015148 0.2577675 0.2475591 0.5597706 0.25311062
0.20344134 0.35180876 0.3057744 0.22649254 0.19092882 0.081157036 0.1798691 0.13049163
0.08547844 0.27281594 0.3152455 0.16206448 0.17847697 -0.06767381 0.21015094 0.2760295
0.15056178 0.22468643 0.013309859 0.11570967 0.09463507 0.31445366 0.2680451 0.3027382

layer2_1.bias f4 [128]
00000000: aea6 fbbc 8b4b 8c3e 8cb5 6fbc b307 423d
00000010: 1bbe 053e de59 9a3c 41cf b1bd 60ae b63e
00000020: 2641 2b3d 1b49 c63d cb44 2d3e 1327 033f
00000030: 0d34 f43d c15c 8f3d 9cfc e43d 532a d43e
00000040: ccc3 fe3d 469b 5f3e 75ea 27bd b0d3 81be
00000050: 6154 eabc db21 853e 8e83 3ebc fd10 6a3e
00000060: 05e9 6b3e 6929 cbbb d16e 5d3e 58c5 933d
00000070: 9b3f 523d 4d78 693e efc2 a2bd 860d bf3d
00000080: dbb9 053e 9909 5b3c 9ae6 78be 956a 0d3e
00000090: 68b4 c73c 318f c63b 4054 2aba 32af 653e
000000a0: 76c1 1dbd 2237 cc3c 52b7 183e 4b7a ebbd
000000b0: a8ab 01be e594 723e ab59 743e 4662 793e
000000c0: 5d09 b83d b1c8 243d 0431 ca3d c5db 103e
000000d0: 5a88 3c3e 345e 77bc a633 9abd bad2 403e
000000e0: 6887 263e c452 17bd 3ebf 1c3d fe95 013c
000000f0: 11b7 e43e 85d7 68be e283 373e 2b1e 1e3e
00000100: 9030 073e 910a 643e c7b2 663e b85b 65bc
00000110: 92c9 80bd 9264 5d3e efe7 8bbd 7b04 c53d
00000120: 5b5e 953e c0e5 883e f4d3 a3bd 8114 7f3e
00000130: 9ba7 ea3d 49b5 363e cf62 473c 1f2c 753d
00000140: a7bd 553e 5c36 4c3d 0f6f 823e 58a9 663e
00000150: 64d4 1c3e 70c4 383e da52 4f3e b5c2 833e
00000160: 3e75 3c3d 2a9a 553e 4b35 853e 0d6b 643e
00000170: b09c 293d df7e d4bc 75e7 1bbd d2ae 43bc
00000180: 1fe8 313e a4bc abbd 43c5 4a3e df40 083e
00000190: ab35 ce3d c7b6 61bd 7afd a13c d190 8ebe
000001a0: 5038 043e 04ea 5cbc 0da9 fe3d 5339 1c3e
000001b0: cc8d de3d cfca 2fbd 75a2 18be c3e0 2c3e
000001c0: 1975 823e a827 3e3e 94b2 703e 1e97 143c
000001d0: 6a5f 773d 394d 953d e36b b5bd fc07 163e
000001e0: c048 27bd 6a88 a73e b4e8 a5bd baba 2f3e
000001f0: 539b cf3d 48c4 89bd b79a 533e 5539 0f3e
-0.030719128 0.27401385 -0.0146306865 0.047370624 0.130608 0.01884168 -0.08682109 0.35679913
0.041810177 0.096819125 0.16920774 0.512315 0.119239904 0.07000113 0.11180994 0.4143854
0.12439689 0.21836576 -0.04099508 -0.25356817 -0.028604688 0.26002392 -0.011628045 0.22858043
0.23038109 -0.006200005 0.21624304 0.07215375 0.05133019 0.22799797 -0.07947337 0.09328751
0.1305918 0.0133689875 -0.24306718 0.13810189 0.024378017 0.00605955 -0.00064975396 0.22430113
-0.038514577 0.024928633 0.14913681 -0.11497935 -0.12663138 0.23689611 0.2386233 0.24353895
0.08986161 0.040230457 0.0987263 0.14146335 0.18411389 -0.015098143 -0.075293824 0.18830386
0.16262591 -0.036944166 0.03826832 0.007909296 0.4467092 -0.22738464 0.17921403 0.15441196
0.13202119 0.22269656 0.22529136 -0.013998918 -0.062884465 0.21620396 -0.06831347 0.09619995
0.2917355 0.26737785 -0.07999411 0.24910165 0.114577495 0.17842592 0.012169554 0.05985653
0.20873128 0.04985653 0.25475356 0.22525537 0.15315396 0.18043685 0.20246449 0.25734487
0.04601025 0.2085959 0.26017222 0.22306462 0.041409194 -0.025939403 -0.03806253 -0.011943536
0.17373703 -0.0838559 0.19801812 0.13305996 0.1006883 -0.05510595 0.019774187 -0.2784486
0.12912107 -0.013483528 0.12434588 0.15256242 0.10866889 -0.042918023 -0.14905722 0.16882615
0.25479963 0.18569815 0.23505622 0.009069232 0.06039373 0.0729012 -0.088584684 0.14651483
-0.040840864 0.32721263 -0.08101025 0.17161074 0.101370476 -0.06726891 0.20664488 0.13986714

layer3_1.weight f4 [1, 128]
00000000: 02d6 343b 66d9 6fbe 38fa 873d 9f0f 853e
00000010: 86be 8fbe ddaa 993d c035 013d fd39 17bf
00000020: 2f13 4a3d d311 77be 9b8f 90be 4ba0 fabe
00000030: 26d0 aebe 0ffe e23c 2ba9 87be 8ea4 10bf
00000040: 1131 a1be 6702 ddbe 1b88 8a3d 4779 033f
00000050: 7138 283c bb5c 7abe 4302 2b3d 5b6c 81be
00000060: 074f 82be 3564 0f3d 7bea 8abe 5caa 463d
00000070: 49f0 ce3c 9653 87be 3c1c 9abc 11ce 98be
00000080: e5fd 98be a405 873c a9f5 123f df33 81be
00000090: 2c58 9d3d 970c 5f3c 0b59 8a3d 89bc 85be
000000a0: 2af6 283d 8a05 f23c 258a afbe db46 833e
000000b0: 1d62 cc3e e5dc 80be f57c 71be 9127 6cbe
000000c0: 3a9b 81be 3dbd 9f3d c048 a5be 8488 96be
000000d0: 9d1f 77be 70da 603d 79e1 233b ddff 75be
000000e0: 48f2 95be ecef 8d3c 6218 193d 7ac0 5e3d
000000f0: eae0 10bf ea8a 133f ceb9 6fbe 332c 81be
00000100: 42a5 9cbe c7e2 98be d783 86be 1e6c 14bd
00000110: b9c9 abbd c2e8 6cbe 6ef5 233e b92f a5be
00000120: ec30 6fbe e80c cabe 7a99 753d 2695 6abe
00000130: 9b8a 9bbe 9b4a 8bbe 9635 fb3c b176 563d
00000140: 1adf 89be 5352 6c3c ebb0 6bbe 971d 6dbe
00000150: 47dc 96be 0643 92be 611a 71be 5e73 c7be
00000160: bd62 273d c956 72be 9db2 5fbe 103e 6bbe
00000170: 9768 8c3d 6066 7f3c b95e 8a3d 82de 573d
00000180: 3e30 87be 0e06 533d f9ae 71be 0f14 8fbe
00000190: fb4e a3be 6f71 953d fd47 013d 3d5a 0a3f
000001a0: 7922 98be 2378 4e3e 1ed3 80be c18d 84be
000001b0: a4ed 97be a1c7 503d 00bb e33e 1d7c 8dbe
000001c0: f339 6fbe 8a60 88be 39c1 85be f1c2 8d3d
000001d0: 3007 df3c 5fec 353d 67ee 233d 973c 69be
000001e0: 68f6 3c3d af21 84be 67a0 843d c36e 93be
000001f0: 6692 9ebe fd8b b83b 80e0 83be 1496 80be
0.002759338 -0.23422775 0.06639522 0.2598848 -0.28075045 0.07503293 0.0315454 -0.5907286
0.0493347 -0.24127893 -0.28234562 -0.4895042 -0.3414318 0.027709035 -0.26496252 -0.5650109
-0.31482747 -0.43165895 0.06764241 0.5135693 0.010267363 -0.24449436 0.041750204 -0.2527798
-0.25450918 0.035007674 -0.2713202 0.04850231 0.025261061 -0.26430959 -0.018812291 -0.29844716
-0.29881206 0.016482182 0.574061 -0.25234887 0.07682833 0.0136138415 0.06755265 -0.26120403
0.041250385 0.029543657 -0.34285083 0.25639996 0.39918604 -0.2516853 -0.23582824 -0.23061968
-0.2531374 0.07799766 -0.32282066 -0.29401028 -0.24133153 0.05489582 0.0025006218 -0.24023385
-0.29286408 0.017326318 0.03737677 0.05438278 -0.5659319 0.5763384 -0.23410723 -0.25229034
-0.30594832 -0.29860517 -0.2627246 -0.03623592 -0.08388085 -0.23135665 0.16011593 -0.32262972
-0.23358506 -0.39462972 0.05996082 -0.22908458 -0.30379185 -0.27205357 0.0306652 0.052359287
-0.26928025 0.0144239245 -0.23016708 -0.23155819 -0.29464933 -0.2856676 -0.23545219 -0.38955206
0.04086565 -0.23665918 -0.2184548 -0.22972894 0.068558864 0.015588373 0.06756348 0.052702434
-0.26403993 0.051519446 -0.23601903 -0.2794499 -0.31896195 0.07297026 0.031562794 0.5404394
-0.297138 0.20163016 -0.2516107 -0.258894 -0.29673493 0.05097163 0.44478607 -0.27633753
-0.2336195 -0.26636153 -0.2612398 0.06921948 0.027225107 0.044414874 0.04002228 -0.2277702
0.04613343 -0.2580695 0.06475907 -0.28795442 -0.30971068 0.0056319223 -0.25757217 -0.251145

layer1_2.weight f4 [128, 27]
00000000: 4c85 bf3d 2ed2 00be db53 9bbd 056e 343e
00000010: 4c8c 403e a5b8 3abe 519d d23d f728 5f3d
00000020: eb2d 99bd 608e f53c 9e59 083e 2778 a23d
00000030: 9963 a4bc cf11 c3bd 5906 403e c105 293e
00000040: 6387 19bc d33c 0c3d d44d 8abd f488 cdbd
00000050: d374 05be e786 e1ba 4db4 8f3d 91ab 1d3d
00000060: 5dd4 13be 2ede 9dbc 24cb 52be d024 4abc
00000070: 958e cc3d f152 debd 0026 2e3d 0f23 073e
00000080: d5ee df3d 8e4c b4bd 36c6 d13d 0986 a4bd
00000090: 67a9 03be 93cb b9bd e0a9 f53d 57c7 6e3e
000000a0: 9e55 bf3d 7454 0ebe 22f7 073d a034 2cbe
000000b0: ca86 a13d 4e13 43be 11ae 933d 8b8f 403d
000000c0: 1ad7 72be a9ab f2bd bccf 53be 4291 ee3d
000000d0: 32d1 54bd 128a c5bc 9626 cb3d afa3 cb3d
000000e0: 5ddf 273e 81b0 0bbe fc51 31bd e1ff 473e
000000f0: f185 e03d 7e1d df3d e3f9 503e 6466 6e3d
00000100: b1d3 203e ec10 573e 1225 a03d aa05 71bd
00000110: 6567 0bbe 69a5 6b3c c589 21be 5ebc 07be
00000120: b9cb 373e cafe 7c3e 6b66 993d 72c2 2e3e
00000130: 0a29 3d3e 1c39 523e 7b73 893d ede6 d63d
00000140: 1bb2 4a3e 884f 123d c97a a6bc f6f9 afbd
00000150: cfb5 0dbd 7e37 3fbd 626e 33be a93b 0abe
00000160: 6fd3 80bd 83c4 153e c0b4 81bd 1d74 323e
00000170: 07d3 e8bd fd3f 973d c22b 1e3e 95fa 6a3d
00000180: 0fc8 ef3c 7931 063e 42c5 fa3c 39f1 3fbe
00000190: b96a 743e 7ed9 0cbe ea9b 55be e83a 8abd
000001a0: 2db1 28be ced5 a73c 2b2b 263d d6c0 2fbd
000001b0: 6303 a13d 91c9 1abe ccc0 42bd 3505 283d
000001c0: 4e7a bb3d e0a6 c13c 95b3 24be 2430 683e
000001d0: e3ff 1ebe 3537 393e b036 46be d08f 26be
000001e0: 9cf0 febd 59dd 053e 7f74 e1bd 38a5 d63b
000001f0: ba79 a5bd ff43 22be a811 463d e9fd 03be
00000200: 0796 c83c 3a7d cb3d c6c8 1dbe 7604 ae3c
00000210: 5f3e 08be fd88 c13c d505 3c3e f524 e73d
00000220: c352 053c fce6 2cbe 3bf5 fdbc 1269 f6bc
00000230: 8bc2 5f3d 910e 08be e1b3 c13d 672f 373e
00000240: 9772 d4bd ed54 393e 9a0d e0bd 8ac5 593e
00000250: a537 3e3e c453 263e 8044 5f3e d4df 763d
00000260: b5a6 dfbd 94c2 a139 c220 633e dfc5 133e
00000270: 6dd2 9fbb c450 2bbe c683 433c 1528 2abc
00000280: 904c 333e 97c7 00be b95c abbd 92e2 41bd
00000290: 8af8 a4bd a935 02bd 79a7 ed3c 5d11 37bc
000002a0: f2ea 113e d5ab 0ebe 6cc8 f13d 1013 de3c
000002b0: d2df 78bd 40a9 3a3e 5173 9f3e 7d9a 33bd
000002c0: 0fdb b93d 2ca1 3d3e 3bc9 2bbd ab0a dc3d
000002d0: 9944 5d3d a463 aebd 79af 123e 9814 56bd
000002e0: 44ff 25be d5be 813c 699b 26be 9b23 88bd
000002f0: 8f39 c03d d29d bd3e 8598 08be 2e85 82bb
00000300: e3fa ab3e e598 d6bd 1d42 2f3d d20d 373e
00000310: ffaa c5be 5e1e 023e 00fb 183a 4f4e 9cbd
00000320: e315 c7bc 1c73 b4bd 8581 a6be 0a05 efbd
00000330: bf37 11bc c1c1 c83d 3eb9 4ebe 88c0 4d3e
00000340: 749c 173c 82c6 943e 35c9 24be 1019 f13d
00000350: 7d87 3cbe df99 d23e f9c6 21be 57a1 7f3e
00000360: 728f 33be 37cf 023e 2a04 7a3d 2165 aabd
00000370: 44f8 00bd f842 503e 3125 d0bd bcff 403e
00000380: 112d 2c3e b6c6 d13d a690 3cbe 7e3a 713d
00000390: 3f03 e2bd e7e3 763b 4eb8 f93d 8b7e 583c
000003a0: 66b2 413c 429e 3dbd 49ec 1dbe 77d7 3fbd
000003b0: b01f 773d 8deb 96bd e51e 2dbe bb07 eebd
000003c0: 7705 f1bc 9704 aabd 2085 75bd 632b e23c
000003d0: 19a2 b83d 7bcc 583d d941 013e b1b1 3b3e
000003e0: bccb bf3d 291c 32be 5b88 0bbe d8d6 cdbc
000003f0: 30fc 7b3c 8935 c73d d56c 63be a990 fb3d
0.09351596 -0.12580177 -0.075843535 0.17620094 0.18803519 -0.18234499 0.10283912 0.054482426
-0.07479461 0.029975116 0.13315436 0.079330735 -0.020067023 -0.09524881 0.18752421 0.16506101
-0.009370658 0.034237694 -0.06753126 -0.10035887 -0.13032846 -0.0017206342 0.070168115 0.038493697
-0.14436479 -0.019270983 -0.20585304 -0.012337878 0.09988133 -0.108556636 0.04251671 0.13196968
0.109342255 -0.08803664 0.10242884 -0.08033378 -0.1285759 -0.09072032 0.11995292 0.2331823
0.09342502 -0.13899404 0.03319467 -0.1681695 0.07887037 -0.19050333 0.07210935 0.047011893
-0.23714867 -0.11849148 -0.20684713 0.116487995 -0.051957317 -0.024113689 0.09919469 0.099433295
0.163938 -0.1364155 -0.043291077 0.19531204 0.10963047 0.10894297 0.20407824 0.058203116
0.15705754 0.21002549 0.078195706 -0.058843292 -0.1361366 0.014382699 -0.15775211 -0.1325545
0.17948808 0.2470657 0.07490238 0.17066363 0.18472686 0.20529598 0.06711479 0.10493264
0.19794504 0.03572038 -0.02032222 -0.08592598 -0.034597214 -0.04668378 -0.17522576 -0.13499321
-0.06290328 0.14625745 -0.063333035 0.17427106 -0.11368375 0.07385252 0.1544638 0.05736788
0.0292702 0.1310481 0.030611638 -0.18744363 0.23868836 -0.13754842 -0.20860258 -0.06749517
-0.16473837 0.020487692 0.040568512 -0.042908512 0.07861974 -0.15115954 -0.047547147 0.04102059
0.09154187 0.023639143 -0.1608413 0.22674614 -0.155273 0.18087466 -0.19356799 -0.16265798
-0.12448236 0.13072719 -0.11008548 0.0065504573 -0.08079858 -0.15846251 0.048356682 -0.12889828
0.024485601 0.099359944 -0.1540862 0.021242362 -0.13305043 0.023624891 0.183616 0.11286346
0.008137408 -0.16884989 -0.031000724 -0.030079398 0.05462889 -0.13286807 0.09458137 0.17889176
-0.10373419 0.18098803 -0.10940094 0.21266761 0.18575914 0.16242892 0.21803474 0.060272053
-0.10920469 0.00030853285 0.22180465 0.1443095 -0.0048773796 -0.16730028 0.011933273 -0.010385533
0.17509675 -0.12576137 -0.08367295 -0.047335215 -0.080552176 -0.031789456 0.029010521 -0.011173573
0.14249781 -0.13932736 0.118058056 0.0271087 -0.060760327 0.18228626 0.31142667 -0.043848503
0.09074985 0.18518513 -0.041939955 0.10744222 0.054020498 -0.08515099 0.1432475 -0.052265733
-0.16210657 0.015838066 -0.16270222 -0.06647416 0.093859784 0.3703447 -0.13339432 -0.0039831614
0.3358985 -0.10478381 0.04278766 0.17876366 -0.38607022 0.12706897 0.0005835742 -0.07632124
-0.024302429 -0.08811018 -0.3252069 -0.11670883 -0.008863389 0.098025806 -0.20187852 0.20092976
0.00925361 0.290577 -0.1609238 0.117723584 -0.1841106 0.4113302 -0.15798558 0.2496389
-0.17535189 0.12774359 0.061039127 -0.0832007 -0.031486765 0.20338047 -0.10163344 0.18847555
0.16814066 0.10242979 -0.18414554 0.058893673 -0.110357754 0.0037672461 0.121933565 0.013213764
0.011822319 -0.046293505 -0.15422167 -0.046836343 0.060332954 -0.073691465 -0.16906317 -0.11622568
-0.029421551 -0.08301657 -0.05994141 0.027608579 0.09015293 0.052929383 0.12622775 0.18329503
0.09365031 -0.17393555 -0.13626234 -0.02512686 0.01537995 0.09727008 -0.22209485 0.12283451

layer1_2.bias f4 [128]
00000000: ff07 d63e d6ff aa3e b4d1 9c3e 6463 9d3e
00000010: 5272 bf3e b59e 873e 1314 803e 5688 293e
00000020: f861 4bbe 1032 ce3e a52d aa3e b3a0 993e
00000030: c23f fa3e 3787 b83e 45a7 913e 3c01 df3e
00000040: c5ff 973e 253b b83e e457 fb3e 33f8 b83e
00000050: 0d5d 8c3e 0b15 983e a6a2 433e dc6c d03e
00000060: 1e52 a53e 1427 d93e 63a7 bb3e a0b5 bc3e
00000070: 0be7 dd3e 2e73 af3e 567b d53e baa9 8e3c
00000080: 0fcc 9d3e 4ab9 e03e d686 ba3e e5d7 b43e
00000090: f777 b93e d759 e53e 3923 ba3e f7f1 d63e
000000a0: e662 003e b0be be3e d41d 9b3e af5c 993e
000000b0: ee6d 983e ee18 e33e 9005 db3e c4e5 883e
000000c0: 70f4 c73e 5ad9 e93e 6e57 e63e e7d5 e73e
000000d0: fd40 be3e ffc4 c53e b6b6 b43e f8e1 863e
000000e0: ab41 703e 7422 d83e a98f d73e 883b 19be
000000f0: 1837 a13e db55 fa3e 571e f73e 1444 3e3e
00000100: 4a75 da3e a25b aa3e 6dd9 a43e c799 d73e
00000110: c216 d53e 8ab6 d33e 0cb3 303b 428f da3e
00000120: efd4 aa3e 670f d13e 3d0b e83e d24f b33e
00000130: 3e0a be3e 4729 c03e 3f59 843e c2f7 953e
00000140: 6c6a e33e 8fbd b83e b6b6 c83e 9e2b 8a3e
00000150: a0de b53e b5d5 e53e bf68 d23e 8b12 e43e
00000160: 078e e03e 83a9 ce3e 2df4 5cbd 6a74 4dbd
00000170: 3144 cc3e 18e4 0d3e c564 853e bf8a cb3e
00000180: 4145 bc3e 9437 db3e aa5d cd3e da10 d93e
00000190: 623b 993e 4ce3 df3e 8c4f ab3e 7bd7 ce3e
000001a0: 14d0 e13e 0142 a83e 3454 593e 0a1e d83e
000001b0: 2121 ca3e 3ade cd3e 7f7d ed3d dc47 d33e
000001c0: 3123 a33e 7c30 b23e 8b5a aa3e 8897 db3e
000001d0: bc35 bb3e afa0 d03e c7e6 de3e 1728 023f
000001e0: 3561 f5bd 6e46 8a3e 14cc aa3e 0880 be3e
000001f0: 9b6a 9c3e 9ab0 e53e 0486 9a3e 959a c23e
0.41802976 0.33398312 0.3062874 0.30739892 0.37391907 0.2648827 0.25015315 0.16555914
-0.19861591 0.4027257 0.3323795 0.30005416 0.48876768 0.3604066 0.2844793 0.4355563
0.29687324 0.35982624 0.49090493 0.3612686 0.27414742 0.29703555 0.19105014 0.40708053
0.32289213 0.42412627 0.36651143 0.3685732 0.43340334 0.34267563 0.4169566 0.017414916
0.30819747 0.43891364 0.36430997 0.35320964 0.36224338 0.44795105 0.36354998 0.4198148
0.12537727 0.37254858 0.30296195 0.29953524 0.2977137 0.44354957 0.4277768 0.26737797
0.3905368 0.4567364 0.4498858 0.45280382 0.37158957 0.3862686 0.35295647 0.26344275
0.2346255 0.42213786 0.42101792 -0.14964116 0.31487346 0.48893628 0.48265335 0.18580657
0.4266761 0.33273035 0.32197133 0.4210951 0.41618925 0.41350204 0.002696219 0.42687422
0.3336558 0.40832064 0.45321074 0.35021836 0.3711719 0.37531492 0.2584934 0.29290587
0.4441713 0.36082122 0.39201897 0.26986402 0.35521412 0.44889608 0.4109554 0.44545397
0.43858358 0.40363702 -0.0539438 -0.05015985 0.39895776 0.13856542 0.26053444 0.39754292
0.36771587 0.4281584 0.40110523 0.4239567 0.29928118 0.437281 0.33459127 0.40398774
0.44104064 0.32862857 0.21223527 0.42210418 0.394784 0.40208608 0.11596202 0.41265762
0.31862786 0.34802616 0.33272204 0.42889047 0.36564434 0.40747592 0.43535444 0.5084242
-0.119814314 0.2700686 0.33358824 0.37207055 0.30550084 0.448613 0.3018037 0.38008562

layer2_2.weight f4 [128, 128]
00000000: 70d1 093e dc5c a13e 78d9 913e 3292 5c3e
00000010: cdca 513e 324e 253e 8e33 4b3e 0799 223e
00000020: e97a 7a3e 8734 893e 316a 233e 32bb 7c3e
00000030: dfe2 823e 6d01 563e dfe5 483e 852f a63e
00000040: 3a99 653e e7d3 253e 28f2 e43e ac8b 093e
00000050: a52f 593e dc55 853d 9652 863d 0316 233e
00000060: 4772 513e 9251 893e 460e b33d 7eaf 323e
00000070: a204 953e 7d3f 403e 0125 353e 095a c93d
00000080: 684c 843e f05c 7f3e d494 613e 0a6d 133e
00000090: 5078 893e d29b 1d3e 73dd 5c3e 8a79 9e3e
000000a0: 9bb8 de3c 952b 583e d701 493e 65dc 7d3d
000000b0: ac10 803e c46d 1e3e b983 cc3d 2d02 1c3e
000000c0: f729 163e d0e0 823e c769 233e e980 523e
000000d0: 2542 533e 9f8f 033e 6b00 873e 581f 683d
000000e0: cc90 233e e355 853e c390 583e aaf0 663d
000000f0: c44d 2e3e 1c20 763e e583 283f bc63 273e
00000100: 6468 d23d 689c 073d 9493 633e c32d 603e
00000110: fe32 8e3e e25d 4c3e 8b85 833d 7373 013e
00000120: 5b45 8b3e f144 ad3e 0846 f63e 1d82 5a3e
00000130: bb22 8b3e 4242 023e c724 893d 5712 803e
00000140: bb3d ea3e 67a2 7f3e 0641 f13d 51f1 883e
00000150: 4613 f13d 0e6b 593e ddf9 533e 274d 8c3e
00000160: 285f bb3e 5d29 883e 1367 a93d 9544 4c3d
00000170: 369f 633e 21ec f83d b9c9 2a3e 01fe 6a3e
00000180: e0ab c13e f9a8 703e 0555 983e 4d6e 3a3e
00000190: 8b72 8b3e 63a6 203e 23f1 6d3e b465 dc3e
000001a0: 6ba2 333e 0ef4 4d3e 6e4b 2e3e 7258 7b3e
000001b0: 3628 243e fe84 203e 138e 7e3b 29c9 b83e
000001c0: 9e26 483e 5ab3 153e a9fa 8a3e 051e 873e
000001d0: e8f2 683e 462e 863e 0e13 0b3e fd5e 193f
000001e0: cbd4 9c3b ba8b cf3d 98a1 113e 5c1b 193e
000001f0: 304c 273e 6a6b c43d 2060 463e 1cab 463e
00000200: 9f5c 393e afa7 ab3e 4886 a43e 9132 913e
00000210: 58ec 683e a360 093e a81a 343e 47d0 f93d
00000220: 0c94 013e 350d 7c3e 405c 813e 7b8d 963e
00000230: b549 5e3e 8783 873e f548 273e 580f d13e
00000240: 21a0 663e 4c55 7a3e c57c 163f 369c 563e
00000250: f40c 363e 0b1f 1b3e b876 0c3e ef9f 493e
00000260: f854 303e ae8d b33e bce3 893e 446f 6f3e
00000270: 4d57 ad3e 038c 8e3e d527 a53e c214 583d
00000280: 46bc 763e 9b0e ae3e c242 a63e 7bcf e23d
00000290: 49a7 a63e 5631 8b3e b488 853e 5b86 a63e
000002a0: 1883 0c3e 4803 803e b384 183e 74fe d43b
000002b0: b2f5 9e3e c12a 8e3e e379 283e 477e 583e
000002c0: 3329 5c3e 46c8 a73e 082b ac3e 7b33 9b3e
000002d0: 2243 7f3e 0159 823e a6a5 9e3e f735 e23d
000002e0: eda9 f43d e32c 7d3e 7f38 d23e 9064 1dbd
000002f0: f56b 7d3e 4315 db3e 5a0d 3e3f fed0 243d
00000300: 3b04 9e3e 3b75 a13d e08d 4d3e e48a 9f3e
00000310: 7424 593e df8b 5b3e 791b 5b3b 24db 8d3e
00000320: 8b65 a23e 11b0 8d3e 370c 103f 2390 813e
00000330: 7fb6 bf3e d5b8 a13e d902 963d 3afb 963e
00000340: 1095 063f 64e7 983e 3c27 233e d66b 923e
00000350: 749f 3a3e cc31 a13e e875 5d3e 9cc2 703e
00000360: cb56 dd3e 9850 ae3e 546f 9ebc dc93 8ebd
00000370: b9ef b83e b7cf c93c fd6f f43d 991b b13e
00000380: 6329 e03e 39f9 993e 5c5a c43e e4e9 663e
00000390: 1c88 f73d de80 b53e 42b2 9c3e 524d dd3e
000003a0: 6ac5 843e 5936 9c3e b3a8 1a3e 9c57 623e
000003b0: ce9c 903e 8961 123e 60f7 45bd d22e 9f3e
000003c0: 4d0a 983e 2efa bd3d b17b 523e 2f5a bb3e
000003d0: 66ff b93e 4576 9b3e 798d 9f3e 4914 0b3f
000003e0: 1e4d a0bd 53ea d43d 9f89 543e 64e8 7c3e
000003f0: 864d d93d c74f 593e 0bd9 8f3e d004 e13e
0.134588 0.3151616 0.28486228 0.21540144 0.20487519 0.1614311 0.19843885 0.15878688
0.24460949 0.26797888 0.15958478 0.24680784 0.25563714 0.20898981 0.19618939 0.3245813
0.22421733 0.16194116 0.44716 0.13432187 0.21209581 0.06510517 0.06558721 0.15926366
0.2045375 0.26820046 0.08742957 0.17449757 0.29105097 0.18774219 0.17689897 0.09831626
0.25839543 0.24937797 0.2202943 0.14397064 0.26849604 0.15391472 0.21568851 0.30952102
0.027187636 0.21110375 0.19629608 0.061977763 0.2501272 0.1547156 0.099860616 0.15235205
0.14664446 0.25562143 0.1595832 0.20556988 0.20630701 0.12847756 0.26367506 0.056670517
0.15973204 0.2604209 0.21148972 0.05638186 0.17021853 0.24035686 0.65826255 0.1634664
0.10273817 0.033108145 0.22224265 0.21892457 0.2777328 0.19957688 0.06421956 0.12641697
0.27201352 0.3384166 0.48100305 0.21338697 0.27174935 0.12720588 0.06696468 0.25013992
0.45750222 0.24964295 0.1177998 0.2674661 0.11771254 0.21232244 0.20700784 0.27402613
0.36596036 0.26594058 0.08271613 0.049870092 0.22228703 0.12154413 0.16678514 0.22948457
0.37826443 0.23501958 0.29752365 0.18206139 0.27235827 0.15688471 0.23236518 0.43046343
0.17542426 0.2011263 0.17020962 0.24545458 0.16030964 0.15675732 0.0038842007 0.36090973
0.19545981 0.14619198 0.27144364 0.2639009 0.22748911 0.2620718 0.13581488 0.59910566
0.004786109 0.101340726 0.142218 0.14951843 0.16337657 0.095908 0.19372606 0.1940121
0.18101738 0.3352637 0.32133698 0.28358892 0.22746408 0.1341577 0.17588294 0.12197929
0.12654132 0.24614413 0.25265694 0.29404816 0.21707805 0.26467535 0.16336425 0.4083202
0.22522022 0.244466 0.58784133 0.20958027 0.17778379 0.1514856 0.13717163 0.19689916
0.17219913 0.3506903 0.2693156 0.23382288 0.33855668 0.27841195 0.32256952 0.05275417
0.24095258 0.33995518 0.32472807 0.1107473 0.32549503 0.27186078 0.2608086 0.3252438
0.13721883 0.25002503 0.1489437 0.0065000597 0.31046826 0.27766994 0.16452746 0.21141921
0.21500091 0.32769984 0.3362658 0.30312714 0.24927953 0.2545853 0.30985755 0.11045449
0.11946473 0.24724154 0.41058728 -0.038425982 0.24748214 0.4278966 0.7423912 0.040238373
0.30862603 0.07883688 0.20073652 0.31160653 0.21205312 0.21440075 0.0033433123 0.27706254
0.31718096 0.2767339 0.5626864 0.2530528 0.3744392 0.31586328 0.07324762 0.29488546
0.525712 0.29864037 0.15932935 0.28597897 0.18224889 0.31483305 0.21627009 0.23511738
0.4323028 0.34045863 -0.019340195 -0.06961796 0.36120394 0.024635179 0.119354226 0.34591368
0.43781576 0.30072954 0.3835019 0.2255016 0.12086508 0.3544988 0.3060475 0.43223053
0.25931865 0.30510214 0.15103416 0.22103733 0.28244632 0.14295019 -0.04833162 0.3109041
0.2969536 0.092762336 0.20554997 0.36592242 0.36327666 0.3036367 0.31162623 0.5432783
-0.07827209 0.10396256 0.20755623 0.24698025 0.106104895 0.21221839 0.28095278 0.43948984

layer2_2.bias f4 [128]
00000000: 505c 2f3e f59c 983e 68a3 823e 7597 883e
00000010: 5c34 1cbe 8813 5d3d 4e21 3e3e b3a6 e93d
00000020: 2eea 9a3c 1c4b 60bd 8a05 62bd 8c15 243e
00000030: 9eb9 c5bc 9ed5 573e 2b30 303e 2a26 103e
00000040: 06cb babd c011 d9bc 8b68 fcbc 7b4a 3e3e
00000050: 754e ff3e b1f4 453e 0dce 163d d301 8a3d
00000060: ea35 61bc ff61 50bc 1ea4 19bd 0591 6f3e
00000070: d536 82bd 0419 d93c 6132 c43d 8439 933e
00000080: bb0c 0ebe 9764 0d3e 4685 cabc 4e58 7d3e
00000090: 7cd2 6d3e 0675 5f3e d5a1 243e c55d 6bbd
000000a0: 8f6f 6f3e ad72 5d3e e099 113e 2758 5c3e
000000b0: d678 8f3e b882 113e 74ec 5c3e 7aec 513e
000000c0: f59e acbd da55 91be fc69 f13d 89fc 44bd
000000d0: 0fe7 123e 87d9 4f3e 4c55 2e3d bda8 a0bd
000000e0: 9d5f e13d 93bd 543e 43bc 163b e255 06be
000000f0: 4b9c 7a3e 4c93 5e3d fe8f 923e 0c28 733e
00000100: d774 533e 1a24 bdbd 1995 febc 25e2 52bd
00000110: 062e 89be 1b22 e43d f73b 483c 3750 fbbd
00000120: bd1c 0e3e 7bae fa3d 0cfa b93e f210 523e
00000130: 5c91 1c3d 21ff 323e e834 92bd 4637 88bd
00000140: b8b4 823d 3995 823c fe18 563e b760 6a3e
00000150: d745 113e 1483 6abd 1897 efbd 1516 66bd
00000160: 1c32 4e3e 4035 c83d 5dd1 71bc a9a3 673d
00000170: 6134 8c3e b48d c73b d4cc 73bd 7e99 ccbd
00000180: 6730 c93c 101a 463c ffa9 953d dce8 e73d
00000190: e32b 92bc f54a 72bd d237 ff3c b343 ab3e
000001a0: 33cb 513c 2981 273e a9f6 90be 19bb 503e
000001b0: cf4a 94bc fc79 523d ea3c 4c3e bc33 c43d
000001c0: 2168 353c 0f6d 633e 275a d0bd b021 c43d
000001d0: 9c08 703e 99e6 edbc 858a 903d 45c7 da3c
000001e0: 0f18 813c a98d 233e 15d8 33bd dbc0 013d
000001f0: 7a70 b0bd a04c d63b 2c45 62bd 8b37 2d3e
0.17125058 0.2980725 0.25515294 0.26678053 -0.15254349 0.053973705 0.18567392 0.114087485
0.018910494 -0.05475913 -0.055181064 0.16023844 -0.02413636 0.21077582 0.17205875 0.14077058
-0.09120755 -0.026497722 -0.030811569 0.185831 0.49864545 0.19331624 0.0368176 0.06738629
-0.013745764 -0.012718677 -0.03751003 0.23395164 -0.06358115 0.026501186 0.095799215 0.28754818
-0.13872044 0.13807903 -0.024721753 0.24740717 0.23224825 0.21821985 0.16077359 -0.057462472
0.233824 0.21625777 0.14218855 0.21518002 0.28021878 0.14210021 0.21574575 0.20500365
-0.08428756 -0.28385812 0.11787793 -0.0480924 0.14345954 0.20297824 0.042561814 -0.07844684
0.11004565 0.20775442 0.0023000396 -0.13118699 0.24473684 0.054339692 0.28625482 0.23745745
0.2065004 -0.092354015 -0.031076955 -0.0514852 -0.26792926 0.111393176 0.012221328 -0.12271159
0.1387815 0.12240311 0.36323583 0.20514277 0.038224563 0.17480136 -0.07138997 -0.066511676
0.063821256 0.015940296 0.20907971 0.22888456 0.14186798 -0.057253912 -0.11698741 -0.056173403
0.20136303 0.09775782 -0.014759389 0.056552563 0.27383712 0.0060898904 -0.05952151 -0.09990214
0.024559213 0.012091175 0.07307815 0.11323711 -0.017843192 -0.059153516 0.031154547 0.33450088
0.012804794 0.16357864 -0.28313187 0.20383872 -0.018102078 0.051385865 0.19945112 0.0958018
0.01107219 0.22209571 -0.10173445 0.09576738 0.23440784 -0.029040622 0.070576705 0.026706347
0.015758542 0.15972008 -0.043907244 0.031678062 -0.08615203 0.006539896 -0.05524175 0.16915719

layer3_2.weight f4 [1, 128]
00000000: 4271 95be 2bb1 89be 9612 8dbe 1c67 87be
00000010: 821a 023f c2b4 ba3c 703c 91be 1284 95be
00000020: 307b 753c 963f 923d 0dca f23c bd02 97be
00000030: a71d 4f3d 9c4f 80be cd56 8fbe 3cad 98be
00000040: a058 973e fb1f 573c 35e0 a03d 70f6 90be
00000050: 0d01 05bf f497 82be 4e26 0d3d bfec 493d
00000060: e18b 3f3e bcfa 9f3d 1078 a6bc af15 83be
00000070: 3e48 e43c 02e7 713d f8a2 95be 3c8d 81be
00000080: adce 1a3f 330f a0be 4bf7 2b3e 7db0 84be
00000090: ef93 7bbe 5009 8dbe 4b28 94be 2353 f63c
000000a0: 39bc 9bbe 24d5 94be 8500 85be 25a9 86be
000000b0: 2196 73be 6c1f 87be 27ed 74be c523 9fbe
000000c0: 7165 ae3d 45bb f53e 6245 91be f1b3 5abd
000000d0: dd92 76be 3095 a2be 5677 873d 4e00 823d
000000e0: 113c b0be aa4a 8cbe ca56 1a3c f808 e53e
000000f0: 3494 72be 1442 c03c 7e89 83be f617 8abe
00000100: 6971 89be c12f 813d 7f06 ea3b 708c 94bb
00000110: dc6b 103f d2fe a6be a6aa 543d 52a2 f53e
00000120: 84c8 7ebe 3f33 95be ac19 b6be e40d 90be
00000130: b548 2e3e 92e2 86be c39b 223d 0493 ac3c
00000140: 280f 883c 064a 9f3c 6a1f 9abe 4b28 83be
00000150: c003 8bbe 8c6a 843d d1b4 fa3e 4570 fd3c
00000160: 73c6 8bbe a700 89be db27 183d d002 653d
00000170: 42ba 81be 981f 483c 84b4 aa3d 6323 d23e
00000180: 31e2 493c d0ff cb3c c620 473c f4a4 9cbe
00000190: 53cd 783c 0f79 813d c58b 7a3d c2b7 c8be
000001a0: 75af 753b 48ac 94be 534d 093f aeb4 8ebe
000001b0: 606a a93c a17d 023e 271d 78be 9dcc 9ebe
000001c0: 3637 653b 3955 7bbe dc8d a23e a7aa a0be
000001d0: ec89 97be 312c c83b effc c83c 37cc 523c
000001e0: 2240 d73c 875a 82be 60b1 543d 37b7 dc3a
000001f0: c426 0f3c 89bb 593d fd59 563c f061 9bbe
-0.2918797 -0.2689298 -0.27553242 -0.26445854 0.508217 0.02279127 -0.28366423 -0.29202324
0.0149829835 0.07141034 0.029637361 -0.29494277 0.050565388 -0.25060737 -0.2799591 -0.29819667
0.29559803 0.013130183 0.07855264 -0.28313017 -0.5195473 -0.25506556 0.03446036 0.049298044
0.18705703 0.07811496 -0.020320922 -0.2560248 0.027866479 0.059058197 -0.29225898 -0.25303066
0.6047161 -0.31261596 0.16793554 -0.259159 -0.24568151 -0.27546167 -0.2893699 0.03006894
-0.3041704 -0.29068863 -0.2597696 -0.26300922 -0.23787738 -0.2639116 -0.23918591 -0.31081977
0.08515442 0.47994438 -0.28373247 -0.05339426 -0.24079461 -0.31754446 0.066145584 0.06347714
-0.34420827 -0.27400714 0.009420106 0.44733405 -0.23689348 0.023469009 -0.25690836 -0.26971406
-0.26844338 0.063079365 0.0071418877 -0.004533343 0.5641458 -0.32616287 0.051920556 0.47975403
-0.24881178 -0.2914066 -0.3556646 -0.28135598 0.17019923 -0.26344734 0.039699327 0.021066196
0.01660879 0.019444477 -0.30102092 -0.2561668 -0.271513 0.06465635 0.48966077 0.030937323
-0.27299842 -0.2675831 0.037147384 0.055910885 -0.25337416 0.012214564 0.08335212 0.41042623
0.012321995 0.024902254 0.01215381 -0.305946 0.015185672 0.06321918 0.06116845 -0.39202696
0.0037488614 -0.2903769 0.5363361 -0.27872223 0.020680606 0.12743236 -0.2422987 -0.31015483
0.0034975535 -0.24544229 0.31748855 -0.31380197 -0.29597414 0.0061087837 0.02453467 0.012866071
0.026275698 -0.25459692 0.05192697 0.001683927 0.00873727 0.053157363 0.013082978 -0.30348158
