rl_energy_manager_20250325_1542/models/checkpoint_100/actor.pth (torch, 82676 bytes, 6 tensors)

layer1.weight f4 [128, 18]
000000 cf 16 1f 3e 46 6b 5a 3e eb 87 ff bc 6f 08 22 3e
       0.15536045 0.21329984 -0.03119274 0.1582353
000010 25 90 87 bc 30 87 82 3d a5 68 d3 bd c1 1e 0c 3e
       -0.016548226 0.06373441 -0.10322694 0.13683607
000020 66 30 69 3e 5e 11 31 be 36 2a 63 3e 26 73 8a 3d
       0.22772369 -0.17291781 0.22184071 0.06760244
000030 94 99 57 3e 22 ba e4 3c eb 26 dc 3d 6f 88 df bc
       0.21054679 0.027920786 0.107496105 -0.027286736
000040 21 09 43 3e 46 36 20 3d 26 5a e1 bd 8c 16 76 3d
       0.19046451 0.03911426 -0.110035226 0.060080096
000050 ee 67 de bd 60 70 e2 bc 5e 0f c4 bd 53 1c 20 3e
       -0.10859667 -0.027641475 -0.095732436 0.15635805
000060 8d 85 3e be c0 89 de bd b4 4e 88 bd 62 1f 11 be
       -0.18605633 -0.108661175 -0.066556364 -0.14172128
000070 e8 3d b6 3c a7 62 6e be 3f f9 59 3e e3 06 4d be
       0.022246316 -0.2327982 0.21286486 -0.20022158
000080 f9 55 3a 3e c4 aa 20 3d a4 bd 9c bd d9 25 15 3e
       0.18196858 0.039225355 -0.076533586 0.14565219
000090 7c d4 09 3e f9 f7 82 3e 83 46 ba 3d 70 cd c7 bb
       0.13459963 0.25579813 0.0909548 -0.006097488
0000a0 79 e9 e9 3d 39 2c f0 3a cd 51 29 3e 49 51 8e 3e
       0.114214845 0.0018323726 0.16535111 0.2779639
0000b0 41 74 4e 3e fa 07 d3 bd 11 31 4d 3e d1 5b ca 3d
       0.20161535 -0.10304256 0.20038249 0.09880794
0000c0 ac 87 3c 3e 3a af 9f bd b4 51 33 be 00 b4 d7 bc
       0.1841113 -0.07797094 -0.17511636 -0.026330948
0000d0 f5 b6 e7 bd 44 3d 85 3e ba 09 8b 3d ce f2 c7 3d
       -0.11314193 0.26023304 0.067889646 0.09763108
0000e0 3e aa 98 3d 80 5b 86 bb bf e3 3c 3e 2a 7d 2b be
       0.07454346 -0.004100263 0.18446253 -0.16746965
0000f0 50 26 73 3c c0 bc 24 be de d8 94 3d 56 3d a6 bd
       0.014840677 -0.16087627 0.07267927 -0.08117168
000100 aa e9 93 3d f4 23 49 bd 69 2e 48 3e d4 0d 0f be
       0.07222302 -0.049106553 0.19548954 -0.13970119
000110 33 f2 0f be 6c f4 0f be b7 16 59 3e ca dd a0 3d
       -0.14057235 -0.14058083 0.21200071 0.07854803
000120 5b 26 5b 3e e8 73 39 be 2d c6 6a be 4a 65 31 be
       0.2140135 -0.18110621 -0.2292716 -0.17323795
000130 12 5c 22 be 85 e0 de 3d 51 6d c8 3d e9 7c 56 3e
       -0.15855435 0.108826675 0.097864754 0.20946087
000140 2f 28 e3 bd 90 89 24 be 11 23 69 3d 44 b8 37 be
       -0.11091649 -0.16068101 0.056918208 -0.17941386
000150 13 20 54 3d 4d 97 b4 bd 01 8e b8 3d 7f 3b 6d be
       0.0517884 -0.08817921 0.0901146 -0.23167227
000160 51 bd 30 be 68 af c3 3c 45 a3 85 3d 0d 21 a3 bd
       -0.17259718 0.023887351 0.06525282 -0.07965288
000170 e1 f9 e0 3d fd e0 0f 3e e9 c1 67 be cb 7b 14 be
       0.109851606 0.1405067 -0.22632565 -0.14500348
000180 76 be 46 3e e0 1e c6 bd 9e 69 d9 bd ac 89 69 be
       0.19408593 -0.09673858 -0.10615848 -0.22806424
000190 43 b5 e5 bd 17 89 86 3d ea 2e b2 bc 9a 4c 27 be
       -0.112162136 0.065691166 -0.021750886 -0.16337815
0001a0 34 23 2b 3c 4e 2f 20 be db 3b 3f be 2b f4 f1 bd
       0.010445405 -0.15643045 -0.18675177 -0.118141495
0001b0 6f 10 45 be ba ae 19 be c5 43 71 3e 84 aa f7 3d
       -0.1924455 -0.15008059 0.23561008 0.1209307
0001c0 1a c1 94 3d a3 1c 61 be b2 84 1e be 2e be 07 3d
       0.07263394 -0.2198358 -0.15480307 0.033140354
0001d0 64 f7 16 3d 85 60 54 be c6 8d 1a be 55 55 41 be
       0.036857024 -0.20739944 -0.15093145 -0.18880208
0001e0 38 48 39 bd 7e 5e 00 be 0d 76 93 bd 71 cb 55 be
       -0.04523489 -0.12536046 -0.07200251 -0.20878388
0001f0 77 39 52 be 72 e7 3a be a9 29 b9 bd 09 80 3e be
       -0.20529734 -0.18252352 -0.09041149 -0.18603529
000200 51 5f 4a 3e f7 56 03 bd 23 aa 4f 3e 06 68 96 3d
       0.19762923 -0.032065358 0.20279746 0.0734406
000210 d6 61 4c be 0b 75 41 3e 42 d1 84 bd da 09 b9 bd
       -0.19959196 0.18892305 -0.06485225 -0.09035082
000220 6c 23 3f be 36 d9 64 be a4 a5 9e 3d 27 98 dd bc
       -0.18665856 -0.22348484 0.07746437 -0.027050091
000230 20 8d d8 3d 2b ce 39 be d9 54 3f 3e 59 dc 21 be
       0.105737925 -0.18145053 0.1868471 -0.15806712
000240 ac d9 f2 bc 95 81 22 3d 9c 64 b4 3d 3e 13 26 3e
       -0.02964481 0.03967436 0.08808252 0.16218278
000250 a0 f5 13 3e 13 5b 45 be 53 c1 78 3d 38 a1 c3 bd
       0.14449167 -0.19273023 0.060731243 -0.095522344
000260 89 d6 33 bd a8 a7 34 be e0 5b 76 3e 54 a6 17 be
       -0.04390577 -0.17642081 0.24058485 -0.14809543
000270 99 9a 25 3e ef b9 c3 3d 2c b7 b0 3d 1b 94 e2 bd
       0.16172256 0.095569484 0.08628687 -0.11063405
000280 e9 de 70 3e b3 ed 90 3d bf 1a d9 3c 37 16 5b be
       0.23522533 0.070765875 0.026502011 -0.21395193
000290 54 38 b6 3d a8 27 b6 b8 82 ca f9 bd 08 a4 49 3e
       0.088974625 -8.685823e-05 -0.121968284 0.19691479
0002a0 59 de 44 3d 5d cd e9 bd 45 0c 02 be a0 6b 38 bc
       0.04806361 -0.11416123 -0.12699993 -0.011256129
0002b0 1e 71 8b 3d 2d 0e be bd 59 9a 30 be ef a3 9d bd
       0.06808685 -0.092800476 -0.17246379 -0.076972835
0002c0 5c fa 3b be d7 e5 75 3d ae d2 10 3e f3 7f 78 be
       -0.18357223 0.060033645 0.14142868 -0.24267559
0002d0 13 f0 ce 3c c5 8b 98 3d 34 8a 5c bc 4c 0f d8 bd
       0.02526096 0.07448534 -0.013460685 -0.10549793
0002e0 2e f8 6b 3d d8 bf a1 3d 98 5b 52 3d cb a1 88 bd
       0.05760973 0.078979194 0.05135688 -0.066714846
0002f0 00 77 e8 bd 08 91 ce 3c d8 3f 7f bd f8 66 81 bd
       -0.113508224 0.02521564 -0.062316746 -0.06318468
000300 7d dd 24 3e c9 31 2e 3e 08 86 5d bd bb 82 aa bd
       0.16100116 0.17011179 -0.0540829 -0.08325716
000310 42 8f b6 bc 5c f2 29 bd 14 1a 68 3d 1e 46 87 3d
       -0.022285108 -0.041490898 0.056665495 0.06605171
000320 4f 37 5b be 28 24 b2 bd 71 41 4b 3e 9a 0b bc 3d
       -0.21407817 -0.086983025 0.19849183 0.091819
000330 f0 12 40 bc 4d 84 11 be 2c aa 13 be 95 33 58 be
       -0.011723265 -0.14210625 -0.14420384 -0.21113427
000340 16 59 9d bd 16 04 a3 3d 53 e5 19 3e a6 de de 3d
       -0.076830074 0.07959764 0.15028886 0.108823106
000350 13 59 55 be f2 24 11 be a8 5c 18 bd 87 7a 69 3e
       -0.2083476 -0.1417425 -0.03719774 0.22800647
000360 5c a8 0b 3d 10 05 7a bd 3a b5 c7 3d c4 db b7 bd
       0.034096107 -0.061039984 0.09751363 -0.08977464
000370 97 38 1c be 39 2a 30 3e 2a 7e db bd b4 89 41 bd
       -0.15255962 0.17203607 -0.10717423 -0.047250465
000380 e6 1a 70 be d9 88 21 3e ad dc 36 3e 02 ed af 3d
       -0.23447761 0.1577486 0.17857619 0.085901275
000390 22 4b 28 be fa 34 6e be dc 06 44 be 47 fb 33 3e
       -0.16434911 -0.23262396 -0.19143242 0.17576323
0003a0 7e c1 e7 3d d3 1a 4b 3e 61 78 fb 3d 2c 58 74 3d
       0.113162026 0.19834451 0.1227882 0.0596544
0003b0 80 44 17 bb 11 3d 96 bd 2f ca 4e be 42 c1 61 be
       -0.00230816 -0.07335866 -0.20194314 -0.22046378
0003c0 42 9b c5 3d 57 15 2e bd ec 4b 42 bd 48 e7 0a be
       0.09648754 -0.04250082 -0.047435686 -0.1356479
0003d0 4e 7a ba bd 59 2c 52 be ac 1e 49 be 16 ed 8b 39
       -0.09105359 -0.2052473 -0.19640607 0.0002668879
0003e0 19 8b 00 be f2 fe c0 3d 16 e7 f0 bd 02 ff 5b be
       -0.12553062 0.09423627 -0.11762826 -0.21483997
0003f0 93 2b 74 bc 5a 64 c3 bd a1 5c 5d bd 0b 7a 61 be
       -0.014902967 -0.09540625 -0.054043416 -0.22019212

layer1.bias f4 [128]
000000 fc 08 ba bc 9a 93 3f be 05 63 cf bd 40 36 44 be
       -0.022709362 -0.1870865 -0.10126308 -0.1916132
000010 67 8e a2 bd 73 7b 58 3e f6 5b ed 3d a5 7f 0a bd
       -0.07937317 0.21140842 0.11589806 -0.033813138
000020 42 05 0c 3d 9a 9f cd 3d bd a1 f4 bc 90 ac 42 be
       0.0341847 0.10040207 -0.02986228 -0.1901114
000030 53 b4 14 be 78 e5 15 be 62 14 31 3c c8 f0 5c be
       -0.14521913 -0.14638317 0.010808082 -0.21576226
000040 a2 c7 0e bd 91 46 80 bd 8a 70 56 3e fe f4 3f 3e
       -0.034858353 -0.062634595 0.20941368 0.18745801
000050 a0 76 18 3e 36 95 da bb 06 f2 24 bd d7 ef 6d 3d
       0.14889002 -0.0066706194 -0.040269874 0.058090057
000060 1e c3 26 be 9a e1 cd bd 00 57 66 bd fe 7b 8e bd
       -0.16285369 -0.10052796 -0.056235313 -0.069572434
000070 d9 a3 64 be 5c fb 99 3d d5 d6 4d 3e a5 14 ca bd
       -0.22328128 0.07518646 0.20101483 -0.09867219
000080 09 fd 8b 3d 33 53 b4 bc 36 0b 6a 3a a7 ed bd 3c
       0.06835372 -0.022012329 0.0008928062 0.02318461
000090 dd b6 50 3e 17 2d d2 3c 7a 1f 27 be ea a3 ad bd
       0.20382257 0.025656266 -0.16320601 -0.0847853
0000a0 e2 cf dd 3d bb 78 72 3d 25 b4 6d bc be 12 36 bd
       0.10830666 0.05919717 -0.014508282 -0.044451468
0000b0 0f 50 3f bd b8 c8 94 bd 01 72 04 be 45 49 09 3d
       -0.04670721 -0.072648466 -0.12934114 0.03351714
0000c0 da 97 dd 3c 5e b2 14 3e 9a d4 70 bd 9a af 0f bc
       0.027049948 0.14521167 -0.058796503 -0.008769894
0000d0 21 d3 23 3e ef 23 f8 3c a7 ac 46 3c ef 23 b5 3d
       0.15998508 0.030290572 0.012126124 0.088447444
0000e0 17 a4 ea 3c 2e 09 4f be 85 a9 2e 3b df 3f 2a bd
       0.028642697 -0.20218346 0.0026651334 -0.04156482
0000f0 6c f6 5c 3e aa 42 2c 3e 94 a3 88 3d 4b 94 43 3e
       0.21578377 0.16822305 0.06671825 0.19099538
000100 3a a6 e8 bd 10 7e 57 3e c3 c6 4f 3e e1 76 1d bd
       -0.1135983 0.21044183 0.20290665 -0.03844345
000110 24 17 4a be c3 df 7f bd 2f db b1 bd 3c ae 34 bc
       -0.1973539 -0.062469255 -0.08684384 -0.011027869
000120 1c d4 5a be 02 24 ec 3c 95 fa fe bd d3 75 9a 3d
       -0.21369976 0.028825764 -0.124501385 0.075420044
000130 61 c4 bb bd d9 8a 81 bd 02 28 60 be 42 d5 c4 bd
       -0.09168316 -0.06325311 -0.21890262 -0.09610988
000140 b6 83 f2 3b e5 02 25 3e b1 43 47 3e ee 56 39 be
       0.007400955 0.16114385 0.19459416 -0.18099567
000150 8f d0 76 3d d6 3f be bd c6 9b 3a be e6 76 a3 3b
       0.06025749 -0.092895195 -0.18223485 0.004988539
000160 f3 c1 f7 bd a2 de 4f be 14 8f 61 be d0 76 10 be
       -0.1209754 -0.20299771 -0.22027236 -0.14107823
000170 da 25 35 3e 22 7c f8 3d 61 61 c4 bd b2 3d 1c be
       0.1769022 0.121330515 -0.09588886 -0.1525791
000180 b8 56 23 be c5 cf ee bd 42 a3 c6 bd 54 86 33 3e
       -0.1595105 -0.11660723 -0.09699108 0.17531711
000190 05 8c 75 3d 52 da 8d bd 99 28 1a 3e 93 bb 33 be
       0.059947986 -0.06926407 0.1505455 -0.17552023
0001a0 e3 a1 44 be 64 33 44 3d 5a 45 08 be d6 30 7b 3d
       -0.1920238 0.047900572 -0.13307706 0.06132587
0001b0 73 a1 47 3e 06 76 fc bd 5c 6c 28 be 4e e6 85 3d
       0.19495182 -0.12327199 -0.16447586 0.06538068
0001c0 f7 e5 41 be 7d c3 4d 3e 11 fe 03 be c8 5c dc 3d
       -0.18935381 0.20094104 -0.12889887 0.10759884
0001d0 05 ec 3f be 5d 5d 1e be b6 10 17 3d bc e7 54 3d
       -0.18742378 -0.15465303 0.03688117 0.05197881
0001e0 be 37 32 3e b2 1b 5b 3e 7e 24 00 bd 33 f1 ce 3d
       0.17404076 0.21397284 -0.0312848 0.10104599
0001f0 61 73 91 3c 20 43 60 bd fb cf cf bc 9c 52 73 be
       0.017755212 -0.054751515 -0.025367728 -0.23761982

layer2.weight f4 [128, 128]
000000 e2 e9 ef bc 6e 17 78 3d a3 59 39 3d d3 8c 8e 3d
       -0.029286329 0.06056922 0.0452515 0.06960454
000010 1a c6 6e 3d 94 5d 45 3d e7 c2 ae 3d 59 e8 33 bd
       0.058294393 0.048184946 0.085332684 -0.043922756
000020 70 b6 6f 3c cd bf 2b 3d 2d 44 84 3d ac 2b b0 bd
       0.014630899 0.041930962 0.06458316 -0.0860208
000030 de ac 00 3d c8 d7 0b bd a0 7a 41 3d ea ef 74 3d
       0.03141486 -0.034141332 0.047236085 0.059799112
000040 92 f3 00 3d 4d 01 8b 3c 38 6d 8b 3c 55 0a cf 3d
       0.031482287 0.016968394 0.017019853 0.101093926
000050 e8 5d 9c 3d ef a2 6e 3d af 9c 63 bd 5b a7 57 bc
       0.07635099 0.058260854 -0.055569347 -0.013162459
000060 1b 31 90 3d a3 3a 82 3d d8 0d ba 3d a7 a4 e5 bc
       0.07040616 0.0635884 0.09084672 -0.028032614
000070 ff f9 8c 3d 9a ad e4 3c 71 aa b9 3d 22 56 c2 3d
       0.068836205 0.02791481 0.09065712 0.09489085
000080 1c b8 fa 3c 67 6f 06 bd d7 4f b5 3d a2 23 54 bd
       0.030605368 -0.032821085 0.08853119 -0.051791795
000090 ab cc af 3d 11 5f 47 bd 9a a5 54 ba 93 d2 9d bd
       0.08583959 -0.048674647 -0.0008111835 -0.077061795
0000a0 14 d7 59 bc bd fc 9a 3d 85 bf 1e bd 2c ea 76 bd
       -0.0132959075 0.07567737 -0.038756866 -0.060281917
0000b0 3c 14 ad 3d 2a 61 bf 3d 7f d5 09 3c 39 02 f8 bc
       0.08451125 0.093447044 0.008412718 -0.030274497
0000c0 d2 b9 a5 bb 12 28 86 3b 0d ad e5 3d bf 18 cb bc
       -0.005057552 0.004094132 0.112146474 -0.024792073
0000d0 07 4f bf 38 ab 9f e4 bc 39 c5 f9 bb bf e9 9c 3d
       9.12231e-05 -0.027908167 -0.0076223877 0.07661771
0000e0 08 57 5f 3d 00 66 52 3c 00 13 90 bc 40 da 03 3e
       0.05452636 0.0128417015 -0.017587185 0.12876225
0000f0 71 c6 42 3d 54 a7 be bb fe ec 91 3b c9 39 aa 3c
       0.04755253 -0.005818287 0.0044533005 0.020779507
000100 2e cb ad 3d 84 5b 78 3d 1f 09 c0 3d 22 f7 05 3d
       0.08486019 0.06063415 0.0937674 0.032706387
000110 75 8a 9f 3d fd ea 6c bc 26 95 1c bc 82 26 bb 3b
       0.077900805 -0.014460322 -0.009557044 0.0057113776
000120 73 d5 a9 bd 9f 0f ce bc 6e f4 00 bd 64 7f 85 3d
       -0.08292665 -0.025153933 -0.031483106 0.065184385
000130 34 1b 3c 3d 7c 60 ad 3a 4a 69 77 bd 21 98 f5 3d
       0.04592438 0.0013227607 -0.060403146 0.11991907
000140 38 22 79 bc 05 28 a4 3d f9 31 b5 3d e3 58 67 bd
       -0.015205912 0.080154456 0.08847422 -0.056481253
000150 00 1b d7 3c c8 f4 c6 3d 05 79 af 3d 76 ae ee bb
       0.026257992 0.09714657 0.085680045 -0.007283981
000160 47 7c 92 3d 72 13 8e bd 14 3b 6b bd 49 28 b9 3d
       0.0715261 -0.06937303 -0.05742939 0.09040887
000170 22 6f d1 3c bd 72 f7 3d 85 d9 5f 3d 1f 17 7f bc
       0.025565688 0.120824315 0.054650802 -0.015569477
000180 2a b9 e2 3d 46 eb f1 3d c0 65 06 3c 25 63 61 bd
       0.110704735 0.11812453 0.00820297 -0.055026192
000190 39 d9 82 3c f8 16 82 3a bb dd c2 3d c9 0e 03 3d
       0.01597272 0.0009925058 0.09514948 0.031996522
0001a0 10 6f 98 3c 9e aa b3 3d 87 00 05 3d 18 10 9a bc
       0.018607646 0.08772777 0.032471206 -0.018806502
0001b0 7c 10 ce 3d a9 0b 78 3d e6 7f 5f bd 8c e0 97 3d
       0.10061738 0.060557995 -0.054565333 0.07415876
0001c0 35 4c 32 3d 93 97 64 3c 8a 2f f0 bc ca f4 ae bc
       0.043529708 0.013952154 -0.029319543 -0.021356959
0001d0 ad 7a b1 bd d3 e8 c0 3d fd 63 b7 3d 21 d5 43 3c
       -0.08665977 0.09419408 0.08954618 0.011952669
0001e0 d0 12 d5 3d 84 6a 91 bc 2c 63 74 3d ed f5 60 3c
       0.10403979 -0.017750986 0.05966489 0.013730508
0001f0 7b ab 9b 3b ca 58 12 3d 17 14 8d 3d 5c e1 40 bb
       0.0047506667 0.035729207 0.068885975 -0.00294312
000200 bf d4 05 bd 4e 0f 7d 3d 32 08 86 3d 90 66 68 3c
       -0.032673594 0.061782174 0.06544532 0.014184609
000210 c1 34 05 bd 82 22 ab 3c 85 78 74 bc bb 3c a6 3d
       -0.032521013 0.020890478 -0.014921312 0.08117052
000220 1d b4 c1 3c 9b b5 23 ba 8b 9b 49 3c 9e 9b 40 3d
       0.023645455 -0.0006245018 0.012305151 0.047023408
000230 00 25 8f ba 41 cc 8b 3d 54 51 81 3d 79 c8 88 bd
       -0.0010921061 0.06826068 0.0631434 -0.06678862
000240 98 10 2d 3c 1e 00 76 bd 0a 1d 83 bd 5d f6 f2 3c
       0.010563038 -0.060058706 -0.06402023 0.02965849
000250 f8 2f ea 3c f5 35 6a 3c 5b 34 9f 3d 82 52 21 bd
       0.028587326 0.014295091 0.07773658 -0.039385326
000260 a9 b9 17 bd 68 ea 67 bc ad 67 e8 3b 5e 7a a5 38
       -0.037042294 -0.014155008 0.0070924372 7.890606e-05
000270 df fc a2 3d 99 aa f0 bc c1 da 1e bd 18 0c c6 3a
       0.079583876 -0.029378222 -0.03878284 0.0015109805
000280 e9 12 9c 3d 07 47 93 3c 49 e9 3d 3d 11 5c 63 3c
       0.07620794 0.017978204 0.046365056 0.013876931
000290 56 b8 b4 3d b6 26 81 3d 86 4b a0 3d 50 0d 43 bc
       0.08824222 0.06306212 0.07826905 -0.011905029
0002a0 b8 98 9a bd ea fc e5 bc 20 3b 00 3d 38 71 9a 3d
       -0.0754866 -0.0280747 0.031306386 0.07541126
0002b0 50 2f f0 bc 2a b2 77 3d 52 2b 95 3c 2b 11 2f 3c
       -0.029319435 0.060472645 0.018209133 0.0106852455
0002c0 96 47 e5 3b 44 59 76 bb c1 53 dd 3d 58 cf c2 3c
       0.006997059 -0.0037589828 0.108069904 0.02378051
0002d0 82 8f 51 3d d8 44 93 bd 67 6d 0b bd a3 75 6c 3c
       0.05116225 -0.07190865 -0.03403988 0.014432344
0002e0 fc 65 83 3d ae 5c 2c 3d f4 08 d0 3c c7 99 95 bd
       0.06415936 0.042080574 0.025394894 -0.07304721
0002f0 15 eb 84 3c 68 1f 6e bd 6a f0 8a bd 78 86 9b 3c
       0.016225377 -0.05813542 -0.067841366 0.018985018
000300 f5 29 65 bd bd 79 a9 3d e1 64 3a bd c0 16 11 3d
       -0.055948216 0.08275173 -0.045506362 0.035422087
000310 d6 80 54 3d fc 80 71 bd 67 48 8a 3d 32 be 5f ba
       0.05188068 -0.0589609 0.06752091 -0.0008535116
000320 4e 98 3b 3d 5a 56 c6 3d b2 11 b5 bc d5 18 7f bd
       0.045799546 0.09684439 -0.022103164 -0.06227954
000330 fa 22 a1 3d ff e2 0d 3d b0 6d 10 bc 8e a7 96 3d
       0.078679994 0.03464031 -0.008815214 0.07356177
000340 7e c9 62 bc e0 8a 29 3c 2c 96 97 3d 1a 7d 0d 3d
       -0.013841985 0.010348052 0.0740169 0.034543134
000350 5c f4 53 bd 75 c5 1f 3d 0b 04 8a bd f8 6e 42 bd
       -0.05174671 0.03900667 -0.067390524 -0.04746911
000360 2e 2a 7e 3d bc f9 c0 bc 2f 68 38 bd 97 c0 f2 3b
       0.062051944 -0.023556583 -0.045021232 0.0074082124
000370 3e 4a e5 3c 1c 4e 36 bd 72 ec 3c bd 5e 81 7d bd
       0.027989503 -0.044508085 -0.04612393 -0.061890952
000380 7c 1e b7 3c 1d 44 65 bd 10 b9 dc 3b 2b a8 10 bd
       0.022353403 -0.05597316 0.0067359284 -0.035316627
000390 53 ea 6e bd 85 61 cf bc d5 05 6b bd 99 40 d1 bc
       -0.058328938 -0.025315056 -0.05737861 -0.025543498
0003a0 20 90 34 bb 31 66 7a bd 94 e4 a3 bd a3 a0 a1 3d
       -0.0027551726 -0.061132614 -0.08002582 0.07891967
0003b0 a1 50 a6 3c a7 a7 18 bd c0 98 40 bb 5c 5e 86 3d
       0.020302119 -0.03726926 -0.002938792 0.06560966
0003c0 64 66 aa bd 6f 29 05 bd a6 6b 2b bd 6b e4 84 bb
       -0.08320311 -0.032510217 -0.04185071 -0.00405555
0003d0 40 57 47 bb 60 7e 85 bd e2 40 8a 3d 2e 6e 59 bd
       -0.0030416995 -0.06518245 0.06750657 -0.05308359
0003e0 ae 3c aa 3d 8a 9a 81 bd e1 87 ab b9 df 8a 2c 3d
       0.08312355 -0.06328304 -0.000327169 0.042124625
0003f0 ea b0 2b bd 15 79 a6 3d 46 a3 61 bd a7 36 9c bb
       -0.041916765 0.08128563 -0.05508735 -0.0047672573

layer2.bias f4 [128]
000000 fe f0 cf 3d 3e 70 4e 3d db 34 3f bd 1a fb 5c bd
       0.101533875 0.05040001 -0.046681266 -0.053950407
000010 80 14 27 bd 5d f5 20 3d 46 c4 21 3d 82 70 f0 ba
       -0.040791035 0.039296497 0.03949382 -0.0018344077
000020 0a 1b b2 bd 51 dd 10 bd 03 48 e9 bc f7 b3 73 bd
       -0.086965635 -0.035367314 -0.02847672 -0.0594978
000030 17 59 02 3e ec b0 b9 3b 9b 9b 23 bd 2b a2 5b bd
       0.12729298 0.0056668427 -0.03994332 -0.053621452
000040 45 b5 8e bd 3d c9 94 bd 77 18 08 3d a6 65 20 bd
       -0.06968168 -0.07264946 0.033226456 -0.03915944
000050 5e 06 87 bd 1c 48 5a bc 02 ad ec 3c a6 eb 8e bd
       -0.06593011 -0.013322856 0.02889109 -0.0697854
000060 b6 7c f2 3b 25 6f a6 3c 6d ea 3b 3c 8b 19 8b 3d
       0.0074001206 0.02031667 0.011469466 0.06791981
000070 24 d4 26 bd 6b 2e 9e bd a6 db 29 3d 39 59 b3 3d
       -0.040729657 -0.07723697 0.04146924 0.08757252
000080 c9 aa c0 3d 31 5f df 3c 16 c5 04 3e 68 6a 6f 3c
       0.09407575 0.02726707 0.12965807 0.014612772
000090 0b f0 9d bd 08 bc ae 3c 95 9b 5b bd 48 fc af bd
       -0.077118 0.021329895 -0.05361517 -0.08593041
0000a0 54 4d ed 3c 48 72 3d bc ca c5 82 bd 55 2c cc 3d
       0.028967537 -0.011562891 -0.063853815 0.09969393
0000b0 83 72 9a 3c 05 17 1a 3d d1 84 04 bd 76 56 c0 3c
       0.018853432 0.03761961 -0.032353226 0.023478728
0000c0 33 27 8a bb a6 1e ed bc 89 ec a0 bc ef f7 37 3d
       -0.0042160987 -0.028945278 -0.019644039 0.044914182
0000d0 7e 08 55 bd be 3c df bc 5e 94 a4 3d b1 9f 4b bc
       -0.052010052 -0.027250644 0.08036111 -0.01242821
0000e0 fc 4b fe 3c ff 7b 23 bd ab 47 4e 3d 29 86 8a bd
       0.031042092 -0.039913174 0.050361317 -0.0676387
0000f0 00 21 42 bd b5 3b 9f bd f4 95 90 bd 0d 40 ad 3d
       -0.047394753 -0.0777506 -0.07059851 0.08459482
000100 bd a9 3a 3d b4 02 47 3d e7 a3 61 3d 1a d3 52 3d
       0.04557203 0.048586562 0.05508795 0.051470853
000110 63 23 61 3d 90 8d 25 3d 4f 63 52 bd ff 04 97 3d
       0.054965388 0.040418208 -0.05136424 0.07374
000120 ad a2 42 3d 0a a7 c4 3c bb 3d ba bc b8 f0 8b 3d
       0.04751842 0.024005432 -0.022734514 0.06833023
000130 20 cf 63 bc 79 7d ac bd e7 05 08 bd b3 55 e2 bb
       -0.013904363 -0.084223695 -0.033208754 -0.006907189
000140 72 25 46 3d 96 3b be 3c 42 93 23 3d ad 80 98 3d
       0.048375554 0.023221772 0.039935358 0.07446418
000150 8d 00 3b 3d 70 a5 4d bd 98 cf fa bb 62 ae 38 bc
       0.045654822 -0.0502066 -0.0076541416 -0.011272045
000160 45 9a 2d 3c 9d 0b 87 bd 53 03 19 bd 08 0d 40 3d
       0.010595863 -0.06594012 -0.037356686 0.046887428
000170 a5 6c af bd 01 29 79 bb 01 57 2d 3c d1 a1 83 bc
       -0.08565644 -0.0038018825 0.010579825 -0.016068371
000180 5c 51 ed bc de 2a 1a bd 2b 83 a4 bd e3 27 9e bd
       -0.02896946 -0.037638538 -0.08032831 -0.077224515
000190 e8 77 6d 3d 6c 78 a3 bb 9c 3f 90 3a 88 80 6d bc
       0.05797568 -0.0049887206 0.0011005285 -0.014495976
0001a0 d9 36 ab bd 12 b9 00 3b 72 50 b7 bd 9d 43 93 3c
       -0.08360071 0.001964156 -0.089508906 0.017976576
0001b0 7d 6a 96 bc 2d 9b 3d bc 1f 80 1b 3d f5 92 57 bd
       -0.018361324 -0.011572641 0.037963983 -0.052630384
0001c0 ee 97 6b bd f7 b0 35 bd 3d 89 06 bd 0e 20 71 bd
       -0.05751794 -0.04435822 -0.032845724 -0.05886846
0001d0 d8 93 bb bd 6e e5 21 3d b5 80 10 3d 8b 82 2d bd
       -0.09159058 0.03952544 0.035278995 -0.042360824
0001e0 94 6a 94 bd c2 02 a9 3d e1 b7 8c bd 07 0d 91 bd
       -0.07246891 0.08252479 -0.068710096 -0.07082563
0001f0 8d 43 a3 bd 49 e8 1f 3d 31 00 1f 3c a0 6f 9b 3d
       -0.07971869 0.039039884 0.0097046355 0.0758965

layer3.weight f4 [9, 128]
000000 06 ff 8c bd 7d 1a 8c bd b1 06 e9 3d 91 ea 4f 3d
       -0.06884579 -0.0684099 0.113782294 0.05076081
000010 6d e7 9d bd c8 58 e3 bd 91 a7 02 3d 7e 81 af bd
       -0.077101566 -0.11100918 0.031898085 -0.085696205
000020 70 62 7c 3c 25 ce e4 3c e9 e3 4d bd bd 86 9a 3d
       0.015404329 0.027930329 -0.05026618 0.075452305
000030 50 15 16 3e b1 c5 65 bb 6b f6 9d bd 1e 2c fe bc
       0.14656568 -0.003506046 -0.07713016 -0.031026896
000040 8d d1 1b 3d 52 e3 b8 3d 1c 91 f0 bc 41 7f cc bd
       0.03804164 0.09027733 -0.029366069 -0.09985209
000050 0b de e8 bd 15 b9 6c 3d 42 27 de bc 6b 54 7e 3d
       -0.11370476 0.057793695 -0.027118329 0.062092226
000060 ce 0f ba bd ac 2e 41 bd 26 e3 b9 3c e0 85 a4 bd
       -0.09085046 -0.04716365 0.02269132 -0.08033347
000070 77 0a 13 be 60 ab 0a 3d cf 9c b4 3c ed 58 84 bc
       -0.14359461 0.033854842 0.022047428 -0.016155684
000080 81 ba 35 bd 80 0d c0 3c 9c 82 2e be cd 06 58 bd
       -0.044367317 0.023443937 -0.17042011 -0.05274086
000090 96 39 df bc 07 2d 3f 3d 22 ae e8 bd fa 44 f2 3c
       -0.027249139 0.0466738 -0.11361338 0.029573906
0000a0 f0 3c 54 bd cd 82 54 bd e1 f3 85 3d 91 ff 90 3d
       -0.051815927 -0.051882554 0.06540657 0.070799954
0000b0 07 a8 f6 bc 08 ee 8f bd e8 b0 32 3d e5 81 38 bc
       -0.030109419 -0.07027823 0.043625742 -0.011261438
0000c0 3d 73 24 3d 99 e2 81 bd 3e cf ef bb 55 45 78 3d
       0.040148962 -0.06342048 -0.0073184064 0.060612995
0000d0 21 6c eb bb d3 fe a9 3d 8c e1 18 bd 2e 4d 91 bc
       -0.007184521 0.08300557 -0.037324473 -0.017736997
0000e0 d4 29 58 bd 4e db 08 bd 61 ba db bc 46 4f 04 bd
       -0.052774265 -0.03341227 -0.02682227 -0.032302164
0000f0 d0 18 17 3c 5f fa af 3d e6 78 6e 3d 76 2d 5d bb
       0.009222224 0.08592676 0.058220766 -0.003374902
000100 7f c8 05 3d dc bf 97 bd b9 1b 93 bd fc c7 0c bd
       0.03266191 -0.07409641 -0.07183022 -0.034370407
000110 47 1e 0d 3d a4 b8 d5 bc 29 c6 db 3d aa ce fd bd
       0.034452703 -0.02608902 0.107311554 -0.12392934
000120 e3 42 33 3c 62 88 6f bc 44 f0 49 bd 2e f6 5d 3c
       0.01094124 -0.014619919 -0.0493014 0.013547463
000130 bb d0 f0 bc bd 0f 9b bd ff 80 25 bd fb e6 7c bd
       -0.029396405 -0.07571361 -0.040406223 -0.061743718
000140 3a 26 78 bc d3 a2 fc bd 27 88 87 3d 6a 8a 3d 3c
       -0.015145833 -0.12335744 0.06617766 0.011568645
000150 d9 95 f8 3c 79 1f b4 3d 44 57 e6 bc 16 25 60 bd
       0.03034489 0.087950654 -0.028117783 -0.054722868
000160 4c 1f 8f bd 31 7f 4f bd 0e e3 e1 bc 82 e8 5f 3c
       -0.06988391 -0.05065841 -0.027574088 0.013666274
000170 d6 18 05 3d ab d8 bc 3a 33 a5 6f bd 3a 01 2e be
       0.03249439 0.0014407834 -0.058507156 -0.16992655
000180 1b 94 84 bc 91 21 62 bd b5 2d 2d bd 79 ef e4 bc
       -0.016183903 -0.055207793 -0.042279918 -0.02794622
000190 08 72 05 bd 14 20 f1 bd 45 4e de 3d b1 6a 82 3d
       -0.03257945 -0.117736965 0.108547725 0.06368006
0001a0 5c 29 84 bd 6f 17 26 be ee c5 0e 3d d3 19 42 3d
       -0.06453201 -0.16219877 0.03485673 0.04738791
0001b0 ee 62 ba bd ae ba a4 3b 0b f1 03 be 61 2d 8f bd
       -0.091009006 0.0050271368 -0.1288492 -0.06991077
0001c0 e4 d8 7b bd f2 04 e5 bc cc 78 92 3d d6 52 b0 3b
       -0.06148614 -0.02795646 0.071519464 0.0053809686
0001d0 ad c7 a0 bd 46 35 43 3d 74 ab 8a 3d 6d b9 6e 3d
       -0.07850585 0.047658227 0.06770983 0.058282305
0001e0 04 57 a5 3d e2 07 c1 bd 7c 5f 69 bd 80 ff 51 3d
       0.080732375 -0.09425332 -0.056975827 0.051269054
0001f0 20 98 8e bd 60 9f ec bb 67 60 64 3d 30 3b 64 3c
       -0.06962609 -0.0072211474 0.055756 0.013930127
000200 fd 94 62 bc 8d 5f 4e 3d f6 e2 a2 bd 73 76 50 bd
       -0.013829467 0.050384093 -0.079534456 -0.050894212
000210 f7 d8 ba 3c de 2d d9 bc 57 ab 6a 3d 0d 15 19 3d
       0.022808535 -0.026511129 0.05729231 0.03737359
000220 32 dd 5b 3d 46 0d aa 3d 47 86 97 3c f4 aa 05 bd
       0.053677745 0.08303313 0.018496646 -0.032633737
000230 20 16 bc bd 30 96 8f ba cf 1d 63 bd be 0d 5c 3d
       -0.091839075 -0.0010954794 -0.05544835 0.053724043
000240 d0 87 73 3a 36 18 3a bd 8a cb 7f ba 6b 04 b5 3d
       0.0009289952 -0.045433246 -0.0009757808 0.08838733
000250 65 56 36 bd 38 fa 05 3d a3 67 02 3c 8d ad 7a bc
       -0.044515986 0.03270933 0.007959279 -0.015300167
000260 98 33 b5 bc 51 b3 10 3d 7b 9c 62 ba d7 cc 52 bd
       -0.022119328 0.03532726 -0.0008644533 -0.05146488
000270 03 32 1b bd 1d 95 52 bd 0a 7e 3a bd 9b 95 13 3b
       -0.03788949 -0.051411737 -0.045530356 0.0022519592
000280 0a 43 34 3d 7d 69 6a bc da 42 e2 bc e2 ef 0b 3d
       0.044009246 -0.014307377 -0.027619768 0.034164317
000290 f6 a9 5f bd 19 a2 82 3c 0c d7 1a 3d dc a3 0e bd
       -0.054605447 0.015946435 0.03780274 -0.034824237
0002a0 8b 21 db bc 71 fc 5a 3a 03 d6 4c bd 80 48 80 3d
       -0.026749393 0.0008353657 -0.050008785 0.06263828
0002b0 73 2e f2 b9 cf 0e f4 bc 0d 1a 26 bd a2 e8 08 3d
       -0.00046192444 -0.029792218 -0.040552188 0.03342498
0002c0 8a 8c 4a bd 00 e2 32 3c d3 4c dc bb 09 b6 8e bd
       -0.049450435 0.01091814 -0.0067230253 -0.06968314
0002d0 a8 cc 54 3d 4a a0 0e 3d d4 1a 76 3c 8e 0a db bc
       0.051952988 0.034820832 0.015021045 -0.026738431
0002e0 2f 51 9f bd fc ac 14 3d 65 3d 58 bd 24 00 16 3d
       -0.077791564 0.036297783 -0.052792925 0.036621228
0002f0 75 d1 9c 3d 58 e3 33 bc 3e b1 92 bd 0c 0a 8e 3d
       0.07657138 -0.010979496 -0.071627125 0.0693551
000300 74 25 a8 bd 96 5f 20 bc 6e d3 82 bd d7 ad ce 3c
       -0.082102686 -0.009788414 -0.06387983 0.025229378
000310 e3 da 6d 3d 21 f2 28 bd 65 16 1f bd 9f a5 99 3d
       0.058070075 -0.041246537 -0.038839716 0.07502293
000320 7c c5 46 3d 4a b7 6f 3d 19 69 9e bd 35 d5 cc 3d
       0.04852818 0.058524407 -0.077348895 0.100016035
000330 50 4b f6 bc dc 2b 7d bd e4 09 f2 bc 90 80 c4 3c
       -0.030065209 -0.061809406 -0.029545732 0.023987085
000340 ce 45 9e 3d 14 7b 61 bc 83 b2 3c be ba d4 92 3c
       0.07728158 -0.013762254 -0.18427472 0.017923702
000350 82 42 b3 bd 8e 30 90 bd 84 8f 0f 3d 96 19 70 3d
       -0.0875292 -0.07040511 0.035048977 0.05861815
000360 b8 b3 14 bd dc df 4a 3d 91 a2 7b bd f7 4a de bc
       -0.036304206 0.049529895 -0.061434332 -0.027135355
000370 aa a3 87 3d 77 12 1f 3d 3a f5 0f bd 9b 37 d5 bc
       0.06623013 0.03883597 -0.035145976 -0.026027491
000380 0c 13 45 3d f9 ed 83 3d 55 1b 88 3d 65 6c 7e 3b
       0.048113868 0.06441874 0.06645838 0.0038821932
000390 ee 26 17 bd c6 7a 27 3d 25 bb 16 be 40 ec 39 bb
       -0.03690236 0.04088857 -0.14719827 -0.0028369576
0003a0 e4 d0 a6 bd ef a0 b4 3a a0 b3 8e bb 20 78 b2 3d
       -0.081453115 0.0013780872 -0.004354909 0.08714318
0003b0 96 94 8a 3c 49 73 1f bd f0 89 0c 3d 10 71 ba 3c
       0.016916554 -0.038928304 0.034311235 0.02275899
0003c0 ae 47 66 bd 99 23 62 bd 90 38 70 3c bb 6f 2c bd
       -0.056220703 -0.05520973 0.014661923 -0.042098742
0003d0 4a 9c 04 bd ed 7e 39 bd 35 13 8b bd 48 2f 7c bd
       -0.03237561 -0.04528706 -0.06790773 -0.06156853
0003e0 64 f7 18 bc be 57 ea 3c bb 15 60 3d 28 67 90 bd
       -0.009336326 0.028606292 0.054708224 -0.070509255
0003f0 9f e8 9a 3d b2 f7 d3 3d 06 96 b9 bd 2c 76 96 3d
       0.075639 0.103499785 -0.09061818 0.07346758

layer3.bias f4 [9]
000000 71 69 f5 3c 97 98 c5 3c e3 14 47 bd f8 e0 fb ba
       0.029957505 0.024120612 -0.048603904 -0.0019216826
000010 0f 00 2c bc ba c0 5e 3b 5f b0 04 3d 95 79 29 bd
       -0.010498061 0.0033989386 0.032394763 -0.041375715
000020 af c6 82 bc
       -0.01596388
