rl_energy_manager_20250325_1542/models/checkpoint_100/critic.pth (torch, 165410 bytes, 10 tensors)

layer1_1.weight f4 [128, 27]
000000 14 ea d4 3d 70 67 d0 bc 85 30 1a 3e 0b 17 2a 3d
       0.10396209 -0.025439948 0.15057571 0.04152588
000010 ae 80 2d be d5 b3 83 bd 55 9d 25 3e e7 9d 31 be
       -0.16943619 -0.064307846 0.16173299 -0.17345391
000020 01 a6 5a bd ec 11 70 3d e9 75 16 3e 44 ed 2e 3e
       -0.05338097 0.05861084 0.14693417 0.17082697
000030 aa a7 9c 3d f6 e3 ce bc e0 53 33 3e 75 10 47 bd
       0.07649167 -0.025255185 0.17512465 -0.04859968
000040 0e 21 d3 3d 99 0c 5b 3d e1 ee f6 bd 37 06 24 3e
       0.10309039 0.05347881 -0.12057281 0.16017996
000050 16 43 9b bc 0f 1a 73 3c 8d 7a 9c 3d c0 c4 12 3e
       -0.018952888 0.014837756 0.07640562 0.14332867
000060 a8 4d 8f bd 0a 7e 88 3d f4 54 43 3e 9e 21 5a 3e
       -0.06997234 0.06664665 0.19075376 0.21301886
000070 a2 32 0b bd eb 45 84 3d 83 eb 82 bd 98 19 c3 3d
       -0.033983834 0.06458648 -0.063925765 0.09526366
000080 db b9 4f be 82 6f 85 bd c1 93 bb ba 39 fd 28 be
       -0.20285742 -0.06515409 -0.0014311002 -0.16502847
000090 c0 33 b9 bd a2 8e d4 bd 30 47 00 be fa a7 cb bd
       -0.09043074 -0.103787675 -0.12527156 -0.09944148
0000a0 51 45 8d 3d d2 2c 69 bd e4 17 79 3e bb a5 8c bd
       0.06897987 -0.05692751 0.2432552 -0.06867548
0000b0 b0 c4 dd bd e7 8e be 3d fa cc 19 3e 9a 76 17 be
       -0.10828531 0.093046 0.15019599 -0.14791337
0000c0 e2 6f 1f be 50 4a 25 bc ba da 64 bd 40 f1 f3 3d
       -0.15570024 -0.010088518 -0.055872656 0.11911249
0000d0 e1 ab 62 3d c5 01 30 be b9 78 75 3e 0c 63 6c bd
       0.055339698 -0.17188175 0.23971833 -0.057711646
0000e0 73 6b 23 bd 01 fd 4a 3e b5 bb 23 be 21 ee d5 3d
       -0.039897393 0.19823076 -0.15989573 0.1044581
0000f0 b8 72 16 be 74 af 8c bd c4 2f 17 bd 3f ef d9 bd
       -0.14692199 -0.068694025 -0.036910787 -0.10641336
000100 a2 b4 98 3d d0 8a 4f 3e 60 50 5c bd 76 65 54 bd
       0.07456328 0.20267797 -0.05378759 -0.051854573
000110 ec ab 6b bb 50 52 d5 3d ed 2b 11 be f6 77 2d 3e
       -0.0035960628 0.104160905 -0.14176913 0.16940293
000120 f8 e0 9a 3d ae 1d 13 bd 2d bd 54 be 45 ac 14 be
       0.07562441 -0.035916977 -0.2077529 -0.1451884
000130 4d 1d 5e be 81 54 ce bd a5 74 72 3e 52 d5 5e be
       -0.21690865 -0.100747116 0.23677309 -0.21761063
000140 8c 5c f7 3d 36 9c bd 3d 4e cb bc 3d b7 b2 06 bd
       0.12078199 0.092583105 0.09218465 -0.03288528
000150 75 cb c2 3d b4 3c 8e 3d 7e be 40 bd 22 18 ba 3c
       0.095114626 0.06945172 -0.047056668 0.022716586
000160 cc 31 77 bd db d4 b8 3d e7 bc 2d 3e e1 16 0f be
       -0.060350224 0.09024974 0.16966592 -0.13973571
000170 f2 cd 15 be 7d 02 86 be 7e 3a 89 3d 71 a9 44 be
       -0.14629343 -0.26173773 0.067006096 -0.19205262
000180 70 11 78 be 75 9c e4 3b 89 95 5a bd 9c 9f 8c 3e
       -0.24225402 0.006976659 -0.053365264 0.27465522
000190 c1 4b cb 3d db 19 0d 3e cf 5b 02 bc 04 d8 01 be
       0.09926558 0.13779394 -0.007956459 -0.1268006
0001a0 35 9b 80 be bc 38 9b be c9 35 49 bb 67 2b 46 bc
       -0.25118414 -0.30316722 -0.0030702224 -0.012095309
0001b0 c1 8e 82 3e 0d 9e c1 bc 37 ef 19 be 8f 8d d5 3d
       0.25499538 -0.023634935 -0.1503266 0.10427391
0001c0 c3 71 1d be 84 4e f8 bd 53 07 d9 3d ee dd db 3d
       -0.15375428 -0.12124351 0.105971 0.10735689
0001d0 8b 34 5f bc b2 7c e3 3d cd eb 15 3e b5 12 89 bd
       -0.013623367 0.11107768 0.14640732 -0.06693021
0001e0 a5 e8 89 bc 18 c7 75 3e 17 a7 0c bd 07 16 e1 3c
       -0.016834566 0.2400173 -0.034339037 0.027476324
0001f0 6e 80 95 3d 69 04 0b 3e f6 dc 1f 3e e1 e4 a0 bd
       0.07299887 0.13575901 0.15611634 -0.07856155
000200 d7 85 8d 3d f8 e7 b0 3c d8 d3 32 be a9 04 de bd
       0.069102935 0.021594986 -0.17463624 -0.108407326
000210 a6 2b 2b bd 05 f2 73 be ed b4 f9 3c 16 31 a8 bc
       -0.041789673 -0.23822792 0.03048178 -0.020531218
000220 a8 c1 95 bd fd 4b 81 3d d5 5c 55 3c 52 c3 d6 3d
       -0.073123276 0.06313322 0.013022621 0.10486473
000230 78 82 0e 3d e5 83 2a bd 52 be 01 3e 06 e7 9c bd
       0.034792393 -0.04162969 0.12670258 -0.07661252
000240 b3 ae 27 3e ab 90 10 3c bd dc 31 3e d7 3c 18 3e
       0.16375236 0.008823554 0.17369361 0.14866959
000250 18 d3 33 bd 62 2a 63 3b 51 a1 08 3d d2 49 e4 3d
       -0.043902487 0.0034662713 0.03335697 0.111468926
000260 32 75 89 bb 88 be ae bc 45 17 d9 ba 4e a5 a4 bd
       -0.004194879 -0.021331087 -0.0016562721 -0.08039342
000270 f2 27 3b 3e cf 4a 21 3e 35 4f 08 be e3 16 66 3e
       0.18276957 0.15751193 -0.13311465 0.22469668
000280 99 d3 04 3e 6d 34 13 be f8 78 dc 3d 1c ef 1b be
       0.12971343 -0.14375468 0.107652605 -0.15227932
000290 d0 1e 1d be 96 1e 4f 3e 14 ff 5d bd 9b e8 b0 bd
       -0.15343785 0.20226511 -0.05419834 -0.08638116
0002a0 82 db 6a bd 62 ea 5c bd 3d 49 01 be 46 ab a0 3d
       -0.057338245 -0.053934462 -0.12625594 0.07845168
0002b0 9f b9 d9 3d d9 d9 f3 3d ce 89 a4 3b ee 6f 86 bd
       0.106311075 0.119067855 0.0050213104 -0.06564318
0002c0 18 29 a2 bc c4 49 e4 3d 38 3f 8f bd a8 83 35 3e
       -0.019794986 0.11146882 -0.0699448 0.17726004
0002d0 24 eb 50 bd b7 2b e8 bd b0 6f 15 3c 9f e0 51 be
       -0.051005498 -0.11336463 0.009120867 -0.20495842
0002e0 2e ff 66 3e ce 05 26 3e e7 88 4f be 7a e2 38 be
       0.22558281 0.16213152 -0.20267068 -0.18055144
0002f0 da 0b 4f 3e 24 3a db bd 77 7a 6c bd 2f 04 8d bd
       0.20219365 -0.10704449 -0.05773398 -0.068855636
000300 e7 62 03 be e2 03 9d 3d aa 82 e0 3d 02 6f a1 3d
       -0.12830697 0.07666756 0.10962422 0.07882501
000310 7f a8 0f bc bc 8d 03 3e 72 74 10 be 28 41 48 bd
       -0.0087682 0.12847036 -0.1410692 -0.048890263
000320 97 cf af 3d 05 5c cf 3d 20 e6 d9 bc 60 cb 03 be
       0.085845165 0.10124973 -0.02659899 -0.1287055
000330 5c 4d c9 3d c1 29 08 3e 89 5a 25 be 67 ca 2c be
       0.09829208 0.13297178 -0.16147818 -0.16874085
000340 2e 5b e6 bd 3c ae 13 bc 65 eb f3 3b fe 8f 42 be
       -0.1124786 -0.009013709 0.0074438327 -0.19000241
000350 32 b8 0d be 64 43 c2 bd e8 8f 22 3d 96 af d8 bd
       -0.13839796 -0.0948551 0.03968802 -0.10580365
000360 04 df d5 3d 70 8d 1a 3e e3 3b f4 bd 1e 37 8f 3d
       0.104429275 0.15093017 -0.11925485 0.06992935
000370 ac 38 ae 3d da a1 10 be 52 1c 0a be 83 39 f9 3d
       0.08506903 -0.14124241 -0.13487366 0.121691726
000380 1d 64 c6 bc 37 f1 09 be 8c a5 35 3e f9 ca c2 bd
       -0.02421766 -0.13470922 0.17738932 -0.0951137
000390 d9 a9 35 3d 2b 6a 36 bd c0 e4 22 3d c6 58 91 3d
       0.044351432 -0.044534843 0.039768934 0.0709701
0003a0 c0 a1 08 3e e0 54 65 3e ba 97 87 be 9e 06 56 3d
       0.13342953 0.22395658 -0.26482946 0.052252404
0003b0 ba 13 4b ba 7f c5 2e 3d 67 ee 77 3e 40 91 db bd
       -0.0007746775 0.042668816 0.24212037 -0.107210636
0003c0 13 90 87 3d 59 ed d4 3d 5d 89 e0 3d 07 3d c4 3d
       0.06619277 0.10396833 0.109637 0.095819525
0003d0 96 cf 31 3e 4f 46 2c 3e fa 60 b6 bd ab e6 18 be
       0.17364344 0.16823696 -0.089052156 -0.14931743
0003e0 92 6c 94 3c 44 9a 36 3e 3b 9a 35 3e 5c 0a 33 3e
       0.018118177 0.17832285 0.17734616 0.1748442
0003f0 26 d8 ec 3d 11 13 c5 3c 1f a0 31 3e 00 a2 1f 3e
       0.115646645 0.024056943 0.17346238 0.15589142

layer1_1.bias f4 [128]
000000 6c 10 99 3e f4 0b 4c 3e b9 86 32 bd 6c c9 59 3d
       0.2989534 0.19926435 -0.043585513 0.053170606
000010 b1 d9 17 3e b5 f5 9b 3e 73 6f e8 3d 81 09 4b be
       0.14829136 0.30460897 0.11349382 -0.19827844
000020 91 c3 1b be bd 0a 16 3c bb 86 93 3e 24 61 8f 3e
       -0.15211321 0.009157834 0.2881373 0.280038
000030 62 db 02 bd b7 3d a2 3e 0e b5 62 3e 4f c3 98 3e
       -0.0319475 0.3168771 0.2213938 0.2983651
000040 05 7a 99 3d ea 35 79 bd 37 6b 25 bd 4f 7c a6 3c
       0.074939765 -0.060842432 -0.04038545 0.020322947
000050 c7 c2 60 3e 9a ac 7e 3e 51 64 57 3d 55 e0 1a bc
       0.21949302 0.2487053 0.052585904 -0.009452899
000060 4d c5 5a 3e b2 56 80 3e 21 4b 2a 3e b1 30 53 3e
       0.21364327 0.25066143 0.16630222 0.20624043
000070 dd 09 99 3e 48 b1 28 3e 63 5c 4f bd 7a 30 74 bc
       0.29890338 0.16473877 -0.050625216 -0.014904136
000080 78 9a 1d 3e 35 c0 73 3e 7d f3 1d 3e 63 01 bf 3d
       0.15390956 0.2380379 0.15424915 0.09326436
000090 4d 6c 06 3e 4b 59 f3 bc 51 87 8c 3e cc e9 f4 3b
       0.13127251 -0.029705664 0.27446988 0.00747416
0000a0 26 82 48 3e 33 cc 86 3e 80 fb 99 bd d6 34 4a 3e
       0.19580898 0.26327667 -0.07518673 0.19746718
0000b0 5e 6c be 3d 49 af c3 3d dd a5 51 3e 0a 1e c4 bc
       0.09298013 0.09554917 0.20473428 -0.023940105
0000c0 02 47 76 3e 2e e4 80 3e cf c3 62 3e 43 e0 f3 3b
       0.24050525 0.25174087 0.22145008 0.0074425056
0000d0 04 0f 5a 3e 6a 1e 33 3e e9 0d 7a 3e af 85 e5 bc
       0.2129479 0.17492071 0.24419369 -0.028017847
0000e0 c7 2f b3 bd 6a 16 66 3e e9 13 94 3d 92 4b 21 3e
       -0.08749347 0.22469488 0.0723036 0.15751484
0000f0 46 75 88 3e 63 e1 db bc 8c 43 88 3e e3 86 c3 bd
       0.26651973 -0.026840871 0.26614034 -0.09547212
000100 23 f7 63 3e a3 e1 ec 3d 14 84 c4 3d a0 3d 04 3d
       0.22262244 0.11566474 0.095955044 0.032285333
000110 01 85 6d 3e 60 52 e1 3d 99 d8 ee 3d a2 36 78 3e
       0.23195268 0.1100204 0.116624065 0.24239591
000120 41 f4 4d 3e 83 71 06 3e e7 32 8b 3e 3a dc 90 3e
       0.20112707 0.13129239 0.27187273 0.2829302
000130 8b bc 6d 3e c7 f2 24 bd 9a 34 9a 3e d5 fa 73 3e
       0.23216455 -0.040270593 0.30118257 0.23826154
000140 da e3 53 bd 38 ed bf 3d 14 83 9e 3e a7 09 84 3e
       -0.051730968 0.09371418 0.3095938 0.25788614
000150 8d bb 90 3e 49 b2 98 3d 3d 8a 3b 3e 4d bb e2 3b
       0.2826809 0.0745588 0.18314452 0.0069193006
000160 eb d7 ac 3d a3 5d 66 3e 41 8f 94 3d f6 f9 b6 bd
       0.084396206 0.22496657 0.07253886 -0.08934395
000170 20 cc 7a bc ed 84 2c 3e 34 06 b2 3d cb 2f 81 3e
       -0.015307456 0.16847582 0.086925894 0.25231776
000180 d7 3c 71 3d fc 53 3c 3e da 29 de bb 04 8a d6 3d
       0.058895912 0.18391412 -0.0067798914 0.10475543
000190 91 db 30 3e 23 ce dc 3d 6c dd 9b 3e 88 f3 c4 3d
       0.17271258 0.10781505 0.3044237 0.096167624
0001a0 87 9c 4c 3e d6 d4 9e 3e 30 8b 3b 3e e2 53 51 3e
       0.19981585 0.31021756 0.18314815 0.20442155
0001b0 5b ae 9e 3c 41 18 c6 bc ca 34 9f 3e 78 7b 81 3e
       0.019370249 -0.024181487 0.31094962 0.25289512
0001c0 99 d7 02 3d a6 1c 14 3e 6b 34 47 3e c1 07 53 3e
       0.03194389 0.14464054 0.1945359 0.20608427
0001d0 f7 f6 ea 3c fb c7 92 bd c6 46 84 3e a5 80 c3 bc
       0.028682215 -0.071670495 0.25835246 -0.023865053
0001e0 92 63 26 3e 8c 98 13 3e 34 92 9a bd 49 a3 7d 3d
       0.1624892 0.14413661 -0.07547417 0.0619233
0001f0 de 30 18 bd 86 61 7e 3e 86 8e 47 3e 86 35 8b 3e
       -0.03715598 0.2484189 0.19487962 0.27189273

layer2_1.weight f4 [128, 128]
000000 0f 6a 88 3c 0b 7d 3d 3c 4c 2d a2 bd 0f 65 1b bd
       0.016652135 0.011565457 -0.07918796 -0.037938174
000010 8b fe e9 bc fc 7d 18 3d fc 39 90 bd c8 3a 36 3c
       -0.028563758 0.037229523 -0.0704231 0.011122413
000020 e3 c6 7a bd dc a1 89 bd a9 bb 62 bd ab c8 9a bd
       -0.06122483 -0.06720325 -0.055354748 -0.07557806
000030 4b 99 8c bd b0 74 25 bb 61 d9 ac bd c8 23 1e bd
       -0.06865176 -0.0025246553 -0.08439899 -0.038608342
000040 8f 14 88 bd 87 74 a3 3d 3f 73 86 3d ce 3e 72 3d
       -0.06644546 0.0798121 0.0656495 0.059141926
000050 29 5e 34 bd 4c 42 8f 3d 50 26 d7 3c a4 dc 26 bd
       -0.04403511 0.06995067 0.026263386 -0.040737763
000060 f7 32 96 3d cd b8 86 bd 62 43 a1 bd ac 6b 8f 3d
       0.073339395 -0.06578217 -0.078741804 0.07002959
000070 36 25 88 3d cc 5b 10 bd 80 28 be bc b6 36 39 3d
       0.066477224 -0.035243794 -0.023212671 0.045218192
000080 44 5b ae bd c5 3e 95 3d 8a ed a6 3d 0b ae 8d 3d
       -0.08513501 0.07287363 0.08150776 0.06917962
000090 70 9d 82 bc 4a 6b 22 3d c0 5a 66 bd d7 7d 2f bd
       -0.015944213 0.0396531 -0.05623889 -0.04284462
0000a0 85 83 8b bc 65 b4 73 3c ea db b1 bd 60 c2 25 3a
       -0.017030487 0.014874552 -0.086845234 0.00063232146
0000b0 b6 60 87 bd c7 ec 59 bd f9 4b af 3c 32 2a 33 3d
       -0.06610243 -0.053204324 0.021398531 0.043741412
0000c0 6d 59 91 bc 20 b4 fd bb 02 42 95 3d c2 fd 17 3d
       -0.017742837 -0.00774242 0.072879806 0.037107237
0000d0 37 9e 31 bd 44 8e 78 3d 89 9e a2 bd b2 fc 18 3d
       -0.043363776 0.06068255 -0.079403944 0.037350364
0000e0 02 07 1b 3d aa 77 a2 bd 60 43 32 3b 6a 24 a5 bd
       0.03784848 -0.0793298 0.0027200803 -0.08063586
0000f0 e9 45 8f bd 17 01 a5 3d 50 cd fb 3c 78 62 cd 3c
       -0.06995756 0.080568485 0.030737549 0.025071368
000100 20 57 8f 3d 78 d1 86 3c 90 1d 98 bc 4f ff 20 bd
       0.0699904 0.016457304 -0.018568784 -0.03930598
000110 9e 24 3d 3d 41 30 35 3d 5b 2f a1 bd 34 2f 54 3d
       0.0461775 0.04423547 -0.078703605 0.05180283
000120 aa e0 9e bd ed d0 92 3d 9a b5 fd bc dc 32 ce 3c
       -0.07757695 0.07168756 -0.030970383 0.025170736
000130 d2 ce 2e 3d 90 63 83 3c e6 e8 06 bd c4 1e a7 3d
       0.042677708 0.016038686 -0.032936953 0.08160165
000140 13 51 81 3d 6e ed 44 3d f1 b0 82 bd 39 98 b5 3b
       0.06314292 0.048077993 -0.06381405 0.005541828
000150 33 fe 97 3d ec 07 48 bd 78 ff f0 3c 78 bd 72 3c
       0.074215315 -0.04883568 0.029418692 0.014815681
000160 90 8c b4 bd d4 4d 54 3d 00 76 7e 3b 80 4e 8e bc
       -0.08815873 0.051832035 0.0038827658 -0.017371416
000170 af 56 4c 3d 3d 11 1b bd bb 91 08 3d 58 6f 00 3d
       0.049887355 -0.037858237 0.033342104 0.031356186
000180 22 8f b0 bd e7 1a a3 bc a0 dd e8 3b 51 fa e1 bc
       -0.086210504 -0.019910289 0.007106498 -0.02758518
000190 c1 0f 87 3d 64 9f 05 bd 1a 1c 5e 3d 79 c5 db 3c
       0.06594802 -0.03262271 0.05422602 0.02682756
0001a0 60 03 88 bd 38 c5 b3 bd 1b 8e 02 3d b3 c5 db b9
       -0.06641269 -0.08777851 0.031873804 -0.00041918232
0001b0 a4 c9 08 bd 54 91 bb bd 54 bd a1 bd e8 9f 62 bd
       -0.033395424 -0.091585785 -0.078974396 -0.05532828
0001c0 86 04 b3 bc 8c eb 9b 3d ec 1b a4 bd 19 01 e2 bc
       -0.021852743 0.076132864 -0.08013138 -0.027588414
0001d0 7a 89 5e 3d e1 df 7c bd fa c0 77 3d 27 8e 46 bc
       0.054330327 -0.061736945 0.06048677 -0.012118853
0001e0 89 d2 b0 bb 36 0b a2 bd 85 24 b3 bd d4 ce 0d bb
       -0.0053961915 -0.079122946 -0.087472 -0.0021638172
0001f0 22 e3 1c bd 32 b9 a1 bd 97 a6 4a bd bf 38 50 3d
       -0.03830255 -0.07896651 -0.04947528 0.050835367
000200 e2 28 16 3e d2 db 44 3d ce 4d 58 3c 71 cd d9 3b
       0.14664033 0.0480612 0.013202144 0.006646805
000210 c7 68 5e 3d 7f 29 38 3e f0 a9 f5 3d 6d 80 85 3d
       0.054299142 0.1798458 0.11995304 0.06518636
000220 04 29 fd bd 60 da da 3d c3 22 dc 3d 84 37 cd 3c
       -0.12361339 0.10686183 0.10748818 0.025050886
000230 cd e7 10 3d b2 d1 08 3d 87 9c 20 3e e9 49 b6 3d
       0.035377312 0.033403106 0.1568471 0.08900816
000240 09 52 4c 3e 17 8c 98 bc ed ec 66 bb a2 30 ba 3d
       0.19953169 -0.018621488 -0.0035236434 0.09091307
000250 17 af 14 3e 80 f0 6d 3e a5 7c 3b 3d 5e 06 76 3d
       0.14519916 0.23236275 0.045773167 0.060064666
000260 2a fc 0b 3e 44 fd f4 3c 64 b3 a5 3d 08 2b ed 3d
       0.13670412 0.029905923 0.08090857 0.11580473
000270 6a 2b a6 3c 4e e4 cc 3c 99 b8 11 3d 88 9b ca bc
       0.020284373 0.025011208 0.035576437 -0.024732366
000280 73 6e 38 3e f0 27 6f 3c de a4 3c 3e fe a9 0d 3e
       0.18010883 0.014596924 0.18422267 0.13834378
000290 07 7d f7 3d 79 12 35 bd b1 8c 28 3e 23 94 3a 3d
       0.12084394 -0.04420707 0.1645992 0.04555143
0002a0 a0 62 19 3e 45 f3 14 3e 2b 31 d3 3d f0 ef 9e 3d
       0.14979029 0.14545925 0.103121124 0.07760608
0002b0 89 7f c1 3d ae 9c 0b 3e cd 22 07 3e fd 92 53 3d
       0.094481535 0.13633987 0.13196869 0.05165385
0002c0 7d 8d 78 3e 51 52 80 3e 90 b7 5e 3d eb 5a 1c 3e
       0.24272723 0.25062802 0.054374278 0.15269057
0002d0 d4 4f 8a 3d fe 55 72 3d 3c 4b 28 3d b5 31 ce bd
       0.06753507 0.05916404 0.041087374 -0.100680746
0002e0 05 77 a1 3d b7 0a 6f 3d cf 80 e4 3d 21 09 9c 3d
       0.07884029 0.058359828 0.11157381 0.07618929
0002f0 fb 7b b7 3e 58 4d 01 3e d5 a4 2b 3e f9 5d b4 3d
       0.35836777 0.1262716 0.16762097 0.08806986
000300 d0 49 34 3d 11 4a 29 3e 89 92 a7 3d e5 86 c7 3d
       0.044015706 0.1653216 0.08182246 0.09742526
000310 ef 49 de 3d 6d f5 88 3d 71 1f 0f 3e d4 9e f4 3d
       0.108539455 0.06687436 0.13976838 0.119443566
000320 01 16 3c 3e 75 1a d5 3d 76 c9 9b 3d f7 67 3a 3e
       0.18367769 0.10405437 0.07606785 0.18203722
000330 d9 90 a2 3e f2 53 b1 3c e5 8d 2d 3e 00 17 d5 3d
       0.31751135 0.021646474 0.1694866 0.104047775
000340 f1 e1 8e 3d 2e 0a 8f 3d 2e 4c fa 3c 49 af bf 3d
       0.06976689 0.069843635 0.030553903 0.09359605
000350 83 b0 ac 3d 15 40 1f 3e 79 e7 87 3d 1f b1 55 3d
       0.084321044 0.15551789 0.06635947 0.05217087
000360 4f ea 66 3d 59 b2 31 3e 5a b6 af 3a ee 95 36 bd
       0.056375798 0.1735319 0.0013405785 -0.044576578
000370 8a 9a 6f 3c d0 46 e2 3c 5e 56 55 3e 7e e0 10 3e
       0.014624247 0.027621657 0.20833728 0.14148137
000380 3d 4e 10 3e 14 6f 48 3e 4e 47 8c bc ce 59 18 3d
       0.14092346 0.19573623 -0.017123844 0.03719502
000390 c6 e0 00 3e 24 4c 5d 3d d1 05 b9 3e b3 e7 29 3e
       0.12585744 0.05402769 0.3613725 0.16592292
0003a0 68 9c e4 3d ef 3c 2e 3e 02 b2 30 3e 05 3d ff 3d
       0.111626446 0.17015432 0.17255405 0.124628104
0003b0 19 25 fc 3d 14 26 bf 3d b6 a8 17 3d c1 18 cf 3c
       0.12311763 0.09333435 0.03702613 0.025280358
0003c0 b1 ba ee 3c f2 4d 53 3d 5f 47 36 3e af 93 6c 3d
       0.029141756 0.051588006 0.17800663 0.05775803
0003d0 1a 97 d2 3d a2 a0 ae bc 30 b8 eb 3d 7f ac 06 3e
       0.102827266 -0.02131683 0.1150974 0.1315174
0003e0 e1 18 7f 3d f7 a5 21 3e a8 a2 ea 3c 56 fa 03 3d
       0.062279586 0.15785967 0.028642014 0.03222116
0003f0 54 e1 0b 3d 41 d2 ff 3d 30 75 25 3e 93 4d 3d 3e
       0.034150437 0.124912746 0.16157985 0.18486623

layer2_1.bias f4 [128]
000000 ae a6 fb bc 17 1a 34 3e 8c b5 6f bc a7 4e 82 3d
       -0.030719128 0.17588077 -0.0146306865 0.06362658
000010 5d 5c 3e 3d b1 73 9a 3c 41 cf b1 bd 90 e6 3b 3e
       0.046474803 0.018853994 -0.08682109 0.18349671
000020 26 41 2b 3d 1a b3 8e 3b 58 34 c5 3d 47 b6 a8 3e
       0.041810177 0.0043548467 0.096291244 0.32951567
000030 54 4e b5 3c c1 5c 8f 3d 85 26 fa 3c ec ed 6a 3e
       0.022132076 0.07000113 0.030535946 0.22942322
000040 0b c5 45 3d 27 04 9a 3d 75 ea 27 bd 63 6e 4f be
       0.048283618 0.07520323 -0.04099508 -0.20256953
000050 61 54 ea bc f7 f2 15 3e 8e 83 3e bc b1 a0 10 3e
       -0.028604688 0.14643465 -0.011628045 0.14123799
000060 89 fd 1b 3e 69 29 cb bb 0a 4a 05 3e 58 c5 93 3d
       0.15233435 -0.006200005 0.13016525 0.07215375
000070 9b 3f 52 3d 11 ad 18 3e ef c2 a2 bd 07 ee ee 3b
       0.05133019 0.1490977 -0.07947337 0.0072915587
000080 10 4b 5d 3d 99 09 5b 3c c5 ee 44 be da 0c 19 3d
       0.054026663 0.0133689875 -0.19231708 0.03736577
000090 68 b4 c7 3c 31 8f c6 3b 4b 91 a6 b9 08 1e 05 3e
       0.024378017 0.00605955 -0.0003177024 0.12999737
0000a0 76 c1 1d bd 22 37 cc 3c ff 67 4a 3d 91 96 a3 bd
       -0.038514577 0.024928633 0.049415585 -0.07987703
0000b0 a0 64 98 bd 27 71 22 3e 32 14 18 3e c3 51 0f 3e
       -0.07441068 0.15863477 0.14851454 0.13996033
0000c0 37 9a 84 3b 62 b6 25 3d cd ec 5f 3c 4e 12 8e 3d
       0.004046704 0.040457137 0.013667298 0.06937085
0000d0 9a 96 b7 3d 34 5e 77 bc a6 33 9a bd d8 56 dd 3d
       0.08964272 -0.015098143 -0.075293824 0.1080758
0000e0 03 55 bd 3d c4 52 17 bd 3e bf 1c 3d fe 95 01 3c
       0.0924473 -0.036944166 0.03826832 0.007909296
0000f0 52 ed 8a 3e 52 bf 35 be 88 03 9b 3d 74 0e 82 3d
       0.27134186 -0.17748764 0.07569033 0.06350413
000100 4e 75 6b 3d c0 5f 1b 3e 1f 5f 0e 3e b8 5b 65 bc
       0.057484917 0.15173244 0.13903473 -0.013998918
000110 92 c9 80 bd fa b7 fe 3d 0f ac 4b bd a6 8b fc 3b
       -0.062884465 0.124374345 -0.049724635 0.007707077
000120 19 48 3f 3e 14 83 d5 3d f4 d3 a3 bd 7a 22 21 3e
       0.18679847 0.10425392 -0.07999411 0.15735808
000130 6d 3f 02 3d a4 eb bc 3d cf 62 47 3c 1f 2c 75 3d
       0.03179877 0.092246324 0.012169554 0.05985653
000140 1b 63 04 3e 5c 36 4c 3d c5 37 21 3e 6c 6e 08 3e
       0.1292843 0.04985653 0.1574393 0.13323373
000150 67 d7 9e 3d 35 2f d7 3d d0 a0 c6 3d a8 76 cc 3d
       0.077559285 0.10507051 0.09698641 0.099835694
000160 3e 75 3c 3d 77 10 ed 3d a1 42 29 3e 57 fd 03 3e
       0.04601025 0.11575406 0.16529323 0.1288961
000170 b0 9c 29 3d df 7e d4 bc 75 e7 1b bd d2 ae 43 bc
       0.041409194 -0.025939403 -0.03806253 -0.011943536
000180 f2 5d a6 3d a4 bc ab bd c4 dd c6 3d 00 20 58 3d
       0.081233874 -0.0838559 0.09710267 0.052764893
000190 59 3f 3d 3b c7 b6 61 bd 7a fd a1 3c 04 68 69 be
       0.002887687 -0.05510595 0.019774187 -0.22793585
0001a0 4c fb 5f 3d 32 69 8a bb 55 1a f2 3c 4c 3c 89 3d
       0.054683015 -0.004223966 0.029553572 0.06700954
0001b0 2a 9b 06 3d cf ca 2f bd d8 1d e1 bd b3 b1 bd 3d
       0.03286282 -0.042918023 -0.1099202 0.09262409
0001c0 75 6f 24 3e 2b 08 da 3d 29 00 22 3e 1e 97 14 3c
       0.16058142 0.10646089 0.15820374 0.009069232
0001d0 6a 5f 77 3d 39 4d 95 3d e3 6b b5 bd 18 4a 4a 3d
       0.06039373 0.0729012 -0.088584684 0.049387068
0001e0 c0 48 27 bd 3f 1e 3f 3e b4 e8 a5 bd 30 a9 ba 3d
       -0.040840864 0.18663882 -0.08101025 0.09114301
0001f0 b3 68 db 3c 48 c4 89 bd dc cb ff 3d 5e 5f 1f 3d
       0.026783323 -0.06726891 0.12490055 0.03890931

layer3_1.weight f4 [1, 128]
000000 02 d6 34 3b c3 d9 e8 bd 38 fa 87 3d bd 61 5d 3d
       0.002759338 -0.1136966 0.06639522 0.05404829
000010 e9 79 21 be bd ad 99 3d c0 35 01 3d 80 13 cd be
       -0.15769161 0.07503841 0.0315454 -0.4005394
000020 2f 13 4a 3d 6f 0d fb bd 9a 8d 2f be 0a 1b 99 be
       0.0493347 -0.12258422 -0.1714386 -0.29903442
000030 da 02 4e be 0f fe e2 3c 57 e3 17 be f4 b8 bc be
       -0.20118275 0.027709035 -0.14832817 -0.36859858
000040 12 9a 48 be 7c d4 82 be 1b 88 8a 3d 40 97 b6 3e
       -0.19590023 -0.25552738 0.06764241 0.3566227
000050 71 38 28 3c 53 a3 e8 bd 43 02 2b 3d e5 a7 09 be
       0.010267363 -0.113592766 0.041750204 -0.13442953
000060 04 9f 14 be 35 64 0f 3d 01 fe 18 be 5c aa 46 3d
       -0.14513785 0.035007674 -0.14940645 0.04850231
000070 49 f0 ce 3c 01 fc 18 be 3c 1c 9a bc 01 aa 30 be
       0.025261061 -0.14939882 -0.018812291 -0.17252351
000080 58 49 36 be a4 05 87 3c be 80 d0 3e 1b 8b 02 be
       -0.17801416 0.016482182 0.40723222 -0.12748377
000090 2c 58 9d 3d 97 0c 5f 3c b1 29 8b 3d 26 34 0b be
       0.07682833 0.0136138415 0.067950614 -0.13594112
0000a0 2a f6 28 3d 8a 05 f2 3c f8 8b 4b be dc 43 ce 3c
       0.041250385 0.029543657 -0.19877613 0.025178842
0000b0 72 5d 5e 3e 21 f0 11 be 46 ce f8 bd 1f 5a e4 bd
       0.21715334 -0.14251758 -0.121487185 -0.11150002
0000c0 2e 93 0b be 29 5e a0 3d 9d 5c 48 be 31 13 38 be
       -0.13630363 0.078304596 -0.19566579 -0.17976071
0000d0 3f cf f8 bd 70 da 60 3d 79 e1 23 3b 2d 5c 07 be
       -0.12148904 0.05489582 0.0025006218 -0.13218756
0000e0 07 ce 3c be ec ef 8d 3c 62 18 19 3d 7a c0 5e 3d
       -0.18437968 0.017326318 0.03737677 0.05438278
0000f0 70 96 c1 be d1 f6 d4 3e b7 d0 e6 bd e0 ed 07 be
       -0.37810087 0.41594556 -0.11270278 -0.13274336
000100 ec d5 40 be a1 b0 3e be 14 c5 11 be 1e 6c 14 bd
       -0.18831605 -0.18622066 -0.14235336 -0.03623592
000110 b9 c9 ab bd fc d4 ef bd 5a 63 0f 3b da 89 43 be
       -0.08388085 -0.117105454 0.0021879287 -0.19095555
000120 67 6a e5 bd c5 75 5d be 7a 99 75 3d 70 06 eb bd
       -0.11201935 -0.21626957 0.05996082 -0.11475837
000130 e7 b0 39 be 6d b4 19 be 96 35 fb 3c b1 76 56 3d
       -0.18133889 -0.15010233 0.0306652 0.052359287
000140 2a d1 1c be 53 52 6c 3c bd 08 e5 bd 78 94 ef bd
       -0.15314165 0.0144239245 -0.11183307 -0.1169824
000150 03 bf 35 be 26 3e 2c be 39 45 e6 bd 4a 44 57 be
       -0.17748646 -0.16820583 -0.11243672 -0.21022144
000160 bd 62 27 3d b0 3d f6 bd f5 d2 db bd d5 ce e7 bd
       0.04086565 -0.12023485 -0.10733596 -0.11318747
000170 97 68 8c 3d 60 66 7f 3c b9 5e 8a 3d 82 de 57 3d
       0.068558864 0.015588373 0.06756348 0.052702434
000180 75 31 10 be 0e 06 53 3d 72 c6 eb bd f2 a6 23 be
       -0.14081366 0.051519446 -0.1151246 -0.15981653
000190 c5 aa 38 be 6f 71 95 3d fd 47 01 3d 2d a2 c9 3e
       -0.18033893 0.07297026 0.031562794 0.39381543
0001a0 ac c4 37 be 9e 8a cf 3c 95 5c 05 be 0c 5a 0f be
       -0.17946118 0.025334653 -0.13023598 -0.13999194
0001b0 2d 92 39 be a1 c7 50 3d 03 55 81 3e 60 08 25 be
       -0.18122168 0.05097163 0.2526017 -0.16116476
0001c0 8e f6 ed bd cc 93 1b be 90 6a 19 be f1 c2 8d 3d
       -0.11619292 -0.15193099 -0.14982057 0.06921948
0001d0 30 07 df 3c 5f ec 35 3d 67 ee 23 3d 73 5e e5 bd
       0.027225107 0.044414874 0.04002228 -0.111996554
0001e0 68 f6 3c 3d 79 ad e3 bd 67 a0 84 3d 96 f6 2a be
       0.04613343 -0.11117072 0.06475907 -0.16695628
0001f0 d7 79 45 be fd 8b b8 3b 40 50 11 be fe b6 01 be
       -0.1928476 0.0056319223 -0.14190769 -0.12667462

layer1_2.weight f4 [128, 27]
000000 9c d7 e9 3d e9 6f 04 be 87 e0 a1 bd 15 5e 70 3e
       0.11418077 -0.12933315 -0.07904153 0.2347339
000010 84 59 36 3e f9 ea 2c be 68 d0 f9 3d 8b ff 33 3d
       0.17807585 -0.1688651 0.121979535 0.043944877
000020 19 c2 b6 bd 60 8e f5 3c e3 49 16 3e 87 b3 12 3e
       -0.0892374 0.029975116 0.14676623 0.14326297
000030 cd e0 6d 3c 5d 1a 86 bd 58 c7 62 3e 15 37 4b 3e
       0.014518929 -0.06547997 0.22146356 0.19845231
000040 2c a8 e0 3c 28 d5 86 3d ed b4 98 bd 1d 42 eb bd
       0.02742394 0.06583625 -0.07456384 -0.114872195
000050 58 53 13 be 25 9d f8 3b 60 38 9c 3d b8 40 15 3e
       -0.14387262 0.0075870925 0.0762794 0.1457547
000060 8c 9b 2c be ab 6c fa bc 3c 0f 60 be a5 b4 80 bb
       -0.16856211 -0.030569395 -0.21880811 -0.0039277845
000070 75 ef c4 3d c1 3d e7 bd d8 e6 bf 3d c3 6a f8 3d
       0.09615985 -0.112910755 0.09370202 0.12129738
000080 0d 1d f7 3d 1d e4 8c bd 6b 8f 9e 3d fd c7 c2 bd
       0.12066088 -0.06879447 0.077421986 -0.09510801
000090 67 a9 03 be 0f c5 a3 bd 3a 1d 17 3e c7 17 85 3e
       -0.1285759 -0.0799657 0.14757243 0.25994703
0000a0 45 12 eb 3d f4 3d ea bd 69 99 89 3d 61 42 0d be
       0.11478094 -0.11437598 0.06718714 -0.13794853
0000b0 50 75 cd 3d 54 34 49 be 40 30 90 3d 88 8a 47 3d
       0.10032141 -0.19648868 0.07040453 0.048716098
0000c0 bc 8d 76 be 15 0b 05 be d0 92 64 be f1 3c 1c 3e
       -0.24077505 -0.12992509 -0.2232163 0.15257622
0000d0 01 da 95 bd ac b1 06 bd 29 6b ec 3d 9e 7c c3 3d
       -0.073169716 -0.032884285 0.11543877 0.09545253
0000e0 13 4d 24 3e 03 b1 ac bd 5b a4 59 bd 88 d6 54 3e
       0.16045026 -0.084322 -0.053135257 0.20784962
0000f0 55 b5 03 3e 3c e9 bc 3d c2 d7 41 3e 64 66 6e 3d
       0.12862141 0.092241734 0.18929961 0.058203116
000100 e2 6c 2c 3e c3 2e 81 3e 41 b8 e2 3d b2 79 02 bd
       0.1683841 0.2523099 0.110703 -0.03185434
000110 e5 91 dd bd 1c 49 41 3d b9 ff 01 be d2 b3 d7 bd
       -0.10818843 0.047188863 -0.12695207 -0.10532345
000120 fd 22 52 3e db 25 85 3e f1 ed c4 3d 2f 7a 54 3e
       0.2052116 0.26005444 0.09615696 0.20749734
000130 15 9b 38 3e 8a 03 58 3e 81 28 7c 3d c3 41 c2 3d
       0.18027909 0.210951 0.061562065 0.09485199
000140 36 e6 3d 3e 42 61 53 3d 20 16 af bc 70 70 af bd
       0.1854485 0.051606424 -0.021372855 -0.085663676
000150 8b 95 3a 3c 9a 7d 4f bd d6 a8 23 be b6 20 e9 bd
       0.011388193 -0.050656892 -0.15982375 -0.11383192
000160 af c4 af bd 46 c0 09 3e c0 b4 81 bd 50 26 29 3e
       -0.08582436 0.13452253 -0.063333035 0.16518521
000170 21 db 02 be 86 2f 77 3d be 91 2d 3e 33 e6 8c 3d
       -0.12778904 0.060348056 0.16950127 0.068798445
000180 09 dc 60 3d 51 b0 14 3e 9c af 1a 3d a1 e8 3f be
       0.054897342 0.14520384 0.03776513 -0.18741085
000190 81 a9 7e 3e 7e bc 08 be fc b3 53 be 1b c5 8d bd
       0.24869348 -0.13353154 -0.20674127 -0.069223605
0001a0 5b 16 2a be e4 bd 03 3d e5 f8 20 3d 5e 7e 29 bd
       -0.1661009 0.032163516 0.039299864 -0.04138028
0001b0 df 4a ca 3d dd 00 1e be 18 86 66 bd b9 0b af 3d
       0.09877562 -0.15430017 -0.056280226 0.08547158
0001c0 7d 1f 9f 3d a6 b5 e2 3c c9 02 16 be 8f 6e 43 3e
       0.07769678 0.027674507 -0.146495 0.19085144
0001d0 9e 90 2e be 35 37 39 3e 8e ad 66 be 20 f7 48 be
       -0.17047355 0.18087466 -0.22527143 -0.1962552
0001e0 fe 76 1a be 77 15 06 3e e8 c2 eb bd a8 99 61 3c
       -0.15084454 0.13094126 -0.11511785 0.013769545
0001f0 71 4b b3 bd 1b ed 31 be 5e 6e 68 3d 32 e0 11 be
       -0.08754624 -0.17375605 0.05674588 -0.1424568
000200 45 d9 26 3c 7b aa c6 3d 6f 58 31 be bf d7 25 3c
       0.010183637 0.09700485 -0.17318891 0.010122239
000210 79 8b 0d be 23 22 f5 3b 98 a4 3f 3e 47 44 c6 3d
       -0.13822736 0.007480876 0.18715131 0.096809916
000220 b3 bf 68 39 0c f2 31 be ed a7 7b bc 61 b5 21 bd
       0.00022196658 -0.1737749 -0.015359861 -0.039479617
000230 d9 6b 8d 3d 31 49 f0 bd 2f 40 b0 3d 2a e3 23 3e
       0.06905336 -0.1173271 0.08605992 0.16004625
000240 97 72 d4 bd 95 b2 43 3e c6 64 6d bd 32 03 7e 3e
       -0.10373419 0.19111092 -0.057957433 0.24805906
000250 bd 20 53 3e 9e cb 30 3e d1 9b 71 3e 17 65 ab 3d
       0.20617957 0.17265174 0.23594595 0.08368891
000260 98 57 b8 bd bb f2 71 3d bf 7f 8c 3e bc 76 3b 3e
       -0.09001082 0.059069376 0.27441213 0.18307012
000270 27 83 d1 3d a2 45 6e be 84 c8 be 3b c1 93 52 3d
       0.102300934 -0.2326875 0.005822243 0.05141044
000280 73 0f 21 3e 9e 72 3b be 91 09 83 bd 6a eb 6f bd
       0.1572855 -0.18305442 -0.06398309 -0.058574118
000290 83 f3 bf bd 08 7f 7b 3d 73 cd cf 3b 5e 33 e1 bb
       -0.09372618 0.061400443 0.00634163 -0.0068725785
0002a0 f4 74 1f 3e 67 9e f0 bc 96 a0 c3 3d 10 13 de 3c
       0.15571958 -0.029372407 0.09552114 0.0271087
0002b0 d6 5f e6 bd cb b9 48 3e d5 94 69 3e 11 cf c8 3c
       -0.11248748 0.19602124 0.22810681 0.0245128
0002c0 8a d6 1c 3e dd e1 19 3e 52 59 a4 bc 85 c8 11 3e
       0.15316215 0.15027566 -0.020062122 0.14236648
0002d0 ed a6 8d 3d eb c3 6a be 49 16 86 3e 61 27 72 bd
       0.06916604 -0.229263 0.26188877 -0.059119586
0002e0 46 62 5a be 4b 50 51 bb 0a b2 5d be 57 b7 1e be
       -0.21326551 -0.0031938727 -0.21649948 -0.15499626
0002f0 79 e4 0f 3e 12 af 66 3e f2 3d 54 be a1 86 8b bd
       0.14051999 0.22527722 -0.20726755 -0.06812788
000300 25 73 94 3e 5b bc 2f be 69 23 4c bd 3e c1 0e 3d
       0.28994098 -0.17161696 -0.049838457 0.03485226
000310 2e fb 75 bd 37 68 84 3d 00 fb 18 3a 00 06 aa bd
       -0.060053997 0.0646519 0.0005835742 -0.08301926
000320 f5 50 f4 3c 1f 40 4c bd 27 c2 6f be 8d 9b 08 be
       0.02982376 -0.04986584 -0.23413907 -0.13340588
000330 6c 2e 35 be 9d f6 a0 3d 04 b2 82 be 63 60 43 3e
       -0.1769349 0.07859538 -0.2552644 0.19079737
000340 63 bd 5b bb e7 f1 87 3e 0d ea 32 be 4b e1 d9 3d
       -0.0033529631 0.26551744 -0.17472096 0.10638674
000350 79 29 0f be ff d8 a5 3e 41 1d 36 be 94 48 6b 3e
       -0.13980664 0.32392117 -0.17784597 0.22976905
000360 17 5b 84 bd d1 c6 ea 3d c6 aa 18 3d 9c 3c 92 bd
       -0.064626865 0.114637025 0.037272237 -0.071404666
000370 ca d3 8f bd 75 af 45 3e ca 69 d6 bd a4 12 46 3e
       -0.070228174 0.19305213 -0.104693964 0.19343048
000380 ab 2f 19 3e b6 c6 d1 3d 41 24 1b be da 5b 91 3d
       0.1495959 0.10242979 -0.15150549 0.070975974
000390 07 da 89 bd fb 35 94 3c b2 81 24 3e 8c 09 e7 3c
       -0.067310385 0.018092146 0.160651 0.028202794
0003a0 4d aa 35 3d 82 df 83 bc c5 78 11 be c2 c8 a8 3d
       0.044351865 -0.016097788 -0.14206226 0.082414165
0003b0 f6 7d 85 3c f9 d2 1b bd 53 0a 04 be 36 a6 83 bd
       0.016295414 -0.038042996 -0.12894563 -0.064281866
0003c0 79 24 0c be a5 2a 54 bd 88 8c 6f bd 35 21 65 3d
       -0.13685788 -0.05179848 -0.05848363 0.05593987
0003d0 66 13 af 3d 1f 5e 44 3d 8c 29 36 3e 51 43 30 3e
       0.08548622 0.047941323 0.17789286 0.17213179
0003e0 62 69 d7 3d 33 1d 1f be f8 78 24 be bd d2 27 bd
       0.10518147 -0.15538482 -0.16061771 -0.04097246
0003f0 30 fc 7b 3c 90 ab bd 3d 81 cc 78 be 80 9b d0 3d
       0.01537995 0.092612386 -0.24296762 0.10185909

layer1_2.bias f4 [128]
000000 0b 78 8c 3e be 0e 0c 3e c5 5e 0d 3e ca f4 0d 3e
       0.27435336 0.13677499 0.13805683 0.13862911
000010 bb 27 5b 3e 3e 29 9c 3d 0f e3 a9 3d c0 6e ec bc
       0.21401875 0.07625054 0.08295261 -0.028861403
000020 77 9c 35 be 17 ea 85 3e bf 80 42 3e dd 42 1c 3e
       -0.17735468 0.2615516 0.18994425 0.15259881
000030 7f 3c af 3e 92 a7 50 3e 04 78 b1 3d b1 45 96 3e
       0.34225842 0.20376423 0.08665469 0.29350045
000040 bc 32 0f 3e a8 00 51 3e 1e 2d 9a 3e e2 ff 51 3e
       0.13984197 0.20410407 0.30112547 0.20507768
000050 21 aa 89 3d a7 fe c1 3d e1 07 11 3c 63 0d 8b 3e
       0.06721903 0.09472399 0.008851976 0.2715865
000060 cb 0e 22 3e 31 c9 90 3e c5 89 61 3e 47 7d 46 3e
       0.15825956 0.28278497 0.22025211 0.19383727
000070 b7 6a 8c 3e a6 f1 29 3e 81 ac 8b 3e 21 99 b5 bd
       0.27425167 0.16596088 0.27280048 -0.08867098
000080 af d9 0a 3e e8 0e 9d 3e 16 fc 44 3e 18 5f 18 3d
       0.13559602 0.30675435 0.19236788 0.037200063
000090 25 04 57 3e 49 e2 98 3e 4b 91 1b 3e 67 1f 82 3e
       0.20997675 0.29860142 0.15192144 0.25414583
0000a0 58 d0 6a ba 5f dc 5e 3e 5b 73 7a 3d f8 7a 37 3d
       -0.0008957437 0.21763752 0.061145168 0.044795007
0000b0 cf 12 f4 3d 06 c6 9d 3e 87 44 8e 3e b8 11 70 3d
       0.1191765 0.30815142 0.27786657 0.058610648
0000c0 11 51 74 3e d6 ac a6 3e 48 df a3 3e 4b dd a0 3e
       0.2385905 0.32553738 0.32006288 0.31418833
0000d0 51 22 6b 3e 76 36 aa 3d a9 03 4a 3e 22 c0 8c 3d
       0.2296231 0.08311169 0.19727959 0.06872584
0000e0 6a 54 e2 3c a6 2a 8d 3e 09 bb 88 3e e2 4a 0b be
       0.027628142 0.275716 0.26705196 -0.13602784
0000f0 9c 8a 2b 3e 76 9e a7 3e 9e 56 8e 3e d3 14 9c 3c
       0.16752094 0.32738084 0.2780046 0.019052899
000100 24 2e 8a 3e ce ac 9a 3c 7d 18 72 3d 8f 87 94 3e
       0.26988328 0.018881228 0.059105385 0.29009673
000110 15 a2 8d 3e 87 eb 85 3e da 8b 46 bd b2 6a 8f 3e
       0.2766272 0.26156256 -0.048473217 0.2801109
000120 97 a3 03 3e 6c 0a 54 3e 33 78 7d 3e a0 5a 5a 3e
       0.12855373 0.207071 0.24752884 0.21323633
000130 91 5a 1e 3e cb d7 5f 3e b2 b1 9f 3d 37 78 01 3e
       0.15464236 0.21859662 0.077975646 0.12643515
000140 d0 27 77 3e 5c 7a 2e 3e e9 a6 7b 3e db c3 ac 3d
       0.24136281 0.17038864 0.2457539 0.08435794
000150 d5 d9 45 3e 25 00 a0 3e a7 d2 ba bb fe 20 9b 3e
       0.19321378 0.3125011 -0.0057013812 0.3029861
000160 47 41 85 3e 79 d4 75 3e 17 29 be bd 6a 6a 20 bd
       0.26026365 0.24006833 -0.09285181 -0.039163984
000170 18 40 76 3e 37 b4 14 bd c5 96 e7 3d 76 1d 83 3e
       0.24047887 -0.03630468 0.11308054 0.25608414
000180 80 db 62 3e ad 56 85 3e 39 3e 80 3e e9 cc 88 3e
       0.22154045 0.2604269 0.25047472 0.26718834
000190 6b fb dd 3d c2 ec 90 3e 11 e9 40 3e 0d cc 43 3e
       0.1083897 0.28305632 0.18838908 0.19120808
0001a0 a7 25 9c 3e b2 a8 0f 3e 2d cd 05 3d 8f 9d 8b 3e
       0.30497476 0.14029196 0.032666374 0.27268645
0001b0 c4 13 7f 3e 72 a8 83 3e 46 d8 72 bc 15 29 42 3e
       0.24909884 0.2571445 -0.014822071 0.18960984
0001c0 0e 32 2c 3e 5f 10 fa 3d b9 11 44 3e 4e 8d 89 3e
       0.1681597 0.12210154 0.19147386 0.2686562
0001d0 42 29 5e 3e c4 c8 77 3e 4f 5d 9a 3e 8f cf a1 3e
       0.21695426 0.2419768 0.30149314 0.31603667
0001e0 3a 8e 95 bd fa 27 53 bc 8a b2 39 3e 9a 0e 63 3e
       -0.07302518 -0.012887949 0.18134513 0.22173539
0001f0 41 4f 90 3c 5b 60 9e 3e 21 3f 1c 3e 73 c4 71 3e
       0.017615916 0.30932888 0.15258457 0.23610096

layer2_2.weight f4 [128, 128]
000000 cf 84 3a 3d cd ed 31 3e 1b 4d 3b 3e f1 9f fc 3d
       0.045536812 0.1737587 0.18291132 0.12335194
000010 67 8b cc 3d a0 5f c7 3d a4 8f dd 3d fe 01 03 3e
       0.099875264 0.09735036 0.10818413 0.12793729
000020 06 b3 20 3e ed 12 27 3e 56 12 46 3d 84 bd 21 3e
       0.15693292 0.16315813 0.04835733 0.1579495
000030 23 54 15 3e 37 e7 df 3d 8b a0 d1 3d 94 68 41 3e
       0.14582877 0.109327726 0.10235699 0.1888755
000040 93 2b 1b 3e 0d 7c c8 3d 1a 10 8b 3e 07 79 08 3d
       0.15153341 0.09789286 0.27160722 0.033318546
000050 e9 43 12 3e 63 11 3a bc 25 21 9c 3c 64 84 3b 3d
       0.14283718 -0.011356684 0.019058773 0.045780554
000060 46 bf ce 3d e2 28 ef 3d d0 c3 5c 3c 1d 6b 42 3d
       0.10095076 0.1167772 0.01347442 0.047465432
000070 e6 08 25 3e 7f 71 c6 3d 0f 11 ac 3d 85 fa b6 3d
       0.16116676 0.096896164 0.08401691 0.089345016
000080 d3 7d 2c 3e 96 e2 cf 3d 62 23 e1 3d 2c 31 cf 3d
       0.16844873 0.1015064 0.10993077 0.10116801
000090 c8 b5 2d 3e 89 e3 8c 3d bc 45 0e 3d 1a 41 13 3e
       0.16963875 0.068793364 0.034734473 0.14380303
0000a0 4e d6 15 bc 9b 06 96 3d 73 32 ba 3d 65 dc ff 3c
       -0.0091453325 0.07325479 0.09091654 0.031233022
0000b0 b1 aa 0b 3e 19 e3 a3 3d 5e 1c 03 3d 08 2c 93 3d
       0.13639332 0.080023 0.032009475 0.07186133
0000c0 b3 41 be 3c 03 44 d5 3d a9 88 21 3d c9 7f d8 3d
       0.023224687 0.10413363 0.03943697 0.10571248
0000d0 00 5c ed 3d bc 87 74 bc c0 54 ef 3d c2 cb a4 ba
       0.11589813 -0.01492494 0.11686087 -0.0012572932
0000e0 81 5b de 3d e5 b9 2d 3e c0 2d 7f 3d 6e 7b 6a 3d
       0.10857297 0.16965444 0.06229949 0.057246618
0000f0 f9 78 95 3d 68 ee 8b 3d 90 af ca 3e e0 f4 e5 3d
       0.07298464 0.06832582 0.3958707 0.11228347
000100 df d5 8f 3c f6 2b 40 bc 28 03 17 3e 54 78 a4 3d
       0.017558036 -0.011729231 0.14747298 0.08030763
000110 f2 b8 32 3e 46 67 b9 3d 2e d9 9d 3d c7 d3 15 3d
       0.17453364 0.09052901 0.07707439 0.03657892
000120 9f be 1b 3e 27 bb 59 3e 7a 70 90 3e 56 d6 fa 3d
       0.15209435 0.21262799 0.28210813 0.122479126
000130 8c 85 dc 3d 6f 63 07 3d cd 33 85 3c 7c 46 20 3e
       0.107676595 0.03305381 0.016260052 0.15651888
000140 0c d5 95 3e a6 74 f0 3d 50 5b 10 3d 8d 5f 31 3e
       0.29264104 0.11740999 0.035243332 0.17321606
000150 df bb 1a 3d b1 69 01 3e 71 b2 bf 3d 69 7e 35 3e
       0.037776824 0.12637974 0.09360207 0.17724003
000160 d5 81 25 3e 75 05 f8 3d e5 51 7e 3d 11 a7 85 3d
       0.16162808 0.12110416 0.06208982 0.06526006
000170 8f d0 87 3d 95 e1 d8 3d 7b 60 e6 3d a6 ec fc 3d
       0.06631576 0.10589901 0.11248871 0.123498246
000180 07 fa 5f 3e 15 6d c7 3d f9 bf 2e 3e 4b 7f d5 3d
       0.21872722 0.097376026 0.1706542 0.1042467
000190 13 92 43 3e 9d 8a 43 3d dc e5 0e 3e d6 65 70 3e
       0.19098692 0.047739614 0.13954872 0.23476347
0001a0 11 90 85 3d 26 4e c1 3d da 32 ed 3d 81 fa 15 3e
       0.06521619 0.09438734 0.11581965 0.14646341
0001b0 57 52 a9 3d fb 39 ae 3d cf 92 71 3c 68 02 6e 3e
       0.08267658 0.08507153 0.014744475 0.23243105
0001c0 54 64 a0 3d 39 b2 b9 3d 3a 79 35 3e 80 1e b5 3d
       0.07831636 0.090671964 0.17722026 0.08843708
0001d0 a1 2a b9 3d ca 19 d5 3d 83 e4 ef 3c 58 6b cd 3e
       0.09041334 0.104053095 0.029283768 0.4012096
0001e0 aa d0 2e 3d f0 c7 7b 3d a0 c7 97 3d cd 80 91 3d
       0.042679466 0.061469972 0.07411122 0.07104645
0001f0 0a 48 02 3e b1 10 81 3c 17 bd b3 3d 52 6c 27 3d
       0.12722793 0.01575503 0.087763004 0.040874787
000200 c1 a0 58 3d 15 6d 39 3e 97 ec 49 3e c3 82 34 3e
       0.052887682 0.18108018 0.19719158 0.17628007
000210 85 7f ac 3d 08 a2 67 3d db 5e 81 3d 18 29 b2 3d
       0.0842276 0.05655101 0.0631692 0.08699244
000220 aa 00 14 3d 89 e5 c6 3d 61 c3 d2 3d 94 18 2b 3e
       0.036133446 0.09711749 0.10291172 0.16708595
000230 c4 96 7b 3d 81 76 00 3e 34 77 4f 3d 17 f8 66 3e
       0.06142308 0.12545206 0.05065079 0.22555576
000240 2f 72 07 3e 46 67 1f 3e b9 6b ce 3e c2 db a2 3d
       0.13227151 0.1556674 0.4031656 0.07952072
000250 93 6e cf 3d 22 b3 48 3d 6e 78 83 3d 10 10 df 3c
       0.10128512 0.04899896 0.064194545 0.027229339
000260 52 8b 26 3d a0 df 12 3e 8e ed 28 3e 9d 42 6c 3d
       0.04066021 0.14343119 0.1649687 0.057680715
000270 c8 fb 21 3e 96 bf 25 3e ed 35 44 3e e1 b7 16 3d
       0.15818703 0.16186365 0.19161196 0.036796454
000280 de 64 fe 3d fd 4a 0a 3e ab 5e 47 3e 7c 59 6c 3d
       0.12421583 0.13505168 0.19469707 0.057702526
000290 6e 54 43 3e 70 aa 1a 3e 65 7b 3f 3d f1 7e ff 3d
       0.19075176 0.15104079 0.046748538 0.12475384
0002a0 0c 54 c6 3d 55 d6 a8 3d aa b1 ac 3c 84 91 f8 bc
       0.096839994 0.082440056 0.02108081 -0.030342825
0002b0 56 8b 24 3e 55 68 2a 3e 91 ac 83 3d 8a 63 c5 3d
       0.16068777 0.16641362 0.06429399 0.09638126
0002c0 70 9d 51 3d 4a 92 d7 3d 8d 21 1f 3e 9b c2 21 3e
       0.051175535 0.10525949 0.15540142 0.15796892
0002d0 41 96 00 3e 41 03 d8 3d 1d 8e e1 3d 79 df 08 3d
       0.12557317 0.10547496 0.11013434 0.033416245
0002e0 c9 87 82 3d 50 cd ec 3d 10 17 59 3e e6 54 17 bd
       0.06373555 0.11562598 0.21200204 -0.0369462
0002f0 4c c6 fe 3d 50 d0 55 3e c8 df f1 3e ae 12 99 bc
       0.12440166 0.20880246 0.47241044 -0.018685665
000300 7d 45 44 3e 59 4c dd 3c 70 9e f2 3d ef 21 d6 3d
       0.19167133 0.027013944 0.11846626 0.10455691
000310 69 6b 92 3d 6f bd 89 3d 80 81 8b 3c 44 18 1b 3e
       0.07149393 0.06725585 0.017029524 0.15145975
000320 24 90 38 3e 50 c0 0c 3e 5c 8c b5 3e ee ef f1 3d
       0.18023735 0.13745236 0.35458648 0.11813341
000330 3c 94 35 3e df 84 34 3e f2 67 09 3c ed 48 35 3e
       0.17732328 0.17628811 0.008386599 0.177036
000340 b5 43 b5 3e f2 6c 1c 3e 5f fa 2f 3d a6 24 37 3e
       0.3540322 0.15275934 0.04296338 0.17885074
000350 d9 09 9c 3d 6a 41 47 3e 95 cc b1 3d 60 77 d3 3d
       0.07619066 0.19458547 0.08681599 0.10325503
000360 45 2c 3d 3e bf e8 2b 3e 18 5d 2c bd cd 5a 57 bd
       0.18473919 0.16788004 -0.04208097 -0.05257683
000370 3f d4 29 3e 0b 33 9b bb c3 cd 44 3d b5 bd 4a 3e
       0.16584872 -0.0047363094 0.048047792 0.1979893
000380 86 87 76 3e 1a bb 05 3e e0 28 5d 3e cd 4f f9 3d
       0.24075136 0.13059655 0.21597624 0.12173424
000390 15 9b dc 3c 12 97 55 3e 08 f2 30 3e 84 79 5c 3e
       0.026929418 0.2085841 0.17279828 0.2153073
0003a0 56 1f b6 3d 56 9b 31 3e 0b 1b 9d 3d 73 87 9b 3d
       0.088926956 0.17344412 0.07671174 0.07594194
0003b0 ba 6b 32 3e 4e c9 1f 3d 90 f0 16 bd dc 98 35 3e
       0.17423907 0.03901034 -0.036850512 0.17734092
0003c0 88 5e 11 3e c3 72 91 3c 71 7b 99 3d da 96 23 3e
       0.14196217 0.017754918 0.07494248 0.15975514
0003d0 61 09 36 3e d3 0f d0 3d 8b c1 26 3e 63 f4 ab 3e
       0.17777015 0.10159268 0.16284768 0.3358489
0003e0 d1 63 14 bd b4 0c 2b 3d 01 20 f3 3d 97 45 0e 3e
       -0.036228005 0.04176016 0.11871339 0.13893734
0003f0 03 17 81 3d d3 7d c8 3d 02 8b 0e 3e 6c 71 75 3e
       0.06303217 0.09789624 0.13920215 0.23969048

layer2_2.bias f4 [128]
000000 7c a3 ad 3d 1d 15 26 3e 07 27 27 3e 86 90 29 3e
       0.08478448 0.16218992 0.16323482 0.16559038
000010 ec 41 e5 bd 88 13 5d 3d 5f a9 4f 3d 5d bf 16 3d
       -0.11194214 0.053973705 0.050698634 0.036803592
000020 2e ea 9a 3c 1c 4b 60 bd 8a 05 62 bd 56 4c 9f 3d
       0.018910494 -0.05475913 -0.055181064 0.07778232
000030 c1 e3 b7 bc c8 c8 e9 3d 8f b0 b6 3d 08 c2 57 3d
       -0.022447469 0.11415249 0.08920395 0.052675277
000040 d4 6b 6b bd c0 11 d9 bc 1b a1 fb bc 82 89 d8 3d
       -0.05747588 -0.026497722 -0.03071647 0.105731025
000050 b6 7c 9c 3e 17 64 c6 3d 0d ce 16 3d d3 01 8a 3d
       0.30563897 0.096870594 0.0368176 0.06738629
000060 4d bb 46 bb ff 61 50 bc 1e a4 19 bd 8d fd 06 3e
       -0.0030324042 -0.012718677 -0.03751003 0.1318266
000070 d5 36 82 bd 04 19 d9 3c 65 2f 8d 3c 3e dc 2d 3e
       -0.06358115 0.026501186 0.017234514 0.16978547
000080 73 db c0 bd 76 f3 7c 3d 0d 2b 97 3b db 62 25 3e
       -0.094168566 0.06175562 0.0046132863 0.16150992
000090 24 43 08 3e f7 20 08 3e b6 4d ab 3d c5 5d 6b bd
       0.13306862 0.13293825 0.083644316 -0.057462472
0000a0 d9 dc 1e 3e af e1 0e 3e 41 01 33 3d e9 60 c4 3d
       0.15513934 0.13953279 0.043702368 0.09588797
0000b0 f7 c6 3a 3e 43 01 01 3d 77 a8 de 3d fc b3 02 3e
       0.18239962 0.031495344 0.10871976 0.12763971
0000c0 f5 9e ac bd 6e 8b 6c be 1b 5c 01 3d 89 fc 44 bd
       -0.08428756 -0.23100063 0.03158198 -0.0480924
0000d0 7e 1b 19 3d 6a 2e fe 3d 4c 55 2e 3d bd a8 a0 bd
       0.037379734 0.124111965 0.042561814 -0.07844684
0000e0 66 14 15 3c 55 20 fd 3d 43 bc 16 3b fa af b4 bd
       0.009099102 0.123596825 0.0023000396 -0.08822627
0000f0 2a 8f 0e 3e 4c 93 5e 3d f1 3c 3b 3e ca 11 1c 3e
       0.139218 0.054339692 0.18284966 0.15241161
000100 54 18 fd 3d 1a 24 bd bd 19 95 fe bc 25 e2 52 bd
       0.12358156 -0.092354015 -0.031076955 -0.0514852
000110 0f 39 5f be d6 6e f5 3c 39 40 48 3c d6 c3 a1 bd
       -0.2179911 0.029960077 0.012222343 -0.07898681
000120 c4 cc 0d 3d 83 f6 2c 3d 66 70 48 3e a8 c1 fc 3d
       0.034619108 0.04222728 0.19574127 0.123416245
000130 b4 a9 1e 3d 9f e8 9a 3d e8 34 92 bd 46 37 88 bd
       0.03873606 0.075639 -0.07138997 -0.066511676
000140 b8 b4 82 3d 39 95 82 3c e8 f4 fc 3d 68 dd ef 3d
       0.063821256 0.015940296 0.123514 0.11712152
000150 f5 cf 70 3d 14 83 6a bd 94 45 91 bd 15 16 66 bd
       0.058792073 -0.057253912 -0.07093349 -0.056173403
000160 8e ae e4 3d c0 10 b1 3b 5d d1 71 bc a9 a3 67 3d
       0.11166106 0.005403608 -0.014759389 0.056552563
000170 f9 8c 19 3e b4 8d c7 3b d4 cc 73 bd 9f 77 72 bd
       0.14995183 0.0060898904 -0.05952151 -0.05919611
000180 67 30 c9 3c 10 1a 46 3c ff a9 95 3d f1 75 13 3d
       0.024559213 0.012091175 0.07307815 0.03600115
000190 e3 2b 92 bc 95 49 72 bd d2 37 ff 3c 8e 04 28 3e
       -0.017843192 -0.059152205 0.031154547 0.16407987
0001a0 33 cb 51 3c 8f b7 9f 3d 7e db 6e be f6 92 f6 3d
       0.012804794 0.07798683 -0.23325917 0.12039749
0001b0 cf 4a 94 bc 7b 88 71 3d d5 fa c5 3d b2 6d aa 3c
       -0.018102078 0.05896805 0.09666983 0.02080426
0001c0 21 68 35 3c f7 a2 f3 3d af 64 6d bd 14 c5 ad 3c
       0.01107219 0.118963175 -0.057957347 0.021212138
0001d0 a5 b5 23 3e 99 e6 ed bc 85 8a 90 3d 45 c7 da 3c
       0.1598726 -0.029040622 0.070576705 0.026706347
0001e0 0f 18 81 3c 39 4f 75 3d 15 d8 33 bd db c0 01 3d
       0.015758542 0.059890006 -0.043907244 0.031678062
0001f0 7a 70 b0 bd a0 4c d6 3b 2c 45 62 bd 95 49 c2 3d
       -0.08615203 0.006539896 -0.05524175 0.09486691

layer3_2.weight f4 [1, 128]
000000 9c 7e 2b be 2c 17 fc bd 3a 93 1a be 75 bf 0a be
       -0.16747516 -0.12309107 -0.15095225 -0.13549598
000010 4a fb 9a 3e c2 b4 ba 3c a3 2a 0a be 66 fe 31 be
       0.30269843 0.02279127 -0.13492827 -0.17382202
000020 30 7b 75 3c 96 3f 92 3d 0d ca f2 3c 78 09 2f be
       0.0149829835 0.07141034 0.029637361 -0.17093456
000030 30 66 64 3d 28 47 04 be c2 3b 23 be d5 3d 2f be
       0.055761516 -0.12917769 -0.15940765 -0.17113431
000040 7f 5b 17 3e fb 1f 57 3c 92 f1 a0 3d b0 ae 28 be
       0.14780997 0.013130183 0.07858576 -0.16472888
000050 c9 29 a7 be 05 89 06 be 4e 26 0d 3d bf ec 49 3d
       -0.32649067 -0.13138206 0.03446036 0.049298044
000060 c1 0a 55 3d bc fa 9f 3d 10 78 a6 bc 87 b3 05 be
       0.05201221 0.07811496 -0.020320922 -0.13056765
000070 3e 48 e4 3c 02 e7 71 3d a1 62 31 be 9a b8 f8 bd
       0.027866479 0.059058197 -0.1732278 -0.12144585
000080 05 18 d6 3e 8e 4d 43 be 9b 30 e8 3c d9 3c 11 be
       0.418152 -0.19072554 0.02834349 -0.14183368
000090 fe d9 fc bd 62 c7 1d be 62 49 31 be 23 53 f6 3c
       -0.12346266 -0.1540809 -0.1731315 0.03006894
0000a0 95 d3 39 be 0a 90 31 be 3a 03 0a be 01 43 02 be
       -0.18147118 -0.17340103 -0.13477793 -0.12720872
0000b0 43 23 f5 bd e4 8e 06 be 1b 5e ee bd fd 20 42 be
       -0.11969616 -0.13140446 -0.11639043 -0.18957897
0000c0 71 65 ae 3d 86 b4 a9 3e 21 cb 23 be f1 b3 5a bd
       0.08515442 0.3314554 -0.15995456 -0.05339426
0000d0 c3 44 f2 bd 2f 13 46 be 56 77 87 3d 4e 00 82 3d
       -0.118295215 -0.19343255 0.066145584 0.06347714
0000e0 ab e2 4d be df 30 1d be ca 56 1a 3c ea 06 87 3e
       -0.20105998 -0.15350674 0.009420106 0.26372463
0000f0 0a 70 eb bd 14 42 c0 3c 8d 6b 06 be fd 96 19 be
       -0.11495979 0.023469009 -0.13126965 -0.14999004
000100 07 08 1a be c1 2f 81 3d 7f 06 ea 3b 70 8c 94 bb
       -0.15042125 0.063079365 0.0071418877 -0.004533343
000110 f5 3e d0 3e 23 19 4d be d1 aa 54 3d d5 07 81 3e
       0.40673032 -0.2002912 0.051920716 0.25201288
000120 6e 53 00 be 38 69 2e be 32 e4 3b be 3f d3 24 be
       -0.12531826 -0.17032325 -0.18348768 -0.16096209
000130 d2 63 7a 3d 94 22 0c be c3 9b 22 3d 04 93 ac 3c
       0.061130352 -0.13685066 0.039699327 0.021066196
000140 28 0f 88 3c 06 4a 9f 3c 00 ee 31 be 55 cc 00 be
       0.01660879 0.019444477 -0.17375946 -0.12577946
000150 f4 1c 1e be 8c 6a 84 3d 75 58 a0 3e 45 70 fd 3c
       -0.15440732 0.06465635 0.31317487 0.030937323
000160 2d 15 17 be 0f 75 13 be db 27 18 3d d0 02 65 3d
       -0.14754172 -0.14400123 0.037147384 0.055910885
000170 d3 8f f2 bd 98 1f 48 3c 84 b4 aa 3d 1a de 44 3e
       -0.118438385 0.012214564 0.08335212 0.1922535
000180 31 e2 49 3c d0 ff cb 3c c6 20 47 3c 9c af 3e be
       0.012321995 0.024902254 0.01215381 -0.18621677
000190 53 cd 78 3c 52 79 81 3d c5 8b 7a 3d 0c 4a 5c be
       0.015185672 0.06321968 0.06116845 -0.21512622
0001a0 75 af 75 3b 36 27 28 be d4 c0 bc 3e 1a 44 21 be
       0.0037488614 -0.16421208 0.36865866 -0.15748635
0001b0 60 6a a9 3c 95 99 96 3d 81 ad f5 bd 16 d4 43 be
       0.020680606 0.07353512 -0.11995984 -0.19123873
0001c0 36 37 65 3b 12 81 fb bd d2 18 a9 3d eb 6f 47 be
       0.0034975535 -0.122804776 0.08256687 -0.19476287
0001d0 87 5a 39 be 31 2c c8 3b ef fc c8 3c 37 cc 52 3c
       -0.1810094 0.0061087837 0.02453467 0.012866071
0001e0 22 40 d7 3c 9e 44 06 be 60 b1 54 3d 37 b7 dc 3a
       0.026275698 -0.13112113 0.05192697 0.001683927
0001f0 c4 26 0f 3c 89 bb 59 3d fd 59 56 3c ba fc 3f be
       0.00873727 0.053157363 0.013082978 -0.18748751
