rl_energy_manager_20250325_1542/models/checkpoint_400/critic.pth (torch, 165410 bytes, 10 tensors)

layer1_1.weight f4 [128, 27]
00000000: a537 b13d 6281 c3bc 596d 113e ca27 333b
00000010: a82e 1ebe 4bfd 91bd 7509 173e 0af5 28be
00000020: 121d 30bd ec11 703d 853a 1e3e dbed 3c3e
00000030: 0c9e bd3d 22a9 29bd 9795 233e f49a 92bd
00000040: 1c58 c33d 875a 2b3d 7d8e fdbd 404d 1e3e
00000050: b88d b8bc ebb5 8a3c a8f8 973d 7a69 103e
00000060: ffef 8bbd 3a3a 873d 5b1b 433e 23ba 4a3e
00000070: 3356 e7bc 7ab3 f93c a6b0 bcbd e9dd a3bc
00000080: 8fb8 5bbe dfc5 90bd 3564 073d bcf5 1bbe
00000090: c033 b9bd f44a 97bd f24e cabd cb80 94bd
000000a0: 34e1 7e3d c37d 6bbd 62f1 6c3e 9025 6bbd
000000b0: 5010 d3bd 0198 9e3d c5ad 213e 28c0 09be
000000c0: e85f 1abe fb14 8e3b 151a 76bd 80ea 9e3d
000000d0: 2fec 5e3d f64d 19be c2e6 9c3e a095 c0bb
000000e0: 9a44 4e3c 9886 b63e 066f febd b1ba 2a3e
000000f0: d4b7 95bd a95e 1b3d a64a 023c 3fef d9bd
00000100: 0f23 d33c a2cc 2d3e bfd2 bcbd e5de 48bd
00000110: dbe7 223c 6392 153e d012 1bbe 2e2c 303e
00000120: 3bc9 9a3d aa50 c9bd 1e2f 3fbe 7a82 03be
00000130: d557 38be c651 88bd a079 243e 8cd8 58be
00000140: 52bb b83d e178 373d 5bf5 0b3d 5792 b3bd
00000150: 27c4 273e 8e82 123d eabe f9bd a5fb 79bd
00000160: 2d70 633d 4788 273d e7bc 2d3e f874 20be
00000170: 4d62 ebbd ce49 9dbe e01f 0a3d bf07 17be
00000180: 3350 d2be 5544 abbc 2d05 8ebd 275f 463e
00000190: c747 c93c f9cf 0d3e df3f b2bd 8b81 c8bd
000001a0: b2bc 05be 9a43 7dbe 7652 f23c d65a 353d
000001b0: f828 7f3e a620 af3b 7412 04be 224c dd3d
000001c0: 700e d8bd 451a dfbd f426 e63d 7a15 023e
000001d0: 6968 d93c b27c e33d 08a2 003e 04f8 d0bd
000001e0: ad2c 2bbd 53f4 663e 4d50 4cbd edcc 883a
000001f0: fff0 5c3d a426 f03d e2fc f13d 6d16 babd
00000200: 4c02 793d c5de fcbc 13bf 1cbe 94c8 afbd
00000210: 0359 29bd 01a6 4fbe 7623 403d bd0f 2fbd
00000220: c71b 96bd 91f7 5b3d 00a8 06bd 0e49 f73d
00000230: 818b e83c b387 69bd 21a4 0a3e bbf5 8abd
00000240: b3ae 273e 1e30 b23b e829 293e 78a3 143e
00000250: 521c 86bd fff1 c3bc 8f9f 2a3b fd3c bc3d
00000260: 7d88 e1bc c124 cdbc b7ff deb9 f5ee 9ebd
00000270: 8321 383e b02e 1d3e 3205 00be f77a 643e
00000280: eba4 023e 2f17 0bbe 6cc9 d03d 29ef f7bd
00000290: b7d6 f4bd 2d90 383e 3d0c c93c 895b 82bd
000002a0: 83ce 5abd f454 17bd 742a a7bd 46ab a03d
000002b0: 560f b73d e694 913d 1784 0bbd 8c6d a7bd
000002c0: 9773 1bbd 7648 aa3d 3f3d babd 9225 1f3e
000002d0: be9a 84bd 279d abbd e544 e83c 6863 5bbe
000002e0: 6fa1 653e edd5 053e 5e46 2ebe c43f 16be
000002f0: a627 463e 7d6f aabd bf6d 39bd 9ffb 66bd
00000300: efb9 e7bd 3a8a b63d 0109 fa3d 5af5 ba3d
00000310: 77cb d0ba e550 103e 7274 10be 61b8 6abd
00000320: 7c31 a53d afe3 4a3d 88bb 953b a590 c1bd
00000330: 423d 7f3d a5ba b83d 4530 5bbe 78a0 45be
00000340: bec6 f3bd 83e3 88bc 1651 c93c c64d 67be
00000350: 6afa 2cbe f2f9 2fbe 1463 233d 3f1f d2bd
00000360: 28be 283e 8bb5 093e e8c1 fbbd ebf9 3b3e
00000370: 792e 4c3d da94 26be 309c 15be a1c9 d03d
00000380: dd1d 3fbd 37f1 09be 3f52 0a3e 38b5 5abe
00000390: eed9 17be ab07 fa3c 029d c93d 4845 ad3d
000003a0: fe0b 153e 8374 753e 6933 83be b7de a13c
000003b0: 9b93 463c 5fd1 ccbc 28e3 5c3e 7174 75bd
000003c0: 07c5 c63d 1099 233e 09b2 083e 73e0 063e
000003d0: af23 3f3e d9ce 343e 2e37 23bd adaa 07be
000003e0: c2a4 343c 29af 2d3e 9a92 293e 7af9 473e
000003f0: 26d8 ec3d 5973 273d 609b 4c3e 7396 4b3e
0.086531915 -0.023865405 0.14201869 0.0027336949 -0.15447485 -0.0712839 0.14749701 -0.16499725
-0.042996474 0.05861084 0.15452011 0.1845011 0.09258661 -0.041421063 0.15975033 -0.07158461
0.0953829 0.04183438 -0.12380693 0.15459156 -0.022528514 0.016932448 0.07420474 0.14102736
-0.06832885 0.06602903 0.19053404 0.19797568 -0.028239345 0.030481089 -0.092133805 -0.020003276
-0.21457122 -0.07068991 0.03305455 -0.15230459 -0.09043074 -0.07387343 -0.09878339 -0.07251128
0.06222649 -0.057492983 0.23138955 -0.05740887 -0.10305846 0.07743836 0.15788944 -0.13452208
-0.15075648 0.004335997 -0.060083468 0.07759571 0.05442446 -0.14971146 0.30644804 -0.0058772117
0.012589598 0.35649562 -0.1242352 0.1667278 -0.07310453 0.03793207 0.007952368 -0.10641336
0.025773553 0.16972592 -0.09219884 -0.049040694 0.009942974 0.14606623 -0.15143895 0.17204353
0.07557913 -0.098298386 -0.18670318 -0.12842742 -0.18002255 -0.06656222 0.16062021 -0.21176356
0.090201035 0.044793013 0.034169536 -0.087681465 0.1638342 0.035769038 -0.12194617 -0.061031003
0.0555269 0.04090145 0.16966592 -0.1566962 -0.11493359 -0.3072037 0.033721805 -0.14749049
-0.41076812 -0.020906607 -0.06934581 0.19372235 0.024570359 0.13848867 -0.08703589 -0.09790333
-0.13060263 -0.24732819 0.029580336 0.04427608 0.24917972 0.005344468 -0.12897664 0.10805537
-0.10549629 -0.108936824 0.112378985 0.12703505 0.026539044 0.11107768 0.1256181 -0.10203555
-0.041790653 0.2255414 -0.04988127 0.0010437049 0.05394077 0.1172612 0.11815812 -0.09086309
0.060793206 -0.030867944 -0.15307264 -0.08583179 -0.041344654 -0.20278169 0.04690882 -0.04273962
-0.07329517 0.053702895 -0.03287506 0.12074481 0.028386833 -0.05701418 0.13539173 -0.067851506
0.16375236 0.005437865 0.16519892 0.14515483 -0.065483704 -0.023919104 0.0026035046 0.0919132
-0.027530903 -0.02504194 -0.00042533662 -0.07760421 0.17981534 0.15349841 -0.12501982 0.22312532
0.12758224 -0.13583063 0.10194668 -0.12106163 -0.11955016 0.18023749 0.024541968 -0.06365115
-0.0534196 -0.036946252 -0.08162394 0.07845168 0.08938472 0.07108478 -0.034061518 -0.08175191
-0.037952032 0.08314602 -0.09093713 0.15541676 -0.06474827 -0.08379584 0.028353164 -0.21424639
0.22424863 0.13069887 -0.1701903 -0.14672762 0.19351062 -0.08322046 -0.045270678 -0.05639231
-0.11314761 0.089130834 0.122087486 0.09128828 -0.0015929778 0.14093359 -0.1410692 -0.057304744
0.08066079 0.049533542 0.0045694746 -0.09451417 0.06231428 0.090199746 -0.21405132 -0.19299495
-0.119031414 -0.016710049 0.024574798 -0.22588262 -0.168924 -0.1718519 0.03988941 -0.10259866
0.16478789 0.1344816 -0.12292844 0.18357055 0.049849007 -0.1626772 -0.14610362 0.10194708
-0.04665934 -0.13470922 0.13507937 -0.21358192 -0.14829227 0.030521234 0.098444 0.0846048
0.14555356 0.23970227 -0.2562516 0.019759519 0.012120153 -0.02500218 0.21571028 -0.0599255
0.09705549 0.15976357 0.13349165 0.13171558 0.18665956 0.17657031 -0.039847545 -0.13248701
0.011025609 0.1696135 0.1655983 0.19528762 0.115646645 0.04088149 0.19981146 0.1988161

layer1_1.bias f4 [128]
00000000: 52ed d83e b67c a73e 4e83 adbb 41dc 463e
00000010: 61b0 843e bf71 db3e 594f 7b3e d43f 34be
00000020: 6133 34be 5acd 193e e79e de3e d00a d23e
00000030: 660d af3d 8255 eb3e 99a9 b13e 26f9 d53e
00000040: e1b5 ae3e 5386 14be f816 a43d 2bf7 3b3e
00000050: b474 b63e 030c c93e 8f0e 473e 877d a73c
00000060: 213f a83e 1a06 d03e 6842 8e3e 6e2b bf3e
00000070: 0073 d83e 52a2 963e ed9e 613d f8de e33d
00000080: 6211 903e 2a3d b73e a159 9b3e c670 633e
00000090: 6fd4 8e3e 8bb7 d9bd f09c cd3e 4126 1c3e
000000a0: a5e5 a33e 5e60 c23e 0ac7 b5bd 3964 b03e
000000b0: 06e9 6d3e 4ed9 773e 1e41 a63e c838 753d
000000c0: fbc8 cc3e a446 df3e aa9a b03e d56e 3c3e
000000d0: 2dcf af3e 057d 993e 5380 b83e 8d3b d6bd
000000e0: f542 9cbd cf44 b23e 06be 923e e6bb a03e
000000f0: afba e03e 5f96 fb3c 40c7 e33e b095 bcbd
00000100: 40d7 c23e 9fe5 823e 5cc4 7e3e 6eea 113e
00000110: 4365 bc3e 5ece 713e 54c9 863e 2344 c53e
00000120: d6b7 a53e 7cc1 983e c190 cb3e c0f4 d33e
00000130: 1ebe cc3e cd4c 9fbd 2ed5 d83e 1895 bd3e
00000140: 4e4c abbc 0d2a 663e cb62 da3e 33d5 ca3e
00000150: 69f6 cf3e d708 863e 22f4 a13e 6f10 393e
00000160: ed7d 5d3e 35b4 ae3e 4cde 573e 0600 d5bd
00000170: a76c 463e a806 9c3e 3d9b b43e 3ab3 c93e
00000180: 3300 523e 6bb4 a83e 410b 823c 4e89 803e
00000190: c188 993e c535 a13e 1a16 f43e c0ce 683e
000001a0: f586 a53e f1f5 eb3e 021a a23e db7e b03e
000001b0: 7350 073e 0582 703c 508b e03e d227 c33e
000001c0: b108 3e3e 1fed aa3e 1e68 a83e 432e b13e
000001d0: b462 763e e6d5 8ebd eff8 bf3e fdeb 813e
000001e0: 6e86 953e 0424 8c3e 292e f1bd 5363 5c3e
000001f0: 6418 093e 4191 c53e e9f1 a83e b94b cf3e
0.4236856 0.32712334 -0.0052951938 0.19419958 0.25915816 0.4286022 0.24541987 -0.17602473
-0.17597724 0.15019742 0.43480608 0.41023874 0.085474774 0.45963675 0.34699705 0.41791648
0.34123138 -0.14504366 0.080121934 0.18356006 0.35635912 0.39266977 0.19439147 0.020445598
0.32860664 0.40629655 0.2778504 0.37337822 0.42275238 0.29420716 0.055083204 0.11126512
0.28138262 0.35788852 0.3034182 0.22210988 0.2789645 -0.10630711 0.40158796 0.15248968
0.32011142 0.37964147 -0.08875854 0.34451464 0.23233423 0.24203989 0.32471555 0.059868604
0.39997086 0.43608582 0.34493 0.18401654 0.3433775 0.29978195 0.36035404 -0.10460577
-0.076299585 0.34818122 0.286606 0.31393355 0.43892428 0.030711351 0.44487953 -0.09208238
0.38054848 0.25565812 0.24879593 0.14249584 0.36796007 0.23613879 0.26325476 0.38528547
0.32366818 0.29835117 0.39758876 0.41397667 0.39988798 -0.077783205 0.42350143 0.37027812
-0.020910408 0.22476979 0.42653498 0.39615783 0.40617684 0.2617862 0.3163157 0.18072675
0.21630068 0.34121862 0.21080893 -0.10400395 0.19377385 0.30473828 0.35274687 0.39394552
0.20507888 0.32950148 0.015874507 0.25104755 0.29987147 0.31486335 0.47673112 0.22735119
0.32329527 0.46086076 0.31660467 0.34471783 0.13214283 0.014679437 0.43856287 0.38116318
0.18558003 0.33384034 0.32891935 0.34605607 0.2406109 -0.06974392 0.3749461 0.25375357
0.29204124 0.27371228 -0.117763825 0.21522264 0.1338821 0.38587382 0.32997063 0.4048746

layer2_1.weight f4 [128, 128]
00000000: 0f6a 883c 0b7d 3d3c 4c2d a2bd 0f65 1bbd
00000010: 8bfe e9bc fc7d 183d fc39 90bd c83a 363c
00000020: e3c6 7abd dca1 89bd a9bb 62bd abc8 9abd
00000030: 4b99 8cbd b074 25bb 61d9 acbd c823 1ebd
00000040: 8f14 88bd 8774 a33d 3f73 863d ce3e 723d
00000050: 295e 34bd 4c42 8f3d 5026 d73c a4dc 26bd
00000060: f732 963d cdb8 86bd 6243 a1bd ac6b 8f3d
00000070: 3625 883d cc5b 10bd 8028 bebc b636 393d
00000080: 445b aebd c53e 953d 8aed a63d 0bae 8d3d
00000090: 709d 82bc 4a6b 223d c05a 66bd d77d 2fbd
000000a0: 8583 8bbc 65b4 733c eadb b1bd 60c2 253a
000000b0: b660 87bd c7ec 59bd f94b af3c 322a 333d
000000c0: 6d59 91bc 20b4 fdbb 0242 953d c2fd 173d
000000d0: 379e 31bd 448e 783d 899e a2bd b2fc 183d
000000e0: 0207 1b3d aa77 a2bd 6043 323b 6a24 a5bd
000000f0: e945 8fbd 1701 a53d 50cd fb3c 7862 cd3c
00000100: 2057 8f3d 78d1 863c 901d 98bc 4fff 20bd
00000110: 9e24 3d3d 4130 353d 5b2f a1bd 342f 543d
00000120: aae0 9ebd edd0 923d 9ab5 fdbc dc32 ce3c
00000130: d2ce 2e3d 9063 833c e6e8 06bd c41e a73d
00000140: 1351 813d 6eed 443d f1b0 82bd 3998 b53b
00000150: 33fe 973d ec07 48bd 78ff f03c 78bd 723c
00000160: 908c b4bd d44d 543d 0076 7e3b 804e 8ebc
00000170: af56 4c3d 3d11 1bbd bb91 083d 586f 003d
00000180: 228f b0bd e71a a3bc a0dd e83b 51fa e1bc
00000190: c10f 873d 649f 05bd 1a1c 5e3d 79c5 db3c
000001a0: 6003 88bd 38c5 b3bd 1b8e 023d b3c5 dbb9
000001b0: a4c9 08bd 5491 bbbd 54bd a1bd e89f 62bd
000001c0: 8604 b3bc 8ceb 9b3d ec1b a4bd 1901 e2bc
000001d0: 7a89 5e3d e1df 7cbd fac0 773d 278e 46bc
000001e0: 89d2 b0bb 360b a2bd 8524 b3bd d4ce 0dbb
000001f0: 22e3 1cbd 32b9 a1bd 97a6 4abd bf38 503d
00000200: d056 5e3e 6922 f13d 081e 873c 1d33 473d
00000210: c488 d03d c3b0 943e f72c 393e 2b56 0b3d
00000220: c4dc 31be 777b 033e 41bd 553e 4452 cd3d
00000230: 40c8 193d 5433 213e 4bf1 833e df73 413e
00000240: 73c7 bb3e 9f6a dfbd cfdb 503d d457 083e
00000250: 339f 813e 5d55 c63e 5eae b63d ff36 573d
00000260: 491d 463e d5e2 153e 9811 1b3e e2c7 8a3e
00000270: 5c56 ca3d d134 0a3e 9ea8 1c3d 217d d53c
00000280: 30b3 873e 2fc0 ac3d ad27 a23e ed98 503e
00000290: f3a3 503e c4d3 71bd 21be 6a3e 7502 a23d
000002a0: e88e 7b3e 0a1d 573e 6c2a f03d 7cbc 4c3e
000002b0: 66f0 2b3e 5023 4f3e 80b8 4f3e 3252 9f3d
000002c0: f322 dd3e 7b09 ca3e 2ca5 eb3d ceab 513e
000002d0: 60eb 0e3e ec8d fc3d 955b eb3d 8735 24be
000002e0: 6b9c df3d fe8f 073e d334 303e d9e4 333e
000002f0: 065c 083f 83d2 073e 83ae b03e 00a5 3a3d
00000300: 8b86 393e 485f 813e ee7b 253e c8e5 003e
00000310: a5ff 8a3e c422 cb3d 3b9a 763e dfc9 8f3e
00000320: c2e8 833e ee63 533e 87e4 1a3e cfc9 a63e
00000330: edde f33e 51bf 883b 4ccc 973e 39fd 703e
00000340: bd24 a93d e678 113e b41a c63d 8c56 5a3e
00000350: adcf 443e c7d8 823e d5de 313e 8a01 ab3d
00000360: 987b cb3d 19df 933e de6a 433d 1f23 a7bd
00000370: 3888 533d add4 db3d 6aa9 e53e f20f 793e
00000380: c513 8a3e 3026 ad3e 558a 90bc 3386 ec3d
00000390: 3d0f 703e 9d69 673e 1300 0a3f 9f3e 723e
000003a0: 75e6 3d3e 5dd6 a53e ed2b 903e 0ad5 563e
000003b0: af92 2b3e 9b02 9f3d cee0 1c3e d1ba e43d
000003c0: a4de 983d bf67 783e adff 953e 74cb 0f3e
000003d0: cf05 293e a4ba 7bbd 3caa 433e 52c6 723e
000003e0: e75c 093e 9a24 533e 7fcf ac3b 40d2 ce3d
000003f0: 7fa9 a93d a37f 913e 7047 7e3e 7481 903e
0.016652135 0.011565457 -0.07918796 -0.037938174 -0.028563758 0.037229523 -0.0704231 0.011122413
-0.06122483 -0.06720325 -0.055354748 -0.07557806 -0.06865176 -0.0025246553 -0.08439899 -0.038608342
-0.06644546 0.0798121 0.0656495 0.059141926 -0.04403511 0.06995067 0.026263386 -0.040737763
0.073339395 -0.06578217 -0.078741804 0.07002959 0.066477224 -0.035243794 -0.023212671 0.045218192
-0.08513501 0.07287363 0.08150776 0.06917962 -0.015944213 0.0396531 -0.05623889 -0.04284462
-0.017030487 0.014874552 -0.086845234 0.00063232146 -0.06610243 -0.053204324 0.021398531 0.043741412
-0.017742837 -0.00774242 0.072879806 0.037107237 -0.043363776 0.06068255 -0.079403944 0.037350364
0.03784848 -0.0793298 0.0027200803 -0.08063586 -0.06995756 0.080568485 0.030737549 0.025071368
0.0699904 0.016457304 -0.018568784 -0.03930598 0.0461775 0.04423547 -0.078703605 0.05180283
-0.07757695 0.07168756 -0.030970383 0.025170736 0.042677708 0.016038686 -0.032936953 0.08160165
0.06314292 0.048077993 -0.06381405 0.005541828 0.074215315 -0.04883568 0.029418692 0.014815681
-0.08815873 0.051832035 0.0038827658 -0.017371416 0.049887355 -0.037858237 0.033342104 0.031356186
-0.086210504 -0.019910289 0.007106498 -0.02758518 0.06594802 -0.03262271 0.05422602 0.02682756
-0.06641269 -0.08777851 0.031873804 -0.00041918232 -0.033395424 -0.091585785 -0.078974396 -0.05532828
-0.021852743 0.076132864 -0.08013138 -0.027588414 0.054330327 -0.061736945 0.06048677 -0.012118853
-0.0053961915 -0.079122946 -0.087472 -0.0021638172 -0.03830255 -0.07896651 -0.04947528 0.050835367
0.21712804 0.11774141 0.016493812 0.04863273 0.10182336 0.29041108 0.18083559 0.034017723
-0.17369372 0.12840067 0.20872976 0.100254565 0.03754449 0.15742236 0.2577003 0.18891858
0.36675605 -0.10909008 0.050990876 0.13314754 0.25316772 0.38737002 0.08919977 0.052542683
0.19347109 0.14637311 0.1514343 0.27105623 0.09879753 0.1349671 0.038246743 0.026060643
0.26503897 0.084350936 0.31670895 0.20370837 0.20375042 -0.059039846 0.22924091 0.07910625
0.24566233 0.21007171 0.11726841 0.19993776 0.16790923 0.20228314 0.20285225 0.077793494
0.43190727 0.39460358 0.115061134 0.20475695 0.13956976 0.12331757 0.11492077 -0.16036044
0.10918506 0.13238522 0.17207651 0.17567767 0.53265417 0.13263898 0.34508142 0.045567513
0.1811773 0.25268006 0.16160557 0.12587655 0.27148166 0.099187404 0.24082272 0.28083703
0.25763518 0.20643589 0.15126239 0.32575843 0.47631016 0.0041731973 0.29648054 0.23534097
0.082589604 0.14206275 0.09673062 0.21322078 0.19219847 0.25556013 0.1737016 0.08349903
0.09935683 0.28881148 0.04770934 -0.08160996 0.05164358 0.10733924 0.44855815 0.24322489
0.26968208 0.33818197 -0.017644087 0.11549034 0.23443313 0.22598882 0.53906363 0.236567
0.18544944 0.3239011 0.28158513 0.20979705 0.16755174 0.07764169 0.15320131 0.11168445
0.0746434 0.24258326 0.29296628 0.14042455 0.16506122 -0.06145729 0.19107908 0.23708466
0.13414346 0.20619431 0.005273759 0.10098696 0.08284282 0.28417692 0.24831939 0.28223765

layer2_1.bias f4 [128]
00000000: aea6 fbbc 836f 813e 8cb5 6fbc a576 3f3d
00000010: 88de e03d d471 9a3c 41cf b1bd 2313 ac3e
00000020: 2641 2b3d 3516 9b3d 7a59 183e 5da6 fb3e
00000030: b38e c93d c15c 8f3d a968 ba3d 5e8b c93e
00000040: dae0 d43d e241 4a3e 75ea 27bd 272b 7abe
00000050: 6154 eabc 3e7e 743e 8e83 3ebc b998 543e
00000060: 76b2 563e 6929 cbbb 7c11 483e 58c5 933d
00000070: 9b3f 523d cf3d 543e efc2 a2bd b481 943d
00000080: 7864 e13d 9909 5b3c f9ba 6fbe 3f91 ef3d
00000090: 68b4 c73c 318f c63b 4054 2aba 7721 503e
000000a0: 76c1 1dbd 2237 cc3c b55e 033e 3cdd ddbd
000000b0: 445e efbd 955a 5d3e 19c6 5e3e 53a4 633e
000000c0: 3c2a 8d3d dbb6 243d e9d7 9f3d 8efd f73d
000000d0: 98e6 263e 345e 77bc a633 9abd a878 2b3e
000000e0: f7c8 113e c452 17bd 3ebf 1c3d fe95 013c
000000f0: 9f19 da3e 7540 60be 26c9 213e 0f9b 083e
00000100: 698b e43d 7342 4f3e 3e4c 513e b85b 65bc
00000110: 92c9 80bd c5c1 473e 5fdd 80bd a985 9a3d
00000120: 947d 8a3e 755f 7c3e f4d3 a3bd 8b6a 693e
00000130: f350 c03d 3655 213e cf62 473c 1f2c 753d
00000140: 0187 403e 5c36 4c3d 0b25 6f3e 0207 513e
00000150: c8d4 073e adbb 233e a991 393e 7a15 723e
00000160: 3e75 3c3d edfe 3f3e 09b0 743e b0b9 4e3e
00000170: b09c 293d df7e d4bc 75e7 1bbd d2ae 43bc
00000180: e368 1c3e a4bc abbd 2e0f 353e 6f1d e63d
00000190: 4d6d a33d c7b6 61bd 7afd a13c 0175 89be
000001a0: 9687 de3d 9115 25bc 9484 d33d edd0 063e
000001b0: 4c96 b43d cfca 2fbd bea3 17be bac7 173e
000001c0: 013e 6f3e f5f0 283e 0688 5b3e 1e97 143c
000001d0: 6a5f 773d 394d 953d e36b b5bd c152 003e
000001e0: c048 27bd 6da7 9c3e b4e8 a5bd d78c 1a3e
000001f0: 8dd1 a53d 48c4 89bd 8e45 3e3e 3a31 f33d
-0.030719128 0.2528039 -0.0146306865 0.046744008 0.109799445 0.018853106 -0.08682109 0.3360835
0.041810177 0.07572595 0.14877883 0.49150363 0.09841671 0.07000113 0.091019936 0.3936414
0.103944495 0.19751695 -0.04099508 -0.24430524 -0.028604688 0.23876283 -0.011628045 0.20761384
0.20966515 -0.006200005 0.1953792 0.07215375 0.05133019 0.20726703 -0.07947337 0.072513014
0.11005491 0.0133689875 -0.23411168 0.11697625 0.024378017 0.00605955 -0.00064975396 0.20325266
-0.038514577 0.024928633 0.12829097 -0.10833213 -0.116879016 0.21616586 0.21755256 0.22230653
0.06892821 0.040213447 0.078048535 0.121089086 0.16298902 -0.015098143 -0.075293824 0.16745245
0.14236818 -0.036944166 0.03826832 0.007909296 0.42597672 -0.21899588 0.15799388 0.133404
0.11159403 0.20240192 0.2043924 -0.013998918 -0.062884465 0.19507511 -0.06292223 0.07545025
0.27048934 0.24645789 -0.07999411 0.22794549 0.0939044 0.15755162 0.012169554 0.05985653
0.188015 0.04985653 0.23353975 0.2041283 0.13264763 0.15989561 0.18121971 0.23641005
0.04601025 0.1874959 0.23895277 0.20188022 0.041409194 -0.025939403 -0.03806253 -0.011943536
0.15274386 -0.0838559 0.17681572 0.11236083 0.07979832 -0.05510595 0.019774187 -0.2684708
0.10865705 -0.010075943 0.10328022 0.13165636 0.08817729 -0.042918023 -0.14808556 0.14822283
0.23363496 0.16498168 0.21438608 0.009069232 0.06039373 0.0729012 -0.088584684 0.12531568
-0.040840864 0.30596486 -0.08101025 0.15092789 0.08096609 -0.06726891 0.1858122 0.118746236

layer3_1.weight f4 [1, 128]
00000000: 02d6 343b 1dfd 5abe 38fa 873d 5af7 6e3e
00000010: 8648 85be b4ad 993d c035 013d b2bd 11bf
00000020: 2f13 4a3d 9783 62be d166 86be 2fba efbe
00000030: 6150 a4be 0ffe e23c 8a9a 7abe bb1f 0bbf
00000040: 63f2 96be 4c67 d2be 1b88 8a3d ccce fe3e
00000050: 7138 283c d46b 65be 4302 2b3d 9930 6ebe
00000060: da5f 70be 3564 0f3d c6a0 80be 5caa 463d
00000070: 49f0 ce3c 4df0 79be 3c1c 9abc 5b6f 8ebe
00000080: f99c 8ebe a405 873c d3ef 0e3f fed7 6dbe
00000090: 2c58 9d3d 970c 5f3c 0b59 8a3d 3a8a 76be
000000a0: 2af6 283d 8a05 f23c 8e0c a5be 255f 713e
000000b0: 265d c43e b28b 6dbe df1f 5dbe e1d4 57be
000000c0: 0ea2 6ebe 2eb9 9f3d 09e9 9abe e635 8cbe
000000d0: fb6a 62be 70da 603d 79e1 233b ed9b 61be
000000e0: 6ae3 8bbe ecef 8d3c 6218 193d 7ac0 5e3d
000000f0: 1671 0bbf 25d3 0f3f 6655 5bbe 35f3 6dbe
00000100: 305d 92be 56b2 8ebe e286 78be 1e6c 14bd
00000110: b9c9 abbd d659 58be f70f 043e d3c5 9abe
00000120: 0490 5abe 0c77 bfbe 7a99 753d 9bcb 55be
00000130: 0547 91be 18e6 80be 9635 fb3c b176 563d
00000140: 7133 7fbe 5352 6c3c 7ef3 56be 71a2 58be
00000150: bb8e 8cbe a8e3 87be bd76 5cbe 0fc5 bcbe
00000160: bd62 273d d40f 5ebe 0e64 4bbe 557a 56be
00000170: 9768 8c3d 6066 7f3c b95e 8a3d 82de 573d
00000180: 31cb 79be 0e06 533d ce1d 5dbe 93d4 84be
00000190: 39cf 98be 6f71 953d fd47 013d b777 063f
000001a0: 7bc8 8dbe d1ce 2e3e 8329 6dbe 6b7c 74be
000001b0: dcb9 8dbe a1c7 503d 533d dc3e 4719 83be
000001c0: 7374 5abe e348 7cbe 14f6 76be f1c2 8d3d
000001d0: 3007 df3c 5fec 353d 67ee 233d 21dc 54be
000001e0: 68f6 3c3d ad92 73be 67a0 843d d615 89be
000001f0: 426c 94be fd8b b83b dd0e 73be 4cce 6cbe
0.002759338 -0.21385618 0.06639522 0.23336545 -0.26031893 0.07503834 0.0315454 -0.5693008
0.0493347 -0.2212051 -0.26250318 -0.46821734 -0.32092574 0.027709035 -0.24473014 -0.5434529
-0.294818 -0.41094434 0.06764241 0.49767148 0.010267363 -0.22404414 0.041750204 -0.23260726
-0.23474064 0.035007674 -0.2512266 0.04850231 0.025261061 -0.24408074 -0.018812291 -0.27819332
-0.27854136 0.016482182 0.5583469 -0.23226926 0.07682833 0.0136138415 0.06755265 -0.24076167
0.041250385 0.029543657 -0.3223614 0.23571451 0.38352317 -0.23197821 -0.21594189 -0.210773
-0.23304006 0.07798992 -0.30255917 -0.2738487 -0.22111122 0.05489582 0.0025006218 -0.22032137
-0.2732194 0.017326318 0.03737677 0.05438278 -0.5446943 0.56181556 -0.21419296 -0.23237307
-0.2858672 -0.27870435 -0.24270204 -0.03623592 -0.08388085 -0.2112802 0.12896715 -0.30229053
-0.21344 -0.37395513 0.05996082 -0.2087845 -0.28374496 -0.25175548 0.0306652 0.052359287
-0.24921967 0.0144239245 -0.20991322 -0.21155716 -0.27452645 -0.26540875 -0.2152967 -0.36869094
0.04086565 -0.21685725 -0.19862387 -0.20945103 0.068558864 0.015588373 0.06756348 0.052702434
-0.24393918 0.051519446 -0.21593401 -0.2594343 -0.29845598 0.07297026 0.031562794 0.5252642
-0.27692017 0.17071082 -0.23160367 -0.23875587 -0.27680862 0.05097163 0.43015537 -0.25605223
-0.21333484 -0.24637179 -0.24117309 0.06921948 0.027225107 0.044414874 0.04002228 -0.20787098
0.04613343 -0.23786421 0.06475907 -0.26774472 -0.28988844 0.0056319223 -0.23736139 -0.23125571

layer1_2.weight f4 [128, 27]
00000000: 66cf c63d dc2d fcbd 9584 9fbd 8379 3d3e
00000010: 099c 403e 8457 32be ed7e d43d 66de 263d
00000020: 743e 99bd 608e f53c e90e 0a3e 2f87 a73d
00000030: 7644 93bc 5d91 bfbd e27c 413e 6dfc 263e
00000040: edfa 0bbc 239e 113d 99c6 8abd 8d8b d0bd
00000050: 3ed1 05be 2f97 deba f688 8d3d 6b0c 2e3d
00000060: 8723 16be f973 a9bc f0c8 53be 705b 18bc
00000070: 43f5 d13d 1a79 e2bd c873 523d 9830 073e
00000080: 4e81 f03d 5f73 b2bd 4ead b53d 1097 a4bd
00000090: 67a9 03be 69b3 b8bd 65c1 f43d 3804 6f3e
000000a0: abad c13d 7add 0dbe 7de7 fa3c 4a3c 2cbe
000000b0: 482f a23d c79a 43be 8f58 953d 3794 423d
000000c0: d65d 73be cf86 f4bd 02dd 52be 4077 f03d
000000d0: 33a1 59bd b786 c5bc 7d3e d13d d1f8 d03d
000000e0: 13c9 253e 9785 02be 9f2d 31bd 353a 503e
000000f0: a554 e23d 4153 c33d a2eb 503e 6466 6e3d
00000100: 1f43 223e 0b4a 593e af14 a53d d57f 6bbd
00000110: f059 0abe 5829 4b3c b7b9 20be c2a9 06be
00000120: bf54 383e 9490 7d3e 0597 9a3d 5a05 2f3e
00000130: af6c 3c3e 35b8 543e 2e4f 8b3d 125b d43d
00000140: 1061 4a3e d9e6 1b3d fb2f 90bc ed0d b4bd
00000150: 2289 d6bc f2da 3ebd dd01 2bbe aa3b 09be
00000160: 4212 9dbd edca 153e c0b4 81bd 2c05 333e
00000170: 9c31 e9bd 90c5 973d ebe7 1e3e 344d 6b3d
00000180: b9a3 d93c 6703 063e c544 fc3c 21e2 3fbe
00000190: da15 753e 3196 0cbe 3f0c 55be d70a 8dbd
000001a0: 810d 2abe ded9 d53c 0312 1f3d 0de1 32bd
000001b0: bdf9 a73d 1afc 17be cc18 4bbd 1e0d 4b3d
000001c0: 4696 bb3d efe4 023d 24b7 23be 4ae7 593e
000001d0: 25ff 1ebe 3537 393e 2991 45be 7334 27be
000001e0: 8f52 ffbd 5e1c 073e 2352 e0bd a25c 823b
000001f0: c0a4 a5bd bbe0 21be 5f39 463d 8c05 04be
00000200: 2325 ca3c 1a79 cb3d b2b2 1ebe 92f5 b73c
00000210: ff69 08be 0485 b73c 51f3 3b3e 549c e63d
00000220: 0ccf 323c 73fa 2ebe 208a d6bc f18e f5bc
00000230: 5211 813d 2c04 07be ea23 a43d cc35 373e
00000240: 9772 d4bd 34ee 3f3e 06c4 c8bd 2967 693e
00000250: 5fc1 3f3e 1526 293e 2ed6 5e3e 71ce 823d
00000260: bad3 d9bd 20e4 7e3b f714 6b3e 3dc1 143e
00000270: 2b97 c9ba 5caf 30be dfb4 083c 5936 b4bb
00000280: 35df 333e 1738 06be 6e7c aebd cbf4 36bd
00000290: 6bf7 a8bd 8bb3 89bc 67a0 ee3c bad7 50bb
000002a0: ebdc 123e 5ca6 14be bde2 f13d 1013 de3c
000002b0: 3d1f 4ebd d1f5 5c3e 8c43 af3e 5ff6 27bd
000002c0: ba7e c83d f838 3d3e aa7c 00bd 1331 ee3d
000002d0: d00b 8d3d 6614 c2bd ba4f 1a3e 1b03 32bd
000002e0: c3c1 34be 4950 fd39 e06f 34be 22fd 8abd
000002f0: 284a ae3d 1fdf ac3e c03a 16be 9f9f 10bc
00000300: 1d55 b23e 48e3 e4bd ccbb c73c ee8b 1c3e
00000310: 13f2 aabe a447 f23d 00fb 183a 73c5 e1bd
00000320: 8b9a 20bc ea97 81bd 8cde b9be 5596 21be
00000330: 2d7e 47bd b173 8d3d 77f5 86be 5692 413e
00000340: 5a20 333d 20ae 923e c41d 41be e865 f23d
00000350: bf3c 31be 5842 c63e 3615 13be 51b7 7b3e
00000360: eb27 0dbe c454 033e de2d 6f3d 597a a1bd
00000370: 95da 11bd 515a 513e 011e cbbd d091 443e
00000380: 589d 2b3e b6c6 d13d 83b8 31be e956 843d
00000390: 69f4 bbbd 5da9 ed3b 1bbc 093e 1817 a33c
000003a0: 008d 923c fa93 07bd 3eb2 26be 47ba 1dbd
000003b0: 3380 2d3d 62f8 38bd 402c 0dbe 10f5 0cbe
000003c0: 1269 85bd 9dc7 b7bd 7c02 90bd 7ddc 003d
000003d0: 6b42 be3d 379a 503d 962a 0a3e b2c1 3b3e
000003e0: 61ce d03d 271c 31be b4bf 19be 669f cdbc
000003f0: 30fc 7b3c f482 c93d 6f3b 64be 4567 fa3d
0.09707527 -0.123134345 -0.0778896 0.18503384 0.18809523 -0.17416197 0.10375772 0.04073944
-0.07482615 0.029975116 0.1348225 0.08180081 -0.01797698 -0.09353898 0.18895295 0.1630723
-0.008543712 0.0355512 -0.06776161 -0.10182867 -0.13068101 -0.0016982312 0.06910889 0.04249231
-0.1466199 -0.020685183 -0.2068212 -0.009299144 0.10251858 -0.110582545 0.05137995 0.13202131
0.11743413 -0.087134115 0.08870946 -0.080366254 -0.1285759 -0.09018595 0.119509496 0.23341453
0.09456953 -0.13854018 0.03062796 -0.16819873 0.079191744 -0.19102012 0.07292282 0.04750463
-0.23766264 -0.11939775 -0.2059212 0.11741495 -0.053132247 -0.024112089 0.10216997 0.10203708
0.16189985 -0.12746273 -0.0432564 0.20334704 0.11051301 0.09537364 0.20402387 0.058203116
0.15845917 0.21219651 0.08060586 -0.057494957 -0.13510871 0.012399994 -0.15695845 -0.13150695
0.18001078 0.24762183 0.07548336 0.17091885 0.18400835 0.20773394 0.06802212 0.10368933
0.19763589 0.03806195 -0.017601004 -0.08791719 -0.026188437 -0.04659552 -0.1669993 -0.13401666
-0.07669498 0.14628191 -0.063333035 0.17482442 -0.11386415 0.07410729 0.15518157 0.057446674
0.026567327 0.13087235 0.03079451 -0.18738605 0.23934117 -0.13729168 -0.20805453 -0.06886833
-0.16606714 0.026104864 0.038835537 -0.043671656 0.08201931 -0.14842263 -0.049584195 0.049573056
0.09159522 0.03195661 -0.15987831 0.21279636 -0.15527017 0.18087466 -0.19293655 -0.16328602
-0.12466919 0.13194415 -0.10953166 0.003978328 -0.08088064 -0.15808384 0.048394557 -0.12892741
0.024675911 0.09935208 -0.15497854 0.022455964 -0.13321684 0.022402294 0.18354537 0.11260286
0.010913622 -0.17087726 -0.02618891 -0.029975386 0.06302132 -0.13185185 0.080146626 0.17891616
-0.10373419 0.18743211 -0.098030135 0.22793259 0.18726109 0.16518433 0.2176139 0.06387032
-0.10636087 0.0038893297 0.22957216 0.1452684 -0.0015380135 -0.17254394 0.008343904 -0.005499643
0.17565615 -0.13107334 -0.08519827 -0.044667047 -0.08250316 -0.016809246 0.02912922 -0.0031866864
0.14342086 -0.14516586 0.11810825 0.0271087 -0.05032276 0.21578147 0.34231222 -0.041006442
0.09789796 0.18478763 -0.03136889 0.11630454 0.06887019 -0.09476547 0.15069476 -0.043459993
-0.17652039 0.00048315738 -0.17620802 -0.067865625 0.08510238 0.33763978 -0.14670849 -0.008827119
0.3483056 -0.11176163 0.02438154 0.15287754 -0.33387813 0.118300706 0.0005835742 -0.110239886
-0.009802471 -0.063278034 -0.36302602 -0.15780003 -0.048704315 0.06906832 -0.2635915 0.18903479
0.043732025 0.28648472 -0.18859011 0.11835843 -0.17308329 0.3872249 -0.1436356 0.24581648
-0.13784759 0.12825304 0.05839335 -0.07884664 -0.035608847 0.20444609 -0.09917832 0.19196248
0.1675924 0.10242979 -0.17355542 0.06461889 -0.09177477 0.0072528557 0.13450663 0.019908473
0.0178895 -0.033100106 -0.16278931 -0.038507726 0.04235859 -0.04515875 -0.13786411 -0.13765359
-0.06514181 -0.0897362 -0.07031724 0.031460274 0.09290012 0.05092832 0.13492808 0.18335608
0.10195614 -0.17295896 -0.15014535 -0.025100421 0.01537995 0.098394305 -0.22288297 0.12226728

layer1_2.bias f4 [128]
00000000: cffc ca3e 84bd 9f3e 8b92 913e cc9e 913e
00000010: 081a b43e 8a94 723e 97ed 633e 5ee2 cf3d
00000020: 07fa 45be e169 c33e 3486 9e3e 2dd9 8d3e
00000030: 4cbd ef3e d9de ac3e 4606 833e 55c3 d43e
00000040: aa4e 8b3e b1ca aa3e abb2 f03e 9983 ad3e
00000050: 7c7c 773e 4896 883e e13b 0f3e 43d1 c53e
00000060: 1523 993e fb32 cf3e d5c1 af3e 48b1 b03e
00000070: a448 d33e 0a21 a33e f76a ca3e bb89 51bc
00000080: 9669 903e 41ae d63e 245d af3e fa1a 7b3e
00000090: 3aab ad3e e4df d93e 3ede ae3e f6bb cc3e
000000a0: 44fc cd3d ea3b b43e 07aa 8a3e 53b6 563e
000000b0: 8d42 893e a253 d73e 74b0 ce3e 6b78 663e
000000c0: cf59 bd3e 07f4 df3e 0a44 dc3e 07c5 dc3e
000000d0: 89d6 b23e db08 b93e 483e aa3e 13d2 683e
000000e0: b0bf 4f3e 97b6 cc3e 2831 cd3e e24a 0bbe
000000f0: f56a 963e a75f f03e beb5 ec3e 562e 233e
00000100: 1724 cf3e 8de0 893e a7ca 923e 78af cd3e
00000110: cb95 ca3e 27cb c83e a755 963b 3b76 cf3e
00000120: 725b 9e3e ca4d c53e 7c25 dd3e 6d61 a83e
00000130: 75f0 b13e 4a59 b43e 9cb7 673e 6df7 893e
00000140: 425c d83e 5823 ad3e 7226 bd3e 9ab9 7a3e
00000150: 7cf6 a93e fdeb da3e ccb7 b53e a340 d93e
00000160: 1f35 d63e 8e68 c43e 1c30 8cbd 324d 2fbd
00000170: 0dd0 c13e ee73 883d 53f9 703e 22dc bf3e
00000180: 7c09 b23e 677e d03e e349 c23e 8098 cd3e
00000190: ef84 8c3e 9ff7 d43e 07a9 9f3e 1a8c c33e
000001a0: ff1b d73e 984f 9c3e aa2d 253e ae48 cd3e
000001b0: 1e63 be3e f466 c23e 0134 c13d d3c4 c73e
000001c0: 813a 983e 646e 9f3e 9fb9 9e3e 464b d13e
000001d0: 32aa b03e 4925 c63e 3d91 d43e 629d f93e
000001e0: fdf3 ecbd eca2 3f3e 469d 9e3e bd7b b23e
000001f0: ab45 5e3e fda9 da3e 9b39 8f3e 0980 b83e
0.39646003 0.31199276 0.28432116 0.28441465 0.3517611 0.23689476 0.22258602 0.10150598
-0.19333659 0.38166717 0.30961764 0.27704754 0.4682411 0.3376377 0.25590724 0.41555277
0.27208453 0.33357766 0.47011313 0.33889464 0.24168581 0.26677155 0.13987686 0.38636217
0.29909578 0.40468583 0.3432757 0.34510255 0.41266358 0.31861144 0.39534733 -0.012789185
0.28205556 0.4192982 0.34250748 0.2452201 0.33919698 0.42553627 0.34153932 0.39987153
0.100578815 0.3520196 0.27082846 0.20967989 0.26808587 0.42055994 0.40368998 0.22506873
0.3698258 0.43740866 0.4302066 0.4311907 0.34929302 0.3613957 0.33250642 0.22736387
0.20287967 0.39983055 0.40076566 -0.13602784 0.29378477 0.46947977 0.46232408 0.15935645
0.40457222 0.2692913 0.28670236 0.40172935 0.39567408 0.39217493 0.0045878473 0.4051989
0.30929142 0.3853591 0.4319266 0.3288683 0.34753767 0.35224372 0.22628635 0.26946583
0.42257887 0.33816028 0.36943394 0.24484864 0.33195865 0.4275817 0.35491788 0.42432126
0.41837403 0.3836102 -0.06845114 -0.04279823 0.37854043 0.06662737 0.2353261 0.37472636
0.3477286 0.40721437 0.37946996 0.4015541 0.2744517 0.4159517 0.31183645 0.38192827
0.42013547 0.30529475 0.161307 0.40094513 0.37184995 0.37969172 0.09433747 0.39017352
0.29732135 0.3113891 0.31000993 0.40877742 0.3450485 0.3870032 0.41517058 0.48752886
-0.115699746 0.18714494 0.30979365 0.3486003 0.21706264 0.42707816 0.27973637 0.36035183

layer2_2.weight f4 [128, 128]
00000000: 27eb eb3d 699e 973e 62c9 8a3e 0bb1 4d3e
00000010: 3ba8 3b3e 4dab 183e a2b4 3b3e fe9c 163e
00000020: 17e8 6b3e c016 7c3e e540 0c3e 31bb 683e
00000030: e9d3 6e3e 4e31 423e 846b 383e 32f7 983e
00000040: ac9a 563e f3ad 173e f69e db3e e72f f13d
00000050: b3db 4b3e 4b21 393d efa5 613d 8edd 073e
00000060: f3fe 3e3e 20db 743e 0e0d 943d ca0d 173e
00000070: 2ee5 883e 0082 2f3e 7660 203e 0a77 c63d
00000080: 9f29 773e e2b9 5d3e 2a09 513e 6c07 063e
00000090: 5ed3 7d3e fa1a 0c3e 4e00 3f3e 27cb 923e
000000a0: a82d b13c a132 423e 9c24 393e dfe0 553d
000000b0: 9dca 633e d2c6 0c3e 4835 ac3d 74af 063e
000000c0: b8b4 fa3d a95d 623e a717 053e 0107 393e
000000d0: 719b 3f3e 07b5 e73d 3198 753e 1ace 2c3d
000000e0: a3f9 183e 3f05 773e 79e9 3c3e 6e7b 6a3d
000000f0: 7d23 1c3e f0a5 573e f864 223f 0fbe 1e3e
00000100: 749a b03d c88e ba3c 8e23 573e f58f 3e3e
00000110: 5265 843e 9fd4 363e c4a2 843d a944 dc3d
00000120: a524 823e 6e1b a53e 709e ec3e 8b8c 433e
00000130: 2175 7c3e d798 d73d 92df 673d dc7a 6f3e
00000140: 088f e03e 6f9a 6e3e 640f cc3d 04c1 813e
00000150: 31f6 d53d 7429 473e fba8 363e a5ab 823e
00000160: 5e33 ad3e 2261 7c3e 92c5 963d 123e 4e3d
00000170: 0ae3 493e 8feb ed3d 9729 1f3e ba87 543e
00000180: e063 b43e aec0 5b3e 45ce 8b3e 99cb 2b3e
00000190: b55d 853e bbb6 0a3e 8a98 593e 0ae4 d13e
000001a0: fbd2 153e 3b2d 3c3e 8624 163e fdbb 643e
000001b0: 1a07 143e 73bf 113e a724 633b 8ac3 b13e
000001c0: b6b2 323e df60 093e f587 803e 129e 743e
000001d0: 2329 503e 80c6 713e c7c0 e73d e910 143f
000001e0: 30b5 9e3b 51ec bb3d 14fb 033e f036 083e
000001f0: 48b1 173e 0167 a23d f191 2e3e 89d2 2b3e
00000200: 674f 253e e9dc a13e d56d 9d3e 35b8 893e
00000210: cb9c 523e ad5e f93d f688 243e f6be e13d
00000220: 37c1 e53d 0184 653e ad61 6b3e 4877 8c3e
00000230: b71f 473e b810 7b3e bdb9 163e 4ebc c33e
00000240: cc89 573e 3312 6c3e 5acd 113f b38f 453e
00000250: 53a8 283e ea98 063e 93a4 013e 2e04 2e3e
00000260: 25c8 1d3e f78a a43e b413 823e 4492 533e
00000270: dc21 a13e 0721 863e 99aa 9a3e d050 523d
00000280: cd32 653e 0609 9d3e 15f2 9d3e d8e9 c73d
00000290: cc01 9c3e 9f5d 823e 360a 6d3e 05c8 9a3e
000002a0: 20cc 063e 9aed 693e e197 083e 0995 58bb
000002b0: 56b2 903e a73a 853e cc21 183e c40a 433e
000002c0: 1f28 433e 57d7 953e 24be 9c3e 4b42 8e3e
000002d0: c86f 6b3e 91e9 743e 115f 923e f561 c43d
000002e0: 8b64 df3d af56 693e 1d4c c43e e654 17bd
000002f0: 1725 6b3e 12be cb3e d4e6 373f 3014 023d
00000300: a480 953e c635 8c3d 2510 413e ad78 8e3e
00000310: a264 453e 2cd9 453e c95b 7f3b 901b 843e
00000320: 5d39 993e 1a7c 853e d132 0b3f 4ad4 6b3e
00000330: 27be b23e 945c 963e 2bb4 803d cd9a 8e3e
00000340: a7b7 013f 9758 903e 225f 103e 8c32 8b3e
00000350: 11fe 2c3e 71fb 973e 9f08 403e 6d58 5d3e
00000360: 8218 cf3e 874a a43e 7e37 e9bc c992 8dbd
00000370: d1fe ab3e 7b73 9d3c 610a dd3d 0ec7 a53e
00000380: c5cd d23e d076 8f3e 31bb b73e 3d2e 583e
00000390: 4418 df3d 0a73 aa3e 426e 923e 10bf d23e
000003a0: 9e16 6b3e 4147 933e a343 023e 2279 4b3e
000003b0: a77b 883e 597c 033e 2fa0 47bd a020 983e
000003c0: 833f 8d3e d330 a53d 4c67 3d3e 5179 ae3e
000003d0: eb85 ad3e e816 8e3e 5bd6 933e bebf 053f
000003e0: db2b a0bd b73b c13d ffcb 463e f5df 6b3e
000003f0: 48f5 b93d c125 483e c3d8 833e f682 d33e
0.11519461 0.29613045 0.27106768 0.20087068 0.18325894 0.14909096 0.18330625 0.14708325
0.23037754 0.24618053 0.1369663 0.22727658 0.23323025 0.18964121 0.18009764 0.29876095
0.2095744 0.1481245 0.42894715 0.11776715 0.19908027 0.045197766 0.055089887 0.1326811
0.18651943 0.23911715 0.072290525 0.14751354 0.2673735 0.17139435 0.15661797 0.09690674
0.24136971 0.2165294 0.20413652 0.13088769 0.24787661 0.13682166 0.1865246 0.28670618
0.021628216 0.18964626 0.18080372 0.052216407 0.2224526 0.13747719 0.084086 0.13152868
0.122415006 0.22106041 0.12997304 0.18069078 0.1871164 0.11313825 0.23983838 0.04218874
0.14938979 0.24123095 0.18448438 0.057246618 0.15247913 0.21059394 0.63435316 0.15502189
0.086232096 0.022773162 0.21009657 0.18609603 0.2585855 0.17854546 0.064763576 0.107552834
0.25418583 0.3224749 0.46214628 0.19096582 0.24654056 0.10527199 0.056609698 0.23386711
0.43859124 0.23301099 0.09963873 0.25342572 0.10447348 0.19449407 0.17837898 0.2552158
0.33828253 0.24646428 0.07361902 0.050352164 0.19715515 0.11617195 0.15543209 0.207549
0.3523245 0.2146022 0.2730581 0.16776885 0.26048055 0.13546269 0.21249595 0.40994292
0.14631264 0.18376629 0.1466237 0.22337337 0.14455834 0.14233188 0.0034659298 0.34719497
0.17450985 0.1341586 0.25103727 0.23888424 0.20328192 0.23610878 0.11316066 0.578383
0.0048433766 0.09175933 0.12888747 0.13302207 0.14813721 0.07929803 0.1704786 0.16779532
0.16143571 0.31613854 0.30747858 0.2689835 0.20567624 0.12176261 0.16067871 0.11022751
0.112184934 0.22413637 0.22986479 0.27434754 0.19445692 0.24518096 0.14719291 0.38229603
0.21048659 0.23053817 0.56953967 0.19293098 0.1647046 0.1314427 0.12660436 0.16993782
0.1540838 0.32137272 0.25405657 0.20661265 0.31471145 0.26197073 0.3020828 0.0513466
0.2238266 0.30670947 0.30848756 0.09761399 0.3047012 0.25462052 0.23148426 0.30230728
0.13163805 0.22844544 0.13339187 -0.0033047816 0.2826106 0.2602131 0.14856642 0.19047076
0.19058274 0.29265854 0.30613816 0.27784953 0.2299186 0.23917224 0.28588155 0.09588996
0.10907849 0.22786973 0.3833932 -0.0369462 0.22963367 0.3979345 0.7183659 0.031757534
0.29199708 0.06846194 0.18853815 0.27826443 0.1927667 0.19321126 0.003896462 0.2580228
0.29926577 0.26071244 0.54374415 0.230302 0.349107 0.29367507 0.06284364 0.2785248
0.50670856 0.2819259 0.1409879 0.27187002 0.16893794 0.29684022 0.18753289 0.21615763
0.40448385 0.3208811 -0.028468844 -0.06912763 0.33592847 0.019220104 0.10792995 0.3237843
0.41172615 0.28020334 0.35885003 0.21111389 0.108933 0.33290893 0.28599745 0.41161394
0.22957847 0.287653 0.12721114 0.19870427 0.2665684 0.12840404 -0.048736747 0.2971239
0.27587518 0.08065953 0.18496436 0.34076932 0.33891234 0.2775185 0.28874478 0.522457
-0.07820865 0.09435218 0.19413756 0.23034652 0.09079987 0.19545652 0.25751314 0.41310853

layer2_2.bias f4 [128]
00000000: 0e4d 1a3e f2dd 8d3e 8d13 703e bad2 7b3e
00000010: 61de 14be 8813 5d3d e5b0 283e a4f5 bf3d
00000020: 2eea 9a3c 1c4b 60bd 8a05 62bd e319 0f3e
00000030: c1e3 b7bc ed76 423e e027 1b3e 1124 f63d
00000040: a9e9 abbd c011 d9bc 8b68 fcbc 5e55 293e
00000050: 18c8 f43e 2099 303e 0dce 163d d301 8a3d
00000060: 30f9 20bc ff61 50bc 1ea4 19bd d82d 5a3e
00000070: d536 82bd 0419 d93c ff6f 9a3d 577a 883e
00000080: 74b8 06be d848 f13d 0b7f abbc 472a 683e
00000090: 8f65 583e fc5a 4a3e d0cb 0f3e c55d 6bbd
000000a0: a395 5a3e bb9f 483e f27e f83d a6e2 463e
000000b0: 30c0 843e d82a f83d 976a 473e b824 3d3e
000000c0: f59e acbd 418a 8bbe 5f36 c73d 89fc 44bd
000000d0: 0fd7 fa3d b10a 3b3e 4c55 2e3d bda8 a0bd
000000e0: d123 b73d 92a6 3f3e 43bc 163b 41cd febd
000000f0: 7318 653e 4c93 5e3d 73de 873e 1f0a 5e3e
00000100: e35e 3e3e 1a24 bdbd 1995 febc 25e2 52bd
00000110: 80ee 84be e369 ba3d f73b 483c 0d93 e8bd
00000120: de5e f13d 44d0 d03d 6a57 af3e 4a10 3d3e
00000130: f96a 1b3d 4aa6 1d3e e834 92bd 4637 88bd
00000140: b8b4 823d 3995 823c 7f12 413e cfea 543e
00000150: 7a6f f83d 1483 6abd ef0d e1bd 1516 66bd
00000160: f7fc 383e 98b4 9d3d 5dd1 71bc a9a3 673d
00000170: 2e73 813e b48d c73b d4cc 73bd f1c2 c0bd
00000180: 6730 c93c 101a 463c ffa9 953d 2556 be3d
00000190: e32b 92bc f54a 72bd d237 ff3c faa9 a03e
000001a0: 33cb 513c fa6e 123e 40dd 8cbe feab 3b3e
000001b0: cf4a 94bc 280a 653d 5ac5 363e fccb 9a3d
000001c0: 2168 353c 22fb 4d3e 2dc9 c7bd 27c8 9a3d
000001d0: 4051 5b3e 99e6 edbc 858a 903d 45c7 da3c
000001e0: 0f18 813c 6c2d 0e3e 15d8 33bd dbc0 013d
000001f0: 7a70 b0bd a04c d63b 2c45 62bd 4e88 183e
0.15068457 0.27708393 0.23444958 0.24592105 -0.14537956 0.053973705 0.1647373 0.09373024
0.018910494 -0.05475913 -0.055181064 0.13974719 -0.022447469 0.18990679 0.1515193 0.12018598
-0.083941765 -0.026497722 -0.030811569 0.16536471 0.4780891 0.17245913 0.0368176 0.06738629
-0.009825036 -0.012718677 -0.03751003 0.2130655 -0.06358115 0.026501186 0.07540893 0.26655838
-0.13156301 0.11781472 -0.020934602 0.22672378 0.21132492 0.1976127 0.14042592 -0.057462472
0.21346144 0.19592182 0.12133588 0.19422397 0.25927877 0.12117547 0.19474255 0.18471038
-0.08428756 -0.27253917 0.09727167 -0.0480924 0.122480504 0.18265797 0.042561814 -0.07844684
0.08942378 0.18715885 0.0023000396 -0.12441493 0.22372608 0.054339692 0.26536903 0.21683548
0.18590884 -0.092354015 -0.031076955 -0.0514852 -0.2596321 0.091022275 0.012221328 -0.11356173
0.117856726 0.101959735 0.3424638 0.18463245 0.037943814 0.15395465 -0.07138997 -0.066511676
0.063821256 0.015940296 0.18854712 0.20792697 0.121306375 -0.057253912 -0.10988986 -0.056173403
0.18065248 0.07700461 -0.014759389 0.056552563 0.25283188 0.0060898904 -0.05952151 -0.09412182
0.024559213 0.012091175 0.07307815 0.092937745 -0.017843192 -0.059153516 0.031154547 0.31379682
0.012804794 0.14300147 -0.2751255 0.18327329 -0.018102078 0.05591789 0.17848721 0.07558438
0.01107219 0.20115331 -0.09755168 0.07557707 0.21417713 -0.029040622 0.070576705 0.026706347
0.015758542 0.13884515 -0.043907244 0.031678062 -0.08615203 0.006539896 -0.05524175 0.14895746

layer3_2.weight f4 [1, 128]
00000000: 865a 8bbe 2bae 7ebe 4e07 83be 2671 7abe
00000010: a2f3 f93e c2b4 ba3c 0add 86be a24e 8bbe
00000020: 307b 753c 963f 923d 0dca f23c c0c4 8cbe
00000030: 3066 643d af4f 6cbe 1d31 85be b07e 8ebe
00000040: 62a6 8d3e fb1f 573c 35e0 a03d f9c1 86be
00000050: ad5b ffbe b2b8 70be 4e26 0d3d bfec 493d
00000060: 7a44 333e bcfa 9f3d 1078 a6bc 6a03 72be
00000070: 3e48 e43c 02e7 713d f275 8bbe fabc 6ebe
00000080: 0534 163f 4fd3 95be 0b2d 1c3e a40e 75be
00000090: fe22 67be 09e7 82be 7a0f 8abe 2353 f63c
000000a0: 9582 91be 27b2 8abe 5e9c 75be 3ff3 78be
000000b0: e139 5fbe 69c9 79be 6a94 60be f000 95be
000000c0: 7165 ae3d 9fcf ec3e 390d 87be f1b3 5abd
000000d0: 5362 62be d36e 98be 5677 873d 4e00 823d
000000e0: 6dfc a5be 0a1a 82be ca56 1a3c e5c9 db3e
000000f0: 7d1e 5ebe 1442 c03c d501 73be 29f2 7fbe
00000100: ec7a 7ebe c12f 813d 7f06 ea3b 708c 94bb
00000110: 0840 0c3f 42be 9cbe a6aa 543d 7ad1 ea3e
00000120: dbaf 6abe a3fb 8abe 73b7 abbe e6e5 85be
00000130: 3b70 0f3e e85a 79be c39b 223d 0493 ac3c
00000140: 280f 883c 064a 9f3c 33ee 8fbe 2be0 71be
00000150: 45fa 80be 8c6a 843d 2a50 f13e 4570 fd3c
00000160: 237c 81be 62a6 7dbe db27 183d d002 653d
00000170: 4621 6fbe 981f 483c 84b4 aa3d 0520 c83e
00000180: 31e2 493c d0ff cb3c c620 473c a288 92be
00000190: 53cd 783c 0f79 813d c58b 7a3d 494f bebe
000001a0: 75af 753b 4065 8abe a31f 053f 997d 84be
000001b0: 606a a93c 57c0 d03d 9dbb 63be cea2 94be
000001c0: 3637 653b 5b19 67be 4e32 993e 2f85 96be
000001d0: 6e85 8dbe 312c c83b effc c83c 37cc 523c
000001e0: 2240 d73c b580 70be 60b1 543d 37b7 dc3a
000001f0: c426 0f3c 89bb 593d fd59 563c f154 91be
-0.272175 -0.24871127 -0.2559151 -0.24457225 0.4881869 0.02279127 -0.26340514 -0.2720843
0.0149829835 0.07141034 0.029637361 -0.27493858 0.055761516 -0.23077272 -0.26014033 -0.2783103
0.27666003 0.013130183 0.07855264 -0.26319864 -0.4987463 -0.23507956 0.03446036 0.049298044
0.1750659 0.07811496 -0.020320922 -0.23634115 0.027866479 0.059058197 -0.27238423 -0.23314276
0.58673126 -0.29262778 0.15251558 -0.23931366 -0.22571942 -0.2556689 -0.26964933 0.03006894
-0.2841994 -0.27089044 -0.2398543 -0.24311541 -0.21799423 -0.24393238 -0.21931615 -0.29102278
0.08515442 0.46252152 -0.26377276 -0.05339426 -0.2210782 -0.29772052 0.066145584 0.06347714
-0.32419148 -0.2541049 0.009420106 0.4292747 -0.21691318 0.023469009 -0.23731168 -0.2499472
-0.24851578 0.063079365 0.0071418877 -0.004533343 0.54785204 -0.30613905 0.051920556 0.45862943
-0.22918646 -0.2714511 -0.33538398 -0.2615196 0.14007656 -0.24351084 0.039699327 0.021066196
0.01660879 0.019444477 -0.2811142 -0.2362067 -0.2519094 0.06465635 0.47131473 0.030937323
-0.2529002 -0.24770501 0.037147384 0.055910885 -0.23352537 0.012214564 0.08335212 0.3908693
0.012321995 0.024902254 0.01215381 -0.28619868 0.015185672 0.06321918 0.06116845 -0.37169865
0.0037488614 -0.27030373 0.520014 -0.25877073 0.020680606 0.10192936 -0.22239538 -0.2903046
0.0034975535 -0.22568266 0.29921192 -0.29398486 -0.2764086 0.0061087837 0.02453467 0.012866071
0.026275698 -0.23486598 0.05192697 0.001683927 0.00873727 0.053157363 0.013082978 -0.28385118
