rl_energy_manager_20250326_0905/models/best_reward_model/actor.pth (torch, 117576 bytes, 14 tensors)

layer1.weight f4 [128, 18]
0.07650141 -0.05802244 0.07245538 -0.08092852 0.08810195 -0.035860788 0.08958299 0.0041436884
0.099980116 0.06528333 -0.056930147 -0.009460233 -0.12935235 -0.048280675 -0.028162973 0.107915066
-0.03879046 -0.10071953 -0.024421662 0.08707641 0.037969906 -0.032748017 0.13037626 0.008979952
-0.0053099957 0.0077298093 -0.07173794 -0.0064132274 0.07005336 0.05961205 0.04243189 0.06695583
-0.07264554 0.008804593 0.06406958 0.029706536 -0.0107436655 0.10132652 0.074792586 0.104006924
-0.027555138 0.021210155 -0.14368331 0.08663537 0.02362232 0.050948422 0.110817455 -0.009766339
-0.10942349 0.009486164 0.0013242642 0.12056388 0.045371745 -0.0259507 -0.026374213 0.026548412
-0.06379958 0.09013638 -0.02631791 0.0817561 -0.011555482 -0.083939895 0.054569293 -0.10298902
-0.079383984 -0.08152071 0.13906504 -0.09512484 -0.033205695 0.0810314 0.085769996 0.18371494
-0.058618728 0.038550768 0.19018178 -0.21258603 -0.0059351833 -0.047320653 -0.16158585 -0.04534754
0.028851243 -0.17906371 0.016472366 0.06242594 0.038234517 -0.16890615 0.0016412219 -0.16448545
-0.14626688 0.048842803 0.06793329 -0.08582645 -0.08986706 -0.111339234 -0.033280004 -0.07721698
0.023832804 0.055337902 0.14110984 0.26074678 -0.08205375 -0.10502415 0.091429 -0.054569203
0.10803336 -0.054266825 -0.1261148 -0.064281076 -0.0024691501 0.12201684 0.14202026 0.013745725
0.0933669 -0.050113253 0.10319948 -0.056971077 0.12134481 0.14517905 -0.02625598 -0.058301456
-0.017876001 -0.0056665675 0.10701876 -0.054216675 0.12621897 0.005549438 -0.048839513 0.061433103
-0.13956064 0.069062985 -0.14352767 0.091967456 -0.17847352 0.16183487 -0.08520747 0.23327024
0.104341865 -0.16521394 -0.05806412 -0.03633105 -0.06297306 -0.07820926 -0.012544909 -0.08414705
-0.018746562 0.018077727 0.03644864 -0.01743992 0.056535963 -0.053185977 -0.09579821 0.048756853
0.06880177 0.018428076 0.0005590093 0.15748045 0.084656335 0.009667147 -0.035817865 -0.004682301
0.038372956 0.087761454 -0.031342097 -0.04105839 0.10027878 -0.0010090211 -0.045760427 0.10590854
-0.10206542 0.0065979892 0.09788871 0.025376493 0.020343043 0.24770354 -0.0076291654 -0.013149632
0.05415607 0.09683601 -0.020736806 -0.08764432 -0.086216144 -0.117628135 0.15923513 -0.129159
-0.08553322 0.024466269 -0.13025689 -0.01565164 0.04933347 -0.14853057 -0.044299833 -0.00925265
-0.1342948 -0.09567225 -0.08790703 -0.08064999 0.052678097 -0.07252451 0.1087023 -0.09456109
0.005655512 0.016105695 -0.04414026 -0.13866572 -0.19648193 -0.19695547 -0.004813866 0.030819513
-0.031356346 0.06943886 0.014314213 0.024373844 0.03414734 -0.023547098 0.005687389 -0.11785026
-0.11540633 -0.059545867 -0.029558294 -0.002989536 0.11475982 -0.043497227 -0.025064295 0.11169509
-0.007938586 -0.03116817 0.052997824 -0.01609428 -0.10583115 -0.17188933 -0.11218835 -0.0014950705
0.00010390922 0.15469189 0.05221286 -0.10072449 0.006724321 0.09032741 -0.09357097 0.047194537
-0.112794176 0.12229673 -0.015194367 0.12998703 -0.04184306 0.069986045 0.11985102 0.018133502
-0.0075251656 -0.06621852 -0.008943338 0.20871308 0.11972039 0.10318368 -0.15138008 -0.18415849
00000000: c5ac 9c3d f0a8 6dbd 7c63 943d dabd a5bd
00000010: cc6e b43d c3e2 12bd 4977 b73d c7c7 873b
00000020: 60c2 cc3d 44b3 853d 962f 69bd 18ff 1abc
00000030: f174 04be f5c1 45bd 09b6 e6bc 9302 dd3d
00000040: bfe2 1ebd 0a46 cebd f00f c8bc 1e55 b23d
00000050: 5586 1b3d c922 06bd 5b81 053e a620 133c
00000060: 79ff adbb 574a fd3b 57eb 92bd 0d26 d2bb
00000070: 2378 8f3d c42b 743d 10cd 2d3d 2320 893d
00000080: 2fc7 94bd 2441 103c e936 833d 1f5b f33c
00000090: 3306 30bc 4784 cf3d db2c 993d 9501 d53d
000000a0: 50bb e1bc ebc0 ad3c b821 13be e36d b13d
000000b0: 9883 c13c 4baf 503d 43f4 e23d ff02 20bc
000000c0: 6c19 e0bd db6b 1b3c ef92 ad3a 32ea f63d
000000d0: b9d7 393d 9096 d4bc bc0e d8bc 0e7c d93c
000000e0: 5ba9 82bd 6c99 b83d a898 d7bc be6f a73d
000000f0: 3453 3dbc aee8 abbd 0d84 5f3d e8eb d2bd
00000100: 1294 a2bd 54f4 a6bd 1167 0e3e d0d0 c2bd
00000110: b202 08bd caf3 a53d 2ea8 af3d c51f 3c3e
00000120: 311a 70bd 69e7 1d3d 03bf 423e 27b0 59be
00000130: ed7b c2bb 4dd3 41bd c376 25be 58be 39bd
00000140: 7159 ec3c 7a5c 37be 0ef1 863c 58b2 7f3d
00000150: cc9b 1c3d bcf5 2cbe 451e d73a e06e 28be
00000160: fcc6 15be 640f 483d 9c20 8b3d c7c5 afbd
00000170: 390c b8bd d305 e4bd 9d50 08bd f023 9ebd
00000180: 033d c33c ffa9 623d 197f 103e 9a80 853e
00000190: cc0b a8bd e716 d7bd 213f bb3d f583 5fbd
000001a0: 9840 dd3d e446 5ebd 3d24 01be cca5 83bd
000001b0: 77d1 21bb f7e3 f93d c26d 113e c035 613c
000001c0: 2537 bf3d 8e43 4dbd 405a d33d 815a 69bd
000001d0: a183 f83d d1a9 143e c816 d7bc 82cd 6ebd
000001e0: b170 92bc 9dae b9bb a72c db3d 4e12 5ebd
000001f0: 8c3f 013e 0fd8 b53b f10b 48bd 47a1 7b3d
00000200: fce8 0ebe e570 8d3d ebf8 12be 6f59 bc3d
00000210: c3c1 36be 0ab8 253e 4181 aebd 65de 6e3e
00000220: 30b1 d53d d82d 29be a5d4 6dbd decf 14bd
00000230: 05f8 80bd 2d2c a0bd 2989 4dbc 4a55 acbd
00000240: 6492 99bc be17 943c 2b4b 153d 2ade 8ebc
00000250: 4192 673d 8ad9 59bd da31 c4bd 44b5 473d
00000260: f1e7 8c3d 7af6 963c 7b8a 123a 8e42 213e
00000270: 4d60 ad3d f462 1e3c c1b5 12bd fd6d 99bb
00000280: f62c 1d3d 47bc b33d 9260 00bd d82c 28bd
00000290: f65e cd3d 2141 84ba 496f 3bbd 94e6 d83d
000002a0: ad07 d1bd f233 d83b e079 c83d 5de2 cf3c
000002b0: 74a6 a63c ffa5 7d3e 14fe f9bb 8e71 57bc
000002c0: c1d2 5d3d f551 c63d 3ce0 a9bc de7e b3bd
000002d0: 1792 b0bd 05e7 f0bd 890e 233e 4242 04be
000002e0: 0a2c afbd 7c6d c83c 1062 05be de37 80bc
000002f0: e511 4a3d 6618 18be be73 35bd 6d98 17bc
00000300: 9384 09be d0ef c3bd 9a08 b4bd d22b a5bd
00000310: fdc4 573d bb87 94bd 509f de3d 3fa9 c1bd
00000320: e051 b93b 17f0 833c 6bcc 34bd 63fe 0dbe
00000330: 8f32 49be b2ae 49be a3bd 9dbb 3479 fc3c
00000340: 836f 00bd f635 8e3d 2986 6a3c a8ab c73c
00000350: 15de 0b3d d8e5 c0bc 475d ba3b 7a5b f1bd
00000360: 275a ecbd 5ee6 73bd 3c24 f2bc 17ec 43bb
00000370: 3207 eb3d 262a 32bd a353 cdbc 65c0 e43d
00000380: d810 02bc 6454 ffbc 3f14 593d 27d8 83bc
00000390: 01be d8bd c203 30be 01c3 e5bd 3ef6 c3ba
000003a0: d6e9 d938 8d67 1e3e 27dd 553d a448 cebd
000003b0: b157 dc3b 94fd b83d 23a2 bfbd 0f4f 413d
000003c0: a200 e7bd b576 fa3d cbf1 78bc 521b 053e
000003d0: a163 2bbd d854 8f3d 7474 f53d b68c 943c
000003e0: aa95 f6bb 939d 87bd 1487 12bc e2b8 553e
000003f0: f72f f53d f751 d33d 6103 1bbe 0b94 3cbe

layer1.bias f4 [128]
0.014937718 0.0009530048 0.0034781527 -0.010389095 -0.0012123776 -0.004880826 -0.008675659 0.01179246
0.022493586 -0.003958 -0.01471491 -0.00851829 0.0061345175 -0.008062927 -0.00097557495 0.01996917
0.0014752839 0.0028311543 0.00032629303 0.007062257 -0.010883748 -0.0010319654 -0.005329513 -0.006770275
0.0071560307 0.008878753 -0.0019847224 0.0024487488 0.003945176 0.00022476795 -0.0006639174 -0.0010040108
-0.0005507084 -0.0057799662 -0.007372543 0.00056451996 -0.0005353411 0.015690185 0.005957994 -0.004993066
0.008010358 -0.0028836578 -0.009992151 0.013719646 0.0047192243 0.00949059 -0.0056424243 0.0013531102
-0.00247056 0.0091385925 0.0072217374 0.01199621 0.0018275043 -0.0062399097 0.0060190437 0.0005639343
0.0032471772 -0.004698491 -0.0025213223 0.0023270268 -0.005369099 -0.009834126 -0.003313898 0.0012882104
-0.013973103 -0.005376866 0.00039349133 0.0008223944 -0.0008425137 -0.00053197576 0.001712904 0.012416649
0.0077599445 -0.007988123 0.0068864585 0.00455537 0.0069165058 0.0029417956 -0.0062022726 0.022106256
0.007985274 0.0008067563 0.014987099 -0.0075014713 0.010658713 -0.0052700914 0.0024458526 -0.0019912538
-0.0007465152 -0.0062439363 -0.004993734 -0.0045962087 -0.0007823701 -0.008044225 -0.003929764 -0.0008112736
0.0036205153 -0.00094013783 -0.0011840182 -0.0036471824 0.0053436244 -0.008031284 0.0037735954 0.0021267873
0.004255388 -0.007956073 0.0020863153 -0.00088785816 -0.004961937 -0.0003785838 0.0057438035 -0.010498671
-0.008310842 -0.0023569756 -0.0026944533 0.019831032 -0.0070605134 0.0070650396 -0.0010689584 0.023797449
-0.0021942996 -0.0031078092 -0.0022230484 0.007820499 0.009397207 -0.0012268345 -0.008095462 -0.003014143
00000000: 55bd 743c 12d3 793a b8f1 633b 0637 2abc
00000010: a4e8 9eba 56ef 9fbb 5a24 0ebc 2a35 413c
00000020: 7844 b83c 1cb2 81bb ce16 71bc 4c90 0bbc
00000030: 1004 c93b 5e1a 04bc babd 7fba 6396 a33c
00000040: 505e c13a e38a 393b 4f12 ab39 816a e73b
00000050: bf51 32bc 0343 87ba 32a3 aebb 2fd9 ddbb
00000060: 237d ea3b 3078 113c 1e12 02bb 307b 203b
00000070: 8946 813b b0af 6b39 be0a 2eba 0399 83ba
00000080: 6a5d 10ba df65 bdbb 6095 f1bb 4bfc 133a
00000090: 2256 0cba b488 803c 473b c33b e09c a3bb
000000a0: e03d 033c c0fb 3cbb 1eb6 23bc 5ec8 603c
000000b0: b9a3 9a3b 6b7e 1b3c 16e4 b8bb d85a b13a
000000c0: 1ee9 21bb 09ba 153c 53a4 ec3b c08b 443c
000000d0: de88 ef3a 2878 ccbb 663b c53b fed4 133a
000000e0: 98ce 543b cdf5 99bb c53c 25bb 0881 183b
000000f0: 44ef afbb 501f 21bc fc2d 59bb 2bd9 a83a
00000100: 71ef 64bc 6c30 b0bb 834d ce39 f495 573a
00000110: 23dc 5cba 4a74 0bba 8583 e03a 336f 4b3c
00000120: 2247 fe3b 9ee0 02bc cda7 e13b 3745 953b
00000130: dba3 e23b 24cb 403b 6f3c cbbb 2e18 b53c
00000140: abd4 023c 807c 533a 738c 753c e7ce f5bb
00000150: e2a1 2e3c bbb0 acbb 994a 203b b27f 02bb
00000160: c9b1 43ba ef99 ccbb 7aa2 a3bb cb9b 96bb
00000170: f817 4dba edcb 03bc 40c5 80bb a6ab 54ba
00000180: 2b46 6d3b 9573 76ba 0f31 9bba 9105 6fbb
00000190: 9219 af3b a695 03bc 6d4e 773b 9261 0b3b
000001a0: c870 8b3b 305a 02bc 90ba 083b 27bf 68ba
000001b0: bf97 a2bb a87c c6b9 8436 bc3b 9e02 2cbc
000001c0: 332a 08bc 7d77 1abb 6d95 30bb b074 a23c
000001d0: e15b e7bb d981 e73b 4b1c 8cba def2 c23c
000001e0: 3dce 0fbb 63ac 4bbb 90b0 11bb 8d21 003c
000001f0: bef6 193c bccd a0ba d4a2 04bc ee88 45bb

layer2.weight f4 [128, 128]
0.09603486 0.0017070909 0.06971127 0.041498613 -0.13438427 -0.027470404 0.08876362 -0.18406357
0.043709107 -0.03188765 0.16460414 -0.10746145 0.10889035 0.07280698 0.08340823 -0.02582567
-0.052557684 -0.07230682 -0.04332989 -0.13545643 -0.048665375 0.054568782 -0.0024012912 -0.0789049
-0.032160185 -0.13032754 -0.009978557 -0.056996666 -0.033769093 0.073265426 0.047846366 0.1473152
0.057906892 0.08122037 -0.036180332 -0.10460766 0.080182925 0.029875759 0.018429015 0.124584876
0.025888316 0.0691146 -0.06184594 0.13467422 0.071819335 0.10836297 -0.068564445 0.07466426
-0.08913614 0.051569667 0.10979513 -0.12334061 -0.16092414 0.10438921 0.016856395 -0.021245835
-0.067389734 0.18147533 0.07668069 -0.060570143 0.051262118 -0.070758656 0.15170056 0.047049884
0.07641945 -0.024089662 0.17661315 0.00059306325 -0.17400385 -0.020409588 0.010115382 0.13306516
-0.13529584 0.14700669 0.054387435 0.23391889 0.17234597 0.16907036 -0.041876856 -0.17402208
-0.024114314 0.09234171 -0.018446809 0.08688463 0.0034080385 0.0302257 -0.10322962 0.005203116
0.042035867 -0.032378968 -0.033582706 -0.07834083 0.027004305 0.07549782 -0.03202773 -0.09261753
0.01290484 -0.023341699 0.13887817 -0.010282423 0.041616645 0.12155432 0.009546637 -0.08984842
-0.09884096 -0.008790449 0.10925842 0.02446114 0.01115908 -0.09919364 0.10042933 0.032946933
0.049035825 -0.01941433 0.07760451 0.13994277 0.10964256 -0.019986797 -0.08066675 -0.011706737
-0.056879707 0.06054207 -0.06155746 -0.008697686 -0.025555287 -0.030571125 0.088727266 0.11795787
0.18630932 0.01819679 0.055671446 -0.18807425 0.11298496 -0.022393787 0.05659888 -0.0278521
0.024949962 0.09102669 0.02044372 0.035886273 -0.07895065 -0.13270715 0.0042845537 -0.0953011
-0.08404165 0.11543024 -0.024471274 -0.0911179 0.15209639 0.13033427 -0.017385628 0.11959678
0.011571456 0.06518063 0.0006824836 0.092760004 -0.08547571 0.012326297 -0.0027097962 -0.06594065
0.02598728 -0.14241457 0.09553419 -0.040932093 -0.056365862 0.08130573 0.05654833 0.07251085
-0.100842856 -0.2155801 -0.08499192 0.17322381 -0.016782105 0.0054132314 0.0031238042 0.1699144
-0.05300832 0.05488081 0.024743602 -0.05680871 0.03803271 -0.03711951 0.07048597 0.13407296
0.048681278 0.07659144 -0.054102365 0.016214242 0.025221255 -0.027075272 0.10992021 -0.077438906
-0.026942758 0.032479692 0.19461106 -0.017096888 0.0046068523 0.042521022 -0.04549683 0.020986032
0.044469327 0.10586401 -0.048247635 -0.18586028 -0.087074235 0.074733615 0.11390045 0.10123802
0.0050462503 0.1676003 -0.050842017 -0.013948028 -0.14301561 0.022446234 0.054795146 0.06924254
-0.031101014 -0.048633017 0.11891763 0.06294478 0.10712142 0.07326771 0.0044853385 -0.103010714
-0.07935171 -0.025749497 0.03706647 0.24673572 -0.095941864 -0.06337345 0.066906 -0.022498509
-0.0043835687 0.026520364 0.08506313 -0.06907273 0.026983274 0.12900384 -0.02231953 0.11304203
0.02581162 -0.13439384 0.029876685 -0.05915207 -0.03306235 -0.03347822 0.036106456 0.16674477
0.058272254 0.14575939 -0.07502008 0.07723637 -0.11226244 -0.06314446 -0.060753517 0.02924307
00000000: edad c43d 77c0 df3a c8c4 8e3d 73fa 293d
00000010: 089c 09be 9d09 e1bc b3c9 b53d 297b 3cbe
00000020: 5208 333d a09c 02bd fd8d 283e c014 dcbd
00000030: e701 df3d d31b 953d efd1 aa3d 5b90 d3bc
00000040: ba46 57bd 9915 94bd af7a 31bd 17b5 0abe
00000050: 5855 47bd 8483 5f3d fb5e 1dbb e498 a1bd
00000060: 66ba 03bd 9574 05be 1a7d 23bc 5675 69bd
00000070: 7651 0abd 2f0c 963d 8dfa 433d ccd9 163e
00000080: c72f 6d3d de56 a63d d431 14bd 8a3c d6bd
00000090: f236 a43d 02be f43c 72f8 963c 5b26 ff3d
000000a0: bc13 d43c f58b 8d3d 2b52 7dbd 0ae8 093e
000000b0: 0416 933d 68ed dd3d 846b 8cbd 93e9 983d
000000c0: 028d b6bd b73a 533d 45dc e03d 009a fcbd
000000d0: 4cc9 24be 03ca d53d 6c16 8a3c bf0b aebc
000000e0: a103 8abd abd4 393e c40a 9d3d 6618 78bd
000000f0: 3af8 513d eae9 90bd 6457 1b3e 61b7 403d
00000100: cd81 9c3d af57 c5bc 14da 343e cd77 1b3a
00000110: 112e 32be 0232 a7bc fdba 253c 3c42 083e
00000120: fe8a 0abe ec88 163e 5cc5 5e3d 6f88 6f3e
00000130: 767b 303e c820 2d3e 1187 2bbd d832 32be
00000140: 628b c5bc a71d bd3d c31d 97bc 92f0 b13d
00000150: 6659 5f3b e39b f73c 0d6a d3bd e77e aa3b
00000160: cd2d 2c3d cf9f 04bd 058e 09bd 2871 a0bd
00000170: 2238 dd3c 9a9e 9a3d 822f 03bd 42ae bdbd
00000180: d26e 533c 1737 bfbc 1436 0e3e 9c77 28bc
00000190: 3776 2a3d 79f1 f83d 7f69 1c3c 7302 b8bd
000001a0: 216d cabd d105 10bc e1c2 df3d bb62 c83c
000001b0: 93d4 363c 0926 cbbd e4ad cd3d 5df3 063d
000001c0: cad9 483d cd0a 9fbc 1def 9e3d 284d 0f3e
000001d0: 478c e03d 5abb a3bc 9c34 a5bd 9dcd 3fbc
000001e0: b2fa 68bd f6fa 773d ad23 7cbd bd80 0ebc
000001f0: 5259 d1bc 4c70 fabc a4b6 b53d e593 f13d
00000200: dfc7 3e3e 6f11 953c be07 643d 8996 40be
00000210: a964 e73d 2d73 b7bc 3ad4 673d 162a e4bc
00000220: dd63 cc3c 346c ba3d 9779 a73c 7cfd 123d
00000230: e1b0 a1bd 62e4 07be 7165 8c3b 392d c3bd
00000240: 071e acbd b166 ec3d fb77 c8bc 069c babd
00000250: 28bf 1b3e 5976 053e 4e6c 8ebc 28ef f43d
00000260: 3496 3d3c 6c7d 853d b3e8 323a f5f8 bd3d
00000270: e40d afbd 3df4 493c d696 31bb e40b 87bd
00000280: 47e3 d43c 20d5 11be 6ea7 c33d 69a8 27bd
00000290: e4df 66bd 9e83 a63d 399f 673d 9280 943d
000002a0: b386 cebd 08c1 5cbe 3e10 aebd 9561 313e
000002b0: a07a 89bc 7a61 b13b bdb8 4c3b 0afe 2d3e
000002c0: 411f 59bd b3ca 603d 18b3 ca3c 40b0 68bd
000002d0: 30c8 1b3d a10a 18bd f35a 903d 6c4a 093e
000002e0: 0566 473d f9db 9c3d 719a 5dbd bbd3 843c
000002f0: ce9c ce3c f6cc ddbc d91d e13d 4a98 9ebd
00000300: 0fb7 dcbc 6d09 053d 1f48 473e c60e 8cbc
00000310: 14f5 963b 862a 2e3d e25a 3abd e6ea ab3c
00000320: 7825 363d 3bcf d83d 509f 45bd 2852 3ebe
00000330: fa53 b2bd f00d 993d a444 e93d e155 cf3d
00000340: 045b a53b 6a9f 2b3e b83f 50bd 4586 64bc
00000350: af72 12be 2ae1 b73c e070 603d 08cf 8d3d
00000360: 8ec7 febc 6a33 47bd 168b f33d 31e9 803d
00000370: 7a62 db3d 620d 963d bff9 923b 48f7 d2bd
00000380: 2683 a2bd 9cf0 d2bc 03d3 173d 4aa8 7c3e
00000390: 2b7d c4bd f0c9 81bd 0306 893d cb4e b8bc
000003a0: 0aa4 8fbb 3c41 d93c 9435 ae3d 0176 8dbd
000003b0: 070c dd3c 9519 043e 72d7 b6bc 9482 e73d
000003c0: e472 d33c 8a9e 09be f3bf f43c 7149 72bd
000003d0: 636c 07bd 7520 09bd 5de4 133d 24bf 2a3e
000003e0: e3ae 6e3d f341 153e 21a4 99bd 1a2e 9e3d
000003f0: dae9 e5bd e251 81bd aed8 78bd 2a8f ef3c

layer2.bias f4 [128]
-0.0036157563 -0.0038943626 0.005481387 0.010646084 -0.0012240433 0.031892724 0.0030824027 -0.00086224725
0.0033420995 -0.0064712386 0.0033979232 -0.0017604746 0.0067015863 0.0008140726 -0.0015925454 0.010938004
0.0003504474 0.0053203967 0.0049990765 -0.013146074 0.006545178 -0.0038357908 -0.00582215 -0.011599626
0.009543914 -0.004807577 0.005623504 -0.0023620168 -0.0034685608 0.0029157193 -0.0014182245 0.00399386
0.00033607482 0.003431849 0.0023430756 0.014281268 0.002812985 0.00020882927 0.006533806 -0.0010247215
-0.0031443995 0.0026469743 0.005823126 -0.005713748 0.0033653937 0.009934769 0.0034746926 -0.0039019685
0.0044897352 -0.0022410862 -0.0059447787 0.0057198913 0.03204628 0.00711787 -0.002195938 0.011559986
-0.005443815 0.002663341 -0.0033982794 0.013046847 0.018799579 0.0055523133 -0.0075023635 -0.0052482467
0.0240916 -0.008588923 0.0017270551 0.00016630699 -0.0008107609 -0.005165163 0.0005550402 0.013191355
0.00063294306 0.0035489893 0.003165116 0.002899551 -0.005144506 0.0035546396 -0.0010379287 0.012942501
-0.0033259531 -0.0068044583 0.006958897 0.008371516 0.00096329034 0.0037967865 0.022594113 -0.0054870066
0.0049975514 -0.0005039786 0.0008016544 0.0011610667 -0.0029007401 -0.0029316638 -0.0062329387 -0.0022951867
0.0071957954 -0.005730685 -0.0057734596 -0.009376756 -0.00484716 -0.004234268 -0.0036161826 0.011565886
0.009558898 -0.009798886 0.0012603814 0.0051084245 0.013183532 0.016209034 -0.009290536 -0.0037103218
-0.008022927 0.0023570692 0.005696285 0.0052852705 0.030332599 -0.008210379 0.001355843 0.03345493
0.015602079 -0.002731001 0.008217599 -0.0047963536 -0.006729863 0.005547439 0.004031158 0.013281438
00000000: 53f6 6cbb 9038 7fbb 359d b33b ea6c 2e3c
00000010: 1470 a0ba f2a1 023d 2302 4a3b 6f08 62ba
00000020: 2007 5b3b af0c d4bb b1af 5e3b babf e6ba
00000030: fb98 db3b 7d67 553a f5bc d0ba 5035 333c
00000040: 41bc b739 b956 ae3b 4bcf a33b a162 57bc
00000050: ef78 d63b e461 7bbb bcc7 bebb 5c0c 3ebc
00000060: 145e 1c3c e188 9dbb 5f45 b83b 11cc 1abb
00000070: cb50 63bb a715 3f3b b8e3 b9ba edde 823b
00000080: 3333 b039 dfe8 603b 498e 193b fbfb 693c
00000090: 0f5a 383b 2ef9 5a39 8a19 d63b f34f 86ba
000000a0: 4512 4ebb dc78 2d3b eccf be3b 643a bbbb
000000b0: f08d 5c3b 71c5 223c abb7 633b 2bb8 7fbb
000000c0: a11e 933b 30df 12bb 6bcc c2bb ed6d bb3b
000000d0: f642 033d 053d e93b bae9 0fbb 1866 3d3c
000000e0: 0862 b2bb 728b 2e3b abb5 5ebb 71c2 553c
000000f0: 9301 9a3c 2ef0 b53b 63d6 f5bb 7cf9 abbb
00000100: bf5b c53c 8eb8 0cbc 5a5e e23a b162 2e39
00000110: 3e89 54ba 8740 a9bb 1e80 113a 8e20 583c
00000120: 17ec 253a 2996 683b d66d 4f3b 6506 3e3b
00000130: 3f93 a8bb f5f4 683b 1c0b 88ba c90c 543c
00000140: 3cf8 59bb eff7 debb 7607 e43b af28 093c
00000150: 5285 7c3a 82d3 783b 4a17 b93c 59cc b3bb
00000160: 80c2 a33b 6e1d 04ba 1e26 523a ef2e 983a
00000170: 581a 3ebb 2821 40bb ae3d ccbb d86a 16bb
00000180: b5ca eb3b 78c8 bbbb 4a2f bdbb f7a0 19bc
00000190: edd4 9ebb 9dbf 8abb 7afd 6cbb d87e 3d3c
000001a0: ed9c 1c3c 828b 20bc 6233 a53a 9264 a73b
000001b0: beff 573c cfc8 843c 5537 18bc df28 73bb
000001c0: 9872 03bc 0f79 1a3b e7a7 ba3b 1030 ad3b
000001d0: 127c f83c d384 06bc 8bb6 b13a 0908 093d
000001e0: dd9f 7f3c 98fa 32bb 1ca3 063c bb2a 9dbb
000001f0: 2f86 dcbb 4bc7 b53b ce17 843b 639a 593c

layer3.weight f4 [64, 128]
-0.07019731 0.103133805 -0.046030667 0.21138918 0.02176643 0.00015527954 -0.12048987 -0.0713553
-0.0018394382 0.06847642 -0.08797481 0.024340242 -0.1337194 -0.0147109 0.13033572 0.05442791
0.059403412 -0.107818246 -0.13873108 -0.026220292 -0.0634222 0.07463089 0.08296819 0.10365452
-0.050947376 -0.07613883 -0.0018174718 -0.14645989 0.057086285 -0.113164164 0.06136154 0.07081795
0.0087920325 -0.08242912 -0.043518577 0.00024193448 0.06430592 -0.008970851 0.05388986 -0.03782834
-0.26192442 -0.23407471 -0.096746504 -0.1786396 -0.059103336 -0.06971668 0.05981733 0.08529808
-0.0152846025 0.013988823 0.006370229 -0.045371648 -0.049251277 -0.014396839 -0.03807893 -0.15772587
0.007529542 0.110268064 -0.020238664 0.052546658 0.00786848 0.05513419 0.050867748 0.043826524
-0.010903724 0.057023913 -0.07521779 0.082461305 0.046952568 -0.1443457 -0.060102187 0.066935085
-0.096030205 0.104471184 -0.021929864 -0.14535454 0.023911964 -0.121656425 0.17135207 -0.0038528321
-0.05569488 0.2968456 0.040427916 -0.018210713 -0.043563563 -0.07086277 0.04974516 0.068763204
-0.066926606 0.097801045 -0.008523085 0.0914053 0.105030894 -0.05766817 0.05946003 -0.16226673
0.05961761 0.06469302 0.06491777 0.10682571 -0.042735323 -0.07894971 -0.0010114297 0.0998111
-0.15614505 0.09736963 -0.0818082 0.010373627 -0.03541614 -0.050210092 0.10302057 0.13003393
0.039890613 1.3823531e-05 0.040815808 0.108976856 0.032141935 -0.055911653 -0.009490531 0.13085753
-0.06368897 -0.019112205 0.005801263 -0.12045778 -0.02786629 0.06857784 -0.09196227 -0.054623064
-0.04083094 0.11004357 0.051944066 0.05487381 0.016832197 -0.049855713 0.015138301 0.039787456
0.11116787 0.056673177 0.14863272 -0.023424532 -0.025405666 0.0054670083 -0.09062544 -0.038668018
0.0495932 0.05560986 0.015092163 0.042982314 -0.019997036 0.023697807 -0.1636455 0.09161419
-0.042342756 -0.07503388 0.011007327 -0.044215795 0.057926152 -0.10790237 -0.0976937 -0.06322274
-0.11854002 0.1642213 0.034003448 -0.041130688 -0.06432848 -0.22336076 0.14601462 0.09949763
0.073930494 -0.0016600789 0.019420354 0.07326616 -0.11973977 -0.048129056 -0.05474733 0.18929301
-0.037268277 0.14981784 0.03800415 -0.06933739 0.13880669 -0.07635437 0.017694972 -0.10313046
0.056613255 0.06091866 -0.1870102 -0.022984216 0.053945906 -0.26880354 -0.045701724 0.03199506
0.123864755 0.10438057 0.03715053 0.050295692 0.20676911 0.13618693 -0.0027768859 0.10734033
0.05793311 0.05040849 0.035420723 0.022853814 0.091315046 0.015066202 -0.1918998 0.047747023
0.08350987 0.19077168 0.09930091 0.006430029 -0.02754119 -0.043898113 0.011303802 0.05390359
0.11229944 -0.08091188 -0.05203751 -0.113029905 -0.045106925 -0.13432623 0.086326465 -0.049460854
-0.0030442846 -0.062261406 -0.08739005 -0.083892964 -0.026421243 -0.041948285 0.08482792 0.04530542
-0.13474278 0.05759404 -0.021884574 0.03675828 -0.06565186 0.01741712 -0.0827073 -0.04147259
0.04964335 0.07860689 -0.02289555 0.06326851 0.12805606 0.025283309 0.1958182 -0.024673006
-0.05684956 -0.049402233 -0.057089563 0.023746653 -0.05874812 -0.052447174 0.1122928 0.0061743185
00000000: 9bc3 8fbd d137 d33d a78a 3cbd 6876 583e
00000010: 834f b23c 89d2 2239 65c3 f6bd ba22 92bd
00000020: 4e19 f1ba 5e3d 8c3d 232c b4bd 3065 c73c
00000030: bded 08be fd05 71bc ba76 053e cdef 5e3d
00000040: fe50 733d d0cf dcbd 850f 0ebe f0cb d6bc
00000050: 80e3 81bd 14d8 983d 3aeb a93d d248 d43d
00000060: 32ae 50bd adee 9bbd 3c38 eeba 95f9 15be
00000070: 4fd3 693d 9dc2 e7bd 3d56 7b3d 0009 913d
00000080: 750c 103c 99d0 a8bd 8940 32bd cbaf 7d39
00000090: d2b2 833d 7afa 12bc 9dbb 5c3d e4f1 1abd
000000a0: f51a 86be 48b1 6fbe 0823 c6bd 4ded 36be
000000b0: 5716 72bd 9ec7 8ebd 0403 753d c3b0 ae3d
000000c0: 456c 7abc 6031 653c 5bbd d03b 9fd7 39bd
000000d0: b5bb 49bd b8e0 6bbc a7f8 1bbd e482 21be
000000e0: 60ba f63b 39d4 e13d 8ecb a5bc 2a3b 573d
000000f0: ccea 003c 63d4 613d b35a 503d 7183 333d
00000100: 88a5 32bc e891 693d c90b 9abd 79e1 a83d
00000110: 5651 403d 5ccf 13be b62d 76bd 4315 893d
00000120: 7cab c4bd fdf4 d53d 42a6 b3bc d2d7 14be
00000130: 06e3 c33c 0127 f9bd eb76 2f3e cc7f 7cbb
00000140: 5120 64bd 25fc 973e be97 253d a22e 95bc
00000150: b56f 32bd 8020 91bd 95c1 4b3d b9d3 8c3d
00000160: d110 89bd ea4b c83d 69a4 0bbc b432 bb3d
00000170: 701a d73d 7635 6cbd 5c8c 733d 4029 26be
00000180: 9831 743d c67d 843d 9cf3 843d 70c7 da3d
00000190: 3c0b 2fbd 63b0 a1bd f391 84ba c369 cc3d
000001a0: 7de4 1fbe bb69 c73d 0f8b a7bd 25f6 293c
000001b0: 8410 11bd 19a9 4dbd 73fc d23d 9d27 053e
000001c0: 5764 233d 9deb 6737 7a2e 273d 422f df3d
000001d0: 43a7 033d 9e03 65bd 2c7e 1bbc 84ff 053e
000001e0: 5d6f 82bd 3391 9cbc 8518 be3b 92b2 f6bd
000001f0: d947 e4bc 8a72 8c3d b756 bcbd 6fbc 5fbd
00000200: 583e 27bd 865e e13d 4dc3 543d 5cc3 603d
00000210: ade3 893c 8135 4cbd a306 783c 2cf8 223d
00000220: fbab e33d 2222 683d 2d33 183e cee4 bfbc
00000230: 8b1f d0bc 9724 b33b d599 b9bd 5b62 1ebd
00000240: 3d22 4b3d 2ac7 633d 1f45 773c 390e 303d
00000250: d3d0 a3bc e721 c23c b092 27be 38a0 bb3d
00000260: 996f 2dbd 5dab 99bd 1358 343c 9f1b 35bd
00000270: f943 6d3d ebfb dcbd a213 c8bd ed7a 81bd
00000280: 1cc5 f2bd a129 283e 3347 0b3d a778 28bd
00000290: a6be 83bd afb8 64be db84 153e 6ac5 cb3d
000002a0: df68 973d 0197 d9ba 6f17 9f3c 920c 963d
000002b0: 203a f5bd f922 45bd bc3e 60bd 07d6 413e
000002c0: 9fa6 18bd d969 193e 3daa 1b3d c300 8ebd
000002d0: 5723 0e3e ae5f 9cbd 0cf5 903c 1036 d3bd
000002e0: 4de3 673d d885 793d 9a7f 3fbe 6549 bcbc
000002f0: 62f6 5c3d 9ea0 89be bb31 3bbd 410d 033d
00000300: ceac fd3d 7bc5 d53d 272b 183d db02 4e3d
00000310: 48bb 533e 9674 0b3e 6afc 35bb 3fd5 db3d
00000320: 454b 6d3d 2279 4e3d 5215 113d ec37 bb3c
00000330: 6203 bb3d 3bd8 763c 6281 44be 6292 433d
00000340: 3907 ab3d a759 433e 475e cb3d feb2 d23b
00000350: 109e e1bc 82ce 33bd 9533 393c 03ca 5c3d
00000360: 40fd e53d 21b5 a5bd 4925 55bd 397c e7bd
00000370: 0ac2 38bd d18c 09be eecb b03d 7797 4abd
00000380: 9f82 47bb d105 7fbd 8ef9 b2bd 13d0 abbd
00000390: 5d71 d8bc f7d1 2bbd 43ba ad3d 2d92 393d
000003a0: 03fa 09be bae7 6b3d 4747 b3bc da8f 163d
000003b0: 7b74 86bd 59ae 8e3c 7262 a9bd 2adf 29bd
000003c0: d356 4b3d a6fc a03d 738f bbbc ec92 813d
000003d0: 2121 033e f11e cf3c 9184 483e 0b1f cabc
000003e0: 16db 68bd ff59 4abd bfd6 69bd 5788 c23c
000003f0: dea1 70bd d9d2 56bd c4f9 e53d f051 ca3b

layer3.bias f4 [64]
-0.0035269724 -0.0036398158 0.00066850026 0.00417908 0.0028777246 0.01667014 0.0012978866 0.005486007
0.0094641 0.008158188 0.001475891 -0.00021323664 -0.000840904 -0.0024611235 0.00030327018 0.00032932317
-0.0021789884 0.014370826 0.0240713 -0.0015083993 -0.0034314624 0.012366468 0.016656604 -0.009327761
0.0034463417 0.004546292 0.020083213 0.0042493767 -0.004374099 0.01576107 0.0046513984 0.00037689938
0.03599024 -0.0036562681 0.0054289564 0.024773823 0.0022617457 -0.0039367084 0.022993177 -0.009115902
0.015539536 -0.0027246394 0.004180444 -0.0074296803 0.010560477 0.0057780948 -0.004691455 -0.009266532
0.036420457 0.0120043205 -0.00084045035 -0.0013307523 -0.010243212 -0.006851482 0.005528209 -0.0075357896
0.0018686319 0.023227463 0.0028957364 0.013323549 -0.0032627606 -0.00036364113 0.006986444 -0.0059513897
00000000: c724 67bb fa89 6ebb 4b3e 2f3a aaf0 883b
00000010: 3598 3c3b d18f 883c d91d aa3a f6c3 b33b
00000020: 500f 1b3c eca9 053c af72 c13a 4698 5fb9
00000030: 1d70 5cba cd4a 21bb 3c00 9f39 02a9 ac39
00000040: 5ccd 0ebb 9d73 6b3c 2d31 c53c 7bb5 c5ba
00000050: 63e2 60bb ba9c 4a3c 6e73 883c 77d3 18bc
00000060: 05dc 613b 10f9 943b 8d85 a43c 5b3e 8b3b
00000070: 9a54 8fbb 5c1d 813c c26a 983b 949a c539
00000080: 806a 133d 009e 6fbb 63e5 b13b 79f2 ca3c
00000090: cc39 143b 81ff 80bb 305c bc3c dd5a 15bc
000000a0: 8a99 7e3c dd8f 32bb 1bfc 883b ad74 f3bb
000000b0: da05 2d3c 2c56 bd3b c7ba 99bb a7d2 17bc
000000c0: 9e2d 153d c5ad 443c ab51 5cba a36c aeba
000000d0: 25d3 27bc 6682 e0bb fa25 b53b c9ee f6bb
000000e0: e2ec f43a 8547 be3c 65c6 3d3b 044b 5a3c
000000f0: 0ad4 55bb 16a7 beb9 8aee e43b e003 c3bb

layer4.weight f4 [9, 64]
0.11467889 0.0073505878 -0.15594825 0.017855985 0.077076435 0.2575847 -0.14996134 -0.15683058
-0.024966925 -0.08349215 0.20766087 0.14032514 -0.15760836 -0.23532528 -0.11387488 0.06351004
0.2657548 0.004756076 -0.045683976 0.18737917 0.060907252 0.04180619 -0.109346926 -0.015901854
-0.12386623 -0.09274802 0.2839093 0.10703427 -0.16490419 0.324099 0.09774286 0.035240024
-0.099421866 0.15525265 0.0042427685 0.13182072 0.1553887 0.18215667 0.036362294 0.02001441
-0.054338016 -0.00498942 -0.13821942 0.19961114 -0.13278802 0.15739967 0.19354834 0.0746007
0.07734631 -0.050116464 0.19304936 -0.04908773 -0.12524192 0.041899946 0.030433448 0.06856042
-0.21095744 0.105107464 -0.08803743 0.07348639 -0.011455059 -0.15890089 -0.08256051 0.065469824
-0.20449975 -0.0008426399 -0.13533998 -0.04754442 0.16996603 -0.058467526 0.06456082 -0.0023942313
-0.21592128 -0.13148263 0.27896315 0.0150994975 0.16824558 -0.01742645 0.29073662 -0.20661132
0.21705532 -0.06649488 0.15129298 0.031125925 0.2684581 -0.009131629 -0.09681022 0.07178842
-0.11535964 0.20151724 -0.13418092 -0.20905684 0.015899714 -0.21203227 0.1151933 -0.11937648
-0.16487728 0.01072885 0.068729185 -0.18581615 -0.08288454 0.19286342 -0.01762892 0.039160762
-0.10914488 -0.06972835 0.09772016 0.088135004 0.037640285 0.026585396 -0.06509718 -0.056119118
-0.0461855 0.2023258 -0.0313675 0.0352201 0.084873416 0.11546656 -0.068150505 0.005111491
-0.016394032 0.006603094 -0.11323493 -0.18724373 0.0390955 0.11638544 -0.2595586 -0.13379088
0.0078364 0.027582044 -0.16960357 0.079454154 -0.13303874 0.042559475 -0.10520567 -0.09614845
-0.030048465 -0.10422888 -0.07262301 -0.03125461 0.12564178 0.060978074 -0.25216427 -0.06105311
-0.0040011765 0.031548288 -0.18078259 -0.013534915 0.10103962 0.057954576 -0.14409362 0.22587885
-0.25104675 -0.022659944 -0.091218434 0.0010474599 0.15465492 -0.037003316 0.030045528 0.23818257
-0.11984466 -0.2183864 0.17039007 0.10810709 0.23045926 0.06549033 -0.085521616 0.23808421
0.087384365 0.3159165 0.19946449 -0.10424858 -0.05775215 0.095928155 -0.03176476 -0.028689576
-0.08530576 0.07330571 -0.21015489 -0.012704917 0.12668835 -0.051935103 0.019076677 0.11216543
-0.2036574 -0.18034624 0.32224435 0.07443384 -0.006390297 -0.022972753 0.013281684 -0.0054842723
-0.0072386307 -0.10007091 -0.13386157 0.04900982 -0.10888683 0.06307412 0.24833119 -0.00044265843
0.12866087 0.036855437 0.35355762 0.050575413 -0.027809046 -0.16493309 -0.21939431 0.04036907
0.12231761 0.1376805 0.13090983 0.03432323 0.014626678 0.20277987 0.19417998 0.15559572
0.18155763 -0.03471922 0.032197148 -0.026607545 -0.08962635 -0.12690476 -0.019565096 0.004801135
0.24759518 -0.109578416 0.11632476 0.07761981 0.0771982 -0.11815182 0.035897534 -0.13700809
-0.06360704 0.15340903 0.18336162 0.026619777 -0.040963273 -0.18947583 0.0025548448 0.086729236
0.18429968 -0.010694997 0.07897304 -0.040374972 -0.10743723 -0.18324085 0.25767973 -0.05881482
0.08048782 0.34857878 0.047077462 0.0030532144 0.09563034 0.2737282 -0.062092535 0.025676614
00000000: c4dc ea3d 33dd f03b e6b0 1fbe b746 923c
00000010: 40da 9d3d 24e2 833e 778f 19be 3298 20be
00000020: 7087 ccbc effd aabd 0da5 543e 65b1 0f3e
00000030: 1664 21be 1cf9 70be 3c37 e9bd 8d11 823d
00000040: 0311 883e dbd8 9b3b 1f1f 3bbd 53e0 3f3e
00000050: e279 793d f83c 2b3d 48f1 dfbd 9b44 82bc
00000060: 94ad fdbd adf2 bdbd 8f5c 913e c934 db3d
00000070: a5dc 28be 4ef0 a53e 692d c83d d857 103d
00000080: b19d cbbd 8dfa 1e3e ec06 8b3b 03fc 063e
00000090: 371e 1f3e 4787 3a3e a1f0 143d 43f5 a33c
000000a0: 8a91 5ebd 4a7e a3bb 6489 0dbe dd66 4c3e
000000b0: 95f9 07be 612d 213e 8931 463e 40c8 983d
000000c0: be67 9e3d ec46 4dbd bbae 453e 3710 49bd
000000d0: 6b3f 00be 479f 2b3d 914f f93c 6869 8c3d
000000e0: 3a05 58be 9542 d73d f84c b4bd 0880 963d
000000f0: 00ae 3bbc eab6 22be 7c15 a9bd 0b15 863d
00000100: 6268 51be 9be4 5cba 9096 0abe f0bd 42bd
00000110: 930b 2e3e a57b 6fbd 7738 843d 89e8 1cbb
00000120: 781a 5dbe 62a3 06be 42d4 8e3e e263 773c
00000130: 9248 2c3e eac1 8ebc 6edb 943e eb91 53be
00000140: c043 5e3e 782e 88bd 8cec 1a3e ccfb fe3c
00000150: 5773 893e d49c 15bc 7044 c6bd cf05 933d
00000160: ad41 ecbd 895a 4e3e b966 09be ff12 56be
00000170: 1e40 823c fd1e 59be 77ea eb3d a87b f4bd
00000180: 97d5 28be 0fc8 2f3c e3c1 8c3d 9746 3ebe
00000190: 5fbf a9bd fd7d 453e 866a 90bc 0967 203d
000001a0: 5a87 dfbd bdcd 8ebd 8221 c83d 2080 b43d
000001b0: b32c 1a3d 9ec9 d93c ac51 85bd 29dd 65bd
000001c0: 022d 3dbd 7f2e 4f3e 357b 00bd f442 103d
000001d0: 1dd2 ad3d bb79 ec3d 7e92 8bbd 4b7e a73b
000001e0: c74c 86bc c45e d83b b7e7 e7bd d2bc 3fbe
000001f0: 9a22 203d 7d5b ee3d dde4 84be 7a00 09be
00000200: 3e64 003c bdf3 e13c 8fac 2dbe dcb8 a23d
00000210: 4f3b 08be d852 2e3d 1276 d7bd 7be9 c4bd
00000220: 3328 f6bc f375 d5bd 5fbb 94bd d504 00bd
00000230: 3da8 003e 25c4 793d ad1b 81be d312 7abd
00000240: 4d1c 83bb c738 013d 121f 39be 8cc1 5dbc
00000250: dced ce3d c761 6d3d 478d 13be c94c 673e
00000260: 3389 80be 59a1 b9bc bbd0 babd ec4a 893a
00000270: dc5d 1e3e ca90 17bd 0a22 f63c 22e6 733e
00000280: 1e71 f5bd afa0 5fbe bc7a 2e3e 4067 dd3d
00000290: 83fd 6b3e cb1f 863d f525 afbd 59cc 733e
000002a0: 93f6 b23d cfbf a13e 6b40 4c3e 4880 d5bd
000002b0: 858d 6cbd fb75 c43d c41b 02bd 6706 ebbc
000002c0: c9b4 aebd 4e21 963d d832 57be 4928 50bc
000002d0: 97ba 013e e7b9 54bd b146 9c3c fdb6 e53d
000002e0: 918b 50be afac 38be 36fd a43e c570 983d
000002f0: b265 d1bb 5b31 bcbc 6c9b 593c 69b5 b3bb
00000300: 0932 edbb faf1 ccbd 0213 09be 85be 483d
00000310: 0f00 dfbd 012d 813d 884a 7e3e 9c14 e8b9
00000320: adbf 033e baf5 163d 8105 b53e 2a28 4f3d
00000330: cccf e3bc 38e4 28be e7a8 60be 0a5a 253d
00000340: a881 fa3d 1efc 0c3e 3a0d 063e 8496 0c3d
00000350: bca4 6f3c 87a5 4f3e 1ed7 463e 7c54 1f3e
00000360: 3eea 393e be35 0ebd 28e1 033d 11f8 d9bc
00000370: 058e b7bd 52f3 01be fb46 a0bc d752 9d3b
00000380: 9789 7d3e a66a e0bd ad3b ee3d 23f7 9e3d
00000390: 171a 9e3d 95f9 f1bd 4b09 133d d94b 0cbe
000003a0: 6844 82bd 4217 1d3e 26c3 3b3e b811 da3c
000003b0: 1bc9 27bd f405 42be 2f6f 273b 199f b13d
000003c0: 0eb9 3c3e 123a 2fbc 9ebc a13d 3a60 25bd
000003d0: 0d08 dcbd 7da3 3bbe 99ee 833e cfe7 70bd
000003e0: ccd6 a43d eb78 b23e 4cd4 403d 7018 483b
000003f0: d7d9 c33d 1a26 8c3e be54 7ebd c357 d23c

layer4.bias f4 [9]
-0.013310407 -0.0106897615 -0.023268713 0.012971274 -0.015430054 0.0007530658 -0.0065056044 0.0066966964
-0.009254036
00000000: e513 5abc 1c24 2fbc 079e bebc 7785 543c
00000010: 56ce 7cbc 6469 453a f72c d5bb f66f db3b
00000020: 3d9e 17bc

layer_norm1.weight f4 [128]
1.0168973 1.0255873 1.0051017 0.9843496 1.0 1.0005645 0.99043 1.0118831
1.0295329 0.99282545 0.98276997 0.9932228 1.0061616 0.99769187 0.9959812 1.032658
1.0029726 0.99869245 0.99543226 0.9969629 0.984481 1.0 0.99703944 0.98945373
1.001459 1.0058181 0.9985442 0.9991543 1.000835 1.0250027 0.9971704 0.99971306
1.003668 0.9948722 0.99018455 1.0031897 0.99744326 1.0111356 1.0097501 0.99541175
1.0055522 0.9950535 0.9880093 0.998194 0.9982327 1.0078434 0.99277884 0.9921804
0.9965309 1.0149524 1.0031136 1.0059564 1.0162438 0.99558246 1.011382 1.0047055
1.0046651 0.99071455 0.99625945 0.9981298 0.99257016 0.99371505 0.9975671 0.9992576
0.98492783 0.9917111 0.9998366 0.99711066 1.0 0.99717534 1.0102609 1.0188298
1.0077332 0.9969346 0.998626 1.0037639 1.0091568 1.0006896 0.99312556 1.0335385
1.0052395 0.99817795 1.0116795 0.9858473 1.0452031 0.9942213 1.006972 0.9989279
1.0 0.9944564 0.99872684 1.0098118 0.9968099 0.9896697 0.99476343 1.0
1.0032427 0.9998344 0.99530965 0.9901626 1.0111542 0.99266386 0.9956733 1.0163565
1.0147117 0.99224913 1.0029824 1.0015028 0.9928653 0.9944444 1.0145013 0.99695796
0.992709 0.9950794 0.9980098 1.030436 0.9907848 0.9996653 1.0044041 1.0570567
0.99711025 0.994455 1.0004356 1.005204 1.0146725 0.99961567 1.0043246 0.9969146
00000000: b129 823f 7246 833f 2ca7 803f 56fe 7b3f
00000010: 0000 803f 7f12 803f d28c 7d3f 6385 813f
00000020: bcc7 833f cf29 7e3f d096 7b3f d943 7e3f
00000030: e7c9 803f bc68 7f3f a0f8 7e3f 232e 843f
00000040: 6861 803f 4faa 7f3f a6d4 7e3f f638 7f3f
00000050: f206 7c3f 0000 803f fa3d 7f3f d74c 7d3f
00000060: cf2f 803f a6be 803f 98a0 7f3f 94c8 7f3f
00000070: 5c1b 803f 4a33 833f 8f46 7f3f 32ed 7f3f
00000080: 3178 803f f2af 7e3f bc7c 7d3f 8568 803f
00000090: 7158 7f3f e46c 813f 7e3f 813f 4ed3 7e3f
000000a0: efb5 803f d4bb 7e3f 2dee 7c3f a489 7f3f
000000b0: 2e8c 7f3f 0301 813f c126 7e3f 89ff 7d3f
000000c0: a61c 7f3f f6e9 813f 0766 803f 2ec3 803f
000000d0: 4714 823f 7ede 7e3f f774 813f 319a 803f
000000e0: de98 803f 789f 7d3f dc0a 7f3f 6f85 7f3f
000000f0: 1419 7e3f 1c64 7e3f 8f60 7f3f 59cf 7f3f
00000100: 3b24 7c3f c7e0 7d3f 4bf5 7f3f a542 7f3f
00000110: 0000 803f e246 7f3f 3b50 813f 0469 823f
00000120: 67fd 803f 1b37 7f3f f4a5 7f3f 567b 803f
00000130: 0d2c 813f 9916 803f 7a3d 7e3f fd4a 843f
00000140: b0ab 803f 9788 7f3f b77e 813f 7d60 7c3f
00000150: 37c9 853f 4a85 7e3f 75e4 803f bdb9 7f3f
00000160: 0000 803f b294 7e3f 90ac 7f3f 8341 813f
00000170: ef2e 7f3f fe5a 7d3f d1a8 7e3f 0000 803f
00000180: 426a 803f 26f5 7f3f 9dcc 7e3f 4c7b 7d3f
00000190: 806d 813f 381f 7e3f 72e4 7e3f f817 823f
000001a0: 13e2 813f 0a04 7e3f ba61 803f 3e31 803f
000001b0: 6c2c 7e3f e893 7e3f 2edb 813f a338 7f3f
000001c0: 2d22 7e3f 86bd 7e3f 927d 7f3f 54e5 833f
000001d0: 13a4 7d3f 11ea 7f3f 5090 803f a24d 873f
000001e0: 9e42 7f3f 9a94 7e3f 460e 803f 86aa 803f
000001f0: cae0 813f d0e6 7f3f b58d 803f cc35 7f3f

layer_norm1.bias f4 [128]
0.015800409 0.0075592087 0.003360843 -0.009737541 0.0 -0.004381005 -0.008581872 0.011026062
0.022724565 -0.0059148683 -0.01666825 -0.009706454 0.0054782033 -0.0048921453 -0.0019035119 0.0180228
-0.0001908225 0.0023230028 0.001999416 0.0020393257 -0.012189906 0.0 -0.0065767886 -0.005535114
0.0066071013 0.0029272176 0.0011555047 0.0033755118 -0.00013767008 0.0057711387 -0.0022689607 0.0008963705
0.0021202995 -0.0057350765 -0.0066784085 0.0019387422 -0.0013548125 0.014063386 0.0075656027 -0.0058265883
0.008571656 -0.004346984 -0.012164026 0.011051365 0.0035022728 0.009617821 -0.0072766757 0.000112051115
-0.0054234327 0.008856353 0.011499858 0.0097702015 0.007466103 -0.0063421535 0.006762148 0.0008739484
0.0043494683 -0.0035745273 -0.0037955686 0.0009873036 -0.00835941 -0.008697601 -0.0016974945 -0.0010986732
-0.012475403 -0.0072575686 -2.355503e-05 -0.0006256275 0.0 -0.0017450685 0.0028767725 0.014737178
0.008698755 -0.00845498 0.0042876345 0.0021438494 0.0037635632 0.00311531 -0.0069646207 0.020763671
0.0072345603 -0.0010281762 0.0143798785 -0.009841622 0.01853324 -0.0067641246 0.0039529814 -0.0016936988
0.0 -0.006467339 -0.0019260836 -0.0014549665 0.0012129281 -0.011163656 -0.007087894 0.0
0.0020535013 -0.00048948545 -0.0061409753 -0.005673245 0.0069141453 -0.010193692 0.00237839 0.007222964
0.005163529 -0.009811012 5.781082e-05 0.0012122171 -0.005545779 -0.003865233 0.007196397 -0.010811221
-0.009668926 -0.0057626683 -0.0018118923 0.021264251 -0.009715841 0.0020901216 -0.0007423415 0.044462908
-0.00080900226 -0.00063760235 -0.0024537032 0.009417351 0.0110817645 -0.0004132259 -0.0042051445 -0.004719811
00000000: dc6f 813c 3db3 f73b 9741 5c3b 358a 1fbc
00000010: 0000 0000 898e 8fbb fb9a 0cbc a8a6 343c
00000020: de28 ba3c 83d1 c1bb db8b 88bc d207 1fbc
00000030: 8082 b33b 4a4e a0bb 437f f9ba 8da4 933c
00000040: 8617 48b9 853d 183b a208 033b 35a6 053b
00000050: 2cb8 47bc 0000 0000 1a82 d7bb e75f b5bb
00000060: 6280 d83b 90d6 3f3b 4e74 973a b137 5d3b
00000070: 885b 10b9 d21b bd3b d8b2 14bb 68fa 6a3a
00000080: b9f4 0a3b 4fed bbbb 8dd6 dabb 651d fe3a
00000090: f793 b1ba 1e6a 663c e0e8 f73b f7ec bebb
000000a0: 2270 0c3c 2571 8ebb 9f4b 47bc c910 353c
000000b0: 6386 653b 1194 1d3c 2e71 eebb fcfc ea38
000000c0: 0db7 b1bb 3d1a 113c e769 3c3c 3213 203c
000000d0: 36a6 f43b d7d1 cfbb 0295 dd3b af19 653a
000000e0: fc85 8e3b 9e42 6abb 13bf 78bb 6968 813a
000000f0: e8f5 08bc 6280 0ebc 777e deba 5b01 90ba
00000100: a265 4cbc e6d0 edbb 0b98 c5b7 2701 24ba
00000110: 0000 0000 c8ba e4ba 3c88 3c3b 3474 713c
00000120: 3985 0e3c c286 0abc 497f 8c3b d37f 0c3b
00000130: 1da6 763b 3b2a 4c3b 7937 e4bb 9318 aa3c
00000140: e40f ed3b dec3 86ba 9599 6b3c c13e 21bc
00000150: 05d3 973c 97a5 ddbb 0388 813b 1aff ddba
00000160: 0000 0000 f9eb d3bb a474 fcba 93b4 beba
00000170: 1dfb 9e3a c4e7 36bc 9041 e8bb 0000 0000
00000180: 0994 063b d050 00ba 3c3a c9bb a1e6 b9bb
00000190: 0e90 e23b 7103 27bc c3de 1b3b 9dae ec3b
000001a0: d232 a93b 5ebe 20bc e579 7238 42e3 9e3a
000001b0: 5eb9 b5bb d94f 7dbb c1cf eb3b 8c21 31bc
000001c0: 6a6a 1ebc c4d4 bcbb 047d edba 5e32 ae3c
000001d0: 312f 1fbc 6cfa 083b b299 42ba bd1e 363d
000001e0: 3913 54ba c524 27ba 4fce 20bb 3c4b 1a3c
000001f0: 4a90 353c 3ea6 d8b9 4fcb 89bb a5a8 9abb

layer_norm2.weight f4 [128]
0.99357814 0.9948669 1.0048051 1.0388987 0.9994735 1.0976593 1.0017409 1.0021822
0.99358904 0.9951196 1.0090744 0.9947171 1.0089173 0.9980449 0.99594456 1.0174569
1.0006988 1.0233676 1.0015383 0.9890022 1.0065242 0.99773747 0.99316734 0.99300325
1.0146432 0.998958 1.0016451 0.99697196 1.0041355 0.9966344 0.9906593 1.0129082
1.001195 0.9966975 0.99771696 1.0307312 0.9982387 0.9992477 1.0234755 0.9917396
0.99713296 1.0009867 1.0094633 0.99951375 0.9921195 1.0209564 0.9986317 0.99355334
1.006493 0.9993896 0.99099743 1.0015849 1.0868906 1.0092018 1.0075239 1.0195132
0.9970654 0.99954236 0.9956252 1.0229518 1.0470592 1.0070292 0.9931603 0.99325603
1.0282645 0.99197835 1.0045644 1.0036817 0.99868673 0.9972125 1.0030818 1.0126425
1.0031776 0.9999737 0.9996468 1.0015646 0.9987475 1.004633 0.9973775 1.022337
0.9962708 0.99181795 1.0169244 1.0104703 0.9952094 1.0011183 1.0261017 0.9994737
1.005657 1.0060407 1.0007868 1.0014799 1.0001781 0.99362844 0.99480873 0.99664545
1.0115864 0.99203193 0.9942213 0.99336106 0.9913713 0.995895 0.9992353 1.0069999
1.0178481 0.9918784 0.98124415 1.0005502 1.0295293 1.0826306 0.9914905 0.99533075
0.99530274 0.99696255 0.9985942 1.0476862 1.0755805 0.99245834 0.9978281 1.0892141
1.043144 0.9941108 1.009929 0.9956246 0.995241 1.0020983 1.0145485 1.0269268
00000000: 235b 7e3f 99af 7e3f 749d 803f a2fa 843f
00000010: 7fdd 7f3f 1a80 8c3f 0c39 803f 8247 803f
00000020: da5b 7e3f 28c0 7e3f 5a29 813f c8a5 7e3f
00000030: 3424 813f df7f 7f3f 39f6 7e3f 073c 823f
00000040: e616 803f b6fd 823f 6832 803f 402f 7d3f
00000050: c9d5 803f b96b 7f3f 3740 7e3f 7635 7e3f
00000060: d4df 813f b6bb 7f3f e835 803f 8e39 7f3f
00000070: 8387 803f 6f23 7f3f d99b 7d3f faa6 813f
00000080: 2827 803f 9127 7f3f 616a 7f3f 00ef 833f
00000090: 928c 7f3f b3ce 7f3f 3f01 833f a5e2 7d3f
000000a0: 1b44 7f3f 5520 803f 1836 813f 22e0 7f3f
000000b0: 8bfb 7d3f b3ae 823f 54a6 7f3f 8359 7e3f
000000c0: c3d4 803f ffd7 7f3f 02b2 7d3f ef33 803f
000000d0: 3b1f 8b3f 862d 813f 8bf6 803f 697f 823f
000000e0: ae3f 7f3f 02e2 7f3f 4be1 7e3f 16f0 823f
000000f0: 0906 863f 55e6 803f c13f 7e3f 0746 7e3f
00000100: 2c9e 833f 4bf2 7d3f 9195 803f a478 803f
00000110: efa9 7f3f 5249 7f3f fc64 803f 459e 813f
00000120: 2068 803f 47fe 7f3f dae8 7f3f 4533 803f
00000130: ebad 7f3f d097 803f 2254 7f3f f0db 823f
00000140: 9a0b 7f3f c8e7 7d3f 942a 823f 1757 813f
00000150: 0bc6 7e3f a524 803f 4d57 833f 82dd 7f3f
00000160: 5eb9 803f f1c5 803f c819 803f 7e30 803f
00000170: d605 803f 6f5e 7e3f c9ab 7e3f 2824 7f3f
00000180: aa7b 813f cef5 7d3f 4a85 7e3f e94c 7e3f
00000190: 82ca 7d3f faf2 7e3f e2cd 7f3f 5fe5 803f
000001a0: d948 823f beeb 7d3f d132 7b3f 0712 803f
000001b0: 9ec7 833f a493 8a3f 52d2 7d3f ffcd 7e3f
000001c0: 29cc 7e3f f038 7f3f dfa3 7f3f 951a 863f
000001d0: 9fac 893f c011 7e3f aa71 7f3f 5e6b 8b3f
000001e0: be85 853f 0c7e 7e3f 5a45 813f 41e1 7e3f
000001f0: 1dc8 7e3f c244 803f badc 813f 5672 833f

layer_norm2.bias f4 [128]
-0.004137502 -0.0042414917 0.0037679565 0.010151054 -0.0017967026 0.059202522 0.0022297387 -0.0011465703
-0.0010256935 -0.00846183 0.0034598175 -0.0019792137 0.0071421503 -2.5863834e-05 -0.0039891466 0.010157434
-0.00046907383 0.014097771 0.0019100232 -0.014005065 0.0059747826 -0.0043865503 -0.005620476 -0.012065816
0.009506364 -0.0048398916 0.005563095 -0.0039140456 -0.0029126406 -0.0066905217 -0.002172441 0.0048008524
-0.0005654243 -0.0020221914 -0.0017605487 0.023539249 0.0026664229 -0.002143681 0.0068276324 -0.00084429537
-0.0040206886 0.0021795027 0.005403713 -0.006371322 -0.010092012 0.00987036 -0.004283628 -0.0050644125
0.0051326077 -0.0028068074 -0.0063381786 0.006377377 0.036092333 0.0065779076 -0.002837087 0.010812227
-0.0056988075 0.002182537 -0.0042766402 0.011758902 0.018705089 0.005128808 -0.008583263 -0.005812217
0.025281228 -0.009260855 0.0016960093 0.00039883365 -0.00036923276 -0.0058409832 0.00097550446 0.014293386
0.0021107784 -0.0011791533 -0.0004007171 0.00035489624 -0.0053149345 0.002866502 -0.0011580244 0.012699093
-0.0037685705 -0.0074806586 0.008092197 0.00821618 0.00056913914 0.00011035412 0.023596874 -0.0061555053
0.0047025615 -0.0008146625 0.0012926682 0.0007047592 -0.0030952308 -0.003469125 -0.0075912126 -0.0025071087
0.0069759283 -0.0062172324 -0.0064785043 -0.01015791 -0.0066213836 -0.0050539193 -0.003611901 0.011711093
0.008978149 -0.010371098 -0.01487825 0.004744727 0.013335352 0.033666775 -0.010742269 -0.0043477514
-0.008930941 0.0019346965 0.004920935 0.023502361 0.03465832 -0.009206069 0.00078792404 0.05910501
0.016068589 -0.003568953 0.00867241 -0.005180531 -0.007504196 0.004397586 0.0041214703 0.014274773
00000000: e293 87bb 36fc 8abb d2ef 763b 9b50 263c
00000010: 567f ebba 587e 723d cf20 123b 8448 96ba
00000020: 9070 86ba 7da3 0abc 1bbe 623b b2b5 01bb
00000030: b308 ea3b 29f6 d8b7 63b7 82bb 5e6b 263c
00000040: 06ee f5b9 56fa 663c be59 fa3a 8075 65bc
00000050: 1cc8 c33b 0dbd 8fbb f82b b8bb b3af 45bc
00000060: 95c0 1b3c f497 9ebb a04a b63b 6541 80bb
00000070: 00e2 3ebb 2a3c dbbb 835f 0ebb 7850 9d3b
00000080: fc38 14ba be86 04bb 36c2 e6ba 62d5 c03c
00000090: 27bf 2e3b 007d 0cbb 55ba df3b b453 5dba
000000a0: fbbf 83bb fdd5 0e3b a111 b13b 86c6 d0bb
000000b0: f758 25bc 4ab7 213c ad5d 8cbb 5ff3 a5bb
000000c0: 6f2f a83b 6af2 37bb 7fb0 cfbb 51f9 d03b
000000d0: 8ed5 133d 7d8b d73b 6cee 39bb c425 313c
000000e0: 10bd babb e508 0f3b 0f23 8cbb 69a8 403c
000000f0: 6a3b 993c 8f0f a83b d0a0 0cbc 6974 bebb
00000100: 941a cf3c d7ba 17bc a14c de3a 8c1a d139
00000110: 9595 c1b9 b865 bfbb ffb8 7f3a ce2e 6a3c
00000120: fc54 0a3b d28d 9aba 5717 d2b9 5e11 ba39
00000130: e728 aebb ecdb 3b3b dac8 97ba db0f 503c
00000140: 1ffa 76bb 5020 f5bb 2295 043c 289d 063c
00000150: 4832 153a eb6d e738 3b4e c13c 1fb4 c9bb
00000160: f217 9a3b 138f 55ba bf6e a93a 97bf 383a
00000170: 5bd9 4abb 425a 63bb b5bf f8bb 4e4e 24bb
00000180: 5496 e43b edb9 cbbb a249 d4bb 5d6d 26bc
00000190: 31f8 d8bb 599b a5bb a5b5 6cbb e2df 3f3c
000001a0: 1619 133c 8aeb 29bc e7c3 73bc a879 9b3b
000001b0: 857c 5a3c 2ce6 093d 5800 30bc 9577 8ebb
000001c0: 1553 12bc a495 fd3a cb3f a13b 0688 c03c
000001d0: e2f5 0d3d 0dd5 16bc b08c 4e3a 1818 723d
000001e0: 46a2 833c 18e5 69bb b916 0e3c 72c1 a9bb
000001f0: c2e5 f5bb a019 903b 660d 873b bde0 693c

layer_norm3.weight f4 [64]
0.9994603 1.008227 1.0003172 1.0064245 0.99758637 1.0804065 1.0140517 1.008425
1.0507977 1.0247241 1.0070862 0.999192 1.0278463 1.0101753 1.0255582 1.006538
1.0000454 1.0370665 1.0706235 1.0010718 0.99529976 1.0275843 1.0596114 0.99374914
1.0120765 1.0205464 1.0664297 1.0263058 1.0111337 1.0536057 1.0226251 1.0670669
1.084463 1.0021849 0.9983606 1.0401908 1.0176061 0.99241966 1.0045319 0.9930466
1.0483409 1.0209106 1.013256 0.99444956 1.0252494 0.99882627 0.9981088 1.0063778
1.1001328 1.0080425 0.99903667 0.997303 0.99673116 1.0057837 1.0306587 0.9965551
1.0178467 1.0820105 1.0206026 1.0588331 0.99859774 0.9985813 1.0367719 1.0013206
00000000: a1dc 7f3f 950d 813f 650a 803f 85d2 803f
00000010: d261 7f3f c34a 8a3f 72cc 813f 1214 813f
00000020: 8a80 863f 292a 833f 33e8 803f 0ccb 7f3f
00000030: 7890 833f 6d4d 813f 7e45 833f 3dd6 803f
00000040: 7d01 803f 98be 843f 310a 893f 1f23 803f
00000050: f7cb 7e3f e287 833f 59a1 873f 5866 7e3f
00000060: b98b 813f 44a1 823f c580 883f fd5d 833f
00000070: d46c 813f 8ddc 863f 61e5 823f a695 883f
00000080: afcf 8a3f 9847 803f 8f94 7f3f f924 853f
00000090: eb40 823f 370f 7e3f 8094 803f 4d38 7e3f
000000a0: 0930 863f 33ad 823f 5fb2 813f 3f94 7e3f
000000b0: 5f3b 833f 14b3 7f3f 0f84 7f3f fdd0 803f
000000c0: 27d1 8c3f 8907 813f dec0 7f3f 404f 7f3f
000000d0: c629 7f3f 85bd 803f a0ec 833f 3c1e 7f3f
000000e0: cd48 823f 527f 8a3f 1ba3 823f d887 873f
000000f0: 1aa4 7f3f 06a3 7f3f f1b4 843f 462b 803f

layer_norm3.bias f4 [64]
-0.0012615303 -0.0039491453 0.0068912073 0.0075757196 -0.0025562928 0.03098298 0.011384492 0.013082894
0.012539972 0.01872513 0.006045941 -0.0006508049 0.009791402 0.00628836 0.007921053 0.01101163
-0.0010771232 0.020176517 0.040463515 -0.0017184404 -0.0066553624 0.009158943 0.03262316 -0.008926224
0.0057233744 0.012313382 0.03333033 0.012972228 0.004304419 0.011143207 0.010967762 0.014187123
0.060246512 0.0039345883 -0.0017334048 0.028292652 0.0057273307 -0.008571918 0.0025636614 -0.00958871
0.019564142 0.0028076943 0.011334416 -0.0082503725 0.007691183 -0.001995208 -0.0012366386 0.0022259718
0.061762545 0.010520668 -0.0026115433 -0.0022726918 -0.0040901876 0.0045406977 0.019274382 -0.0047561103
0.00931168 0.05135617 0.008245481 0.02287337 -0.0027725575 -0.0018529227 0.015856156 0.0016279714
00000000: ef59 a5ba d567 81bb a3cf e13b be3d f83b
00000010: 7a87 27bb 05d0 fd3c 0586 3a3c a259 563c
00000020: 7474 4d3c 7265 993c 071d c63b c79a 2aba
00000030: 1e6c 203c 960e ce3b 4ec7 013c 206a 343c
00000040: 422e 8dba 3949 a53c 12bd 253d 4b3d e1ba
00000050: 3a15 dabb 640f 163c dd9f 053d 4c3f 12bc
00000060: 258b bb3b 11be 493c 6285 083d 7889 543c
00000070: 150c 8d3b ff91 363c 21b2 333c 1b71 683c
00000080: 0cc5 763d b8ed 803b 6a33 e3ba fec5 e73c
00000090: 55ac bb3b 3b71 0cbc 1a03 283b f719 1dbc
000000a0: fb44 a03c 4b01 383b fdb3 393c 922c 07bc
000000b0: 5206 fc3b 09c2 02bb b516 a2ba 9ce1 113b
000000c0: b9fa 7c3d e15e 2c3c 6d26 2bbb 71f1 14bb
000000d0: fb06 86bb 22ca 943b 4fe5 9d3c 25d9 9bbb
000000e0: 0490 183c d95a 523d 0e18 073c ef60 bb3c
000000f0: ccb3 35bb c5dd f2ba c5e4 813c a861 d53a
