rl_energy_manager_20250326_0852/models/best_reward_model/critic.pth (torch, 239522 bytes, 26 tensors)

q1_layer1.weight f4 [128, 27]
0	0xbe075b31	-0.1321838
1	0x3d7cfeb2	0.061766334
2	0xbd0feb41	-0.035136465
3	0xbe021db5	-0.12706645
4	0x3c818646	0.015811097
5	0xbd5b21d4	-0.053499058
6	0x3dd31e5e	0.103085265
7	0x3cfeeb3f	0.031118033
8	0x3c21243d	0.0098353
9	0xbcc5744c	-0.024103306
10	0x3d9779e5	0.073962964
11	0xbd80bfb1	-0.06286562
12	0x3d927084	0.07150367
13	0xbdc4dcca	-0.09612425
14	0x3dda0d9d	0.10647128
15	0xbd4ea93b	-0.05045436
16	0x3e27866c	0.16359872
17	0xbe29e5fb	-0.16591637
18	0x3d39cbf2	0.045360513
19	0xbd97a066	-0.074036404
20	0x3d991252	0.074741974
21	0x3c8cf20a	0.017205257
22	0x3df068ec	0.11738762
23	0x3d012f5d	0.03153931
24	0xbcbcca60	-0.023045719
25	0x3ce5b90a	0.028042335
26	0xbc7c8803	-0.015413287
27	0x3d923c09	0.07140357
28	0xbb8cd43b	-0.004297761
29	0x3e093e75	0.13402732
30	0xbd5e78c9	-0.05431441
31	0xbd84392c	-0.06456217
32	0x3d639bbe	0.05556845
33	0x3bd2978b	0.0064267567
34	0x3e4256f4	0.18978482
35	0x3d36241e	0.044468038
36	0xbe4d25ce	-0.20033953
37	0xbd268581	-0.040654663
38	0x3da7528c	0.081700414
39	0xbda69983	-0.08134749
40	0x3cffc6b0	0.031222671
41	0xbd57b895	-0.052666266
42	0x3c85bf23	0.016326493
43	0xbe333c5f	-0.17503498
44	0xbdc6f6ad	-0.097150184
45	0x3e0163e7	0.12635766
46	0x3d78aaba	0.060709693
47	0xbdbdbb87	-0.092642836
48	0x3d615e87	0.05502179
49	0x3c044ef1	0.008075462
50	0x3d47e221	0.048799638
51	0x3b7ef6c1	0.00389044
52	0xbb4785be	-0.0030444707
53	0x3c82570b	0.015910646
54	0xbbabca48	-0.0052426197
55	0x3d19442f	0.03741854
56	0x3d8b30c3	0.0679641
57	0x3d754973	0.0598845
58	0x3d31fc9a	0.04345379
59	0x3d8e394a	0.06944521
60	0xbdaf965f	-0.08573603
61	0x3de511a4	0.11185005
62	0xbe0a4216	-0.13501772
63	0x3d1d97a4	0.038474694
64	0xbdad9f97	-0.08477705
65	0x3df8be5d	0.12145684
66	0x3df5d1ed	0.12002931
67	0x3d7270f7	0.059189763
68	0x3da259c1	0.079272754
69	0xbe39746f	-0.18110822
70	0xbd4e55c2	-0.050374754
71	0x3da8351d	0.082132556
72	0x3de8bd5b	0.11364242
73	0x3dd2ecc6	0.10299067
74	0xbcdeddef	-0.027205436
75	0x3ce520ac	0.02796968
76	0xbd058c6f	-0.03260463
77	0xbc3adefa	-0.011405701
78	0x3d5b2eac	0.053511307
79	0xbce2393b	-0.02761518
80	0xbcd4c76c	-0.025973998
81	0xbe06e0c5	-0.1317168
82	0x3d65fb11	0.05614764
83	0xbe31e8d0	-0.17373967
84	0xbe6a6151	-0.22888686
85	0xbd82068e	-0.063489065
86	0x3d119b14	0.035548285
87	0xbce6e019	-0.02818303
88	0x3d162c67	0.03666344
89	0xbde425da	-0.11140032
90	0x3db00f62	0.08596684
91	0x3db503a8	0.08838588
92	0x3da76554	0.08173624
93	0x3d470f98	0.048598856
94	0x3d358f79	0.04432628
95	0xbbd6aa04	-0.006551029
96	0x3d103a7a	0.035212018
97	0x3d1475fb	0.036245327
98	0xbd840489	-0.064461775
99	0xbdc241dd	-0.09485219
100	0x3c1d7f67	0.009612895
101	0x3de4234f	0.11139547
102	0xbd53d4e7	-0.05171671
103	0x3da99420	0.08280206
104	0xbc9e5f8e	-0.019332673
105	0xbe062723	-0.13100867
106	0x3d95ffd9	0.0732419
107	0x3d019195	0.03163298
108	0xbcac4622	-0.021029536
109	0xbb31ed19	-0.0027149378
110	0xbd216df8	-0.039411515
111	0xbcb8aa15	-0.022542039
112	0x3db3bfe6	0.08776836
113	0x3cef3003	0.029197698
114	0x3db002bc	0.085942715
115	0xbb892b6b	-0.004186084
116	0xbd438c85	-0.04774143
117	0xbe65fbec	-0.22459382
118	0x3c964dd3	0.018347656
119	0x3e0e18ee	0.13876697
120	0xbdc3261d	-0.09528754
121	0x3d0ebce5	0.034848113
122	0xbd15de9e	-0.036589257
123	0x3d8e513f	0.0694909
124	0x3da233ba	0.07920022
125	0x3e894e02	0.26817328
126	0x3dc3f23c	0.09567687
127	0x3da9c05d	0.082886435
128	0x3da5242a	0.08063538
129	0xbdf9bbdc	-0.121940345
130	0xbdec66b6	-0.11543028
131	0x3e15ea0c	0.14640063
132	0xbe0dd771	-0.13851716
133	0x3e0968a4	0.13418823
134	0xbdcae08d	-0.09906111
135	0xbcdf03c7	-0.02722348
136	0x3c395c0d	0.0113134505
137	0xbe0bad7b	-0.13640396
138	0xbd58a1c1	-0.052888636
139	0xbdc27ceb	-0.094964825
140	0x3e3ffc7c	0.18748659
141	0x3b92abd6	0.004476051
142	0x3d373d14	0.044735983
143	0xbd49ede1	-0.049299125
144	0xbcbcce21	-0.023047509
145	0xbd621b7b	-0.05520199
146	0x3d2517af	0.04030579
147	0xbb4b437f	-0.0031015573
148	0x3e430b43	0.19047265
149	0x3c880aa2	0.016606633
150	0xbd5bbda1	-0.05364764
151	0xbd898bbf	-0.067161076
152	0x3e1b9f6b	0.15197532
153	0x3e021bfc	0.12705988
154	0x3d295af1	0.041346494
155	0x3d679265	0.056536097
156	0xbcc1aa24	-0.0236407
157	0x3c2bcf29	0.010486403
158	0x3d906cd7	0.070520096
159	0x3d322ae9	0.043497954
160	0x3d83045a	0.06397314
161	0xbdaffa9d	-0.085927226
162	0xbe135ad7	-0.14390121
163	0xbd905459	-0.07047338
164	0x3de808bb	0.1132979
165	0xbdea3ea0	-0.11437726
166	0xbd39a573	-0.0453238
167	0x3d8db2f4	0.06918898
168	0xbd28ad2d	-0.04118078
169	0xbd9cce30	-0.07656515
170	0x3d0467d7	0.032325592
171	0xba392a1d	-0.00070634653
172	0x3d2bb413	0.04191978
173	0x3d591669	0.052999888
174	0x3e00d19a	0.12579957
175	0xbc7b36e2	-0.015332909
176	0xbd62a6d0	-0.055334866
177	0xbdad80d3	-0.08471837
178	0x3d410d88	0.047132045
179	0xbd58e1ef	-0.052949842
180	0xbbc40cce	-0.0059829718
181	0x3d80d788	0.06291109
182	0xbd9baea5	-0.0760167
183	0x3d1f66f7	0.038916554
184	0xbd8dc08f	-0.06921493
185	0x3d749a14	0.059717253
186	0xbd5607bd	-0.052253474
187	0xbdd86fae	-0.10568176
188	0x3b2a2413	0.0025961443
189	0xbdf887f8	-0.12135309
190	0x3e0253f3	0.12727337
191	0xbd385506	-0.04500296
192	0xbdb9059f	-0.09034275
193	0xbe07773e	-0.13229081
194	0xbdae310a	-0.08505447
195	0x3e110bcd	0.14164658
196	0xbd01dfa9	-0.03170744
197	0xbd6cd428	-0.057819515
198	0xbce82d62	-0.028341953
199	0x3da3e4b0	0.08002603
200	0xbc791faa	-0.015205303
201	0xbe30abbf	-0.17253016
202	0x3d0e4b2a	0.03473965
203	0xbc01ae78	-0.007915132
204	0x3d1b466a	0.03790895
205	0xbde90434	-0.11377755
206	0xbe066a74	-0.13126546
207	0xbde46929	-0.1115287
208	0xbd2cedca	-0.04221896
209	0xbde95f47	-0.11395126
210	0x3da9abf4	0.082847506
211	0x3d34166d	0.0439667
212	0xbcdaf90a	-0.02673008
213	0x3d441743	0.047873747
214	0xbd4b745c	-0.049671516
215	0x3db8f606	0.090313
216	0xbd337b17	-0.04381856
217	0xbdf06c83	-0.11739447
218	0xbd06128c	-0.03273253
219	0xbc69ab83	-0.014262083
220	0x3902a232	0.00012458189
221	0x3dbfb14d	0.09359989
222	0x3c421353	0.011845428
223	0xbd2455a9	-0.040120754
224	0xbd0d5947	-0.03450897
225	0xbcccdbcd	-0.025007153
226	0xbcc6bbb2	-0.024259422
227	0x3dec18af	0.115281455
228	0x3d191184	0.03737022
229	0xbdc7c320	-0.09754014
230	0xbc6eb61f	-0.014569788
231	0xbe14dd7e	-0.14537618
232	0x3c8285c0	0.015932918
233	0x3db2f25a	0.08737631
234	0x3dc0a27e	0.09405993
235	0xbe3db830	-0.18527293
236	0xbcd871b8	-0.026421413
237	0xbc2ad1bb	-0.01042598
238	0xbc2be956	-0.010492643
239	0x3d6bf520	0.057606816
240	0xbe27de2a	-0.16393343
241	0xbcd63cfb	-0.026152125
242	0xbd957dad	-0.072993614
243	0xbe2c28dc	-0.16812462
244	0x3cac653c	0.021044366
245	0x3ddeff64	0.10888556
246	0xbcd923be	-0.026506301
247	0xbd850dcf	-0.064967744
248	0xbde7cdba	-0.11318536
249	0x3b327392	0.002722953
250	0x3e75e64a	0.2401363
251	0x3d2785e0	0.040899158
252	0xbdfc9ea8	-0.12334949
253	0xbc9d8148	-0.019226685
254	0xbd8de96d	-0.06929288
255	0xba36e3d0	-0.0006976696

q1_layer1.bias f4 [128]
0	0xbc288ded	-0.010287744
1	0xbbcd5847	-0.006266627
2	0x3c0afe9d	0.008483556
3	0xbc5f0fc0	-0.013614595
4	0x3c2845d7	0.010270557
5	0xbc32faf7	-0.0109240925
6	0xbb85a60a	-0.0040786313
7	0xbc1342cd	-0.0089880945
8	0xbc0ffaf4	-0.008787859
9	0x3ade7ef5	0.0016975092
10	0x3a5bd6a8	0.0008386173
11	0xbbd6da93	-0.006556818
12	0xbc252dce	-0.0100817215
13	0x3bb2593c	0.0054427665
14	0xbbf15376	-0.0073646856
15	0x3c320d63	0.010867449
16	0x3c28db2a	0.010306159
17	0x3ade2f10	0.0016951282
18	0x3c0ab597	0.008466146
19	0xbbf26b7e	-0.007398068
20	0x3b3edfcb	0.002912509
21	0xbb873e8d	-0.0041273297
22	0x3bbfb652	0.0058505917
23	0x3bfa00a2	0.00762947
24	0x3b5862d4	0.003301789
25	0x3b97e4d0	0.004635431
26	0x39c9bafd	0.00038477025
27	0x3ad03ca3	0.0015887212
28	0xbbf7043b	-0.007538346
29	0x3c1294e8	0.008946635
30	0x3c1213f9	0.008915895
31	0x3b4b6b02	0.0031039123
32	0xbc1dc626	-0.009629762
33	0x3bee0d01	0.007264734
34	0xbad5ba83	-0.0016306195
35	0xbc1bc347	-0.009507007
36	0x3b19a547	0.002344446
37	0xba879593	-0.0010344259
38	0xbbcca9d4	-0.006245831
39	0x3c1b14b5	0.009465386
40	0x3c48888b	0.012239586
41	0xba05a675	-0.00050983514
42	0x3b93a623	0.004505889
43	0x3bf023dc	0.0073284935
44	0xbaf348b9	-0.0018561102
45	0xbba1a667	-0.004933167
46	0x3c0ed806	0.008718496
47	0xbc17d60a	-0.0092673395
48	0x3c27125d	0.010197249
49	0xbbbe4c83	-0.0058074608
50	0x3bad2378	0.005283769
51	0xbc2c6186	-0.010521298
52	0xbbbee5c7	-0.0058257314
53	0xbb397100	-0.0028296113
54	0x3b294f9e	0.002583481
55	0x3bd0e62b	0.0063750944
56	0xbb23fa36	-0.0025020964
57	0xbb275eaf	-0.0025538614
58	0x3c03780f	0.00802423
59	0x3b960f60	0.0045794696
60	0x39442e67	0.00018709303
61	0xbc1b615e	-0.009483663
62	0x3bd20f81	0.0064105396
63	0xbc1c1ca4	-0.009528313
64	0xbbdef19d	-0.006803705
65	0x3ba2232c	0.0049480405
66	0xbc2c40db	-0.01051351
67	0xbba06d4d	-0.004895842
68	0xbac56552	-0.0015060103
69	0xbb0c4acf	-0.0021406894
70	0xb9d93d45	-0.00041435115
71	0x3aed93f8	0.0018125763
72	0xbbd012da	-0.0063499035
73	0xbb3b2b52	-0.0028559756
74	0xbb30e270	-0.0026990436
75	0x3ba69bc3	0.005084486
76	0xbbce811e	-0.006302013
77	0x3b13749a	0.002249992
78	0xbb8edc66	-0.0043597696
79	0xbae3be93	-0.0017375521
80	0xbc1e99ad	-0.009680194
81	0xbbf42716	-0.0074509485
82	0xbbaf8212	-0.0053560818
83	0x3c3efc16	0.011656782
84	0x3bed6587	0.007244769
85	0x3bc3646d	0.0059628994
86	0x3bc9cdb7	0.0061585563
87	0x3bdf3ecf	0.0068129073
88	0x3bcaa1ff	0.006183862
89	0x3b7302a0	0.0037080422
90	0x3bc79510	0.0060907677
91	0xbb9bea8d	-0.0047581852
92	0xbb900977	-0.0043956595
93	0xbbdd5e61	-0.0067556356
94	0x3c380ce7	0.011233545
95	0x3c2e4bb1	0.010638163
96	0x3c1d22f3	0.009590852
97	0xbc322173	-0.010872233
98	0x3c127d5e	0.008941023
99	0xbb35523e	-0.0027667428
100	0x3a1ff4b9	0.0006101835
101	0xbbb791c6	-0.0056020943
102	0x3c23f066	0.010006046
103	0xbb566c50	-0.0032718368
104	0xbc401e6a	-0.011726001
105	0xbc11f3d1	-0.008908228
106	0xbc5aeb87	-0.013361818
107	0x3be49836	0.006976153
108	0xbbd312af	-0.0064414362
109	0x3c25c8ce	0.010118676
110	0xbac3b81e	-0.001493219
111	0xbc18f5c3	-0.009335938
112	0xba0f45fb	-0.0005465445
113	0x3b9babc3	0.0047507
114	0x3c68f0ea	0.014217595
115	0xbc44809f	-0.011993556
116	0xb97b75d9	-0.00023981127
117	0xbbbf8f12	-0.0058459127
118	0xbbfc0d90	-0.0076920465
119	0x3adab363	0.0016685541
120	0xbbcf50a7	-0.006326753
121	0x39ee0bb1	0.00045403608
122	0x3af80931	0.0018923638
123	0x3c1ed954	0.00969537
124	0x3c167164	0.009182308
125	0x3bb3a5fd	0.005482434
126	0x3bfed0e4	0.0077763665
127	0xbc4e568c	-0.012593877

q1_layer2.weight f4 [128, 128]
0	0x3bdcd2cf	0.0067389975
1	0xbe17adec	-0.1481244
2	0x3d126a73	0.03574605
3	0xbcb11e3c	-0.021620862
4	0x3d96ff7f	0.07372951
5	0x3da3a697	0.07990759
6	0xbccbfec9	-0.024901764
7	0x3dd08a77	0.1018266
8	0x3e18c802	0.14920047
9	0x3c51effc	0.012813564
10	0x3b617868	0.0034404043
11	0xbda4be9a	-0.08044167
12	0x3d90e645	0.070751704
13	0xbe07d1dc	-0.13263649
14	0x3d00ea3d	0.031473387
15	0xbcd39ca4	-0.025831528
16	0x3e270e8f	0.16314147
17	0xbce1a171	-0.027542802
18	0x3daa2769	0.08308298
19	0x3d8fbeb7	0.07018798
20	0x3d843ef3	0.06457319
21	0x3d9fe962	0.07808186
22	0xbe04f6b7	-0.12984739
23	0xbd507903	-0.050896656
24	0xbd0ccfaf	-0.03437775
25	0x3d2107ba	0.03931401
26	0x3afe5550	0.0019404087
27	0xbd00d129	-0.03144947
28	0xbdf05d14	-0.11736503
29	0xbe10d978	-0.14145458
30	0x3db525d3	0.08845105
31	0x3dd6c47b	0.104866944
32	0x3dc343c0	0.09534407
33	0x3def6ba6	0.11690454
34	0x3e1b8899	0.15188827
35	0x3a147754	0.0005663533
36	0x3dc21f03	0.09478571
37	0xbea8ed2c	-0.32993448
38	0x3d227bc3	0.03966881
39	0x3dca5e50	0.0988127
40	0xbd89a168	-0.06720239
41	0xbbacc8fd	-0.005272983
42	0x3c831d3a	0.016005147
43	0x3ddde0d6	0.108339
44	0xbd5d0bc8	-0.053966314
45	0x3cbf1368	0.023324683
46	0xbda7cd0c	-0.081934065
47	0x3d110fe7	0.035415556
48	0x3d990710	0.0747205
49	0x3ceae1f3	0.028672194
50	0x3d4d8f93	0.05018575
51	0xbdb77003	-0.089569114
52	0xbd558d3d	-0.05213665
53	0xbc812716	-0.015765708
54	0xbde01e6f	-0.10943305
55	0x3871d9b4	5.766163e-05
56	0x3d0a0190	0.033692896
57	0xbaeb5ca3	-0.0017956685
58	0x3da5e8e5	0.08101062
59	0x3ce011b3	0.02735219
60	0x3dbec495	0.09314839
61	0x3d903b75	0.070425905
62	0x3da1447a	0.07874389
63	0xbe522d57	-0.20525108
64	0x3e1f079a	0.15530244
65	0xbe0b905d	-0.13629289
66	0x3e1b673b	0.15176098
67	0x3dcb83a7	0.0993722
68	0xbd2e1ce6	-0.04250803
69	0x3d80fbd0	0.062980294
70	0x3d1524b9	0.036411975
71	0xbba0302b	-0.0048885546
72	0x3dc310d8	0.09524697
73	0xbe043aaf	-0.12913011
74	0xbd909553	-0.07059731
75	0x3e03a319	0.12855186
76	0x3da53972	0.080675974
77	0xbd9abc39	-0.07555432
78	0xbdb32868	-0.08747941
79	0xbd0abaa0	-0.033869386
80	0xbc6c9ab0	-0.014441177
81	0xbdd0aa2d	-0.101887085
82	0xbcc9f27d	-0.02465176
83	0x3c52c3d9	0.0128640765
84	0x3cc25bf9	0.023725497
85	0x3d886dff	0.06661605
86	0x3da9c664	0.08289793
87	0xbd3bac21	-0.04581845
88	0x3c9582b3	0.018250799
89	0x3d091ad6	0.03347286
90	0xbe1ca8a2	-0.15298703
91	0x3c9351a3	0.017983263
92	0xbd220463	-0.039554965
93	0xbd008bae	-0.03138321
94	0x3d94b061	0.07260204
95	0xbd51bcf1	-0.05120558
96	0x3e12c888	0.14334309
97	0x3d1e38cd	0.03862839
98	0xbd3e4553	-0.04645283
99	0xbd86bc96	-0.06578939
100	0xbdcc791b	-0.099840365
101	0xbc2c99ef	-0.0105347475
102	0xbe174e08	-0.1477586
103	0x3d1eb9eb	0.038751524
104	0x3cdfa56d	0.02730056
105	0x3d225253	0.03962929
106	0x3d324474	0.043522313
107	0x3e160343	0.14649682
108	0x3c4f2cc7	0.012644953
109	0x3dfc19bd	0.12309597
110	0x3d95cdfc	0.07314679
111	0xbd879ec8	-0.06622082
112	0xbdb859a9	-0.09001476
113	0x3ba12554	0.00491778
114	0x3e1c1e36	0.152459
115	0x3d0dfc7c	0.034664616
116	0x3cf1d836	0.029522043
117	0x3d8b359e	0.06797336
118	0x3d9c29f4	0.076251894
119	0xbdafd0a6	-0.085847184
120	0xbcbfcad3	-0.023412144
121	0xbe1bf90c	-0.15231723
122	0x3cec2997	0.028828425
123	0x3e0f6ef8	0.14007175
124	0x3e475d51	0.19469191
125	0xbd661351	-0.056170765
126	0x3d7d6d1a	0.061871625
127	0x3d92cf30	0.07168424
128	0xbc28ea43	-0.010309759
129	0x3d8c4319	0.06848735
130	0x3ac99180	0.0015378445
131	0x3cefc1f6	0.029267292
132	0x3e02577d	0.12728687
133	0x3dd68eb3	0.104764365
134	0x3e1776db	0.14791434
135	0x3daceb00	0.0844326
136	0x3cec4716	0.02884249
137	0x3e04eb3f	0.12980364
138	0x3da13b08	0.078725874
139	0x3dea4762	0.114393964
140	0xbdc83166	-0.09775047
141	0x3e2f41d0	0.17114949
142	0x3ba70b6a	0.005097796
143	0x3e10ee3f	0.14153384
144	0x3a3c60df	0.0007186066
145	0xbdd35ee6	-0.10320835
146	0x3e063096	0.13104472
147	0x3d160e54	0.036634758
148	0x3e07b782	0.13253596
149	0xbc441bd4	-0.011969525
150	0x3d21e041	0.039520506
151	0xbcdb864a	-0.026797432
152	0x3c26598a	0.010153184
153	0x3d3b24da	0.04568944
154	0x3d56974b	0.052390378
155	0xbc94a5b1	-0.018145414
156	0xbe0056e5	-0.12533148
157	0xbd7ece49	-0.062208448
158	0x3cafda3b	0.021466365
159	0xbd1c76cd	-0.038199235
160	0xbe4824da	-0.19545308
161	0xbd3be3a0	-0.045871377
162	0xbdc75616	-0.097332165
163	0x3c9e4707	0.019320978
164	0xbdc3df9f	-0.09564137
165	0x3c2cc01f	0.010543852
166	0xbddf282b	-0.10896333
167	0xbc13d1ed	-0.009022218
168	0x3e69b539	0.22823037
169	0x3dad0757	0.084486656
170	0x3c60bdc1	0.013717116
171	0x3e058670	0.13039565
172	0x3d780b98	0.06055793
173	0x3df532ea	0.11972602
174	0xbbd88783	-0.006607951
175	0xbda075e6	-0.07834987
176	0x3d93668f	0.07197296
177	0x3d66e1bb	0.056367617
178	0x3bd79cce	0.006579972
179	0x3e2595ee	0.16170475
180	0x3da14993	0.07875361
181	0xbe0e58a9	-0.13901009
182	0x3d983fae	0.07434021
183	0x3d084dc2	0.03327728
184	0xbd75ef69	-0.060042772
185	0x3c7b19c8	0.015325971
186	0xbcb64c77	-0.022253258
187	0x3d5b2178	0.053498715
188	0x3d731514	0.059346274
189	0x3be3c6cc	0.0069511887
190	0xbd32af46	-0.043624185
191	0xbd96357b	-0.07334419
192	0xbe2710e9	-0.16315044
193	0x3de633ef	0.11240374
194	0x3dc05f34	0.093931586
195	0xbe2684f9	-0.16261663
196	0x3d56f096	0.052475534
197	0x3cc7f980	0.024410963
198	0x3db00d51	0.0859629
199	0x3d80d3aa	0.06290372
200	0x3d37a089	0.044830833
201	0xbcba66c2	-0.022754077
202	0xbda0c856	-0.07850711
203	0x3d8ba38f	0.06818306
204	0x3c4202d9	0.011841499
205	0x3b794fff	0.0038042066
206	0x3d6236cc	0.05522804
207	0x3e38aba6	0.18034229
208	0xbe1f2593	-0.15541677
209	0xbdc1f1b2	-0.09469928
210	0xbd52c9c2	-0.051461942
211	0xbc6a01b1	-0.01428263
212	0xbcbea800	-0.023273468
213	0x3d3e1f4f	0.046416577
214	0x3e006153	0.12537126
215	0x3d8466e2	0.06464936
216	0xbdfdc877	-0.12391751
217	0x3dbbd3c5	0.09171251
218	0xbd1d5a4a	-0.038416184
219	0xbd18fe41	-0.03735185
220	0x3d4192e9	0.047259245
221	0xbcab4da6	-0.02091105
222	0x3d546b76	0.051860295
223	0x3ce0c8b3	0.02743945
224	0x3aa20fba	0.0012364306
225	0x3d45327d	0.048143853
226	0x3e30db2a	0.17271104
227	0x3da99bac	0.08281645
228	0x3cc8e94c	0.024525307
229	0x3b3c1a58	0.0028702226
230	0xbe58aee7	-0.2116047
231	0xbc8b3b69	-0.016996102
232	0xbd609464	-0.054829016
233	0x3de41013	0.111358784
234	0xbc62a1be	-0.013832508
235	0xbd7dabcb	-0.061931413
236	0xbdf73639	-0.12070889
237	0xbcd4b80e	-0.02596667
238	0x3e29c9b0	0.16580844
239	0x3db8382c	0.08995089
240	0xbd96bc5b	-0.07360145
241	0xbc3cbec8	-0.011520095
242	0x3d523d5f	0.05132806
243	0x3c7caefd	0.01542258
244	0x3e83de1f	0.25755402
245	0x3c8bdcaf	0.017073004
246	0xbda5279d	-0.08064196
247	0xbe011656	-0.12606177
248	0xbcbde5e5	-0.023180911
249	0x3d89d17f	0.06729411
250	0xbc4b0375	-0.012390961
251	0x3d2e13f2	0.04249949
252	0x3dd57f6b	0.10424694
253	0xbde198b8	-0.11015457
254	0xbe124945	-0.14285763
255	0x3d0ece13	0.034864496

q1_layer2.bias f4 [128]
0	0x3bfd7573	0.0077349483
1	0x3c4eda0a	0.012625227
2	0x3a9b2e3d	0.0011839342
3	0x3be476ce	0.0069721704
4	0x3b012346	0.0019704862
5	0xbb103810	-0.0022006072
6	0x3a42b86b	0.0007427993
7	0xbc4ce548	-0.012505837
8	0x3bb1f6b9	0.005431023
9	0x3bde72c9	0.006788586
10	0x3c15d8a3	0.0091458885
11	0xbc2c4c39	-0.01051622
12	0xbb5c7ec2	-0.003364489
13	0x3c40b98c	0.011762988
14	0xbc00335b	-0.007824744
15	0x3afc9c78	0.0019272706
16	0x3c18d70e	0.009328617
17	0xbcbef873	-0.02331183
18	0x3b894721	0.0041893874
19	0x3c0a273a	0.008432204
20	0xb9d32b77	-0.0004027744
21	0xbc0ec3fe	-0.00871372
22	0xbc0dcc20	-0.008654624
23	0x3bc22b17	0.005925547
24	0x3c0d5a33	0.008627462
25	0xbc1aadd4	-0.009440858
26	0x39adc17e	0.00033141294
27	0x3b46ab99	0.0030314683
28	0x3c408b5e	0.011751978
29	0xbb9efa6e	-0.004851631
30	0xbc6825d5	-0.014169176
31	0x3a4b7f7e	0.0007762833
32	0xb9e96a2a	-0.00044520322
33	0xbb1a82ed	-0.0023576573
34	0xbbf2b8b9	-0.0074072746
35	0xbc03a730	-0.008035466
36	0xbc3676d8	-0.011136733
37	0xbc71ae3b	-0.014751012
38	0x3be22f88	0.006902639
39	0xbc131aed	-0.008978588
40	0x3bc4a2c3	0.006000848
41	0x3bec3749	0.007208739
42	0x3c1d4aea	0.00960038
43	0x3becee5f	0.0072305645
44	0xbbe0204d	-0.006839788
45	0xbb8c8ebd	-0.0042894767
46	0xbc04cc65	-0.008105372
47	0xbc1b9226	-0.009495294
48	0x3b9874a7	0.004652578
49	0xbc083167	-0.00831256
50	0xbc1499ec	-0.009069901
51	0x3c3ad1db	0.0114025725
52	0xbbb67104	-0.0055676717
53	0xbba0e2dd	-0.0049098567
54	0xbbef72ec	-0.007307401
55	0xbc04876a	-0.008088926
56	0xbc27ae6e	-0.010234458
57	0x3ba15d22	0.0049244324
58	0xbc4e4fe8	-0.012592293
59	0xbc917782	-0.017757181
60	0xbc128c8d	-0.008944643
61	0xbc2a9913	-0.010412472
62	0xbc18ecb0	-0.009333774
63	0xbbc640a3	-0.0060501858
64	0xbc3b4b64	-0.011431549
65	0xbc3b2ba7	-0.011423982
66	0x3c008dd9	0.007846319
67	0xbbc6e1e9	-0.006069411
68	0x3c273e89	0.010207781
69	0xbb30b799	-0.0026964901
70	0x3c33cbcc	0.010973882
71	0xbb4145bc	-0.0029491028
72	0x3b586f58	0.003302535
73	0xbc540188	-0.012939818
74	0xbbd894d3	-0.006609538
75	0x3c2c5fe9	0.010520914
76	0x3bc7b712	0.0060948217
77	0xbc04a273	-0.008095372
78	0x3bcfacac	0.0063377228
79	0xbc345336	-0.011006167
80	0xbc430695	-0.011903425
81	0x3bb71ba7	0.005588013
82	0x3bff5f73	0.007793361
83	0x3b65fad3	0.003509213
84	0xbca4fe9c	-0.020140938
85	0xba6e1154	-0.00090815616
86	0xba7018ed	-0.00091589877
87	0xbc3132e0	-0.010815352
88	0xbaaaa72c	-0.0013019792
89	0xbb73981c	-0.0037169522
90	0xbc1f3984	-0.009718303
91	0xbc10d915	-0.008840819
92	0xbbd8fe4d	-0.006622112
93	0x3c32c87a	0.010912055
94	0xbbf49a10	-0.0074646547
95	0x3c422461	0.011849494
96	0x3c380690	0.011232033
97	0xbb8fd980	-0.0043899417
98	0xbb92ced6	-0.004480223
99	0x3aa7cce1	0.0012802148
100	0x3c47b7dd	0.0121898325
101	0x3c506779	0.012719982
102	0xba7af23b	-0.00095728383
103	0x3c2ec5c9	0.010667273
104	0xbb2057a4	-0.00244663
105	0x3c0e68c7	0.008691973
106	0xbba3f58a	-0.005003636
107	0xbbfd8954	-0.007737318
108	0xbc299b94	-0.010352034
109	0x3c1ddd3b	0.009635265
110	0xbbe25447	-0.0069070193
111	0x3c02d50f	0.007985367
112	0x3b29cc3b	0.0025909084
113	0xbbfddc99	-0.0077472446
114	0xbc0f948c	-0.008763444
115	0x3bcc0639	0.0062263277
116	0x3c69de5f	0.014274209
117	0x3bd16d7d	0.006391226
118	0x3c42ca93	0.011889118
119	0x3af2885b	0.0018503772
120	0x3bf1086b	0.00735574
121	0x3c16e7dd	0.009210554
122	0xbc0af632	-0.008481549
123	0xbc4419f3	-0.011969077
124	0x3b1b8693	0.0023731336
125	0xbb93d657	-0.0045116353
126	0xbc1cac54	-0.009562571
127	0x3c13ba8a	0.009016642

q1_layer3.weight f4 [64, 128]
0	0xbe1f5d5d	-0.15562959
1	0x3e358b68	0.1772896
2	0x3d345748	0.04402855
3	0xbda570b4	-0.08078137
4	0x3d5f9ed1	0.05459482
5	0x3ce3de53	0.027815973
6	0xbdcbaa16	-0.09944551
7	0xbd57a165	-0.052644152
8	0xbe85aba0	-0.26107502
9	0xbdd8a522	-0.105783716
10	0xbe4ca834	-0.1998604
11	0xbd7d89b3	-0.0618989
12	0x3d89001c	0.06689474
13	0xbd0fc361	-0.035098437
14	0xbd11f7fa	-0.03563688
15	0xbc35de81	-0.011100412
16	0xbda8b5ed	-0.082378246
17	0x3c69936e	0.014256341
18	0x3da0971b	0.07841321
19	0xbe1341a4	-0.14380509
20	0xbc1f4c00	-0.00972271
21	0x3c94a77e	0.018146273
22	0xbdc2fbf3	-0.09520712
23	0x3d8d2a98	0.0689289
24	0x3e07f088	0.13275349
25	0xbdb3858a	-0.08765705
26	0x3d2ace99	0.041700933
27	0x3da10609	0.07862479
28	0x3d865d09	0.06560714
29	0xbd0e0548	-0.034673005
30	0x3daf77eb	0.085677944
31	0x3d7115db	0.058858734
32	0x3d54f300	0.051989555
33	0x3ce3f0a3	0.027824705
34	0xbdadd42d	-0.08487735
35	0xbe193e59	-0.1496519
36	0xbd6b91d4	-0.05751212
37	0xbd013fe9	-0.03155509
38	0xbdf54108	-0.11975294
39	0x3cd4f7e7	0.025997115
40	0x3d93c5d5	0.07215468
41	0x3d486dc9	0.048932824
42	0xbd0dbadd	-0.034602035
43	0xbdb971ac	-0.09054884
44	0xbbd3b2bb	-0.0064605153
45	0x3e07b7dc	0.1325373
46	0x3e311ab3	0.17295341
47	0xbca31667	-0.019908143
48	0xbbed67b0	-0.0072450265
49	0xbd35b510	-0.044362128
50	0xbd746056	-0.059662186
51	0x3d81d58e	0.063395604
52	0x3d61cd16	0.055127226
53	0x3de3f032	0.11129798
54	0x3bd3fefd	0.006469606
55	0xbd990211	-0.07471097
56	0x3ddc1595	0.10746304
57	0x3d8c0e50	0.068386674
58	0xbd84ab77	-0.06478017
59	0x3e2aeea0	0.1669259
60	0x3dc9ff5a	0.098631576
61	0x3e03718e	0.12836286
62	0x3e34c653	0.1765378
63	0x3d5a9911	0.05336863
64	0xbe18d27e	-0.14924046
65	0xbd8c5ed1	-0.06854022
66	0xbcfb6d12	-0.030691657
67	0x3dadec7d	0.08492372
68	0xbdce2d4e	-0.10067235
69	0xbd8d0ea5	-0.06887559
70	0x3e449805	0.19198616
71	0xbda9b901	-0.0828724
72	0xbc986899	-0.018604564
73	0xbd30f5d1	-0.04320318
74	0xbb10b7d7	-0.0022082233
75	0xbe089fd9	-0.13342227
76	0xbb854bad	-0.004067859
77	0xbde100a1	-0.10986448
78	0xbd137ee5	-0.036009688
79	0x3dc8b3b0	0.09799898
80	0x3da4eaa9	0.080525704
81	0xbd58addb	-0.052900176
82	0xbe20b86e	-0.15695354
83	0xbdf1aa15	-0.11800019
84	0x3b820b96	0.0039686663
85	0x3cf2dbf1	0.029645892
86	0x3e4188ce	0.18899843
87	0xbc8c29a5	-0.017109701
88	0x3e35f5be	0.17769524
89	0xbd3ccc10	-0.046093047
90	0x3d96fbe0	0.0737226
91	0x3df562e9	0.11981756
92	0xbd623d65	-0.05523433
93	0xbd85e7b0	-0.065383315
94	0xbcc3dc62	-0.023908798
95	0xbd5eeadb	-0.054423194
96	0x3daeae8d	0.08529387
97	0xbcc273ab	-0.023736795
98	0x3cd7e239	0.026352989
99	0x3d26b710	0.040701926
100	0xbd0bdaac	-0.03414409
101	0x3c20b157	0.009807906
102	0x3c200b1b	0.009768273
103	0x3db2daa8	0.087331116
104	0xbd2f5943	-0.042809736
105	0xbd4227c2	-0.047401197
106	0x3d3d24d9	0.04617772
107	0x3d4e1e82	0.050322063
108	0x3dc80439	0.097664304
109	0xbcb81167	-0.022469236
110	0x3d9e656a	0.07734187
111	0x3cdad677	0.026713593
112	0x3d468523	0.048466813
113	0xbd36432a	-0.044497646
114	0xbdbc51fe	-0.09195326
115	0xbbc095e8	-0.005877245
116	0xbe464dae	-0.1936557
117	0x3d1dca36	0.03852292
118	0xbd717b95	-0.058955748
119	0x3cca1898	0.02466993
120	0xbd3f76d4	-0.046744183
121	0x3e00b08a	0.12567344
122	0xbc4de8cb	-0.012567709
123	0x3b903433	0.004400754
124	0xbc589a3d	-0.013220367
125	0xbb3ed628	-0.0029119346
126	0x3c8cc72f	0.017184822
127	0xbbb47ec5	-0.005508276
128	0xba483714	-0.0007637602
129	0x3e1e6ef1	0.15472008
130	0xbb4d7547	-0.003135042
131	0x3d89e8b1	0.067338355
132	0x3e7695ae	0.24080536
133	0xbd41b1f0	-0.047288835
134	0xbb80dbd3	-0.003932455
135	0xbc15c8d8	-0.009142123
136	0xbc41c7b4	-0.011827398
137	0x3da1a917	0.078935795
138	0x3dcce7a9	0.10005123
139	0xbda7771c	-0.08177015
140	0xbc990f78	-0.018684134
141	0x3dd13415	0.10215012
142	0x3d729d4e	0.05923205
143	0x3d06c3ca	0.032901563
144	0x3da706ec	0.08155617
145	0xbb725b96	-0.003698086
146	0xbe3f1309	-0.18659605
147	0x3cb79d97	0.022414012
148	0x3e2a16b1	0.16610219
149	0xbc968570	-0.018374175
150	0xbe13199d	-0.1436524
151	0x3dcf9437	0.101356916
152	0x3dc344c6	0.09534602
153	0xbd4913fe	-0.04909133
154	0xbcd819f2	-0.02637956
155	0x3d130735	0.035895545
156	0x3db62864	0.08894423
157	0xbd8738bb	-0.06602617
158	0xbda1c928	-0.07899696
159	0x3d902a26	0.07039289
160	0xbd4decd6	-0.050274692
161	0x3d94d7cf	0.07267725
162	0x3e1df1db	0.15424292
163	0x3d6f859e	0.058477037
164	0x3da58d5d	0.080836035
165	0xbe00fdd4	-0.12596828
166	0x3e14994d	0.14511605
167	0x3d3b9da5	0.04580464
168	0x3d125803	0.035728466
169	0x3e6f9383	0.23396115
170	0xbda93bdc	-0.082633704
171	0x3e1ff128	0.15619338
172	0x3dabee66	0.0839508
173	0xbe3495af	-0.17635225
174	0xbca1be3c	-0.019744031
175	0x3cfe774d	0.031062746
176	0x3c3ed753	0.011648017
177	0x3cc5ea30	0.02415952
178	0x3b6182fb	0.0034410346
179	0xbb182a02	-0.0023218398
180	0xbdc156d9	-0.09440393
181	0x3cae4fc8	0.021278277
182	0x3d9bd920	0.07609773
183	0xbd4b5994	-0.049645975
184	0x3d927c22	0.07152583
185	0x3de67f83	0.1125479
186	0x3da24642	0.07923557
187	0xbd7461a7	-0.05966344
188	0xbe155c88	-0.14586079
189	0xbc9816ad	-0.0185655
190	0x3cb72e04	0.02236081
191	0xbd54329e	-0.051806085
192	0xbe04f2f6	-0.12983307
193	0x3d72c365	0.059268374
194	0xbd8ecc47	-0.069725566
195	0xbd94ceb3	-0.07265987
196	0x3dffb946	0.1248651
197	0x3cb5e79a	0.022205163
198	0x3e014d81	0.12627222
199	0x3def4396	0.11682813
200	0xbc06a019	-0.008216881
201	0xbdfc8494	-0.12329975
202	0x3dcae169	0.09906275
203	0x3c3393a9	0.010960498
204	0xbd737eab	-0.059446972
205	0xbe6a702c	-0.22894353
206	0xbd235d4a	-0.03988389
207	0x3d8fc127	0.07019263
208	0x3e414530	0.18874049
209	0x3a9c7177	0.0011935671
210	0x3d297953	0.04137547
211	0xbd5be0d2	-0.053681202
212	0xbe069093	-0.13141088
213	0xbd8c1e51	-0.0684172
214	0x3d366d66	0.044537924
215	0x3caf4f62	0.021400157
216	0xbca81f06	-0.020522606
217	0x3cabc02f	0.020965664
218	0xbda377fd	-0.0798187
219	0xbbd2d94b	-0.0064345947
220	0x3c94ad14	0.018148936
221	0x3cbe6cf4	0.023245312
222	0x3dea7abb	0.1144919
223	0xbde6344c	-0.112404436
224	0xbb8be7a3	-0.0042695566
225	0xbdf6bf99	-0.12048263
226	0xbd14cba5	-0.036327023
227	0xbe11d3db	-0.14240973
228	0x3d314be1	0.043285254
229	0x3d0fba4f	0.035089787
230	0x3c984bd1	0.01859084
231	0x3c7b9dc2	0.015357437
232	0x3dd66b74	0.10469714
233	0x3e175ec6	0.14782247
234	0xbd1e0655	-0.038580257
235	0x3d7e4139	0.06207392
236	0xbc943e45	-0.018096099
237	0xbd41faa3	-0.047358166
238	0x3d2a5441	0.041584257
239	0x3d624c9b	0.055248838
240	0x3daf5aab	0.085622154
241	0xbc86875b	-0.016421964
242	0x3d08d384	0.033404842
243	0x3d3f671d	0.046729196
244	0x3d665474	0.056232885
245	0x3c61165c	0.013738241
246	0xbd3fe43c	-0.04684852
247	0x3d9738e5	0.07383899
248	0x3e0eabc9	0.13932718
249	0x3dbe6bcc	0.09297904
250	0x3dd1a3ef	0.10236346
251	0xbd97bfa1	-0.07409597
252	0xbdbba4e7	-0.09162312
253	0x3e89d9bd	0.26923934
254	0xbc4ef9d9	-0.0126328105
255	0xbd49c0e5	-0.049256224

q1_layer3.bias f4 [64]
0	0xba364c59	-0.0006954126
1	0x3c3c7861	0.01150331
2	0xbc2ca2ff	-0.010536908
3	0x3c44280b	0.011972438
4	0xbbcd8bd3	-0.006272772
5	0x3baaa040	0.0052070916
6	0xbba8e594	-0.005154321
7	0x3a6822c7	0.000885528
8	0xbb8c9e69	-0.004291345
9	0x3aae8e47	0.0013317548
10	0xba786ca4	-0.0009476638
11	0xbc057546	-0.008145636
12	0xbbd79b2c	-0.006579777
13	0xbba2ac1c	-0.0049643647
14	0xbb8440f9	-0.0040360657
15	0x3c43719a	0.01192894
16	0xbb939f0f	-0.0045050452
17	0x3c1eac34	0.009684611
18	0xbc305a6a	-0.010763744
19	0xbb323c7d	-0.0027196698
20	0x3a6709f7	0.00088134356
21	0x3c0a209a	0.008430624
22	0xbc1900b7	-0.009338549
23	0x3c3fd7b2	0.011709141
24	0xbc387c72	-0.011260139
25	0xbb8a76eb	-0.004225602
26	0x3c143ede	0.009048192
27	0xbc1d8726	-0.009614741
28	0xbc2a7f0f	-0.01040627
29	0x3c460718	0.012086652
30	0xbc04a95b	-0.008097018
31	0xbc386f1e	-0.011256961
32	0x3c2bc2b6	0.010483434
33	0x3b1be90e	0.0023790034
34	0x3c50a6b8	0.012735061
35	0x38efa6b7	0.00011427461
36	0xbb4ff2b9	-0.0031730367
37	0xbc2693bb	-0.010167058
38	0xbbf5cd9a	-0.0075013163
39	0xbbff634d	-0.00779382
40	0xbbda645a	-0.006664795
41	0xbc09415d	-0.0083774
42	0xbbb7271d	-0.0055893795
43	0xbb1cdbda	-0.0023934753
44	0xbc1130d4	-0.008861739
45	0xbb494dea	-0.0030716606
46	0x3b4d79bf	0.0031353084
47	0x3c30deb9	0.010795289
48	0x3c385464	0.011250589
49	0xbc0aeb62	-0.008478971
50	0xbc0c1b79	-0.008551472
51	0xbc4495bd	-0.011998591
52	0xbc1bfed7	-0.009521208
53	0x3b95a770	0.0045670792
54	0xbc2f4f4a	-0.010700056
55	0xbb090764	-0.0020908946
56	0x3bafae52	0.005361357
57	0x3c4c964f	0.012487008
58	0xbba31ada	-0.004977566
59	0xbc07d78c	-0.0082911365
60	0xbc314d2d	-0.010821623
61	0xbb9b600e	-0.004741675
62	0x3c3a6260	0.0113759935
63	0xbbb9d395	-0.0056709745

q1_layer4.weight f4 [1, 64]
0	0x3d0a30ac	0.033737823
1	0xbe5b9b31	-0.2144592
2	0xbc69a0a8	-0.014259495
3	0xbe1579d3	-0.14597254
4	0xbc827822	-0.015926424
5	0xbe521c03	-0.20518498
6	0x3d190066	0.037353896
7	0xbdac619a	-0.084170535
8	0x3d1290e0	0.035782695
9	0xbc87a487	-0.016557945
10	0xbd6065a1	-0.05478442
11	0x3e0bb081	0.1364155
12	0x3c862797	0.0163763
13	0xbc29319c	-0.010326769
14	0xbe4b0e33	-0.19829635
15	0xbeb92134	-0.36158144
16	0x3e398681	0.18117715
17	0xbe17e2fe	-0.14832684
18	0x3d549f0f	0.051909503
19	0x3e2f9c4a	0.17149463
20	0xbd3fb541	-0.046803717
21	0xbe147aa5	-0.1449991
22	0x3d933afb	0.07188984
23	0xbdc39f67	-0.09551888
24	0x3e16b310	0.14716744
25	0xbc99eb88	-0.018789068
26	0xbe83c13d	-0.25733367
27	0x3dc80c51	0.09767974
28	0x3daeca51	0.085346825
29	0xbde489d2	-0.111591
30	0x3c2e5b6e	0.010641916
31	0x3cd7bfe9	0.026336627
32	0xbe1f2cc3	-0.15544419
33	0xbd98d5dd	-0.07462666
34	0xbe52014b	-0.20508306
35	0xbd8a0768	-0.06739694
36	0x3c51377c	0.012769576
37	0xbc464665	-0.012101744
38	0x3c08395e	0.008314459
39	0xbbd421dc	-0.006473763
40	0x3d4d8bfb	0.050182324
41	0x3dc450a6	0.09585695
42	0xbc562c68	-0.013072111
43	0xbd1b8188	-0.037965328
44	0x3e4b8c9d	0.19877858
45	0x3b88b978	0.0041725
46	0xbd9117ea	-0.07084639
47	0xbe0b00dc	-0.13574547
48	0xbdeb65ab	-0.11494001
49	0x3d2fe794	0.04294546
50	0xbba4b9f2	-0.005027049
51	0x3e1b5790	0.15170121
52	0x3e0e1ea4	0.13878876
53	0xbd86fc74	-0.0659112
54	0xbb0d4a4d	-0.002155918
55	0xbba13a0a	-0.004920249
56	0x3e07252c	0.13197774
57	0xbe9cb961	-0.30610183
58	0x3dd1e06f	0.102478854
59	0x3e1cc925	0.15311106
60	0x3e0e7d79	0.13915052
61	0x3d147113	0.03624065
62	0xbe952e95	-0.29137102
63	0xbcf1d477	-0.029520256

q1_layer_norm1.weight f4 [128]
0	0x3f7dc8cb	0.9913451
1	0x3f7dfe17	0.99215835
2	0x3f8173d2	1.011347
3	0x3f7db8d0	0.99110126
4	0x3f8103b3	1.0079254
5	0x3f7d11a1	0.98855025
6	0x3f8058d8	1.0027113
7	0x3f7ffae5	0.9999221
8	0x3f7e9178	0.9944072
9	0x3f8077b0	1.0036526
10	0x3f7fdfa8	0.9995065
11	0x3f7dc8dc	0.9913461
12	0x3f7e32db	0.9929635
13	0x3f8121c0	1.0088425
14	0x3f7ec274	0.9951546
15	0x3f818d4f	1.0121249
16	0x3f81fe65	1.015576
17	0x3f804a94	1.002276
18	0x3f80eb3c	1.0071788
19	0x3f7e9316	0.99443185
20	0x3f803a1a	1.0017731
21	0x3f7e9cb4	0.9945786
22	0x3f80e81f	1.0070838
23	0x3f80f912	1.007601
24	0x3f7eb61e	0.9949664
25	0x3f80f896	1.0075862
26	0x3f7f99ca	0.9984404
27	0x3f8021e5	1.0010344
28	0x3f7d5486	0.989571
29	0x3f81326a	1.009351
30	0x3f8103c2	1.0079272
31	0x3f8126be	1.0089948
32	0x3f7d6d3b	0.989948
33	0x3f80d41b	1.006473
34	0x3f7fccd7	0.99921936
35	0x3f7e2a72	0.99283516
36	0x3f8051d5	1.0024973
37	0x3f7fdf21	0.9994984
38	0x3f7f8d29	0.9982477
39	0x3f809767	1.0046204
40	0x3f813183	1.0093235
41	0x3f8046c6	1.0021598
42	0x3f805923	1.0027202
43	0x3f8147e1	1.0100061
44	0x3f7ffaea	0.9999224
45	0x3f7e7523	0.99397486
46	0x3f8164d4	1.0108895
47	0x3f7ef0b8	0.9958606
48	0x3f81f714	1.0153527
49	0x3f7f0cad	0.99628717
50	0x3f80a088	1.004899
51	0x3f7d3b74	0.98918843
52	0x3f7f2085	0.99658996
53	0x3f804109	1.0019847
54	0x3f802802	1.001221
55	0x3f80bed6	1.0058239
56	0x3f805205	1.002503
57	0x3f80252d	1.0011345
58	0x3f812823	1.0090374
59	0x3f808312	1.004
60	0x3f802e58	1.0014143
61	0x3f7cf389	0.98809105
62	0x3f810133	1.0078491
63	0x3f7d5b13	0.98967093
64	0x3f7e7787	0.99401134
65	0x3f80648d	1.0030686
66	0x3f7cf66e	0.9881352
67	0x3f7fb3f8	0.99883986
68	0x3f80091c	1.000278
69	0x3f7fff2e	0.9999875
70	0x3f7ee877	0.99573463
71	0x3f809006	1.0043952
72	0x3f7e0056	0.9921926
73	0x3f7ebda4	0.9950812
74	0x3f7f3a1e	0.99698055
75	0x3f807ca2	1.0038035
76	0x3f7e0b6d	0.99236184
77	0x3f804e06	1.0023811
78	0x3f7e75f4	0.9939873
79	0x3f7fa230	0.99856853
80	0x3f7de72b	0.9918086
81	0x3f7e2689	0.9927755
82	0x3f7edfa1	0.9955998
83	0x3f816d9d	1.0111576
84	0x3f80b01c	1.0053744
85	0x3f80aa0b	1.0051893
86	0x3f80306a	1.0014775
87	0x3f80b0a3	1.0053905
88	0x3f80f064	1.0073361
89	0x3f8049bb	1.0022501
90	0x3f80d827	1.0065964
91	0x3f7f89c7	0.99819607
92	0x3f7eea98	0.9957671
93	0x3f7e3377	0.9929728
94	0x3f813213	1.0093406
95	0x3f812715	1.0090052
96	0x3f810db0	1.0082302
97	0x3f7d327c	0.9890516
98	0x3f8141c1	1.0098191
99	0x3f809df2	1.0048201
100	0x3f809899	1.0046569
101	0x3f7e55ab	0.9934947
102	0x3f80ac6d	1.005262
103	0x3f800026	1.0000045
104	0x3f7d2bb3	0.98894805
105	0x3f7d8c95	0.99042636
106	0x3f7de294	0.99173856
107	0x3f80bac7	1.0057
108	0x3f7dc2bb	0.9912526
109	0x3f811eec	1.0087562
110	0x3f8027b7	1.001212
111	0x3f7de7cd	0.99181825
112	0x3f80535b	1.0025438
113	0x3f80a2c3	1.0049671
114	0x3f81e429	1.0147754
115	0x3f7d2b2d	0.98894006
116	0x3f7ffb77	0.9999308
117	0x3f7f173b	0.9964482
118	0x3f7e0565	0.9922698
119	0x3f8036b9	1.00167
120	0x3f7df5b9	0.9920307
121	0x3f7fdb5a	0.9994408
122	0x3f808c1a	1.0042756
123	0x3f819af8	1.0125418
124	0x3f81ba48	1.0134974
125	0x3f800351	1.0001012
126	0x3f806615	1.0031153
127	0x3f7e9f4c	0.9946182

q1_layer_norm1.bias f4 [128]
0	0xbbd49182	-0.0064870724
1	0xbb9df678	-0.004820641
2	0x3c3c66a9	0.011499085
3	0xbc1bc1f6	-0.009506693
4	0x3c40d707	0.0117700165
5	0xbc01fc98	-0.007933758
6	0x3bc462f4	0.0059932414
7	0xbb6d1c52	-0.003618021
8	0xbb9cf742	-0.0047902176
9	0x3b92f898	0.004485201
10	0x3b7dc862	0.0038724174
11	0xbbb7ca6f	-0.0056088488
12	0xbbfb8356	-0.0076755686
13	0x3bf87d66	0.007583308
14	0xbb72ce95	-0.0037049402
15	0x3c5bb689	0.013410219
16	0x3c50ad68	0.012736656
17	0x3ba288a1	0.004960135
18	0x3c2ecaba	0.010668451
19	0xbba8630d	-0.005138761
20	0x3bc2c2f9	0.0059436527
21	0xba4b7de4	-0.00077625946
22	0x3c275bbe	0.010214744
23	0x3c2375b0	0.009976789
24	0x3b85a12a	0.00407805
25	0x3bfd48b5	0.0077296146
26	0x3b4e4b6f	0.0031478067
27	0x3b85fbb0	0.0040888414
28	0xbbba2369	-0.0056804908
29	0x3c2f6f95	0.010707756
30	0x3c1f9764	0.009740684
31	0x3bdd6a31	0.006757044
32	0xbc0a370e	-0.008435978
33	0x3c1c7bd5	0.009551008
34	0x3b4ce13b	0.0031262178
35	0xbc02755a	-0.007962549
36	0x3bd5dd0a	0.006526594
37	0x3b0c6b10	0.002142612
38	0x397f0031	0.00024318766
39	0x3c380af2	0.011233078
40	0x3c654275	0.013992895
41	0x3b65a79b	0.0035042528
42	0x3bed958b	0.007250493
43	0x3c275d5c	0.01021513
44	0x3af74906	0.0018866367
45	0xbae0d8a7	-0.0017154411
46	0x3c35e806	0.011102682
47	0xbbf0c4d9	-0.007347685
48	0x3c3f8b35	0.011690904
49	0xbb87854e	-0.004135764
50	0x3bec44d4	0.0072103534
51	0xbc2a1ccc	-0.010382842
52	0xbac71f6b	-0.0015191858
53	0x3a852524	0.0010158163
54	0x3bac65b1	0.005261146
55	0x3bfd2ad8	0.0077260546
56	0x3b2c4c61	0.0026290643
57	0x3a9fd0b3	0.0012192935
58	0x3c1a218f	0.009407415
59	0x3be63294	0.0070250724
60	0x3b2af9ba	0.002608879
61	0xbc0bc4f9	-0.008530849
62	0x3c070235	0.008240272
63	0xbbf0e9d5	-0.0073520937
64	0xbb8fd640	-0.0043895543
65	0x3bdbdbc3	0.0067095472
66	0xbc187a94	-0.009306569
67	0xbb772637	-0.0037711987
68	0x3b15b462	0.0022843112
69	0x3b1c5097	0.0023851746
70	0x39e0f595	0.00042907582
71	0x3bbad5b3	0.0057017445
72	0xbb424892	-0.0029645306
73	0xb814202d	-3.5315916e-05
74	0xba114f7f	-0.0005543157
75	0x3bf22648	0.0073898174
76	0xbb9b6171	-0.0047418405
77	0x3bd40edd	0.0064714984
78	0xbad430f9	-0.0016188911
79	0x3b1c918c	0.0023890464
80	0xbbb84acd	-0.0056241513
81	0xbbb65399	-0.005564165
82	0xba9c184a	-0.0011909094
83	0x3c540bde	0.0129422825
84	0x3c284508	0.010270365
85	0x3c0529f2	0.008127676
86	0x3c1ba0bc	0.009498771
87	0x3c14a6fa	0.009073013
88	0x3c0b77f9	0.00851249
89	0x3bbfb177	0.005850013
90	0x3c11c289	0.008896478
91	0xbac57708	-0.0015065381
92	0xba9ef0f2	-0.0012126251
93	0xbb9ba053	-0.0047493367
94	0x3c5332c0	0.012890518
95	0x3c556dd0	0.01302667
96	0x3c3c2dce	0.01148553
97	0xbc042a36	-0.0080667045
98	0x3c379cf8	0.011206858
99	0x3b3934c2	0.0028260206
100	0x3ba1fb5c	0.0049432945
101	0xbb6fd923	-0.003659793
102	0x3c45e817	0.01207926
103	0x3a826269	0.0009947541
104	0xbc142d95	-0.009044071
105	0xbc01e044	-0.007927004
106	0xbc4d7aa4	-0.012541447
107	0x3c28d808	0.010305412
108	0xbbab2897	-0.0052233445
109	0x3c313f01	0.010818244
110	0x3b0ed726	0.002179572
111	0xbbc2b352	-0.005941787
112	0x3af097b6	0.001835576
113	0x3c03e8b9	0.008051091
114	0x3c7c8984	0.015413646
115	0xbc252ec8	-0.010081954
116	0x3abab608	0.0014244923
117	0xbabcc01d	-0.0014400516
118	0xbbd34279	-0.006447133
119	0x3ba291f5	0.004961247
120	0xbba9f3f5	-0.0051865526
121	0x3b69415b	0.0035591933
122	0x3b93a1a7	0.0045053544
123	0x3c51fe3c	0.012816962
124	0x3c4684fe	0.012116669
125	0x3be0e9f5	0.0068638274
126	0x3c1dc5a7	0.0096296435
127	0xbc28e565	-0.010308598

q1_layer_norm2.weight f4 [128]
0	0x3f808bca	1.004266
1	0x3f81d144	1.0141988
2	0x3f804ab4	1.0022798
3	0x3f81446f	1.0099009
4	0x3f80ccf8	1.0062551
5	0x3f7fb766	0.9988922
6	0x3f8015d5	1.0006663
7	0x3f7d75da	0.9900795
8	0x3f80bfee	1.0058572
9	0x3f816733	1.0109619
10	0x3f816137	1.0107793
11	0x3f7d43e0	0.98931694
12	0x3f7ea34e	0.99467933
13	0x3f819273	1.0122818
14	0x3f7dbdde	0.9911784
15	0x3f80391f	1.0017432
16	0x3f810ddf	1.0082358
17	0x3f801aeb	1.0008215
18	0x3f80aae4	1.0052152
19	0x3f808824	1.0041547
20	0x3f7fe75a	0.9996239
21	0x3f7d3d56	0.98921716
22	0x3f7ddc16	0.9916395
23	0x3f810b82	1.0081637
24	0x3f80ef36	1.0073001
25	0x3f7e1476	0.9924997
26	0x3f805721	1.002659
27	0x3f7ee4e0	0.99567986
28	0x3f8175d4	1.0114083
29	0x3f7f030e	0.99614036
30	0x3f80464c	1.0021453
31	0x3f810158	1.0078535
32	0x3f80721b	1.0034822
33	0x3f7ece3c	0.9953344
34	0x3f7ea98f	0.99477476
35	0x3f7d5a5d	0.9896601
36	0x3f7d5ab1	0.9896651
37	0x3f7d5b09	0.98967034
38	0x3f80bd14	1.0057702
39	0x3f7e1c3d	0.9926184
40	0x3f801c8d	1.0008713
41	0x3f80adc5	1.005303
42	0x3f81556a	1.0104191
43	0x3f8127df	1.0090293
44	0x3f7e56d4	0.9935124
45	0x3f7ec961	0.9952603
46	0x3f7fc73e	0.99913394
47	0x3f7d80f7	0.9902491
48	0x3f802a61	1.0012933
49	0x3f7ec9ed	0.99526864
50	0x3f7e043e	0.99225223
51	0x3f817278	1.0113058
52	0x3f7dbbcc	0.9911468
53	0x3f7f84e9	0.9981218
54	0x3f7e4e2c	0.9933803
55	0x3f7cf5e4	0.988127
56	0x3f7d185e	0.98865306
57	0x3f80ab2a	1.0052235
58	0x3f7e8a5c	0.9942987
59	0x3f806018	1.0029325
60	0x3f7d889d	0.9903658
61	0x3f7d741d	0.990053
62	0x3f7dd110	0.9914713
63	0x3f7f4c94	0.99726224
64	0x3f7fe403	0.99957293
65	0x3f7cb716	0.98716867
66	0x3f806e5c	1.0033679
67	0x3f7ee0b3	0.99561614
68	0x3f80ff1b	1.0077852
69	0x3f80a84b	1.0051359
70	0x3f8172ff	1.0113219
71	0x3f804886	1.0022132
72	0x3f8067a6	1.0031631
73	0x3f7dde77	0.9916758
74	0x3f7f5185	0.99733764
75	0x3f813276	1.0093524
76	0x3f801679	1.0006858
77	0x3f7fcdc8	0.9992337
78	0x3f80b0ce	1.0053957
79	0x3f7d9d13	0.990678
80	0x3f7e90b5	0.99439555
81	0x3f80de47	1.0067834
82	0x3f805bfe	1.0028074
83	0x3f80a9ba	1.0051796
84	0x3f8049c5	1.0022513
85	0x3f7fea00	0.9996643
86	0x3f801ae6	1.0008209
87	0x3f7e0599	0.9922729
88	0x3f7fc3f0	0.9990835
89	0x3f7e9ff1	0.994628
90	0x3f7dcc02	0.99139416
91	0x3f7ea0c2	0.99464047
92	0x3f8005fd	1.0001827
93	0x3f81a1c1	1.0127488
94	0x3f7f91b6	0.9983171
95	0x3f818f19	1.0121795
96	0x3f811c12	1.0086691
97	0x3f7faa61	0.9986935
98	0x3f7f7ad6	0.9979681
99	0x3f80034c	1.0001006
100	0x3f81f6fd	1.01535
101	0x3f81389f	1.0095404
102	0x3f806030	1.0029354
103	0x3f813342	1.0093768
104	0x3f7f22f4	0.9966271
105	0x3f80ea0f	1.0071429
106	0x3f7dc5dc	0.99130034
107	0x3f7f572c	0.9974239
108	0x3f7d19f0	0.988677
109	0x3f803f5e	1.0019338
110	0x3f7fdfc9	0.99950844
111	0x3f8119ee	1.0086038
112	0x3f80d22a	1.0064137
113	0x3f7e1b96	0.9926084
114	0x3f7e2522	0.9927541
115	0x3f80e724	1.0070539
116	0x3f81e82e	1.0148981
117	0x3f80f4b4	1.0074677
118	0x3f816bcc	1.0111022
119	0x3f80f3e0	1.0074425
120	0x3f808b71	1.0042554
121	0x3f80ef3f	1.0073012
122	0x3f7e7293	0.99393576
123	0x3f7ec708	0.9952245
124	0x3f805488	1.0025797
125	0x3f7f2953	0.9967243
126	0x3f7d01f1	0.9883109
127	0x3f810f32	1.0082762

q1_layer_norm2.bias f4 [128]
0	0x3c1e89cf	0.009676411
1	0x3c6c8a16	0.014437219
2	0x3bed51da	0.0072424235
3	0x3c055190	0.008137122
4	0x3bbd58de	0.005778416
5	0x3a69666f	0.00089035084
6	0x3ba19b22	0.0049318234
7	0xbc2e8fc3	-0.010654393
8	0x3c05d617	0.008168719
9	0x3c48e71a	0.01226213
10	0x3c38b71e	0.011274127
11	0xbc0db3e6	-0.008648848
12	0x39ac8f0a	0.0003291297
13	0x3c59dd55	0.013297399
14	0xbbe09056	-0.0068531437
15	0x3ba5941b	0.005053056
16	0x3c3a338c	0.011364829
17	0x3a92d4f8	0.0011202386
18	0x3c031df1	0.008002744
19	0x3c3d9e08	0.011573322
20	0x3b3eabc0	0.002909407
21	0xbc06f6f5	-0.00823759
22	0xbc04ddc0	-0.00810951
23	0x3c210dc1	0.009829939
24	0x3c2b22e0	0.010445327
25	0xbc06c2d2	-0.00822516
26	0x3b973e7c	0.004615603
27	0x3bb28a6d	0.0054486305
28	0x3c5d9de2	0.013526412
29	0xbaea8bcb	-0.0017894445
30	0xb89326dd	-7.016745e-05
31	0x3bde3ea7	0.006782371
32	0x3bc2f855	0.0059500136
33	0x3a2da552	0.0006624061
34	0xbb8c4df7	-0.004281755
35	0xbbd31056	-0.0064411564
36	0xbc24256e	-0.01001869
37	0xbc3a8e08	-0.011386402
38	0x3c15ffde	0.009155242
39	0xbbebc3db	-0.0071949787
40	0x3c017cf3	0.007903325
41	0x3c0cde54	0.008597929
42	0x3c4889a7	0.01223985
43	0x3c232d8f	0.0099595925
44	0xbbd74114	-0.006569037
45	0xbb4888b5	-0.0030599062
46	0xbb1a590f	-0.0023551618
47	0xbc0703f9	-0.008240693
48	0x3bd524ef	0.006504647
49	0xbba7da2b	-0.005122443
50	0xbc124bff	-0.008929252
51	0x3c5edacf	0.013601973
52	0xbbb3ef7e	-0.005491196
53	0xba0b6ac0	-0.0005318336
54	0xbbc490c5	-0.005998703
55	0xbbf0e84e	-0.0073519116
56	0xbc15b636	-0.009137681
57	0x3c148acd	0.009066296
58	0xbbbc28ee	-0.005742184
59	0x3b2fcc37	0.0026824602
60	0xbbcfe98c	-0.0063449796
61	0xbc12fd96	-0.008971592
62	0xbc0eca6b	-0.008715252
63	0x38eada69	0.000111986716
64	0x3af0672d	0.0018341296
65	0xbc3a85b6	-0.011384418
66	0x3c1e85e5	0.009675478
67	0xbb665cac	-0.0035150452
68	0x3c4973c1	0.012295664
69	0x3c0bf33d	0.008541879
70	0x3c5568ee	0.0130255055
71	0x39e37093	0.00043380688
72	0x3bc4fcc5	0.006011578
73	0xbc3e1e7b	-0.011603947
74	0xbb32022f	-0.0027161946
75	0x3c628262	0.013825031
76	0x3c0d4efe	0.00862479
77	0xbb480ada	-0.0030524046
78	0x3c04dd6d	0.008109433
79	0xbc14cd28	-0.009082116
80	0xbbb2cb01	-0.005456329
81	0x3bfa96c4	0.007647367
82	0x3c16028f	0.009155883
83	0x3bb795ee	0.00560259
84	0x3b1fd9e8	0.0024391357
85	0x3b8063fd	0.0039181695
86	0x3b590515	0.0033114601
87	0xbc2056b0	-0.009786293
88	0x3b42bc35	0.002971423
89	0xbacaeeb9	-0.0015482522
90	0xbc14524d	-0.009052825
91	0xbba5b8e0	-0.005057439
92	0xbabd3b20	-0.0014437176
93	0x3c46051e	0.012086181
94	0x3a041339	0.0005038265
95	0x3c6b1c73	0.014350045
96	0x3c5125b3	0.012765336
97	0xbb114884	-0.0022168467
98	0x397f3ddf	0.00024341744
99	0x3b9ad4bb	0.0047250665
100	0x3c7c3672	0.01539384
101	0x3c69c725	0.014268671
102	0x3b8ecf7d	0.0043582306
103	0x3c445c1d	0.011984852
104	0xb9e09310	-0.0004283418
105	0x3c27af8e	0.010234727
106	0xbb408379	-0.0029375239
107	0xbaf59387	-0.0018735983
108	0xbc2e1808	-0.010625847
109	0x3c40fcda	0.0117790345
110	0xbb4bf883	-0.0031123466
111	0x3c3b8020	0.011444122
112	0x3bcd30b2	0.0062619084
113	0xbbc1105d	-0.0058918432
114	0xbbfcb167	-0.0077115777
115	0x3c041f42	0.008064093
116	0x3c903da2	0.017607514
117	0x3c2988b2	0.010347532
118	0x3c55758a	0.013028512
119	0x3ba2c14b	0.00496689
120	0x3c09ef87	0.008418924
121	0x3c35ca7a	0.011095637
122	0xbbf613c2	-0.0075096795
123	0xbb8e6587	-0.004345599
124	0x3bd63a05	0.006537678
125	0xb9ea9266	-0.00044741033
126	0xbc118f22	-0.008884223
127	0x3c3256cc	0.010884952

q1_layer_norm3.weight f4 [64]
0	0x3f7e17f8	0.99255323
1	0x3f81d079	1.0141746
2	0x3f823679	1.0172874
3	0x3f80fe21	1.0077554
4	0x3f80fbf1	1.0076886
5	0x3f802210	1.0010395
6	0x3f7e257f	0.99275964
7	0x3f81f229	1.0152026
8	0x3f7f08af	0.99622625
9	0x3f806d99	1.0033447
10	0x3f81ae08	1.0131235
11	0x3f7ddf20	0.99168587
12	0x3f7d4553	0.98933905
13	0x3f81bb8b	1.0135359
14	0x3f7fb608	0.9988713
15	0x3f814009	1.0097667
16	0x3f7e5444	0.9934733
17	0x3f80b0c3	1.0053943
18	0x3f7d46f9	0.9893642
19	0x3f7ef78f	0.99596494
20	0x3f817b29	1.011571
21	0x3f80d21b	1.0064119
22	0x3f7db8c9	0.99110085
23	0x3f81e30f	1.0147418
24	0x3f7cefad	0.98803216
25	0x3f80efe0	1.0073204
26	0x3f8045b6	1.0021274
27	0x3f7da03d	0.9907263
28	0x3f7cf90f	0.98817533
29	0x3f81e001	1.0146486
30	0x3f7ddf80	0.9916916
31	0x3f7cf564	0.98811936
32	0x3f826143	1.0185932
33	0x3f824970	1.0178661
34	0x3f80eaca	1.0071652
35	0x3f81bf43	1.0136493
36	0x3f7f94c1	0.99836355
37	0x3f81f024	1.015141
38	0x3f7e65c4	0.9937403
39	0x3f810671	1.0080091
40	0x3f7e7711	0.9940043
41	0x3f7e0f12	0.99241745
42	0x3f807c5f	1.0037955
43	0x3f81984b	1.0124601
44	0x3f7e048c	0.9922569
45	0x3f7eb876	0.99500215
46	0x3f8122ab	1.0088705
47	0x3f81780c	1.011476
48	0x3f80d3c2	1.0064623
49	0x3f7dcf7c	0.9914472
50	0x3f802056	1.0009868
51	0x3f7db770	0.9910803
52	0x3f7e0327	0.9922356
53	0x3f808cea	1.0043004
54	0x3f7ea3ab	0.9946849
55	0x3f80afee	1.005369
56	0x3f7fbcb8	0.99897337
57	0x3f8161f0	1.0108013
58	0x3f7e02bf	0.9922294
59	0x3f7e2298	0.99271536
60	0x3f7d130c	0.9885719
61	0x3f7d585a	0.9896294
62	0x3f8138e1	1.0095483
63	0x3f819545	1.0123678

q1_layer_norm3.bias f4 [64]
0	0xbc13548d	-0.008992326
1	0x3c57cf3e	0.013171969
2	0x3cadd013	0.021217382
3	0x3c4185bf	0.011811673
4	0x3c560235	0.01306205
5	0x3b961b90	0.0045809224
6	0xbbed35ec	-0.007239094
7	0x3c5a793d	0.0133345695
8	0xbb589fe6	-0.0033054291
9	0x3bb6d140	0.0055791438
10	0x3c5f7196	0.013637921
11	0xbc1a29fd	-0.009409425
12	0xbc6add84	-0.01433504
13	0x3c5b20f7	0.013374559
14	0x3a591083	0.00082803535
15	0x3c4e0422	0.0125742275
16	0xbbd1ac22	-0.0063986937
17	0x3c27036e	0.010193689
18	0xbc3e4244	-0.011612479
19	0xbbb2cab3	-0.0054562925
20	0x3c5736a6	0.013135588
21	0x3c2f400a	0.01069642
22	0xbc247d92	-0.010039704
23	0x3c761eb6	0.0150219705
24	0xbc65adab	-0.014018456
25	0x3c45f896	0.012083193
26	0x3c1479ea	0.00906227
27	0xbc1f6a9d	-0.009730008
28	0xbc2f27f9	-0.010690683
29	0x3c68d462	0.014210792
30	0xbbef05b5	-0.0072943815
31	0xbc418753	-0.011812049
32	0x3c656e72	0.014003383
33	0x3c5fe732	0.013665961
34	0x3c4ce0f3	0.012504804
35	0x3c5f263b	0.013619955
36	0xbbba4969	-0.0056850207
37	0x3c9adcea	0.018904168
38	0xbbecd7dc	-0.007227881
39	0x3c25d082	0.010120513
40	0xbbe2f248	-0.006925855
41	0xbc1df3e5	-0.0096406685
42	0x3bb6cd3e	0.005578666
43	0x3c6c39b4	0.014418054
44	0xbc1ae5a6	-0.0094541665
45	0xbb8408a2	-0.0040293494
46	0x3c08754b	0.008328746
47	0x3c4d8974	0.012544978
48	0x3c470a39	0.012148433
49	0xbc33e15e	-0.010979025
50	0x3b26b273	0.0025435954
51	0xbc49e637	-0.012322954
52	0xbc16c4e2	-0.009202214
53	0x3bf23cfc	0.007392524
54	0xbbda0c44	-0.006654294
55	0x3b96eeb2	0.0046060914
56	0xba3b8c70	-0.00071544107
57	0x3c567adc	0.013090815
58	0xbbb69314	-0.0055717323
59	0xbc1177c9	-0.008878657
60	0xbc407d9b	-0.011748697
61	0xbc5f1497	-0.013615749
62	0x3c414d69	0.011798241
63	0x3c54b4ed	0.012982589
