rl_energy_manager_20250325_1542/models/checkpoint_800/actor.pth (torch, 82676 bytes, 6 tensors)

layer1.weight f4 [128, 18]
0	0x3eab09ec	0.33406007
1	0xbcdddaff	-0.027081965
2	0xbe2a1fab	-0.16613643
3	0xbe3f8daf	-0.18706392
4	0xbe1cd883	-0.15316968
5	0xbe4ee7a5	-0.20205553
6	0xbed2a3e2	-0.41140658
7	0xbe01a101	-0.12659074
8	0x3d1f47c2	0.038886793
9	0xbe31115e	-0.17291781
10	0x3e89e6ba	0.26933843
11	0x3d4a8d67	0.049451258
12	0x3e7c70e8	0.24652445
13	0x3db6d6f7	0.0892772
14	0x3df28530	0.1184181
15	0x3e14216c	0.14465874
16	0x3e54a9a4	0.20767838
17	0x3e18b16a	0.14911428
18	0xbde15a26	-0.110035226
19	0x3d76168c	0.060080096
20	0xbdde67ee	-0.10859667
21	0xbce27060	-0.027641475
22	0xbdc40f5e	-0.095732436
23	0x3e201c53	0.15635805
24	0xbe3e858d	-0.18605633
25	0xbdde89c0	-0.108661175
26	0xbd884eb4	-0.066556364
27	0xbe111f62	-0.14172128
28	0x3cb63de8	0.022246316
29	0xbe6e62a7	-0.2327982
30	0x3e59f93f	0.21286486
31	0xbe4d06e3	-0.20022158
32	0x3e3a55f9	0.18196858
33	0x3d20aac4	0.039225355
34	0xbd9cbda4	-0.076533586
35	0x3e1525d9	0.14565219
36	0x3e973bd4	0.29537833
37	0x3dd8f4ab	0.10593542
38	0xbdf6aa0e	-0.12044154
39	0x3df7af6d	0.12094007
40	0xbd965359	-0.07340116
41	0xbe231281	-0.15925027
42	0xbd9bb4eb	-0.07602867
43	0x3ed0e412	0.40799004
44	0x3d1876e7	0.03722277
45	0xbdd307fa	-0.10304256
46	0x3e60d7c7	0.21957313
47	0x3e1073ec	0.1410672
48	0x3e87f121	0.26551154
49	0x3c525cb4	0.012839485
50	0xbcda734a	-0.026666302
51	0x3d4b15de	0.0495814
52	0xbdc9fd29	-0.098627396
53	0x3eb0aca3	0.3450671
54	0x3d8b09ba	0.067889646
55	0x3dc7f2ce	0.09763108
56	0x3d98aa3e	0.07454346
57	0xbb865b80	-0.004100263
58	0x3e3ce3bf	0.18446253
59	0xbe2b7d2a	-0.16746965
60	0x3c732650	0.014840677
61	0xbe24bcc0	-0.16087627
62	0x3d94d8de	0.07267927
63	0xbda63d56	-0.08117168
64	0x3d93e9aa	0.07222302
65	0xbd4923f4	-0.049106553
66	0x3e482e69	0.19548954
67	0xbe0f0dd4	-0.13970119
68	0xbe0ff233	-0.14057235
69	0xbe0ff46c	-0.14058083
70	0x3e5916b7	0.21200071
71	0x3da0ddca	0.07854803
72	0x3ea10f35	0.31456915
73	0xbef6921e	-0.48158354
74	0xbf00945e	-0.5022639
75	0x3e84f1e6	0.25965804
76	0xbec40f35	-0.38292852
77	0xbe6457ac	-0.22299069
78	0xbe99d313	-0.3004385
79	0x3f04b754	0.51842237
80	0xbecb543f	-0.39712712
81	0xbe248990	-0.16068101
82	0xbbb749ef	-0.0055935304
83	0xbeb84a47	-0.3599417
84	0xbe4707aa	-0.19436517
85	0xbc328935	-0.0108969705
86	0x3e8cc5a6	0.27494544
87	0xbedf061e	-0.43559355
88	0xbeb3bebd	-0.3510646
89	0x3dcee830	0.1010288
90	0x3d4fd485	0.050739784
91	0xbcc23110	-0.023705035
92	0x3e228cf7	0.15874086
93	0x3da4419a	0.08020325
94	0xbe736a90	-0.23771119
95	0xbde62dbc	-0.11239192
96	0x3e24bf20	0.16088533
97	0xbe12a736	-0.14321598
98	0xbd2981b0	-0.041383445
99	0xbe6989ac	-0.22806424
100	0xbe6acd26	-0.2292982
101	0x3d991908	0.074754775
102	0xbd9a135e	-0.07523225
103	0xbe851ce4	-0.25998604
104	0xbd76a9ba	-0.060220458
105	0xbeb22c58	-0.34799457
106	0xbea3d667	-0.31999514
107	0xbe372507	-0.17885219
108	0xbe3c6f63	-0.18401866
109	0xbd838f4d	-0.06423817
110	0x3e903c34	0.2817093
111	0x3ef276d7	0.47356293
112	0x3d9c5005	0.0763245
113	0xbe012c63	-0.12614588
114	0xbb97d4a9	-0.0046335054
115	0x3f00da4f	0.5033311
116	0x3dd859ff	0.105640404
117	0xbe546085	-0.20739944
118	0xbe858274	-0.2607609
119	0xbe702adc	-0.2345385
120	0xbe4c562f	-0.19954751
121	0x3dab6026	0.08367948
122	0x3de8e748	0.113722384
123	0xbe83e759	-0.25762442
124	0xbe8d4eda	-0.2759922
125	0xbe37d830	-0.17953563
126	0xbdd34af8	-0.103170335
127	0xbe47e438	-0.19520652
128	0x3e40fb22	0.188458
129	0xbe76ace4	-0.2408939
130	0x3e4645f4	0.19362622
131	0x3d839fb4	0.06426945
132	0xbe55c605	-0.2087632
133	0xbeae01a1	-0.33985618
134	0xbd979997	-0.07402342
135	0xbdb909da	-0.09035082
136	0xbeccf760	-0.40032482
137	0xbedb0d5e	-0.42783636
138	0xbe1c9e71	-0.15294816
139	0xbe1d1e22	-0.15343526
140	0x3d1295f5	0.03578754
141	0xbf0870a6	-0.5329689
142	0xbd8e1bd5	-0.06938902
143	0xbe9ca35b	-0.3059338
144	0x3ca584c5	0.020204911
145	0xbc861acb	-0.016370198
146	0xbcaebb53	-0.021329558
147	0x3c97a907	0.018513216
148	0x3c1396f4	0.009008158
149	0xbe736c58	-0.23771799
150	0xbcb444cc	-0.022005461
151	0xbeb44cdb	-0.35214886
152	0xbdfef6d9	-0.12449426
153	0xbe34a7a8	-0.17642081
154	0x3e8abe3b	0.2709826
155	0x3c875fdc	0.016525201
156	0x3e996d79	0.29966334
157	0x3ce662ca	0.028123278
158	0xbdbcfbc3	-0.09227707
159	0xbd3ed267	-0.046587374
160	0x3eca57b8	0.3952005
161	0xbd41f428	-0.047351986
162	0xbe4cdc2e	-0.20005867
163	0xbe5b1637	-0.21395193
164	0x3db63854	0.088974625
165	0xbee62e91	-0.44957402
166	0xbdf9ca82	-0.121968284
167	0x3e49a408	0.19691479
168	0x3d44de59	0.04806361
169	0xbf1ce2ce	-0.61283576
170	0xbe020c45	-0.12699993
171	0xbc386ba0	-0.011256129
172	0xbe202d74	-0.15642339
173	0xbecbd1dd	-0.3980855
174	0xbebfb175	-0.37440076
175	0xbe130576	-0.14357552
176	0xbeba87b0	-0.36431646
177	0xbefd113f	-0.4942722
178	0xbe0dd007	-0.13848887
179	0xbed45356	-0.4146983
180	0x3e12461a	0.14284554
181	0xbcad6bf4	-0.02116964
182	0xbdad24fb	-0.08454319
183	0x3e124788	0.142851
184	0x3d99bcfe	0.075067505
185	0x3c2e3020	0.010631591
186	0x3d1a5192	0.037675448
187	0xbdbe6f96	-0.09298627
188	0xbe5f1ce8	-0.2178837
189	0x3cce9108	0.02521564
190	0x3b92b20b	0.004476791
191	0xbc2903ba	-0.01031583
192	0x3ea13cac	0.314916
193	0x3eaa33d4	0.33242667
194	0xbd425d59	-0.047452305
195	0x3dfde0a2	0.12396361
196	0x3e540323	0.20704322
197	0xbc0bc0fb	-0.008529897
198	0x3d681a14	0.056665495
199	0x3d87461e	0.06605171
200	0xbe5b374f	-0.21407817
201	0xbdb22428	-0.086983025
202	0x3e4b4171	0.19849183
203	0x3dbc0b9a	0.091819
204	0xbc4012f0	-0.011723265
205	0xbe11844d	-0.14210625
206	0xbe13aa2c	-0.14420384
207	0xbe583395	-0.21113427
208	0xbd9d5916	-0.076830074
209	0x3da30416	0.07959764
210	0x3e19e553	0.15028886
211	0x3ddedea6	0.108823106
212	0xbe555913	-0.2083476
213	0xbe1124f2	-0.1417425
214	0xbd185ca8	-0.03719774
215	0x3e697a87	0.22800647
216	0x3d0ba85c	0.034096107
217	0xbd7a0510	-0.061039984
218	0x3dc7b53a	0.09751363
219	0xbdb7dbc4	-0.08977464
220	0xbe1c3897	-0.15255962
221	0x3e302a39	0.17203607
222	0xbddb7e2a	-0.10717423
223	0xbd4189b4	-0.047250465
224	0xbe701ae6	-0.23447761
225	0x3e2188d9	0.1577486
226	0x3e36dcad	0.17857619
227	0x3dafed02	0.085901275
228	0xbe284b22	-0.16434911
229	0xbe6e34fa	-0.23262396
230	0xbe4406dc	-0.19143242
231	0x3e33fb47	0.17576323
232	0x3de7c17e	0.113162026
233	0x3e4b1ad3	0.19834451
234	0x3d34c61c	0.044134244
235	0x3d74582c	0.0596544
236	0xbb174480	-0.00230816
237	0xbe3d18e3	-0.18466525
238	0xbe4eca2f	-0.20194314
239	0xbe61c142	-0.22046378
240	0x3dc59b42	0.09648754
241	0xbe5ac689	-0.21364798
242	0xbd424bec	-0.047435686
243	0xbe0ae748	-0.1356479
244	0xbeb4f10c	-0.35340154
245	0xbeff55de	-0.498702
246	0xbee6e1a8	-0.45094037
247	0xbda875a9	-0.08225567
248	0xbe5e4e51	-0.21709563
249	0xbe8b4981	-0.27204517
250	0xbed08123	-0.40723523
251	0xbe8941e9	-0.26808098
252	0x3c72ca36	0.014818719
253	0xbdfef0c2	-0.12448265
254	0xbdb6227f	-0.08893298
255	0xbed45f66	-0.41479033

layer1.bias f4 [128]
0	0xbe0431cd	-0.12909622
1	0xbe3f939a	-0.1870865
2	0x3d99cecc	0.075101465
3	0xbe443640	-0.1916132
4	0xbd6aabdf	-0.057292815
5	0x3e8a2ba7	0.2698643
6	0x3e6e7d1b	0.23289911
7	0xbe22f04e	-0.15911981
8	0x3e56a1a4	0.20960099
9	0xbe1c099b	-0.15238039
10	0x3da45b32	0.080252066
11	0xbe42ac90	-0.1901114
12	0xbe14b453	-0.14521913
13	0xbe8c45b3	-0.27396926
14	0xbb5c9043	-0.0033655323
15	0xbe5cf0c8	-0.21576226
16	0xbdc2cdf6	-0.0951194
17	0x3daa66cf	0.083203904
18	0x3e80f0b7	0.2518365
19	0x3e86184d	0.26190415
20	0x3e4b621b	0.19861643
21	0xbe10149d	-0.14070363
22	0x3e1beb56	0.15226492
23	0x3d79f685	0.061026115
24	0xbe26c31e	-0.16285369
25	0xbdcde19a	-0.10052796
26	0xbcbad059	-0.022804426
27	0xbda0f219	-0.078586765
28	0xbe64a3d9	-0.22328128
29	0x3e588106	0.21142969
30	0x3e608287	0.21924792
31	0xbe8a175e	-0.26970953
32	0x3e230044	0.1591807
33	0xbe1b0d6e	-0.15141842
34	0x3e351e99	0.17687453
35	0x3e0f5e08	0.14000714
36	0x3e6a512f	0.22882532
37	0x3db93b0a	0.09044464
38	0xbdc3f5f7	-0.095683984
39	0xbdada3ea	-0.0847853
40	0x3d669d31	0.056302253
41	0x3df2f60c	0.11863336
42	0x3d013d3b	0.031552535
43	0x3e41b3f9	0.1891631
44	0x3b22ec3a	0.002486004
45	0x3e270f77	0.16314493
46	0xbdebef35	-0.115202345
47	0x3e10e0c3	0.1414824
48	0x3d0a9567	0.033833887
49	0x3e664eed	0.22491045
50	0xbd8580c5	-0.065187015
51	0x3e81a341	0.25319865
52	0x3e487647	0.19576369
53	0xbd427786	-0.047477268
54	0xbcc705a9	-0.024294691
55	0xbdc5863c	-0.09644744
56	0x3e8a3770	0.2699542
57	0xbe4f092e	-0.20218346
58	0x3df48b72	0.119406596
59	0x3c1cdded	0.009574396
60	0x3e80e99b	0.25178227
61	0xbda74632	-0.081676856
62	0x3e5517ae	0.20809814
63	0x3e74ec11	0.23918177
64	0xbde8b20f	-0.11362087
65	0x3e81b0ec	0.25330293
66	0x3e6c5cb4	0.23082238
67	0x3d2b3227	0.041795876
68	0xbe4a1724	-0.1973539
69	0x3d532f82	0.05155898
70	0xbdb1db2f	-0.08684384
71	0xbe201c69	-0.15635838
72	0xbe5ad41c	-0.21369976
73	0x3d634bea	0.05549232
74	0xbe2663b8	-0.16248977
75	0x3e094dc7	0.13408576
76	0xbe31bfbe	-0.173583
77	0xbd818ad9	-0.06325311
78	0xbe602802	-0.21890262
79	0x3e18666d	0.14882822
80	0x3e3c5cdf	0.18394803
81	0x3e1aa10d	0.15100498
82	0x3e58b8da	0.21164265
83	0xbe3956ee	-0.18099567
84	0x3d8b1ada	0.06792231
85	0xbe2b477f	-0.16726492
86	0xbe3a9bc6	-0.18223485
87	0x3e50fdc3	0.20409302
88	0x3df35f78	0.118834436
89	0xbe4fdea2	-0.20299771
90	0xbe618f14	-0.22027236
91	0xbe7e0baf	-0.24809144
92	0x3e6f30c2	0.23358443
93	0x3e0c1dbe	0.1368322
94	0xbe0814a9	-0.13289131
95	0x3af5fb59	0.0018766924
96	0xbdd8adb0	-0.10580003
97	0xbdd019ce	-0.10161172
98	0xbdc6a342	-0.09699108
99	0x3eaf938c	0.34292257
100	0x3dc5488b	0.09632977
101	0x3e1463a7	0.1449114
102	0x3e61a367	0.2203499
103	0xbe33bb93	-0.17552023
104	0xbe44a1e3	-0.1920238
105	0x3d3c840f	0.04602438
106	0xbe08455a	-0.13307706
107	0x3d85baef	0.065297954
108	0x3e901991	0.28144506
109	0xbdfc7606	-0.12327199
110	0xbe286c5c	-0.16447586
111	0x3e5cfa1b	0.21579783
112	0xbe296276	-0.16541466
113	0x3e375900	0.17905045
114	0xbe03fe11	-0.12889887
115	0x3e95c90e	0.29254955
116	0xbe3fec05	-0.18742378
117	0xbe16582d	-0.14682074
118	0x3d6cd1ca	0.057817258
119	0x3db13e88	0.08654505
120	0x3e75ff60	0.24023199
121	0x3e879ecf	0.2648835
122	0x3d679d03	0.056546222
123	0x3e5f1808	0.21786511
124	0x3e8ddafa	0.27706128
125	0xbd604320	-0.054751515
126	0xbcac5c85	-0.02104021
127	0xbe6f0952	-0.23343399

layer2.weight f4 [128, 128]
0	0xbcbb9fd3	-0.022903359
1	0x3d78176e	0.06056922
2	0x3e2cf7e9	0.16891445
3	0x3d8e8cd3	0.06960454
4	0x3d603315	0.054736216
5	0x3d670c15	0.056408007
6	0x3dc1274e	0.09431325
7	0x3d86270a	0.06550415
8	0xbbbc98f6	-0.005755539
9	0x3df8b133	0.12143173
10	0x3b24bccf	0.0025136953
11	0xbdb02bac	-0.0860208
12	0x3d00acde	0.03141486
13	0x3cc76694	0.024340905
14	0xbb4c1c22	-0.0031144698
15	0x3d74efea	0.059799112
16	0x3b5bd20e	0.003354195
17	0xbd4ec1a1	-0.050477628
18	0x3c05091b	0.008119847
19	0x3de29803	0.1106415
20	0x3d964b50	0.073385835
21	0x3da0a413	0.07843795
22	0xbd5fd1aa	-0.05464331
23	0xbc672e27	-0.014110125
24	0x3d90311b	0.07040616
25	0x3d823aa3	0.0635884
26	0x3d9eebd5	0.07759825
27	0xbc3c47a3	-0.011491689
28	0x3d8cf9ff	0.068836205
29	0x3c677f54	0.0141294785
30	0x3db6f274	0.08932963
31	0x3e1fe7d9	0.15615787
32	0x3d0c2e98	0.034224123
33	0x3d8d5da5	0.06902627
34	0x3dfece73	0.12441721
35	0xbd5dcf0c	-0.054152533
36	0x3db6c3a5	0.08924035
37	0xbd7889c4	-0.06067826
38	0xbd28e5b6	-0.041234694
39	0xbd9dd293	-0.077061795
40	0x3d2a696d	0.041604448
41	0x3d3d7af1	0.046259824
42	0xbda7319b	-0.08163758
43	0xbd1e576f	-0.038657602
44	0x3dd356bd	0.103192784
45	0x3c945e5b	0.018111398
46	0x3d1732a5	0.036913533
47	0xbd1e5c60	-0.038662314
48	0x3afdae2e	0.0019354278
49	0x3c6b9257	0.014378152
50	0x3e158692	0.14602116
51	0xbd55762b	-0.052114647
52	0xbc29d63e	-0.010366021
53	0xbc97d449	-0.018533843
54	0xbc9dd804	-0.019268043
55	0x3e0b1248	0.13581192
56	0x3d26c7a5	0.04071774
57	0x3c526600	0.0128417015
58	0xbd88d0bf	-0.0668044
59	0x3dc6e22e	0.09711109
60	0x3d6e849d	0.05823194
61	0x3d50cfd5	0.050979454
62	0xbca37e9f	-0.019957839
63	0x3cbb32f5	0.022851447
64	0x3d017077	0.031601395
65	0x3d6e84b2	0.058232017
66	0x3db8f237	0.09030574
67	0x3d34b7a8	0.04412046
68	0x3d9f8a75	0.077900805
69	0xb896aa74	-7.184307e-05
70	0xbc1c9526	-0.009557044
71	0x3cc587d2	0.024112616
72	0xbda9d573	-0.08292665
73	0xbd6213db	-0.055194717
74	0x3cfdc5a2	0.030978028
75	0x3d91ee11	0.07125486
76	0x3da2d0a6	0.07949953
77	0x3aad607c	0.0013227607
78	0xbd77694a	-0.060403146
79	0x3d846141	0.06463862
80	0xbd564b5f	-0.052317973
81	0x3da411df	0.08011221
82	0x3dd616bd	0.10453556
83	0xbd6758e3	-0.056481253
84	0x3d2784fb	0.040898304
85	0x3de1667a	0.11005874
86	0x3daf7905	0.085680045
87	0xbca67377	-0.02031873
88	0x3dc0c28e	0.09412108
89	0xbd8e1372	-0.06937303
90	0xbd6b3b14	-0.05742939
91	0x3e3e8938	0.18607032
92	0x3cb37673	0.021907067
93	0x3dd229ef	0.102619044
94	0x3d207366	0.039172553
95	0xbdb02b17	-0.08601969
96	0x3dbc5a61	0.09196926
97	0x3d5c6c50	0.053814232
98	0x3c0665c0	0.00820297
99	0xbde5a41a	-0.112129405
100	0x3cf1d144	0.029518731
101	0xbdb02819	-0.08601398
102	0x3deb48b4	0.114884764
103	0x3d030ec9	0.031996522
104	0x3c986f10	0.018607646
105	0x3d9603dd	0.073249556
106	0x3d050087	0.032471206
107	0xbae8d973	-0.0017765
108	0x3dbf603d	0.09344528
109	0x3d780ba9	0.060557995
110	0xbd5f7fe6	-0.054565333
111	0x3d95ecf1	0.073205836
112	0xbd6cfae4	-0.057856455
113	0x3d03805e	0.032104842
114	0xbcf02f8a	-0.029319543
115	0xbc917574	-0.017756201
116	0xbdb17aad	-0.08665977
117	0x3db405a9	0.08790142
118	0x3ddb0c1d	0.1069567
119	0x3c2220d5	0.009895523
120	0x3e05fbe6	0.13084373
121	0xbccb05ef	-0.024783103
122	0x3daa232c	0.0830749
123	0x3c9c33f4	0.019067742
124	0xbd10ef32	-0.035384364
125	0x3d1258ca	0.035729207
126	0x3cf38d97	0.029730601
127	0x3d16d884	0.03682758
128	0xbda50b10	-0.08058751
129	0x3d7d0f4e	0.061782174
130	0x3da615a6	0.08109598
131	0x3c686690	0.014184609
132	0xbe297372	-0.16547945
133	0x3d5b3b28	0.053523213
134	0xbbcfc0ff	-0.0063401456
135	0x3e1aeb40	0.15128803
136	0x3ccbf68f	0.024897842
137	0x3de06b4f	0.109579675
138	0xbc904f32	-0.017615888
139	0x3d409b9e	0.047023408
140	0xba8f2500	-0.0010921061
141	0x3d974fc1	0.07388259
142	0x3d8245b2	0.063609496
143	0xbd88c879	-0.06678862
144	0xbd5a4856	-0.05329164
145	0xbcdf762d	-0.02727803
146	0x3cab19ec	0.020886384
147	0x3cf8383a	0.030300248
148	0x3d6ab91a	0.057305433
149	0xbd3130c1	-0.043259386
150	0x3d2a83a8	0.041629463
151	0xbd825721	-0.06364275
152	0xbd17b9a9	-0.037042294
153	0xbc67ea68	-0.014155008
154	0xbd8e023f	-0.06934022
155	0xbe009d11	-0.12559916
156	0x3da2fcdf	0.079583876
157	0x3d965029	0.07339508
158	0xbd06003c	-0.032715067
159	0x3cb14c3d	0.021642799
160	0x3e1b4456	0.15162787
161	0x3d159507	0.036519077
162	0x3dac39ae	0.08409439
163	0x3da34e5e	0.07973932
164	0x3db79f90	0.08965981
165	0x3cc9ad51	0.024618777
166	0x3cc92a15	0.0245562
167	0xbc430d50	-0.011905029
168	0xbda4a62b	-0.080395065
169	0xbd05df59	-0.032683704
170	0xbde5a1f6	-0.11212532
171	0x3e2828eb	0.16421859
172	0xbdd132b8	-0.10214752
173	0x3deea1b9	0.1165194
174	0xbc8ba52e	-0.017046537
175	0xbbbfa418	-0.005848419
176	0x3cb9040e	0.022584941
177	0x3d1c36b4	0.038138106
178	0x3dbbaea0	0.091641665
179	0x3e25ea2c	0.1620261
180	0x3d9e9eaf	0.0774511
181	0xbe1f86e0	-0.15578794
182	0xbdb03a03	-0.08604815
183	0x3da503df	0.08057379
184	0x3e1c4501	0.15260698
185	0x3d2c5cae	0.042080574
186	0x3c7cfe6c	0.015441518
187	0xbe27ebc1	-0.16398527
188	0x3c828b51	0.015935572
189	0x3d749879	0.05971572
190	0xbd7c15d7	-0.061544266
191	0x3c63384d	0.013868404
192	0xbda9a92b	-0.08284219
193	0x3dc71ed2	0.097226754
194	0xbd00e9ee	-0.031473093
195	0x3b17744a	0.0023110085
196	0x3d5480d6	0.05188068
197	0xbdd8e3a6	-0.105902955
198	0x3d8a4867	0.06752091
199	0xbcd9ec5a	-0.026601959
200	0x3d3b984e	0.045799546
201	0x3d66a47f	0.05630922
202	0xbe0c4d43	-0.13701348
203	0xbdb53a20	-0.08848977
204	0x3af39d98	0.0018586395
205	0x3d0de2ff	0.03464031
206	0xbc106db0	-0.008815214
207	0x3d34002f	0.043945488
208	0x3d0107b3	0.031501483
209	0xbb566d38	-0.0032718908
210	0x3da48e7d	0.0803499
211	0x3d0d7d1a	0.034543134
212	0xbd14af9d	-0.03630029
213	0xbb1bd3cc	-0.0023777364
214	0xbd8a040b	-0.067390524
215	0x3d7876aa	0.060660042
216	0x3daa824b	0.08325633
217	0xbcc0f9bc	-0.023556583
218	0xbd38682f	-0.045021232
219	0xbb9a92e5	-0.004717218
220	0x3d3c0f89	0.045913253
221	0xbd558d9a	-0.052136995
222	0xbdb6bee4	-0.08923128
223	0xbc7033d9	-0.014660799
224	0xbcbf10a1	-0.023323359
225	0xbdb35698	-0.08756751
226	0x3bdcb910	0.0067359284
227	0x3d853008	0.06503302
228	0xbd84986e	-0.06474386
229	0x3d5bbcf6	0.053647004
230	0xbd17e8ce	-0.037087254
231	0xbcd14099	-0.025543498
232	0xbb349020	-0.0027551726
233	0xbdf1505a	-0.11782904
234	0xbda3e494	-0.08002582
235	0x3db70ac8	0.08937603
236	0x3d36cbda	0.044628
237	0xbd18a7a7	-0.03726926
238	0xbb4098c0	-0.002938792
239	0x3e12cb03	0.14335255
240	0xbe521574	-0.20515996
241	0xbca075fa	-0.019587506
242	0xbd2b6ba6	-0.04185071
243	0xbc0aa52f	-0.008462234
244	0xbb475740	-0.0030416995
245	0xbdd285d9	-0.10279436
246	0x3dadef00	0.08492851
247	0xbdbf0d07	-0.09328657
248	0x3e120442	0.14259437
249	0xbcd36d02	-0.025808815
250	0x3b6b9ea6	0.0035952716
251	0x3df3d0e8	0.1190508
252	0x3d830049	0.06396539
253	0x3da67915	0.08128563
254	0xbde47d3b	-0.11156698
255	0xbddbc998	-0.1073181

layer2.bias f4 [128]
0	0x3dba615a	0.091005996
1	0x3d988e2c	0.07448992
2	0x3d947356	0.07248561
3	0xbcd340df	-0.025787769
4	0x3dab7f55	0.08373896
5	0x3d7f3a6d	0.06231158
6	0x3cf5041e	0.02990919
7	0x3c9d0223	0.019166058
8	0xbdb21b0a	-0.086965635
9	0xbda63531	-0.08115614
10	0xbc3675f6	-0.0111365225
11	0x3d22b20f	0.03972059
12	0x3dc87550	0.097880006
13	0x3ce1f053	0.027580416
14	0xbca1df64	-0.019759841
15	0xbd5ba22b	-0.053621452
16	0xbda0f7de	-0.07859777
17	0xbd04ea8e	-0.03245025
18	0x3d24c895	0.040230352
19	0xbd04bd48	-0.032407075
20	0xbd319496	-0.043354593
21	0x3ca802c9	0.02050914
22	0xbba7ab95	-0.0051168897
23	0xbcf8cf0d	-0.030372167
24	0x3bf27cb6	0.0074001206
25	0x3d09aae2	0.033610232
26	0xbcecf52b	-0.028925499
27	0x3d99f7e6	0.07517986
28	0x3a6dbbfe	0.00090688455
29	0xbd9e2e6b	-0.07723697
30	0x3d29dba6	0.04146924
31	0x3db68b23	0.08913257
32	0x3de9ae15	0.11410157
33	0x3cdf3c4d	0.027250433
34	0x3e2249c4	0.15848452
35	0x3c6610c7	0.014042086
36	0xbbf925cd	-0.007603383
37	0x3caebc08	0.021329895
38	0xbd5b3eed	-0.053526808
39	0xbc4b82e6	-0.012421345
40	0x3e2ce51d	0.16884275
41	0xbbb6757c	-0.0055682044
42	0xbd93542c	-0.07193789
43	0x3e2310cc	0.15924376
44	0x3c9a7283	0.018853432
45	0x3db014a9	0.085976906
46	0x3c22a184	0.009926204
47	0x3cc05676	0.023478728
48	0x3d1919fc	0.037378296
49	0xbd9b4aaa	-0.075826004
50	0x3d08d6e3	0.033408057
51	0x3e168d3d	0.14702316
52	0xbd85051a	-0.06495114
53	0xbd51656f	-0.051122125
54	0x3d4d8efd	0.050185192
55	0xbc8c9839	-0.01716243
56	0x3d1646ba	0.036688544
57	0xbd5ba087	-0.053619888
58	0x3dac71cf	0.08420145
59	0xbd8a8629	-0.0676387
60	0xbd5e6d9e	-0.054303758
61	0xbd9f3bb5	-0.0777506
62	0x3c927bf9	0.01788138
63	0x3d9eef9e	0.07760547
64	0x3d21ff4b	0.039550107
65	0x3d860dfd	0.06545637
66	0x3d21458b	0.039372962
67	0x3ddb21f9	0.10699839
68	0x3d421cd0	0.04739076
69	0x3d4ea7ef	0.050453123
70	0x3afdf4d2	0.001937533
71	0x3dc56c68	0.096398175
72	0x3d426cac	0.04746692
73	0x3c8bb386	0.017053377
74	0x3bf96a28	0.0076115318
75	0x3dcf4cdf	0.10122084
76	0xbc63cf20	-0.013904363
77	0xbdacc499	-0.084359355
78	0xbd20f99d	-0.03930055
79	0x3d891cec	0.066949695
80	0x3d41c8a4	0.047310486
81	0x3cc16ce5	0.023611495
82	0x3d97ab17	0.0740568
83	0x3cd29844	0.025707372
84	0x3e446a25	0.19181116
85	0xbd4da570	-0.0502066
86	0xbc39ade6	-0.0113329645
87	0xbc55710c	-0.013027441
88	0x3c7efe53	0.015563565
89	0xbd833f88	-0.06408602
90	0xbab0ec89	-0.0013498227
91	0x3d3f6d02	0.046734817
92	0xbde31e41	-0.11089755
93	0x3e09cd11	0.13457133
94	0x3c2d5701	0.010579825
95	0x3c9943ff	0.01870918
96	0xbd818b7e	-0.06325434
97	0xbc2c8ab9	-0.010531121
98	0xbd553512	-0.052052565
99	0xbdaa0a0c	-0.083026975
100	0x3d4c894b	0.04993562
101	0x3d8a37c4	0.06748918
102	0x3d94ec06	0.072715804
103	0xbc6d8088	-0.014495976
104	0xbdab36d9	-0.08360071
105	0x3d2388d3	0.039925408
106	0xbcb46ef3	-0.022025561
107	0x3c93439d	0.017976576
108	0xbd0e67b6	-0.034766875
109	0xbd533605	-0.05156519
110	0x3d83ecf4	0.064416796
111	0xbd3db552	-0.0463155
112	0x3d414858	0.047188133
113	0x3cc47787	0.023982776
114	0xbd06893d	-0.032845724
115	0xbd71200e	-0.05886846
116	0xbdc78c02	-0.09743501
117	0x3cf8fd01	0.03039408
118	0x3e0510b7	0.12994657
119	0x3e0977a8	0.13424551
120	0xbda5b02c	-0.08090243
121	0x3de10485	0.1098719
122	0xbd8cb7e1	-0.068710096
123	0xbd9a1ae7	-0.075246625
124	0xbdbbf45b	-0.091774665
125	0x3d697637	0.056997504
126	0x3c1f0031	0.0097046355
127	0x3da7c42f	0.08191716

layer3.weight f4 [9, 128]
0	0xbd9ec55d	-0.07752488
1	0xbdf0d289	-0.117589064
2	0x3ded9e91	0.1160251
3	0x3e203f41	0.1564913
4	0xbe756e15	-0.23967774
5	0xbdf2f822	-0.11863734
6	0x3d04d7bc	0.032432303
7	0xbdd29048	-0.10281426
8	0x3c7c6270	0.015404329
9	0xbc1d7583	-0.0096105365
10	0xbd94a6f9	-0.0725841
11	0x3e953794	0.29143965
12	0x3df665cb	0.12031134
13	0x3c152d5f	0.009105056
14	0xbda41a57	-0.080128364
15	0xbcfe2c1e	-0.031026896
16	0x3d14efbe	0.03636145
17	0x3e0873fc	0.13325495
18	0xbe0adb80	-0.13560295
19	0xbdf81d76	-0.12114994
20	0xbdd329ab	-0.10310682
21	0x3d523cce	0.05132752
22	0xbd75443c	-0.059879526
23	0x3e406d71	0.18791749
24	0xbdba0fce	-0.09085046
25	0xbcda5825	-0.026653359
26	0x3b032622	0.0020011743
27	0xbdd9437d	-0.106085755
28	0xbdcbe3df	-0.09955572
29	0x3d0aab60	0.033854842
30	0x3cb49ccf	0.022047428
31	0xbc1adcca	-0.009452054
32	0xbd6be5bb	-0.057592135
33	0x3cc00d92	0.02344397
34	0xbe721200	-0.23639679
35	0xbd5806c7	-0.05274084
36	0xbd712955	-0.058877308
37	0x3d3f2d07	0.0466738
38	0xbddef689	-0.108868666
39	0xbe53af5e	-0.20672366
40	0xbe63fbdc	-0.22264045
41	0xbd7e6fa4	-0.062118188
42	0x3d70850c	0.058720633
43	0x3da8e2c7	0.08246379
44	0xbcf6a807	-0.030109419
45	0xbded85d2	-0.1159779
46	0xbc915047	-0.017738475
47	0xbc3881e5	-0.011261438
48	0xbda7a9c0	-0.08186674
49	0xbd5408e4	-0.05176629
50	0xbd5756ee	-0.052573137
51	0x3eb18399	0.34670714
52	0x3d162238	0.036653727
53	0x3db1cfc1	0.08682204
54	0x3c993da5	0.018706152
55	0xbd2db546	-0.042409204
56	0xbd826365	-0.06366614
57	0xbd0916a7	-0.03346887
58	0x3baaf90a	0.005217676
59	0xbd044f46	-0.032302164
60	0x3c4d77bc	0.012540754
61	0x3daffa5f	0.08592676
62	0x3eb55cb2	0.35422283
63	0xbc2e28ed	-0.010629875
64	0x3d096856	0.033546768
65	0xbd847a02	-0.06468584
66	0xbda04723	-0.07826068
67	0xbd382474	-0.04495664
68	0x3e0cff9b	0.13769381
69	0xbdf2b662	-0.11851193
70	0x3e600ac5	0.21879108
71	0xbe37201d	-0.17883344
72	0x3c334414	0.010941524
73	0x3e0522fc	0.13001627
74	0xbe427c48	-0.18992722
75	0xbe123e5e	-0.14281604
76	0xbcf0d0bb	-0.029396405
77	0xbd9b2ea9	-0.07577259
78	0xbd034b08	-0.032053977
79	0xbe0109dc	-0.12601417
80	0xbd5dda22	-0.054163106
81	0xbe1c20b4	-0.1524685
82	0x3eb2cd3f	0.34922215
83	0xbdfed705	-0.124433555
84	0xbe995281	-0.29945758
85	0x3db41f79	0.087950654
86	0xbcdab7bf	-0.026698945
87	0xbd60c5a9	-0.054876003
88	0xbda1d7f6	-0.079025194
89	0xbce243e6	-0.027620267
90	0xbd160e1a	-0.036634542
91	0x3c5fe8da	0.013666356
92	0x3e4e666b	0.20156257
93	0xbd470dfa	-0.048597313
94	0xbd6fa533	-0.058507156
95	0xbe513f4c	-0.20434302
96	0xbc71d474	-0.014760125
97	0xbd77e93e	-0.06052517
98	0x3d1cecd1	0.038311783
99	0xbce648ea	-0.02811094
100	0xbd30ee55	-0.04319604
101	0xbe28ab10	-0.16471505
102	0x3e094d92	0.13408497
103	0x3d826ab1	0.06368006
104	0xbd84295c	-0.06453201
105	0xbe238248	-0.15967667
106	0x3e2934ac	0.16523999
107	0x3d4219d3	0.04738791
108	0xbe0d5ab4	-0.13804132
109	0x3c86785d	0.016414816
110	0xbe2b519a	-0.16730347
111	0xbdc588b9	-0.096452184
112	0xbe771a97	-0.24131237
113	0x3c8b26a5	0.0169862
114	0x3d9278cc	0.071519464
115	0x3bb052d6	0.0053809686
116	0xbda0303e	-0.078217015
117	0x3d2b8ebc	0.04188417
118	0x3d7f565e	0.062338226
119	0x3e7c46ff	0.24636458
120	0x3da2d9aa	0.079516724
121	0xbdc74595	-0.097300686
122	0xbd695f7c	-0.056975827
123	0x3d630468	0.055424124
124	0xbda37886	-0.079819724
125	0xbd182ef5	-0.037154157
126	0x3d646067	0.055756
127	0xbd9bfa1c	-0.07616064
128	0xbca5777b	-0.020198574
129	0x3d18ad4b	0.03727464
130	0xbd0e0093	-0.034668516
131	0x3b811d69	0.0039402735
132	0xbe045942	-0.12924674
133	0xbcdfba05	-0.02731038
134	0x3d6aab32	0.05729217
135	0xbb4f210f	-0.0031605398
136	0x3d5bdd32	0.053677745
137	0x3ddc1e24	0.10747936
138	0x3c4e332f	0.012585445
139	0x3dd70ed7	0.10500877
140	0xbdc1ad97	-0.09456938
141	0x3d3b4571	0.04572052
142	0xbd6f8066	-0.05847206
143	0x3d5c0dbe	0.053724043
144	0xbaf6f389	-0.001884089
145	0xbd9d2cb8	-0.07674545
146	0x3c3f2920	0.01166752
147	0x3d8a3590	0.067484975
148	0xbd1ca7c5	-0.038245935
149	0x3d801718	0.06254405
150	0x3c500d0c	0.012698423
151	0xbd316937	-0.04331323
152	0xbcb53398	-0.022119328
153	0x3d09c41a	0.033634283
154	0xbc70b503	-0.014691594
155	0xbd8504d2	-0.0649506
156	0xbdf8c877	-0.12147611
157	0xbd52951d	-0.051411737
158	0xbd3a7e0a	-0.045530356
159	0xb8f73901	-0.000117884956
160	0x3d431cce	0.047634892
161	0xbc6a69a8	-0.014307417
162	0xbd1a99ba	-0.03774426
163	0x3d0befda	0.034164287
164	0xbc8ac986	-0.016941797
165	0x3c82a219	0.015946435
166	0x3dbf6eaf	0.09347283
167	0xbd7aabeb	-0.06119911
168	0x3e1597b0	0.14608645
169	0xb9f40728	-0.00046544638
170	0xbd6a6f19	-0.057234857
171	0x3d83f34e	0.06442891
172	0xb9f22e73	-0.00046192444
173	0x3d848c2d	0.06472049
174	0xbdff61cb	-0.124698244
175	0x3d08e8a2	0.03342498
176	0xbe2d5204	-0.16925818
177	0x3d2becee	0.041974
178	0xbdb3fe83	-0.08788779
179	0xbea7962e	-0.32731766
180	0x3d8704b0	0.06592691
181	0x3d0ad5b4	0.03389521
182	0x3d092a4d	0.033487607
183	0xbd2003ec	-0.03906624
184	0xbe274387	-0.16334353
185	0x3d14ba1e	0.036310308
186	0xbd59280d	-0.05301671
187	0x3d160024	0.036621228
188	0x3d9a78d9	0.07542581
189	0xbc33e358	-0.010979496
190	0xbd189a10	-0.0372563
191	0x3da12f94	0.07870403
192	0xbda4ece8	-0.08052999
193	0x3d9297dd	0.07157872
194	0xbdcc472d	-0.09974513
195	0x3d89cfbf	0.067290775
196	0x3d3ecbab	0.04658095
197	0xbd5e069e	-0.05420553
198	0xbe07737a	-0.13227645
199	0x3e07ff2e	0.13280937
200	0x3d46c410	0.048526824
201	0x3e25ea9c	0.16202778
202	0xbe36bdb6	-0.17845806
203	0x3e82c3fa	0.25540143
204	0xbcf64b50	-0.030065209
205	0xbd7ca26d	-0.06167834
206	0xbd1ff9d7	-0.039056625
207	0x3cdf112c	0.027229868
208	0x3d39b06f	0.045334276
209	0xbd2d23ab	-0.042270344
210	0xbea1481f	-0.31500337
211	0xbc0ae03e	-0.008476315
212	0xbe5986ba	-0.212428
213	0xbd90308e	-0.07040511
214	0x3c8f61dc	0.017502718
215	0x3d6fbcd2	0.058529682
216	0xbd18f49b	-0.03734265
217	0x3d918158	0.071047485
218	0xbe5bbe2c	-0.21459264
219	0xbcde4afa	-0.027135361
220	0x3e1296be	0.14315316
221	0x3e118ea1	0.14214565
222	0xbd0ff53a	-0.035145976
223	0x3d92afaf	0.07162415
224	0x3da4005f	0.08007883
225	0x3d43297a	0.047646977
226	0x3e5532fe	0.20820233
227	0x3b1746eb	0.0023083042
228	0xbd33c6b2	-0.043890662
229	0x3d27dada	0.040980197
230	0xbdfddd24	-0.12395695
231	0xbb39ec40	-0.0028369576
232	0xbda6d0e4	-0.081453115
233	0xbca1fe6d	-0.01977464
234	0xbe002950	-0.1251576
235	0x3db27820	0.08714318
236	0xbc92e145	-0.017929683
237	0xbd7358d5	-0.05941089
238	0x3d1eafc3	0.03874184
239	0xbb608d32	-0.0034263846
240	0xbe099e87	-0.1343938
241	0x3c434373	0.011917937
242	0x3c703890	0.014661923
243	0xbd2c6fbb	-0.042098742
244	0xbd05cfeb	-0.03266899
245	0xbd2f8fd8	-0.04286179
246	0xbe53fd9c	-0.20702213
247	0xbc86ba21	-0.016446175
248	0xbbc9c92d	-0.006158015
249	0x3e08d26e	0.13361523
250	0x3d6015bb	0.054708224
251	0xbd886304	-0.06659511
252	0x3d88505c	0.06655952
253	0x3dda2da7	0.10653239
254	0xbdb99606	-0.09061818
255	0x3dd34f0e	0.10317813

layer3.bias f4 [9]
0	0x3b191802	0.0023360257
1	0x3cc79ea0	0.02436763
2	0xbd861280	-0.06546497
3	0x3b4e770e	0.0031504068
4	0x39f4dbf0	0.00046703173
5	0xbbe8e895	-0.007107804
6	0x3d25996b	0.040429514
7	0xbd035eb8	-0.032072753
8	0xbc659e2b	-0.014014761
