rl_energy_manager_20250325_1542/models/best_self_sufficiency_model/actor.pth (torch, 82676 bytes, 6 tensors)

layer1.weight f4 [128, 18]
0	0x3e388741	0.18020345
1	0x3e485479	0.19563474
2	0xbd622cd8	-0.055218548
3	0x3e5db717	0.21651874
4	0xbd5387d4	-0.051643208
5	0x3d42d0ec	0.047562525
6	0xbdeb0388	-0.11475283
7	0x3e0dbefb	0.13842385
8	0x3e54c4b7	0.20778166
9	0xbe31115e	-0.17291781
10	0x3e51c9d5	0.20487149
11	0x3d34b0bc	0.04411386
12	0x3e325179	0.17413892
13	0x3d02bfe4	0.031921282
14	0x3de8c2d2	0.11365284
15	0xbd084f9c	-0.033279046
16	0x3e3a0f71	0.18169953
17	0x3d0eb33c	0.0348389
18	0xbde15a26	-0.110035226
19	0x3d76168c	0.060080096
20	0xbdde67ee	-0.10859667
21	0xbce27060	-0.027641475
22	0xbdc40f5e	-0.095732436
23	0x3e201c53	0.15635805
24	0xbe3e858d	-0.18605633
25	0xbdde89c0	-0.108661175
26	0xbd884eb4	-0.066556364
27	0xbe111f62	-0.14172128
28	0x3cb63de8	0.022246316
29	0xbe6e62a7	-0.2327982
30	0x3e59f93f	0.21286486
31	0xbe4d06e3	-0.20022158
32	0x3e3a55f9	0.18196858
33	0x3d20aac4	0.039225355
34	0xbd9cbda4	-0.076533586
35	0x3e1525d9	0.14565219
36	0x3d1676cc	0.036734387
37	0x3e430263	0.19043879
38	0x3cd31518	0.025766894
39	0xbd983c84	-0.074334174
40	0x3d81b2d2	0.063329354
41	0xbd82e73c	-0.06391761
42	0x3dcb27d6	0.099197075
43	0x3e577da3	0.2104402
44	0x3e0b851b	0.13624994
45	0xbdd307fa	-0.10304256
46	0x3e0b53fd	0.13606258
47	0x3d2cbdec	0.04217331
48	0x3df52426	0.119697854
49	0xbe131c0f	-0.14366172
50	0xbe6eec66	-0.23332366
51	0xbdba80d6	-0.09106605
52	0xbe3920c2	-0.18078902
53	0x3e460b67	0.19340287
54	0x3d8b09ba	0.067889646
55	0x3dc7f2ce	0.09763108
56	0x3d98aa3e	0.07454346
57	0xbb865b80	-0.004100263
58	0x3e3ce3bf	0.18446253
59	0xbe2b7d2a	-0.16746965
60	0x3c732650	0.014840677
61	0xbe24bcc0	-0.16087627
62	0x3d94d8de	0.07267927
63	0xbda63d56	-0.08117168
64	0x3d93e9aa	0.07222302
65	0xbd4923f4	-0.049106553
66	0x3e482e69	0.19548954
67	0xbe0f0dd4	-0.13970119
68	0xbe0ff233	-0.14057235
69	0xbe0ff46c	-0.14058083
70	0x3e5916b7	0.21200071
71	0x3da0ddca	0.07854803
72	0x3e683f7b	0.22680466
73	0xbe47301d	-0.19451948
74	0xbe6f65fa	-0.23378745
75	0xbe3cd4a4	-0.18440491
76	0xbe225c12	-0.15855435
77	0x3dc3852e	0.095468864
78	0x3dacd98a	0.0843993
79	0x3e488d19	0.19585074
80	0xbdf949b7	-0.12172263
81	0xbe248990	-0.16068101
82	0x3e000f53	0.12505846
83	0xbdc31dec	-0.095271915
84	0x3e127c91	0.14305331
85	0xbd651944	-0.0559323
86	0x3e0a1189	0.13483252
87	0xbe3b873f	-0.18313311
88	0xbdf39a88	-0.11894709
89	0x3d932b5e	0.07186006
90	0x3d4c19bc	0.04982923
91	0xbd762580	-0.060094357
92	0x3e0fdde7	0.14049493
93	0x3e241401	0.16023256
94	0xbe2f06f6	-0.17092499
95	0xbe00da9d	-0.12583394
96	0x3e5d00db	0.21582358
97	0xbda2e284	-0.07953361
98	0xbdab21ac	-0.08356032
99	0xbe6989ac	-0.22806424
100	0xbe0a381c	-0.13497967
101	0x3d712b6c	0.0588793
102	0xbcfedcb0	-0.031111091
103	0xbe2f32ff	-0.17109297
104	0x3bb52ae0	0.0055287927
105	0xbe24de32	-0.16100386
106	0xbe4cc4ad	-0.19996901
107	0xbe04e84e	-0.12979242
108	0xbe533d8c	-0.20628947
109	0xbe19aeba	-0.15008059
110	0x3e7143c5	0.23561008
111	0x3d3658c4	0.044518247
112	0x3d94c11a	0.07263394
113	0xbe611ca3	-0.2198358
114	0xbe1e84b2	-0.15480307
115	0xbda0acf2	-0.07845487
116	0x3d16f764	0.036857024
117	0xbe546085	-0.20739944
118	0xbdcffd82	-0.10155775
119	0xbe107e7e	-0.14110753
120	0x3a2b3b00	0.0006531924
121	0xbdb39efa	-0.08770557
122	0xbc85cd20	-0.016333163
123	0xbe238d57	-0.15971886
124	0xbe25aaf0	-0.16178489
125	0xbe0ccf31	-0.13750912
126	0xbda53bb4	-0.08068028
127	0xbe3e8009	-0.18603529
128	0x3e4a5f51	0.19762923
129	0xbd3f9abc	-0.046778426
130	0x3e4faa23	0.20279746
131	0x3d966806	0.0734406
132	0xbe4c61d6	-0.19959196
133	0x3e27076d	0.16311426
134	0xbd84d142	-0.06485225
135	0xbdb909da	-0.09035082
136	0xbe485857	-0.19564949
137	0xbe6ff322	-0.23432592
138	0x3d8a1c5e	0.06743692
139	0xbd52e4c8	-0.051487714
140	0x3dbbeef2	0.091764346
141	0xbe461319	-0.19343223
142	0x3e333129	0.17499222
143	0xbe312baa	-0.17301813
144	0xbd26b484	-0.040699497
145	0x3d49a684	0.049231067
146	0x3df93442	0.121681705
147	0x3e42da09	0.19028486
148	0x3e5bde4b	0.21471517
149	0xbe3f6105	-0.18689354
150	0x3d72f804	0.059318557
151	0xbdcfa130	-0.10138166
152	0xbcd39828	-0.02582939
153	0xbe34a7a8	-0.17642081
154	0x3e5bd813	0.21469145
155	0xbe312549	-0.1729938
156	0x3e00fea3	0.12597136
157	0x3da9a572	0.08283509
158	0x3d9cdcb6	0.07659285
159	0xbe027d6a	-0.12743154
160	0x3e5b623d	0.21424194
161	0x3d5427b4	0.051795676
162	0x3cf86338	0.030320749
163	0xbe54b2ea	-0.20771375
164	0x3dcaa3ba	0.098945096
165	0xbd10d5d8	-0.035360187
166	0xbddd251a	-0.10798092
167	0x3e4f5089	0.20245565
168	0x3d573e2c	0.052549526
169	0xbe0589ce	-0.1304085
170	0xbdf4528e	-0.119298086
171	0xbc386ba0	-0.011256129
172	0x3e06c3fd	0.13160701
173	0xbd76b3a0	-0.060229897
174	0xbe09b6a4	-0.13448578
175	0xbda54dac	-0.08071455
176	0xbe345036	-0.17608723
177	0x3dac272a	0.084059075
178	0x3e3ad259	0.18244304
179	0xbe6339a7	-0.22189961
180	0x3d60392c	0.054742023
181	0x3df95e46	0.12176184
182	0x3d2f0fdc	0.042739734
183	0xbdabe86a	-0.08393939
184	0x3dfbf372	0.12302293
185	0x3dfdacbe	0.123864636
186	0x3db48062	0.088135496
187	0xbd29a5d8	-0.041417927
188	0xbd7fa618	-0.06241426
189	0x3cce9108	0.02521564
190	0xbd2a8c60	-0.04163778
191	0xbd8fd9be	-0.07023953
192	0x3e1a4745	0.1506625
193	0x3e4f6c85	0.2025624
194	0xbcbf26c0	-0.023333907
195	0xbd582880	-0.052773
196	0x3b616840	0.0034394413
197	0xbc669400	-0.014073372
198	0x3d681a14	0.056665495
199	0x3d87461e	0.06605171
200	0xbe5b374f	-0.21407817
201	0xbdb22428	-0.086983025
202	0x3e4b4171	0.19849183
203	0x3dbc0b9a	0.091819
204	0xbc4012f0	-0.011723265
205	0xbe11844d	-0.14210625
206	0xbe13aa2c	-0.14420384
207	0xbe583395	-0.21113427
208	0xbd9d5916	-0.076830074
209	0x3da30416	0.07959764
210	0x3e19e553	0.15028886
211	0x3ddedea6	0.108823106
212	0xbe555913	-0.2083476
213	0xbe1124f2	-0.1417425
214	0xbd185ca8	-0.03719774
215	0x3e697a87	0.22800647
216	0x3d0ba85c	0.034096107
217	0xbd7a0510	-0.061039984
218	0x3dc7b53a	0.09751363
219	0xbdb7dbc4	-0.08977464
220	0xbe1c3897	-0.15255962
221	0x3e302a39	0.17203607
222	0xbddb7e2a	-0.10717423
223	0xbd4189b4	-0.047250465
224	0xbe701ae6	-0.23447761
225	0x3e2188d9	0.1577486
226	0x3e36dcad	0.17857619
227	0x3dafed02	0.085901275
228	0xbe284b22	-0.16434911
229	0xbe6e34fa	-0.23262396
230	0xbe4406dc	-0.19143242
231	0x3e33fb47	0.17576323
232	0x3de7c17e	0.113162026
233	0x3e4b1ad3	0.19834451
234	0x3dfce1ae	0.123477325
235	0x3d74582c	0.0596544
236	0xbb174480	-0.00230816
237	0xbe378e19	-0.179253
238	0xbe4eca2f	-0.20194314
239	0xbe61c142	-0.22046378
240	0x3dc59b42	0.09648754
241	0xbdecffcc	-0.11572227
242	0xbd424bec	-0.047435686
243	0xbe0ae748	-0.1356479
244	0xbd2fece0	-0.04295051
245	0xbe29e081	-0.16589548
246	0xbe1db534	-0.15401155
247	0x3da01f72	0.07818498
248	0xbd8f764e	-0.07004987
249	0x3e15005d	0.1455092
250	0xbd9adc38	-0.07561535
251	0xbe310d9a	-0.17290345
252	0xbd2a5730	-0.041587055
253	0xbde9ff15	-0.11425606
254	0xbd93af00	-0.07211113
255	0xbe65c5d7	-0.22438751

layer1.bias f4 [128]
0	0x3ccb7d78	0.024840102
1	0xbe3f939a	-0.1870865
2	0xbe395873	-0.18100147
3	0xbe443640	-0.1916132
4	0xbd82cdc8	-0.06386906
5	0x3e552eb1	0.20818593
6	0x3dbcb432	0.09214057
7	0xbce4f110	-0.027946979
8	0x3d46b29c	0.04851018
9	0x3dc0390a	0.09385879
10	0x3ab3ff00	0.0013732612
11	0xbe42ac90	-0.1901114
12	0xbe14b453	-0.14521913
13	0xbe23f7ce	-0.16012499
14	0xbbc41e00	-0.0059850216
15	0xbe5cf0c8	-0.21576226
16	0xbd2f8968	-0.04285565
17	0xbdb0843c	-0.08618972
18	0x3e6cdcd5	0.23131116
19	0x3e442eb9	0.19158448
20	0x3e0c31bf	0.13690852
21	0x3c589350	0.013218716
22	0xbd9c4a80	-0.07631397
23	0x3d76411c	0.060120687
24	0xbe26c31e	-0.16285369
25	0xbdcde19a	-0.10052796
26	0xbd41f12c	-0.04734914
27	0xbd62d578	-0.05537936
28	0xbe64a3d9	-0.22328128
29	0x3dbfe53e	0.09369896
30	0x3e46c141	0.19409658
31	0xbe052094	-0.13000709
32	0x3d821fe2	0.063537374
33	0xbcdfee80	-0.027335405
34	0xbc0cd8f0	-0.008596644
35	0x3c6119e0	0.013739079
36	0x3e512857	0.20425545
37	0x3d015bfc	0.031581864
38	0xbe18b3cf	-0.14912342
39	0xbdada3ea	-0.0847853
40	0x3debd22e	0.11514698
41	0x3d96a26a	0.07355197
42	0x3b961c60	0.0045810193
43	0xbcfed4a8	-0.031107262
44	0xbdbbd082	-0.09170629
45	0xbdab5470	-0.083657146
46	0xbdfea089	-0.124329634
47	0x3d1e32b4	0.038622573
48	0x3d87914e	0.066195115
49	0x3e38d1cd	0.18048783
50	0xbd5a1ae4	-0.0532483
51	0x3c8a3a98	0.016873643
52	0x3e1bfce5	0.1523319
53	0x3dd1fa5a	0.10252829
54	0x3cf817e8	0.030284837
55	0x3d94543a	0.072426274
56	0x3c487310	0.012234464
57	0xbe4f092e	-0.20218346
58	0x3c14dfe0	0.009086579
59	0xbd530628	-0.051519543
60	0x3e59ce29	0.2127005
61	0x3e59db81	0.2127514
62	0x3d3f8894	0.04676111
63	0x3e57ba3f	0.21067141
64	0xbdf89bea	-0.12139113
65	0x3e51c871	0.20486619
66	0x3e4fce7f	0.20293616
67	0xbc139990	-0.00900878
68	0xbe41b166	-0.18915328
69	0xbd9bc57a	-0.07606025
70	0xbd811790	-0.06303322
71	0x3b7f2740	0.0038933307
72	0xbe5ad41c	-0.21369976
73	0x3d32eb84	0.043681636
74	0xbdc8c22c	-0.0980266
75	0xbd773104	-0.06034948
76	0xbdf951fa	-0.12173839
77	0xbd4bd620	-0.049764752
78	0xbe602802	-0.21890262
79	0xbdffebf6	-0.12496178
80	0x3cb1e1a8	0.021714047
81	0x3e1e2825	0.15445001
82	0x3e5b55a5	0.2141939
83	0xbe3693d3	-0.17829828
84	0x3dcab41e	0.09897636
85	0xbe080d99	-0.13286437
86	0xbe3a9bc6	-0.18223485
87	0xbc2a0da0	-0.010379225
88	0xbe0a7471	-0.13520981
89	0xbe4fdea2	-0.20299771
90	0xbe618f14	-0.22027236
91	0xbe218da7	-0.15776692
92	0x3e46555b	0.19368498
93	0x3e069ba1	0.13145305
94	0xbdbf1526	-0.093302056
95	0xbe218bf2	-0.15776041
96	0xbe39a9dd	-0.18131204
97	0xbe0e871a	-0.13918725
98	0xbdc6a342	-0.09699108
99	0x3e10f52b	0.14156024
100	0x3d9df8fe	0.07713507
101	0xbdba06b2	-0.09083308
102	0x3e2628c1	0.16226484
103	0xbe15f0b8	-0.14642608
104	0xbe44a1e3	-0.1920238
105	0x3d52b4e4	0.051442042
106	0xbe0515ec	-0.12996644
107	0x3d8952aa	0.0670522
108	0x3e4c7cf3	0.1996954
109	0xbde447b2	-0.11146487
110	0xbe286c5c	-0.16447586
111	0x3db5b1fa	0.08871837
112	0xbe59fb98	-0.21287382
113	0x3e5755d1	0.2102883
114	0xbde3f778	-0.11131185
115	0x3de95ff6	0.11395256
116	0xbe3fec05	-0.18742378
117	0xbe235e4a	-0.15953937
118	0x3cd4b1d8	0.025963709
119	0x3dab8f76	0.083769724
120	0x3e3b2611	0.1827624
121	0x3e49db77	0.19712625
122	0xbc5e1850	-0.013555601
123	0xbcf83f38	-0.030303583
124	0x3d1f96a4	0.03896202
125	0xbd604320	-0.054751515
126	0x3c037500	0.0080235
127	0xbe649428	-0.22322142

layer2.weight f4 [128, 128]
0	0xbd9499a2	-0.07255866
1	0x3d78176e	0.06056922
2	0xbd538f49	-0.05165032
3	0x3d8e8cd3	0.06960454
4	0x3c1eed08	0.009700067
5	0x3cb05fd0	0.021530062
6	0x3da48641	0.080334194
7	0xbd495cc5	-0.049160738
8	0xbc649a48	-0.013952799
9	0x3c8048cc	0.015659712
10	0x3cf76004	0.030197151
11	0xbdb02bac	-0.0860208
12	0x3d00acde	0.03141486
13	0xbd5580ec	-0.052124903
14	0x3c3e3718	0.011609815
15	0x3d74efea	0.059799112
16	0xbc104220	-0.008804828
17	0xbb373fa0	-0.0027961507
18	0xbbd86620	-0.006603971
19	0x3d970eb7	0.073758535
20	0x3d4dc1da	0.0502337
21	0x3c738900	0.014864206
22	0xbd59e161	-0.053193454
23	0xbd4499b2	-0.047998138
24	0x3d90311b	0.07040616
25	0x3d823aa3	0.0635884
26	0x3d519fbe	0.051177733
27	0xbd8d24d7	-0.06891792
28	0x3d8cf9ff	0.068836205
29	0xbc0a6e90	-0.008449212
30	0x3d855e05	0.065120734
31	0x3d9d3969	0.07676966
32	0x3c1ebbd8	0.00968834
33	0xbd16a6a4	-0.036780015
34	0x3daa46a7	0.08314257
35	0xbd3caa66	-0.046060942
36	0x3d6c8fb6	0.05775424
37	0xbdad93e0	-0.084754705
38	0xbce3bb4c	-0.027799271
39	0xbd9dd293	-0.077061795
40	0xbd2266e5	-0.03964891
41	0x3d19ba82	0.037531383
42	0xbd81b497	-0.06333273
43	0xbd9c8bd7	-0.0764386
44	0x3d816f6b	0.063200794
45	0x3d41437e	0.047183506
46	0xba7d5f80	-0.00096654147
47	0xbd7f391c	-0.062310323
48	0xbcbfd5a0	-0.023417294
49	0xbcea7130	-0.028618425
50	0x3d5f9776	0.054587804
51	0xbcecd602	-0.02891064
52	0xbcd08bac	-0.025457226
53	0xbd805135	-0.06265489
54	0xbd2a8408	-0.04162982
55	0x3d44067e	0.047857754
56	0x3d69419a	0.05694733
57	0x3c526600	0.0128417015
58	0xbd07d613	-0.03316314
59	0x3dadde0d	0.084896185
60	0x3c8eeb18	0.017446086
61	0xbd0bbee3	-0.03411759
62	0xbcfaf692	-0.030635152
63	0xbc4aaba8	-0.012370028
64	0x3d2ba446	0.04190471
65	0x3d046c0a	0.032329597
66	0x3d833b5d	0.06407807
67	0xbb827fb0	-0.0039825067
68	0x3d95b843	0.07310536
69	0xbd130e36	-0.035902224
70	0xbd26bcf1	-0.040707532
71	0xbd05b32f	-0.032641586
72	0xbda9d573	-0.08292665
73	0xbd6da81c	-0.05802165
74	0xbda3ccc2	-0.07998039
75	0xbbab2a40	-0.0052235425
76	0x3a5a7000	0.00083327293
77	0xbcbbedb4	-0.022940494
78	0xbd77694a	-0.060403146
79	0x3da43c9d	0.080193736
80	0xbcefea7a	-0.029286612
81	0x3d2c87d2	0.042121716
82	0x3d7c209e	0.061554544
83	0xbd6dfd15	-0.058102686
84	0xbc350d88	-0.011050589
85	0x3d513f1a	0.05108557
86	0x3daf7905	0.085680045
87	0xbc36b368	-0.011151172
88	0x3d832bbb	0.06404825
89	0xbd8e1372	-0.06937303
90	0xbd6b3b14	-0.05742939
91	0x3d94dbcb	0.07268485
92	0xbc091c58	-0.008368574
93	0x3db2d545	0.08732084
94	0x3bd29c90	0.006427355
95	0xbd162407	-0.036655452
96	0x3dabeab7	0.08394378
97	0x3d9e4c67	0.07729416
98	0x3c0665c0	0.00820297
99	0xbd5b7843	-0.053581487
100	0xbb7acd80	-0.003826946
101	0xbd2e1c4a	-0.042507447
102	0x3d83e7c7	0.064406924
103	0x3b862ad0	0.004094459
104	0x3c986f10	0.018607646
105	0x3d5b9052	0.05360443
106	0x3cefd830	0.02927789
107	0xbd620232	-0.055177875
108	0x3d96608d	0.07342634
109	0x3d5e6a9e	0.054300897
110	0xbd5f7fe6	-0.054565333
111	0x3d88de87	0.06683069
112	0x3ccd6c58	0.025076076
113	0xbc8e88a8	-0.017399147
114	0xbd817559	-0.063212104
115	0xbc704830	-0.014665648
116	0xbdb17aad	-0.08665977
117	0x3d4ea336	0.05044862
118	0x3d831a99	0.064015575
119	0xbcd075e0	-0.025446832
120	0x3da7d05d	0.08194039
121	0xbd060f4e	-0.03272944
122	0x3c77fe88	0.015136369
123	0xbd7c4d76	-0.06159731
124	0xbb74e720	-0.0037369207
125	0x3d1258ca	0.035729207
126	0x3d1bf14a	0.038071908
127	0xbb423dc0	-0.0029638857
128	0xbd368ffd	-0.04457091
129	0x3d7d0f4e	0.061782174
130	0x3d6fb186	0.05851891
131	0x3c686690	0.014184609
132	0xbd267e2d	-0.040647674
133	0x3c9985dc	0.018740587
134	0x3977d400	0.00023634732
135	0x3da5613b	0.08075186
136	0x3c569b28	0.013098516
137	0x3bdf63f0	0.0068173334
138	0x3bc5fd80	0.0060421824
139	0x3d409b9e	0.047023408
140	0xba8f2500	-0.0010921061
141	0x3d9b28e3	0.07576158
142	0x3d3c9e56	0.04604944
143	0xbd88c879	-0.06678862
144	0xb5880000	-1.013279e-06
145	0xbd99a684	-0.075024635
146	0xbd8afcfa	-0.06786533
147	0x3c8caeec	0.017173253
148	0x3ca2b6b4	0.01986251
149	0xbbfd7670	-0.007735066
150	0x3dac0d55	0.084009804
151	0xbd427dcf	-0.04748326
152	0xbd17b9a9	-0.037042294
153	0xbc67ea68	-0.014155008
154	0x3a0c7c00	0.00053590536
155	0xbbf55300	-0.007486701
156	0x3da2fcdf	0.079583876
157	0xbd18e7dd	-0.037330497
158	0xbd3d5f95	-0.046233732
159	0x3bf8f010	0.007596977
160	0x3d87f5dd	0.066386916
161	0x3cabdd24	0.020979472
162	0x3d430ac2	0.04761768
163	0x3c8c2bb4	0.017110683
164	0x3d9a47db	0.075332366
165	0x3d5972ee	0.05308812
166	0x3d818823	0.06324794
167	0xbc430d50	-0.011905029
168	0xbd95dd77	-0.07317632
169	0xbd2bbcfb	-0.041928273
170	0x3cf6ab94	0.030111112
171	0x3d7dfcae	0.062008552
172	0xbd0d733a	-0.034533717
173	0x3d95c763	0.073134206
174	0x3c502348	0.012703724
175	0x39b81200	0.00035108626
176	0x3b61d260	0.0034457669
177	0xbc7fd968	-0.0156157985
178	0x3da977df	0.08274817
179	0x3b7b9a20	0.0038391426
180	0x3d5dc07e	0.054138653
181	0xbd98c867	-0.07460099
182	0xbd3a87a9	-0.04553953
183	0x3c22d360	0.009938091
184	0x3d908b3b	0.07057806
185	0x3d2c5cae	0.042080574
186	0x3c89e84c	0.0168344
187	0xbdb2d878	-0.087326944
188	0x3ad9cc00	0.0016616583
189	0xbd6efb7a	-0.058345295
190	0xbd9a913c	-0.075472325
191	0x3c460690	0.012086526
192	0xbd651055	-0.05592378
193	0x3da44cdd	0.08022473
194	0xbd44c87c	-0.04804276
195	0x3ce958d8	0.028484747
196	0x3d5480d6	0.05188068
197	0xbd8cb1e8	-0.068698704
198	0x3d3948be	0.045235388
199	0xbc41e6f8	-0.011834852
200	0x3d3b984e	0.045799546
201	0x3daf2dbf	0.08553647
202	0xbd1a49d3	-0.03766806
203	0xbd1ccce5	-0.03828134
204	0x3d8fd42b	0.0702289
205	0x3c210910	0.009828821
206	0xbc106db0	-0.008815214
207	0x3d895569	0.06705744
208	0xbd2eeab5	-0.042704303
209	0xbb8f0230	-0.0043642744
210	0x3d78acf6	0.060711823
211	0x3d0d7d1a	0.034543134
212	0xbd6a2c06	-0.05717089
213	0x3cbc3320	0.022973597
214	0xbd8a040b	-0.067390524
215	0xbd449d13	-0.04800136
216	0x3d68cb8e	0.05683475
217	0xbcc0f9bc	-0.023556583
218	0xbd38682f	-0.045021232
219	0x3bcd4c10	0.006265171
220	0x3cb0f16c	0.021599494
221	0xbd610ca1	-0.054943684
222	0xbd742547	-0.059605863
223	0xbdaf4fc8	-0.08560139
224	0x3cbb16f4	0.022838093
225	0xbd699917	-0.057030763
226	0x3bdcb910	0.0067359284
227	0xbca1f224	-0.019768782
228	0xbd6cb8fc	-0.057793602
229	0xbce70d5e	-0.028204616
230	0xbd8b25d3	-0.06794324
231	0xbd3fa393	-0.046786856
232	0xbb349020	-0.0027551726
233	0xbd9ac194	-0.07556453
234	0xbd9ec28f	-0.07751953
235	0x3d87982d	0.06620822
236	0x3c0844c0	0.0083171725
237	0xbd201ced	-0.039090086
238	0xbb4098c0	-0.002938792
239	0x3d863cd5	0.065545715
240	0xbd9704a9	-0.07373936
241	0xbd3ff26b	-0.046862047
242	0xbd82e704	-0.06391719
243	0xbbd29080	-0.006425917
244	0xbb475740	-0.0030416995
245	0xbd8d11c6	-0.06888156
246	0x3d7b4906	0.061348937
247	0xbd8b0222	-0.06787516
248	0x3da90191	0.08252252
249	0xbd79375a	-0.060843803
250	0xbc467690	-0.012113228
251	0x3c87649c	0.016527466
252	0xbd20eb03	-0.039286625
253	0x3da67915	0.08128563
254	0xbd799a14	-0.060937956
255	0xbba089b0	-0.004899226

layer2.bias f4 [128]
0	0x3d90da61	0.070729025
1	0x3d2be872	0.041969724
2	0xbd7c078c	-0.061530635
3	0xbd3e8053	-0.0465091
4	0xbd18da51	-0.037317578
5	0x3cc8d850	0.024517208
6	0x3d43288a	0.047646083
7	0xbb88d190	-0.0041753724
8	0xbdb21b0a	-0.086965635
9	0xbd6579e6	-0.056024455
10	0xbd2d1c0d	-0.04226308
11	0xbd73b3f7	-0.0594978
12	0x3d3a63de	0.045505397
13	0x3b813d70	0.0039440915
14	0xbd8130ff	-0.063081734
15	0xbd5ba22b	-0.053621452
16	0xbd844043	-0.064575695
17	0xbd7ad01c	-0.061233625
18	0x3d07c3e0	0.033145785
19	0xbd3e2f84	-0.046432033
20	0xbd9b00dc	-0.07568523
21	0x3bd12c40	0.006383449
22	0xbbadab00	-0.005299926
23	0xbd961662	-0.07328488
24	0x3cc315a0	0.023814023
25	0x3bf73dc0	0.007545203
26	0x3c3d2418	0.01154425
27	0x3d1f080a	0.038826026
28	0xbd36bf9f	-0.044616338
29	0xbd9e2e6b	-0.07723697
30	0x3d6a0572	0.0571341
31	0x3da42fe9	0.08016951
32	0x3da81fa1	0.08209158
33	0x3d4137ce	0.04717236
34	0x3da663df	0.08124518
35	0x3ccc618c	0.024948858
36	0xbd9df00b	-0.077118
37	0x3cd76064	0.02629108
38	0xbd8a6c82	-0.067589775
39	0xbdaa860a	-0.08326347
40	0x3d0c1642	0.034200914
41	0xbd3fbf24	-0.046813145
42	0xbd82c5ca	-0.063853815
43	0x3daaf391	0.08347238
44	0x3ce6c17c	0.028168432
45	0x3d1ab2de	0.037768237
46	0xbcd81c9c	-0.02638083
47	0x3d076298	0.03305301
48	0xbab65b40	-0.0013912693
49	0xbca91d80	-0.02064395
50	0xbc8a27d8	-0.016864702
51	0x3d865723	0.06559589
52	0xbd778b70	-0.060435712
53	0xbcdf3cbe	-0.027250644
54	0x3d842ed7	0.064542465
55	0xbb86f090	-0.0041180328
56	0x3d31bd4e	0.043393426
57	0xbd19731b	-0.03746329
58	0x3d72e77e	0.0593028
59	0xbd80ad4e	-0.06283055
60	0xbd422100	-0.047394753
61	0xbd9f3bb5	-0.0777506
62	0xbd9095f4	-0.07059851
63	0x3d63f556	0.055653892
64	0x3d6a1716	0.057150923
65	0x3d420e8e	0.04737716
66	0x3d33340a	0.0437508
67	0x3d7592ba	0.059954382
68	0x3d5c363a	0.053762652
69	0x3d550e7e	0.052015774
70	0xbd31bcaa	-0.043392815
71	0x3d87a3e1	0.06623054
72	0x3d7068aa	0.058693565
73	0x3ce054a8	0.027384117
74	0xbc826f64	-0.015922256
75	0x3d9e3fcd	0.07727013
76	0xbbc07950	-0.0058738366
77	0xbda8badc	-0.082387656
78	0xbd0805e7	-0.033208754
79	0xbb13f900	-0.0022578835
80	0x3d2c1992	0.042016573
81	0x3cc2c3cc	0.023775004
82	0x3c7a8600	0.015290737
83	0x3d9a0659	0.07520742
84	0x3d6cb1c6	0.057786725
85	0xbd4da570	-0.0502066
86	0xbd034b2f	-0.032054123
87	0xbc0a06a0	-0.008424431
88	0xbba50ee0	-0.0050371736
89	0xbd8a04a1	-0.06739164
90	0xbcc20130	-0.023682207
91	0x3d891d6f	0.06695067
92	0xbdaf7f1e	-0.085691676
93	0x3c50a3d8	0.012734376
94	0x3c92a430	0.017900556
95	0xbce74a18	-0.028233573
96	0xbcf64d98	-0.030066296
97	0xbd3575c1	-0.044301752
98	0xbda4832b	-0.08032831
99	0xbda33cce	-0.07970582
100	0x3d407dbe	0.046994917
101	0xbb2dbfe0	-0.0026512071
102	0xbb7c1020	-0.003846176
103	0xbc6d8088	-0.014495976
104	0xbdab36d9	-0.08360071
105	0xbc6c44d0	-0.014420703
106	0xbda6ef4d	-0.08151112
107	0x3d32642a	0.043552555
108	0xbcfe1f3c	-0.031020753
109	0xbcf60fd6	-0.030036848
110	0x3cff073c	0.03113138
111	0xbd782851	-0.060585324
112	0xbd6b97ee	-0.05751794
113	0xbd48e84b	-0.049049657
114	0xbca34bf8	-0.019933686
115	0xbd64bf6f	-0.055846628
116	0xbdb457c9	-0.08805806
117	0x3d21e56e	0.03952544
118	0x3d44d74a	0.04805688
119	0xbd156811	-0.0364762
120	0xbd8b3360	-0.067969084
121	0x3d75111e	0.059830777
122	0xbd5bd7cd	-0.0536726
123	0xbd8c5c41	-0.068535335
124	0xbda3438d	-0.07971869
125	0x3cb35668	0.021891788
126	0x3ca43000	0.02004242
127	0x3dac4eff	0.08413505

layer3.weight f4 [9, 128]
0	0xbd0e548a	-0.03474859
1	0xbd622fea	-0.055221476
2	0x3db0da93	0.0863544
3	0x3d78daba	0.06075547
4	0xbda03896	-0.07823293
5	0xbda98c75	-0.08278743
6	0x3d06c770	0.032905042
7	0xbd3456f5	-0.04402824
8	0x3c7c6270	0.015404329
9	0xbbbe1f10	-0.005802043
10	0xbce140de	-0.027496751
11	0x3d9a86bd	0.075452305
12	0x3ced6f14	0.02898363
13	0x3cd9e808	0.026599899
14	0xbd87de57	-0.06634205
15	0xbcfe2c1e	-0.031026896
16	0x3d293a1e	0.04131519
17	0x3d4700f2	0.048584886
18	0x3c19ffa0	0.009399325
19	0xbdb14bf9	-0.08657069
20	0xbd42c096	-0.047546946
21	0x3db25ff1	0.087097056
22	0x3d92fd1b	0.07177182
23	0x3d3ea506	0.046544097
24	0xbd535fad	-0.051604915
25	0xbd4351c3	-0.047685396
26	0x3d02f64c	0.03197317
27	0xbd978e57	-0.07400196
28	0xbc291860	-0.010320753
29	0x3d0aab60	0.033854842
30	0x3d0eb626	0.03484168
31	0x3d321472	0.04347653
32	0x3bad3f10	0.0052870587
33	0x3d72f882	0.059319027
34	0xbdb1036e	-0.08643232
35	0xbd3ad0c8	-0.045609266
36	0xbcdf3996	-0.027249139
37	0x3d53ae0a	0.05167965
38	0xbd8d4fcf	-0.06899988
39	0x3d857e5f	0.06518244
40	0xbd51b874	-0.0512013
41	0xbcdabc3a	-0.026701082
42	0x3d85f3e1	0.06540657
43	0x3db13385	0.08652405
44	0x3cd92b70	0.02650997
45	0xbc9ab3b4	-0.018884517
46	0x3d800ff7	0.06253045
47	0xbb8c3620	-0.004278913
48	0x3d5a2d5e	0.05326592
49	0x3d12a12c	0.035798237
50	0xbafc9cc0	-0.0019272789
51	0x3daad2e5	0.08341006
52	0x3d2e8916	0.042611204
53	0x3da9fed3	0.08300557
54	0x3daaf3a7	0.08347254
55	0x3c8bfa34	0.01708708
56	0xbd2965c1	-0.041356806
57	0xbcf371b2	-0.0297173
58	0xbc666a18	-0.014063381
59	0xbcec4d3a	-0.028845418
60	0x3c1718d0	0.009222224
61	0x3daffa5f	0.08592676
62	0x3d6e78e6	0.058220766
63	0x3cc645e4	0.024203248
64	0x3d3c2f96	0.04594382
65	0xbd4c6786	-0.049903415
66	0x3d118b48	0.03553322
67	0x3d9e90f5	0.07742492
68	0x3cea2f78	0.028587088
69	0x3ab24c00	0.0013602972
70	0x3d922e7b	0.07137772
71	0xbd94db0c	-0.072683424
72	0x3d4c615e	0.049897544
73	0xbc8c3074	-0.017112948
74	0xbda6dbc4	-0.08147386
75	0x3d4af982	0.049554355
76	0xbc90ccb4	-0.017675735
77	0xbca2aa00	-0.019856453
78	0xbd2580ff	-0.040406223
79	0xbcef1620	-0.029185355
80	0xbc5e9b40	-0.013586819
81	0xbdb1bf4a	-0.086790636
82	0x3d301062	0.042984374
83	0x3c3afa30	0.011412188
84	0x3d06729a	0.032824136
85	0x3db41f79	0.087950654
86	0xbca1941c	-0.019723944
87	0xbd5946ee	-0.05304616
88	0xbd6b172c	-0.057395145
89	0xbc479378	-0.012181155
90	0xbc8cf408	-0.017206207
91	0x3d00e9be	0.031472914
92	0x3bcdeda0	0.0062844306
93	0x3cf1414c	0.029450081
94	0xbd387dd1	-0.045041863
95	0xbd9bdbfc	-0.07610318
96	0x3b580160	0.0032959804
97	0x3c9927ec	0.018695794
98	0xbd2d2db5	-0.042279918
99	0xbd01331e	-0.03154289
100	0xbc7f6168	-0.015587188
101	0xbda1dcd1	-0.079034455
102	0x3da8f4cd	0.08249817
103	0x3d826ab1	0.06368006
104	0xbd84295c	-0.06453201
105	0xbdac7f08	-0.08422667
106	0x3d9d9d6d	0.07696042
107	0x3d964b83	0.073386215
108	0xbda2905b	-0.0793769
109	0x3c997d74	0.018736579
110	0xbd65fad3	-0.056147408
111	0xbd853ed3	-0.065061234
112	0xbd7bd8e4	-0.06148614
113	0x3b3596a0	0.0027708188
114	0x3da72d3d	0.081629254
115	0x3d28c496	0.041203104
116	0xbda72a55	-0.08162371
117	0x3d433546	0.047658227
118	0x3da44c1b	0.080223285
119	0x3d7f7e86	0.06237652
120	0x3da73dcb	0.08166083
121	0xbd528320	-0.05139458
122	0xbd383e79	-0.044981454
123	0x3d492cd2	0.04911501
124	0xbd8e9820	-0.06962609
125	0xbcccc55c	-0.024996452
126	0x3d81f059	0.06344671
127	0x3cde6f88	0.027152792
128	0xbcc1b80c	-0.02364733
129	0x3d10ce38	0.035352916
130	0xbd29465a	-0.041326858
131	0xbd3775f1	-0.044790212
132	0x3cd9419c	0.026520543
133	0xbd2ebb0e	-0.042658858
134	0x3d7bee86	0.06150677
135	0x3d216816	0.039405905
136	0x3d5bdd32	0.053677745
137	0x3d81f4dd	0.06345532
138	0x3c36b168	0.011150695
139	0xbd05aaf4	-0.032633737
140	0xbd981068	-0.07425004
141	0xbcd1ba04	-0.025601394
142	0xbd98419c	-0.07434389
143	0x3d5c0dbe	0.053724043
144	0x3be17660	0.0068805665
145	0xbd19c9a4	-0.037545815
146	0xbb342e60	-0.0027493462
147	0x3d829fcf	0.06378137
148	0xbd1e9a89	-0.038721595
149	0x3c8b98f4	0.017040707
150	0x3c2e23c8	0.010628648
151	0xbc4423f8	-0.011971466
152	0xbca85398	-0.020547673
153	0x3d079fc6	0.033111356
154	0xbce9b7b0	-0.028529972
155	0xbd94a863	-0.0725868
156	0x3ca36f1c	0.019950442
157	0xbd52951d	-0.051411737
158	0xbd3992f2	-0.045306154
159	0x3b22f640	0.0024866015
160	0x3d2e2cee	0.042523317
161	0xbcd21b1c	-0.025647692
162	0xbd5971f4	-0.05308719
163	0x3d274a9a	0.04084263
164	0xbd5fa9f6	-0.054605447
165	0x3c9c50ac	0.019081436
166	0x3cce0a8c	0.025151514
167	0xbb094a00	-0.0020948648
168	0xbcba1bf4	-0.022718407
169	0xbc42e770	-0.011895999
170	0xbd4cd603	-0.050008785
171	0x3d6e19c2	0.058130033
172	0xbc0160b8	-0.007896595
173	0xbd1758ab	-0.036949795
174	0xbd465f7b	-0.0484309
175	0x3d1fff16	0.03906163
176	0xbd5f6b97	-0.054545965
177	0x3d15849c	0.03650342
178	0x39904a00	0.00027520955
179	0xbda72a31	-0.08162344
180	0x3d6751b2	0.056474395
181	0x3d0ea04a	0.034820832
182	0x3d18da1a	0.037317373
183	0xbd22605d	-0.03964268
184	0xbd9d6bcd	-0.07686577
185	0x3d2aa8e2	0.041664965
186	0xbd8d0d3b	-0.06887289
187	0x3d2bb6fa	0.041922547
188	0x3d9cd175	0.07657138
189	0xbc33e358	-0.010979496
190	0xbd92b13e	-0.071627125
191	0x3d87cb55	0.066305794
192	0xbdad673e	-0.084669575
193	0xbcefc7f0	-0.029270142
194	0xbd8644d9	-0.065561004
195	0x3d19961e	0.03749668
196	0x3da3a749	0.079908915
197	0xbd6789ef	-0.056528028
198	0xbd4fd29a	-0.050737955
199	0x3d92cac7	0.07167583
200	0x3d31bcea	0.043393053
201	0x3d7d6982	0.0618682
202	0xbd81c13c	-0.06335685
203	0x3da930a7	0.08261233
204	0xbd03774a	-0.032096185
205	0xbd482240	-0.04886079
206	0xbcf209e4	-0.029545732
207	0x3bbb2780	0.005711496
208	0x3d5357c2	0.051597364
209	0xbcb92e40	-0.022605062
210	0xbd748473	-0.059696626
211	0x3c6a4740	0.014299214
212	0xbdae478f	-0.085097425
213	0xbd90308e	-0.07040511
214	0x3c9bc198	0.019013211
215	0x3da11f49	0.07867295
216	0xbd513bd3	-0.051082443
217	0x3d4d36aa	0.05010096
218	0xbd616dc2	-0.055036314
219	0xbcf8a720	-0.030353129
220	0x3db388bf	0.087663166
221	0x3cc49720	0.023997843
222	0xbd18d076	-0.03730818
223	0xbd22fd88	-0.039792567
224	0x3c9f3bac	0.019437633
225	0x3d610736	0.054938518
226	0x3d881b55	0.06645838
227	0x3bd4aec0	0.0064905584
228	0xbd36b791	-0.044608656
229	0x3d347d7a	0.044064976
230	0xbd97906c	-0.07400593
231	0xbb39ec40	-0.0028369576
232	0xbda6d0e4	-0.081453115
233	0xbc97fe28	-0.018553808
234	0xba091200	-0.00052288175
235	0x3d94406f	0.07238852
236	0x3ca5d2a4	0.020242043
237	0xbd745e6e	-0.059660368
238	0x3d26330a	0.04057602
239	0x3b183540	0.00232251
240	0xbd6647ae	-0.056220703
241	0xbd991daa	-0.07476361
242	0x3c95a054	0.018264927
243	0xbd500756	-0.050788246
244	0xbd0a952f	-0.03383368
245	0xbd397eed	-0.04528706
246	0xbd86ce74	-0.065823466
247	0xbd6a42d2	-0.05719263
248	0xbc573fb8	-0.01313775
249	0xbb0e6140	-0.0021725446
250	0x3d746df6	0.05967518
251	0xbd948fb0	-0.07253969
252	0x3d9ae89f	0.075639
253	0x3da727db	0.08161899
254	0xbdaf09ff	-0.085468285
255	0x3d6920a2	0.056915887

layer3.bias f4 [9]
0	0x3d6f57ce	0.058433346
1	0x3bf901e0	0.0075991005
2	0xbd4fc1b6	-0.050721847
3	0x3bf3d100	0.007440686
4	0xbceaf396	-0.028680604
5	0x3ba0e4a0	0.0049100667
6	0x3d628f3a	0.055312373
7	0xbd96d4b4	-0.07364789
8	0xbcc457e4	-0.02396769
