rl_energy_manager_20250326_0841/models/best_self_sufficiency_model/critic.pth (torch, 239522 bytes, 26 tensors)

q1_layer1.weight f4 [128, 27]
-0.13317467 0.065966144 -0.029457899 -0.12427731 0.015624292 -0.05079683 0.10395557 0.0330205
0.013253663 -0.024103306 0.084313914 -0.047080778 0.08607967 -0.09011267 0.11697899 -0.03722356
0.17912216 -0.15290126 0.042095542 -0.07376785 0.0766742 0.013721661 0.119094744 0.03418386
-0.022598548 0.023563035 -0.018183192 0.06823979 -0.0029358973 0.13634531 -0.05364991 -0.06695632
0.056088347 0.0060255886 0.18918702 0.045855414 -0.20033953 -0.034648303 0.08833221 -0.07533519
0.027488474 -0.048966292 0.019956173 -0.1708284 -0.0931091 0.12199737 0.06156291 -0.09408775
0.055135027 0.00087115297 0.04558133 0.002648054 0.0034564198 0.014381042 -0.013833512 0.027955705
0.061174825 0.05204469 0.038717896 0.061805382 -0.09221557 0.10426726 -0.14361268 0.038474694
-0.08362044 0.12020951 0.12085436 0.063800864 0.08217493 -0.18131025 -0.05067193 0.08271293
0.10570411 0.103044115 -0.039869834 0.027881045 -0.02551273 -0.0105296485 0.051686335 -0.030880932
-0.026711578 -0.119741514 0.065177105 -0.1597607 -0.22217499 -0.057468608 0.0438845 -0.021073826
0.04362317 -0.10170381 0.08596684 0.092791505 0.089820415 0.053353127 0.046321817 -0.0025741674
0.0391434 0.041842353 -0.05971456 -0.09438529 0.0035087932 0.11964676 -0.05269575 0.09084062
-0.019392185 -0.13652627 0.07277291 0.040954378 -0.02862221 -0.0088463975 -0.046766233 -0.02641001
0.08695949 0.022668073 0.082334876 -0.007531624 -0.05408136 -0.22459382 0.014372772 0.13106203
-0.09828544 0.035718996 -0.042155508 0.06682908 0.07516394 0.26312476 0.10207697 0.07857251
0.08109287 -0.12305147 -0.106743075 0.14445436 -0.12770863 0.13436845 -0.09608534 -0.028492603
0.009161683 -0.13466771 -0.054883566 -0.09275517 0.18484788 0.001858135 0.04250961 -0.051540975
-0.023047509 -0.054130115 0.04099164 -0.0027358723 0.19335762 0.021476109 -0.05123721 -0.06618552
0.15539253 0.11925918 0.040612932 0.05693022 -0.03336748 -0.0049104784 0.06270406 0.04457775
0.065377794 -0.09486597 -0.14354005 -0.06964326 0.11670822 -0.113715276 -0.046261545 0.068710275
-0.040909104 -0.075619884 0.032504275 -0.00070634653 0.04623415 0.06365087 0.13355337 -0.02007917
-0.05583487 -0.081192724 0.050645888 -0.05040071 -0.0016706814 0.06346624 -0.08723432 0.032994423
-0.066436194 0.056395352 -0.04804723 -0.10650723 0.004288153 -0.12820294 0.1279939 -0.047795843
-0.090905 -0.12927286 -0.08456463 0.14192614 -0.032019027 -0.055164948 -0.028341953 0.07655783
-0.016459621 -0.17393488 0.028163696 -0.011933328 0.033815634 -0.11763063 -0.13576448 -0.106891625
-0.042567722 -0.111362696 0.079994984 0.034685213 -0.024230689 0.049930718 -0.04742599 0.08833599
-0.04270318 -0.116177626 -0.028730763 -0.014415175 -0.0017025573 0.094104044 0.010952089 -0.04007212
-0.032761354 -0.025007153 -0.02151054 0.122409835 0.042640325 -0.101341516 -0.013938426 -0.14126903
0.01716947 0.088632025 0.07957223 -0.1867354 -0.024603574 -0.011101429 -0.012856834 0.056951746
-0.16254774 -0.024044564 -0.07935463 -0.16889744 0.024281647 0.10667209 -0.02560937 -0.063966684
-0.11158213 0.0025224914 0.2402858 0.04218844 -0.12334949 -0.009306367 -0.059280727 0.009862711
00000000: f15e 08be 4219 873d b151 f1bc 1a85 febd
00000010: 08fd 7f3c 5610 50bd a8e6 d43d 8140 073d
00000020: e425 593c 4c74 c5bc c6ac ac3d c6d7 40bd
00000030: 8a4a b03d fe8c b8bd ae92 ef3d bb77 18bd
00000040: cd6b 373e 2692 1cbe 606c 2c3d 9913 97bd
00000050: 5d07 9d3d d1d0 603c f2e7 f33d 6004 0c3d
00000060: 9720 b9bc 4407 c13c ebf4 94bc 4ec1 8b3d
00000070: 2f68 40bb 1b9e 0b3e 02c0 5bbd 6520 89bd
00000080: e5bc 653d 4d72 c53b 3eba 413e e3d2 3b3d
00000090: ce25 4dbe 61eb 0dbd 85e7 b43d 5649 9abd
000000a0: 822f e13c e190 48bd 217b a33c a4ed 2ebe
000000b0: fcaf bebd c2d9 f93d 6429 7c3d 14b1 c0bd
000000c0: 44d5 613d 165e 643a 7db3 3a3d f98a 2d3b
000000d0: 1a85 623b 769e 6b3c f4a5 62bc 5d03 e53c
000000e0: 7492 7a3d d02c 553d a896 1e3d a427 7d3d
000000f0: 84db bcbd 138a d53d 340f 13be a497 1d3d
00000100: 3141 abbd 6730 f63d 7e82 f73d 07aa 823d
00000110: 544b a83d 65a9 39be 5f8d 4fbd 6665 a93d
00000120: 657b d83d cb08 d33d 8d4e 23bd ca66 e43c
00000130: 1300 d1bc 8c84 2cbc 0db5 533d 02fa fcbc
00000140: 3dd2 dabc 0a3b f5bd 937b 853d 4f98 23be
00000150: d781 63be 3464 6bbd 3cc0 333d 04a3 acbc
00000160: 36ae 323d 164a d0bd 620f b03d 7909 be3d
00000170: c4f3 b73d cf88 5a3d f2bb 3d3d 5db3 28bb
00000180: d454 203d e362 2b3d 4197 74bd 134d c1bd
00000190: c8f3 653b 5c09 f53d 80d7 57bd a60a ba3d
000001a0: 5cdc 9ebc 8bcd 0bbe f709 953d c7bf 273d
000001b0: 2079 eabc 7bf0 10bc f38d 3fbd ce59 d8bc
000001c0: d117 b23d 65b2 b93c 309f a83d d7cb f6bb
000001d0: 6b84 5dbd ecfb 65be c67b 6b3c 2035 063e
000001e0: e049 c9bd 154e 123d 41ab 2cbd afdd 883d
000001f0: 8def 993d 4ab8 863e bb0d d13d a0ea a03d
00000200: 0514 a63d 6902 fcbd 1d9c dabd d8eb 133e
00000210: 0dc6 02be e297 093e 64c8 c4bd 5269 e9bc
00000220: e21a 163c 55e6 09be 97cd 60bd 6cf6 bdbd
00000230: c348 3d3e aa8c f33a 8f1e 2e3d a11c 53bd
00000240: 21ce bcbc 8ab7 5dbd dae6 273d 524c 33bb
00000250: 8aff 453e aaee af3c 1cde 51bd 468c 87bd
00000260: 381f 1f3e 283e f43d bf59 263d aa2f 693d
00000270: 57ac 08bd 14e8 a0bb fc6a 803d 2997 363d
00000280: cbe4 853d 1749 c2bd 2afc 12be 20a1 8ebd
00000290: b804 ef3d 8ee3 e8bd bf7c 3dbd f9b7 8c3d
000002a0: 4e90 27bd 99de 9abd 3423 053d 1d2a 39ba
000002b0: 0560 3d3d 635b 823d 37c2 083e 127d a4bc
000002c0: 1bb3 64bd 5f48 a6bd 1072 4f3d fa70 4ebd
000002d0: c4fa daba 97fa 813d e8a7 b2bd 2925 073d
000002e0: b30f 88bd d0fe 663d 2ccd 44bd 7620 dabd
000002f0: a283 8c3b a247 03be d510 033e 93c5 43bd
00000300: 672c babd 1b60 04be 3930 adbd 1655 113e
00000310: 6226 03bd a4f4 61bd 622d e8bc 5aca 9c3d
00000320: 54d6 86bc fc1b 32be 8db7 e63c 0184 43bc
00000330: 4382 0a3d 54e8 f0bd d805 0bbe ffe9 dabd
00000340: 7e5b 2ebd 2012 e4bd 69d4 a33d 1512 0e3d
00000350: 707f c6bc 2784 4c3d c141 42bd 80e9 b43d
00000360: 88e9 2ebd 89ee edbd c75c ebbc a02d 6cbc
00000370: 5828 dfba 9fb9 c03d 6470 333c aa22 24bd
00000380: c530 06bd cddb ccbc df36 b0bc 02b2 fa3d
00000390: 9fa7 2e3d 248c cfbd ff5d 64bc d4a8 10be
000003a0: fda6 8c3c b584 b53d c4f6 a23d 9137 3fbe
000003b0: 6f8d c9bc c5e2 35bc 78a5 52bc 3c46 693d
000003c0: ea72 26be 1bf9 c4bc ae84 a2bd 73f3 2cbe
000003d0: 4eea c63c e676 da3d beca d1bc f700 83bd
000003e0: 2c85 e4bd 6250 253b 7b0d 763e c9cd 2c3d
000003f0: a89e fcbd bb79 18bc 59d0 72bd 3597 213c

q1_layer1.bias f4 [128]
-0.0072042407 -0.0029939348 -0.0029069604 -0.0038296257 0.0011819592 -0.010527965 -0.0023526552 -0.011193859
-0.0066902614 0.0031436863 0.012054184 0.005833972 -0.0061198073 -0.0014461741 -0.007651614 0.007404121
0.008328467 -0.0020901752 0.003919561 0.0015819145 -0.0011267447 -0.008697525 -0.012432116 0.0073026223
0.009826128 9.046675e-05 0.000493387 0.0025234215 0.0032916008 0.004786681 0.0013215451 -0.0063284305
-0.007053853 -0.008650055 -0.0036334633 -0.005945032 -0.008601993 0.005570841 -0.006732865 -0.0020000965
-0.0012484468 -0.0011790525 -0.011814886 -0.008477461 -0.017657511 -0.012456505 0.002413886 -0.0058473554
-7.896174e-05 -0.007427793 0.008554497 0.00088655716 -0.0048151114 -0.010751066 -0.0054044733 0.005529785
-0.0097523555 0.0029676459 0.0040580994 -0.0068617654 -0.004716734 -0.004926749 0.009982395 0.009683859
-0.008491282 -0.0049249195 -0.0014792688 0.0034801806 0.004116784 9.917217e-05 0.010177786 -0.0026548586
-0.0073532737 0.003586883 0.010936629 0.008257364 0.007836831 0.0037724313 0.0063685672 -0.0012370829
-0.00087696733 0.000545795 -0.008318824 0.011245767 0.0008179088 -0.003634509 0.01088208 0.0065436023
0.014502935 0.0010020147 0.0014795302 0.0018957106 0.006621285 0.016431976 0.0015309077 0.0019519875
0.0014307477 0.0022682599 0.006569021 -0.0049630906 -0.0011233921 -0.0015966445 -0.0005719855 -0.00392337
-0.011889463 -0.008865525 -0.009498975 0.000710168 -0.0034699026 -0.001334113 -0.0037223983 0.00018020661
0.003880882 0.011159894 0.009751022 -0.013592843 -0.010785231 -0.0064507625 -0.007996886 0.0070355847
-0.00027857473 0.011099582 0.0025097725 0.016855223 0.00018435622 -0.0066457246 0.004046996 -0.014498224
00000000: 8d11 ecbb e435 44bb b482 3ebb 75fa 7abb
00000010: f8eb 9a3a 7c7d 2cbc 012f 1abb 7366 37bc
00000020: fb39 dbbb 4e06 4e3b ea7e 453c e72a bf3b
00000030: aa88 c8bb 8d8d bdba 64ba fabb 459e f23b
00000040: 1f74 083c 52fb 08bb a96f 803b 3e58 cf3a
00000050: 47af 93ba 1080 0ebc 13b0 4bbc d64a ef3b
00000060: c5fd 203c f7b8 bd38 a456 013a fd5f 253b
00000070: e6b7 573b 97d9 9c3b b237 ad3a b95e cfbb
00000080: 0224 e7bb f6b8 0dbc 661f 6ebb 8bce c2bb
00000090: 60ef 0cbc 9a8b b63b 5d9f dcbb 0d14 03bb
000000a0: eca2 a3ba 708a 9aba 3993 41bc 0ce5 0abc
000000b0: 7ca6 90bc 5e16 4cbc 4932 1e3b 2c9b bfbb
000000c0: 4398 a5b8 d864 f3bb 2928 0c3c d867 683a
000000d0: 15c8 9dbb 3d25 30bc 0218 b1bb 3333 b53b
000000e0: 58c8 1fbc d67c 423b cef9 843b a9d8 e0bb
000000f0: d58e 9abb 9170 a1bb 338d 233c 0ca9 1e3c
00000100: 051f 0bbc 3861 a1bb 06e4 c1ba be13 643b
00000110: 16e6 863b a7fa cf38 bbc0 263c 23fd 2dbb
00000120: bbf3 f0bb e911 6b3b 8c2f 333c e549 073c
00000130: 0d66 003c e53a 773b 6aaf d03b 9d25 a2ba
00000140: 48e4 65ba af13 0f3a ad4b 08bc 2a40 383c
00000150: ee68 563a f130 6ebb c04a 323c b76b d63b
00000160: b89d 6d3c 0956 833a ccec c13a 7e79 f83a
00000170: 5df7 d83b 5a9c 863c bda8 c83a d5d9 ff3a
00000180: ed87 bb3a 16a7 143b f140 d73b 6ca1 a2bb
00000190: c93e 93ba 8046 d1ba 4cf1 15ba 9d8f 80bb
000001a0: 06cc 42bc b540 11bc 97a1 1bbc 912a 3a3a
000001b0: 4e67 63bb 67dd aeba 7bf3 73bb d8f5 3c39
000001c0: 6556 7e3b fdd7 363c c0c2 1f3c 84b4 5ebc
000001d0: 8ab4 30bc eb60 d3bb 5f05 03bc c38a e63b
000001e0: ab0d 92b9 05db 353c ff7a 243b f713 8a3c
000001f0: bf4f 4139 61c4 d9bb aa9c 843b f589 6dbc

q1_layer2.weight f4 [128, 128]
0.00037705546 -0.15352425 0.025421165 -0.030341398 0.06800125 0.07393798 -0.024762275 0.09128258
0.13938053 0.0015967723 -0.005910099 -0.088817954 0.06908868 -0.13481729 0.030422239 -0.040035803
0.14961484 -0.02719526 0.077476785 0.06550969 0.06252354 0.06388092 -0.13812275 -0.056753766
-0.04882691 0.026208317 -0.011213269 -0.031270307 -0.12967034 -0.15222639 0.0824744 0.09488497
0.080774106 0.110260285 0.13914017 -0.0023816442 0.08793974 -0.3362052 0.029196812 0.08684458
-0.0772013 -0.012402936 0.011836504 0.09827414 -0.066013396 0.021118108 -0.08953442 0.030114964
0.059827704 0.023739286 0.050746858 -0.09289296 -0.060129855 -0.027704582 -0.115487844 -0.0023620145
0.03086093 0.0018814021 0.068317376 0.012683175 0.0855683 0.055981584 0.073539905 -0.20839338
0.14943847 -0.1401172 0.14516239 0.09534696 -0.052645437 0.06341484 0.029437045 -0.021401756
0.086894415 -0.13898946 -0.07254014 0.11721234 0.06517172 -0.08573109 -0.08943696 -0.047814995
-0.026383875 -0.11194716 -0.028744219 0.004155883 0.009342804 0.059651878 0.0779762 -0.05264766
0.004599317 0.03520508 -0.15893948 0.019156782 -0.048163723 -0.035598908 0.060618423 -0.06407676
0.13191196 0.026737796 -0.063321374 -0.06292281 -0.100933634 -0.016776327 -0.15729658 0.036360733
0.022451604 0.029891009 0.027835455 0.14152089 0.006327783 0.10604307 0.06915053 -0.076221816
-0.09195006 0.0052134898 0.13641833 0.02477904 0.023203393 0.057441883 0.07694006 -0.09655851
-0.034084994 -0.1633827 0.021893054 0.13285396 0.18903635 -0.06696608 0.05243289 0.0761894
-0.01639039 0.053645317 -0.0124222245 0.025926692 0.11525296 0.09118188 0.13821153 0.08389878
0.01731936 0.11964894 0.06626043 0.09896189 -0.10757721 0.15421754 0.00095849193 0.13128316
-0.014909259 -0.11246143 0.12362143 0.028540188 0.12353202 -0.02165479 0.030013964 -0.036848765
-0.005519675 0.03515367 0.041062176 -0.023897672 -0.14095543 -0.07497379 0.0071842163 -0.043194074
-0.20580007 -0.05258072 -0.097978026 0.01261745 -0.10553933 0.0005203113 -0.114953525 -0.022059586
0.21352822 0.07469205 0.004569815 0.1140778 0.055957347 0.11480818 -0.011837016 -0.08351883
0.059059784 0.049014933 -0.0011633544 0.15610792 0.06965879 -0.1429456 0.068348326 0.01942678
-0.06247274 0.00673438 -0.028838897 0.04550891 0.04711625 -0.0022105835 -0.054392233 -0.07746315
-0.17716633 0.11180041 0.082884885 -0.1713273 0.037830345 0.011654241 0.0797769 0.05196577
0.03278363 -0.035201676 -0.09169891 0.05886359 -0.0031571947 -0.0063535306 0.04388276 0.16829684
-0.16377966 -0.10966146 -0.06271557 -0.027059857 -0.035814 0.036253437 0.11135309 0.056690987
-0.13678215 0.0787326 -0.04940284 -0.04669525 0.034839086 -0.031253166 0.040208302 0.018127022
-0.013881283 0.037544187 0.16460766 0.07186866 0.015057621 -0.006387937 -0.22519548 -0.01909428
-0.061394457 0.10154413 -0.02494941 -0.07276116 -0.131017 -0.03845197 0.16014858 0.081165135
-0.07638453 -0.029864814 0.036079563 0.004893497 0.24766372 0.013768168 -0.08972166 -0.13100226
-0.03307912 0.05408707 -0.019595327 0.026625875 0.09276631 -0.114559464 -0.15652895 0.027824879
00000000: 87af c539 7635 1dbe 0c40 d03c 868e f8bc
00000010: 3d44 8b3d cc6c 973d 41da cabc 5cf2 ba3d
00000020: c5b9 0e3e ca4a d13a 81a9 c1bb 30e6 b5bd
00000030: 5e7e 8d3d 8b0d 0abe 0f38 f93c 95fc 23bd
00000040: a234 193e 98c8 debc 26ac 9e3d f229 863d
00000050: 570c 803d 00d4 823d 0d70 0dbe a376 68bd
00000060: bafe 47bd d3b2 d63c dcb7 37bc 4b15 00bd
00000070: 4dc8 04be 3ce1 1bbe 57e8 a83d 0d53 c23d
00000080: e56c a53d 25d0 e13d c37a 0e3e 5c15 1cbb
00000090: c019 b43d 1723 acbe 272e ef3c 92db b13d
000000a0: b71b 9ebd af35 4bbc e5ed 413c f443 c93d
000000b0: 0832 87bd e2ff ac3c d25d b7bd a8b3 f63c
000000c0: e50d 753d e478 c23c f0db 4f3d aa3e bebd
000000d0: b94a 76bd b8f4 e2bc e484 ecbd 07cc 1abb
000000e0: 10d0 fc3c 6199 f63a fbe9 8b3d 17cd 4f3c
000000f0: 6f3e af3d f24c 653d 179c 963d 1365 55be
00000100: 6606 193e e27a 0fbe 73a5 143e 4445 c33d
00000110: bea2 57bd a4df 813d f525 f13c bc52 afbc
00000120: b3f5 b13d 4153 0ebe ed8f 94bd 060d f03d
00000130: c078 853d c893 afbd ba2a b7bd a8d9 43bd
00000140: ff22 d8bc 8d44 e5bd ff78 ebbc 132e 883b
00000150: 8f12 193c 8755 743d fcb1 9f3d 13a5 57bd
00000160: deb5 963b 3433 103d 08c1 22be afee 9c3c
00000170: 5347 45bd 29d0 11bd 064b 783d ad3a 83bd
00000180: ee13 073e 3909 db3c a3ae 81bd addd 80bd
00000190: 4bb6 cebd 826e 89bc 5b12 21be feee 143d
000001a0: 6dec b73c fddd f43c 2e07 e43c daea 103e
000001b0: 4b59 cf3b 1c2d d93d cb9e 8d3d 2f1a 9cbd
000001c0: 5050 bcbd ecd5 aa3b 3fb1 0b3e 6afd ca3c
000001d0: 0b15 be3c 2e48 6b3d c092 9d3d 78c0 c5bd
000001e0: b59c 0bbd cb4d 27be 1059 b33c de0a 083e
000001f0: bf92 413e 8325 89bd dfc3 563d 3009 9c3d
00000200: 2445 86bc 31bb 5b3d 9686 4bbc 3764 d43c
00000210: be09 ec3d 91bd ba3d 5387 0d3e 20d3 ab3d
00000220: 55e1 8d3c 810a f53d 8cb3 873d 88ac ca3d
00000230: 7151 dcbd 34eb 1d3e 4e43 7b3a 186f 063e
00000240: f745 74bc 2e52 e6bd 3b2d fd3d 1dcd e93c
00000250: 5bfe fc3d 6365 b1bc d8df f53c bbee 16bd
00000260: 64de b4bb 4bfd 0f3d d030 283d 0dc5 c3bc
00000270: 9f56 10be dc8b 99bd 9369 eb3b 45ec 30bd
00000280: 41bd 52be e25e 57bd b4a8 c8bd 6cb9 4e3c
00000290: 0125 d8bd 8065 083a c16c ebbd 4eb6 b4bc
000002a0: 24a7 5a3e 25f8 983d 63be 953b 9fa1 e93d
000002b0: 8833 653d 8d20 eb3d 0bf0 41bc ec0b abbd
000002c0: ace8 713d e2c3 483d b27b 98ba c1da 1f3e
000002d0: 45a9 8e3d 5560 12be 35fa 8b3d e924 9f3c
000002e0: 6ae3 7fbd 13ac dc3b 8d3f ecbc 8d67 3a3d
000002f0: f8fc 403d 70df 10bb 64ca 5ebd 00a5 9ebd
00000300: 176b 35be 9df7 e43d 8dbf a93d 6c70 2fbe
00000310: fef3 1a3d 6ef1 3e3c 1262 a33d 0fda 543d
00000320: 2148 063d a22f 10bd a3cc bbbd f31a 713d
00000330: f0e8 4ebb 4731 d0bb 69be 333d 0256 2c3e
00000340: dbb5 27be 3096 e0bd 0571 80bd a2ac ddbc
00000350: b3b1 12bd 7c7e 143d 170d e43d cf34 683d
00000360: 9f10 0cbe 8f3e a13d a25a 4abd 8543 3fbd
00000370: 6eb3 0e3d 5203 00bd 76b1 243d 1f7f 943c
00000380: 526e 63bc efc7 193d e98e 283e e02f 933d
00000390: 3db4 763c e651 d1bb a599 66be 9c6b 9cbc
000003a0: c178 7bbd 5ef6 cf3d b562 ccbc ce03 95bd
000003b0: 5229 06be d07f 1dbd fdfd 233e e839 a63d
000003c0: 7e6f 9cbd 0ea7 f4bc 2ac8 133d a159 a03b
000003d0: 8f9b 7d3e e293 613c fdbf b7bd 7525 06be
000003e0: f97d 07bd 678a 5d3d 6186 a0bc 821e da3c
000003f0: 43fc bd3d 279e eabd 2049 20be 00f1 e33c

q1_layer2.bias f4 [128]
-0.003370845 -0.0019158548 -0.0005057994 0.015214851 -0.013590493 -0.0020077294 0.00043258548 -0.010863356
-0.0032069879 0.0069025457 0.0076487134 -0.0077766324 -0.011513383 0.0126878135 0.0033703025 -0.013534843
-0.0012609076 -0.024364574 0.011297719 0.010227309 0.020060496 0.0015930714 -0.009540318 0.0053186375
0.012390461 -0.0040782713 -0.0003544047 -0.006602866 0.012025497 -0.008792122 -0.019970296 0.006082797
-0.0030724523 0.009979647 -0.0010369493 0.018010395 0.0017807384 -0.004493313 0.0022446637 -0.0021965902
-0.0070721824 0.005542035 0.00056792033 -0.0031042653 0.005207106 -0.003341476 -0.020937849 -0.0046619773
-0.0029345246 0.00027267102 -0.008661459 0.013322894 -0.0010644158 0.003957221 0.0013230415 -0.0023395566
0.010352825 -0.008306586 -0.019577816 -0.028964955 -0.005598544 -0.00076151115 -0.0049337503 -0.0117948055
-0.020361489 -0.0019241347 0.00097056385 0.012915597 0.013516663 -0.016292404 0.0064156824 0.009320557
-0.00059829594 -0.010928331 -0.015345111 -0.0028938125 -0.0030875732 -0.010788295 -0.0029145537 -0.013259101
-0.0051755677 -0.001661237 0.019323867 0.009916324 -0.022263143 -0.012864975 -0.008221284 -0.011708766
-0.0033695789 -0.0028682838 -0.011286383 -0.0108237825 -0.01602806 0.01141364 -0.0052996925 -0.007461279
-0.00173329 -0.008820628 -0.0035209504 -0.003907824 0.0022727575 0.009844326 0.004580895 0.0007046703
0.0008420293 0.0066475794 -0.0042103855 -0.007423573 -0.007062791 -0.0017217157 0.012111514 -0.010186942
-0.008772894 -0.0021805011 0.0044151824 -0.007437535 0.006259869 -0.0011787533 0.008025483 0.004170202
0.012935108 0.007897043 -0.00741409 -0.015759353 -0.01589838 -0.012975731 -0.0060236924 0.013324076
00000000: 65e9 5cbb 6b1d fbba a097 04ba b647 793c
00000010: a9aa 5ebc 1c94 03bb a4cc e239 38fc 31bc
00000020: 542c 52bb c02e e23b 0fa2 fa3b 1fd3 febb
00000030: a1a2 3cbc 8ce0 4f3c 4be0 5c3b 3fc1 5dbc
00000040: 0a45 a5ba 3798 c7bc 111a 393c 7190 273c
00000050: e955 a43c 9bce d03a fe4e 1cbc f747 ae3b
00000060: 5c01 4b3c 05a3 85bb 65cf b9b9 db5c d8bb
00000070: 9706 453c d50c 10bc bf98 a3bc 3352 c73b
00000080: 325b 49bb ac81 233c 3fea 87ba 898a 933c
00000090: aa67 e93a a43c 93bb 351b 133b abf4 0fbb
000000a0: c4bd e7bb f699 b53b 7de0 143a ee70 4bbb
000000b0: 5fa0 aa3b aafc 5abb da85 abbc 80c3 98bb
000000c0: 2751 40bb 49f5 8e39 cbe8 0dbc 4548 5a3c
000000d0: de83 8bba 93ab 813b e869 ad3a 3f53 19bb
000000e0: e59e 293c 5918 08bc a861 a0bc ea47 edbc
000000f0: fe73 b7bb 26a0 47ba 4cab a1bb 003f 41bc
00000100: 23cd a6bc 3f33 fcba 706d 7e3a f19b 533c
00000110: fe74 5d3c a677 85bc a53a d23b 40b5 183c
00000120: f6d6 1cba be0c 33bc 0f6a 7bbc 1ea6 3dbb
00000130: e258 4abb 64c1 30bc 1902 3fbb b33c 59bc
00000140: cf97 a9bb ddbd d9ba 164d 9e3c 1478 223c
00000150: 3261 b6bc 9ec7 52bc 90b2 06bc 20d6 3fbc
00000160: 27d4 5cbb d1f9 3bbb 85ea 38bc 3c56 31bc
00000170: 474d 83bc 4700 3b3c 0ba9 adbb bf7d f4bb
00000180: 902f e3ba 6584 10bc bfbf 66bb 340d 80bb
00000190: 8bf2 143b 194a 213c 551b 963b a0b9 383a
000001a0: a1bb 5c3a f0d3 d93b 46f7 89bb 7241 f3bb
000001b0: fc6e e7bb 31ab e1ba 5f6f 463c 22e7 26bc
000001c0: 2fbc 0fbc bde6 0ebb 3cad 903b 91b6 f3bb
000001d0: 961f cd3b 6680 9aba 517d 033c 31a6 883b
000001e0: c6ed 533c 9962 013c e5f1 f2bb c219 81bc
000001f0: 523d 82bc 2998 54bc 6562 c5bb 3a4d 5a3c

q1_layer3.weight f4 [64, 128]
-0.16468619 0.17469925 0.046302393 -0.0822865 0.04556474 0.02530788 -0.10819611 -0.06133427
-0.27346465 -0.111193135 -0.20296851 -0.053555124 0.061215468 -0.04011039 -0.03884691 -0.007471676
-0.09695424 0.017094161 0.080446005 -0.14807288 -0.015385091 0.0062356414 -0.100153685 0.06335423
0.13328993 -0.09506732 0.031953055 0.07882417 0.06534033 -0.03776188 0.0815965 0.06321525
0.053335395 0.013165212 -0.070678346 -0.16613798 -0.0633813 -0.04487313 -0.12574139 0.014336346
0.0751702 0.059954476 -0.036826555 -0.100056805 -0.009345852 0.1306889 0.17004927 -0.021211382
-0.00613953 -0.035459198 -0.06630975 0.06308031 0.043860786 0.1139244 0.0063313255 -0.08147375
0.10239331 0.06766754 -0.06981187 0.16906193 0.08564326 0.12989838 0.17258014 0.061343685
-0.14830336 -0.06863416 -0.030593127 0.0696883 -0.10429818 -0.061766375 0.19390707 -0.08275017
-0.018522948 -0.044787433 -0.00890722 -0.14867929 -0.017066596 -0.114095524 -0.031566024 0.096476845
0.07435325 -0.050418906 -0.16849968 -0.118291594 0.0071785967 0.034523908 0.18780474 -0.01895976
0.17979378 -0.04782875 0.07008876 0.11795718 -0.04770767 -0.07739092 -0.025663558 -0.06712103
0.083234824 -0.023360783 0.041217305 0.042176176 -0.04614694 0.0094535 0.0029536195 0.07595777
-0.0392858 -0.04492014 0.036012925 0.05193793 0.092262685 -0.034799244 0.07283082 0.025336005
0.055936586 -0.051648974 -0.08817663 0.00028042024 -0.20974386 0.027089559 -0.061548583 0.026480304
-0.050826743 0.1252461 -0.007652413 0.013211844 -0.013132997 -0.0039970977 0.017599259 -0.009633726
-0.004193322 0.15094368 -0.0025389118 0.06760136 0.2297058 -0.044100434 -0.0034959514 -0.008191197
-0.016076447 0.07863973 0.100589186 -0.08031255 -0.020865286 0.10225597 0.066551186 0.033198453
0.08249363 -0.00452274 -0.18339562 0.026256794 0.17722498 -0.00864281 -0.13727495 0.09929281
0.092764415 -0.048458077 -0.026672339 0.03379736 0.085566424 -0.06415087 -0.08218655 0.07022238
-0.04839901 0.07679362 0.15528318 0.061681725 0.08425577 -0.1313385 0.14337966 0.050452024
0.037832443 0.22952001 -0.085545026 0.15493841 0.08904489 -0.17515396 -0.015183267 0.031079622
0.0078116637 0.026527079 0.0075983466 -0.002142625 -0.08434102 0.018290143 0.0801663 -0.045479055
0.07630261 0.106353804 0.078673385 -0.060752604 -0.14695475 -0.0126551995 0.028549664 -0.05590301
-0.13032112 0.06580395 -0.07389541 -0.07214376 0.119651504 0.018275311 0.122209325 0.11928184
-0.004224063 -0.11713799 0.10363234 -0.0014654745 -0.059101697 -0.2226519 -0.04325439 0.07629816
0.19283006 -0.0014465472 0.042857297 -0.052103624 -0.13222323 -0.07077597 0.04004446 0.026064027
-0.019601474 0.017098995 -0.07236589 -0.0022410264 0.025400816 0.01841875 0.11311855 -0.11468315
-0.007221768 -0.120447926 -0.03855221 -0.1502671 0.03777735 0.03662566 0.020553326 0.011116965
0.10659637 0.14358595 -0.035652254 0.0602375 -0.013596779 -0.04993705 0.046115387 0.05340265
0.077619895 -0.0126575455 0.038970746 0.023285264 0.059345204 0.00018716125 -0.047108535 0.07438311
0.13667542 0.08981883 0.10662897 -0.075451374 -0.093693614 0.2654098 -0.0047554653 -0.05096769
00000000: 7fa3 28be 5ce4 323e 94a7 3d3d d385 a8bd
00000010: 18a2 3a3d 7952 cf3c ec95 ddbd a539 7bbd
00000020: 8f03 8cbe 3ab9 e3bd fad6 4fbe 9e5c 5bbd
00000030: 12bd 7a3d cb4a 24bd f01d 1fbd f6d4 f4bb
00000040: f28f c6bd 0e09 8c3c e0c0 a43d 6ba0 17be
00000050: c011 7cbc 5a54 cc3b 601d cdbd ddbf 813d
00000060: 287d 083e a8b2 c2bd 35e1 023d 916e a13d
00000070: 27d1 853d 33ac 1abd 111c a73d ff76 813d
00000080: 3776 5a3d e7b2 573c cfbf 90bd 1320 2abe
00000090: 0ece 81bd e3cc 37bd 5ac2 00be fee2 6a3c
000000a0: d5f2 993d d392 753d 71d7 16bd 95ea ccbd
000000b0: 581f 19bc 50d3 053e 6521 2e3e 7ec3 adbc
000000c0: 1c2e c9bb aa3d 11bd 68cd 87bd 4030 813d
000000d0: 5ea7 333d 3251 e93d 0277 cf3b b6db a6bd
000000e0: 95b3 d13d 4795 8a3d 87f9 8ebd 921e 2d3e
000000f0: bc65 af3d 1504 053e d9b8 303e 8443 7b3d
00000100: d6dc 17be 1190 8cbd 709e fabc bdb8 8e3d
00000110: 499a d5bd bdfe 7cbd 938f 463e ec78 a9bd
00000120: 70bd 97bc 0773 37bd 97ef 11bc 623f 18be
00000130: 3fcf 8bbc eaaa e9bd 604b 01bd a795 c53d
00000140: 8446 983d 0e84 4ebd 2e8b 2cbe dd42 f2bd
00000150: 6f3a eb3b f168 0d3d e34f 403e 8051 9bbc
00000160: dc1b 383e 14e8 43bd b28a 8f3d 8993 f13d
00000170: 1e69 43bd 217f 9ebd 623c d2bc c076 89bd
00000180: 0577 aa3d 1d5f bfbc 7ad3 283d edc0 2c3d
00000190: 9304 3dbd dae2 1a3c 8391 413b bf8f 9b3d
000001a0: 26ea 20bd 2efe 37bd 4a82 133d debc 543d
000001b0: 38f4 bc3d a789 0ebd 5328 953d 748d cf3c
000001c0: c31d 653d e08d 53bd f395 b4bd 5e05 9339
000001d0: 18c7 56be ecea dd3c 5e1a 7cbd 39ed d83c
000001e0: b42f 50bd 8340 003e 18c1 fabb 7d76 583c
000001f0: c82b 57bc 16fa 82bb 522c 903c c7d6 1dbc
00000200: 2268 89bb fb90 1a3e df63 26bb 9572 8a3d
00000210: ff37 6b3e a8a2 34bd 551c 65bb 5f34 06bc
00000220: c1b2 83bc de0d a13d b401 ce3d e87a a4bd
00000230: aded aabc 946b d13d fd4b 883d 1afb 073d
00000240: 6cf2 a83d 7e33 94bb 10cc 3bbe 7d18 d73c
00000250: 777a 353e 939a 0dbc ce91 0cbe 075a cb3d
00000260: 45fb bd3d fa7b 46bd f37f dabc 1a6f 0a3d
00000270: 733d af3d 8861 83bd 6c51 a8bd c0d0 8f3d
00000280: 0a3e 46bd f945 9d3d 8e02 1f3e faa5 7c3d
00000290: 4a8e ac3d 9a7d 06be 1ed2 123e c8a6 4e3d
000002a0: 31f6 1a3d 4b07 6b3e 3b32 afbd 2da8 1e3e
000002b0: 2b5d b63d 8f5b 33be 3dc3 78bc b19a fe3c
000002c0: fcf8 ff3b 514f d93c 8dfb f83b 486b 0cbb
000002d0: fcba acbd 36d5 953c 3b2e a43d 3f48 3abd
000002e0: 8b44 9c3d 06d0 d93d 831f a13d b9d7 78bd
000002f0: 4e7b 16be c157 4fbc fce0 e93c 8efa 64bd
00000300: e672 05be 39c4 863d 7a56 97bd 1cc0 93bd
00000310: d90b f53d 1bb6 953c e248 fa3d 0a4a f43d
00000320: 026a 8abb 0be6 efbd 313d d43d 2a15 c0ba
00000330: 9f14 72bd dcfe 63be 842b 31bd 3642 9c3d
00000340: 3e75 453e 129a bdba 228b 2f3d 9c6a 55bd
00000350: 8765 07be fef2 90bd a905 243d 3a84 d53c
00000360: 4593 a0bc 3113 8c3c 9134 94bd 2fde 12bb
00000370: 5f15 d03c ebe2 963c b3aa e73d 00df eabd
00000380: 95a4 ecbb 67ad f6bd ece8 1dbd 9edf 19be
00000390: 6cbc 1a3d ca04 163d 735f a83c ee23 363c
000003a0: 334f da3d 3208 133e 1908 12bd 99bb 763d
000003b0: 06c5 5ebc cb8a 4cbd 7de3 3c3d bdbc 5a3d
000003c0: 2ef7 9e3d 9861 4fbc ca9f 1f3d bdc0 be3c
000003d0: f513 733d b740 4439 e1f4 40bd 2c56 983d
000003e0: a4f4 0b3e eff2 b73d 4a60 da3d 4086 9abd
000003f0: 70e2 bfbd cbe3 873e bcd3 9bbb 7fc3 50bd

q1_layer3.bias f4 [64]
-0.0054258145 0.012747028 0.00030781966 0.0020375391 0.007750366 0.001273612 -0.009301041 0.01664169
-0.0038758165 -0.011726184 0.018427769 -0.0054071243 -0.012321799 -0.010463951 -0.009605463 0.0003945199
-0.008417459 0.007833084 -0.005794355 -0.012209755 0.014085151 -0.009486335 -0.008559337 0.017104026
-0.009137208 0.006670606 -0.006134937 -0.007526744 -0.0063451966 0.011252877 -0.004692187 -0.0031839495
0.014044575 0.017470384 -0.0051049055 0.01928166 -0.0040531526 0.0014850426 -0.004633658 0.0011722265
-0.010046241 -0.0045702523 -0.0012405775 0.012966333 -0.009336172 -0.00799442 0.012617649 0.014109847
-0.00084312767 -0.012206592 0.0024625266 -0.009413505 -0.012167178 -0.00413747 -0.006892591 -0.01060833
-0.009431588 0.01265723 -0.008691337 -0.009469038 -0.0073697637 -0.007918773 0.0029093297 0.011751138
00000000: 08cb b1bb e9d8 503c db62 a139 3c88 053b
00000010: c8f6 fd3b 54ef a63a 6563 18bc 2754 883c
00000020: 6901 7ebb 2e1f 40bc d5f5 963c 3f2e b1bb
00000030: 5fe1 49bc fe70 2bbc 3b60 1dbc 91d7 ce39
00000040: 62e9 09bc 5656 003c 93de bdbb 6d0b 48bc
00000050: 68c5 663c 936c 1bbc 763c 0cbc be1d 8c3c
00000060: 3ab4 15bc 1995 da3b 9507 c9bb e8a2 f6bb
00000070: 5eeb cfbb fd5d 383c ebc0 99bb cfa9 50bb
00000080: 381b 663c 0d1e 8f3c 0d47 a7bb 92f4 9d3c
00000090: 4fd0 84bb c3a5 c23a f1d5 97bb 65a5 993a
000000a0: fd98 24bc 0ec2 95bb e09a a2ba be70 543c
000000b0: bef6 18bc 07fb 02bc 41ba 4e3c fd2c 673c
000000c0: 5705 5dba 28fe 47bc 5762 213b 1a3b 1abc
000000d0: d858 47bc 9d93 87bb 3edb e1bb 90ce 2dbc
000000e0: f386 1abc 4560 4f3c 1c66 0ebc 0624 1bbc
000000f0: 0f7e f1bb bebd 01bc 74aa 3e3b d887 403c

q1_layer4.weight f4 [1, 64]
0.036872864 -0.20732017 -0.013806881 -0.13094553 -0.018987777 -0.20117883 0.039709765 -0.08170084
0.030373944 -0.012328383 -0.052650828 0.13668722 0.01638155 -0.004282559 -0.1919633 -0.33046994
0.17830789 -0.143917 0.050504528 0.17159681 -0.047074232 -0.14104442 0.06279511 -0.09089769
0.14741942 -0.023735724 -0.24502943 0.089681745 0.08162827 -0.1047933 0.004816361 0.025986474
-0.15063229 -0.068751626 -0.18850678 -0.06414467 0.0059344433 -0.01120778 0.005929773 -0.010361248
0.049562026 0.09286575 -0.01617242 -0.03746041 0.1974857 0.0011404639 -0.07162132 -0.13393286
-0.103436485 0.042344753 -0.0032138708 0.14836667 0.13326438 -0.060146723 -0.0032001794 -0.002411046
0.13157295 -0.2977271 0.10766781 0.15095903 0.13239145 0.037529133 -0.26509756 -0.027426552
00000000: 0008 173d bd4b 54be 4236 62bc 9616 06be
00000010: 418c 9bbc d301 4ebe b5a6 223d c552 a7bd
00000020: c7d2 f83c fcfc 49bc 65a8 57bd bcf7 0b3e
00000030: 9a32 863c b554 8cbb 0792 44be 5b33 a9be
00000040: 5896 363e fa5e 13be d6dd 4e3d 13b7 2f3e
00000050: e9d0 40bd f36d 10be b99a 803d 9128 babd
00000060: 1ef5 163e 6c71 c2bc ffe8 7abe 10ab b73d
00000070: b92c a73d df9d d6bd 90d2 9d3b 96e1 d43c
00000080: 5a3f 1abe a7cd 8cbd ec07 41be 485e 83bd
00000090: b875 c23b d6a0 37bc 8b4e c23b 39c2 29bc
000000a0: 8d01 4b3d 6630 be3d 067c 84bc 1670 19bd
000000b0: b139 4a3e 9e7b 953a 33ae 92bd b225 09be
000000c0: 82d6 d3bd b171 2d3d ce9f 52bb 6fed 173e
000000d0: 7576 083e 695c 76bd 1aba 51bb a402 1ebb
000000e0: 0fbb 063e b06f 98be f180 dc3d 0195 1a3e
000000f0: a091 073e 26b8 193d deba 87be a6ad e0bc

q1_layer_norm1.weight f4 [128]
0.99104834 0.9890208 1.0054048 0.9949656 1.0016382 0.98808193 1.0015222 0.9955348
0.99208224 1.0024153 1.007544 0.99881375 0.9931408 0.99665624 0.990397 1.0079607
1.0163332 0.9984359 1.003899 0.999353 0.9975147 0.9917984 0.99422926 1.009732
1.0072328 1.0057409 0.9972291 1.0029867 0.9928185 1.0041656 1.0052848 1.0008898
0.9911708 0.99592614 0.99880123 0.9883254 0.99035615 1.0058993 1.00288 0.9923905
0.9996313 0.9946404 0.9901568 0.9916517 0.9891631 0.99248815 1.0098159 0.99434197
1.0052924 0.9907129 1.0114391 0.9970744 0.99739295 0.9965872 0.98946685 1.0055134
0.99144113 1.000908 1.0059105 0.99429905 0.9964708 0.9876768 1.0120695 1.0097456
0.9931365 0.9968267 0.9867435 1.0012593 1.0053836 1.0013918 0.99915236 0.9953188
0.9964807 0.99493986 1.0080528 1.0099703 1.0029974 1.0057269 1.0019358 0.9998294
0.9973195 1.0034777 0.9958479 1.0168332 0.9932483 0.99659866 1.0080793 1.0092891
1.0196652 1.0033494 1.0021164 1.0011574 0.9989668 1.011058 1.0001044 1.0000702
1.0037966 0.99746305 1.0061834 1.0008324 0.9928306 0.9951556 0.99803317 1.0036814
0.9850659 0.9917787 0.9936881 1.0076114 0.99346286 0.9962828 0.99804854 0.99418867
1.0010874 1.008834 1.012946 0.9901869 0.99491453 0.9985279 0.9852858 1.0025114
0.99452645 1.0068483 1.0053735 1.0295633 1.0137364 0.9967701 0.99777216 0.9898781
00000000: 58b5 7d3f 7830 7d3f 1bb1 803f 11b6 7e3f
00000010: ae35 803f f0f2 7c3f e131 803f 5edb 7e3f
00000020: 1af9 7d3f 254f 803f 34f7 803f 42b2 7f3f
00000030: 7a3e 7e3f dd24 7f3f a88a 7d3f db04 813f
00000040: 3517 823f 7f99 7f3f c37f 803f 99d5 7f3f
00000050: 205d 7f3f 80e6 7d3f cf85 7e3f e63e 813f
00000060: 01ed 803f 1ebc 803f 684a 7f3f de61 803f
00000070: 5a29 7e3f 8088 803f 2cad 803f 281d 803f
00000080: 5fbd 7d3f 04f5 7e3f 70b1 7f3f e502 7d3f
00000090: fb87 7d3f 4fc1 803f 5f5e 803f 4e0d 7e3f
000000a0: d6e7 7f3f c1a0 7e3f eb7a 7d3f e3dc 7d3f
000000b0: cb39 7d3f b413 7e3f a641 813f 328d 7e3f
000000c0: 6cad 803f 5c9f 7d3f d676 813f 4540 7f3f
000000d0: 2555 7f3f 5720 7f3f b34d 7d3f aab4 803f
000000e0: 16cf 7d3f c11d 803f adc1 803f 628a 7e3f
000000f0: b618 7f3f 63d8 7c3f 7e8b 813f 583f 813f
00000100: 323e 7e3f 0930 7f3f 399b 7c3f 4429 803f
00000110: 69b0 803f 9b2d 803f 73c8 7f3f 36cd 7e3f
00000120: 5c19 7f3f 61b4 7e3f e007 813f b546 813f
00000130: 3862 803f a9bb 803f 6f3f 803f d2f4 7f3f
00000140: 5550 7f3f f571 803f e3ef 7e3f 9727 823f
00000150: 8545 7e3f 1721 7f3f be08 813f 6330 813f
00000160: 6484 823f c16d 803f 5a45 803f ed25 803f
00000170: 4abc 7f3f 596a 813f 6c03 803f 4d02 803f
00000180: 687c 803f bd59 7f3f 9eca 803f 471b 803f
00000190: 252a 7e3f 84c2 7e3f 1a7f 7f3f a278 803f
000001a0: 472d 7c3f 35e5 7d3f 5862 7e3f 69f9 803f
000001b0: 9553 7e3f 640c 7f3f 1c80 7f3f 2683 7e3f
000001c0: a223 803f 7921 813f 37a8 813f e47c 7d3f
000001d0: b8b2 7e3f 869f 7f3f b13b 7c3f 4b52 803f
000001e0: 4999 7e3f 68e0 803f 14b0 803f bbc8 833f
000001f0: 1dc2 813f 532c 7f3f ff6d 7f3f a768 7d3f

q1_layer_norm1.bias f4 [128]
-0.0052228966 -0.003817159 0.00421117 -0.0012440737 0.005981979 -0.007025352 0.007447348 -0.004290506
-0.004683157 0.0045879935 0.01507966 0.0033227433 -0.0046345047 0.0045692716 -0.0076213647 0.011488053
0.01641767 0.0023821488 0.0064073512 0.0016142488 0.0020877628 -0.0041937674 -0.008951659 0.012598076
0.012617456 0.00700074 0.002306435 0.0075002993 0.0037984839 0.009869568 0.006601973 0.001924566
-0.004668352 -0.002867251 0.0034830025 -0.005641279 -0.0029396608 0.007491712 0.0035053361 0.002020675
0.0047655916 0.00078753365 -0.006935654 -0.0070425537 -0.01299892 -0.009728166 0.010518281 -0.0025558309
0.0062989383 -0.0076091387 0.016076364 0.0003199768 0.0018392956 -0.0050665075 -0.0032776715 0.01137469
-0.009656604 0.005282207 0.00887491 -0.0015295175 0.001004716 -0.0055188686 0.014496925 0.015389815
-0.008535217 0.00020747716 -0.0010851737 0.0024459066 0.012776631 0.0050536306 0.009712833 0.0046929205
-0.00092455145 0.0052139526 0.014233912 0.012071081 0.0070727044 0.009833982 0.009074726 0.004123088
0.004081315 0.0018401534 -0.0020215956 0.017506937 0.00085519085 0.0012356128 0.017553924 0.012361422
0.020625958 0.006963117 0.0072633023 0.0024738628 0.009628405 0.017183052 0.004784728 0.005986093
0.008523255 0.004713905 0.012313026 0.0015033582 -9.581557e-05 -0.00072683126 0.0034103119 -0.002386482
-0.010526738 -0.0075330883 -0.011087 0.007727029 -0.0036423677 0.0032720654 -0.0031150545 -0.0006130711
0.0068570585 0.012735791 0.015505858 -0.006756551 -0.0058937655 -2.5190675e-05 -0.009931744 0.009988874
0.0012039883 0.0105051845 0.0027872543 0.023274366 0.009963987 -0.00015847538 0.0056842356 -0.012178871
00000000: d524 abbb 4d29 7abb dbfd 893b 3010 a3ba
00000010: 7a04 c43b ed34 e6bb e208 f43b 5f97 8cbb
00000020: 2b75 99bb e156 963b ae10 773c 62c2 593b
00000030: 0bdd 97bb d4b9 953b a4bc f9bb 6338 3c3c
00000040: 597e 863c d31d 1c3b c2f4 d13b 3495 d33a
00000050: d9d2 083b df6b 89bb fba9 12bc 2968 4e3c
00000060: 72b9 4e3c 7766 e53b 8f27 173b 12c5 f53b
00000070: fcef 783b f8b3 213c 5d55 d83b b841 fc3a
00000080: faf8 98bb 7de8 3bbb 1643 643b 7ada b8bb
00000090: 53a7 40bb 097d f53b c8b9 653b 4d6d 043b
000000a0: ae28 9c3b 7d72 4e3a 7c44 e3bb 39c5 e6bb
000000b0: 6cf9 54bc e362 1fbc de54 2c3c ba7f 27bb
000000c0: 5367 ce3b 1556 f9bb 94b2 833c 8fc2 a739
000000d0: 8514 f13a f204 a6bb 34ce 56bb e85c 3a3c
000000e0: bc36 1ebc 5d16 ad3b 1268 113c 177a c8ba
000000f0: adb0 833a a0d7 b4bb 8384 6d3c 9025 7c3c
00000100: 4bd7 0bbc 3a8e 5939 633c 8eba 814b 203b
00000110: 1355 513c ed98 a53b 9322 1f3c 12c7 993b
00000120: 995d 72ba ced9 aa3b 5b35 693c c9c5 453c
00000130: 25c2 e73b b61e 213c 29ae 143c f81a 873b
00000140: 8dbc 853b 4d31 f13a bf7c 04bb b56a 8f3c
00000150: e32e 603a 49f4 a13a 3fcd 8f3c 9087 4a3c
00000160: c5f7 a83c dc2a e43b ff00 ee3b 8820 223b
00000170: 75c0 1d3c 79c3 8c3c 35c9 9c3b fd26 c43b
00000180: 1fa5 0b3c 1a77 9a3b 93bc 493c 550c c53a
00000190: 98f0 c8b8 d288 3eba 8a7f 5f3b 8666 1cbb
000001a0: 5778 2cbc 20d8 f6bb 40a6 35bc 0433 fd3b
000001b0: cab4 6ebb 2670 563b f125 4cbb 81b6 20ba
000001c0: 2db1 e03b c7a9 503c 480c 7e3c 0f66 ddbb
000001d0: 7d20 c1bb 9050 d3b7 c1b8 22bc 60a8 233c
000001e0: 25cf 9d3a f01d 2c3c 5eaa 363b e2a9 be3c
000001f0: fe3f 233c 692c 26b9 d342 ba3b e389 47bc

q1_layer_norm2.weight f4 [128]
0.9918015 0.9989355 1.0037566 1.0191941 0.99153507 0.9948176 1.0047768 0.99092937
1.000962 1.010527 1.0099541 0.9902082 0.9926284 1.0140563 0.9999163 0.9950039
0.9944913 1.0057205 1.0134016 1.0185196 1.0260818 0.9984109 0.9851712 1.0055826
1.0101167 0.99742615 1.0070581 0.99036926 1.0110109 0.99436027 1.0006995 1.0164226
1.0027164 1.0116266 0.9974881 1.0229827 0.9997349 0.9953423 1.0070113 0.9926611
0.99126154 0.99987245 0.99897957 0.9917561 1.0020634 0.99617034 0.9920368 0.99930626
0.9917992 1.0031945 0.98970646 1.0149627 0.9912522 1.0027378 0.99438596 0.993161
0.99998343 0.99450666 0.99349034 1.000111 0.9946359 0.9969999 0.99308825 0.9992526
0.99654746 0.9887628 0.99840516 1.0162727 1.018344 1.0011737 1.00687 1.0115236
1.0009769 0.994304 0.99481994 0.9993103 0.99737483 0.99558306 1.0009813 0.98645574
1.0041709 1.0007313 1.0276687 1.0070498 1.0015364 0.9958849 0.99546313 0.9893014
0.9974959 0.9948723 0.98558307 0.98904175 0.99169976 1.0066656 1.0041399 0.9953776
0.99758214 0.99588835 1.0044265 0.99268085 1.0104932 1.0054474 1.0086528 0.99804395
0.99637705 1.0041058 0.9923492 0.99990135 0.9887168 0.99285126 1.0130943 0.9892671
0.9984448 0.9988817 1.0017163 0.9831087 1.0096833 0.9987389 1.0058799 1.0064753
1.0114452 1.009205 0.9952213 0.99290925 0.9943508 0.9923341 0.9880007 1.0119466
00000000: b4e6 7d3f 3dba 7f3f 197b 803f f474 823f
00000010: 3ed5 7d3f 5eac 7e3f 879c 803f 8cad 7d3f
00000020: 861f 803f f358 813f 2d46 813f 497e 7d3f
00000030: e51c 7e3f 99cc 813f 84fa 7f3f 93b8 7e3f
00000040: fb96 7e3f 73bb 803f 25b7 813f da5e 823f
00000050: a656 833f db97 7f3f 2e34 7c3f eeb6 803f
00000060: 814b 813f 5257 7f3f 48e7 803f d788 7d3f
00000070: ce68 813f 658e 7e3f ec16 803f 231a 823f
00000080: 0359 803f fb7c 813f 615b 7f3f 19f1 823f
00000090: a0ee 7f3f c1ce 7e3f bfe5 803f 0a1f 7e3f
000000a0: 51c3 7d3f a4f7 7f3f 20bd 7f3f bae3 7d3f
000000b0: 9d43 803f 0505 7f3f 20f6 7d3f 89d2 7f3f
000000c0: 8de6 7d3f ad68 803f 675d 7d3f 4cea 813f
000000d0: b4c2 7d3f b659 803f 1490 7e3f cd3f 7e3f
000000e0: eafe 7f3f fd97 7e3f 6255 7e3f a303 803f
000000f0: 75a0 7e3f 633b 7f3f 083b 7e3f 05cf 7f3f
00000100: bc1d 7f3f 8f1f 7d3f 7b97 7f3f 3915 823f
00000110: 1959 823f 7626 803f 1ee1 803f 9b79 813f
00000120: 0320 803f b58a 7e3f 85ac 7e3f cdd2 7f3f
00000130: f553 7f3f 88de 7e3f 2820 803f 5d88 7c3f
00000140: ac88 803f f717 803f a68a 833f 02e7 803f
00000150: 5832 803f 50f2 7e3f acd6 7e3f db42 7d3f
00000160: e45b 7f3f f3af 7e3f 2c4f 7c3f d731 7d3f
00000170: 09e0 7d3f 6bda 803f a887 803f 11d1 7e3f
00000180: 8b61 7f3f 8af2 7e3f 0c91 803f 5520 7e3f
00000190: d757 813f 80b2 803f 891b 813f cf7f 7f3f
000001a0: 9112 7f3f 8a86 803f 990a 7e3f 89f9 7f3f
000001b0: 8b1c 7d3f 802b 7e3f 13ad 813f 9c40 7d3f
000001c0: 149a 7f3f b6b6 7f3f 3d38 803f 03ad 7b3f
000001d0: 4d3d 813f 5aad 7f3f acc0 803f 2fd4 803f
000001e0: 0977 813f a12d 813f d3c6 7e3f 4d2f 7e3f
000001f0: c68d 7e3f 9c09 7e3f 9ded 7c3f 7787 813f

q1_layer_norm2.bias f4 [128]
0.00025983172 0.002407005 0.008299827 0.017881976 -0.009028296 0.0012091789 0.0068273093 -0.0060426565
0.0012855849 0.015113235 0.011605705 -0.0035982365 -0.008127079 0.016765937 0.0062523917 -0.00773156
0.0014552372 0.017138062 0.018308936 0.015005897 0.024415096 0.0035692467 -0.008906763 0.012128072
0.015050519 -0.001857341 0.007936634 -0.0037264652 0.015759917 -0.0041151512 -0.0010289347 0.0124823665
0.009459634 0.014014825 0.0035818943 0.022665685 0.009008474 0.0039729937 0.006896113 0.0006994502
-0.002937974 0.007681193 0.0046841176 0.0012411973 0.0067174938 -0.0019374839 -0.014200376 -0.001026175
0.00042235185 0.0058153505 -0.008373375 0.01672866 -0.0006347498 0.013685534 0.0036289955 -0.0008016214
0.015608532 -0.0020943289 -0.008222743 -8.217945e-05 -0.0019626012 0.0042759287 -0.0034600256 -0.0033912433
0.00082614936 -0.00022522493 0.004028701 0.018344535 0.017997509 0.0025585147 0.009801557 0.015831288
0.004154437 -0.0049601393 -0.0114583 0.004068701 0.0019240532 -0.004597127 0.0001517373 -0.009472855
0.0045448774 0.0028051764 0.023490129 0.013602485 0.005105668 -0.005535229 -0.00028784215 -0.009673968
0.0017965903 0.000519355 -0.010197169 -0.006952862 -0.0089432355 0.013390742 0.0055903466 -0.0024828021
0.0011780412 -0.006040103 0.0043298523 0.0022948605 0.008409192 0.012413616 0.010251703 0.0029987302
0.0039159553 0.009030769 -0.0019992802 0.0013494062 -0.0069388845 0.0035342595 0.018511938 -0.004899876
-0.001506211 0.0010440896 0.008438842 -0.004635344 0.013118848 0.004518967 0.0099303145 0.009979799
0.015240475 0.011481448 -0.0055676512 -0.0073177367 -0.0064455587 -0.0062953685 -0.0040164026 0.01593461
00000000: 063a 8839 d8be 1d3b fffb 073c 397d 923c
00000010: 6beb 13bc 507d 9e3a 9fb7 df3b 7a01 c6bb
00000020: 1281 a83a 819d 773c db25 3e3c 64d0 6bbb
00000030: 7127 05bc b858 893c dde0 cc3b 0759 fdbb
00000040: a8bd be3a 1f65 8c3c 9ffc 953c 4bdb 753c
00000050: 2b02 c83c 06ea 693b aced 11bc d2b4 463c
00000060: 7496 763c 0672 f3ba a808 023c b637 74bb
00000070: f11a 813c 64d8 86bb 52dd 86ba d782 4c3c
00000080: 95fc 1a3c 709e 653c 37be 6a3b 63ad b93c
00000090: 4798 133c e32f 823b caf8 e13b 4f5b 373a
000000a0: 068b 40bb 84b2 fb3b 3a7d 993b acaf a23a
000000b0: 6c1e dc3b 2cf3 fdba b2a8 68bc b880 86ba
000000c0: 1b6f dd39 b28e be3b 7b30 09bc 8b0a 893c
000000d0: 5765 26ba 4a39 603c 71d4 6d3b e723 52ba
000000e0: eeba 7f3c 0241 09bb afb8 06bc c257 acb8
000000f0: fc9e 00bb 171d 8c3b 99c1 62bb 9f3f 5ebb
00000100: f291 583a 5b2a 6cb9 3203 843b 4747 963c
00000110: 836f 933c c1ac 273b b696 203c 9eb0 813c
00000120: f221 883b aa88 a2bb 98bb 3bbc bd52 853b
00000130: 8330 fc3a 7fa3 96bb ac1b 1f39 0934 1bbc
00000140: 32ed 943b 0dd7 373b 5f6e c03c f5dc 5e3c
00000150: 734d a73b de60 b5bb 85e9 96b9 907f 1ebc
00000160: 917b eb3a 5325 083a 0712 27bc d5d4 e3bb
00000170: a686 12bc d864 5b3c 3a2f b73b 82b6 22bb
00000180: 8168 9a3a 0eec c5bb 6fe1 8d3b 5f65 163b
00000190: b5c6 093c 7b62 4b3c c2f6 273c 5886 443b
000001a0: 6a51 803b caf5 133c 5b06 03bb 8fde b03a
000001b0: 955f e3bb 099f 673b 59a6 973c 248f a0bb
000001c0: 0e6c c5ba d5d9 883a 1243 0a3c 15e4 97bb
000001d0: 70f0 563c d813 943b c2b2 223c 5082 233c
000001e0: 2fb3 793c af1c 3c3c d870 b6bb a0c9 efbb
000001f0: 4435 d3bb 6149 cebb 079c 83bb 4d89 823c

q1_layer_norm3.weight f4 [64]
0.9955623 1.0069389 1.0147731 0.9927924 1.0109128 0.99696624 0.9950291 1.0124972
0.992073 0.9989325 1.0106937 0.9920184 0.9897118 1.0060452 0.9925995 0.9789395
0.9906422 1.0010047 0.9880011 0.99607605 1.011631 1.0025471 0.9827074 1.0098774
0.98836184 1.013049 0.989934 0.98321515 0.98454016 1.0076312 0.9880036 0.98742497
1.0135851 1.0115129 0.9906629 1.0101441 0.99294937 1.0126861 0.9922172 1.0107831
0.9935182 0.9897303 1.0081772 1.0116278 0.99099994 0.99461675 1.0096234 1.0095797
0.9949394 0.9908336 0.9978162 0.987883 0.98688436 0.9985423 0.9953869 1.0016141
0.99857414 1.0023905 0.99730515 0.9906352 0.98215044 0.9909314 0.983383 1.009652
00000000: 2cdd 7e3f 60e3 803f 16e4 813f a527 7e3f
00000010: 9765 813f 2e39 7f3f 3aba 7e3f 8299 813f
00000020: 7ff8 7d3f 0aba 7f3f 695e 813f ebf4 7d3f
00000030: c15d 7d3f 17c6 803f 001b 7e3f c79b 7a3f
00000040: ba9a 7d3f ec20 803f a4ed 7c3f d7fe 7e3f
00000050: 207d 813f 7753 803f b692 7b3f aa43 813f
00000060: 4805 7d3f 97ab 813f 516c 7d3f fdb3 7b3f
00000070: d30a 7c3f 0ffa 803f ceed 7c3f e2c7 7c3f
00000080: 28bd 813f 4179 813f 159c 7d3f 674c 813f
00000090: ee31 7e3f b39f 813f f201 7e3f 5761 813f
000000a0: 3557 7e3f f75e 7d3f f30b 813f 057d 813f
000000b0: 2cb2 7d3f 349f 7e3f 573b 813f e839 813f
000000c0: 59b4 7e3f 45a7 7d3f e270 7f3f e6e5 7c3f
000000d0: 74a4 7c3f 78a0 7f3f add1 7e3f e434 803f
000000e0: 8ea2 7f3f 554e 803f 644f 7f3f 459a 7d3f
000000f0: 366e 7b3f aead 7d3f fdbe 7b3f 473c 813f

q1_layer_norm3.bias f4 [64]
-0.004861905 0.010768794 0.015861794 0.0033080755 0.012828969 0.007470552 -0.0042191003 0.0104818735
-0.006908878 -0.0012779196 0.011014066 -0.00643989 -0.010333373 0.009080186 -0.0039903335 0.00035984613
-0.008475947 0.007614707 -0.010521791 -0.004779706 0.010167947 0.0032872458 -0.011372558 0.012996549
-0.010768567 0.012298335 -0.0049299905 -0.00905581 -0.0090489695 0.008938154 -0.008025581 -0.010213664
0.0121278595 0.010530019 -0.0037133293 0.01103483 -0.009737306 0.012209133 -0.008643315 0.011192672
-0.0058652703 -0.0076875244 0.006868001 0.011703847 -0.009555452 -0.0038124747 0.013299326 0.010842211
0.0049228724 -0.013093417 -0.004001477 -0.010352509 -0.01199292 0.0015382791 -0.0068801576 0.0016582233
0.00032890963 0.010698407 -0.0046898625 -0.008377781 -0.009680537 -0.008293296 0.0020981433 0.010105408
00000000: 9d50 9fbb 996f 303c 98f0 813c 4ccc 583b
00000010: 9930 523c 88cb f43b 6140 8abb 2abc 2b3c
00000020: df63 e2bb de7f a7ba 5774 343c b605 d3bb
00000030: 4f4d 29bc 0fc5 143c 58c1 82bb bba9 bc39
00000040: b3de 0abc cb84 f93b 9763 2cbc 149f 9cbb
00000050: 7697 263c d56e 573b f753 3abc 7aef 543c
00000060: a56e 30bc f57e 493c c28b a1bb d25e 14bc
00000070: 2142 14bc 5671 123c ba7d 03bc 3657 27bc
00000080: eeb3 463c 1a86 2c3c 545b 73bb 6ecb 343c
00000090: 3989 1fbc d108 483c b19c 0dbc 7861 373c
000000a0: 7431 c0bb a1e7 fbbb f80c e13b 7ec1 3f3c
000000b0: 788e 1cbc b6da 79bb 6be5 593c 87a3 313c
000000c0: 0c50 a13b c585 56bc d21e 83bb 929d 29bc
000000d0: f47d 44bc 15a0 c93a f272 e1bb be58 d93a
000000e0: 8171 ac39 5f48 2f3c 6bad 99bb f642 09bc
000000f0: 1d9b 1ebc 9be0 07bc 0181 093b 2791 253c
