rl_energy_manager_20250326_0905/models/checkpoint_100/actor.pth (torch, 117576 bytes, 14 tensors)

layer1.weight f4 [128, 18]
0	0x3d9b503b	0.07583662
1	0xbd6fde02	-0.058561333
2	0x3d937a24	0.07201031
3	0xbda679eb	-0.08128723
4	0x3db341ec	0.08752808
5	0xbd15213b	-0.036408644
6	0x3db68db0	0.089137435
7	0x3b709a25	0.003671297
8	0x3dcb2a16	0.09920137
9	0x3d85b344	0.06528333
10	0xbd5b5a1a	-0.053552724
11	0xbbc7cfb1	-0.006097757
12	0xbe00edf1	-0.12590767
13	0xbd3970e5	-0.04527368
14	0xbcc994c0	-0.024607062
15	0x3de4aa8e	0.11165343
16	0xbd0eb83d	-0.034843672
17	0xbdc615ea	-0.096721485
18	0xbcc90e21	-0.02454287
19	0x3db0d77a	0.08634849
20	0x3d18f9ab	0.037347477
21	0xbd0933e7	-0.033496764
22	0x3e04dba9	0.12974419
23	0x3c09578e	0.008382691
24	0xbbc1a81c	-0.005909933
25	0x3beb6ac2	0.0071843574
26	0xbd95b21d	-0.07309363
27	0xbbd2260d	-0.0064132274
28	0x3d899a5d	0.067188956
29	0x3d68165c	0.05666195
30	0x3d2380ee	0.03991788
31	0x3d83c5a0	0.06434178
32	0xbd9a514b	-0.07535037
33	0x3bc63df9	0.006049868
34	0x3d7a826c	0.061159536
35	0x3cdcfcb8	0.026975974
36	0xbc0b4ee0	-0.008502692
37	0x3dd5c810	0.104385495
38	0x3d9ef698	0.07761878
39	0x3dd9c56a	0.10633357
40	0xbcbf7c6b	-0.023374757
41	0x3cc71ce3	0.024305766
42	0xbe10cb6c	-0.141401
43	0x3db6299e	0.088946566
44	0x3ce00aa5	0.027348826
45	0x3d50af4b	0.050948422
46	0x3ddc8c11	0.10768903
47	0xbc6ef09c	-0.014583733
48	0xbde91f44	-0.113829166
49	0x3c1a0d90	0.009402648
50	0xb9a97782	-0.00032323232
51	0x3df2bae1	0.118520506
52	0x3d2e5cad	0.04256885
53	0xbcead91a	-0.028667975
54	0xbcd99c59	-0.02656381
55	0x3cd946e1	0.026523056
56	0xbd82f02d	-0.06393466
57	0x3db85745	0.0900102
58	0xbcd78037	-0.026306255
59	0x3da75c71	0.08171929
60	0xbc400318	-0.011719488
61	0xbdac3ba0	-0.0840981
62	0x3d5f6f9c	0.0545498
63	0xbdd2ebe8	-0.10298902
64	0xbda161d9	-0.07879991
65	0xbda5c0b6	-0.08093397
66	0x3e0f28f6	0.13980469
67	0xbdc20fe6	-0.09475689
68	0xbd05f82d	-0.032707382
69	0x3da6f9c4	0.08153108
70	0x3db0e5ad	0.08637557
71	0x3e3cba70	0.18430495
72	0xbd884334	-0.06653443
73	0x3cfa52a5	0.030556986
74	0x3e3b68f2	0.18301752
75	0xbe61e0bc	-0.22058386
76	0xbc79a1d0	-0.015236333
77	0xbd645c8e	-0.05575233
78	0xbe2de49a	-0.16981736
79	0xbd5af169	-0.053452883
80	0x3ca2d0d8	0.019874975
81	0xbe375c7a	-0.17906371
82	0x3ccde2f1	0.025132628
83	0x3d93a34d	0.072088815
84	0x3d45b808	0.04827121
85	0xbe2aad82	-0.1666775
86	0x3bd5f970	0.0065299794
87	0xbe2245d2	-0.15846947
88	0xbe0e7083	-0.13910107
89	0x3d61aa98	0.05509433
90	0x3d8baebb	0.068204366
91	0xbdb0a879	-0.086258836
92	0xbdb8ef0e	-0.09029971
93	0xbde50d4a	-0.11184175
94	0xbd0c4ff6	-0.034255944
95	0xbd9f422b	-0.077762924
96	0x3cc04168	0.023468688
97	0x3d61065c	0.054937705
98	0x3e0fc116	0.140385
99	0x3e85809a	0.26074678
100	0xbda4dae5	-0.08049563
101	0xbdd3fc33	-0.103508376
102	0x3dbeab35	0.09309999
103	0xbd59aa82	-0.053141125
104	0x3de1068b	0.10987576
105	0xbd56f61e	-0.05248081
106	0xbdff38f5	-0.124620356
107	0xbd808c9a	-0.062768176
108	0xbb2095dc	-0.0024503386
109	0x3dfa8b63	0.12233617
110	0x3e11f910	0.14255166
111	0x3c6a20f0	0.0142900795
112	0x3dbf2b52	0.093344346
113	0xbd4c6ecc	-0.04991035
114	0x3dd44a94	0.10365787
115	0xbd671dd3	-0.056424927
116	0x3df90ff5	0.12161247
117	0x3e14a9d1	0.14517905
118	0xbcca22b2	-0.024674747
119	0xbd674bf6	-0.056468926
120	0xbc8684ad	-0.016420687
121	0xbb8ea5a4	-0.004353242
122	0x3dde513b	0.10855337
123	0xbd56d558	-0.052449554
124	0x3e02eb78	0.12785137
125	0x3beeea97	0.007291149
126	0xbd364fed	-0.044509817
127	0x3d86c721	0.065809496
128	0xbe0b3cc8	-0.13597405
129	0x3d957b67	0.07298928
130	0xbe0dbe33	-0.13842086
131	0x3dc57a92	0.09642519
132	0xbe3274b5	-0.17427333
133	0x3e29f8bc	0.16598791
134	0xbda4ee6a	-0.080532864
135	0x3e6ede65	0.23327024
136	0x3dcded0c	0.10054979
137	0xbe2cfd81	-0.16893579
138	0xbd7d7ebe	-0.06188845
139	0xbd21e276	-0.03952261
140	0xbd881677	-0.0664491
141	0xbda78af1	-0.08180798
142	0xbc868425	-0.016420433
143	0xbdb3c5c4	-0.08777955
144	0xbcb9adf8	-0.022665963
145	0x3c2c1b5d	0.010504571
146	0x3cf7d252	0.030251656
147	0xbcba07c6	-0.022708785
148	0x3d4a179c	0.049338922
149	0xbd75ff3d	-0.060057867
150	0xbdce739f	-0.10080647
151	0x3d32ade1	0.043622855
152	0x3d77d8c6	0.060509466
153	0x3c96f67a	0.018428076
154	0xbb9c01bc	-0.004760949
155	0x3e1c7134	0.15277559
156	0x3da43932	0.08018722
157	0x3b826d51	0.0039803167
158	0xbd28cbc0	-0.041209936
159	0xbc240bd5	-0.010012587
160	0x3d06d9c8	0.032922536
161	0x3da874e9	0.08225424
162	0xbd001f19	-0.031279657
163	0xbd2d727a	-0.0423455
164	0x3dcae5df	0.09907126
165	0xbab48008	-0.0013771066
166	0xbd3fa20f	-0.04678541
167	0x3dd6a000	0.10479736
168	0xbdd1c528	-0.10242683
169	0x3bcca393	0.0062450855
170	0x3dc5497a	0.09633155
171	0x3ccfe25d	0.025376493
172	0x3cb47fc4	0.02203358
173	0x3e7fc838	0.24978721
174	0xbbb91256	-0.005647938
175	0xbc441c6a	-0.011969665
176	0x3d632664	0.055456534
177	0x3dc94964	0.09828451
178	0xbc9dfab1	-0.019284578
179	0xbdb08ed2	-0.08620991
180	0xbdb0edc8	-0.08639103
181	0xbdf166f2	-0.117872134
182	0x3e22e214	0.15906554
183	0xbe04457c	-0.12917131
184	0xbdb048df	-0.08607649
185	0x3cc6831c	0.02423244
186	0xbe056c79	-0.1302966
187	0xbc805180	-0.015663862
188	0x3d48c1d3	0.04901297
189	0xbe181866	-0.14853057
190	0xbd379006	-0.044815086
191	0xbc202b13	-0.009775895
192	0xbe0a0d1a	-0.1348156
193	0xbdc5c9a9	-0.09657604
194	0xbdb56d88	-0.08858782
195	0xbda658fa	-0.0812244
196	0x3d5582af	0.052126583
197	0xbd95c63c	-0.07313201
198	0x3ddcccff	0.107812874
199	0xbdc638c7	-0.09678798
200	0x3b8162df	0.003948554
201	0x3c623419	0.013806366
202	0xbd3f366c	-0.04668276
203	0xbe103239	-0.14081658
204	0xbe4b6e0a	-0.19866195
205	0xbe4bdeb0	-0.19909167
206	0xbbe7580a	-0.0070600556
207	0x3cfc7934	0.030819513
208	0xbced2292	-0.028947148
209	0x3d9422dd	0.07233212
210	0x3c87b8f6	0.016567688
211	0x3cd04b3b	0.025426498
212	0x3d147669	0.036245737
213	0xbcb1643d	-0.021654243
214	0x3bfb8c07	0.0076766047
215	0xbdeda2bf	-0.11603307
216	0xbdeb88f3	-0.1150073
217	0xbd6e504c	-0.058182046
218	0xbce79cd7	-0.02827303
219	0xbad61c8b	-0.0016335411
220	0x3dedc55d	0.1160991
221	0xbd2be314	-0.041964605
222	0xbcc0f8d2	-0.023556147
223	0x3de7c429	0.113167115
224	0xbbe3bdcc	-0.006950116
225	0xbcff5464	-0.03116817
226	0x3d501960	0.05080545
227	0xbc92494d	-0.017857218
228	0xbddcac47	-0.10775047
229	0xbe317bcf	-0.17332385
230	0xbde9e402	-0.11420442
231	0xbb673453	-0.003527899
232	0xbadac1ad	-0.00166898
233	0x3e1cd2e0	0.15314817
234	0x3d54c61b	0.05194674
235	0xbdce6333	-0.100775145
236	0x3bddd86c	0.0067701843
237	0x3db8b00e	0.09017955
238	0xbdc04917	-0.09388941
239	0x3d41069e	0.04712545
240	0xbde74aec	-0.11293587
241	0x3dfa3330	0.122167945
242	0xbc7a36e8	-0.01527188
243	0x3e051b52	0.12998703
244	0xbd2d41c2	-0.04229904
245	0x3d8eb816	0.06968705
246	0x3df5036c	0.11963543
247	0x3c9142ac	0.017731987
248	0xbc00f7a2	-0.00787154
249	0xbd887fb7	-0.06664985
250	0xbc187be2	-0.00930688
251	0x3e55524d	0.20832177
252	0x3df4e6fc	0.11958119
253	0x3dd29080	0.102814674
254	0xbe1b7346	-0.15180692
255	0xbe3cb7c6	-0.18429479

layer1.bias f4 [128]
0	0x3c6be18f	0.014397039
1	0x39af8e8e	0.00033484813
2	0x3bbba8df	0.005726918
3	0xbc2bd190	-0.010486975
4	0xbc146574	-0.009057391
5	0xbba7a97c	-0.0051166397
6	0xbc0738ea	-0.008253315
7	0x3c838ba5	0.016057799
8	0x3c8d19a3	0.017224139
9	0xbb896663	-0.0041931137
10	0xbc70db23	-0.014700684
11	0xbc28d605	-0.0103049325
12	0x3bf39de4	0.0074345935
13	0xbc06a706	-0.008218532
14	0xba86921f	-0.0010266936
15	0x3cc9363c	0.024561994
16	0xb9cadfd8	-0.0003869522
17	0x3b40bd46	0.002940969
18	0xbbe57aa3	-0.007003145
19	0x3ae69e91	0.0017594864
20	0xbc4a72b0	-0.012356445
21	0xbc0f87f2	-0.008760439
22	0xbbd03a9f	-0.0063546444
23	0xbc04c512	-0.008103626
24	0x3c5e92cc	0.013584804
25	0x3c152483	0.009102943
26	0xbb0aef50	-0.002119977
27	0x3b0b8cef	0.002129372
28	0x3bb7e76a	0.0056123035
29	0x3b2b8232	0.0026170132
30	0xbbc24c5d	-0.0059295134
31	0xb995457e	-0.0002847127
32	0x3b3f5d7a	0.0029200003
33	0xbbc983a2	-0.006149725
34	0xbbded83e	-0.0068006804
35	0xb9537e89	-0.00020169666
36	0xbc05a846	-0.008157795
37	0x3c324d43	0.010882678
38	0x3bd0f92c	0.00637736
39	0xbbf4088f	-0.0074473093
40	0x3c0ccdaf	0.008593961
41	0xbbcb2b3e	-0.006200223
42	0xbc2fca1d	-0.01072934
43	0x3c57cb2f	0.013171001
44	0x3bb172a5	0.005415278
45	0x3c4b7f28	0.012420453
46	0xbbff0a03	-0.007783176
47	0x3aeeadf6	0.0018209803
48	0x3b3c688d	0.002874884
49	0x3c3e4e33	0.011615324
50	0x3bfefcea	0.0077816145
51	0x3c8854ca	0.016641993
52	0x3a00a802	0.00049078476
53	0xbbe875cc	-0.0070941206
54	0x3bc5a0bd	0.0060311244
55	0xbbf2b661	-0.007406995
56	0x3b7aa02b	0.003824244
57	0xbbaf4679	-0.005348977
58	0xbbaf0009	-0.0053405804
59	0xb94dfaa0	-0.00019643689
60	0xbbbc2a2d	-0.0057423324
61	0xbbf53497	-0.007483076
62	0xbb3f6e36	-0.0029209978
63	0x3b515cda	0.0031946213
64	0xbc823b09	-0.01589729
65	0xbb378ea7	-0.0028008611
66	0x3aac3f16	0.001314136
67	0xbba57429	-0.0050492478
68	0xbc0be8db	-0.008539404
69	0xbae0b287	-0.0017143049
70	0xba84447d	-0.0010091212
71	0x3c706270	0.014671907
72	0x3ac0b1e3	0.0014701452
73	0xbbf00646	-0.0073249666
74	0x3b36d4d4	0.0027897852
75	0x3b9738b2	0.004614913
76	0x3be6f63a	0.0070483955
77	0x38e7b4c5	0.00011048609
78	0xbbb87210	-0.0056288317
79	0x3cf052e7	0.029336406
80	0x3c423a82	0.01185477
81	0x3b274882	0.0025525396
82	0x3c75fcd0	0.0150138885
83	0xbbf4c19d	-0.0074693696
84	0x3c5f757b	0.013638849
85	0xbb8758d8	-0.004130464
86	0xbaf51a52	-0.0018699861
87	0xbb001f82	-0.001955003
88	0xbc0e7168	-0.00869403
89	0xbbe47f2b	-0.0069731674
90	0xbbd4ae8f	-0.0064905356
91	0xbbf043f3	-0.007332319
92	0xbb3d2ee5	-0.0028867063
93	0xbc0c0433	-0.008545923
94	0xbbb6fd77	-0.0055844146
95	0xbc0eba6b	-0.008711438
96	0x3b70a1eb	0.0036717604
97	0xbc10b0e4	-0.0088312365
98	0xbc1174e4	-0.008877967
99	0xbbade142	-0.005306394
100	0x3b22e585	0.0024856043
101	0xbc148106	-0.009063965
102	0xb8cea850	-9.854196e-05
103	0x3b12a59e	0.0022376548
104	0x3a84b5f7	0.001012503
105	0xbc02c6cc	-0.007981967
106	0x3a405a02	0.0007337631
107	0xbc0eb549	-0.008710214
108	0xbc0ad4d1	-0.008473591
109	0x3a9edd1b	0.0012120338
110	0x3c4b0423	0.012391123
111	0xbc344f9b	-0.011005308
112	0xbc10d369	-0.008839467
113	0xbc1ac618	-0.009446643
114	0xbb2b1024	-0.002610215
115	0x3d757ca9	0.05993334
116	0xbbf6ed49	-0.007535611
117	0x3bfc48d3	0.007699111
118	0xbab32831	-0.0013668594
119	0x3d81c66b	0.06336673
120	0xbb8ce452	-0.004299679
121	0xbb91ea2e	-0.004452965
122	0xbb504bbf	-0.003178343
123	0x3bf66363	0.007519172
124	0x3bee2c14	0.007268438
125	0xbadcb6bc	-0.0016839127
126	0xbc34e1e4	-0.011040185
127	0xbb8de5f2	-0.00433039

layer2.weight f4 [128, 128]
0	0x3dc2e07c	0.09515473
1	0xb9f63f89	-0.00046968114
2	0x3d8c205d	0.0684211
3	0x3d297285	0.04136898
4	0xbe099c08	-0.13438427
5	0xbce1a70c	-0.027545474
6	0x3db33c87	0.08751779
7	0xbe3c66da	-0.1839861
8	0x3d23aa0d	0.039957095
9	0xbd0429df	-0.032266494
10	0x3e288f50	0.1646092
11	0xbddc14a5	-0.10746125
12	0x3ddf8d47	0.109156184
13	0x3d942e84	0.07235435
14	0x3da9f221	0.082981355
15	0xbd0993a7	-0.033588078
16	0xbd571b8b	-0.0525165
17	0xbd95bb35	-0.073110975
18	0xbd3407ca	-0.04395274
19	0xbe0b4a66	-0.136026
20	0xbd4a7616	-0.04942902
21	0x3d5f8384	0.054568782
22	0xbb22bff5	-0.0024833654
23	0xbda27bde	-0.07933782
24	0xbd0aa5d1	-0.03384954
25	0xbe066b5f	-0.13126896
26	0xbc2d31c3	-0.010570946
27	0xbd6cd5d9	-0.05782113
28	0xbd0ee416	-0.03488549
29	0x3d92d30b	0.071691595
30	0x3d43f95d	0.047845233
31	0x3e15506d	0.14581461
32	0x3d68b486	0.056812786
33	0x3da53a91	0.08067811
34	0xbd16fe2f	-0.036863502
35	0xbdd75085	-0.10513405
36	0x3da43a8d	0.0801898
37	0x3cedbb43	0.029019957
38	0x3c8544d7	0.016268177
39	0x3dfd1670	0.12357795
40	0x3cd3a318	0.025834605
41	0x3d8e9746	0.06962447
42	0xbd8034a4	-0.062600404
43	0x3e084b94	0.13310081
44	0x3d91846b	0.07105335
45	0x3ddaf3a4	0.10691002
46	0xbd8cf2b3	-0.06882229
47	0x3d992af2	0.07478894
48	0xbdb981fd	-0.090579964
49	0x3d4bd4db	0.04976354
50	0x3de0fa87	0.10985284
51	0xbdfdcaea	-0.123922184
52	0xbe2618c5	-0.16220386
53	0x3dd5cd21	0.10439516
54	0x3c8962cd	0.016770745
55	0xbcb33682	-0.021876577
56	0xbd8cc94a	-0.0687433
57	0x3e38b275	0.18036826
58	0x3d9d1be5	0.07671336
59	0xbd7d8414	-0.061893538
60	0x3d51c5f3	0.05121417
61	0xbd9278b7	-0.07151931
62	0x3e1ae4e7	0.15126382
63	0x3d39fc48	0.04540661
64	0x3d9a9f65	0.07549933
65	0xbcc8e338	-0.024522409
66	0x3e338bf6	0.1753386
67	0x3a3ee91c	0.0007282661
68	0xbe322e11	-0.17400385
69	0xbca83d1d	-0.020536954
70	0x3c1e4d31	0.009661959
71	0x3e06d5fe	0.13167569
72	0xbe0aadca	-0.13542858
73	0x3e169ad5	0.14707501
74	0x3d5bafd4	0.05363448
75	0x3e6db02c	0.23211735
76	0x3e2f4651	0.17116667
77	0x3e2cdf8a	0.16882148
78	0xbd2baa62	-0.041910537
79	0xbe3bd408	-0.18342602
80	0xbcd2ab15	-0.025716344
81	0x3dbc316f	0.09189116
82	0xbca9807a	-0.020691145
83	0x3db1b9da	0.086780265
84	0x3ae263a4	0.0017272127
85	0x3cf20a5f	0.029545961
86	0xbdd2648b	-0.10273083
87	0x3ba636e3	0.005072461
88	0x3d2c2dcd	0.042035867
89	0xbd0515b2	-0.032491393
90	0xbd0c468e	-0.034246974
91	0xbda04600	-0.078258514
92	0x3cd45972	0.025921557
93	0x3d989de9	0.07451994
94	0xbd08d849	-0.03340939
95	0xbdbdae42	-0.09261753
96	0x3c57f816	0.013181707
97	0xbcacbf26	-0.02108724
98	0x3e0e3614	0.13887817
99	0xbc2c2d55	-0.010508855
100	0x3d28c367	0.041201975
101	0x3df90c73	0.121605776
102	0x3c0d4145	0.0086215185
103	0xbdb99785	-0.09062103
104	0xbdcb9623	-0.09940746
105	0xbc150219	-0.009094738
106	0x3dde5adb	0.10857173
107	0x3ccabe29	0.024748879
108	0x3c36d837	0.011159948
109	0xbdcded5d	-0.10055039
110	0x3dcb2a8c	0.099202245
111	0x3d057d1e	0.032590024
112	0x3d4930d8	0.049118847
113	0xbc9ede5e	-0.019393142
114	0x3d9ee15d	0.077578284
115	0x3df05ff3	0.11737051
116	0x3ddf424c	0.10901317
117	0xbcad8a70	-0.021184176
118	0xbda5e420	-0.08100152
119	0xbd2be60d	-0.04196744
120	0xbd6da6e8	-0.058020502
121	0x3d76910b	0.060196918
122	0xbd7cad8e	-0.061688952
123	0xbc1e2b9a	-0.00965395
124	0xbccdf376	-0.025140505
125	0xbcf8d624	-0.030375548
126	0x3db5100e	0.08840953
127	0x3df0702e	0.117401466
128	0x3e34d02c	0.17657536
129	0x3c9f736e	0.01946422
130	0x3d574739	0.052558158
131	0xbe408b40	-0.1880312
132	0x3de764a9	0.11298496
133	0xbce3c9db	-0.027806213
134	0x3d5cd399	0.053912733
135	0xbd29af81	-0.04142714
136	0x3cdf28df	0.027241169
137	0x3dbb23b6	0.09137671
138	0x3c9c217c	0.019058935
139	0x3d12fe0e	0.035886817
140	0xbdbee9a9	-0.09321911
141	0xbe07afde	-0.13250682
142	0x3a9a73b7	0.0011783753
143	0xbdd4569b	-0.10368081
144	0xbdac2adc	-0.08406612
145	0x3debd738	0.11515659
146	0xbcc5e26e	-0.024155822
147	0xbdc5879c	-0.09645006
148	0x3e19ce90	0.15020204
149	0x3e057659	0.13033427
150	0xbc8e482e	-0.017368402
151	0x3ded426c	0.115849346
152	0x3c2c915c	0.010532703
153	0x3d71c459	0.059025142
154	0x3a809764	0.0009810743
155	0x3dbdb979	0.09263892
156	0xbdb11c35	-0.08647958
157	0x3c517791	0.0127848545
158	0xbb6388b8	-0.0034718942
159	0xbd88ac29	-0.06673462
160	0x3cd37877	0.025814278
161	0xbe1593f0	-0.14607215
162	0x3dc2fbf2	0.09520711
163	0xbd277398	-0.040881723
164	0xbd66e165	-0.056367297
165	0x3d96b823	0.0735934
166	0x3d61b643	0.05510546
167	0x3d87dad9	0.06633539
168	0xbde3488e	-0.11097823
169	0xbe618899	-0.22024764
170	0xbdb1aa9a	-0.08675118
171	0x3e2bcee3	0.1677814
172	0xbca8f7b6	-0.02062593
173	0x3a2b1649	0.0006526453
174	0x3b37c597	0.0028041357
175	0x3e282598	0.16420591
176	0xbd6880ab	-0.056763332
177	0x3d3f04cb	0.04663543
178	0x3c79bbf6	0.015242567
179	0xbd8a4edb	-0.06753322
180	0x3d220030	0.03955096
181	0xbd180e88	-0.037123233
182	0x3d80664e	0.06269513
183	0x3e08be28	0.13353789
184	0x3d474fda	0.048660137
185	0x3d9b85cd	0.0759388
186	0xbd5dd5e7	-0.05415907
187	0x3c880d95	0.016608039
188	0x3ccc42eb	0.024934253
189	0xbcfc30ba	-0.030784953
190	0x3de210c5	0.11038355
191	0xbda155d2	-0.07877697
192	0xbcf1ceb8	-0.029517516
193	0x3cf793a8	0.030221775
194	0x3e44094c	0.19144171
195	0xbc8c3a9f	-0.017117796
196	0x3b96f514	0.0046068523
197	0x3d2ed29c	0.04268132
198	0xbd5ef9fd	-0.054437626
199	0x3cae5f45	0.021285662
200	0x3d3646c2	0.044501074
201	0x3dd8bfca	0.10583456
202	0xbd535425	-0.05159392
203	0xbe3f38ee	-0.1867406
204	0xbdc0fd61	-0.09423328
205	0x3d96d8c6	0.07365565
206	0x3de6f522	0.11277224
207	0x3dd4e741	0.10395671
208	0x3b11f749	0.0022272638
209	0x3e260768	0.16213763
210	0xbd64c998	-0.055856317
211	0xbc6656a4	-0.014058743
212	0xbe374ad3	-0.17899637
213	0x3cb72e78	0.022361025
214	0x3d48a152	0.048981972
215	0x3d8171d1	0.06320537
216	0xbcfec78e	-0.031101014
217	0xbd46b2e2	-0.04851044
218	0x3de7d6e4	0.11320284
219	0x3d6380d3	0.05554278
220	0x3dd94923	0.10609653
221	0x3d916772	0.07099809
222	0x3a960d2a	0.0011448015
223	0xbdd2f748	-0.103010714
224	0xbda7527a	-0.08170028
225	0xbcebc194	-0.028778829
226	0x3d17d303	0.03706647
227	0x3e7cc6b9	0.24685182
228	0xbdc3a38a	-0.09552677
229	0xbd88851e	-0.06666015
230	0x3d7c2959	0.06156287
231	0xbcb29a9e	-0.021802243
232	0xbb80933d	-0.003923802
233	0x3cdc0bf1	0.026861163
234	0x3da4c769	0.08045847
235	0xbd8f5a7a	-0.06999679
236	0x3cdd0d9c	0.026984029
237	0x3e01dc18	0.12681615
238	0xbd167aea	-0.036738314
239	0x3de80b3e	0.11330269
240	0x3cc68137	0.024231536
241	0xbe09af64	-0.13445812
242	0x3cf278f9	0.0295987
243	0xbde7297d	-0.1128721
244	0xbd10fce7	-0.035397436
245	0xbd1b5363	-0.03792132
246	0x3cec6175	0.028855065
247	0x3dc938a7	0.09825259
248	0x3d69852c	0.05701177
249	0x3e14bd40	0.14525318
250	0xbd998d94	-0.07497707
251	0x3d9c941e	0.076454386
252	0xbdfd2b0b	-0.123617254
253	0xbd892074	-0.06695643
254	0xbd77a628	-0.060461193
255	0x3ce8d916	0.028423827

layer2.bias f4 [128]
0	0xbb9ef1cd	-0.0048506022
1	0xbbec6f8c	-0.007215446
2	0x3c779776	0.015111795
3	0x3bac01e7	0.00524925
4	0xbaaf3e3c	-0.0013369988
5	0x3d7b835a	0.061404563
6	0x3a44a90e	0.0007501998
7	0xba348dc8	-0.0006887582
8	0x3ade1319	0.0016942947
9	0xbbe0e180	-0.006862819
10	0x3b4d5575	0.0031331454
11	0xbb443353	-0.0029937818
12	0x3bae1b4e	0.0053133136
13	0x37ee108c	2.8379516e-05
14	0xbb298e81	-0.0025872292
15	0x3c5a4301	0.013321639
16	0x3abf8d67	0.0014614285
17	0x3d8da0b3	0.069154166
18	0x3b3f0686	0.0029148175
19	0xbc594a59	-0.013262355
20	0x3bd04e13	0.0063569634
21	0xbb80db68	-0.0039324053
22	0xbbcbfefa	-0.006225464
23	0xbc47c5dd	-0.01219317
24	0x3c2860ef	0.010277017
25	0xbb600c8d	-0.0034187168
26	0x3be8e873	0.007107788
27	0xbb257c27	-0.0025251003
28	0xbbe3f787	-0.006956998
29	0x39f292bf	0.0004626717
30	0xb9a994f0	-0.0003234516
31	0x3b48e4cf	0.0030653959
32	0xba35a1e9	-0.00069287285
33	0x3d14220b	0.03616528
34	0x3a3d20aa	0.0007214645
35	0x3d5afedd	0.053465713
36	0x3b157a8f	0.0022808646
37	0xba2c993f	-0.0006584115
38	0x3b8ba212	0.0042612636
39	0xbba38f3a	-0.004991439
40	0xbb5aadc6	-0.0033367737
41	0x3bf10480	0.007355273
42	0x3b9a22e4	0.0047038663
43	0xbbe5f2a9	-0.0070174527
44	0x3a4f3ffd	0.00079059583
45	0x3bf727bb	0.007542578
46	0x3ac87fc2	0.0015296864
47	0xbbbc3c36	-0.0057444824
48	0x3bd64629	0.0065391255
49	0xbb64c3a0	-0.003490664
50	0xbc11a3b9	-0.008889132
51	0x3bb8043b	0.0056157387
52	0x3cfc64b5	0.03080974
53	0x3c27b229	0.010235348
54	0xbb71fa0f	-0.0036922728
55	0x3cc2062c	0.023684584
56	0xbbcd6ff5	-0.00626945
57	0x3c47737b	0.012173529
58	0x3a2ee6dd	0.00066719746
59	0xba5eef09	-0.0008504247
60	0x3c7786fc	0.015107866
61	0x3c16350b	0.00916792
62	0xbbd1ebd0	-0.006406285
63	0xbba7792d	-0.005110881
64	0x3ca01212	0.019539867
65	0xbc0ee2bf	-0.008721053
66	0x3aabb968	0.001310152
67	0xb7229141	-9.689772e-06
68	0xbaefb810	-0.0018289108
69	0xbbb0e6f6	-0.0053986264
70	0x3b90f052	0.0044231797
71	0x3c291ffe	0.010322569
72	0x39ae979a	0.00033300818
73	0x3a99c51b	0.0011731716
74	0x3a6d54c5	0.0009053464
75	0x39dc7d6c	0.00042055117
76	0xbb5b5774	-0.0033468874
77	0x3b594c6e	0.0033157128
78	0xba4fb28f	-0.00079230306
79	0x3c4b72d3	0.012417513
80	0xbb0ace55	-0.0021180112
81	0xbbf7e241	-0.0075648134
82	0x3c0189fa	0.007906431
83	0x3c4ffb73	0.0126942275
84	0xb8422496	-4.6287278e-05
85	0x3ab828cd	0.0014050246
86	0x3ca0b19c	0.01961594
87	0xbba240ab	-0.0049515567
88	0x3bbd3011	0.005773552
89	0xbb7134d8	-0.003680518
90	0xbba56eb4	-0.005048597
91	0x3b1733d9	0.0023071675
92	0xbb96c23b	-0.004600791
93	0xbb390a44	-0.0028234879
94	0xbbd8c0d6	-0.0066147847
95	0xbb1a6335	-0.0023557667
96	0x3bc2945b	0.0059380955
97	0xbbc29dd3	-0.0059392243
98	0xbba5727c	-0.005049048
99	0xbc1e5f19	-0.009666228
100	0xbbb749d6	-0.0055935187
101	0xbba7b389	-0.005117838
102	0xbb006a96	-0.001959478
103	0x3c4f7e81	0.012664438
104	0x3c10bb5a	0.008833731
105	0xbc2180cb	-0.009857367
106	0xba9234c2	-0.0011154639
107	0x3c104c30	0.008807227
108	0x3c13d4b0	0.009022877
109	0x3caefcca	0.021360774
110	0xbc43c13b	-0.011947925
111	0xbbe16141	-0.0068780486
112	0xbbf06174	-0.007335836
113	0x39fea1ac	0.0004856711
114	0x3b6b25ce	0.0035880688
115	0x3c89444e	0.016756203
116	0x3d526c19	0.05137262
117	0xbc0ab5d8	-0.0084662065
118	0x37891ba1	1.6344538e-05
119	0x3da02b70	0.07820785
120	0x3bdf0eb7	0.006807174
121	0xbb4d89fc	-0.0031362763
122	0x3bdc4981	0.0067226295
123	0xbbcbd391	-0.006220289
124	0xbbc8a26a	-0.006122877
125	0x3ba538cb	0.0050421706
126	0xb93a15bd	-0.0001774644
127	0x3c18fef3	0.009338128

layer3.weight f4 [64, 128]
0	0xbd908ed1	-0.0705849
1	0x3dd27246	0.10275702
2	0xbd4cbabb	-0.049982768
3	0x3e5b1172	0.21393374
4	0x3cb1bc4b	0.02169623
5	0xbc5a2a2d	-0.01331572
6	0xbdf7643b	-0.12079664
7	0xbd91968f	-0.07108795
8	0xba67ef1c	-0.0008847581
9	0x3d8c23df	0.06842779
10	0xbdb4f44e	-0.0883566
11	0x3cc33a11	0.0238314
12	0xbe09058c	-0.13381022
13	0xbc714d29	-0.014727869
14	0x3e057671	0.13033463
15	0x3d5ae128	0.053437382
16	0x3d722d19	0.05912504
17	0xbda444ce	-0.08020936
18	0xbe0e1534	-0.13875276
19	0xbcd6e6ed	-0.02623316
20	0xbd822feb	-0.06356796
21	0x3d98c262	0.074589506
22	0x3da9ea60	0.082966566
23	0x3dd3e7fc	0.10346982
24	0xbd509b2d	-0.050929237
25	0xbd9ca0d9	-0.07647867
26	0xbadc7281	-0.0016818793
27	0xbe1602b2	-0.14649466
28	0x3d66fc9d	0.056393255
29	0xbde7d1dd	-0.11319325
30	0x3d7a3bf1	0.06109232
31	0x3d8d5640	0.069012165
32	0x3c0acdbe	0.008471904
33	0xbd42b20c	-0.04753308
34	0xbd324095	-0.04351862
35	0xbc8b4149	-0.016998904
36	0x3d834671	0.0640992
37	0xbc12ff25	-0.008971964
38	0x3d56325a	0.052294113
39	0xbd1cbf32	-0.038268276
40	0xbe861af5	-0.26192442
41	0xbe6f334b	-0.2335941
42	0xbdc5bacc	-0.09654769
43	0xbe377834	-0.17916948
44	0xbd721657	-0.059103336
45	0xbd8eb425	-0.069679536
46	0x3d744f0c	0.059645697
47	0x3dae92b0	0.08524072
48	0xbc7cf152	-0.015438395
49	0x3c65fcc6	0.014037317
50	0x3bc9795b	0.0061485
51	0xbd3e5dc4	-0.04647614
52	0xbd8594ac	-0.065224975
53	0xbc72781e	-0.014799146
54	0xbd1b41aa	-0.03790442
55	0xbe212091	-0.1573508
56	0x3bed1953	0.007235685
57	0x3ddfdeab	0.109311424
58	0xbc93e15f	-0.018051801
59	0x3d4b00d1	0.049561325
60	0x3c625bd2	0.013815837
61	0x3d600327	0.054690506
62	0x3d506e22	0.05088628
63	0x3d3274fa	0.04356859
64	0xbc293802	-0.010328295
65	0x3d68ab52	0.05680401
66	0xbd99c9e2	-0.07509209
67	0x3da7080a	0.0815583
68	0x3d3eef3a	0.046614863
69	0xbe13ce68	-0.14434206
70	0xbd7639df	-0.060113784
71	0x3d85a34d	0.06525288
72	0xbdc61b53	-0.096731804
73	0x3dd6669f	0.10468792
74	0xbcb3a642	-0.021929864
75	0xbe14dab2	-0.1453655
76	0x3cc0f430	0.023553938
77	0xbdf925a3	-0.12165382
78	0x3e2ecc02	0.1707001
79	0xbb910e99	-0.004426789
80	0xbd65d603	-0.0561123
81	0x3e97dd9a	0.29661256
82	0x3d21bde8	0.03948775
83	0xbc9640cd	-0.018341446
84	0xbd331eca	-0.043730535
85	0xbd912080	-0.07086277
86	0x3d4939f3	0.04912753
87	0x3d8ceb79	0.0688085
88	0xbd8856cb	-0.066571794
89	0x3dc6f5a0	0.09714818
90	0xbc17f89a	-0.00927558
91	0x3dbaf586	0.09128861
92	0x3dd72b9f	0.10506367
93	0xbd6c0ed5	-0.057631332
94	0x3d738ceb	0.05946056
95	0xbe26906a	-0.16266027
96	0x3d7128f7	0.058876958
97	0x3d8477e3	0.06468179
98	0x3d84c37c	0.06482598
99	0x3ddacf2c	0.10684046
100	0xbd2f09ef	-0.042734083
101	0xbda1978e	-0.07890235
102	0xbb13260a	-0.0022453093
103	0x3dcf3e7b	0.10119339
104	0xbe20666b	-0.1566407
105	0x3dc769bb	0.09736963
106	0xbda78b0f	-0.0818082
107	0x3c21c6af	0.00987403
108	0xbd0e83cb	-0.034793656
109	0xbd810ddf	-0.06301474
110	0x3dd29328	0.10281974
111	0x3e05112c	0.12994832
112	0x3d23b948	0.03997162
113	0xb9e7b78f	-0.00044196515
114	0x3d270fb0	0.040786445
115	0x3dd4166c	0.10355839
116	0x3d7915b0	0.0608117
117	0xbd65b03c	-0.056076273
118	0xbc1d4b2b	-0.009600441
119	0x3dd5053d	0.1040139
120	0xbd7b3c29	-0.06133667
121	0xbc9c9133	-0.019112205
122	0x3b7f4d8b	0.0038956131
123	0xbdf77198	-0.12082213
124	0xbce46ff4	-0.027885415
125	0x3d8c6fe3	0.06857278
126	0xbdbd6b22	-0.092489496
127	0xbd671bd6	-0.05642303
128	0xbd273b63	-0.04082812
129	0x3de0d59c	0.10978243
130	0x3d4aa3da	0.049472667
131	0x3d556979	0.05210254
132	0x3c8a0ec6	0.016852748
133	0xbd05a57c	-0.03262852
134	0x3c78822d	0.015167755
135	0x3d21e653	0.039526295
136	0x3de2cced	0.11074243
137	0x3d67efa1	0.056625012
138	0x3e173410	0.14765954
139	0xbcc398a8	-0.023876503
140	0xbcd04be5	-0.025426814
141	0x3bb52aaa	0.0055287676
142	0xbdb9a479	-0.09064574
143	0xbd1e0b02	-0.038584717
144	0x3d4a2668	0.049353033
145	0x3d3bc52b	0.04584233
146	0x3c772b84	0.0150860585
147	0x3d2ff9d2	0.042962857
148	0xbca780f1	-0.020447226
149	0x3cc4f6dd	0.024043495
150	0xbe27946d	-0.16365214
151	0x3dbb3184	0.09140304
152	0xbd2c3200	-0.04203987
153	0xbd98a4b0	-0.07453287
154	0x3c377ee4	0.011199687
155	0xbd3506e8	-0.04419604
156	0x3d6ac0cd	0.057312775
157	0xbddcf37f	-0.10788631
158	0xbdc84705	-0.09779171
159	0xbd844947	-0.06459289
160	0xbdf3635a	-0.11884184
161	0x3e56948e	0.20955107
162	0x3d0b4715	0.034003336
163	0xbd2f8f91	-0.042861525
164	0xbd83f0b3	-0.06442394
165	0xbe64b843	-0.22335915
166	0x3e14040b	0.14454667
167	0x3dcb0fad	0.09915099
168	0x3d9768df	0.073930494
169	0xba90ed3a	-0.0011057027
170	0x3ca13008	0.019676223
171	0x3d94f732	0.07273711
172	0xbdf53a20	-0.11973977
173	0xbd4aed4f	-0.04954272
174	0xbd5ffb1b	-0.054682832
175	0x3e41f10e	0.18939611
176	0xbd144e2e	-0.03620737
177	0x3e194a81	0.14969827
178	0x3d1b823c	0.037965998
179	0xbd8f4b8f	-0.069968335
180	0x3e09983b	0.13436978
181	0xbd9cc0b8	-0.07653946
182	0x3c8f3135	0.017479518
183	0xbdcfe157	-0.10150402
184	0x3d67eb74	0.05662103
185	0x3d8109f3	0.06300726
186	0xbe39ec97	-0.18156658
187	0xbcf31809	-0.029674547
188	0x3d4d01f5	0.050050694
189	0xbe89684d	-0.26837388
190	0xbd3aa8ae	-0.04557102
191	0x3d0263c6	0.031833433
192	0x3df884e8	0.12134725
193	0x3dd51f15	0.10406319
194	0x3d171238	0.03688261
195	0x3d4c7348	0.04991463
196	0x3e53d0ed	0.20685168
197	0x3e0b7714	0.13619643
198	0xbb0557e2	-0.0020346572
199	0x3dda0c6f	0.10646903
200	0x3d6ab2ed	0.057299543
201	0x3d45ef3f	0.048323866
202	0x3d111552	0.035420723
203	0x3cbca280	0.023026705
204	0x3dbb2ddd	0.09139607
205	0x3c76c2fa	0.0150611345
206	0xbe44f317	-0.19233356
207	0x3d47c5a9	0.048772488
208	0x3da9f122	0.082979456
209	0x3e430a66	0.19046935
210	0x3dca07b4	0.098647505
211	0x3bea1dab	0.00714465
212	0xbce3efc9	-0.0278243
213	0xbd33ce82	-0.043898113
214	0x3c33ef3a	0.010982329
215	0x3d5ce798	0.053931803
216	0x3de59983	0.11210921
217	0xbda5a3bc	-0.080878705
218	0xbd56c13f	-0.052430388
219	0xbde66b91	-0.112509854
220	0xbd396fe4	-0.045272723
221	0xbe0999e8	-0.13437617
222	0x3db0cbff	0.08632659
223	0xbd4c10a6	-0.049820565
224	0xbb526fb5	-0.003211004
225	0xbd7efa36	-0.06225034
226	0xbdb34b0d	-0.08754549
227	0xbdabe2d2	-0.08392872
228	0xbcd86b03	-0.026418215
229	0xbd2bea88	-0.041971713
230	0x3daac291	0.08337892
231	0x3d2f73e4	0.04283513
232	0xbe09a10c	-0.13440341
233	0x3d6be7ba	0.05759404
234	0xbcb3474e	-0.021884587
235	0x3d18c38a	0.037295856
236	0xbd87b906	-0.06627087
237	0x3c2a8d93	0.0104097305
238	0xbda9e74a	-0.08296068
239	0xbd2a1d54	-0.041531876
240	0x3d4baa9f	0.049723264
241	0x3da06559	0.078318305
242	0xbcbb2ffc	-0.02285003
243	0x3d75173f	0.059836622
244	0x3e04a537	0.1295365
245	0x3ccdbc14	0.025114097
246	0x3e4861f5	0.19568618
247	0xbc936b28	-0.017995432
248	0xbd811c8f	-0.06304275
249	0xbd4a59ff	-0.049402233
250	0xbd6d41ea	-0.05792419
251	0x3cbfe493	0.023424422
252	0xbd70d145	-0.058793325
253	0xbd56dd13	-0.052456927
254	0x3de55e5d	0.11199639
255	0x3b938b6e	0.0045027053

layer3.bias f4 [64]
0	0xbb7e08ef	-0.003876265
1	0xbb7c1967	-0.003846729
2	0xb9fdf7ae	-0.00048440456
3	0x3b82a56f	0.0039870064
4	0x3b5540f6	0.003253994
5	0x3cd32d9a	0.02577858
6	0xbb58a410	-0.0033056773
7	0x3bba0524	0.0056768823
8	0x3b4d2691	0.0031303505
9	0x3c00cf11	0.0078618685
10	0xb96befa5	-0.00022500621
11	0xb96b3fb9	-0.00022435085
12	0xbb258552	-0.0025256467
13	0xbb1423ee	-0.0022604424
14	0x3a19137f	0.0005839392
15	0xb9f25c41	-0.0004622657
16	0xbb32e81c	-0.0027298992
17	0x3c97ce0b	0.018530866
18	0x3d20bf33	0.03924484
19	0xbab6b029	-0.0013937998
20	0x3b921398	0.004457902
21	0x3c4725ce	0.012155009
22	0x3c85a466	0.016313743
23	0xbc21a6db	-0.009866442
24	0x3b9e4bbb	0.004830805
25	0x3b9d9674	0.004809195
26	0x3c864fa3	0.016395396
27	0x3b7c8012	0.0038528484
28	0xbbe29cb4	-0.006915653
29	0x3c27b2cb	0.010235499
30	0x3aade742	0.0013267773
31	0xbbf93ff6	-0.0076065017
32	0x3d0ebeab	0.034849804
33	0xbb788544	-0.003792123
34	0x3cc918c4	0.024547942
35	0x3cac532b	0.021035751
36	0x3abb8e2a	0.0014309336
37	0xbb8de8b5	-0.0043307194
38	0x3d5e4c35	0.054271895
39	0xbc452d28	-0.012034692
40	0x3c65858e	0.014008893
41	0x39ab4e67	0.00032674076
42	0x3b721bcc	0.0036942838
43	0xbba9ecc2	-0.0051856944
44	0x3d2f62c0	0.042818785
45	0x3bf9cb7e	0.007623135
46	0xbbb0df5d	-0.0053977207
47	0xbc13a56b	-0.009011607
48	0x3c8ea38d	0.017411971
49	0x3b8992a4	0.004198389
50	0xba8be688	-0.0010673562
51	0x3c09b8c2	0.008405866
52	0xbc310723	-0.010804924
53	0xbc057b5f	-0.00814709
54	0x3ba92dd3	0.0051629334
55	0xbc23804a	-0.009979317
56	0x39c0c877	0.00036770452
57	0x3d9063aa	0.070502594
58	0x3b4685d8	0.003029218
59	0x3c8b8a8b	0.017033836
60	0xbb279122	-0.0025568684
61	0xb95b5e52	-0.00020920605
62	0x3bd8fac6	0.0066216914
63	0xbb9ff68a	-0.0048816847

layer4.weight f4 [9, 64]
0	0x3deb55a9	0.11490948
1	0x3bf11e91	0.00735838
2	0xbe1f730c	-0.1557123
3	0x3c93667e	0.017993208
4	0x3d9dd99d	0.07707522
5	0x3ea521bd	0.32252303
6	0xbe0a709e	-0.13519523
7	0xbe2038dc	-0.1564669
8	0xbcbbe7d5	-0.022937695
9	0xbdaa9d70	-0.0833081
10	0x3e593c53	0.21214418
11	0x3e0fb1cc	0.14032668
12	0xbe20ea30	-0.15714335
13	0xbe70f8c7	-0.23532401
14	0xbdd991ed	-0.10623536
15	0x3d82ddff	0.06389999
16	0x3e882698	0.26591945
17	0x3beaf6f5	0.007170553
18	0xbc82dc7f	-0.015974281
19	0x3e402d48	0.18767273
20	0x3e0f4f29	0.13995041
21	0x3d2b653c	0.04184459
22	0xbddda465	-0.108223714
23	0xbc82232e	-0.015885916
24	0xbdfda60c	-0.123851866
25	0xbdbbbbb4	-0.09166661
26	0x3e91e32c	0.2849363
27	0x3ddb80fd	0.10717962
28	0xbe27a89e	-0.16372916
29	0x3eb6f116	0.3573081
30	0x3dca58f5	0.098802485
31	0x3d1e32f3	0.038622808
32	0xbdbbb578	-0.09165472
33	0x3e1ff3e4	0.1562038
34	0x3ded9272	0.11600198
35	0x3e07c584	0.1325894
36	0x3e1f55cc	0.15560073
37	0x3e3ac05d	0.18237443
38	0x3e633c74	0.2219103
39	0x3ce2dede	0.027694162
40	0xbd5d5122	-0.054032452
41	0xbb817679	-0.0039508906
42	0xbe0d7236	-0.138131
43	0x3e5b3713	0.21407728
44	0x3d325d08	0.043545753
45	0x3e2222d6	0.15833601
46	0x3e47e7fc	0.19522089
47	0x3d9928a3	0.07478454
48	0x3e05640f	0.1302645
49	0xbd2ad109	-0.041703258
50	0x3e469dd8	0.1939615
51	0xbd050952	-0.03247959
52	0xbe003b34	-0.12522584
53	0x3d2c2280	0.04202509
54	0x3cfd024f	0.03088489
55	0x3d94a0ec	0.07257256
56	0xbe54d0f3	-0.20782833
57	0x3e7622b4	0.24036676
58	0xbdb44cb0	-0.088036895
59	0x3d9691a8	0.073520005
60	0xbc3ba94f	-0.0114539405
61	0xbe22b6ea	-0.15890089
62	0xbda7f410	-0.08200848
63	0x3d87cdf6	0.06631081
64	0xbe515056	-0.20440802
65	0xba5d6caf	-0.0008446676
66	0xbe0a87f6	-0.13528427
67	0xbd4181be	-0.047242872
68	0x3e2e0f2e	0.16997978
69	0x3b71233f	0.003679469
70	0x3da20a5d	0.07912133
71	0xbb100d8c	-0.002198073
72	0xbe560f46	-0.20904264
73	0xbe06af42	-0.13152793
74	0x3e9159ba	0.28388768
75	0x3c777a48	0.015104838
76	0x3e2ca2df	0.16859005
77	0xbc8e9b0f	-0.017407922
78	0x3e968855	0.29400888
79	0xbe52cb39	-0.20585336
80	0x3e5e5c50	0.21714902
81	0xbd84ae68	-0.06478578
82	0x3e342eec	0.17596024
83	0x3d028a2b	0.03187005
84	0x3eae3db4	0.3403145
85	0xbc15a89b	-0.009134437
86	0xbdc4ec87	-0.096154265
87	0x3d9314c8	0.07181698
88	0xbdec5f37	-0.11541598
89	0x3e4ef82d	0.20211859
90	0xbe06d022	-0.13165334
91	0xbe561b24	-0.20908791
92	0x3c91d8f0	0.01780364
93	0xbe14caf5	-0.14530547
94	0x3dee9de4	0.11651209
95	0xbdc3f4c1	-0.095681675
96	0xbe156562	-0.14589456
97	0x3c40b779	0.011762493
98	0x3e2ca58d	0.16860028
99	0xbe399613	-0.18123655
100	0xbda9801e	-0.082763895
101	0x3e45e3bb	0.19325154
102	0x3d4b210c	0.049592063
103	0x3d3e8f75	0.04652353
104	0xbddf8f90	-0.10916054
105	0xbd8e0429	-0.06934387
106	0x3dc9a7a2	0.098464265
107	0x3dc345e8	0.09534818
108	0x3e3ef768	0.18649065
109	0x3cdf1c1d	0.027235085
110	0xbd8438e4	-0.064561635
111	0xbd657210	-0.05601698
112	0x3c6475ef	0.013944133
113	0x3e62f7b4	0.22164804
114	0xbc533ee5	-0.012893413
115	0x3d31521f	0.043291207
116	0x3dadd76c	0.08488354
117	0x3deca463	0.11554792
118	0xbd8b4892	-0.06800951
119	0x3c6aa173	0.014320719
120	0xbbbfb9eb	-0.0058510206
121	0x3db9038c	0.0903388
122	0xbde7e6d1	-0.113233216
123	0xbe3fd0b9	-0.18731965
124	0x3d20237d	0.039096344
125	0x3dee5b7d	0.11638544
126	0xbe84dafc	-0.25948322
127	0xbe08bc5d	-0.13353105
128	0x3bfe6d50	0.007764496
129	0x3ce106cc	0.027469061
130	0xbe2dbc41	-0.16966344
131	0x3da29e56	0.079403564
132	0xbe083b37	-0.13303839
133	0x3a66f75f	0.0008810665
134	0xbdf61576	-0.12015812
135	0xbdc59aec	-0.0964869
136	0xbd1d6d48	-0.038434297
137	0xbdd5f8f3	-0.10447874
138	0xbd9eb75c	-0.07749817
139	0xbd000441	-0.031254057
140	0x3e00937a	0.12556258
141	0x3d79c105	0.060975093
142	0xbe837105	-0.25672165
143	0xbd8019d2	-0.06254925
144	0xbb89e81b	-0.0042085773
145	0x3cd4f447	0.025995387
146	0xbe5f3c86	-0.21800432
147	0xbc5b4ff9	-0.013385766
148	0x3d80be7b	0.06286331
149	0x3d6d53ca	0.057941236
150	0xbe13d34b	-0.1443607
151	0x3e674954	0.22586566
152	0xbe80900e	-0.25109905
153	0xbcbf13b4	-0.023324825
154	0xbdc6d05d	-0.09707711
155	0x3a4a98db	0.0007728466
156	0x3e1e178f	0.15438674
157	0xbd6ce492	-0.05783517
158	0x3cf5bd52	0.029997502
159	0x3e7301c5	0.23731144
160	0xbe001b5f	-0.12510441
161	0xbe6046d5	-0.2190202
162	0x3e0544f7	0.13014589
163	0x3dd8878e	0.1057273
164	0x3e6b6248	0.2298671
165	0x3d8615fa	0.065471604
166	0xbe324e87	-0.17412768
167	0x3e6b85fe	0.23000333
168	0x3db22d7a	0.0870008
169	0x3ea0ab4e	0.31380695
170	0x3e4c68c2	0.19961837
171	0xbe046934	-0.12930757
172	0xbe21531d	-0.15754361
173	0x3dc4d10e	0.096101865
174	0xbd049982	-0.03237296
175	0xbceb5667	-0.028727723
176	0xbdf17a00	-0.11790848
177	0x3d92d60d	0.07169733
178	0xbe567ed2	-0.20946816
179	0xbd0c05d1	-0.034185234
180	0x3e01c460	0.12672567
181	0xbd55232b	-0.052035492
182	0x3c99dfbd	0.018783445
183	0x3dd29f00	0.10284233
184	0xbe535967	-0.20639573
185	0xbe7f32c2	-0.24921706
186	0x3ea4fe97	0.32225487
187	0x3d952586	0.07282548
188	0xbbd33402	-0.006445409
189	0xbcbc316c	-0.022972785
190	0x3c513269	0.012768366
191	0xbbdcd242	-0.006738932
192	0xbbe9c973	-0.0071346103
193	0xbdccc661	-0.09998775
194	0xbe090e36	-0.13384327
195	0x3d48e509	0.04904655
196	0xbddf0008	-0.10888678
197	0x3dbf83b0	0.09351289
198	0x3e807053	0.25085697
199	0xb9e55de2	-0.00043748232
200	0x3e06a29b	0.13147967
201	0x3d17b99c	0.037042245
202	0x3eb58031	0.35449365
203	0x3d4f282a	0.050575413
204	0xbce35997	-0.02775268
205	0xbe28e405	-0.16493233
206	0xbe5f3009	-0.21795668
207	0x3d26817b	0.040650826
208	0x3dfab18d	0.122408964
209	0x3e0ce6c1	0.137599
210	0x3e0dd11e	0.13849303
211	0x3d0cd3b7	0.034381595
212	0x3caa02c4	0.020753272
213	0x3e4f9fbc	0.20275778
214	0x3e470090	0.19433808
215	0x3e1f5abe	0.15561959
216	0x3e39fd78	0.18163097
217	0xbd0df77d	-0.03465985
218	0x3d122d48	0.035687715
219	0xbcd85454	-0.026407398
220	0xbdb750c2	-0.0895095
221	0xbdcdba23	-0.100452684
222	0xbc976f21	-0.018485608
223	0x3be0976a	0.0068539875
224	0x3e8050d8	0.2506168
225	0xbdde969f	-0.108685724
226	0x3e187037	0.14886557
227	0x3da054d7	0.07828682
228	0x3d9e2544	0.077219516
229	0xbdf1f569	-0.118143864
230	0x3e052078	0.13000667
231	0xbe0c015f	-0.13672398
232	0xbd80f60f	-0.06296932
233	0x3e1d151c	0.15340084
234	0x3e3bca0f	0.18338798
235	0x3cdcfe6a	0.026976783
236	0x3cf779f8	0.030209526
237	0xbe41f953	-0.18942766
238	0x3b3d8c91	0.0028922895
239	0x3db1b90d	0.08677874
240	0x3e65bd42	0.22435477
241	0xbb313e3a	-0.0027045147
242	0x3da2317c	0.07919595
243	0xbd25e20e	-0.040498786
244	0xbddc07f0	-0.107437015
245	0xbe3b9066	-0.18316802
246	0x3e8409e4	0.25788796
247	0xbd6eaa76	-0.058268033
248	0x3da65e06	0.08123402
249	0x3ec935e5	0.3929893
250	0x3d40d418	0.04707727
251	0x3b524c51	0.0032088945
252	0x3dc3dbb2	0.09563388
253	0x3e8c261a	0.2737282
254	0xbd778281	-0.060427193
255	0x3cd25404	0.025674827

layer4.bias f4 [9]
0	0xbc0f7b32	-0.008757399
1	0xbbb5c6e9	-0.0055473936
2	0xbd039f4e	-0.032134347
3	0x3c60077e	0.013673661
4	0xbb068df3	-0.0020531386
5	0x3c63ca66	0.013903236
6	0xbc390bed	-0.011294347
7	0x3c1435be	0.009046016
8	0x3a831efd	0.0010003742

layer_norm1.weight f4 [128]
0	0x3f81cfc6	1.0141532
1	0x3f828a54	1.0198464
2	0x3f8117a4	1.008534
3	0x3f7c0305	0.9844211
4	0x3f800000	1.0
5	0x3f8003f3	1.0001205
6	0x3f7da1d4	0.99075055
7	0x3f8259e2	1.018368
8	0x3f820378	1.0157309
9	0x3f7e28ec	0.9928119
10	0x3f7bb103	0.98316973
11	0x3f7e43cd	0.99322206
12	0x3f8127d9	1.0090286
13	0x3f7f46ec	0.99717593
14	0x3f7ec548	0.9951978
15	0x3f8512a0	1.0396309
16	0x3f804c63	1.0023311
17	0x3f800042	1.0000079
18	0x3f7d1043	0.9885294
19	0x3f7e45ea	0.9932543
20	0x3f7b76b9	0.9822803
21	0x3f800000	1.0
22	0x3f7f2a83	0.9967424
23	0x3f7ce974	0.9879372
24	0x3f80f171	1.0073682
25	0x3f80a67f	1.005081
26	0x3f7fbef6	0.9990076
27	0x3f7f97b8	0.9984088
28	0x3f80775b	1.0036424
29	0x3f82d3ca	1.0220883
30	0x3f7f33af	0.9968824
31	0x3f800172	1.0000441
32	0x3f810464	1.0079465
33	0x3f7eb58a	0.99495757
34	0x3f7daed8	0.99094915
35	0x3f802551	1.0011388
36	0x3f7f571a	0.9974228
37	0x3f809063	1.0044063
38	0x3f81196e	1.0085886
39	0x3f7e2a9b	0.9928376
40	0x3f80a24e	1.0049531
41	0x3f7ecceb	0.9953143
42	0x3f7ceb3c	0.9879644
43	0x3f7f561d	0.99740773
44	0x3f7fc72e	0.999133
45	0x3f8169c3	1.0110401
46	0x3f7dccad	0.99140435
47	0x3f7e2b18	0.99284506
48	0x3f8054c5	1.002587
49	0x3f8246e9	1.017789
50	0x3f80d1d3	1.0064033
51	0x3f81786e	1.0114877
52	0x3f820762	1.0158503
53	0x3f7ee1cc	0.9956329
54	0x3f817c44	1.0116048
55	0x3f806f99	1.0034057
56	0x3f807c47	1.0037926
57	0x3f7d8c4d	0.99042207
58	0x3f7eea0e	0.9957589
59	0x3f7ece71	0.99533755
60	0x3f7e20dd	0.99268895
61	0x3f7f61d2	0.99758637
62	0x3f7f98fd	0.99842817
63	0x3f8024d1	1.0011235
64	0x3f7bbca4	0.9833472
65	0x3f7e6568	0.99373484
66	0x3f802455	1.0011088
67	0x3f7f3deb	0.99703854
68	0x3f800000	1.0
69	0x3f7f197f	0.9964828
70	0x3f80e6cd	1.0070435
71	0x3f82ca05	1.0217901
72	0x3f8028eb	1.0012487
73	0x3f7f6fdd	0.99780065
74	0x3f7ee9c3	0.9957544
75	0x3f805cb7	1.0028294
76	0x3f811460	1.0084343
77	0x3f7fa964	0.99867845
78	0x3f7e7255	0.99393207
79	0x3f85ad1f	1.0443457
80	0x3f8125ef	1.0089701
81	0x3f802e81	1.0014192
82	0x3f8183c5	1.0118338
83	0x3f7c86b3	0.98643035
84	0x3f864f92	1.0493033
85	0x3f7eb06f	0.99487966
86	0x3f80801b	1.0039095
87	0x3f7f792a	0.99794257
88	0x3f800000	1.0
89	0x3f7e728c	0.99393535
90	0x3f7ecee5	0.99534446
91	0x3f80cbd8	1.0062208
92	0x3f7ed631	0.9954558
93	0x3f7d62e0	0.98978996
94	0x3f7e21c5	0.9927028
95	0x3f800000	1.0
96	0x3f80dac5	1.0066763
97	0x3f7f9662	0.9983884
98	0x3f7ecc9d	0.99530965
99	0x3f7d1503	0.98860186
100	0x3f80f6d1	1.0075322
101	0x3f7e066f	0.99228567
102	0x3f7e094d	0.9923294
103	0x3f81ff07	1.0155953
104	0x3f815cd8	1.0106459
105	0x3f7e27f2	0.992797
106	0x3f7ff133	0.99977416
107	0x3f803288	1.0015421
108	0x3f7e2d92	0.99288285
109	0x3f7f0af9	0.9962612
110	0x3f82f187	1.0229958
111	0x3f7f3aa9	0.99698883
112	0x3f7e3c36	0.99310625
113	0x3f7ebced	0.9950703
114	0x3f7f8709	0.9981542
115	0x3f8ec23f	1.1153029
116	0x3f7d97b1	0.9905959
117	0x3f7ff29e	0.9997958
118	0x3f8070b3	1.0034393
119	0x3f8de8cf	1.1086673
120	0x3f7ed531	0.99544054
121	0x3f7e634c	0.99370265
122	0x3f7fef90	0.9997492
123	0x3f808cc0	1.0042953
124	0x3f81bb1f	1.013523
125	0x3f800bec	1.0003638
126	0x3f80030c	1.000093
127	0x3f7efa7a	0.99600947

layer_norm1.bias f4 [128]
0	0x3c791bdb	0.015204395
1	0x3bdd2620	0.0067489296
2	0x3bdf97d5	0.0068235197
3	0xbc199511	-0.009373919
4	0x00000000	0.0
5	0xbb9406e4	-0.004517423
6	0xbc02cc5d	-0.007983294
7	0x3c834780	0.016025305
8	0x3c8c2cbb	0.017111173
9	0xbbba0667	-0.0056770328
10	0xbc8180c9	-0.01580848
11	0xbc1f1ac3	-0.00971097
12	0x3c0be40f	0.00853826
13	0xbb9fef5f	-0.00488083
14	0xbb0b1a22	-0.0021225293
15	0x3cc92ecc	0.024558447
16	0xbab43800	-0.00137496
17	0x3b48c55a	0.0030635209
18	0xbbc16fdd	-0.0059032277
19	0xbb13e6f9	-0.002256809
20	0xbc5f9965	-0.013647412
21	0x00000000	0.0
22	0xbbec52cb	-0.007212018
23	0xbbdd0155	-0.0067445436
24	0x3c6ed9cf	0.014578297
25	0x3b45777f	0.003013104
26	0x3acc9820	0.0015609302
27	0x3b53421a	0.0032235445
28	0x3b4e0199	0.0031434058
29	0x3bec605f	0.0072136368
30	0xbb360989	-0.002777668
31	0x3b082d94	0.002077912
32	0x3bdc6c61	0.006726787
33	0xbbb585fe	-0.0055396548
34	0xbbb8c805	-0.0056390786
35	0x3a9edc05	0.0012120014
36	0xbac83721	-0.0015275219
37	0x3c196016	0.009361288
38	0x3c00e06e	0.007866008
39	0xbc0081c2	-0.007843437
40	0x3c146eef	0.009059652
41	0xbb9e6d16	-0.0048347814
42	0xbc49bdfe	-0.012313364
43	0x3c33114e	0.010929419
44	0x3b927f93	0.0044707744
45	0x3c5204cd	0.012818527
46	0xbc1ac983	-0.009447458
47	0x3ab69e7b	0.0013932729
48	0x399cfb7d	0.00029942012
49	0x3c4d5f40	0.012534916
50	0x3c647920	0.013944894
51	0x3c85e91d	0.016346509
52	0x3bf3fd80	0.007445991
53	0xbbcbd86e	-0.006220869
54	0x3beae29f	0.0071681286
55	0xbb330d44	-0.002732114
56	0x3b98245d	0.0046430067
57	0xbb86a3d4	-0.0041088853
58	0xbb9ccdfd	-0.004785298
59	0xbada7dd7	-0.0016669583
60	0xbc0373d8	-0.008023225
61	0xbbacb182	-0.005270184
62	0xba03692b	-0.00050129247
63	0x3a805d41	0.0009793417
64	0xbc702fd1	-0.014659838
65	0xbb6ae9cb	-0.0035844918
66	0x3ad77b89	0.0016440015
67	0xba442c8d	-0.0007483445
68	0x00000000	0.0
69	0xbb25e023	-0.0025310598
70	0x39a4e986	0.00031454506
71	0x3c8f23c0	0.017473102
72	0x3b39f8a7	0.0028376968
73	0xbbe4213a	-0.0069619687
74	0xb687504f	-4.0326627e-06
75	0x3b278b8b	0.0025565352
76	0x3b91a82a	0.0044450955
77	0x398510cb	0.0002538025
78	0xbbb05d29	-0.0053821993
79	0x3cdeebad	0.027211988
80	0x3c37a5c7	0.011208958
81	0x3b1bd42c	0.0023777587
82	0x3c77a4f8	0.015115015
83	0xbc1714fe	-0.0092213135
84	0x3cb7aed9	0.022422241
85	0xbbaa3836	-0.005194689
86	0x3a6b0b84	0.00089662545
87	0xbad16861	-0.0015976542
88	0x00000000	0.0
89	0xbbe6159a	-0.007021618
90	0xbb8763d4	-0.0041317735
91	0xbb9400de	-0.004516705
92	0xba0a9359	-0.0005286239
93	0xbc32e7c9	-0.01091952
94	0xbc0d59ae	-0.008627338
95	0x00000000	0.0
96	0x3bc7db06	0.0060991077
97	0xbb4565e6	-0.003012055
98	0xbbc93a3c	-0.0061409753
99	0xbbe9cb88	-0.0071348585
100	0x3b8b5a71	0.004252725
101	0xbc30f7e2	-0.010801287
102	0xba7f9c8a	-0.0009750804
103	0x3bed53b0	0.0072426423
104	0x3af4c666	0.001867485
105	0xbc164682	-0.009172084
106	0xbaaa25d5	-0.0012981246
107	0x3aa7e414	0.0012809061
108	0xbbb3d48c	-0.005487984
109	0xbaed8bdd	-0.0018123348
110	0x3c7ddffd	0.0154952975
111	0xbc313604	-0.010816101
112	0xbc15c52f	-0.0091412505
113	0xbbbb7402	-0.0057206163
114	0xbaaa49ae	-0.0012991929
115	0x3d8fbbe3	0.070182584
116	0xbc216371	-0.009850369
117	0x3b33ffb5	0.0027465646
118	0xbaa76197	-0.0012770173
119	0x3db9d607	0.090740256
120	0xbb55cc4b	-0.0032622989
121	0xbaf1104c	-0.0018391698
122	0xbb4dbcb8	-0.0031393003
123	0x3c15e19a	0.009148026
124	0x3c1f7911	0.009733454
125	0x3a08e5c3	0.00052222254
126	0xbbf6e1d7	-0.0075342464
127	0xbbbb8ff2	-0.0057239467

layer_norm2.weight f4 [128]
0	0x3f7e152c	0.99251056
1	0x3f7df911	0.9920817
2	0x3f84c74c	1.037332
3	0x3f8350b0	1.0258999
4	0x3f7fdeb3	0.9994919
5	0x3f909070	1.1294079
6	0x3f7f775f	0.9979152
7	0x3f804c02	1.0023196
8	0x3f80229c	1.0010562
9	0x3f7ec3e2	0.99517643
10	0x3f812003	1.0087894
11	0x3f7e7b18	0.99406576
12	0x3f810607	1.0079964
13	0x3f7f6e5d	0.99777776
14	0x3f7ef2e0	0.9958935
15	0x3f81d7ef	1.0144023
16	0x3f801e0f	1.0009173
17	0x3f967ae5	1.1756254
18	0x3f802efe	1.0014341
19	0x3f7d30b1	0.9890242
20	0x3f80a6bc	1.0050883
21	0x3f7f3df7	0.99703926
22	0x3f7e3a7b	0.99307984
23	0x3f7e21c7	0.9927029
24	0x3f81db3f	1.0145034
25	0x3f7faebe	0.9987601
26	0x3f805d71	1.0028516
27	0x3f7f4099	0.99707943
28	0x3f802c7a	1.0013573
29	0x3f7f0739	0.99620396
30	0x3f7dba7c	0.9911268
31	0x3f8135ab	1.0094503
32	0x3f801f6d	1.000959
33	0x3f8935f2	1.0719588
34	0x3f7f6a7b	0.9977185
35	0x3f8e10dc	1.1098895
36	0x3f7f67da	0.9976784
37	0x3f7fcec5	0.9992488
38	0x3f82a076	1.0205219
39	0x3f7d4efa	0.98948634
40	0x3f7f441b	0.99713296
41	0x3f80a404	1.0050054
42	0x3f80f5ce	1.0075014
43	0x3f7fb1b0	0.99880505
44	0x3f7dfb8b	0.9921195
45	0x3f821c53	1.0164894
46	0x3f7fc261	0.99905974
47	0x3f7e36ac	0.9930217
48	0x3f8117c6	1.008538
49	0x3f7faa9c	0.99869704
50	0x3f7d1107	0.98854107
51	0x3f8037f2	1.0017073
52	0x3f8b62de	1.0889547
53	0x3f815be3	1.0106167
54	0x3f80d58f	1.0065173
55	0x3f85ab3c	1.0442882
56	0x3f7ee7f3	0.99572676
57	0x3f81aa38	1.0130072
58	0x3f80b954	1.0056558
59	0x3f81d377	1.0142659
60	0x3f85240b	1.0401624
61	0x3f81afdf	1.0131797
62	0x3f7e5a37	0.99356407
63	0x3f7e4c04	0.9933474
64	0x3f8296b4	1.0202241
65	0x3f7de68f	0.9917993
66	0x3f808c80	1.0042877
67	0x3f80728d	1.0034958
68	0x3f7f478c	0.99718547
69	0x3f7f47a7	0.9971871
70	0x3f80e6e1	1.0070459
71	0x3f81481e	1.0100133
72	0x3f805156	1.0024822
73	0x3f7f8b42	0.99821866
74	0x3f7fe8da	0.9996468
75	0x3f7ff359	0.99980694
76	0x3f7f9acf	0.99845594
77	0x3f8097d0	1.004633
78	0x3f7f3ac9	0.99699074
79	0x3f82aea2	1.0209544
80	0x3f7f2877	0.9967112
81	0x3f7dc840	0.9913368
82	0x3f8209f6	1.015929
83	0x3f8218b8	1.0163794
84	0x3f7ea5e4	0.9947188
85	0x3f8024a5	1.0011183
86	0x3f81bad7	1.0135144
87	0x3f7ff53d	0.9998358
88	0x3f80c514	1.0060143
89	0x3f7fd8a2	0.9993993
90	0x3f7ee4d9	0.99567944
91	0x3f80501b	1.0024446
92	0x3f7fbed5	0.9990056
93	0x3f7e6137	0.9936709
94	0x3f7eab24	0.9947989
95	0x3f7f1842	0.9964639
96	0x3f811fd2	1.0087836
97	0x3f7df74a	0.9920546
98	0x3f7e9bfe	0.99456775
99	0x3f7e4c55	0.99335223
100	0x3f7dc783	0.99132556
101	0x3f7edfd8	0.9956031
102	0x3f8033bc	1.0015788
103	0x3f80d323	1.0064434
104	0x3f822a0d	1.0169083
105	0x3f7debbe	0.9918784
106	0x3f7b32d1	0.98124415
107	0x3f8080f0	1.0039349
108	0x3f82c810	1.0217304
109	0x3f8a4ab2	1.0804045
110	0x3f7da91a	0.99086154
111	0x3f7e641d	0.9937151
112	0x3f7ed890	0.995492
113	0x3f7eed5d	0.9958094
114	0x3f7f148d	0.99640733
115	0x3f88bcfc	1.0682673
116	0x3f8bdb24	1.0926251
117	0x3f7e0dac	0.9923961
118	0x3f7f530b	0.9973609
119	0x3f92e0e7	1.1474885
120	0x3f842966	1.0325134
121	0x3f7e7e0c	0.9941108
122	0x3f80d69c	1.0065494
123	0x3f7eb766	0.99498594
124	0x3f7ed6ac	0.99546313
125	0x3f8044c2	1.0020983
126	0x3f81abf9	1.0130607
127	0x3f827c90	1.0194263

layer_norm2.bias f4 [128]
0	0xbbb41858	-0.005496066
1	0xbbf8f9ed	-0.007598153
2	0x3c8b0583	0.016970402
3	0x3b661b4b	0.0035111483
4	0xbaee2bb7	-0.0018170987
5	0x3db71630	0.08939779
6	0xba160cf1	-0.00057239743
7	0xba44d39c	-0.0007508339
8	0x3b75450f	0.0037425195
9	0xbc07645e	-0.0082636755
10	0x3b5b3f34	0.003345442
11	0xbb49869a	-0.0030750395
12	0x3bbc7dea	0.005752315
13	0xba10952b	-0.0005515392
14	0xbb893704	-0.0041874666
15	0x3c66aa53	0.014078694
16	0x3a844371	0.00100909
17	0x3df2c0d1	0.11853183
18	0x3ae6a812	0.0017597696
19	0xbc664571	-0.014054642
20	0x3bb49651	0.005511083
21	0xbb9ba86b	-0.0047503016
22	0xbbc17737	-0.005904104
23	0xbc4cc9cf	-0.012499287
24	0x3c2c6e7a	0.010524387
25	0xbb5a14e1	-0.0033276605
26	0x3bef0018	0.0072937123
27	0xbb6fe4e0	-0.0036604926
28	0xbbd2e50f	-0.0064359973
29	0xbbe6ee73	-0.0070474683
30	0xba88eedd	-0.0010447163
31	0x3b78a616	0.0037940792
32	0xbae8d2be	-0.0017763001
33	0x3d3428b2	0.043984123
34	0xbae60844	-0.0017550071
35	0x3d9b616b	0.075869404
36	0x3b167cae	0.0022962498
37	0xbb0ccbfb	-0.0021483887
38	0x3b9bc1eb	0.0047533414
39	0xbba05107	-0.0048924717
40	0xbb83bffb	-0.0040206886
41	0x3bf44f1d	0.00745572
42	0x3b8edcf2	0.004359835
43	0xbbfd29ba	-0.0077259215
44	0xbc2558f7	-0.010092012
45	0x3bf968b2	0.0076113576
46	0xbb688f72	-0.003548589
47	0xbbe9bdaf	-0.0071332077
48	0x3bf887d7	0.0075845527
49	0xbb8aa062	-0.004230545
50	0xbc2144a7	-0.009843028
51	0x3bc71c41	0.006076366
52	0x3cf7c576	0.030245524
53	0x3c2867ac	0.010278624
54	0xbb990808	-0.004670147
55	0x3cc66e59	0.02422254
56	0xbbce4ffd	-0.0062961564
57	0x3c4ab34e	0.012371851
58	0x3a896e0e	0.0010485069
59	0xbb603b64	-0.0034215087
60	0x3c6d655d	0.014489499
61	0x3c16c1e3	0.0092015
62	0xbbec72e5	-0.007215845
63	0xbbae16d1	-0.0053127785
64	0x3ca35905	0.019939909
65	0xbc17c9df	-0.009264438
66	0x3aae3226	0.0013290092
67	0x39f17737	0.00046055924
68	0xbac81e8e	-0.0015267895
69	0xbbc15199	-0.00589962
70	0x3bc136d9	0.005896431
71	0x3c432d7e	0.011912702
72	0x3b041c18	0.0020158347
73	0xbb25c096	-0.0025291792
74	0xb9d21757	-0.0004007171
75	0xbacd6153	-0.0015669264
76	0xbb5f2dde	-0.0034054439
77	0x3b3b66d9	0.0028595238
78	0xba28c0d7	-0.0006437427
79	0x3c4afb17	0.012388966
80	0xbb1ef4cc	-0.0024254797
81	0xbc03b45e	-0.008038608
82	0x3c1699dd	0.009191957
83	0x3c5d9d73	0.013526308
84	0xba474552	-0.0007601577
85	0x38e76deb	0.00011035412
86	0x3c993cc7	0.018705739
87	0xbbb044f9	-0.005379316
88	0x3bbfe3ad	0.0058559985
89	0xbb8d17ed	-0.0043058307
90	0xbba80ba1	-0.0051283394
91	0x3b0a411f	0.0021095944
92	0xbba6a213	-0.0050852387
93	0xbb5165d0	-0.0031951554
94	0xbbf9992d	-0.007617137
95	0xbb199a64	-0.0023437971
96	0x3bc02332	0.0058635706
97	0xbbce0d99	-0.006288242
98	0xbbb3442a	-0.0054707723
99	0xbc2be984	-0.010492686
100	0xbbe389bc	-0.0069439095
101	0xbbc6995b	-0.006060762
102	0xbab6ea7f	-0.0013955383
103	0x3c620b45	0.013796632
104	0x3c038b6b	0.008028845
105	0xbc29eb8a	-0.010371098
106	0xbc73c449	-0.014878341
107	0x3c0c04f6	0.008546105
108	0x3c05a694	0.008157391
109	0x3d221261	0.03956831
110	0xbc5ed96a	-0.01360164
111	0xbc0162d9	-0.007897102
112	0xbc009f8e	-0.007850541
113	0x38d86520	0.000103185186
114	0x3b3775ef	0.0027993878
115	0x3d24d680	0.040243626
116	0x3d674aa8	0.056467682
117	0xbc167f8b	-0.009185682
118	0xb9c9bc4b	-0.00038477997
119	0x3dd8626f	0.1056565
120	0x3bb989a4	0.00566216
121	0xbb6a2a5b	-0.0035730812
122	0x3be6fe9d	0.0070493952
123	0xbbd7cdfe	-0.0065858355
124	0xbbe01315	-0.0068382123
125	0x3b8f76c4	0.0043781716
126	0xb942bb8f	-0.00018571153
127	0x3c2e5a09	0.010641583
