rl_energy_manager_20250326_0905/models/checkpoint_100/critic.pth (torch, 239522 bytes, 26 tensors)

q1_layer1.weight f4 [128, 27]
000000 55 a4 50 be ff a6 55 bc 18 49 e4 bd 23 8f 4d be
       -0.20375188 -0.013040303 -0.11146754 -0.20074134
000010 6a 25 6e bd 49 3e 05 be 6f 86 f3 3c de 86 2a bd
       -0.05814115 -0.13012041 0.029727189 -0.041632526
000020 d1 ad 93 bd 4c 74 c5 bc 55 29 b0 3d 21 11 01 bd
       -0.07210887 -0.024103306 0.086016335 -0.031510476
000030 b9 12 d7 3d ff ab 09 be a7 7a bd 3d 4f e9 7e bd
       0.10501618 -0.13444518 0.0925191 -0.06223422
000040 93 e2 27 3e e1 45 2e be ab dd 0e 3d 3e 61 9b bd
       0.16395025 -0.17018844 0.034879368 -0.07586907
000050 1f 3e 88 3d b2 a3 91 bc 96 cd f0 3d 3d f6 3c 3d
       0.06652474 -0.017778251 0.117579624 0.04613327
000060 fd 68 b8 bc e5 24 2c 3b 70 4a c4 bc d0 d1 85 3d
       -0.022511 0.0026267108 -0.023961276 0.06534159
000070 4a 7d dd b9 8c 25 00 3e 7f 54 3f bd 88 9e 0e bd
       -0.00042245752 0.12514323 -0.04671144 -0.034819156
000080 ce 2f 8a 3d 4e b2 88 3c a2 a5 43 3e 2a 7d 76 3d
       0.06747399 0.016686585 0.19106153 0.06017796
000090 ce 25 4d be 77 51 3b bc c5 a9 a9 3d 4f 4a 7b bd
       -0.20033953 -0.011432997 0.08284334 -0.061350163
0000a0 c3 f8 a9 3c 9f 47 23 bd 66 2d ed 3c 8f 17 22 be
       0.020748502 -0.039863225 0.028952312 -0.158293
0000b0 eb ce a9 bd 3a 4c d7 3d 52 9f 43 3d 37 fd ab bd
       -0.082914196 0.10512586 0.04775936 -0.08397906
0000c0 50 3c 41 3d 0c 7b 33 b9 b6 d7 59 3d fd 6d 3a 3c
       0.04717666 -0.00017116609 0.053184234 0.011378762
0000d0 c8 6c 09 3d 50 4c d3 bb 0d 8a 66 3d 0b 4b eb 3d
       0.033551008 -0.006448306 0.056284 0.11488923
0000e0 e9 f0 1a 3e ed e6 0f 3e 97 8a 0a 3e 8d a4 17 3e
       0.15130962 0.14052935 0.1352943 0.14808865
0000f0 fd c5 2a 3b 6f b2 3c 3e e5 84 c9 bc a4 97 1d 3d
       0.0026057952 0.18427442 -0.024599502 0.038474694
000100 64 10 98 bd 22 81 9c 3d 65 24 99 3d 9c 05 a4 3d
       -0.07425001 0.07641818 0.07477645 0.080088824
000110 74 f8 af 3d c9 56 27 be ee d6 6c bd 6b 3c a2 3d
       0.085923105 -0.163417 -0.05782216 0.0792168
000120 81 d7 d6 3d f7 35 b4 3d 92 3c 29 bd a9 8e 47 3d
       0.10490323 0.087993555 -0.04131753 0.048720036
000130 d5 22 17 bd bf 70 ba bc 67 9e 82 3c bb 78 66 bc
       -0.036898453 -0.02275884 0.015944673 -0.01406687
000140 51 98 53 bc 00 92 58 be d6 09 0e bd ef 9a 87 be
       -0.012914733 -0.21149445 -0.03467735 -0.26485392
000150 85 d4 a0 be ba 36 27 be 87 24 58 bd 1f 73 e6 bd
       -0.3141214 -0.1632947 -0.05276921 -0.11252426
000160 c7 5e 44 bd 23 21 56 be 62 0f b0 3d 36 65 b2 3d
       -0.04794195 -0.20911078 0.08596684 0.08710711
000170 b2 8a e0 3d 88 c5 a7 3d 61 4a 8c 3b 03 31 00 bd
       0.10963954 0.08191973 0.0042813276 -0.03129674
000180 92 a7 56 3c b1 cc ba 3c b4 7b aa bd 91 e1 c0 bd
       0.013101475 0.022802683 -0.08324376 -0.094180234
000190 80 c1 fc bb d8 e2 d4 3d 2b b1 b5 bd 1d b8 bf 3d
       -0.0077134967 0.103948295 -0.08871683 0.09361289
0001a0 ae 4c ee bb 00 62 ec bd 5e bf 30 3d 06 95 14 3d
       -0.0072723245 -0.115421295 0.043151252 0.036274932
0001b0 53 77 83 3c 13 89 a3 3c 78 46 0d bc 48 e8 3f 3b
       0.01604811 0.019962823 -0.008622758 0.0029282738
0001c0 2e 03 e3 3d 93 2b 76 3d 73 9c d5 3d 15 d7 8d 3c
       0.11084591 0.06010015 0.10430231 0.017314473
0001d0 ed 5e bc bc ec fb 65 be de 96 08 bb 88 95 bd 3d
       -0.022994483 -0.22459382 -0.0020841877 0.092570364
0001e0 09 7a f5 bd 81 8b f0 3c a8 a3 46 bd 1c 4c 39 3d
       -0.11986167 0.029363396 -0.04849592 0.0452386
0001f0 27 da 5a 3d d7 94 71 3e f4 b8 e9 3d 33 18 90 3d
       0.053430703 0.23591934 0.1141223 0.07035866
000200 4f b8 69 3d 4e 51 cc bd d2 fd f8 bd 1e 56 e7 3d
       0.057060536 -0.09976445 -0.121577874 0.112957224
000210 91 b7 d9 bd bd 7b 02 3e 70 a7 bc bd 9a 37 7e 3c
       -0.10630716 0.12742515 -0.09211624 0.015516186
000220 8d 5f dd 3c 2c 4d e1 bd 58 be 07 bd 19 e3 4e bd
       0.027023101 -0.110010475 -0.03314051 -0.050509546
000230 77 75 4d 3e 71 b8 10 3d 71 01 8a 3d 0e cf 06 bd
       0.2006434 0.035332147 0.06738556 -0.032912306
000240 21 ce bc bc 25 94 74 bd 7d d3 01 3c 9a 9e c0 bc
       -0.023047509 -0.059711594 0.007923958 -0.023513127
000250 c2 2e 38 3e eb 30 76 3c ee 48 81 bd d3 50 a9 bd
       0.17986587 0.015026311 -0.06312738 -0.08267369
000260 02 90 07 3e 20 31 aa 3d f2 f8 24 3d cf 7d cd 3c
       0.13238528 0.08310151 0.040276475 0.025084404
000270 bc a0 ba bc 25 56 45 bc 91 74 71 3d c9 04 72 3c
       -0.022781722 -0.012044464 0.058949057 0.014771649
000280 75 eb 1c 3d ad c1 9c bd f8 2b 89 be 97 ca 4a be
       0.038310487 -0.07654128 -0.26791358 -0.19803844
000290 3f e7 ce bb fb 3b 70 be d7 ec 36 be 78 be 7c bd
       -0.006314188 -0.2346038 -0.17863785 -0.061705083
0002a0 86 5c 25 be 29 42 49 be ea aa d1 bd 1d 2a 39 ba
       -0.16148576 -0.19654144 -0.102376774 -0.00070634653
0002b0 cf 0b 51 3d e4 30 de 3d a9 4e 3e 3e d6 3e bc bd
       0.051036652 0.10849169 0.18584694 -0.091916725
0002c0 fd 0e cd bd a9 76 fc bd 5d 38 ed 3c f7 f8 a6 bd
       -0.100126244 -0.1232732 0.02895754 -0.08152955
0002d0 86 fb 5c bc f2 26 26 3d f3 0d 9f bd eb 64 bd bc
       -0.013487702 0.040564485 -0.077663325 -0.02311941
0002e0 86 67 2c bd 8a 68 a2 3d 4b ed 1c bd 6a 7c 06 be
       -0.042090915 0.079300955 -0.038312238 -0.13133398
0002f0 87 45 41 3c bf b1 4b be 71 21 19 3d 01 c9 0b be
       0.011796362 -0.19892024 0.037385408 -0.13650896
000300 df 6d 32 be 56 36 6d be 72 af 32 be bb 91 67 3d
       -0.17424725 -0.23165259 -0.1744974 0.056535464
000310 63 b9 ec bd 33 f7 1f be 62 2d e8 bc 49 59 af 3d
       -0.11558797 -0.15621643 -0.028341953 0.08561952
000320 63 9c 3b 3c 86 f9 14 be 63 62 99 bc 8b bb e8 bc
       0.01145086 -0.1454831 -0.018723672 -0.02840974
000330 89 74 98 3c 33 76 f5 bd 00 46 11 be e4 20 f6 bd
       0.018610256 -0.11985435 -0.14186859 -0.12017992
000340 c9 f2 47 bd 28 4b df bd 45 f2 3f 3d b9 00 22 3d
       -0.048815522 -0.10903007 0.046861906 0.03955147
000350 a8 b6 8d bc 24 45 2a 3d ff 3f 5b bd b3 1e aa 3d
       -0.017299011 0.041569844 -0.05352783 0.08306637
000360 27 6b c4 bd 02 03 35 be 51 08 b9 bd b3 83 7b bd
       -0.0959075 -0.17676929 -0.09034789 -0.061404895
000370 43 7b 49 bd 8a 7e 1b 3d de e8 09 bd 47 b3 b3 bd
       -0.049189817 0.037962474 -0.033669345 -0.08774429
000380 a2 e0 ac bd cd db cc bc 40 af 27 bd 50 a0 e5 3d
       -0.08441283 -0.025007153 -0.040938616 0.11212218
000390 bf 90 fc 3c c8 8e 04 be ad e6 2e bd ae 43 2d be
       0.030830739 -0.12945092 -0.04270046 -0.16920349
0003a0 7a 4b 94 bb a1 c4 85 3d 43 1b b0 3d 94 d8 2f be
       -0.004525599 0.065316446 0.0859895 -0.17172462
0003b0 b0 b5 51 bb 2b db 06 bd b5 90 41 bb b8 b9 97 3d
       -0.0031999163 -0.03292386 -0.0029535715 0.0740847
0003c0 e0 96 06 be 1b d3 ce bb 47 5d 3f bd 87 b1 68 be
       -0.13143492 -0.006311787 -0.046719816 -0.22723971
0003d0 11 60 3e bd 67 9c 2d 3d 47 01 bb bd e0 b7 10 be
       -0.046478335 0.042385485 -0.09131103 -0.14132643
0003e0 47 d8 3c be 64 de 74 bd 30 d4 33 3e 15 9b 0e bd
       -0.18441878 -0.0597824 0.17561412 -0.034815867
0003f0 a8 9e fc bd c2 0a 8e 3c 1f 08 a8 bc e8 8c 3d 3d
       -0.12334949 0.017339114 -0.020511685 0.046276957

q1_layer1.bias f4 [128]
000000 ad 18 a5 bd 46 c5 13 3b a6 3c aa 3d 53 d4 c2 bd
       -0.08061347 0.0022548004 0.08312349 -0.09513154
000010 ad 49 09 3d 53 52 9b 3c 72 c3 fe bd c9 2c bc bd
       0.03351753 0.018960154 -0.12439622 -0.091882296
000020 ff 6a 6e bd 1f c9 89 bd f5 46 80 bd 87 05 d6 bc
       -0.05820751 -0.06727814 -0.06263534 -0.026125683
000030 84 c4 7c bd 7c 6d 04 bd 29 de 38 bd ae e0 cb 3d
       -0.06171085 -0.032330975 -0.045133743 0.099549636
000040 c8 cc be 3d ef 74 2b bd ae 65 a4 3b 2e 4c 8f bc
       0.09316403 -0.041859563 0.005017004 -0.01749238
000050 4e 9a 7d bd 88 df a7 bd be 93 66 3d 9a d7 fc bb
       -0.061914735 -0.08196932 0.05629324 -0.0077161314
000060 22 4e 5c 3c 20 bc e7 3b b6 8f 9f 3c 39 20 91 bd
       0.013446363 0.007071987 0.019477706 -0.07086224
000070 df 95 2a bd e2 58 28 3d e8 d0 0b 3d 84 78 c4 bc
       -0.041646834 0.04110039 0.034134775 -0.023983248
000080 2a cb 6f b9 50 90 22 3c 23 10 c3 bd fb c8 56 bd
       -0.000228685 0.009922102 -0.09524562 -0.052437764
000090 92 07 5c bc 31 c2 80 bd 96 91 b7 bd e2 25 e6 3c
       -0.013429539 -0.06287039 -0.08963315 0.028094236
0000a0 cc 16 68 3d ed 01 85 bb 69 05 b6 bb 6f 52 da 3d
       0.056662366 -0.0040590675 -0.005554844 0.10660254
0000b0 55 3c 96 bc 05 dc 76 bd c6 5f b2 3d f5 98 7e bd
       -0.018339315 -0.06026842 0.087096736 -0.06215759
0000c0 6c de 6b 3d 85 86 2b bd fc 07 40 bd e2 af 22 bd
       0.057585165 -0.041876335 -0.046882614 -0.039718516
0000d0 f4 19 ae bd e2 55 8c bd 34 75 13 bc 9c 98 c0 3b
       -0.08501044 -0.06852318 -0.009000111 0.0058775675
0000e0 f6 97 1a bd b9 67 92 bd 5e 12 28 3d 04 a4 c5 3c
       -0.037742577 -0.0714869 0.04103314 0.02412606
0000f0 8c 8b e7 3b be 4b 44 bd 0e f8 73 bc 9c 09 82 bd
       0.007066196 -0.047923796 -0.014890684 -0.06349489
000100 23 ee 0d bd 75 7d 4a bd 0d 0b 32 bd 7e 0d e8 bb
       -0.034650933 -0.04943605 -0.04346757 -0.0070816865
000110 be ce a0 bb 07 48 63 bd e3 fc 88 bc 5d 29 8c 3d
       -0.004907458 -0.055488613 -0.016722148 0.06843827
000120 65 97 33 3d c6 81 46 3d 84 5d 63 bd 34 97 c9 3d
       0.043845553 0.048463605 -0.055509105 0.09843293
000130 a0 a7 0d bd a2 f2 d3 3c 31 58 65 bd 69 81 9f bd
       -0.034583688 0.025872532 -0.05599231 -0.07788355
000140 c1 d1 c1 bd 94 9d 9a bc 77 fa 97 bd 72 94 95 3d
       -0.094638355 -0.018873967 -0.07420819 0.07303704
000150 3a e8 64 3d f2 be 92 3d 08 98 c8 3c 7e 03 09 bd
       0.05588553 0.07165326 0.024486557 -0.033450596
000160 55 ec 96 3d cd 0b eb bc 71 64 4e bd c0 0a 8b bd
       0.073692955 -0.02869215 -0.050388757 -0.0678916
000170 75 18 a2 bd 1c 75 de bc 63 02 94 3d 3f 12 81 3c
       -0.07914821 -0.027155451 0.07227018 0.01575577
000180 53 aa a6 3d 54 0f 7e bd 77 11 ad 3d f8 32 a1 bd
       0.081379555 -0.062026337 0.08450597 -0.0787105
000190 81 c2 88 bd 82 23 09 3b e5 d2 9e 3d 81 a7 ea 3b
       -0.06677724 0.0020925705 0.07755069 0.0071610813
0001a0 6a 01 77 bd a4 15 ce 3b d1 7c 92 bd 09 a0 80 3d
       -0.060304083 0.006289201 -0.07152713 0.06280524
0001b0 65 0b 1b 3c 28 0a 24 3d d1 b4 d3 3c b0 cd a4 bb
       0.009463166 0.04004875 0.025843056 -0.0050294027
0001c0 ab a4 43 bd 45 3e 91 bc 69 18 90 3d ad 23 9a bd
       -0.04776446 -0.017729888 0.07035906 -0.07526336
0001d0 d8 a5 d4 3c 06 2b 6b bd 41 5e 4a bd ac f2 94 bd
       0.025957987 -0.057414077 -0.049406294 -0.072728485
0001e0 30 b5 04 bd dc 7f 17 3d f4 70 1c bd 67 55 04 3e
       -0.032399356 0.03698717 -0.038193658 0.12923203
0001f0 d3 ba b0 3d 78 25 d7 bc c9 3a 3e 3d ed 9b 91 bd
       0.08629384 -0.026262984 0.04644278 -0.071098186

q1_layer2.weight f4 [128, 128]
000000 65 98 76 3c a9 65 f8 bd 1b fb 90 3d b6 55 9c bc
       0.015050982 -0.12128765 0.070791446 -0.019083839
000010 78 b8 b7 3d 45 76 ce 3d 8a 3e e2 bc 5b d4 f2 3d
       0.089707315 0.10081152 -0.027617712 0.1185691
000020 4c af 05 3e 28 5d 77 3c 5f 3e 15 39 17 6f 79 bd
       0.13055152 0.015097894 0.00014232982 -0.06089696
000030 0e 93 8d 3d 30 6c a9 bd 8c 55 04 3d 3b 08 ce 3c
       0.06912814 -0.08272588 0.032308146 0.025150409
000040 aa 5c 47 3e 0f 1f 76 bb 61 80 df 3d bb 64 a1 3d
       0.19468942 -0.0037555133 0.10913158 0.07880541
000050 47 2d b5 3d 5c 0e dc 3d 40 eb a5 bd f7 2d 52 3c
       0.088465266 0.10744926 -0.08101511 0.012828342
000060 ba d8 b6 bc 1a 90 2e 3d 21 a8 c5 3c a6 79 08 bc
       -0.02232014 0.042617895 0.024128022 -0.0083297845
000070 11 c6 18 bd fb f8 bc bd 22 b2 f3 3d f4 30 05 3e
       -0.037298266 -0.09227177 0.118992105 0.13006955
000080 a7 a6 06 3e fd 3e f5 3d 28 23 1d 3e ac 85 88 3c
       0.1314951 0.11974905 0.15345442 0.016665302
000090 7e 66 c9 3d 8f bb 8a be 46 f6 17 3d d5 b8 04 3e
       0.09834002 -0.2709622 0.0371001 0.12961133
0000a0 ce 94 7d bd 78 28 bd 3c c8 d6 80 3b fa 43 0b 3e
       -0.06190949 0.023090586 0.003931854 0.1360015
0000b0 ea 26 07 bd 05 19 e1 3c 79 03 bf bc aa c7 a1 3c
       -0.032996096 0.02747775 -0.023317086 0.019748528
0000c0 02 d1 a6 3d d8 09 f2 3c 13 af 52 3d 57 e0 78 bd
       0.08145334 0.02954571 0.051436495 -0.060760822
0000d0 24 a5 0a bd 50 e5 88 bc 31 73 88 bd e9 62 27 3d
       -0.033848897 -0.016710907 -0.06662596 0.040865812
0000e0 82 0f 67 3d 9d e2 bc 3b d6 ac f9 3d f6 42 c0 3c
       0.056411274 0.005764319 0.12191169 0.02346943
0000f0 e6 04 ae 3d a4 8e 94 3d ad 66 ae 3d 3f f9 21 be
       0.08497028 0.07253769 0.085156776 -0.15817736
000100 ee 51 4d 3e 80 1f d8 bd 72 09 01 3e b0 a4 ed 3d
       0.20050785 -0.10552883 0.1260126 0.11603677
000110 07 4c c4 bc 1a 50 8e 3d 90 6b 3c 3d 72 54 52 3d
       -0.023962034 0.06948872 0.046001017 0.051350065
000120 73 e5 eb 3d 4f 95 9b bd c1 9f 8f bd 54 72 26 3e
       0.11518373 -0.07596838 -0.070128925 0.1625455
000130 bf c8 b4 3d d7 2b 92 bd f0 51 7e bd dd 08 81 bc
       0.08827352 -0.07137268 -0.06208986 -0.015751297
000140 0d fa 45 3c 82 44 19 bd 8d 02 b9 bb 81 e3 3d 3d
       0.0120835425 -0.03741885 -0.005646056 0.046359543
000150 a2 ca 33 3d 62 7e 91 3d d2 b0 ba 3d e1 4a e9 bb
       0.043894418 0.07104184 0.09115757 -0.007119522
000160 d0 bd 42 3d 93 09 20 3d cb 84 09 be 2e 2b e6 3c
       0.0475443 0.03907163 -0.13429563 0.028096762
000170 97 e0 f0 bc 4a 02 84 bc 1e 58 de 3d 16 9d 83 ba
       -0.029403968 -0.016114373 0.10856651 -0.0010041322
000180 b4 26 39 3e b6 84 b2 3c ca 2b cf bb 31 98 60 bd
       0.1808117 0.021791797 -0.0063223587 -0.05483264
000190 90 c5 9e bd 62 de fc b8 f0 46 b3 bd 5c 8f 7e 3d
       -0.07752526 -0.000120577184 -0.08753765 0.062148437
0001a0 f2 c8 3f 3d 97 b1 4e 3d c8 db 5e 3d e0 bf 35 3e
       0.046822496 0.05046233 0.05440882 0.17748976
0001b0 d7 01 15 3d e3 2b 00 3e 72 5c d2 3d e1 85 7a bd
       0.036378708 0.12516741 0.10271539 -0.061162833
0001c0 31 1d 7e bd 29 c8 35 3d ad 8b 39 3e b4 2f fa 3c
       -0.062039558 0.04438034 0.18119688 0.030540325
0001d0 c3 3c 2f 3d af 18 cf 3d 43 e3 81 3d 59 af 8f bd
       0.042782556 0.1011213 0.06342175 -0.07015867
0001e0 01 df 56 bc d3 4c f1 bd 30 5c 68 3d 53 a6 38 3e
       -0.013114692 -0.11782231 0.05672854 0.18032198
0001f0 6b 3f 62 3e aa 45 10 bd 77 ee 8d 3d 60 41 c2 3d
       0.22094505 -0.035222687 0.06930249 0.094851255
000200 88 9c e9 3a 4c 97 e4 3d b8 5b 3e 3d 50 ef 11 3d
       0.0017823139 0.1116167 0.04647419 0.035628617
000210 a1 5c 11 3e ec bb 04 3e b8 61 12 3e 12 8f a7 3d
       0.14195491 0.12962312 0.14295089 0.08181585
000220 bc 93 22 3d b3 43 eb 3d e2 47 97 3d b4 de a2 3d
       0.03969167 0.11487522 0.073867574 0.079526335
000230 bb 61 9b bd ad fc 1b 3e 68 96 1d 3d c7 31 40 3e
       -0.07587 0.15233107 0.038473517 0.18768989
000240 c6 a6 55 3d ac e1 ac bd f2 b4 02 3e a0 d4 86 3d
       0.052161 -0.08441481 0.12764338 0.06583524
000250 41 00 fe 3d c8 96 c0 3c 52 d8 d0 3d 4b 05 a5 3c
       0.12402392 0.023509398 0.1019751 0.020144125
000260 4b 4c 62 bc 5d 06 65 3d f6 d5 73 3d 94 e8 6a bc
       -0.013812135 0.05591427 0.05953022 -0.0143376775
000270 a8 f0 73 bd 84 2d 2e bc 5c ac a4 3d ff b0 e2 bc
       -0.05955568 -0.010630969 0.080406874 -0.027672289
000280 90 1d 1a be ee 46 0a bd ee 2e de bd 3b 2c fa 3c
       -0.1505034 -0.03375905 -0.10848795 0.030538669
000290 10 8c 02 bd b2 fd db 3c 9a 3f e7 bd 39 d8 1b 3d
       -0.031871855 0.02685437 -0.11291428 0.038048003
0002a0 f5 bb 81 3e ad 27 ce 3d 3d 31 96 3c 47 5b 1f 3e
       0.25338712 0.10066161 0.018334026 0.15562163
0002b0 4b a9 3e 3d bf 1a ca 3d 23 dc 61 3d a4 5a a3 bd
       0.04654817 0.09868383 0.05514158 -0.07976273
0002c0 f2 fa a9 3d 2e 54 96 3c df db 98 3c e9 57 3e 3e
       0.08299817 0.018350687 0.01865953 0.18588223
0002d0 fe 09 8b 3d 4d 86 14 be 38 ea bc 3d 9e 74 70 3d
       0.06789015 -0.14504357 0.09224361 0.058704965
0002e0 f7 f2 f0 bc 2d c6 00 3c ff 96 40 3c d5 1b 55 3d
       -0.02941273 0.007859749 0.01175475 0.052028496
0002f0 d1 cb 6f 3d ff 88 a6 3a bc f8 4c bc eb a3 44 bd
       0.058543984 0.0012705623 -0.012510475 -0.048007887
000300 30 ad bb bd a1 d5 0b 3e 2d d4 a2 3d f6 18 0f be
       -0.09163892 0.13655712 0.079506256 -0.13974366
000310 87 5d c7 3c 87 e9 67 3c f0 e8 89 3d aa e6 9d 3d
       0.02433659 0.014154798 0.067338824 0.07710011
000320 a0 8b ac 3d 5c e3 02 3d 13 33 9c bd 18 75 cb 3d
       0.08425069 0.031955108 -0.07626929 0.09934443
000330 0a ad 35 3b f0 bf 43 3c fc 5c 58 3d 11 29 2c 3e
       0.0027721548 0.011947617 0.05282305 0.1681254
000340 1f 1f 05 be 13 b8 23 bd 7c d8 c4 bc de ee b7 3c
       -0.13000153 -0.03997047 -0.024029009 0.022452768
000350 6a 52 9d bc 54 cf 3d 3d 63 ce 0c 3e 5b 3a 5d 3d
       -0.019204337 0.0463403 0.13750605 0.05401073
000360 17 32 b2 bd 3b 16 7a 3d 3c 25 9c bc 36 d4 b3 bc
       -0.0870096 0.061056357 -0.019060723 -0.021951776
000370 16 00 19 3d ac e7 79 bc 4d 7e 87 3d 2f 8f 5b 3d
       0.037353598 -0.015252989 0.06615887 0.053603347
000380 e1 68 9c 3d 45 17 74 3d 23 7b 58 3e d6 74 76 3d
       0.076371916 0.059592504 0.21140723 0.060170017
000390 2f 4c e5 3c f3 21 a0 3b 39 4a 01 be da c2 20 bb
       0.027990429 0.0048868596 -0.1262597 -0.0024530203
0003a0 f7 36 81 bd d2 08 e8 3d cb 95 23 3c 64 e6 d5 bc
       -0.06309312 0.11329807 0.009984444 -0.026110835
0003b0 20 b9 b3 bd 80 3e 36 3b 1e 9e 3b 3e 83 56 86 3d
       -0.08775544 0.002780825 0.18322036 0.065594696
0003c0 d9 9e da bd bf 09 7c ba e3 fe ad 3d 29 af 3c 3b
       -0.10674829 -0.00096144894 0.084958814 0.0028790927
0003d0 c1 86 71 3e c0 39 86 3c 61 33 87 bd af 66 aa bd
       0.23586561 0.01638496 -0.066015966 -0.083203666
0003e0 9b 29 2c bb c4 2d 9b 3d 34 2c 6e 3c d3 8d da 3d
       -0.0026269916 0.075770885 0.014536906 0.10671582
0003f0 55 55 0c 3e 36 1d 8b bd 53 78 e6 bd b6 7b 68 3d
       0.13704427 -0.06792681 -0.11253419 0.056758605

q1_layer2.bias f4 [128]
000000 64 23 12 3d 17 dd 20 3d c6 0b 4c bd ea 94 83 3c
       0.035678282 0.039273348 -0.049815916 0.016062219
000010 69 4b 1a 3c b4 8f ec bc 93 83 51 bc 73 7f 30 bd
       0.009417393 -0.028877117 -0.012787717 -0.043090295
000020 8d 00 78 3d 84 97 92 bc 97 b9 f8 3c af b8 2d bd
       0.0605474 -0.017894514 0.030361934 -0.042412456
000030 9e 4a 20 bc df d3 30 3d 22 7d ff bc 3c 32 40 3d
       -0.009783415 0.043170806 -0.031187598 0.046922907
000040 d4 c3 71 bc ba a8 fc bd 2e 5f 01 bd 52 20 6d 3d
       -0.014756162 -0.123368695 -0.03158491 0.05789215
000050 59 c8 c5 bc 1c ce c1 bc 20 b2 c4 bc c1 61 c0 3c
       -0.024143385 -0.02365785 -0.024010718 0.023484113
000060 15 d9 ec 3c cd 15 13 bd d9 15 2a bd f3 a1 99 bb
       0.028912107 -0.035909463 -0.04152474 -0.0046884953
000070 b8 a3 41 3d 18 dc 36 3c b7 75 bc bd ba 9a 1d bd
       0.047275275 0.011160873 -0.0920214 -0.038477637
000080 21 66 24 bd 2e cc 0c bd c3 fe 1a bd 55 88 2f bd
       -0.04013646 -0.03437441 -0.037840616 -0.042854626
000090 8f 7f 2d bd ec a8 6f bd 86 8a cc bc 93 54 09 bd
       -0.042357977 -0.058510706 -0.024968397 -0.033527922
0000a0 9e 99 c2 3c de cd d8 3c 63 78 1c 3c 18 6d e8 3c
       0.023754891 0.026465353 0.009550187 0.028372332
0000b0 9c 66 ba bc 8c 8f 90 bc 70 13 4e bd e6 37 17 bd
       -0.022754006 -0.017646573 -0.050311506 -0.036918543
0000c0 1e 24 b1 3c f9 98 1c bd 14 05 34 bc 83 9e 0a 3d
       0.021623667 -0.038231824 -0.010987539 0.033842575
0000d0 8b 12 ad bc 05 e2 33 bd 27 77 fe bc 67 ce 0e bd
       -0.021127006 -0.04391672 -0.031062676 -0.03486481
0000e0 fc 1e 0a bd e1 20 03 bd 6e 78 99 bd a1 fa d8 bd
       -0.033720955 -0.032013778 -0.07493673 -0.10594679
0000f0 59 56 f8 bc d5 cc f5 bc 03 eb d3 bc 84 90 6c bd
       -0.030314611 -0.030004898 -0.025868898 -0.05775501
000100 d7 3b be bd 0f 84 f5 bc b0 5f 39 3d c2 97 e6 bc
       -0.09288757 -0.029970197 0.04525727 -0.028148536
000110 d6 a3 df 3c b3 e4 90 bd c3 58 1e 3d 9e 90 f2 bc
       0.027299803 -0.07074871 0.03865887 -0.029609974
000120 2e 8e c7 bc 5a 81 14 bd a3 3f 32 bd 1e e7 67 3d
       -0.024359789 -0.03625617 -0.04351772 0.056616895
000130 68 78 2e 3d a3 18 3e bd 47 3e d5 bc 87 20 12 bd
       0.042595297 -0.046410214 -0.026030673 -0.03567555
000140 dd f5 83 bd 10 45 30 3c 66 55 22 bb 40 e1 a5 bc
       -0.06443379 0.010758653 -0.002477014 -0.02024901
000150 3e e3 ef bd d6 d4 6a bc b0 74 a1 3d 78 e4 fe bc
       -0.11713265 -0.014332971 0.078835845 -0.031114802
000160 98 25 17 bd 6a a9 02 3d cb a4 04 bd 05 ba 2f bd
       -0.036901087 0.031899847 -0.03238372 -0.04290201
000170 c4 72 24 bd 40 77 a2 3c a5 b4 61 bd 69 b8 2d 3d
       -0.04014851 0.019832253 -0.055103917 0.042412195
000180 5d f6 10 3d 25 39 ec bc 32 07 25 bd b6 ce 14 bd
       0.0353912 -0.028835842 -0.040290065 -0.036329947
000190 6a 5b 64 3d 25 56 0b 3d 79 2a 9f ba c5 1e 1a 3d
       0.05575124 0.0340177 -0.0012143395 0.037627
0001a0 c1 71 e1 bc 88 25 05 3d 62 3b 95 bc 77 e9 6c bd
       -0.027520062 0.032506496 -0.018216792 -0.057839837
0001b0 96 66 e0 bc 1a 63 25 3d 03 1d 92 bb 61 06 6d 3d
       -0.027392667 0.040377714 -0.004459025 0.05786741
0001c0 cc a9 50 3d 16 38 df 3c b7 3c dd bc 1d b3 b1 3c
       0.05094318 0.027248424 -0.02700649 0.021691853
0001d0 6c f6 6a 3d 16 45 cb bc d6 f4 01 3d 8b 75 24 bc
       0.057363912 -0.024813216 0.031727634 -0.01003779
0001e0 29 74 ce 3b 07 8f 14 bc e9 41 15 bd 91 d5 a0 bd
       0.0063004685 -0.0090673035 -0.03643981 -0.078532346
0001f0 97 bb 75 3b 69 5a 26 bd 79 a0 00 bd 1d be fa 3c
       0.0037495845 -0.040613566 -0.03140304 0.030608231

q1_layer3.weight f4 [64, 128]
000000 ca ed 1d be b2 ce 03 3e 30 38 14 3d f5 e4 ca bd
       -0.1542274 0.12871817 0.036186397 -0.09906951
000010 d6 61 6a 3d 89 72 11 3d 35 60 c3 bd 04 c7 6d bd
       0.05722221 0.03550962 -0.095398344 -0.058051124
000020 db ea 64 be 7b e9 80 bd 41 7e 56 be 11 be 98 bd
       -0.22355215 -0.06294533 -0.209466 -0.07458127
000030 df 1b c3 3d 4a ad 41 bd fb 8d 15 bd bb fd 99 bd
       0.095268 -0.047284402 -0.036512356 -0.07519098
000040 69 55 5c bd df c9 5e 3c b5 07 91 3d 08 9e 00 be
       -0.05379239 0.0135979345 0.07081548 -0.12560284
000050 29 6c 0b bc 16 47 04 3d 05 54 c0 bd d6 f2 91 3c
       -0.008509674 0.032294355 -0.093910255 0.017815989
000060 2e 3e da 3d 22 f6 ba bd 6c 6a 4d 3d 75 02 76 3d
       0.10656391 -0.09128977 0.05015032 0.060060937
000070 bb 60 0a 3d f6 15 b5 bd e1 5d b0 3d 4f fe 59 3d
       0.033783656 -0.08842079 0.08611656 0.053221043
000080 f6 f4 63 3d 3a fb 2f 3d 69 8e b7 bd 24 39 0a be
       0.055653535 0.042964198 -0.089627095 -0.1349836
000090 d8 fa 61 bd 50 2b 01 bd e0 ad fd bd 61 36 c5 3c
       -0.055170864 -0.031535447 -0.1238668 0.024073781
0000a0 86 58 5b 3d 9a 71 de 3b 20 b0 47 bd ed 49 c1 bd
       0.05355122 0.0067884447 -0.04875195 -0.09437928
0000b0 6b bc 50 ba 26 de b4 3d 7d ab 2f 3e c3 a5 9b bc
       -0.0007962647 0.08831434 0.17155261 -0.01899994
0000c0 ee 5f 19 bc d2 cf 56 bd ae 95 5c bd 51 d1 0a 3d
       -0.00936125 -0.052444287 -0.053853683 0.033891026
0000d0 df 35 50 3d 85 ec da 3d ff fb 44 3a c5 d2 99 bd
       0.050832625 0.10689644 0.0007514357 -0.07510904
0000e0 ae 03 d4 3d ed fa 8f 3d 1b eb 82 bd d0 4c 2b 3e
       0.10352264 0.07030282 -0.06392499 0.1672852
0000f0 d3 2d db 3d 08 60 00 3e 98 fc 26 3e 34 de 47 3d
       0.107021 0.12536633 0.16307294 0.048795894
000100 6e 8f 18 be 4f 94 8b bd 3b 06 c6 bc 1e 34 af 3d
       -0.14898464 -0.06815397 -0.024172893 0.085548624
000110 74 eb 08 be cc f9 9a bd 28 b6 10 3e 16 08 a3 bd
       -0.13371068 -0.07567176 0.14131987 -0.07960527
000120 48 2e 79 bc a2 0e 36 bd d2 71 dd 3c 3f 72 dd bd
       -0.015208788 -0.04444755 0.027031813 -0.10812806
000130 c0 e0 84 bb 35 50 e2 bd 55 31 32 bd 2a f3 c9 3d
       -0.0040551126 -0.110504545 -0.043504078 0.09860833
000140 4d 1c a3 3d cc 9f 2c bd 9f fa 0c be f0 8f b9 bd
       0.07964382 -0.04214458 -0.1376748 -0.09060657
000150 d7 c6 95 3b 8e a6 c7 3c 7c e5 12 3e ba 7f 5f bc
       0.0045708227 0.024371412 0.14345354 -0.013641292
000160 50 34 2e 3e 8b 97 0b bd b9 d4 8d 3d e4 21 e4 3d
       0.17012143 -0.03408007 0.06925339 0.111392766
000170 ee 5a 5f bd 2a b4 3a bd 30 76 dc bc ca 05 39 bd
       -0.054530077 -0.045581974 -0.026911825 -0.045171537
000180 3a 73 72 3d 1f 5b e2 bc 49 d9 d1 3c 8a a3 14 3d
       0.05919192 -0.02763134 0.025616305 0.036288776
000190 a6 26 35 bd 69 42 08 bb 5d d4 55 3c 14 27 a1 3d
       -0.04422631 -0.0020791537 0.01305112 0.07868782
0001a0 e4 5a 64 bd 67 a7 cd bd 02 96 70 3d 5d f1 48 3d
       -0.055750743 -0.10041695 0.05873681 0.049058307
0001b0 c1 44 63 3d 0b 67 7b bc 85 a6 4e 3d 38 05 f5 3c
       0.05548549 -0.015344392 0.050451774 0.029909715
0001c0 6b 02 ec 3c e0 72 a1 bd b0 51 cb bd 01 ec 6a 3c
       0.028809747 -0.07883239 -0.0992769 0.014338494
0001d0 d3 de 16 be ba 6f 35 3d 3f 91 8a bd c2 5a 3e bc
       -0.14733438 0.044296004 -0.06765985 -0.011618318
0001e0 57 c1 23 bd e1 53 ed 3d b6 63 dd bc 12 e2 c7 3a
       -0.039979305 0.11588264 -0.027025085 0.0015249869
0001f0 95 e7 1e bb 46 19 22 ba 67 8c 93 3c 9a 65 db bb
       -0.002424692 -0.00061835756 0.018011285 -0.0066954615
000200 0f bd b8 3c cd 69 22 3e b7 da 14 bb ac 3e a3 3d
       0.022551088 0.15860672 -0.0022713372 0.07970938
000210 14 44 59 3e f4 65 3a bd a3 26 87 bc 89 8c 25 bc
       0.21217376 -0.045507386 -0.016497916 -0.010104307
000220 fc 37 54 3d c1 05 d3 3d 2d a0 e6 3d 01 26 a9 bd
       0.051811203 0.10303832 0.1126102 -0.08259202
000230 6c e7 a2 3c 36 8b eb 3d aa 43 69 3d 54 da 8b 3d
       0.019885741 0.11501162 0.056949295 0.06828752
000240 7a ce a8 3d 36 7a 5f bb da e4 3b be 04 78 84 3d
       0.08242507 -0.0034099943 -0.18349019 0.06468204
000250 39 c2 2a 3e 12 43 8b bc 59 8e 10 be 1c ec f5 3d
       0.16675653 -0.016999755 -0.14116801 0.12007925
000260 fe ba db 3d c5 e2 43 bd da 77 c8 bc b3 bb 3d 3d
       0.10729025 -0.047823686 -0.024471212 0.046321582
000270 34 a3 d8 3d a0 cc 5f bd ab 8f a0 bd 90 64 96 3d
       0.105780035 -0.054638505 -0.078399025 0.073433995
000280 2b c1 3f bd 56 af 97 3d 48 69 1d 3e f8 21 75 3d
       -0.04681508 0.074064896 0.15372193 0.05984685
000290 63 c4 aa 3d 3e a6 01 be 7f 95 17 3e a5 8d 3d 3d
       0.08338239 -0.12661073 0.14803122 0.04627766
0002a0 d1 f8 59 3d 9e 28 76 3e 09 ba 6f bd 53 63 23 3e
       0.053215805 0.24038932 -0.058527026 0.15955858
0002b0 ad 8d b0 3d ae a4 20 be 59 de 93 bc e0 2a 09 3d
       0.086207725 -0.1568782 -0.01805036 0.033488154
0002c0 ae f6 0c 3d 2e 8f d9 3c 5f fa 1d 3c c5 fa a2 3c
       0.03441494 0.026557531 0.009642213 0.019894967
0002d0 58 1d bf bd 80 a6 ba 3c 18 4a 9d 3d fd 3d 43 bd
       -0.09331769 0.022784472 0.07680148 -0.04766654
0002e0 32 e8 94 3d f0 69 e9 3d 8d d7 a1 3d c4 26 77 bd
       0.0727085 0.11397159 0.07902441 -0.060339704
0002f0 0d 38 15 be d4 c5 9d bc 9a ef f9 3c 20 e3 51 bd
       -0.14572163 -0.01925937 0.030509759 -0.051241994
000300 22 30 06 be 52 9e 78 3d a7 02 d2 bc d3 b1 95 bd
       -0.13104299 0.06069786 -0.02563603 -0.07309308
000310 44 a3 00 3e 94 67 bc 3c 3f 35 0d 3e dc 34 f3 3d
       0.12562281 0.022998609 0.13789843 0.118753165
000320 a8 85 2a b9 2c 85 fc bd d3 72 cc 3d 6a cd 99 3d
       -0.00016262254 -0.12330088 0.099828385 0.07509883
000330 3e 27 27 bd a8 04 6c be 6a 9b 0f bd 30 99 90 3d
       -0.04080891 -0.23048651 -0.035060324 0.07060468
000340 cf 82 40 3e 65 52 bd 3c fc e0 34 3d 6f 0d 09 bd
       0.187999 0.023110578 0.044159874 -0.033460077
000350 3e 29 07 be e1 e6 5a bd 62 3b da 3d df ac bd 3c
       -0.13199326 -0.05344284 0.106558576 0.02315372
000360 61 59 a1 bc 82 8e 4e 3d be 7b 9d bd af ee 8e bb
       -0.01969594 0.050428875 -0.076896176 -0.0043619494
000370 3e 3e a2 3c 86 0e 55 3d ac db eb 3d 44 e1 a9 bd
       0.01980507 0.052015804 0.115165085 -0.08294919
000380 0e c0 79 3c 32 4c f0 bd c0 3e 09 bd 7e 23 10 be
       0.015243543 -0.11733283 -0.03350711 -0.14076039
000390 68 65 cb 3d 75 c3 76 3d e6 b9 11 3d 9a 32 3a 3d
       0.09931451 0.060244996 0.035577677 0.045458414
0003a0 d1 ed d2 3d c0 5a 1e 3e 50 e2 c0 bc 51 ff 7c 3d
       0.10299266 0.15464306 -0.023545414 0.061766926
0003b0 14 fb 28 bc 1f 34 d2 bc 9d bd 67 3d 77 05 b8 3d
       -0.010313768 -0.025659619 0.056577314 0.08985417
0003c0 f7 74 1f 3e 45 d6 08 ba c7 36 07 3d e2 8d e0 3d
       0.15571962 -0.0005219917 0.033011224 0.10964562
0003d0 92 53 f7 3d 42 df 72 3c 09 1e 98 bc 56 90 80 3d
       0.12076487 0.014823737 -0.01856901 0.0627753
0003e0 ee c6 18 3e d5 53 d3 3d 50 af d1 3d 3a 71 98 bd
       0.14919636 0.10318724 0.10238516 -0.07443471
0003f0 96 12 2a bc ad 85 89 3e 67 65 36 bc cb ce c5 bc
       -0.010380408 0.268598 -0.011132575 -0.024146458

q1_layer3.bias f4 [64]
000000 a9 6d 39 bc 74 3d e8 3c cc de e8 bc 42 50 0e 3d
       -0.011317649 0.028349616 -0.02842655 0.03474451
000010 ee 69 b9 bc 19 3b 2f bb 00 1d 98 bc b4 8b e6 3c
       -0.022633519 -0.0026738106 -0.018568516 0.028142788
000020 0e 14 c5 bc f8 4f 82 bb 15 ad c6 bc fb 09 c0 bc
       -0.024057414 -0.003976818 -0.024252454 -0.023442259
000030 81 30 63 bc 9e a0 a2 bc 52 ce 91 bc 5e 03 06 3d
       -0.013866545 -0.019851979 -0.017798577 0.032718055
000040 bc b2 57 bc a6 fe 3d 3d 79 be e7 bc 4e a6 49 bc
       -0.013165172 0.04638543 -0.028289067 -0.0123077165
000050 98 64 13 bc f4 d4 79 3d 49 96 96 bc bc 02 13 3d
       -0.008996151 0.060994104 -0.018382208 0.03589128
000060 3c b4 bb bc ff cc de bc 2b 7e 11 3d 2b ec af bc
       -0.02291309 -0.02719736 0.035520714 -0.021474918
000070 e0 a3 d1 bc 0c 6d 36 3d 3b 79 c5 bc 6f 24 fc bc
       -0.025590837 0.04453759 -0.024105659 -0.030779092
000080 6d 4a f7 3c 78 cc 40 3d c7 8e 08 3d c1 41 a6 bc
       0.030186856 0.047069997 0.033339288 -0.020295026
000090 9e a0 a1 bc 39 7f cb bc a9 32 fb bc 23 a9 d3 bc
       -0.019729909 -0.024840938 -0.030663805 -0.025837487
0000a0 83 9a 5d bc 8d 4f d9 bc cf 4a c6 bc bf 6a ca bc
       -0.013525608 -0.02652719 -0.024205593 -0.024709104
0000b0 73 8f 8e bc ab 00 d4 bb 62 d8 55 bc 0c 4d d1 3c
       -0.017402386 -0.006469806 -0.013052078 0.025549434
0000c0 dd c0 45 3d db 0b ed bc 72 4a e0 bc 47 dc dc bc
       0.048279632 -0.028936317 -0.027379248 -0.026960505
0000d0 8b e0 9f bc 10 47 29 bc bf 27 f8 bc cd 9d 08 bb
       -0.01951625 -0.010331884 -0.03029239 -0.002084601
0000e0 7a f3 b9 3a 50 2d ab 3c 3c 4d 98 bc 9c fb 89 bc
       0.0014186942 0.02089563 -0.018591516 -0.01684361
0000f0 df ee d9 bc 3c 95 4d bc cc 14 29 3d 04 c7 e5 bc
       -0.02660316 -0.012547787 0.0412796 -0.028049

q1_layer4.weight f4 [1, 64]
000000 e4 f0 f2 3c 8c fa 25 bf cc 63 8f bc 50 3a 19 bf
       0.029655881 -0.6483543 -0.017503642 -0.598546
000010 a7 3a 9d bc 84 13 50 be 91 91 07 3d 21 17 06 bf
       -0.019193007 -0.20319945 0.033097807 -0.5237904
000020 86 c0 03 3d b9 ea 94 bc 27 ef 84 bd bc 22 0a 3e
       0.032166027 -0.01817833 -0.06490927 0.13489813
000030 6d 38 19 3c 79 a4 4c bc 80 56 4a be b6 66 4b bf
       0.009351832 -0.012490385 -0.1975956 -0.794536
000040 38 b7 37 3e 67 bd 1c bf c6 28 4f 3d 6b 57 2e 3e
       0.17940986 -0.61226505 0.050575994 0.17025535
000050 75 2c 51 bd 42 a6 20 bf c2 0d 92 3d 25 00 0d bf
       -0.05106779 -0.6275369 0.0713153 -0.55078346
000060 ca 05 15 3e 93 49 b6 bc dc 7a 36 bf f8 bb c4 3d
       0.1455299 -0.02225188 -0.7128122 0.09606165
000070 40 4c ad 3d 2d cd 11 bf 27 d7 04 3c 14 a3 bd 3c
       0.08461809 -0.569537 0.008107937 0.02314905
000080 32 00 19 bf 0e 4e 0a bf 72 00 25 bf 50 2f a0 bd
       -0.59765923 -0.5402535 -0.64453804 -0.07821524
000090 b5 4c 3e 3c ca 55 58 bc c6 fc da 3b 53 c5 05 bc
       0.011614968 -0.013204047 0.006682965 -0.008164722
0000a0 4b e8 46 3d 65 27 bf 3d 72 80 97 bc 95 3a 36 bd
       0.048561376 0.09333686 -0.018493865 -0.044489462
0000b0 43 a1 4b 3e 81 4f 1b bb 70 25 a1 bd 84 29 13 bf
       0.19885735 -0.002369851 -0.07868469 -0.5748522
0000c0 03 38 15 bf 2a b4 14 3d 44 fb 17 bc 05 c0 1a 3e
       -0.5828859 0.03630463 -0.009276215 0.15112312
0000d0 12 6b 0e 3e ce 88 93 bd 7c 2f bc bb 04 12 80 bc
       0.13908032 -0.07203828 -0.0057429653 -0.01563359
0000e0 b5 f5 ff 3d 63 be 3b bf 4a 92 cc 3d 17 f4 1b 3e
       0.12498037 -0.7333738 0.0998884 0.15229832
0000f0 98 b0 0c 3e ff ce 1c 3d e3 72 3c bf db 08 06 bd
       0.1373924 0.038283344 -0.73612803 -0.03272329

q1_layer_norm1.weight f4 [128]
000000 c0 88 7a 3f 4e db 7f 3f 2b 4f 8e 3f 87 b9 7a 3f
       0.97864914 0.9994401 1.111791 0.9793934
000010 47 a8 7b 3f 29 d1 72 3f e9 e0 7e 3f 99 45 7b 3f
       0.98303646 0.94850403 0.99561936 0.9815307
000020 70 1b 72 3f 75 ec 75 3f 17 5c 70 3f b6 ba 74 3f
       0.94573116 0.9606393 0.9389052 0.955974
000030 75 e5 74 3f 6e 4e 73 3f 22 a3 71 3f 2f d4 8f 3f
       0.95662624 0.9504155 0.94389546 1.1236628
000040 cf c1 8f 3f 4f 8d 72 3f 6b a2 74 3f 2c a3 75 3f
       1.1231021 0.9474687 0.9556033 0.95952106
000050 9d ae 76 3f 82 09 71 3f df da 81 3f 56 28 72 3f
       0.9636019 0.9415513 1.0144919 0.945928
000060 04 e3 77 3f a9 ef 7b 3f 45 35 6f 3f c4 5d 76 3f
       0.96830773 0.9841257 0.9344066 0.96236825
000070 bd f4 6f 3f 8a 3e 83 3f 12 b6 83 3f b0 45 75 3f
       0.93732816 1.025346 1.0289938 0.9580946
000080 41 84 78 3f 54 ff 77 3f 3d bd 63 3f 31 53 79 3f
       0.97076803 0.96873975 0.8896063 0.97392565
000090 e8 78 75 3f 22 2f 70 3f e7 37 76 3f 2f 0d 80 3f
       0.95887613 0.9382192 0.9617905 1.0004023
0000a0 cf a1 86 3f 94 5f 73 3f a3 d2 74 3f e7 f9 92 3f
       1.051813 0.95067716 0.95633906 1.1482514
0000b0 e7 34 6f 3f 5c a9 7c 3f 6a 58 8d 3f a3 23 78 3f
       0.934401 0.9869592 1.1042607 0.9692938
0000c0 05 96 85 3f 8e 3b 77 3f 49 12 71 3f a0 af 72 3f
       1.0436407 0.9657525 0.94168526 0.9479923
0000d0 8d 14 7a 3f 2d 5c 76 3f 24 f5 6f 3f 07 41 75 3f
       0.9768761 0.962344 0.9373343 0.9580235
0000e0 38 b5 6a 3f 1f 0d 75 3f 22 f0 83 3f 24 25 7f 3f
       0.9168277 0.95723146 1.0307658 0.9966605
0000f0 df 19 7a 3f 22 1c 73 3f c9 ce 72 3f 94 0d 75 3f
       0.97695726 0.949648 0.9484678 0.95723844
000100 f6 b2 6b 3f 61 08 72 3f 6a 49 6d 3f 29 f6 77 3f
       0.9206995 0.94544035 0.92690146 0.96859986
000110 17 79 77 3f 70 56 76 3f 2f 8b 73 3f 0f df 84 3f
       0.96669143 0.96225643 0.9513425 1.0380572
000120 08 ee 80 3f 3c 74 85 3f 2b a0 70 3f 08 cd 8d 3f
       1.0072641 1.0426097 0.93994397 1.1078196
000130 8f ab 72 3f d4 73 7d 3f 26 4e 74 3f 8e 9b 74 3f
       0.9479303 0.99004865 0.95431745 0.9554986
000140 b0 bc 75 3f 9e fe 72 3f 94 74 74 3f 8f ba 8c 3f
       0.9599104 0.94919765 0.95490384 1.0994433
000150 95 55 81 3f 08 36 84 3f 2d 2d 7c 3f 5d 00 6c 3f
       1.0104243 1.0328989 0.9850643 0.92188054
000160 c0 6f 88 3f eb 54 6e 3f cf 48 6f 3f 34 03 7b 3f
       1.0659103 0.93098325 0.9347047 0.9805176
000170 79 fd 70 3f d9 02 75 3f 72 1d 8a 3f a3 fa 75 3f
       0.9413677 0.9570747 1.0790236 0.96085566
000180 9f c2 8d 3f cd d6 78 3f 3f 5a 8c 3f db a7 77 3f
       1.1075019 0.9720276 1.0965041 0.967405
000190 e8 d6 74 3f 3b d0 7b 3f 7c 69 87 3f 24 d6 73 3f
       0.9564042 0.9836461 1.0579066 0.9524863
0001a0 41 5c 78 3f 37 ba 78 3f c8 5b 75 3f d9 01 88 3f
       0.9701577 0.9715914 0.9584317 1.0625564
0001b0 4d c5 7d 3f 84 5c 80 3f a4 7f 80 3f 88 c8 74 3f
       0.9912918 1.0028234 1.0038953 0.95618486
0001c0 02 10 73 3f a8 1a 6f 3f be 59 8a 3f 42 90 70 3f
       0.949463 0.9340005 1.0808637 0.9397012
0001d0 82 05 7f 3f b9 f6 78 3f d8 c1 70 3f 1d b4 75 3f
       0.9961778 0.9725147 0.9404578 0.95977956
0001e0 f3 77 72 3f b9 df 83 3f 09 77 72 3f 0d 0e 97 3f
       0.9471428 1.030265 0.94712883 1.1801163
0001f0 a0 9a 8d 3f 78 46 7b 3f 84 14 76 3f 84 4a 78 3f
       1.1062813 0.981544 0.96125054 0.969887

q1_layer_norm1.bias f4 [128]
000000 e7 1e 90 bc af cc 1a 3d 10 1f f3 3d f8 4f 9d bc
       -0.01759286 0.037792858 0.11871159 -0.019203171
000010 40 e0 8e 3d 8f 13 81 3d 92 1b 4b bb a4 c5 51 bc
       0.06976366 0.06302559 -0.0030991775 -0.012803469
000020 f7 9f 26 3c 6a 45 b4 bc bb 56 c7 bc 8b 27 d3 bb
       0.0101699745 -0.022005755 -0.024333348 -0.006443923
000030 30 0a 00 bd bf d6 26 3c 69 84 62 3c 21 20 ea 3d
       -0.031259716 0.010183035 0.013825514 0.11431909
000040 af fb df 3d 5a 2e 89 3c ac 7c 4d 3d 9d 52 c1 3c
       0.10936677 0.016745735 0.050167724 0.023598963
000050 ec 12 84 bb 8d d9 df bc 78 ad be 3d 1b bc 06 3d
       -0.004030576 -0.027325416 0.0931043 0.032894235
000060 2a 4f 77 3d 94 12 91 3d 2a c8 73 3d 3f 06 b8 bc
       0.06037823 0.070836216 0.059517063 -0.022463916
000070 2d fc 14 bb 5e c0 94 3d 17 c1 72 3d b3 dd 13 3d
       -0.0022733316 0.07263254 0.059266176 0.0361001
000080 81 99 1f 3d 81 26 61 3d a9 9b cc bc 7e c2 aa bc
       0.038964752 0.05496836 -0.024976568 -0.020844694
000090 26 89 80 3d 5a 3c d5 bc 57 5c 22 3c ca ca 7a 3d
       0.06276159 -0.026029754 0.009909711 0.06122855
0000a0 e0 e5 ad 3d 41 2b 62 3d cf 8a 16 3d 8e 6b 03 3e
       0.08491111 0.05521703 0.036753472 0.12833998
0000b0 c5 85 2b 3d a4 f7 ff ba 8d 9d e0 3d 0c 37 a3 bc
       0.04187562 -0.0019528759 0.109675504 -0.01992371
0000c0 bd 99 ba 3d 8f 0a a7 bb 72 a7 0b bc ad 8d b0 bc
       0.091113545 -0.005097694 -0.008523809 -0.021551931
0000d0 86 0c 62 bc 00 49 20 bc 7e 73 17 3d c5 a4 2a 3d
       -0.013796931 -0.00978303 0.036975376 0.041661043
0000e0 2d 66 bb 3c d5 95 11 bd 6f 55 88 3d dd 30 88 3d
       0.02287587 -0.03554328 0.0665692 0.06649945
0000f0 91 ac 30 3d ff b7 a0 bc 38 6a b0 3c b8 ce df bc
       0.043133322 -0.019618986 0.021535024 -0.02732025
000100 97 95 34 3a 70 98 1d 3a 0b f7 c3 bc 5e e4 6b 3c
       0.00068887457 0.00060117897 -0.02392151 0.014397709
000110 16 54 87 3d 4e df ab 3c 66 40 5c b9 a6 cf df 3d
       0.06607835 0.020980503 -0.00021004825 0.10928278
000120 49 8c ac 3d af be b3 3d 04 3b c6 bc ee 43 fc 3d
       0.08425195 0.087766044 -0.024198063 0.12317644
000130 3b d8 72 bb 65 2a 9e 3d 2c c3 b8 bc 5c 72 03 bc
       -0.0037055153 0.0772293 -0.022554003 -0.008022871
000140 5f e4 12 bd ab bf 96 3c 11 aa de bb 54 db c3 3d
       -0.035862323 0.018401941 -0.006795176 0.09563318
000150 a1 f5 cf 3d b7 e2 d3 3d fd 30 9c 3d b3 73 83 3c
       0.10154272 0.10345977 0.07626531 0.01604638
000160 83 ba d7 3d 39 1f de 3c e9 ca 19 ba f4 88 08 bc
       0.10533621 0.027114497 -0.0005866723 -0.008333433
000170 a2 64 40 bd b6 f6 a1 3c e3 1c c2 3d d6 4e a2 3d
       -0.04697097 0.019770961 0.09478166 0.07925193
000180 6b 26 e0 3d e4 1e 02 3b e7 54 d8 3d 9a 78 b8 39
       0.10944828 0.0019854838 0.10563069 0.0003518507
000190 eb 7a 85 3b b6 6a 39 3d 27 9c d2 3d 92 24 83 3d
       0.004073491 0.045267783 0.1028369 0.064034596
0001a0 80 7c 1e bc 42 a9 04 3d 67 b7 4a bd 0e 58 c7 3d
       -0.009673238 0.03238798 -0.049491312 0.09733592
0001b0 e4 44 46 3d e9 2d 82 3d 00 ae a4 3d 51 d2 55 3d
       0.048405543 0.06356413 0.08041 0.052202526
0001c0 f8 37 e6 bb 64 1c e5 3c 7b cc bd 3d 27 2a c4 bc
       -0.007025715 0.02796764 0.09267517 -0.023945881
0001d0 70 d1 6c 3d 1e 50 14 3d 84 ba f4 39 b4 44 78 bc
       0.057816923 0.03620922 0.00046678272 -0.015153099
0001e0 f4 80 9b bb f7 a8 af 3d 31 36 8a 3c c4 c1 19 3e
       -0.004745597 0.08577149 0.016871544 0.15015322
0001f0 f8 bb e7 3d b7 29 48 3c 7d a2 b7 3d ea a9 02 bd
       0.11315149 0.012216977 0.08966539 -0.031900324

q1_layer_norm2.weight f4 [128]
000000 2d 82 85 3f 72 8c 85 3f 2e f9 7d 3f fb 17 7e 3f
       1.0430351 1.0433486 0.99208343 0.9925534
000010 32 36 67 3f 20 91 7e 3f b1 c3 6b 3f 9e b5 7d 3f
       0.9031707 0.99440193 0.92095476 0.9910525
000020 d0 3c 8e 3f 6d 83 69 3f 22 1e 83 3f b6 95 79 3f
       1.1112309 0.91216165 1.0243571 0.97494066
000030 58 96 63 3f e2 78 86 3f 71 dc 79 3f a0 8b 88 3f
       0.8890128 1.050564 0.9760199 1.066761
000040 96 dc 73 3f 1b 1a 80 3f c6 96 7a 3f 03 de 89 3f
       0.9525846 1.0007967 0.9788631 1.0770878
000050 09 fa 7f 3f 2d 26 7b 3f 3b 98 7c 3f 67 0e 72 3f
       0.999909 0.98105127 0.98669785 0.94553226
000060 7a 13 80 3f 4f c1 7b 3f a9 e6 7d 3f 23 94 6a 3f
       1.0005944 0.9834184 0.99180084 0.9163229
000070 50 c3 84 3f 7e 99 74 3f 27 1f 80 3f ec 5b 7d 3f
       1.0372105 0.9554671 1.0009507 0.98968387
000080 82 52 7e 3f 3c 7e 79 3f df 0d 7e 3f c8 3b 79 3f
       0.99344647 0.97458243 0.99239916 0.97356844
000090 fc 0d 7a 3f ff ae 7d 3f 8b 48 7a 3f 77 30 7c 3f
       0.9767759 0.9909515 0.9776694 0.9851145
0000a0 09 99 7c 3f bb 83 80 3f b3 7d 76 3f d7 58 70 3f
       0.98671013 1.0040201 0.9628555 0.9388556
0000b0 f9 60 7c 3f ad 7f 71 3f a0 a3 7d 3f 21 53 7a 3f
       0.9858547 0.9433544 0.99077797 0.97783095
0000c0 44 22 79 3f ae 09 7d 3f 77 2a 75 3f 44 2d 83 3f
       0.9731791 0.98842895 0.9576792 1.0248189
0000d0 3b 7c 7b 3f f5 eb 7d 3f 20 c0 7b 3f 46 ee 77 3f
       0.98236436 0.99188167 0.98340034 0.9684795
0000e0 57 ad 7b 3f 78 95 7d 3f 53 8a 7e 3f 42 36 80 3f
       0.9831137 0.99056196 0.99429816 1.0016558
0000f0 40 b1 7d 3f d3 cd 7c 3f 65 3a 7b 3f af 6e 7d 3f
       0.9909859 0.9875156 0.9813598 0.98997015
000100 fb cb 7f 3f 3f 10 7a 3f b4 40 83 3f 47 ba 7a 3f
       0.99920624 0.9768104 1.0254121 0.97940487
000110 e0 ed 78 3f f0 ea 80 3f de 75 81 3f 49 78 7e 3f
       0.9723797 1.0071697 1.0114095 0.9940229
000120 c6 16 73 3f 09 03 7e 3f b4 c1 75 3f e5 f7 86 3f
       0.94956625 0.9922338 0.9599869 1.0544401
000130 83 a5 83 3f 4b 17 80 3f e7 52 7c 3f 5a 85 7d 3f
       1.0284885 1.0007108 0.98564 0.99031603
000140 9d 83 7e 3f 2a b2 6f 3f 1f 89 77 3f f2 5e 78 3f
       0.99419576 0.9363123 0.96693605 0.97019875
000150 8a 62 80 3f 53 fb 6b 3f 00 22 95 3f 42 af 7d 3f
       1.0030072 0.92180365 1.1651001 0.9909555
000160 c9 be 7d 3f ac 75 81 3f 17 3b 7b 3f 6e 19 7a 3f
       0.9911924 1.0114036 0.9813704 0.9769505
000170 79 36 7f 3f 20 b6 7f 3f 0f 6c 7e 3f 44 93 82 3f
       0.99692494 0.99887276 0.99383634 1.0201192
000180 9e 8b 83 3f 6f 0e 7e 3f 66 d6 7d 3f 18 f7 7d 3f
       1.0276983 0.99240774 0.9915527 0.9920516
000190 0f 90 88 3f 63 d4 82 3f d2 ba 70 3f 10 65 86 3f
       1.0668963 1.0221065 0.94035065 1.0499592
0001a0 f8 3a 7d 3f 89 77 82 3f 29 1e 70 3f ee ba 7e 3f
       0.98918104 1.0192729 0.9379602 0.9950398
0001b0 46 c8 75 3f 72 ce 7b 3f e3 b2 70 3f b6 c4 8b 3f
       0.9600872 0.98361886 0.9402296 1.0919406
0001c0 36 32 8d 3f 39 d1 80 3f 5b 36 7c 3f c6 13 79 3f
       1.1030948 1.006385 0.9852044 0.97295797
0001d0 a5 44 8a 3f 7e 64 7f 3f e0 93 84 3f 3a 20 6e 3f
       1.0802199 0.99762714 1.0357628 0.93017924
0001e0 83 76 75 3f 60 8f 72 3f 28 ff 78 3f 49 26 7e 3f
       0.9588396 0.9475002 0.9726434 0.9927717
0001f0 6b 0a 60 3f 05 dc 7e 3f 19 1f 7b 3f b1 ce 7e 3f
       0.87515897 0.99554473 0.98094326 0.99534136

q1_layer_norm2.bias f4 [128]
000000 51 97 83 3d 48 a3 92 3d 0e 4f 6e ba ce 28 35 3d
       0.06425346 0.0716005 -0.00090907596 0.044228368
000010 7c 24 0f 3d 6d 30 04 bc ab f1 7e 3c d3 00 42 bc
       0.034946904 -0.008068186 0.015560548 -0.011841017
000020 83 28 c8 3d 70 1c c0 3c df 8c 84 3d ec d4 f6 bc
       0.09773352 0.02345106 0.064721815 -0.030130826
000030 4f 54 f7 3c 9c e6 8b 3d 65 9f 07 bd 03 b9 9f 3d
       0.030191569 0.068310946 -0.033110995 0.0779896
000040 c5 0d 14 bc 44 14 6f 3a ef 55 40 bc 4c e6 b3 3d
       -0.009036486 0.0009120146 -0.011739238 0.0878416
000050 b3 60 8c ba d7 00 b3 bc fc 50 77 bc 7a 3f 85 3d
       -0.0010709971 -0.021850986 -0.015094992 0.06506248
000060 0b 82 65 3d ee bd d7 bc f7 fe 40 bc 59 e5 1a 3c
       0.05603222 -0.026335683 -0.011779538 0.009454095
000070 ee 08 9f 3d 68 25 1b 3d 18 55 da ba e0 58 a0 bb
       0.07765375 0.03787747 -0.001665744 -0.004893407
000080 77 5e da bb cd a2 fd bc 83 1d 2e bc e5 5a 1b bd
       -0.006664093 -0.030961419 -0.010627153 -0.03792848
000090 e4 d9 13 bd d3 b5 22 bc d2 4d 67 bc aa e2 ae bc
       -0.03609647 -0.009931046 -0.014117675 -0.021348316
0000a0 e7 58 4e 3d eb b5 53 3d 08 bf 1f 3d c2 32 5c 3d
       0.050377753 0.051687162 0.03900054 0.053759344
0000b0 e0 83 c3 bc 43 4c d2 bb 7e b5 39 b9 dc c1 fa bc
       -0.023866594 -0.0064177825 -0.00017710586 -0.030610017
0000c0 59 9e 55 3d 3e 75 c9 bb f8 23 55 bb 12 f8 86 3d
       0.052152965 -0.0061480096 -0.003252266 0.065902844
0000d0 df 21 e0 bc 01 a2 35 bc 83 15 cd bc f8 2d 40 bd
       -0.027359901 -0.011085988 -0.025034672 -0.04691884
0000e0 5f 14 b9 bc 87 50 57 bb 77 9f c5 bb 3a b9 d0 39
       -0.022592722 -0.0032854395 -0.0060309726 0.00039810856
0000f0 af 2c 2c b9 6e 7d 70 bc a0 42 a2 bc 2d 4d 22 bc
       -0.00016419844 -0.014678342 -0.01980716 -0.009906095
000100 87 da 00 ba 2c 65 17 bd 2c 74 a5 3d 43 c6 d1 bb
       -0.00049153756 -0.03696172 0.08078799 -0.0064018085
000110 ee 92 77 3d 15 de 47 3c ee 19 8d 3d 81 b9 80 bc
       0.060442857 0.012198945 0.06889711 -0.015713455
000120 ff 7a 3f bc c8 0c 19 bc 20 85 af bc 2f 29 dd 3d
       -0.011687039 -0.009341426 -0.021425784 0.10798871
000130 a8 21 95 3d e0 96 54 bb bc ea 89 bc fb 95 27 bc
       0.0728181 -0.0032438561 -0.016835563 -0.010228629
000140 6d 10 c4 bb fd f5 06 3d d6 e0 99 3c 37 29 64 bb
       -0.0059834034 0.032949436 0.018783968 -0.0034814605
000150 bc ee 3b 3b 5f 19 da 3c 15 54 06 3e 51 db 49 bc
       0.0028676232 0.026623426 0.13118012 -0.0123203555
000160 f8 5e e3 bb c9 18 66 3d 7c c3 d9 bc 3a a0 8b bc
       -0.0069388114 0.05617598 -0.026582472 -0.017044175
000170 65 67 84 bb 93 4c 17 3d 29 f7 75 bb a8 26 95 3d
       -0.004040646 0.03693826 -0.0037531352 0.07282764
000180 00 02 7c 3d 56 c7 49 bc 6b 1a 04 bc d0 0f a6 bb
       0.061525345 -0.012315592 -0.008062939 -0.005067803
000190 53 01 af 3d f2 7f 76 3d b0 68 2d 3d 36 0c 69 3d
       0.085451744 0.060180612 0.042336166 0.05689641
0001a0 1d d0 8f bc ec db 86 3d 74 9e 19 bc 93 84 de bb
       -0.01755529 0.065849155 -0.009376157 -0.0067907064
0001b0 82 2d 17 bd 1a fd 98 3d 40 99 19 3d f2 d2 b7 3d
       -0.036908634 0.0747015 0.037499666 0.089757815
0001c0 ac c8 a3 3d bd 2c 75 3d 5a 56 94 bc 8a 21 46 3d
       0.079972595 0.05985712 -0.018107582 0.04837183
0001d0 51 d5 ba 3d 28 90 25 3c 6e 83 5e 3d 26 43 88 3c
       0.09122718 0.01010517 0.05432456 0.016633581
0001e0 b0 0e d8 3c 53 d1 c9 3b 39 b7 27 bd 59 00 05 bc
       0.026374191 0.0061589866 -0.04094622 -0.008117759
0001f0 05 73 0c 3d 15 98 a2 3a 60 31 d7 bc cd 1e 6c 3d
       0.03428938 0.0012404943 -0.026268661 0.05764656

q1_layer_norm3.weight f4 [64]
000000 ab 22 7d 3f e5 64 bb 3f fe eb 82 3f 79 c0 bd 3f
       0.98881024 1.4640166 1.0228269 1.4824363
000010 e9 7e 81 3f cd c1 7f 3f 46 1e 7d 3f a9 8c be 3f
       1.0116855 0.9990509 0.9887432 1.4886676
000020 a1 31 7e 3f 54 a6 80 3f b1 1a 83 3f 0f 78 7d 3f
       0.9929448 1.0050759 1.024252 0.9901132
000030 d1 28 7c 3f 4b 1f 82 3f 31 88 7f 3f 5c b8 b9 3f
       0.9849978 1.01658 0.99817187 1.4509387
000040 4f dc 7d 3f 34 b8 be 3f db f1 7c 3f 79 9c 7e 3f
       0.9916429 1.4899964 0.9880654 0.9945751
000050 8c 11 82 3f c2 d8 c0 3f da 92 7d 3f 9f 0f c0 3f
       1.0161605 1.5066149 0.990522 1.5004767
000060 c0 79 7c 3f 4b 7a 81 3f 62 29 bc 3f 78 38 7d 3f
       0.98623276 1.0115446 1.4700129 0.9891429
000070 aa c7 7c 3f e4 fa bf 3f 24 7b 7d 3f 51 4d 7c 3f
       0.98742163 1.4998441 0.9901602 0.98555475
000080 37 c4 bd 3f 8f 47 c2 3f 7e 43 bb 3f f5 39 83 3f
       1.4825505 1.5178088 1.4629972 1.0252062
000090 80 49 7f 3f e3 27 82 3f 24 20 7e 3f 00 89 81 3f
       0.9972153 1.0168422 0.9926779 1.0119934
0000a0 3f 0e 7e 3f 22 65 7d 3f 25 6d 81 3f 03 8f 82 3f
       0.9924049 0.9898244 1.0111433 1.0199894
0000b0 c1 09 7e 3f 14 80 7e 3f e1 2b 82 3f b9 bb bc 3f
       0.99233633 0.9941418 1.0169641 1.4744788
0000c0 44 e3 bf 3f 43 48 7c 3f 6d 59 81 3f 4f 8d 7d 3f
       1.4991231 0.9854776 1.0105416 0.99043745
0000d0 94 14 7e 3f 14 53 81 3f a1 86 7f 3f 6c 13 83 3f
       0.9925015 1.0103478 0.998148 1.0240302
0000e0 c2 ee 7d 3f 7a 6a b9 3f d6 57 7d 3f 37 ea 7d 3f
       0.9919244 1.4485619 0.9896215 0.9918551
0000f0 6e 9e 7c 3f 9d d0 7d 3f 27 91 bb 3f b0 0f 82 3f
       0.98679245 0.99146444 1.4653672 1.0161037

q1_layer_norm3.bias f4 [64]
000000 7a 04 8b bc 70 d1 ed 3e 3a 96 05 3d ec e2 f1 3e
       -0.016969908 0.4644885 0.03261397 0.4724344
000010 10 b0 ce 3c dd 07 95 3b f4 68 9a bc 32 6d f8 3e
       0.025230438 0.0045480565 -0.018848874 0.4852081
000020 e2 b1 e5 bb 87 8c 47 3c 30 b3 29 3d df 0f 5b bc
       -0.0070097307 0.0121795 0.041430652 -0.013370483
000030 83 b4 c7 bc 52 82 b4 3c 45 be 50 b9 e3 12 e9 3e
       -0.024378067 0.022034798 -0.00019907307 0.45522222
000040 38 9d 3c bc f6 8e f4 3e 0a 35 83 bc 6e 3e 3a bc
       -0.011512093 0.4776532 -0.016016502 -0.011367423
000050 51 91 b8 3c 18 26 00 3f e9 1a 48 bc 94 f0 f8 3e
       0.02253023 0.50058126 -0.012213447 0.48621047
000060 fd 58 a3 bc b6 21 b7 3c 0f be ec 3e 6f db 49 bc
       -0.019939894 0.022354942 0.46238753 -0.012320383
000070 7c cd 6c bc 98 86 f6 3e 6a b8 49 bc 59 a7 99 bc
       -0.014453288 0.48149562 -0.012312034 -0.018756555
000080 65 c8 f1 3e 23 ed fd 3e a5 1c ee 3e 7b 1d 37 3d
       0.472232 0.49594983 0.4650623 0.04470585
000090 50 da 0d bc 6f 73 bb 3c f3 e5 1c bc f8 02 95 3c
       -0.008658007 0.022882191 -0.009576309 0.018189892
0000a0 1b e1 25 bc 3d af 77 bc ea 85 9d 3c c9 4b 06 3d
       -0.01012447 -0.015117464 0.019228894 0.032787118
0000b0 2d a4 1b bc 37 81 9e bb 0c 75 bb 3c 43 60 f2 3e
       -0.009499592 -0.004837181 0.02288296 0.47339067
0000c0 37 2d f8 3e a4 03 bd bc bb 36 bb 3c 76 f1 80 bc
       0.48471996 -0.023073025 0.022853246 -0.015740138
0000d0 79 32 20 bc 8a 42 b3 3c 6a 32 60 3b a9 c8 20 3d
       -0.009777659 0.021882314 0.0034209737 0.039253864
0000e0 d1 7b 21 bc fa 75 ea 3e 92 78 3e bc 82 b1 46 bc
       -0.00985618 0.45793134 -0.011625426 -0.012127282
0000f0 c2 e8 81 bc 5a 4e 41 bc ca 4b eb 3e d6 12 b2 3c
       -0.015858058 -0.011798466 0.4595626 0.021737497
