rl_energy_manager_20250326_0759/models/checkpoint_200/actor.pth (torch, 117576 bytes, 14 tensors)

layer1.weight f4 [128, 18]
000000 c7 cc 8d 3d 6b af 88 bd ae 00 82 3d 96 73 b8 bd
       0.06923824 -0.06674083 0.06347786 -0.09006421
000010 f8 6b a3 3d 80 b8 35 bd 81 c0 a9 3d f3 8a 4d bb
       0.07979578 -0.044365406 0.0828867 -0.0031363338
000020 29 cb c2 3d 44 b3 85 3d f4 27 3a bd 22 0a 73 3a
       0.09511406 0.06528333 -0.04544826 0.0009271224
000030 76 6c ed bd f1 4c 15 bd 68 7f 2c bc c8 41 f8 3d
       -0.11592953 -0.03645033 -0.010528423 0.12121922
000040 14 10 ef bc 83 f4 ba bd 67 d8 0a bd c6 76 a5 3d
       -0.029182471 -0.09128668 -0.033897784 0.08079295
000050 a2 e0 e2 3c 52 95 28 bd 5f fa fe 3d 73 fb 31 bb
       0.027695004 -0.041158028 0.12450098 -0.0027157932
000060 de 3b 85 bc 98 59 e8 39 ce ac b0 bd 0d 26 d2 bb
       -0.016263898 0.0004431724 -0.0862671 -0.0064132274
000070 12 bf 43 3d d1 dc 12 3d af 57 a0 3c 31 79 2c 3d
       0.04778964 0.03585512 0.01957306 0.042107765
000080 26 10 c8 bd a9 9f 89 bc 3e 6c 25 3d f9 77 a5 3b
       -0.09768705 -0.016799765 0.04038643 0.0050497022
000090 23 1b 15 bc 87 0e d4 3d 77 66 98 3d 6c fb d8 3d
       -0.009100708 0.10354333 0.074414186 0.1059483
0000a0 fb b5 ca bc 9e 22 bc 3c fd a6 10 be cc 20 b4 3d
       -0.024744978 0.022965726 -0.14126201 0.08795318
0000b0 c2 11 c8 3c 4b af 50 3d 87 df df 3d d2 c6 e8 bb
       0.02442253 0.050948422 0.10931306 -0.0071037794
0000c0 94 16 db bd 2f 89 d4 3b e3 00 8d ba 85 f1 f6 3d
       -0.10697666 0.00648608 -0.001075771 0.12057785
0000d0 04 9d 34 3d aa 50 d0 bc 0c 23 b7 bc 25 bc dd 3c
       0.044095054 -0.025429089 -0.022355579 0.027067253
0000e0 0a 4b 80 bd 6f 78 c3 3d b6 98 98 bc 35 bf 9b 3d
       -0.062643126 0.09544455 -0.018627506 0.07604829
0000f0 ca 09 fd bb 3f 94 a4 bd cf 37 77 3d e8 eb d2 bd
       -0.007722114 -0.08036088 0.060355958 -0.10298902
000100 b1 c9 ac bd e9 14 ad bd 9c 6e 0b 3e 78 fe cc bd
       -0.08436907 -0.08451254 0.13616413 -0.100094736
000110 9d 25 16 bd 27 81 9e 3d 30 1b a8 3d 04 d1 36 3e
       -0.036656965 0.077394776 0.082083106 0.1785317
000120 c1 ab cc bd 41 dd 5c 3c e1 e6 2a 3e e0 c5 70 be
       -0.09993697 0.013480485 0.16689636 -0.23512983
000130 7a 65 b8 bc 67 be 98 bd 80 f6 3f be c1 39 8d bd
       -0.022509325 -0.07458191 -0.18746376 -0.06895781
000140 0e c3 ba 3b 7a 5c 37 be 81 21 2a 3d 18 20 b4 3d
       0.005699522 -0.17906371 0.041535858 0.08795184
000150 96 2c 7c 3d 65 63 29 be b8 46 87 3c a8 1a 16 be
       0.061565958 -0.16541822 0.016513214 -0.14658606
000160 6e 48 00 be 32 da 85 3d 90 af a2 3d 69 61 99 bd
       -0.1252763 0.06535758 0.07943642 -0.07489283
000170 0a a0 a2 bd 48 34 cd bd 11 a0 cb bc 47 e5 8b bd
       -0.07940681 -0.100197375 -0.024856599 -0.068308406
000180 9d cd 14 3d 0d c5 88 3d ac 96 1a 3e 9a 80 85 3e
       0.0363289 0.066782095 0.1509654 0.26074678
000190 31 21 a5 bd d3 53 d5 bd cc f0 c1 3d 97 48 34 bd
       -0.080629714 -0.10416379 0.094697565 -0.04401454
0001a0 c6 36 ee 3d 35 a3 3a bd 3a 17 f9 bd bf 67 73 bd
       0.11631541 -0.045565803 -0.12162633 -0.05942511
0001b0 7c ba 29 3a 2b 8d 03 3e c0 46 1b 3e 2a 99 cf 3c
       0.0006474627 0.1284682 0.15163708 0.025341589
0001c0 bf 11 d4 3d 50 8b 2f bd 0b aa e5 3d 38 b8 3e bd
       0.10354947 -0.042857468 0.11214074 -0.046562403
0001d0 9f 2d 04 3e d1 a9 14 3e 2b ed d2 bb ec 6a 28 bd
       0.12908028 0.14517905 -0.006436964 -0.041117594
0001e0 fb bb 00 bb b8 44 8d 3c 1b f2 02 3e 16 39 04 bd
       -0.0019643295 0.017244682 0.12787668 -0.032281004
0001f0 5e 39 17 3e a3 2c d8 3c 2e b5 8b bd 4c 7e 4c 3d
       0.14767978 0.026388472 -0.06821667 0.049925134
000200 7c ee 15 be 26 15 6f 3d 7d 33 23 be 91 b1 9d 3d
       -0.14641756 0.058369778 -0.1593761 0.07699884
000210 13 80 40 be 20 07 1b 3e 1f ff ce bd 65 de 6e 3e
       -0.18798856 0.15139437 -0.10107254 0.23327024
000220 bb db f9 3d fc 15 19 be 47 a1 26 bd ad f4 c0 bc
       0.122001134 -0.14949793 -0.04068115 -0.02355417
000230 e4 96 47 bd 55 35 78 bd 94 86 a0 3b df 2f 8a bd
       -0.048727885 -0.060597736 0.0048988555 -0.06747412
000240 d4 47 5b bd 53 37 1f 3c fd e2 df 3c 83 0f eb bc
       -0.053535298 0.00971778 0.027329916 -0.02869392
000250 f6 7b 57 3d 2d 3b 82 bd 22 85 df bd 25 ff 1d 3d
       0.052608453 -0.06358943 -0.10914065 0.038573403
000260 72 dd 66 3d 7a f6 96 3c d7 7d 7a bc 05 0a 13 3e
       0.05636353 0.018428076 -0.015288792 0.14359291
000270 19 68 8e 3d 66 f4 dd bb ee 24 57 bd 6d aa bb bc
       0.06953449 -0.0067735193 -0.052525453 -0.022908414
000280 78 8d b5 3c 1c 3d 93 3d b2 bf ef bc fc 2a 1a bd
       0.022162184 0.0718939 -0.029266212 -0.03763865
000290 3a aa d8 3d 36 bb 3d 3b 01 0e 29 bd 66 e0 db 3d
       0.10579343 0.0028950698 -0.04127312 0.1073616
0002a0 82 7d c4 bd 9e d2 32 3c 56 fc ce 3d 5d e2 cf 3c
       -0.09594251 0.010914473 0.10106723 0.025376493
0002b0 f8 77 e2 3c f7 54 82 3e 22 c3 1a 3b b7 59 d8 bb
       0.027645096 0.25455448 0.0023614843 -0.0066024917
0002c0 1c 52 73 3d c8 b9 d5 3d 5d 65 56 bc 1b 29 a4 bd
       0.059404477 0.104358256 -0.01308569 -0.08015653
0002d0 4b 95 c4 bd a5 c2 f4 bd 90 d5 20 3e fc ef 03 be
       -0.09598788 -0.11951188 0.15706468 -0.12884516
0002e0 be 60 a9 bd 7e 0e a2 3c 9b 0a 08 be 4e c2 8b bc
       -0.08270405 0.019782301 -0.13285296 -0.017060425
0002f0 99 90 41 3d 66 18 18 be 89 e1 2f bd 6e 2d 05 bc
       0.04725704 -0.14853057 -0.042939696 -0.008128507
000300 fc 0b 08 be 57 e7 cb bd 05 e7 b3 bd e5 87 a2 bd
       -0.13285822 -0.09956234 -0.08784298 -0.07936076
000310 c7 2e 5f 3d 61 ea 91 bd fc a1 e5 3d 87 e2 c0 bd
       0.05448797 -0.07124782 0.11212537 -0.09418207
000320 d8 95 19 3c df dd 8e 3c 81 c4 3a bd 84 26 0e be
       0.009374104 0.01743978 -0.045597557 -0.1388188
000330 4e 07 48 be 33 e5 47 be 60 e8 33 bb 34 79 fc 3c
       -0.19534037 -0.19521026 -0.0027451739 0.030819513
000340 2b f5 ee bc 1e 86 93 3d c1 b0 5e 3c 43 88 ed 3c
       -0.02916964 0.07203315 0.013591946 0.028995639
000350 c8 4d 18 3d ae 54 a3 bc 35 16 f5 3b 63 26 f4 bd
       0.037183553 -0.01993784 0.007479454 -0.11921384
000360 0f a4 0a be 5d 2f 7d bd f3 c9 ea bc 31 d8 3d bb
       -0.13539146 -0.061812747 -0.02866075 -0.0028967971
000370 d2 e7 e5 3d b1 0d 38 bd ae 7f e0 bc 3b 17 e1 3d
       0.11225857 -0.044934932 -0.027404632 0.10990759
000380 d6 df 16 bc 64 54 ff bc 52 a6 40 3d 8e 5f aa bc
       -0.00920864 -0.03116817 0.047033615 -0.020797517
000390 1d 4c df bd a2 77 31 be 92 cf ef bd b3 1e 31 bc
       -0.10903189 -0.17330793 -0.11709513 -0.010810542
0003a0 d6 5c 0c bb 8c e3 16 3e 19 7e 9b 3d da a3 9a bd
       -0.002141764 0.1473524 0.075924106 -0.075507835
0003b0 5b 19 d6 3c bf a3 e5 3d 56 49 91 bd 84 bf 91 3d
       0.026135137 0.11212873 -0.07094066 0.07116607
0003c0 6c 78 b8 bd 97 60 13 3e 97 f9 b0 3b 52 1b 05 3e
       -0.09007344 0.14392315 0.005400847 0.12998703
0003d0 32 c2 1d bd 4d 84 90 3d 02 55 f3 3d 85 cb f2 3c
       -0.038515277 0.07056484 0.11881448 0.029638061
0003e0 a9 c6 1a 3b 6a b9 6d bd 60 dc c2 ba 96 5b 60 3e
       0.0023616946 -0.058038153 -0.0014866702 0.21909937
0003f0 da e2 04 3e 6d 6a ec 3d f3 68 09 be ba c4 2f be
       0.12977162 0.115437366 -0.13418941 -0.17164889

layer1.bias f4 [128]
000000 e4 dd c9 3b a5 93 7c bb 5b 5f b6 3b c4 ad 0f bc
       0.0061604846 -0.0038540151 0.0055655665 -0.008769456
000010 55 7d e2 bc 09 a8 b4 3b 21 af bf ba 5a 71 2d bb
       -0.027647654 0.0055131954 -0.0014624336 -0.0026465268
000020 54 1c c3 3b 80 74 f3 ba ea 22 8b bc 52 93 d3 bb
       0.0059543047 -0.0018574148 -0.016984422 -0.006456771
000030 53 e7 f2 3a 3a f8 86 3c f2 0a 33 3c 70 79 e0 3c
       0.0018532075 0.016475786 0.010927903 0.027401656
000040 1a bd 08 bb 85 3d 2c 3c 77 d0 e8 bb 38 60 13 bc
       -0.0020864666 0.010512714 -0.007104929 -0.008995108
000050 f9 27 f3 bb 6a 66 e0 bc 51 7d af bb 6c a2 ac bb
       -0.0074205366 -0.027392585 -0.005355515 -0.0052683856
000060 42 43 37 3c 94 72 4a bc d4 be dd ba 7b 3b ef ba
       0.011185469 -0.012356419 -0.0016917833 -0.001825198
000070 bb 57 ba 3b d8 b5 97 3c d6 e2 5e bc a1 49 15 bc
       0.005686728 0.018519327 -0.013603887 -0.009111793
000080 bb 80 32 bb f1 95 09 3c 56 0f ac bb a6 b0 b9 3a
       -0.0027237374 0.008397565 -0.0052508516 0.0014167025
000090 b5 ce de bc b5 68 09 bb 15 24 b3 bb 93 5d 9f bb
       -0.027198175 -0.0020966951 -0.005466948 -0.00486345
0000a0 81 2f 81 bb 92 c1 6e 3c 25 65 b6 39 bd 4f 87 3b
       -0.0039424305 0.014572518 0.00034789104 0.0041293786
0000b0 8b 3f e9 bb 26 a9 45 bb c6 05 5d bc 58 d1 e8 bb
       -0.0071181706 -0.0030160635 -0.013490146 -0.007105034
0000c0 8c 22 97 bb 94 50 f2 3c de ff 29 3c 2d e8 b0 3c
       -0.0046122726 0.029579438 0.010375945 0.021595085
0000d0 ce 09 dc bb 08 bc 07 bb 7b c4 f1 3b a8 ca dc bc
       -0.006715036 -0.002071144 0.0073781586 -0.026952103
0000e0 54 ea cc 3b 20 62 e0 bb d0 9d 12 bc 78 be 71 bb
       0.00625352 -0.006847635 -0.008948758 -0.003688721
0000f0 03 7a 6d 3c 8e d2 02 bb e1 85 20 3a 92 4c cc bb
       0.014494422 -0.0019961926 0.0006123465 -0.006234714
000100 a4 db 9b bb b7 0d 08 ba 01 51 7f 3b 36 1e 39 bc
       -0.004756408 -0.0005190032 0.0038958194 -0.011298707
000110 b2 5b df bc c5 3a a0 bb c8 42 01 3c b8 26 26 bc
       -0.027265403 -0.0048898184 0.007889457 -0.010141067
000120 20 ef b9 3c ab 96 cd bb db f1 c3 3b 6d 0e 0c 3c
       0.022697031 -0.0062740645 0.005979759 0.008548361
000130 af 44 da ba 2c 1c de 3b 83 ee 86 bb b4 76 1e bc
       -0.0016652549 0.0067782607 -0.0041177883 -0.009671856
000140 f2 d0 8c 3a df b2 c6 3b e1 0e c7 ba 2f d2 48 bb
       0.0010743423 0.0060638036 -0.0015186929 -0.0030642857
000150 50 0f 2e 3c 02 41 80 3a ed 20 27 3c 8d e3 2f 3b
       0.010623768 0.0009784999 0.010200721 0.0026838512
000160 5f 3f e2 bc 72 a6 95 ba 10 48 7a 3a 87 00 40 3a
       -0.027618108 -0.0011417402 0.00095474813 0.00073242973
000170 6e da 6e 3a 7e 8a 71 bc 2a ee 53 bb da 67 e1 bc
       0.0009111528 -0.014742492 -0.0032338002 -0.02751534
000180 1e 16 71 bc 88 1a e4 bc 32 bf dd bc 47 bb 1e bc
       -0.014714746 -0.027844682 -0.027068708 -0.009688205
000190 a2 c4 95 bb 5a f7 19 3b fe 34 71 3c ef c3 89 3b
       -0.0045705596 0.002349338 0.014722107 0.0042042653
0001a0 5b 8f 1a bc ee db 67 bc 21 13 e4 bb ac eb db bc
       -0.009433593 -0.014151556 -0.006960288 -0.026845776
0001b0 b7 22 84 bc cb 37 17 bc bc 92 b5 3c 7d e5 f2 3b
       -0.016129835 -0.009229611 0.022164695 0.007412611
0001c0 57 a2 2a bc 9e 15 cb bc d6 51 3f 3b 75 af 6c bc
       -0.010414681 -0.024790581 0.0029193065 -0.014446129
0001d0 c6 a8 eb ba 8b 30 23 bc c3 9e 80 bb 88 b0 d7 bc
       -0.0017979376 -0.009960304 -0.003925176 -0.026329294
0001e0 8d 15 98 3b 6f 5f 45 3c 41 cf 88 3c f1 ac 00 3c
       0.004641241 0.012046679 0.016700389 0.007853732
0001f0 fe b1 2f bb bf 35 d8 bb 04 6f 34 bc c9 5e 16 bc
       -0.0026808972 -0.006598204 -0.011012796 -0.009177872

layer2.weight f4 [128, 128]
000000 80 ef bd 3d 42 70 bc 3c 44 18 93 3d f2 46 2a 3d
       0.092741966 0.023002747 0.07182363 0.041571565
000010 08 9c 09 be 24 b0 f7 bc 17 46 b9 3d 4b 52 44 be
       -0.13438427 -0.030235358 0.09046572 -0.19172017
000020 85 a5 77 3d a3 59 e7 bc ef 09 28 3e 95 ce d3 bd
       0.060460586 -0.028240984 0.1641004 -0.10342137
000030 4f 3b e4 3d 96 52 9e 3d cb 12 a5 3d eb 0c 8a bc
       0.11144125 0.07730596 0.08060225 -0.016851863
000040 b8 71 53 bd d8 75 8b bd 11 02 18 bd dd f1 0d be
       -0.051622123 -0.06809586 -0.037111346 -0.13861795
000050 3f 4f 48 bd 84 83 5f 3d 80 c0 33 3b b3 90 9f bd
       -0.0489037 0.054568782 0.0027427971 -0.07791271
000060 ef 29 f0 bc 69 2d 07 be 4f 8f 43 bb dd ff 55 bd
       -0.02931687 -0.13200916 -0.0029840057 -0.052245963
000070 39 1d fc bc 7f fa a6 3d 73 64 2f 3d 94 c1 1a 3e
       -0.030775653 0.08153247 0.042820405 0.15112907
000080 46 8d 89 3d b9 02 ad 3d ec 9d fd bc 52 1d cd bd
       0.06716399 0.08447785 -0.030959092 -0.10015358
000090 3f 25 a6 3d d6 8e d0 3c af f5 b8 3c 0c a4 fa 3d
       0.08112573 0.025458734 0.022578089 0.12238321
0000a0 27 f2 b8 3c a1 76 8f 3d ae e6 76 bd 28 f5 05 3e
       0.022576405 0.070050485 -0.060278587 0.13081801
0000b0 95 f3 8a 3d 8f 3e d9 3d 15 92 85 bd d8 7b 8d 3d
       0.06784741 0.10607635 -0.065220036 0.06908387
0000c0 a9 32 b7 bd dc 9c 6f 3d f8 f9 d8 3d 7c ab 02 be
       -0.089452095 0.058499202 0.10594553 -0.12760729
0000d0 86 b9 10 be 9f 02 db 3d ad 7f 6d 3c 41 38 08 bd
       -0.14133272 0.10693859 0.014495772 -0.033256773
0000e0 65 00 7e bd 03 44 3f 3e c1 23 a3 3d 18 dd 61 bd
       -0.062012095 0.18678288 0.07965804 -0.055142492
0000f0 e9 d6 44 3d 3e 05 90 bd 73 5a 24 3e 95 67 4e 3d
       0.048056517 -0.0703225 0.16050129 0.050391752
000100 c1 fb a1 3d f0 f8 d6 bc ef 14 34 3e ef a4 b5 ba
       0.07909346 -0.02624175 0.1758611 -0.0013858358
000110 11 2e 32 be 6d d0 5d bc 0e e1 18 3c cd 5e 12 3e
       -0.17400385 -0.013538462 0.009331001 0.14293976
000120 0b 71 04 be 64 d1 18 3e 08 9f 53 3d cb f1 74 3e
       -0.12933747 0.14923626 0.051665336 0.23920362
000130 7f b3 2d 3e 31 63 34 3e 67 05 35 bd c5 86 2e be
       0.16963004 0.17615964 -0.044194605 -0.17043598
000140 a2 3c af bc 28 ec c6 3d d5 a0 75 bc 5d 85 b6 3d
       -0.021391217 0.09713012 -0.014991959 0.08912156
000150 ae 09 04 bc 45 36 0e 3d e8 5c eb bd 07 bc 6f 3b
       -0.008058948 0.034719724 -0.1149233 0.003658058
000160 cd 2d 2c 3d f6 a4 b5 bc 59 16 0b bd 41 4b a5 bd
       0.042035867 -0.022173386 -0.03395686 -0.08070994
000170 ae d8 f6 3c 8e 52 9c 3d c2 70 00 bd 42 ae bd bd
       0.030132618 0.076329336 -0.031357534 -0.09261753
000180 85 ae 44 3c 89 d9 b9 bc 24 ba 0e 3e 64 a3 8a bb
       0.012004499 -0.022686737 0.13938195 -0.0042309035
000190 5d 1b 51 3d 12 89 ec 3d 0e 2e 00 3c c5 fd a2 bd
       0.051051486 0.115495816 0.00782348 -0.07958559
0001a0 2c f8 b8 bd 20 f5 83 ba c5 6f dc 3d 23 56 d9 3c
       -0.0903171 -0.001006756 0.10763506 0.026530331
0001b0 5f 87 2c 3c 9d 07 c9 bd 90 a6 c9 3d a3 8c 09 3d
       0.010530322 -0.09815905 0.098462224 0.033581387
0001c0 53 0a 4e 3d de dd 1b bc af 4f 96 3d 33 ce f6 3d
       0.050302815 -0.0095133465 0.07339417 0.12051048
0001d0 2f ac df 3d 7e 53 b7 bc e3 40 ab bd 40 4c 06 bd
       0.10921513 -0.02237868 -0.083619855 -0.03278756
0001e0 6a 5a 61 bd 39 4f 84 3d 37 92 6b bd cf 57 d9 bb
       -0.055017866 0.06460423 -0.05751249 -0.006632782
0001f0 ea 5a bf bc ec 6e 0d bd 5c 88 c8 3d 17 98 f5 3d
       -0.02335878 -0.03452961 0.097916335 0.119918995
000200 22 1c 37 3e 34 d9 eb 3c aa 7d 45 3d 0a 82 48 be
       0.17881826 0.028790094 0.048215546 -0.19580856
000210 a9 64 e7 3d c2 33 ce bc 19 0b 4c 3d ca 90 c3 bc
       0.11298496 -0.025171164 0.04981527 -0.023872752
000220 3c 43 40 3d 54 b8 b5 3d a1 f5 b0 3c 2b 9f 07 3d
       0.04693912 0.088730484 0.0216015 0.03311078
000230 66 99 b6 bd d6 fd 08 be 86 c3 c3 39 9e e0 9f bd
       -0.08915977 -0.1337808 0.00037338975 -0.07806514
000240 10 a6 b4 bd b5 78 e7 3d ff 7c a7 bc f2 bb c5 bd
       -0.088207364 0.1130232 -0.020445345 -0.09654988
000250 f9 6b 12 3e 59 76 05 3e e7 ec 87 bc 3a 5a eb 3d
       0.14299001 0.13033427 -0.016592456 0.11491819
000260 72 61 0a 3c 66 9d 70 3d 90 f3 98 bb 80 31 c3 3d
       0.008446084 0.058743857 -0.004667707 0.09530926
000270 2a 88 af bd e0 81 55 3c b2 14 82 3a e5 ae 8d bd
       -0.08570893 0.013031453 0.000992438 -0.06918124
000280 15 ad ce 3c db c2 1b be 6f 13 c1 3d 02 b7 23 bd
       0.025229016 -0.1521105 0.09427535 -0.03996945
000290 67 4f 71 bd fe 11 9a 3d b0 9e 87 3d 45 38 80 3d
       -0.058913615 0.07522963 0.06622064 0.062607326
0002a0 a4 53 cf bd 6e 6f 66 be 01 a5 b8 bd b9 6e 30 3e
       -0.10123375 -0.22503445 -0.09015847 0.17229737
0002b0 5e de 88 bc a6 8f 92 3b 68 32 12 3b e9 49 31 3e
       -0.016707595 0.0044726906 0.0022307876 0.1731335
0002c0 ca 07 78 bd 40 8e 41 3d 32 84 5d 3c 24 fb 89 bd
       -0.060554303 0.0472548 0.013520287 -0.067373544
0002d0 f3 df 1a 3d 20 1d 08 bd 1c da 84 3d 59 b9 06 3e
       0.03781123 -0.0332309 0.064869136 0.13156642
0002e0 8a 19 42 3d 82 fe 98 3d 71 3a 63 bd 0a c6 76 3c
       0.047387637 0.074704185 -0.055475656 0.015061865
0002f0 8d ea 69 3c 17 c4 1d bd 7c fb e4 3d 49 c1 a6 bd
       0.014277113 -0.038517084 0.11180779 -0.08142335
000300 5b 3f 0c bd e0 68 cd 3c b5 cb 42 3e fc c1 78 bc
       -0.034240108 0.025074422 0.1902302 -0.015182968
000310 14 f5 96 3b a7 c4 35 3d eb 57 74 bd 26 3c d3 3c
       0.0046068523 0.044376995 -0.059654158 0.025785517
000320 71 cd 52 3d e8 d5 d0 3d a9 64 59 bd 5f 34 3f be
       0.051465455 0.101970494 -0.053074513 -0.18672322
000330 83 5b c6 bd 53 9c 7b 3d 0c d4 ec 3d 99 0d ee 3d
       -0.09685423 0.06142838 0.11563882 0.11623687
000340 c5 16 b1 3a 82 22 19 3e 0a 35 67 bd e7 17 6e bc
       0.0013510814 0.1495457 -0.056447066 -0.014532066
000350 a0 80 1e be a8 7f b7 3c 78 df 40 3d 14 ba 7b 3d
       -0.15478754 0.022399738 0.047088116 0.061456755
000360 8e c7 fe bc 04 4e 3d bd 53 b9 da 3d 7a ed 60 3d
       -0.031101014 -0.04621698 0.10679879 0.054913975
000370 27 c7 d0 3d 54 91 8e 3d 88 33 fd ba 48 f7 d2 bd
       0.10194235 0.06961313 -0.0019317726 -0.103010714
000380 c6 8e ac bd 26 3a d9 bc be b0 25 3d e0 d1 7f 3e
       -0.08425669 -0.026516985 0.040451758 0.24982405
000390 a7 af a3 bd 6b c8 8d bd f2 d5 63 3d 60 7a a5 bc
       -0.079924874 -0.06922992 0.055623956 -0.020199955
0003a0 62 47 a5 3a 02 c2 e5 3c 39 37 a2 3d 88 2d 8e bd
       0.0012609775 0.028046612 0.07920689 -0.06942278
0003b0 a0 2f dc 3c c3 33 00 3e ea 7f 32 bd d6 88 dd 3d
       0.026878178 0.12519746 -0.04357902 0.10817115
0003c0 ab 53 92 3c c9 60 08 be 0b 19 ce 3c 3f 6f 6d bd
       0.017862162 -0.1331817 0.025158426 -0.05796742
0003d0 b7 d5 16 bd fa 8e 1b bd de 22 00 3d 8d 51 57 3e
       -0.036824908 -0.03797815 0.031283252 0.21027203
0003e0 68 5d 6e 3d d1 78 0c 3e 46 aa a2 bd dc bc a1 3d
       0.058194548 0.13717963 -0.07942633 0.0789735
0003f0 c2 61 e5 bd 98 bb 8b bd 9b d7 70 bd f5 15 da 3c
       -0.112002864 -0.0682289 -0.058799367 0.026621798

layer2.bias f4 [128]
000000 52 32 f5 ba 43 d8 0f bc 1e d9 48 3c a1 0e 59 bb
       -0.0018707013 -0.008779588 0.012258796 -0.0033120292
000010 29 f7 c4 ba ee 81 58 bc 9c 5a c3 b9 18 a5 79 bc
       -0.0015027273 -0.013214571 -0.00037260808 -0.015237115
000020 64 f3 54 bc 7b e7 82 3b 89 5a c7 3b a7 60 bb bb
       -0.012997482 0.00399488 0.0060837907 -0.005718309
000030 06 93 4f 3c 67 e4 49 bb f0 f0 54 3d f1 ac 3c bb
       0.01266933 -0.0030806304 0.05198759 -0.0028789605
000040 23 a3 66 bb a0 f5 53 bc e4 f9 1c bc 53 2b 5e bc
       -0.0035192452 -0.0129369795 -0.009581063 -0.013560134
000050 46 ed d9 39 66 2f c7 bb 27 41 a3 39 98 97 53 bb
       0.00041566248 -0.0060786484 0.00031138325 -0.0032286402
000060 7a 0b a3 3b d6 e8 bb bb 13 ce 84 3b d3 fc 65 3d
       0.0049757333 -0.0057345433 0.0040528863 0.056149315
000070 93 41 e3 bb 8a e5 47 bc 55 75 72 bb 3f d9 16 3c
       -0.0069353073 -0.0122007225 -0.0036996205 0.009207069
000080 78 20 15 3b 73 b7 54 bc 0f be 22 bc b3 a7 4d bc
       0.0022754949 -0.012983191 -0.009933009 -0.01255219
000090 b0 0f f5 bb 6d a1 aa bb 6d be b8 3c 96 64 9c 3a
       -0.0074786767 -0.0052072317 0.02255174 0.0011931832
0000a0 37 d0 0a bb 21 4d d4 3b bf 48 85 3c 08 aa e9 3a
       -0.0021181235 0.006478921 0.01627004 0.0017827163
0000b0 1b 20 5a bc c5 42 db 3b 42 5d 1e bc 66 5f 17 bb
       -0.013313319 0.006691309 -0.009665789 -0.0023097633
0000c0 54 04 e2 ba ed 33 b6 ba 40 37 01 bc 49 6f 00 3c
       -0.0017243722 -0.0013900973 -0.007886708 0.007839032
0000d0 01 4b 27 bc 33 eb 7f 3b fa 83 c5 3b c2 b4 47 3c
       -0.010210753 0.0039050102 0.0060276957 0.012189092
0000e0 f3 e1 5c ba 08 05 df bb da 40 94 3c da 03 ee bb
       -0.0008426003 -0.0068060197 0.01809733 -0.0072636427
0000f0 7e 1d 26 3c 59 60 6f ba 99 d1 86 bb 02 3a d5 bb
       0.010138867 -0.00091314834 -0.0041143415 -0.006507159
000100 8a 45 4e 3c 4a 35 87 bb 00 c5 9a 3b 46 bf fb 3a
       0.012589822 -0.0041262256 0.0047231913 0.0019206784
000110 aa 30 29 ba 7e 67 d1 bb b3 01 53 bb 5b 77 6e 3c
       -0.000645409 -0.006390511 -0.0032197058 0.014554824
000120 dc 44 4e ba 2d db 5c bc e6 b7 51 bc 55 9f 36 bc
       -0.0007868537 -0.01347999 -0.012800192 -0.011146386
000130 a6 9d 52 3b 9b e1 c1 ba 21 1f 77 bb 44 9a 25 3a
       0.0032137423 -0.0014791967 -0.0037707763 0.0006317238
000140 ff e4 92 39 7a d1 79 3a 6b ed a6 ba d9 d1 b7 3b
       0.00028017905 0.00095298106 -0.0012735551 0.0056097326
000150 e9 70 b5 ba 10 94 54 bc 92 c9 1f 3d 10 86 0b bc
       -0.0013842854 -0.012974754 0.03901059 -0.00851585
000160 40 5f bb 39 9f 80 27 bc f1 db d2 bb cc b6 b1 3b
       0.00035738386 -0.010223537 -0.0064349105 0.0054234024
000170 a7 85 af 3a 13 71 fb bb 1c fa c5 bb 60 48 88 ba
       0.0013391272 -0.0076733916 -0.0060417783 -0.0010397546
000180 e1 dd 67 ba 9c 33 48 bb 4e 3c 39 bc 29 5d 61 3b
       -0.0008845013 -0.003054834 -0.011305882 0.0034387803
000190 62 31 0f bb db d9 d5 3a fd d8 83 3c 02 ed f7 3a
       -0.0021849503 0.0016315536 0.016094679 0.0018915238
0001a0 12 84 a6 bb 52 9c 46 bc 11 e4 52 bc 7b 81 66 3c
       -0.005081662 -0.012122231 -0.012871758 0.0140689565
0001b0 6e 26 24 bb d2 ee 50 bc 03 01 1e bc c5 0f 2d bc
       -0.002504732 -0.012752252 -0.009643796 -0.010562842
0001c0 4a 38 88 bb 08 0b 33 3a 13 05 9d 3a 38 3c 5e bc
       -0.004157101 0.0006829952 0.0011979662 -0.013564162
0001d0 b5 d7 6f 3c 43 75 ff 3a 97 24 33 bb 52 84 51 bc
       0.014638831 0.0019489903 -0.0027335042 -0.012787895
0001e0 5f 6b 46 bc 19 13 a8 bb 6e 6a 8b 3c 6c c1 f8 bb
       -0.01211056 -0.0051292297 0.017018523 -0.007591417
0001f0 3c 01 b3 bb 09 6c 59 3b 43 3a aa b8 de 7f 89 3c
       -0.0054627936 0.0033175966 -8.117084e-05 0.016784605

layer3.weight f4 [64, 128]
000000 4f 17 8b bd 78 38 d0 3d d4 47 86 bd 2c 0d 59 3e
       -0.06791555 0.101670206 -0.06556669 0.21196431
000010 5b f2 bc 3c fb aa d1 bc 63 9e e8 bd 18 26 95 bd
       0.023064783 -0.025594225 -0.11358335 -0.072826564
000020 eb a4 83 3b d2 fa 84 3d f7 fe bb bd 8e c5 b1 3c
       0.0040174625 0.06493153 -0.0917949 0.021700647
000030 dd 6b 05 be 5e 1b 59 bc ce 35 08 3e 59 f8 59 3d
       -0.13029428 -0.013251154 0.13301775 0.05321536
000040 93 b3 63 3d f1 d2 e9 bd c6 93 0f be 43 6b d5 bc
       0.055591177 -0.11417187 -0.14021215 -0.026052123
000050 46 87 89 bd 97 1b 9d 3d f8 1b a9 3d 92 b7 cc 3d
       -0.067152545 0.07671278 0.08257288 0.09995951
000060 52 2d 3e bd ba f3 8a bd c4 ec cb 3b c0 7e 0c be
       -0.04642994 -0.067847684 0.006223293 -0.13720226
000070 d5 f4 3c 3d 53 6d e8 bd 7b 4f 70 3d 78 93 79 3d
       0.046131928 -0.11348977 0.05866955 0.060931653
000080 1a 0d 1b 3c 56 19 a5 bd e3 c6 30 bd 28 06 9a 3c
       0.009463573 -0.08061473 -0.043158423 0.018801764
000090 9f e3 79 3d 07 4b 19 bc ac 76 0d 3d ae 56 32 bd
       0.061008092 -0.009356267 0.034537002 -0.043539695
0000a0 66 31 85 be a0 bd 6e be 3b 5e bf bd 5c 64 41 be
       -0.2601425 -0.23314524 -0.09344145 -0.1888594
0000b0 97 17 88 bd e5 f2 34 bd cb 7e 74 3d eb 76 b9 3d
       -0.066451244 -0.044176955 0.05969123 0.09055885
0000c0 37 3a 86 bb 73 17 4a 3c 15 4b 1b 3c 73 5e 68 bd
       -0.004096295 0.012334692 0.00947835 -0.0567307
0000d0 30 06 63 bd 72 81 85 bc b9 22 12 bd de 5f 13 be
       -0.055425823 -0.016297076 -0.035677645 -0.14392039
0000e0 43 d3 ea 3b 39 ef dc 3d 8d 52 61 bc fd 99 11 3d
       0.0071662976 0.107878156 -0.013752592 0.035547245
0000f0 e9 f3 53 3c 25 f9 6e 3d 5b 5b 65 3d 37 16 34 3d
       0.012936571 0.05834307 0.055995326 0.0439665
000100 1a bc e9 3c bb d3 62 3d f1 77 9c bd b9 fb c4 3d
       0.028532077 0.055377703 -0.076400645 0.09618325
000110 8c de 41 3d c3 bf 14 be b3 c4 55 bd bf c2 87 3d
       0.047331378 -0.14526276 -0.05218954 0.06628942
000120 ec 09 e1 bd 0a 07 c3 3d 9c 01 b3 bc 22 76 12 be
       -0.109882206 0.09522827 -0.021851353 -0.14302877
000130 51 8d ee 3c 46 7a fc bd 6f 80 32 3e 49 ee db 3c
       0.02912012 -0.12328009 0.17431806 0.026847022
000140 ca 6b 70 bd 9d a5 96 3e 69 a5 04 3d 13 76 8a bb
       -0.058696546 0.29423228 0.03238431 -0.0042255013
000150 4a 79 39 bd 11 93 93 bd 84 c2 42 3d 1d 2d 8f 3d
       -0.045281686 -0.07205785 0.047548786 0.069910266
000160 6c 17 93 bd 5d ee c8 3d 22 33 6d bc d8 55 c6 3d
       -0.07182202 0.09811089 -0.014477523 0.09684342
000170 8b 6a e2 3d 7a 13 75 bd a8 34 71 3d 97 25 2c be
       0.11055478 -0.059833027 0.058888108 -0.16811214
000180 34 d5 69 3d 57 5a 84 3d 96 13 69 3d 6c f4 d8 3d
       0.057088092 0.064625435 0.056903444 0.10593495
000190 0f d4 14 bd a7 cd 94 bd 74 a3 a3 bc 88 86 b6 3d
       -0.036335047 -0.072657876 -0.019975401 0.089123785
0001a0 d4 4b 0d be 0a 71 c2 3d cc d0 be bd 08 37 ab 3c
       -0.13798457 0.09494217 -0.093171686 0.020900264
0001b0 d2 f4 12 bd a7 f9 cc bd 92 11 d7 3d d2 4f 03 3e
       -0.03587801 -0.10008555 0.10501398 0.12823418
0001c0 7a 20 2b 3d 97 ce ab ba 1d 93 46 3d 92 61 80 3d
       0.04177902 -0.0013107833 0.048480142 0.0626861
0001d0 b7 6d 09 3d 96 ff 84 bd 49 ee 3e bc 65 51 0e 3e
       0.033551898 -0.06494062 -0.011653491 0.13898237
0001e0 04 53 8b bd db 8f b5 bc d5 45 fb b8 98 95 eb bd
       -0.06802943 -0.022163322 -0.0001198162 -0.11503142
0001f0 5b 80 e3 bc dd d5 8b 3d 28 30 bd bd ad c8 92 bd
       -0.027771166 0.068279006 -0.09237701 -0.07167182
000200 88 c6 32 bd 39 83 e2 3d 9e 54 64 3d a3 1f 49 3d
       -0.043646365 0.11060185 0.05574476 0.049102437
000210 fe 22 99 3c 75 29 de 3a 5a 67 28 3c cc f3 08 3d
       0.018693443 0.0016949611 0.010278547 0.033435628
000220 73 6a 07 3e f1 05 3f 3d 92 ec 13 3e 2b 4a bc bc
       0.13224201 0.046636526 0.14445713 -0.022984585
000230 b8 47 c5 bc 72 70 6e 3c bd c3 ce bd 42 0c 10 bd
       -0.02408205 0.014553176 -0.10095928 -0.03516794
000240 fb df 3d 3d 41 1e e9 3d bb af 7c 3c 27 b8 1b 3d
       0.046356183 0.113827236 0.015422757 0.03801742
000250 41 61 bc bc 4b e1 d4 3c 49 63 27 be 7e 68 b6 3d
       -0.022995593 0.025986334 -0.16346468 0.08906649
000260 5b db 2e bd 03 5b a2 bd 7e a8 38 3c 9e 1a d9 bc
       -0.042689662 -0.07927515 0.01127064 -0.02650195
000270 f2 59 62 3d a8 95 dd bd f9 6d bd bd 7d db 82 bd
       0.05526156 -0.1081956 -0.09249491 -0.0638952
000280 a4 fe fa bd c2 d9 24 3e 6a e2 0b 3d c5 a3 08 3c
       -0.122556 0.16098693 0.034151472 0.008339827
000290 3f 44 82 bd 21 be 64 be cd 72 0a 3e c0 6b c4 3d
       -0.06360673 -0.22338153 0.13520356 0.09590864
0002a0 33 01 9a 3d f0 25 39 3b 91 4f bd 3c 70 64 8d 3d
       0.0751976 0.0028251372 0.02310923 0.069039226
0002b0 96 97 e7 bd fe 6a 0e bd ad 30 63 bd a2 d1 41 3e
       -0.113082096 -0.034770004 -0.055466343 0.18927625
0002c0 0c 57 e2 bc b9 dd 1a 3e c9 54 ff 3c 48 38 95 bd
       -0.027629398 0.15123643 0.031168358 -0.072861254
0002d0 ff d4 1d 3e 25 c6 a4 bd a6 bd 8c 3c ac ac cd bd
       0.15413283 -0.080456056 0.017180275 -0.100427
0002e0 4a 64 72 3d 98 ca 6a 3d 60 d1 50 be d9 76 df 3c
       0.059177674 0.057322115 -0.2039237 0.02727835
0002f0 21 d9 55 3d 97 16 8c be 72 37 42 bd 9f 1f 06 3d
       0.052209023 -0.27360985 -0.047416158 0.032745
000300 cc ad e3 3d 49 24 d1 3d bc 74 1a 3d c8 37 fd 3c
       0.111171335 0.10211999 0.037708983 0.030910388
000310 8f 38 51 3e e2 37 0b 3e a3 6d 6f bc 5c 72 c1 3d
       0.20431732 0.13595536 -0.014613542 0.094456404
000320 b3 bf 4f 3d 2f 84 6c 3d 02 61 11 3d 7c a2 9a 3c
       0.050719928 0.057743248 0.035492904 0.018876307
000330 a8 7c b1 3d a3 3b 79 3c af 12 46 be 40 da 3d 3d
       0.086663544 0.015211972 -0.19343065 0.046350718
000340 cd cd 98 3d 9f f6 42 3e ee 09 cf 3d 02 dd b7 3a
       0.074611284 0.19039391 0.10109316 0.0014027657
000350 43 29 f3 bc d4 8e 2d bd 88 e4 c9 3c 33 ff 47 3d
       -0.029682761 -0.04237254 0.024645105 0.04882736
000360 da 5c b8 3d b4 95 ac bd 7b 75 41 bd bb 81 e4 bd
       0.09002085 -0.08426991 -0.04723118 -0.111575566
000370 e8 75 48 bd 6f 01 0c be 17 9e b2 3d f2 f6 41 bd
       -0.04894057 -0.13672422 0.087215595 -0.047354646
000380 07 4f 29 3b b2 a3 82 bd 3d b0 ae bd 9e f7 a0 bd
       0.0025834457 -0.06378879 -0.085297085 -0.07859729
000390 ac 0d 0f bd 3f f2 29 bd 59 90 ec 3d 3e 3b 74 3d
       -0.034925148 -0.04149079 0.1155097 0.05962681
0003a0 ff 93 0a be 0b dd 69 3d f6 06 82 bc b7 5f 03 3d
       -0.13533019 0.05709557 -0.01587246 0.032073703
0003b0 15 c7 90 bd f9 5e da 3d 0b 23 ab bd 37 cf 2d bd
       -0.07069222 0.10662646 -0.08356293 -0.042433944
0003c0 76 ba 43 3d 48 07 a1 3d 2b d6 f6 bc 96 ff 03 3e
       0.047785245 0.07862717 -0.03013142 0.12890467
0003d0 00 88 2c 3e 32 08 78 3c b3 8f 48 3e c3 ee 3a 3d
       0.16848755 0.015138673 0.19586067 0.045637857
0003e0 b1 b1 56 bd 3e 8d 3e bd 31 d4 71 bd 4c 43 ab 3c
       -0.052415553 -0.046521418 -0.059040252 0.020906113
0003f0 03 26 5e bd 7a 9d 4e bd 9a 4e de 3d c7 c1 ac ba
       -0.05423547 -0.05044315 0.10854836 -0.0013180309

layer3.bias f4 [64]
000000 02 d6 83 bb 30 31 b7 bb e9 6c af ba 24 0c 2c 3c
       -0.0040233145 -0.0055905804 -0.0013383898 0.010500941
000010 09 7d cf b9 36 4e 84 3d 9e f9 28 bb 7a c1 c1 3b
       -0.00039575275 0.0646023 -0.002578355 0.005912957
000020 29 df 61 3c 43 fc 90 3a f4 55 31 3b 9b 30 9d b7
       0.013786116 0.0011061508 0.0027059289 -1.8738492e-05
000030 1a ac 26 3b a5 88 00 bc e1 53 6e bb c7 16 66 bb
       0.002543217 -0.007845079 -0.0036365914 -0.0035108791
000040 7e 45 15 bb bc c8 2e 3d 06 77 c3 3b 5e 21 b0 3b
       -0.0022777016 0.042671904 0.0059651164 0.0053750714
000050 66 29 fa 3a 79 0b b8 3c 3b 15 62 3c 8c b0 cd bb
       0.0019085824 0.022466408 0.013799007 -0.0062771495
000060 89 ca 29 3c ea 26 f3 3a cf 9f 67 3c 70 77 03 39
       0.01036323 0.0018551026 0.014137222 0.00012537627
000070 6b 12 36 bc ed e6 a7 3c 8e 4d 18 3b 00 f2 7c 3a
       -0.01111279 0.020495856 0.0023239586 0.0009649098
000080 34 d2 a6 3d b0 bf e5 bb e3 dc 18 ba 89 dc 6e 3d
       0.08145562 -0.0070113763 -0.00058312545 0.058315787
000090 f9 6e 38 3b 9e a3 9a 3b cd b1 fa 3c 74 c7 57 bc
       0.0028142317 0.0047192117 0.03060236 -0.013170112
0000a0 3f da 24 3c 53 9a a0 b9 e2 b4 69 3b b6 0c e4 bb
       0.0100618 -0.0003063256 0.0035660793 -0.006959523
0000b0 d0 b5 0a 3c 54 87 bc 3b 34 57 a0 bb 75 a6 03 bb
       0.008466199 0.005753437 -0.004893208 -0.002008823
0000c0 c0 3f 99 3c ea d8 6f 3b 04 13 1d 3c 26 c9 eb 3b
       0.018707156 0.0036597797 0.009587053 0.0071956096
0000d0 56 58 d5 bb 15 e0 e1 bb 44 9d 44 3b 0e 48 36 bc
       -0.0065107746 -0.0068931677 0.0030000964 -0.011125578
0000e0 7a 8a 5f 39 44 45 43 3c d9 84 69 3a f1 35 4c 3d
       0.00021318524 0.01191837 0.00089080405 0.04985613
0000f0 e3 16 0e bb 88 07 35 bb ee 2f cb 3b 49 55 b1 bb
       -0.0021681122 -0.0027622897 0.006200782 -0.005411778

layer4.weight f4 [9, 64]
000000 49 82 dc 3d 9c d1 6b bc 35 31 1c be 43 07 13 3c
       0.107670374 -0.0143932365 -0.15253146 0.008973899
000010 4f 42 14 3e fd 1d af 3e d1 fe 22 be 0f df 21 be
       0.1447842 0.34202567 -0.15917517 -0.15807746
000020 3b 01 fd bd d5 45 b4 bd ac bf 5c 3e dc 30 10 3e
       -0.1235375 -0.08802382 0.21557492 0.14081138
000030 14 74 17 be 23 14 6f be 21 56 e9 bd c3 aa 99 3d
       -0.14790374 -0.23347525 -0.11393381 0.07503273
000040 08 ee 80 3e 38 14 8b 3c 61 85 af 3c 9e 3f 63 3e
       0.25181603 0.016977414 0.021425905 0.22192237
000050 1b 77 87 3d 34 b1 d2 3b 10 94 ae bd 6f 0b 09 bd
       0.066145144 0.0064298157 -0.085243344 -0.03345817
000060 1d dc f8 bd 42 40 97 bd 48 dd 81 3e 4e a5 d0 3d
       -0.12151358 -0.07385303 0.25364137 0.10187779
000070 9e b0 1d be e9 5a bf 3e 07 74 94 3d 86 4a d6 b9
       -0.15399405 0.37374046 0.07248693 -0.00040872785
000080 88 23 58 3e 54 40 25 3e cc fd f1 bb 49 37 88 3e
       0.21107304 0.1613782 -0.0073849913 0.2660468
000090 54 83 14 3e 5c 70 6f 3e d2 b3 6c 3d 8b 72 01 3c
       0.14503223 0.23382705 0.057788678 0.007900844
0000a0 a2 7a a8 bd 67 f2 13 bc bc 35 0d be 0f a5 4d 3e
       -0.08226515 -0.009029961 -0.1379003 0.20082496
0000b0 76 26 b3 bd 17 1f 1e 3e f5 48 43 3e 2b 6d ab 3d
       -0.0874757 0.15441547 0.190708 0.083704315
0000c0 b3 23 95 3d 4e ef 9a bd 01 a4 5d 3e 7c 47 95 bd
       0.072822 -0.07565175 0.21644594 -0.07289025
0000d0 a8 c6 02 be 5f 6d 2a 3d 3a ba 0e 3d 4f df 87 3d
       -0.12771094 0.04160821 0.03484557 0.066343896
0000e0 0b ac 4c be 38 74 48 3d 90 45 a5 bd 77 d6 67 3e
       -0.19987504 0.04893896 -0.080699086 0.22640406
0000f0 00 2c 3a bc 33 2a 33 be 26 84 ce bd 64 4d 72 3d
       -0.0113630295 -0.17496566 -0.10083799 0.059155837
000100 0c 6b 4f be b2 aa 29 3c c6 6d 06 be b1 3d 60 bd
       -0.20255679 0.010355638 -0.13127813 -0.054746334
000110 1b c7 09 3e d5 b3 61 be 70 cc 4b 3d 68 16 be bb
       0.13454859 -0.22041257 0.049755514 -0.005801011
000120 ce 71 5e be 9f 8e d2 bd c2 94 8e 3e 48 b0 a4 3c
       -0.217231 -0.10281109 0.27847868 0.020103589
000130 4f cd 1a 3e bb 4a 55 bc 2c 88 87 3e ff 70 49 be
       0.15117382 -0.013018305 0.26471078 -0.19672011
000140 2f d8 60 3e 22 76 09 be 22 60 cd 3d 2d c4 54 3d
       0.21957467 -0.1342397 0.100281015 0.0519449
000150 ff 22 8e 3e 96 fa 5d ba 88 ee f8 bd 0c 7a 9c 3d
       0.27761075 -0.0008467821 -0.12154871 0.07640466
000160 6f b9 e6 bd b6 c1 4f 3e f7 60 99 bd 6c b1 44 be
       -0.112658374 0.20288739 -0.07489198 -0.19208306
000170 9d f0 06 3d 59 e1 87 be 80 60 05 3e 4f 15 52 bd
       0.03294431 -0.26539114 0.13025093 -0.051289853
000180 64 9d f3 be 44 9e 0d 3b 49 eb 60 3d a8 69 83 be
       -0.47581017 0.0021609226 0.054911885 -0.25666547
000190 15 df 86 bd 79 22 50 3e 3f ce 02 bd f5 a8 41 3d
       -0.06585518 0.2032565 -0.031934973 0.04728027
0001a0 9c 49 d6 bd c8 57 38 bd 0c 18 df 3d f3 65 c5 3d
       -0.104632586 -0.04500559 0.108932585 0.09638586
0001b0 07 db 2a 3d 27 d5 ba 3c 8b 5a 78 bd 9c 58 85 bd
       0.041712787 0.022806717 -0.060633224 -0.065110415
0001c0 48 50 43 be 8c ad 45 3e e6 ba 25 bd a0 49 99 3c
       -0.19073594 0.19304484 -0.040461443 0.018711865
0001d0 82 b2 c1 3d 44 c8 f2 3d 18 42 8e bd e9 4c 60 3c
       0.09457876 0.11854604 -0.069462 0.013690212
0001e0 7a 5d ef 39 8c 27 6e bc 95 18 af bd 0f 2b 05 be
       0.00045655278 -0.014535796 -0.085496105 -0.13004707
0001f0 02 f4 83 3d 6e 65 f1 3d fa c1 6e be 69 09 0a be
       0.06443025 0.11786924 -0.23316184 -0.13480152
000200 48 0e 27 3c bd 03 19 3d 9d 44 42 be 44 ee d1 3d
       0.010196276 0.03735708 -0.18971486 0.10250524
000210 1e b8 e1 bd 33 b4 93 3e 94 ef a0 bd 6b 64 bb bd
       -0.11021446 0.2884842 -0.07858196 -0.091500126
000220 69 1e ad 3c 4a 16 d7 bd 42 aa 9d bd 2d 32 2e bd
       0.021132665 -0.10502298 -0.0769849 -0.04252832
000230 28 da 06 3e de 6c 3b 3d e3 6d 71 be f5 b0 9b bd
       0.13169158 0.04575812 -0.23577075 -0.07602111
000240 5a 9e b6 3b 5a ed c2 3d 60 1c f9 bd c7 e3 49 bd
       0.005573076 0.095179275 -0.12163615 -0.04928949
000250 cb 8c dd 3d 42 19 59 3c 60 f7 07 be 6d 70 7c 3e
       0.1081787 0.013250651 -0.1327796 0.24652262
000260 2a 0b 90 be 7a 32 0f bd 6f 66 ad bd 7a 60 38 3c
       -0.28133518 -0.034960248 -0.08466803 0.011253471
000270 87 e0 19 3e ca f1 b6 bc ce a3 fc 3c af 99 55 3e
       0.15027057 -0.02233209 0.030839827 0.20859407
000280 87 5f 37 3e c9 f5 4c be c2 4b 28 3e c8 7e 0d 3e
       0.17907535 -0.20015635 0.1643515 0.13817894
000290 e2 b2 7d 3e 7e c3 45 3b 84 54 0e be 39 d8 6c 3e
       0.2477527 0.0030176337 -0.13899428 0.23129357
0002a0 27 a6 e2 3d 91 e1 9a 3e 4d e7 49 3e ba 15 e0 bd
       0.11066847 0.3025022 0.1971714 -0.10941644
0002b0 fb d2 4b bd 65 fb c5 3d f3 7e cd bc 29 28 96 bc
       -0.049761754 0.0966709 -0.025084948 -0.018329697
0002c0 43 32 ab 3c de ba 8a 3d bc 36 6e be cd fc 8c 3b
       0.02089799 0.06773923 -0.23263067 0.004302597
0002d0 8f 56 f7 3d 27 d3 73 bd c9 4c bc 3c b6 20 e6 3d
       0.120770566 -0.059527542 0.022985833 0.11236708
0002e0 3a f8 6a be 25 c5 64 bd 6c 3a 9b 3e 67 27 24 3e
       -0.22946253 -0.055852074 0.3031801 0.16030656
0002f0 f3 4f db bc b6 4e 3c bd 30 76 3c bd e2 95 01 3d
       -0.026771521 -0.045973502 -0.04601115 0.03163708
000300 dd 05 ba bb 63 95 ca bd ee 1a 03 be 53 e2 41 3d
       -0.0056769685 -0.098917745 -0.12803242 0.04733498
000310 6e b6 ad bd 94 1f 11 3e da f3 77 3e e4 1d 55 3a
       -0.08482061 0.14172202 0.24214116 0.0008129759
000320 99 db d9 3d 0a b0 fd 3c 1f 45 b9 3e 62 7b 7c 3d
       0.10637588 0.030967731 0.36185548 0.061641105
000330 cc 5e eb bc c7 68 27 be b4 7b 5e be fd 59 0f 3d
       -0.028731726 -0.16348563 -0.21726876 0.03499793
000340 49 f0 fe 3d 6d 91 e8 3d e5 13 86 3d bd 62 37 3d
       0.124481745 0.11355863 0.06546763 0.0447719
000350 f9 bd 66 3c 98 e2 81 3e 87 af 48 3e b4 a6 1d 3e
       0.014083379 0.2536819 0.19598208 0.15395623
000360 3b 0b 4d 3e 67 1f 05 bd 1b 28 09 3c 39 cd f7 bc
       0.20023815 -0.03250065 0.008371378 -0.030249225
000370 49 3a c2 bd b7 74 ef bd 6e 39 cf bc 77 92 99 bd
       -0.09483773 -0.116921835 -0.02529594 -0.07498639
000380 1c 82 d6 3e 8e 06 e2 bd 6f 4c fb 3d 0c b3 7e 3e
       0.4189614 -0.110364065 0.12270438 0.24872988
000390 85 cf 7a 3d 87 ca e6 bd d3 c1 26 3e fe 18 0d be
       0.061233062 -0.11269098 0.16284876 -0.13779065
0003a0 c0 e6 88 bd cb db 1b 3e ee 6f 37 3e 35 8c d5 3c
       -0.06684637 0.15220563 0.17913792 0.026067832
0003b0 a8 ef a7 bd 71 ad 41 be 8e 30 d9 3a a6 2d ac 3d
       -0.08200008 -0.18913819 0.0016570257 0.08407144
0003c0 e6 f8 3d 3e c4 74 3d bd 2f 89 bd 3d 65 d4 2a bd
       0.18551978 -0.046253935 0.09254681 -0.04170646
0003d0 8a f4 d5 bd 0e 3f 37 be 4b d7 82 3e e6 38 79 bd
       -0.10447033 -0.17895147 0.2555488 -0.06084528
0003e0 d5 da af 3d 8a 55 8e 3e d5 6e 20 3d 79 39 0b 3d
       0.08586661 0.27799636 0.039168198 0.033990357
0003f0 94 d8 d1 3d d1 83 95 3e 21 45 81 3b ad 3a 4f 3c
       0.10246387 0.2920213 0.0039450084 0.012648267

layer4.bias f4 [9]
000000 01 dd 0d bc b6 6f 31 bc 15 d5 83 bc 2b 01 68 3c
       -0.0086586485 -0.010829857 -0.016092816 0.014160435
000010 6c 6c 89 bc 51 26 cc 3b c6 84 27 bc 45 ad c8 bb
       -0.016775332 0.0062301536 -0.010224527 -0.006124171
000020 cd e3 fc 3a
       0.0019293964

layer_norm1.weight f4 [128]
000000 ce 77 80 3f de e3 7e 3f 74 b3 80 3f bb 98 7b 3f
       1.0036561 0.9956645 1.0054765 0.98279923
000010 00 00 80 3f b6 e9 80 3f b7 eb 7f 3f 83 a2 7e 3f
       1.0 1.0071323 0.9996905 0.99466723
000020 1d 23 81 3f 70 99 7e 3f 91 3c 7c 3f d9 02 7f 3f
       1.0088841 0.9945288 0.98529917 0.9961372
000030 72 2f 81 3f 95 25 82 3f 1a 71 80 3f 23 54 85 3f
       1.0092604 1.0167719 1.0034516 1.0416301
000040 cb 74 7f 3f a9 24 82 3f 2f a3 7d 3f 99 06 7f 3f
       0.99787587 1.0167438 0.99077123 0.9961944
000050 d3 a3 7e 3f 00 00 80 3f 45 71 7d 3f 8d b2 7d 3f
       0.99468726 1.0 0.9900096 0.9910057
000060 86 7d 81 3f 8f 9c 7d 3f b7 ea 7f 3f 91 b8 7f 3f
       1.0116432 0.99067014 0.9996752 0.99891
000070 fa c5 7f 3f 0c fa 82 3f 05 a8 7f 3f bd c9 7d 3f
       0.99911463 1.0232558 0.9986575 0.99135953
000080 13 e7 7e 3f 35 e9 81 3f 67 af 7d 3f ed ed 80 3f
       0.9957134 1.0149294 0.9909577 1.0072609
000090 00 00 80 3f 80 bd 7e 3f 77 1e 7e 3f cf 56 7d 3f
       1.0 0.99507904 0.99265236 0.98960584
0000a0 fa 47 7e 3f 9b 41 83 3f a4 a1 7e 3f f4 0e 80 3f
       0.9932858 1.0254396 0.99465394 1.0004563
0000b0 8b 75 7e 3f 79 76 80 3f 39 30 7d 3f b7 8e 7c 3f
       0.99398106 1.0036155 0.98901707 0.98655266
0000c0 be 83 7e 3f 31 1c 87 3f 0f b6 83 3f 1c 9f 84 3f
       0.9941977 1.0555478 1.0289935 1.0361056
0000d0 44 3f 7f 3f 40 b0 7f 3f 91 65 80 3f 00 00 80 3f
       0.9970591 0.9987831 1.0030996 1.0
0000e0 39 c9 80 3f 00 9c 7e 3f aa dd 7e 3f c2 a5 7f 3f
       1.0061408 0.9945679 0.9955698 0.998623
0000f0 8f 64 81 3f 99 d2 80 3f e0 4b 80 3f 08 bb 7e 3f
       1.0108813 1.0064269 1.0023155 0.9950414
000100 65 9b 7d 3f ef 61 80 3f 4f 57 80 3f d1 19 80 3f
       0.9906524 1.0029887 1.0026644 1.0007879
000110 00 00 80 3f e3 9e 7e 3f a6 44 81 3f 57 54 7f 3f
       1.0 0.9946119 1.0099075 0.9973807
000120 85 9a 82 3f 3a c6 7e 3f bb 23 81 3f bb 2f 81 3f
       1.0203406 0.9952122 1.0089029 1.0092691
000130 d9 53 7f 3f ed d1 80 3f a4 0b 7e 3f e7 ac 7d 3f
       0.99737316 1.0064064 0.9923651 0.99091953
000140 d5 22 80 3f e8 af 80 3f 4e e6 7e 3f ba c1 80 3f
       1.001063 1.0053682 0.9957017 1.0059121
000150 93 16 84 3f ec 96 80 3f 86 73 83 3f 22 08 80 3f
       1.0319389 1.0046058 1.026963 1.0002482
000160 00 00 80 3f a8 ed 7d 3f b4 4f 7f 3f 1b 0d 80 3f
       1.0 0.9919076 0.9973099 1.0004
000170 ca 88 7e 3f a3 eb 7c 3f 1c 01 7f 3f 00 00 80 3f
       0.99427474 0.98797053 0.9961107 1.0
000180 f3 49 80 3f 00 00 80 3f 00 00 80 3f 1c 43 7e 3f
       1.0022568 1.0 1.0 0.9932115
000190 63 33 7f 3f ba 16 81 3f b4 48 81 3f 36 54 80 3f
       0.99687785 1.0085061 1.0100312 1.0025699
0001a0 a8 60 80 3f cd 27 7e 3f e7 6a 7e 3f 77 08 80 3f
       1.0029497 0.9927948 0.9938187 1.0002583
0001b0 50 a1 7e 3f 8d 7d 7d 3f cb 96 84 3f 80 ab 81 3f
       0.99464893 0.990197 1.0358518 1.0130463
0001c0 4b 05 7e 3f 77 fa 7f 3f 09 e1 80 3f eb 06 80 3f
       0.99226826 0.99991554 1.0068675 1.0002111
0001d0 58 df 7e 3f 72 22 7d 3f 87 0e 7f 3f 80 e7 7f 3f
       0.99559546 0.98880684 0.9963154 0.99962616
0001e0 3c ed 80 3f 19 50 82 3f 74 73 88 3f cd c3 80 3f
       1.0072398 1.0180694 1.0660233 1.0059754
0001f0 b3 76 7f 3f 57 18 7f 3f 2a 04 7d 3f a1 28 80 3f
       0.99790496 0.99646515 0.9883448 1.0012399

layer_norm1.bias f4 [128]
000000 3d 27 d1 3b b9 35 ac bb fe a9 94 3b 4d c3 ba bb
       0.0063828514 -0.0052554277 0.004536866 -0.005699551
000010 00 00 00 00 de 2b ce 3b 62 e1 b1 ba 07 c1 43 bb
       0.0 0.0062918505 -0.0013571198 -0.0029869692
000020 bc 25 f0 3b aa 2b 96 b9 47 da 97 bc bd 98 09 bb
       0.007328717 -0.00028642762 -0.0185367 -0.002099558
000030 5f 0e 25 3c 94 19 a4 3c ca 5b 25 3c 02 10 0a 3d
       0.010074227 0.020031728 0.010092685 0.033706672
000040 54 38 a7 ba e0 2f 52 3c 9b 55 b3 bb b5 b2 ef bb
       -0.0012757876 0.012828797 -0.0054728515 -0.0073150047
000050 b8 ed b8 bb 00 00 00 00 4f 4d 0f bc f6 c9 96 bb
       -0.0056435727 0.0 -0.008746459 -0.0046017123
000060 2e 23 58 3c 84 d3 4c bc b8 54 51 bb b2 ba b7 ba
       0.013191981 -0.012501601 -0.0031941365 -0.0014017432
000070 c1 f7 89 3b a5 fd 8c 3c 11 a2 1d ba 3d 47 c5 bb
       0.004210443 0.01721079 -0.00060132245 -0.006020455
000080 ee 4d b8 ba 45 00 56 3c 13 03 2e bb 05 3b 8d 3b
       -0.0014061311 0.013061588 -0.0026552125 0.004310014
000090 00 00 00 00 fe 6d c1 ba f3 01 79 bb 24 da cd bb
       0.0 -0.0014757512 -0.0037995547 -0.006282108
0000a0 77 67 7e bb 78 2a 97 3c 91 3f d0 ba 2b fd 97 3b
       -0.0038818994 0.018452868 -0.0015888085 0.0046383343
0000b0 fd 99 0c bc a7 74 71 39 3c d3 82 bc 85 b7 b0 bb
       -0.008581636 0.00023027007 -0.015969865 -0.005392971
0000c0 15 27 ba bb c2 fc ee 3c 47 8e 8c 3c b5 15 af 3c
       -0.0056809285 0.029173259 0.017157687 0.021372655
0000d0 b7 c0 96 bb b2 3e 82 b9 8b 8d fc 3b 00 00 00 00
       -0.00460061 -0.00024842244 0.007707303 0.0
0000e0 fb 83 dd 3b f0 80 2c bb c7 bf 92 bb 46 46 8c bb
       0.006760118 -0.002632197 -0.004478428 -0.004280838
0000f0 31 fe 5e 3c 6e ed 37 bb 7b 39 1b 3b e1 bd a2 bb
       0.013610409 -0.0028065103 0.0023685384 -0.004966483
000100 37 86 d4 bb 6e b3 02 3b d7 db c2 3b 0d 5f ec 3a
       -0.006485726 0.0019943374 0.005946617 0.0018033698
000110 00 00 00 00 a0 18 70 bb ec 71 41 3c 03 95 03 bc
       0.0 -0.0036635771 0.011806946 -0.008031133
000120 c6 4b bd 3c a5 b6 84 bb 02 cf 02 3c dc db 16 3c
       0.02310742 -0.0040500932 0.007983925 0.009207692
000130 60 74 b9 ba 92 ce d3 3b 1f 32 5a bb a0 73 a7 bb
       -0.0014149062 0.006463834 -0.0033294035 -0.005110219
000140 c4 79 ae 3b 7b 97 fe 3b 0f c9 66 3b 90 fa f9 3a
       0.005324574 0.0077695227 0.0035215055 0.0019071866
000150 9b 48 91 3c 4e d8 48 3b ae 5c 8e 3c 27 02 90 3b
       0.017734816 0.0030646506 0.017378177 0.004394788
000160 00 00 00 00 8c 03 8a bb 79 91 84 3a bd 4a e4 3a
       0.0 -0.0042118486 0.0010114155 0.0017417293
000170 9c 70 5a 3b 0f d6 3d bc 46 d3 e2 ba 00 00 00 00
       0.003333128 -0.01158668 -0.0017305396 0.0
000180 47 4e 28 ba 00 00 00 00 00 00 00 00 f5 1a 0a bc
       -0.00064203556 0.0 0.0 -0.008429279
000190 36 2f 2c bb 14 e1 b1 3b 3a bd 89 3c f1 11 a3 3b
       -0.0026273257 0.0054284427 0.016813863 0.004976504
0001a0 b7 93 dd bb d3 85 66 bc f3 48 72 bb ba fb 87 39
       -0.0067619937 -0.014069992 -0.003696975 0.00025936757
0001b0 aa 15 94 bb 53 55 2f bc 61 5a d6 3c 10 28 08 3c
       -0.004519184 -0.010701495 0.026166143 0.008310333
0001c0 c8 9a 0b bc 92 9f 31 ba 13 03 a8 3b 94 b2 90 3a
       -0.008520789 -0.0006775792 0.0051273196 0.0011039549
0001d0 7b 5a 54 ba 78 90 24 bc a8 0b 29 bb 93 b3 d6 b9
       -0.0008100641 -0.01004421 -0.0025794301 -0.00040951054
0001e0 dc 0f 22 3c 97 d1 91 3c 9e a1 c6 3c 39 5b 0f 3c
       0.0098914765 0.017800136 0.024246987 0.0087497765
0001f0 09 f6 8e b8 28 76 38 bb 51 7d 28 bc ec 57 25 bc
       -6.816915e-05 -0.0028146598 -0.010283784 -0.010091763

layer_norm2.weight f4 [128]
000000 cb eb 7e 3f 7f 6a 7d 3f f0 94 82 3f 16 8a 7f 3f
       0.9957854 0.98990625 1.0201702 0.9982008
000010 eb c0 7e 3f 00 00 80 3f 33 98 7e 3f 75 d3 7e 3f
       0.9951312 1.0 0.9945099 0.9954141
000020 00 00 80 3f f8 39 81 3f 68 54 81 3f 53 5b 7d 3f
       1.0 1.0095816 1.0103884 0.98967475
000030 91 26 82 3f 46 0e 7f 3f ca 37 8d 3f 20 c3 7e 3f
       1.016802 0.99631155 1.103265 0.9951649
000040 90 fe 7f 3f 00 00 80 3f b0 ca 7f 3f 11 f4 7d 3f
       0.99997807 1.0 0.9991865 0.9920054
000050 a1 4f 80 3f c2 c7 7e 3f 32 b6 7f 3f cd e6 7f 3f
       1.0024301 0.99523556 0.99887383 0.9996155
000060 51 4e 82 3f cf 02 7e 3f ea 82 80 3f b5 f7 92 3f
       1.018015 0.99223036 1.0039952 1.1481844
000070 1b ad 7d 3f b4 e6 7f 3f ce 8b 7f 3f ac 37 80 3f
       0.99092263 0.999614 0.998227 1.001699
000080 1e 2b 80 3f 54 e9 7f 3f e4 a1 7f 3f 7b ec 7f 3f
       1.0013158 0.99965405 0.998564 0.99970216
000090 b0 7c 7e 3f b4 bd 7f 3f 97 70 82 3f 49 c4 7e 3f
       0.9940901 0.9989884 1.019061 0.9951826
0000a0 52 af 7f 3f 1d 46 81 3f 7a 28 83 3f d6 64 80 3f
       0.9987689 1.0099522 1.0246727 1.0030773
0000b0 00 00 80 3f 4e 52 84 3f e6 0d 80 3f e2 81 7f 3f
       1.0 1.0337617 1.0004241 0.9980756
0000c0 bf de 7f 3f 48 9d 7f 3f 8f 4b 7e 3f 5c 58 80 3f
       0.9994926 0.9984937 0.99334043 1.0026965
0000d0 24 cd 7f 3f f2 aa 80 3f 24 9e 80 3f bf a5 81 3f
       0.99922395 1.0052168 1.0048261 1.0128707
0000e0 68 03 80 3f cb 39 7e 3f 26 15 83 3f 9b cd 7f 3f
       1.000104 0.99306935 1.0240829 0.99923104
0000f0 93 94 83 3f 94 15 80 3f 00 cb 7e 3f b2 49 7f 3f
       1.0279716 1.0006585 0.99528503 0.99721825
000100 0a 67 81 3f e3 e5 7e 3f f6 5e 81 3f e1 6e 81 3f
       1.010957 0.9956953 1.0107105 1.0111963
000110 c5 7f 7f 3f 1e ee 7e 3f e3 21 80 3f de 47 81 3f
       0.99804336 0.9958209 1.0010341 1.0100057
000120 55 09 7f 3f 00 00 80 3f ed ed 7f 3f 19 53 7e 3f
       0.99623615 1.0 0.9997242 0.99345547
000130 47 08 80 3f d4 8a 80 3f bb eb 7e 3f 28 ff 7f 3f
       1.0002526 1.0042367 0.99578446 0.9999871
000140 70 6d 7f 3f bb 7b 7e 3f 99 b3 7e 3f 3f 4d 81 3f
       0.99776363 0.9940755 0.99492794 1.0101699
000150 a3 f4 7e 3f 65 01 80 3f ca e1 8a 3f 5f e4 7e 3f
       0.99592036 1.0000426 1.0850155 0.99567217
000160 84 1d 81 3f f7 1a 7e 3f 79 ed 7f 3f b5 1b 81 3f
       1.0087132 0.99259895 0.9997173 1.008658
000170 1c af 7f 3f e8 50 7e 3f bf fe 7e 3f 63 40 7f 3f
       0.9987657 0.99342203 0.9960746 0.9970762
000180 0e 91 7f 3f b6 3a 7f 3f 83 79 7d 3f 36 02 81 3f
       0.9983071 0.9969896 0.9901354 1.00788
000190 91 11 80 3f dc 1b 80 3f 48 8b 8a 3f 7f ed 7f 3f
       1.0005361 1.0008502 1.0823755 0.99971765
0001a0 4f 8e 7f 3f 91 4e 7d 3f 00 00 80 3f 75 21 80 3f
       0.9982652 0.9894801 1.0 1.001021
0001b0 30 ac 7e 3f 00 00 80 3f cc 0b 7e 3f a6 f7 7e 3f
       0.9948149 1.0 0.9923675 0.9959663
0001c0 21 99 7f 3f 59 51 7e 3f 8c b0 7f 3f 00 00 80 3f
       0.9984303 0.99342877 0.99878764 1.0
0001d0 c9 10 83 3f 5a a0 81 3f 07 72 7f 3f 80 c7 7f 3f
       1.0239497 1.012706 0.99783367 0.9991379
0001e0 56 22 80 3f 69 9a 7f 3f ca 48 82 3f ff 0b 7f 3f
       1.0010478 0.99844986 1.0178463 0.9962768
0001f0 37 eb 7f 3f 2e ab 80 3f ec 57 80 3f 74 f6 83 3f
       0.99968284 1.005224 1.0026832 1.0309587
