rl_energy_manager_20250326_0759/models/checkpoint_200/critic.pth (torch, 239522 bytes, 26 tensors)

q1_layer1.weight f4 [128, 27]
00000000: 64f8 98be ba8d e2bd 1090 43be 3dbc 9abe
00000010: 217d 03be 3d56 6bbe 8032 93bd f045 05be
00000020: afd7 12be 4c74 c5bc 281b 983d 4fc1 e4b9
00000030: 43aa 133e 8ca3 55be 329c 3d3d 7569 b3bd
00000040: aee6 163e bcb9 4bbe 004a e93c 847f 24bd
00000050: 6982 4e3d 6cde 29bd e29d 1a3e 79ef 363d
00000060: 2dc2 74bc 27d2 cc3c 2692 98bc 8b1e 8f3d
00000070: 5b08 993b f77e 083e ec4c 20bd 9597 133b
00000080: 83fa 923d de90 f43c ab36 3a3e e682 553d
00000090: ce25 4dbe b1f1 863c 8d30 bb3d 0060 8dbd
000000a0: bc72 1abc 09b2 15bd e375 ab3c 5859 18be
000000b0: 5843 87bd dfa2 d23d 9615 3e3d 63f4 b9bd
000000c0: 45c2 153d 36a4 a4bb 489f 213d 8ebf 8f3c
000000d0: 42f3 213d f3b8 d4ba 0cc3 583d 0ee0 d23d
000000e0: e10b 233e e417 163e c302 db3d 2493 0d3e
000000f0: 8bd7 223c 7622 503e 57a5 94bb a497 1d3d
00000100: c1c0 5abd 387c 153d a61a cf3c 18e7 a23d
00000110: dd5c 6b3d 35d6 1fbe 660d aabd dad7 853d
00000120: 4532 d93d ec93 9c3d 454b cebc 9df7 4b3d
00000130: 3ee2 84bd d270 0cbd f3a8 c23c 0c4d ddbc
00000140: 2b0c 04bd 5321 a6be 70c2 19be 4871 bbbe
00000150: f253 dfbe be9b 79be e4cc 32be 407b 6fbe
00000160: d9ad 1ebe 6226 98be 620f b03d 13ce ae3d
00000170: 4d1d 2f3e d506 1b3e 7818 8dbd a664 9dbd
00000180: d7be 48bc 1263 193c 7521 dbbd 0169 d4bd
00000190: 5d37 263d 7b31 a53d d0e4 e0bd 1dc9 083e
000001a0: 41ad 30bc 58a5 d5bd 81dd 803d a2ee 553d
000001b0: 135f 263d 77fb d53c b5b5 ce3c 274c b93c
000001c0: 4c25 f13d e25c a53d a2be f63d 967c c43c
000001d0: 600a 583a ecfb 65be e221 62bc 3493 4e3d
000001e0: 1fc6 eabd 8e48 8c3c 4fb6 7bbd a3b4 963a
000001f0: 6f8b b03c 9fbd 2f3e 47e1 df3d 92c5 713d
00000200: f904 233d 8681 97bd 7951 fdbd 41a9 cc3d
00000210: 2929 a1bd 1bf3 ec3d 6abb bcbd ffa2 b83c
00000220: fec1 a43c f2bc b8bd 951f a9bc a861 6ebd
00000230: 51af 283e d103 0d3d 9cb8 a43d 0976 93bc
00000240: 21ce bcbc 0f79 2dbd e59b b6bc 4ae4 23bc
00000250: 2c66 2c3e ecde 893c 65d0 77bd 5871 b6bd
00000260: 3f4e f23d 7cde a43d fa4c 033d fadd 683b
00000270: 7e98 cabc 8d2f 38bc 124f 213d e732 7dbb
00000280: 22cd 483d f450 90bd 8ca4 bcbe 13af 92be
00000290: 0ebe bfbd 8f0e afbe 432b 73be 2b83 09be
000002a0: f7e6 88be 56f4 92be 954f 24be 1d2a 39ba
000002b0: 3690 593d 4366 223e c2ac 783e 8473 21be
000002c0: 1476 0cbe 31b4 0dbe b75b c63c bc76 cdbd
000002d0: f3d3 e6bc 0586 d73d 7969 cdbd b0ac 03bd
000002e0: d8f3 15bc 8b7e a63d 3ddc 24bd dfb5 d8bd
000002f0: e467 063d f40c 92be 1570 50bd 2ffa 55be
00000300: 73e5 88be c0be 92be e54d 8abe 82d4 1ebd
00000310: 72e2 49be 1f70 62be 622d e8bc ce95 8f3d
00000320: e903 cf3c 4bfc 01be 0f52 aabd a0ff 89bd
00000330: ec9d f5bb 2091 0bbe 776c 2bbe cc34 12be
00000340: eed6 1ebc 7b57 f9bd 946c b73c 70fe 833d
00000350: 87e2 d2bc 8380 3b3d 899e 29bd 17c7 dc3d
00000360: d60d 6fbd 9a3d 36be 2983 98bd 0350 58bd
00000370: ea49 a6bd a7d6 0a3d 6bec 2fbd 93cc a9bd
00000380: f217 70bd cddb ccbc 8474 22bd ac22 993d
00000390: 97dc f4bb a86e d4bd 4dba 53bd 3a31 1bbe
000003a0: 352b c2bb 16b8 9e3d 8c3c 863d 245d 12be
000003b0: 220d 8dbc d1cb 67bd 279f 923c e236 523d
000003c0: 51be 18be c2dd b9bc dec8 f4bc 0311 a1be
000003d0: 7a03 febd 49e1 e7bc 49e3 3bbe 0fc6 46be
000003e0: 8cdc 7dbe 8b62 1ebe b55d cd3d 1cf8 b3bd
000003f0: a89e fcbd 25e2 ac3c e562 933b 4628 9c3d
-0.29877007 -0.110621884 -0.19097924 -0.3022174 -0.12840702 -0.22982116 -0.071873665 -0.1301496
-0.1434009 -0.024103306 0.07427055 -0.00043631575 0.14420418 -0.2086317 0.046291538 -0.08760349
0.14736435 -0.19895071 0.028477669 -0.04016067 0.050417338 -0.041471884 0.1509929 0.044661973
-0.014938873 0.025002552 -0.018624377 0.069882475 0.0046701855 0.13329683 -0.03913586 0.002252077
0.071766876 0.029854234 0.18184917 0.052126788 -0.20033953 0.01647267 0.0914012 -0.06903076
-0.009426769 -0.03654674 0.020930236 -0.14877832 -0.06604642 0.102849714 0.046407305 -0.09079816
0.036562223 -0.0050244583 0.039458543 0.017547395 0.03953863 -0.0016229436 0.052920386 0.10296641
0.159225 0.14657551 0.10693886 0.13825661 0.009939085 0.20325646 -0.0045363116 0.038474694
-0.05340648 0.036495417 0.025281262 0.07954234 0.05746161 -0.15609057 -0.08303337 0.06535311
0.10605291 0.07645401 -0.025182376 0.04979669 -0.06488465 -0.03428728 0.023762202 -0.027014278
-0.032238167 -0.324473 -0.15015578 -0.36609864 -0.43618733 -0.24375817 -0.17460972 -0.2338686
-0.15496005 -0.29716784 0.08596684 0.08535399 0.17101021 0.15139325 -0.06889433 -0.07685213
-0.012252531 0.009361999 -0.10699741 -0.103715904 0.040580142 0.08066078 -0.109811425 0.13357969
-0.010783494 -0.104319274 0.062922485 0.05222953 0.040618014 0.026120884 0.025233129 0.02261932
0.11774692 0.080743566 0.12048079 0.023985188 0.0008241292 -0.22459382 -0.013802024 0.050433353
-0.1146357 0.01712444 -0.06145316 0.0011497926 0.021550862 0.17162178 0.1093164 0.05902631
0.039799664 -0.073977515 -0.12369055 0.0999322 -0.07869179 0.11569806 -0.09215434 0.02253866
0.020112034 -0.090204135 -0.020644942 -0.0581986 0.16473128 0.034427468 0.08043024 -0.01800062
-0.023047509 -0.04235178 -0.022291133 -0.010003159 0.1683585 0.01682993 -0.060501475 -0.08908337
0.118313305 0.08050248 0.032055832 0.00355327 -0.024730917 -0.011241806 0.039382048 -0.0038635076
0.049023755 -0.070466906 -0.3684429 -0.28649196 -0.09362422 -0.34190795 -0.23746972 -0.13428943
-0.26738712 -0.2870204 -0.16045983 -0.00070634653 0.053116046 0.15859322 0.24284652 -0.15766722
-0.13716918 -0.13838269 0.024213655 -0.100324124 -0.028177237 0.10523609 -0.10029883 -0.03214711
-0.009152375 0.08129605 -0.040249098 -0.10581564 0.03281392 -0.28525507 -0.05088814 -0.20896219
-0.26737556 -0.28661156 -0.27012554 -0.038776882 -0.19715288 -0.22113083 -0.028341953 0.07010995
0.02527042 -0.12693898 -0.08316433 -0.0673821 -0.0074956324 -0.1362958 -0.16740595 -0.14277953
-0.009694798 -0.12174889 0.022390641 0.064450145 -0.025742782 0.045776855 -0.041410957 0.10780161
-0.058362804 -0.17796937 -0.07446892 -0.05281068 -0.08119567 0.033896115 -0.042950075 -0.082909726
-0.058616586 -0.025007153 -0.0396619 0.07477316 -0.0074725854 -0.103726685 -0.051691342 -0.15155497
-0.005925561 0.07749955 0.06554517 -0.14293343 -0.017218176 -0.05659086 0.017898155 0.05132187
-0.1491635 -0.02268875 -0.029880937 -0.3145829 -0.12403007 -0.028305667 -0.18348421 -0.19411491
-0.24791163 -0.15467279 0.10027639 -0.087875575 -0.12334949 0.021103928 0.004497873 0.07624869

q1_layer1.bias f4 [128]
00000000: e083 42be b8a4 5a3c f2f3 c23d 4eba 65be
00000010: 6798 443d 61de aa3c 10f1 74be 8d46 42be
00000020: 1ddd 6cbd c70e 22be f1f9 05be 44dc 09bc
00000030: 40b6 ebbd 4e63 c6bd 4a04 0bbe 721e e03d
00000040: cf42 d43d e42b 27bd 4fcc c1bc 8768 60bd
00000050: f1a1 bcbd 877c 3cbe 9cba 8b3d b6ea c0bd
00000060: e3d4 753c ab64 9d3d abb9 433d 831b 26be
00000070: 37dd d9bd 12ed 803d e676 663d 03ef 10be
00000080: a29d 573c b2f8 083d d94f 49be c44f 16be
00000090: 6604 98bd 47d1 0bbe 0ad3 42be 7103 553d
000000a0: da40 bc3d 53ab 93bd ec2c af3c 06c6 003e
000000b0: b8c0 f7bd ccae cfbd a584 c03d 7611 17be
000000c0: d69e 803d e8d0 cbbd 8ea2 06be bad8 14bd
000000d0: b09e 37be 76e0 1bbe 8395 3bbd 4c54 db3c
000000e0: 57bc 06be 3b39 29be 994c 383d 6a33 fd3c
000000f0: 7d42 9c3c 4b36 6abd 6e2f 3ebc 9dea 21be
00000100: 3061 a9bd 8b7c 7fbd b253 7fbd 6204 063b
00000110: f4e0 c7bb 78fa 2cbe 9d5c 60bc 1b84 b63d
00000120: 5451 7e3d 52dc 643d 79bb 99bd c564 b83d
00000130: 0ebf ffbc 3bb1 fa3c 3117 17be d3fe 25be
00000140: 9e32 44be 6296 50bd 7fac 2fbe 8399 9b3d
00000150: 9949 9a3d d21c 8f3d 2bb5 903c 5abc bdbb
00000160: d84e ac3d 594c afbc 7484 8fbd eede 2ebe
00000170: d2d1 1cbe 1f06 c3bc 53cd 993d ec4d 3fbc
00000180: 9e40 c03d 05a0 28be e647 b13d 6b1b 39be
00000190: 0f07 1abe 7cd2 acbc bb6c 8d3d cd50 243d
000001a0: 8f27 04be cc25 9abc 46f8 24be 925e 953d
000001b0: 7908 2d3c 1378 7a3d bd6b 0c3d fa66 2a3d
000001c0: 6a7f fcbd 6cd3 88bc be56 a33d fcea 31be
000001d0: b764 093d ef39 06be 7ffb 3dbc 76bf 39be
000001e0: 0a37 5dbc bb9b 143d d855 a9bd 8a9b f53d
000001f0: d81f b13d d894 e8bb 1901 aa3d 10f8 23be
-0.18995619 0.013344936 0.09519185 -0.22434351 0.047996905 0.020857992 -0.23920083 -0.18972225
-0.057828058 -0.1582595 -0.13083626 -0.008414332 -0.11509371 -0.096869096 -0.13575855 0.10943307
0.10364305 -0.04081334 -0.023656992 -0.054787185 -0.09210575 -0.18406878 0.06822702 -0.094197676
0.015004369 0.076852165 0.04778449 -0.16221432 -0.106378965 0.062952176 0.056265734 -0.14153676
0.013160141 0.0334403 -0.19659366 -0.14678866 -0.07422714 -0.13654052 -0.19025818 0.052005235
0.09192057 -0.07210412 0.021383725 0.1257554 -0.12097305 -0.10140762 0.094003 -0.14752755
0.062802956 -0.09951955 -0.13147947 -0.0363395 -0.17931628 -0.15222344 -0.045796882 0.026773594
-0.13157783 -0.16525738 0.044994924 0.030908305 0.019074673 -0.057180684 -0.011607988 -0.15812154
-0.0827049 -0.062374633 -0.062335677 0.002044939 -0.0060998145 -0.16892421 -0.013693956 0.08911916
0.06208928 0.055874176 -0.07506461 0.09003595 -0.031219032 0.030602088 -0.1475494 -0.16210489
-0.19159934 -0.050924666 -0.17155646 0.075976394 0.07533569 0.06987919 0.017664513 -0.0057902755
0.08413476 -0.02139871 -0.07007685 -0.17077228 -0.15314415 -0.02380663 0.075098656 -0.011676293
0.09387325 -0.16467293 0.08656292 -0.18076865 -0.15041755 -0.02109646 0.06905504 0.04011612
-0.12905715 -0.018816851 -0.16110334 0.072934285 0.010561102 0.061149668 0.034282435 0.041602112
-0.1232899 -0.016702376 0.07975529 -0.17374796 0.033543315 -0.13108037 -0.011595606 -0.18139443
-0.013501892 0.03628133 -0.082683265 0.11992557 0.08648652 -0.0070978217 0.083009906 -0.16012597

q1_layer2.weight f4 [128, 128]
00000000: 2c43 653c c30d dcbd fe56 a13d fe78 8bbc
00000010: 8299 b93d 0a81 c23d 813c b3bc 315b 013e
00000020: 5236 0d3e a8ad d23c 92a9 91ba 619c 3bbd
00000030: 461d 583d c437 77bd 4d8f 9abb b52a 0a3d
00000040: 91e7 473e 943e 093d 4012 bf3d 531e e23d
00000050: ffa2 913d 2e71 d73d f2f0 8ebd 9b0f b63c
00000060: 2a59 b6bc a2d6 863d f4bc 043d 6c87 983c
00000070: 80fa 92bb a1f1 a4bd e72d f73d b487 e43d
00000080: 42b8 123e 896a ef3d e57b 203e 2039 be3c
00000090: 37aa 9f3d 5585 86be 268f 1d3d c8a3 123e
000000a0: 7a41 45bd 6de6 a13c 0543 51bc 9d48 063e
000000b0: 5906 3dbd 644a f9bc 2561 83bc 9a59 f03c
000000c0: e8ff bf3d 16d4 19bc ce4a 403d ba67 67bd
000000d0: abcc fabc 98ed e8bb 4e83 39bd 02c3 563d
000000e0: 1394 7d3d 5217 c53c f108 0a3e 83b2 9d3c
000000f0: 9bdd c13d a465 a43d ff8d c23d c04e 05be
00000100: af86 293e 7faf 9abd e72c d83d f6fa cb3d
00000110: ca72 17bd 87f2 833d 3c97 503d 8deb 853d
00000120: 574a 033e becc 8abd a20f 32bd c87c 273e
00000130: 246f a23d 3681 81bd 1ba1 67bd 4f65 59bc
00000140: f2c2 9c3c 5206 89bb c104 e8ba 1b52 543d
00000150: 38ad 5f3d 3b57 843d 7b3f b83d d7b6 a7bb
00000160: 3d65 5a3d 5cf9 253d c37d 45bd 97bf 073d
00000170: 88c2 c3bc ef1b 5dba 57c5 e83d 3164 8f3b
00000180: ffc9 393e 9904 c2ba ccd0 f1bb d241 79bd
00000190: 925c 9fbd 97b0 91bc 3be9 abbd 3521 8c3d
000001a0: 167a 433d ad54 5f3d 4f21 3d3d 685b 3a3e
000001b0: c309 2a3d 602b 083e 7d73 d03d 289e 34bd
000001c0: 1330 7fbd cb7d 503d 9962 363e eb47 163d
000001d0: dda5 3d3d e508 153e a50b 733d 2ea4 61bd
000001e0: d93b c8bb fc87 d0bd cadf 1e3d 2f1f 2c3e
000001f0: 15da 563e d379 78bc a0dd 993d 6b6f c83d
00000200: 6237 b739 2951 ff3d da90 373d 3cc5 163d
00000210: 3b0a 053e f8a1 f13d 68f0 153e 6c92 8b3d
00000220: e31d 0c3d ade8 da3d cdd2 303d 6cd8 a13d
00000230: 22fd 84bd 8845 f33d 3190 093d 63b3 463e
00000240: 4d4e 653d 1cf1 86bd c422 ca3d 83d8 6b3d
00000250: e5d0 aa3d cb9e d73c 96a2 e33d e0bb e0ba
00000260: 8bcc 62bc a3bf 953d ec3d 9a3d 67e3 e3bb
00000270: ccf6 10bd 7a20 253c 6051 bf3d b9ac 05bd
00000280: b9e8 13be 4683 0abd 40e5 a4bd 440a e53c
00000290: 5cf1 35bd 8fc5 ba3c c081 f0bd b10b 2c3d
000002a0: 8149 8b3e 10e3 a13d 9b1d 4d3c 51aa 1a3e
000002b0: cc9e 463d 9a67 953d a01e 723d acf3 9dbd
000002c0: 8a7f c83d ebb7 22bc 9248 513c d635 323e
000002d0: 9c73 643d beda 0cbe d211 aa3d 04dd bf3d
000002e0: eafa 4ebd 8a8f 083c c934 e53c 8ee3 483d
000002f0: 5cbd 863d 05c8 6a3c 12fd babb 402b 31bd
00000300: 6b69 b3bd 9cee 173e c3be 2a3d 75e9 11be
00000310: d128 343c ad2d 563c 10b4 773d f70b a33d
00000320: 3ac2 c03d 3074 173d ae43 85bd 52ec cd3d
00000330: b0e4 65bc 2727 fa3b 8172 4d3d ece7 193e
00000340: 0d5a 04be e422 e8bc 4d07 c73b 1177 e03c
00000350: 3cea e739 2656 3c3d 5431 0b3e 84aa 823d
00000360: 29c1 adbd 8261 8a3d a1ce 0f3b 5e30 a1bc
00000370: d979 073d f8ea 8ebc d738 853d 53a9 1f3d
00000380: 26e9 a93d 221b 773d 511b 513e dc90 643d
00000390: 8816 193d daaf 9ebc a395 0bbe 80e8 b7bb
000003a0: 78a0 a7bd add8 cc3d 5103 a53c b359 d8bc
000003b0: 3077 a5bd 08d5 193c 1132 503e 515e 813d
000003c0: b98e f1bd f45f 573c 17a1 aa3d 4496 a03c
000003d0: c8fe 583e f12b 013c 71e9 97bd 2f46 a0bd
000003e0: 7194 6d3c c0c7 af3d ac8d eabc 0825 d03d
000003f0: 8531 043e c6d7 74bd 722b c9bd 19d3 863d
0.013993066 -0.10744812 0.078779206 -0.017025467 0.090624824 0.094972685 -0.021879436 0.12632443
0.13790253 0.025717571 -0.0011113158 -0.04580343 0.052762292 -0.060355917 -0.00471679 0.033732135
0.1952193 0.033506945 0.09329653 0.1104094 0.07111167 0.10519634 -0.069795504 0.022224238
-0.022259314 0.06583907 0.032406762 0.018619262 -0.0044854283 -0.080538996 0.12069302 0.11158696
0.14328101 0.11690242 0.15672262 0.023220599 0.07796138 -0.262736 0.038466595 0.1432029
-0.048158146 0.019763196 -0.012772326 0.13113637 -0.04614863 -0.03043098 -0.016037533 0.0293396
0.09374982 -0.009388944 0.04694634 -0.056495406 -0.030615171 -0.0071084015 -0.045291238 0.052432068
0.061908793 0.024058972 0.13479973 0.01925016 0.09466096 0.08027199 0.0949974 -0.13018322
0.16555284 -0.075530045 0.105554394 0.099599764 -0.036974706 0.06442743 0.05092548 0.06539068
0.12821327 -0.06777333 -0.04347194 0.16356194 0.07931355 -0.06323473 -0.056550127 -0.013268783
0.019135926 -0.0041816616 -0.0017701612 0.051836114 0.054608554 0.064619504 0.08996483 -0.0051182318
0.053319205 0.04052101 -0.04821564 0.0331417 -0.02389647 -0.00084346434 0.113657646 0.0043759574
0.18143462 -0.0014802396 -0.007379627 -0.060853787 -0.07781328 -0.0177844 -0.083940946 0.06842271
0.047723852 0.054524112 0.046174344 0.18198931 0.041513216 0.13297796 0.10178278 -0.044096142
-0.062301707 0.050901216 0.1781105 0.03668968 0.046300758 0.14554174 0.059337277 -0.055088215
-0.00611065 -0.10182187 0.03878764 0.1680877 0.20981629 -0.015165764 0.07512975 0.09786876
0.00034945743 0.12466652 0.044815876 0.03680919 0.12992184 0.11798471 0.14642489 0.06815037
0.03420819 0.10688911 0.043169785 0.07902607 -0.06493594 0.118784964 0.033584777 0.19404368
0.055982877 -0.06588957 0.09869912 0.05757953 0.08340625 0.026320836 0.11114995 -0.0017145835
-0.013842712 0.073119424 0.07531342 -0.0069545987 -0.035391614 0.010078544 0.09341693 -0.032635424
-0.14444245 -0.0338166 -0.080515385 0.027958997 -0.04441963 0.022799281 -0.11743498 0.042003337
0.27204517 0.07904637 0.0125192655 0.15104033 0.048491284 0.07295151 0.059111238 -0.07712492
0.09789951 -0.009931545 0.01277365 0.1740335 0.055774316 -0.13755319 0.0830418 0.09368327
-0.05053226 0.008335004 0.027979271 0.049045138 0.06579086 0.014329915 -0.005706438 -0.043254137
-0.08760341 0.14837116 0.04168583 -0.14249213 0.0109960595 0.013072413 0.060474455 0.079612665
0.09412046 0.03697604 -0.065070495 0.1005484 -0.014031574 0.007634062 0.050158028 0.15029877
-0.12924977 -0.02833695 0.0060738684 0.027400525 0.00044234272 0.045980595 0.13593036 0.063801795
-0.08484108 0.067568794 0.0021943229 -0.019676384 0.033075187 -0.017446026 0.06504982 0.03897984
0.08296423 0.06032861 0.20420577 0.05580221 0.037375003 -0.019370962 -0.136313 -0.005612433
-0.08184904 0.10002265 0.020143183 -0.02640996 -0.08079374 0.0093891695 0.20331599 0.063168176
-0.117948 0.013145436 0.08331507 0.019602902 0.21190941 0.007884012 -0.07417572 -0.078258865
0.014500723 0.08583021 -0.028632008 0.10163313 0.12909515 -0.05977609 -0.0982274 0.065832324

q1_layer2.bias f4 [128]
00000000: 58cc 283d 6dec 2a3d 030d 82bd 99b6 9a3c
00000010: 585b ed3b e68f 49bd 47ce 76bd 2958 64bd
00000020: 67cd 813d efcd 58bd f2aa 043d 8b7f 80bd
00000030: 4d3c 21bd 9fbd 343d 07ac 3dbd 369d 513d
00000040: 8541 b43b f9f9 f3bd 727e 4dbd 0c50 7a3d
00000050: 6679 25bd 1502 2abd 403b 27bd add9 073c
00000060: e281 f93c a7b0 73bd d893 76bd 2822 5dba
00000070: 997d 453d 4254 9bb9 5cf9 c5bd 85f8 80bd
00000080: 80e7 62bd 9416 5fbd aca4 6dbd ccca 71bd
00000090: 2cf7 80bd 8192 97bd c7a7 46bd 36b1 5cbd
000000a0: 42ff ab3c 8262 e03c 09d6 113c bda3 d73c
000000b0: b406 24bd 3d4e 9dbc 990a 8cbd 393e 5cbd
000000c0: 00b4 e33c 200a 63bd 3c9f 48bc 2999 1a3d
000000d0: ef31 1bbd 37fb 75bd bae0 3fbd 34cb 67bd
000000e0: c9a3 59bd 0fe2 58bd feab b1bd fa30 dabd
000000f0: 552b 4dbd 2474 3fbd adb7 3ebd 96f6 92bd
00000100: b6ea bdbd b539 41bd 872a 463d cfc6 52bd
00000110: b89e 123d 4d92 a7bd ffe4 253d 20ca 43bd
00000120: 78f0 37bd f49f 50bd 7e3b 7abd a3d0 913d
00000130: c16c 243d 3148 86bd 34cf 30bd 7fb1 49bd
00000140: 303a 9fbd 0072 493c 8641 95ba 758f 31bd
00000150: 5d61 f2bd 3aea 35bd 4bdd 43bc f593 50bd
00000160: 7a39 60bd 40e2 0c3d 882a 51bd fccd 80bd
00000170: 7286 49bd 3baf a83c 9102 85bd 720d 1f3d
00000180: 0550 233d b536 30bd 745c 65bd 7fd8 59bd
00000190: 11b5 733d ba5e 103d 4aa0 caba ccb3 213d
000001a0: ed6e 3ebd 9e3a 123d 8062 57bc 9ad3 94bd
000001b0: 6d65 eebc 3913 2f3d e79d 0ebc 3b77 693d
000001c0: f3f2 5e3d 1c3b fe3c 34d1 3bbd 7770 003d
000001d0: e159 793d 7c6e 4dbd d330 143d acb2 bdbc
000001e0: 7348 ed3a 84f8 23bc 85a0 61bd 093c abbd
000001f0: f9c2 633c 3aac 53bd 848f 40bd ab06 ef3c
0.041210502 0.04172938 -0.06350138 0.018885897 0.007243555 -0.049209498 -0.060255315 -0.05574814
0.063380055 -0.05293077 0.03238959 -0.06274327 -0.039364148 0.04412615 -0.046306636 0.05117532
0.0055009746 -0.11912913 -0.050169416 0.061111495 -0.040398978 -0.04150589 -0.04082799 0.008291644
0.03045744 -0.05949464 -0.06019959 -0.00084355706 0.048215482 -0.0002962668 -0.09666702 -0.06297401
-0.055396557 -0.05446489 -0.05801837 -0.059031293 -0.06297144 -0.0740099 -0.04849985 -0.05387994
0.02099574 0.027390722 0.008901128 0.026323194 -0.040045455 -0.019202346 -0.06837959 -0.053770278
0.027795792 -0.055429578 -0.012244996 0.03774372 -0.037889417 -0.06005403 -0.046845175 -0.056590274
-0.053134713 -0.05294996 -0.08675383 -0.10653873 -0.050090153 -0.04674162 -0.046561886 -0.07175939
-0.09273283 -0.047174174 0.0483804 -0.05145913 0.035795897 -0.081822015 0.04050159 -0.047800183
-0.044907063 -0.050933793 -0.061091892 0.071198724 0.04014278 -0.06556738 -0.043166354 -0.04924154
-0.0777477 0.012295246 -0.0011387325 -0.043349702 -0.11834977 -0.04441283 -0.011954616 -0.050922353
-0.054742314 0.034395456 -0.05106595 -0.062892884 -0.049200483 0.020591369 -0.0649463 0.03883118
0.039871234 -0.043020923 -0.055996373 -0.053184982 0.05949885 0.03524659 -0.0015459147 0.03947811
-0.046492506 0.035700433 -0.013146043 -0.07266922 -0.029101098 0.04274294 -0.008704639 0.056998473
0.054430913 0.031034045 -0.04585381 0.031357255 0.06087673 -0.050154194 0.036179375 -0.023156486
0.0018103257 -0.010007981 -0.055084724 -0.0836106 0.013901466 -0.05167792 -0.047011867 0.029177984

q1_layer3.weight f4 [64, 128]
00000000: a38c 0ebe bc12 0e3e d0fb f63c 76e9 cebd
00000010: e712 663d 92b8 233d a1d7 a2bd ebe1 54bd
00000020: 13a1 5abe 7279 dcbd 33e0 52be 81a2 a0bd
00000030: 4cf3 f83d 8f7d 25bd ff6c 2abd db9b 71bd
00000040: a6c7 69bd 6e93 693c feb4 863d 7906 eabd
00000050: a2a3 27bc 3219 183d 54dc c1bd bcc4 a13c
00000060: 2461 e33d c9a3 bebd bee0 513d c82a 7e3d
00000070: c651 163d f6ed b6bd 6a3d b03d a411 5a3d
00000080: cd63 673d 7050 3f3d 9a61 b8bd b677 09be
00000090: 3175 47bd 686b 02bd 373f fabd 89b9 de3c
000000a0: 4095 363d 6b50 9f3b 8676 4abd 0c0e b6bd
000000b0: eeb6 d8ba 6772 9a3d 5152 313e 9d08 d8bb
000000c0: 3c31 6dbc 0b92 5ebd 549a 42bd ce15 2d3d
000000d0: af4a 443d 8956 d43d 4c8f b039 86ae 8abd
000000e0: 125c d53d 8e79 9e3d 4fb9 82bd 66ea 2a3e
000000f0: 56cb d13d e94e ff3d 508f 1f3e 14a8 353d
00000100: 3a0a 18be 7cfe 87bd 25fc 86bc abac bb3d
00000110: 077c f5bd 272a a8bd 3055 0b3e 7556 a7bd
00000120: a08e 75bc 11e7 39bd 6edd fe3c 3c14 d2bd
00000130: 7028 223c 76a6 dcbd d5d3 34bd 3f2d ca3d
00000140: bdb2 a63d 519e 2fbd 6894 03be c11a cebd
00000150: b7c6 823b f5ba efbb 656c cc3d fc68 3abc
00000160: 8b71 2c3e 954c bebc c662 8d3d 235f f33d
00000170: 1ac7 5bbd d069 19bd 1c12 ddbc 2a2f 06bd
00000180: 89c5 753d 7fd9 aebc c538 913c 444e 3c3d
00000190: 118d 1abd 97d2 39b9 13d8 953c 29d5 b33d
000001a0: 39bf 6dbd 54b6 b9bd d845 953d a6b7 433d
000001b0: fd62 643d 9e3f 49bc a10a 773d 4be4 193d
000001c0: 5a40 123d 0c4b 96bd a5f5 d4bd 083a b63b
000001d0: c385 11be 5cde 233d 3e64 7abd 2017 f5bc
000001e0: d994 13bd b017 df3d af8d 08bd e6da 2a3a
000001f0: 9bbf c6ba e352 22bb 468a b43c e9fe d53a
00000200: 2eab d23c 1fb6 283e 1c14 9139 6a60 ac3d
00000210: abe0 543e d278 36bd eb5a 10bc f356 11bc
00000220: 6933 4e3d bbda bb3d c1e3 ee3d 0f7c a9bd
00000230: c5aa 433a 054d f03d 5518 5d3d 73f5 953d
00000240: c2b7 ba3d 965b 72bb df0e 3ebe 2c4a 8c3d
00000250: ae6e 2a3e a8ec 8ebc 1851 10be 7fe8 0d3e
00000260: 2cb3 d43d e786 43bd f0e2 cebc 552c 4f3d
00000270: fb8e dc3d 591e 5cbd d49e a1bd 65cf 963d
00000280: 840b 46bd 2a9c 933d ecf3 1d3e 1c96 733d
00000290: ea37 aa3d 28e9 00be 9861 183e bcdd 3e3d
000002a0: f8c0 693d d5fd 763e 06bc 63bd d2ff 233e
000002b0: 3c9c af3d f0e0 21be d846 99bc 8096 0a3d
000002c0: 7d7e 0b3d 83b7 c23c b035 7e3c 5e17 bb3c
000002d0: b0e6 bebd 5469 be3c 6f73 9a3d 0ad1 42bd
000002e0: aef6 943d c800 e53d f3b5 a23d 5116 75bd
000002f0: becb 13be 4f05 95bc 7b1e fb3c 8aef 4cbd
00000300: b4f8 04be 3086 753d 00ee c5bc c83f 96bd
00000310: d3b3 083e 2e17 bd3c dc05 153e f362 f03d
00000320: 19f1 4abb b608 fcbd 0cfe c33d 411e 913d
00000330: c5db 20bd d9be 69be 710f 16bd fb93 903d
00000340: 8c4d 413e 8b8e f03c 0311 3d3d 3e44 21bd
00000350: 5b8e 06be b8b1 91bd b58f 4a3c 09b0 bb3c
00000360: 7d96 a5bc f44d 623d b371 9ebd e2b5 4cbb
00000370: de8f 883c 1ca9 5c3d a9eb ea3d 92cc a2bd
00000380: f25c a33c 29c8 f4bd 824b 06bd f186 0ebe
00000390: 5b7e c73d 404b 793d 0261 1a3d 910d 453d
000003a0: 0e9b d33d 5475 233e 8b6b 9ebc 4c5e 7f3d
000003b0: 198d efbb 32f1 dcbc 6395 803d d690 bd3d
000003c0: 82cb 1b3e a844 2f3b 429f 063d c76a dc3d
000003d0: 1b3e ed3d 5db6 753c 985b 7cbc 19a3 f73c
000003e0: 12bc 183e 2000 d23d 6c3d d33d 4bb8 97bd
000003f0: d206 2d3b f7be 883e d8b0 1fbc 3be4 a3bc
-0.13920836 0.13874334 0.03014937 -0.10103123 0.05617037 0.03997094 -0.07951284 -0.051973265
-0.21350507 -0.10765351 -0.20593338 -0.07843495 0.1215578 -0.040402945 -0.041607853 -0.058986526
-0.057075165 0.014256341 0.0657749 -0.11427016 -0.010231884 0.037133403 -0.094658524 0.01974713
0.111025125 -0.09308583 0.05123972 0.062052518 0.03669908 -0.08932106 0.08605464 0.05323948
0.05649166 0.04670757 -0.09002991 -0.13424572 -0.048695747 -0.03184071 -0.122190885 0.02718808
0.04457593 0.0048618815 -0.04942944 -0.08889398 -0.001653401 0.07541352 0.17316557 -0.0065928237
-0.01447707 -0.054338496 -0.04751046 0.042257123 0.047922786 0.10368068 0.000336761 -0.06771569
0.10417952 0.077380285 -0.06383001 0.16690978 0.102438614 0.12466223 0.15582013 0.044349745
-0.14847651 -0.06640336 -0.016477654 0.09163793 -0.11986547 -0.08211165 0.13606715 -0.08170787
-0.014987618 -0.045386378 0.031111445 -0.10257766 0.009897336 -0.107739374 -0.04414733 0.09871911
0.0813956 -0.04287559 -0.12849581 -0.10063697 0.003990974 -0.007315988 0.09981612 -0.011377569
0.16840188 -0.023229877 0.06903605 0.1188338 -0.053656675 -0.037454426 -0.026986174 -0.032759823
0.060002837 -0.021343945 0.017727265 0.045973077 -0.037732188 -0.00017721426 0.018291509 0.087808914
-0.058043692 -0.090679795 0.07288712 0.047782563 0.055758465 -0.012283234 0.06031287 0.037571233
0.0357059 -0.07338533 -0.103984155 0.005561117 -0.14211182 0.04000698 -0.061130755 -0.029918253
-0.036030624 0.1089319 -0.033338245 0.0006517604 -0.0015163304 -0.0024768643 0.02203859 0.001632658
0.02571639 0.16475724 0.00027671538 0.08416827 0.20788829 -0.044548817 -0.008810739 -0.008870828
0.050341997 0.09172579 0.11664534 -0.082756154 0.00074641063 0.1173344 0.053978283 0.07322206
0.0911708 -0.003698086 -0.1856036 0.06850085 0.16643783 -0.01744683 -0.14093435 0.13858221
0.10385737 -0.047736075 -0.025254697 0.050579388 0.10769459 -0.05373988 -0.07891622 0.07363776
-0.048350826 0.0720752 0.1542508 0.059469327 0.08311446 -0.12588942 0.14880979 0.04659818
0.057068795 0.24120267 -0.055599235 0.16015556 0.08574721 -0.15808463 -0.018710539 0.033834934
0.034056176 0.023769146 0.01551573 0.02283829 -0.09321344 0.023243584 0.075415485 -0.047562636
0.07273613 0.1118179 0.0794486 -0.059835736 -0.1443319 -0.018191008 0.030654183 -0.05003313
-0.12985498 0.059942424 -0.024161339 -0.07336384 0.13349847 0.023082342 0.14553016 0.11737623
-0.003096646 -0.12306349 0.0956994 0.070858486 -0.03927209 -0.22826709 -0.03663582 0.07059475
0.18877238 0.029364845 0.0461588 -0.03937172 -0.13140242 -0.07113975 0.012363364 0.022911089
-0.02021336 0.055250123 -0.0773653 -0.003123634 0.016670164 0.053872213 0.1147073 -0.07949175
0.01994178 -0.1195224 -0.032786854 -0.13918664 0.09740897 0.06086278 0.03769017 0.04810864
0.10332309 0.15962726 -0.01933839 0.062345788 -0.0073105213 -0.02697048 0.06278493 0.09256141
0.15214351 0.0026743803 0.032866724 0.10762554 0.11584111 0.014997092 -0.015402697 0.030229138
0.14915493 0.1025393 0.1031445 -0.07408198 0.002640177 0.26708195 -0.009746753 -0.02000629

q1_layer3.bias f4 [64]
00000000: b4b7 a3bb e53b f93c 9941 09bd 89e0 273d
00000010: 15fd b5bc 26f6 8fbb ec4e 9bbc 26a6 093d
00000020: 7a8f c9bc 68f3 bebb 3924 c6bc 7d33 c7bc
00000030: 03b9 46bc 4849 94bc 9fe7 9dbc 311b f33c
00000040: 01f4 59bc 22ca 563d 162d f7bc b3dd 45bc
00000050: 0392 3cbc 92ae 833d 0a1c a9bc f1f9 193d
00000060: 20e6 b9bc 2d8c f0bc 11c9 0d3d 090e b8bc
00000070: c7f9 f0bc 8f41 4a3d 4698 afbc 0ca3 06bd
00000080: 948c 0b3d aad0 513d 42b2 103d f580 bdbc
00000090: eec3 80bc 1cc2 f6bc 69e4 f5bc d7c8 c3bc
000000a0: fe3d 7abc 03dd d8bc bb03 c1bc 48d1 ccbc
000000b0: 95b7 9dbc 9aa8 13bc cbc2 32bc 0767 fe3c
000000c0: 3efe 5b3d 526e e0bc 5d02 dfbc b632 e7bc
000000d0: cfc4 8bbc f2f4 05bc 26c2 f3bc d1d2 c2bb
000000e0: f6f9 5d3b e351 ac3c 4b67 b3bc 3875 93bc
000000f0: 65cf debc 8689 71bc eb53 213d 4d1e ecbc
-0.0049962644 0.030424068 -0.033509824 0.040985618 -0.022215405 -0.004393357 -0.018958531 0.033605717
-0.024604548 -0.005827356 -0.024187194 -0.024316544 -0.012129071 -0.01810135 -0.019275485 0.029676052
-0.013302804 0.052438863 -0.030172866 -0.012076783 -0.011509421 0.06429781 -0.020643253 0.03759188
-0.02269274 -0.029363716 0.03461558 -0.02246763 -0.029415978 0.049378928 -0.021434914 -0.032870337
0.034069613 0.05122439 0.03532625 -0.02313278 -0.015718427 -0.030121855 -0.030016141 -0.023899479
-0.015273569 -0.026472574 -0.02356135 -0.025002137 -0.019252578 -0.009012366 -0.0109107 0.031054987
0.05370926 -0.027396355 -0.027222807 -0.028222423 -0.01706162 -0.008176075 -0.029755663 -0.0059455414
0.0033870912 0.02103514 -0.02189984 -0.01800023 -0.027198503 -0.014742261 0.03938667 -0.028823042

q1_layer4.weight f4 [1, 64]
00000000: db37 e73c 540d 6bbf 5c5c 8fbc bd4a 5ebf
00000010: 2cfa 90bc 8cae 4dbe 0754 013d 6521 4bbf
00000020: 5a31 0d3d 31fb b1bc 707e 84bd b74b 0a3e
00000030: da66 273c bc09 4abc 9865 4bbe 5434 88bf
00000040: 7875 373e 625d 61bf 579c 4e3d b780 2e3e
00000050: 6a58 4ebd 4edc 65bf ed73 913d 148a 51bf
00000060: acc8 143e ec52 b0bc e919 7bbf 3154 c63d
00000070: e28c ac3d f7ad 56bf 1ae9 0a3c 42e5 bb3c
00000080: 7315 5ebf dc27 50bf 0cf8 69bf b6c5 9fbd
00000090: 2363 643c eabd 63bc 9d02 e33b f302 08bc
000000a0: 3c75 473d aa27 c03d 3877 88bc d173 33bd
000000b0: ec82 4b3e 02b8 d7ba 7a98 9ebd db44 58bf
000000c0: ec28 59bf 367b 193d 8167 0ebc 9e88 1a3e
000000d0: 1408 0e3e 485f 90bd d053 c7bb 976a 3cbc
000000e0: b568 033e 7b44 80bf ced8 c73d 3417 1c3e
000000f0: 9b29 0d3e 32e1 093d 04cd 80bf 7728 08bd
0.028224876 -0.9181721 -0.017500095 -0.8683279 -0.017697416 -0.20086116 0.031574275 -0.7934783
0.034470893 -0.021726223 -0.064694285 0.13505445 0.010217393 -0.012331422 -0.19862974 -1.0640969
0.17915905 -0.88033116 0.050442066 0.17041288 -0.050377287 -0.89789283 0.07102189 -0.81851315
0.14529675 -0.021523915 -0.9808641 0.09684027 0.08425309 -0.838592 0.008478427 0.022936467
-0.8675148 -0.8131082 -0.91394114 -0.07801382 0.013939652 -0.0139002595 0.0069278018 -0.008301484
0.048695788 0.09382565 -0.01665841 -0.043811623 0.19874161 -0.0016458037 -0.07743926 -0.84480065
-0.84828067 0.03747102 -0.008691669 0.15091178 0.13870269 -0.070494235 -0.0060829893 -0.011500022
0.12832911 -1.0020899 0.09758149 0.15243226 0.13785402 0.03366203 -1.0062566 -0.033241715

q1_layer_norm1.weight f4 [128]
00000000: bde9 793f 7ad9 803f 256a 8f3f 1f58 793f
00000010: c4ea 793f 61d0 6d3f f474 7f3f 4627 793f
00000020: 81bc 653f b876 743f 026b 643f 156d 6c3f
00000030: 826f 6d3f 68da 693f be9d 6c3f 97b7 913f
00000040: 1fdd 903f 8a8d 5f3f 9922 5f3f e6f5 603f
00000050: 0836 613f 4d5e 6e3f 2f22 823f 4598 633f
00000060: 830b 753f f17a 883f d7e6 743f 70fc 713f
00000070: 2072 613f f669 883f 4d87 873f 0fe3 703f
00000080: e22d 773f dce1 7a3f e73f 6c3f 1b08 793f
00000090: 8acf 633f 03ba 6c3f ff98 703f f6e2 803f
000000a0: 60c7 8d3f 5199 613f 7dfd 703f 9af5 953f
000000b0: 5799 653f 3409 723f 6a72 8c3f ff6f 753f
000000c0: 488b 873f 76bc 6f3f 501d 6e3f 6544 663f
000000d0: 046d 763f 5d6c 713f e48f 5e3f fb31 773f
000000e0: 3d17 633f f4ba 713f afea 843f 4127 7b3f
000000f0: c2a8 7d3f 2503 693f 215d 683f a5d7 723f
00000100: abf1 5c3f c396 623f ea4c 5c3f bd55 753f
00000110: df00 6f3f d7d6 793f 4cdc 6d3f 3f05 883f
00000120: adba 813f 75ba 863f 230b 653f 456f 8b3f
00000130: efd2 693f 6069 793f ec76 733f aa9c 713f
00000140: 8053 733f 179b 683f 2d5b 6e3f 3163 8c3f
00000150: 04f8 843f 0971 813f 7c70 783f 8e1d 613f
00000160: 46e8 883f 06da 613f a63d 563f e20f 793f
00000170: c159 6a3f 944c 703f e255 893f 5a4c 613f
00000180: 6cda 8c3f 1902 783f 0726 8b3f 7947 773f
00000190: 8122 723f e8a6 733f 649b 853f 2704 7a3f
000001a0: 5387 723f ea7c 713f 5835 743f e945 883f
000001b0: 00b0 7c3f a39e 823f b8b6 7e3f b31d 803f
000001c0: 2f6c 723f 7cdd 683f bd95 893f 7828 6e3f
000001d0: 7924 773f c810 733f b06e 6a3f 40be 743f
000001e0: a945 6a3f fe7d 813f eb4f 623f 34e6 943f
000001f0: 2bf0 8b3f e455 6a3f dec7 803f 77c3 763f
0.9762228 1.0066369 1.1204268 0.9740009 0.9762385 0.92896086 0.9978783 0.9732555
0.8974076 0.9549365 0.8922578 0.92353946 0.9274827 0.91348886 0.92428195 1.1384152
1.1317481 0.87325346 0.87162167 0.8787521 0.8797307 0.9311264 1.0166682 0.8890422
0.9572069 1.0662519 0.95664734 0.94525814 0.88064766 1.0657337 1.0588166 0.94096464
0.96554387 0.98000884 0.9228501 0.9727799 0.88988554 0.9247133 0.93983454 1.0069263
1.107647 0.8812457 0.9413679 1.1715577 0.89687103 0.9454529 1.0972416 0.9587402
1.058938 0.93646944 0.9301348 0.8994811 0.96260095 0.94305974 0.8693831 0.9656064
0.88707334 0.9442589 1.038412 0.9810677 0.9908563 0.91020423 0.90767103 0.948603
0.86306256 0.88511294 0.8605486 0.9583395 0.93360704 0.97593445 0.9291427 1.0626601
1.0135094 1.0525652 0.8947012 1.0893332 0.91337484 0.97426414 0.95103335 0.94379675
0.95049286 0.9086165 0.93107873 1.0967771 1.0388188 1.011262 0.9704664 0.8793572
1.0695884 0.882233 0.8368782 0.9728986 0.91543204 0.9386685 1.0729334 0.8800713
1.1004157 0.968782 1.087098 0.96593434 0.945839 0.95176554 1.0438046 0.97662586
0.9473774 0.9433123 0.95393896 1.0646335 0.98706055 1.0204662 0.99497557 1.0009063
0.94696325 0.9096296 1.0748821 0.930305 0.9654003 0.9494748 0.91575146 0.956028
0.9151254 1.0116575 0.88403195 1.1632752 1.0932668 0.9153731 1.0060995 0.96392006

q1_layer_norm1.bias f4 [128]
00000000: 26a3 84bc 8789 2e3d 1dfb 033e d63e e7bc
00000010: fdd8 b63d 8dc3 893d 4176 363c fe1e 353b
00000020: 4e67 0a3d fbac f8bc 8faa 2ebd f8b4 793c
00000030: e8aa c4bc 2f74 ec3a 2da1 47bc f634 063e
00000040: e40d f63d 3253 e23c c30a 1b3d aec4 5e3c
00000050: 734e 3b3c fb67 47bd a723 cd3d 61c8 88bb
00000060: 497d 803d c09b fd3d c2be b03d bf07 06bd
00000070: 537b 0cbd 792b c43d 7471 a73d 03b5 9abb
00000080: 9267 503d c811 a33d a77f 1bbd 329a e2bc
00000090: 2849 ed3c 926b 40bd a8ad d43b 191a bc3d
000000a0: c484 ec3d f4f7 163d 3738 823d 76a3 193e
000000b0: cf61 debb fa2a 023d 86fc ef3d 140c 0bbd
000000c0: a34b ce3d edb5 03bc 9726 39bd 918f bfbc
000000d0: 18bd 55bc 1b46 8fbb d80e b53c e043 963d
000000e0: 8a00 e1bb e19a 66bd 13a2 9f3d 25b2 9c3d
000000f0: f77f 6e3d 504d 67bc 2d58 0c3d bbe4 2abd
00000100: 479b 8d3b 3604 1f3c 8624 b9bc d86b 933c
00000110: cc4c 913d dfd4 1b3c b6d9 8a3c beeb 023e
00000120: 510a bc3d 8127 bf3d 5915 d8bc a387 033e
00000130: 7f1f 923c 71ad c73d 734e 12bd 7ad0 41bc
00000140: 1431 44bd 40e8 e23b 3961 93bc ac45 cc3d
00000150: d096 f23d 63b2 eb3d 13bb 933d 9ef9 543d
00000160: 640f e83d 6d20 533d 0a35 843c 5d71 75bb
00000170: c741 3abd 4a48 c33c 4943 d53d 9022 a13d
00000180: 63a0 e43d dca1 223c bc59 e53d d2ca 4bbc
00000190: 635c 70ba 2c7a 913c 111b da3d 8e79 d03d
000001a0: d8bb 1bbc 89ea 993c d44b 46bd c0dc d63d
000001b0: 3dc0 813d f170 b53d fe7d b63d 9a8c d23d
000001c0: 8ef0 f4bc f4a6 193d aefe c63d 49b0 01bd
000001d0: c3a6 8e3d a631 343d bc32 e93c 9619 05bd
000001e0: 14f3 d13c 23fe b43d db21 453c edcf 1d3e
000001f0: 02b1 ef3d a79d 2c3d ce44 083e 400a d3bc
-0.016191076 0.042611625 0.12888761 -0.028228205 0.08928106 0.067267515 0.011136592 0.002763688
0.033789925 -0.030355921 -0.042643126 0.0152409 -0.024007276 0.0018039997 -0.012184423 0.1310614
0.12014368 0.027627561 0.03785206 0.013596697 0.011432278 -0.048683148 0.10016566 -0.0041742777
0.06273896 0.123832226 0.08630134 -0.03272223 -0.0342973 0.09578604 0.08175936 -0.0047212853
0.050880022 0.07962376 -0.037963536 -0.027661417 0.028965548 -0.046977587 0.006490428 0.09184665
0.115487605 0.03685756 0.063583784 0.15003762 -0.006786562 0.031779267 0.11718087 -0.033947065
0.1007302 -0.00803898 -0.045202818 -0.023383887 -0.013045572 -0.004372371 0.022101805 0.07337165
-0.0068665193 -0.056300048 0.07794585 0.07651166 0.058227506 -0.014117554 0.03426378 -0.04172204
0.004321489 0.009705594 -0.022600424 0.01799576 0.07094726 0.009511202 0.016949516 0.12785241
0.09181655 0.09333707 -0.026377367 0.1284471 0.017837284 0.09749878 -0.035719346 -0.01182949
-0.047898367 0.006924659 -0.017990695 0.09974226 0.118451715 0.11508634 0.07213416 0.051995866
0.113310605 0.051544596 0.016138572 -0.0037451603 -0.045472886 0.023838181 0.10413224 0.078679204
0.11163404 0.009926286 0.11198756 -0.012438493 -0.000916904 0.017758451 0.10649694 0.10179435
-0.009505235 0.018788593 -0.04841216 0.104913235 0.06335495 0.088594325 0.0891075 0.10280724
-0.029899862 0.037512735 0.09716545 -0.03166226 0.06965401 0.04399266 0.028466575 -0.032495104
0.025628604 0.08837535 0.012031998 0.15411349 0.117036834 0.042142536 0.13307497 -0.025761724

q1_layer_norm2.weight f4 [128]
00000000: 4f0e 853f a51f 863f 6933 7d3f c257 803f
00000010: 7ee8 663f 9342 7e3f f717 783f 8dba 7c3f
00000020: 9a22 8e3f b26c 7b3f 33a6 833f 4ca6 793f
00000030: fd27 6f3f 6ce0 863f 54e0 793f bfcb 8a3f
00000040: db15 713f eb1a 803f 9aa2 7b3f 79f4 893f
00000050: 218a 7f3f 110b 7b3f 8681 7c3f a011 673f
00000060: 18d4 803f de74 7b3f ad57 7d3f d04f 6c3f
00000070: 3a14 853f c9d1 6c3f 3343 803f 2940 7d3f
00000080: b64d 7e3f e0f3 773f 1a82 7d3f fe64 793f
00000090: 01b4 793f 696a 7d3f 3a13 7b3f b328 7c3f
000000a0: d184 7a3f 3184 7f3f 946b 763f affb 733f
000000b0: 6f46 7c3f 6b56 6e3f 3a5e 7d3f 2699 783f
000000c0: 2786 7e3f 922c 7d3f 6dea 733f ef38 833f
000000d0: 4790 7b3f 7eba 7d3f 12d0 7b3f a315 773f
000000e0: 93b3 7b3f 4744 7d3f df86 7e3f 1a6c 803f
000000f0: ed92 7d3f 669b 7c3f 07a6 7a3f 6918 7c3f
00000100: bed1 7f3f b7a5 793f 4de5 823f c816 7c3f
00000110: 1600 7f3f f0fe 803f 321f 823f 4c1f 7f3f
00000120: 4292 7a3f f3e5 7d3f 6bc5 743f c50a 8e3f
00000130: 708a 823f 0f8d 7f3f c00e 7d3f 9185 7d3f
00000140: 2368 7e3f 0265 723f d3d9 773f a53a 7a3f
00000150: c549 803f dd5d 773f 7636 623f 41ac 7d3f
00000160: 9d6f 7d3f fe0b 833f e44f 7b3f 789f 7a3f
00000170: f11a 803f bd12 803f 318b 7e3f b1c8 813f
00000180: c3bc 843f dcd9 7e3f 8b70 7d3f 1120 7d3f
00000190: fca3 873f 244b 833f b985 6f3f b17e 863f
000001a0: 3cea 7c3f 4ca5 813f a4c5 713f 6449 7e3f
000001b0: 48b0 723f 136a 7d3f 1402 703f 053f 8b3f
000001c0: ac34 8d3f 3674 813f 9059 7c3f 2546 803f
000001d0: 065c 893f 4892 7f3f 8b62 853f 8c6a 593f
000001e0: 370e 753f 415e 703f b161 783f 4437 7e3f
000001f0: 5c64 623f 7db7 7e3f 07f0 7a3f f443 7c3f
1.0394992 1.0478407 0.9890657 1.0026782 0.90198505 0.99320334 0.9691157 0.98722154
1.110431 0.9821273 1.0285095 0.97519374 0.9342039 1.0537238 0.9760792 1.0843428
0.94173974 1.0008215 0.98294985 1.0777732 0.99820143 0.9806376 0.9863514 0.9026127
1.0064726 0.982252 0.9896191 0.92309284 1.0396798 0.92507607 1.0020508 0.98926026
0.9933733 0.968565 0.99026644 0.97419727 0.9754029 0.98990494 0.9807621 0.984996
0.9785891 0.99811083 0.962579 0.95305914 0.98544973 0.93100613 0.98971903 0.97108686
0.9942345 0.98896134 0.9527958 1.025175 0.98267025 0.9911269 0.98364365 0.9651739
0.98320884 0.9893231 0.99424547 1.003299 0.99052316 0.9867462 0.9790959 0.98474747
0.99929416 0.97518486 1.0226227 0.9847226 0.99609506 1.0077801 1.016577 0.9965713
0.9787942 0.99179 0.95613736 1.1097037 1.0198498 0.99824613 0.9885063 0.9903193
0.9937765 0.94685376 0.9681675 0.97745734 1.0022513 0.966276 0.8836435 0.99090964
0.98998433 1.0238035 0.9816878 0.9789958 1.0008222 1.0005718 0.9943114 1.0139371
1.0370106 0.9955118 0.9899985 0.98877054 1.0596919 1.0257306 0.9356342 1.0507413
0.98794913 1.012857 0.944422 0.99330735 0.94800234 0.9898998 0.9375317 1.0878607
1.1031699 1.011359 0.9857416 1.0021406 1.0731208 0.9983258 1.0420698 0.849282
0.95724815 0.9389382 0.97024065 0.9930308 0.88434386 0.9949873 0.980225 0.9854119

q1_layer_norm2.bias f4 [128]
00000000: 12e9 8d3d 0bd7 9c3d 20a7 3739 898e 4b3d
00000010: 4e23 073d d870 c2bb f604 abbc f69b 7ebc
00000020: 59b9 cd3d 8cb8 293c 14db 883d 08ac 09bd
00000030: 69f1 893c 429a 913d 6dd7 04bd 7767 ae3d
00000040: cc4f 0b3d f8d4 923a 74cc d1bb e427 ba3d
00000050: d553 daba c22f d6bc d786 75bc 9b67 423d
00000060: 2901 623d 25c5 fabc eb45 62bc 3c13 963c
00000070: 5bf0 9e3d e09f d53c a578 7a39 fb88 03bc
00000080: dd9c 11bc 710a 02bd 6630 43bc 7f58 16bd
00000090: 67c0 12bd 40b6 22bc 3343 67bc 79ed 97bc
000000a0: ffc7 453d cba6 5e3d ebad 2b3d 5282 4a3d
000000b0: a39f e6bc d222 89bb 7cd1 65bb 511a bcbc
000000c0: 73c4 753d 3c46 21bc bb0e c1ba 4b00 943d
000000d0: 03e8 f8bc dcc9 33bc af79 ccbc 0327 53bd
000000e0: 94e5 c5bc 0496 a8bb 3328 b5bb a164 733b
000000f0: cade 0cbb 8a3d 71bc fe85 d9bc 243c 4fbb
00000100: 50c8 2a3b 0c55 26bd c3a5 ab3d 160e c8bb
00000110: aaa9 853d 6087 643c ec81 973d 0d09 6cbc
00000120: 68cc 85bc e22e 3cbc 63a1 afbc f3af eb3d
00000130: 8ce8 913d 8677 97bb f506 8dbc 80c5 1cbc
00000140: 6acd d0bb 90c6 183d ce47 ad3c 2ed0 85bc
00000150: 7da3 1f3b 6aa6 873c 62db 043d 152f 6dbc
00000160: 5275 1abc cbf6 6b3d 6fa5 e2bc ecf7 a1bc
00000170: c359 50bb e29f 203d 364a 95bb 4f7d 8e3d
00000180: adc2 8b3d 7850 33bc 9710 05bc 2036 ffbb
00000190: aae9 b53d 5da1 833d 2863 233d 8042 793d
000001a0: d73c 9fbc b1dc 913d 9536 0c3b 3672 fcbb
000001b0: b15b 13bd efe1 a23d 389b 0f3d bc94 b23d
000001c0: 1e67 ae3d ec52 863d 4e9d a0bc eb87 813d
000001d0: f15a c03d 1dea df3b babe 763d 15a3 8f3b
000001e0: e253 a53c db28 c33b 254e 2ebd 27c6 07bc
000001f0: 3fdd 4b3d 2ebf 153b 5b70 debc ffbe 663d
0.0692922 0.07658204 0.00017514499 0.04969648 0.032992654 -0.005933862 -0.020876389 -0.015540114
0.10045118 0.010358941 0.06682411 -0.033611327 0.016838746 0.071095005 -0.03243201 0.08515828
0.034011647 0.0011202386 -0.0064025465 0.0908964 -0.0016657064 -0.02614582 -0.014985762 0.047462087
0.055176888 -0.030611584 -0.013810615 0.018319719 0.07760688 0.02607721 0.00023886802 -0.008028264
-0.008887497 -0.03174824 -0.011913395 -0.03670549 -0.03582802 -0.009931147 -0.014115143 -0.018545853
0.048286434 0.054358285 0.041913908 0.04944069 -0.028152293 -0.004185059 -0.003506749 -0.022961767
0.0600018 -0.009843405 -0.0014729121 0.072266184 -0.03038407 -0.01097342 -0.024960367 -0.051550876
-0.024157323 -0.0051448364 -0.0055284738 0.0037138837 -0.0021495097 -0.014724145 -0.02655315 -0.003162154
0.0026059337 -0.04060845 0.08381226 -0.006105195 0.065265015 0.013948292 0.073978275 -0.014406455
-0.01633282 -0.011485787 -0.02143926 0.11508169 0.07124433 -0.0046224026 -0.017215231 -0.009568572
-0.0063721435 0.03729874 0.021152403 -0.01633462 0.0024358921 0.016558845 0.032435782 -0.014476557
-0.009427385 0.057608407 -0.027666776 -0.019771539 -0.0031791783 0.039214976 -0.004555966 0.069574945
0.06824241 -0.010944478 -0.008121631 -0.0077884346 0.088824585 0.06427262 0.039889485 0.060854435
-0.01943819 0.07122172 0.0021394838 -0.0077040447 -0.035976116 0.0795325 0.035060138 0.08719775
0.08515762 0.06558785 -0.019606259 0.063247524 0.09392346 0.0068333284 0.060240485 0.0043834546
0.0201816 0.005955798 -0.042554993 -0.008286989 0.049771544 0.0022849548 -0.027153185 0.05633449

q1_layer_norm3.weight f4 [64]
00000000: e7d4 7c3f 7138 de3f c9da 823f b2a0 e03f
00000010: f539 813f 7328 7f3f 05cf 7c3f 9885 e13f
00000020: 80b8 7e3f 1626 813f df11 833f 1781 7d3f
00000030: cf3e 7c3f 3431 823f 6fca 7f3f 4161 dc3f
00000040: 05cd 7d3f b95d e13f a1eb 7c3f 7da9 7e3f
00000050: 23f7 813f bbcc e33f ae80 7d3f 9ac7 e23f
00000060: ab6a 7c3f d058 813f 38b4 de3f 8768 7d3f
00000070: b0b1 7c3f dece e23f 7d85 7d3f e843 7c3f
00000080: caa5 e03f e6b3 e53f 2409 de3f b234 833f
00000090: 8ee2 7f3f 7f48 823f 8e27 7e3f 9c83 813f
000000a0: 6315 7e3f ff86 7d3f 901a 813f 8e71 823f
000000b0: bf01 7e3f a66b 7e3f 0002 823f 99a9 df3f
000000c0: 2c4f e23f 7388 7c3f 371c 813f 9580 7d3f
000000d0: 20fc 7d3f 6c1e 813f 499d 7f3f b046 823f
000000e0: bbcc 7e3f e802 dc3f d3c4 7c3f 4df2 7d3f
000000f0: 95bb 7c3f 5cbc 7c3f ce57 de3f ac24 823f
0.98762363 1.7360975 1.0223018 1.754904 1.0095812 0.99671096 0.98753387 1.7618895
0.99500275 1.0089748 1.0239829 0.990251 0.9853334 1.0171266 0.99918264 1.721718
0.9914096 1.7606727 0.9879704 0.9947737 1.0153545 1.7796854 0.99024475 1.7717164
0.9860026 1.0105228 1.7398748 0.9898762 0.9870863 1.7719381 0.9903181 0.98541117
1.7550595 1.7945526 1.734654 1.0250456 0.9995507 1.0178374 0.99279106 1.0118289
0.99251384 0.9903411 1.0086231 1.0190904 0.99221414 0.9938301 1.015686 1.7473632
1.7680411 0.98645705 1.0086735 0.99024326 0.9921284 1.0087409 0.99849373 1.0177822
0.99531144 1.7188387 0.9873783 0.99197847 0.9872373 0.98724914 1.7370546 1.0167441

q1_layer_norm3.bias f4 [64]
00000000: b257 99bc 226e 3c3f 4883 043d bc8b 3e3f
00000010: 150a d33c 66f9 893b 0a4c 8ebc 5106 423f
00000020: cc78 a9bb d58e a83c 7b9d 273d cc38 63bc
00000030: c975 cabc a340 c23c 9541 543b 4cd0 393f
00000040: 04c8 36bc aec2 3f3f d2f8 80bc 0f1c 1ebc
00000050: 77d5 be3c 3ad1 453f 71e9 51bc a010 423f
00000060: 2c43 a6bc 74a2 bc3c 3d8b 3b3f 64e6 4fbc
00000070: 8baa 6bbc 93f6 403f d05c 3dbc dede 9cbc
00000080: 5b86 3e3f e65c 443f 009f 3c3f d0b0 2c3d
00000090: a4c6 d3bb d208 db3c a872 26bc e46e 9c3c
000000a0: a086 2bbc e1d4 6abc 3e80 673c de4d 073d
000000b0: d0d8 1fbc 3036 afbb 0dfc b33c 3fe5 3e3f
000000c0: 2dad 413f 6b99 b2bc 8ff2 ba3c a1a2 80bc
000000d0: b486 25bc 23c5 a83c 0d60 823b 28b8 d53c
000000e0: c3b9 b5bb 9593 3a3f a038 4dbc 517b 4abc
000000f0: 0b42 87bc 6243 92bc 7ffc 3a3f 10d4 b33c
-0.018718574 0.7360555 0.032351762 0.7443197 0.025761643 0.004210639 -0.017370243 0.7579089
-0.005171871 0.02057592 0.04092167 -0.013868522 -0.024714367 0.023712462 0.0032387723 0.7258346
-0.011156086 0.7490643 -0.015743647 -0.009650244 0.023295147 0.7727238 -0.012812004 0.7580662
-0.020295702 0.023026682 0.73259336 -0.012689207 -0.014383922 0.7537624 -0.011557773 -0.01914924
0.7442376 0.7670425 0.73680115 0.04216081 -0.006462889 0.026737604 -0.010159172 0.019095846
-0.010469109 -0.014332981 0.014129696 0.033033244 -0.009756282 -0.005347036 0.021970773 0.7456855
0.7565487 -0.021801671 0.02282074 -0.015702548 -0.0101029165 0.020601815 0.0039787353 0.02608879
-0.005545826 0.7288144 -0.0125257075 -0.0123585025 -0.016510984 -0.017854396 0.7304153 0.021951705

q2_layer1.weight f4 [128, 27]
00000000: f692 09be 8397 8abd ca98 93bd f86f f83c
00000010: e8d3 993d f167 39bd f3c9 213d e377 023e
00000020: 30f3 b43d 4a72 c0bc 6714 1a3d 98bb 84bd
00000030: d752 183e 43e3 483d c377 c4bd ce58 a6bc
00000040: 747f f1bd eff8 6d3c ec72 2ebe 7893 7dbd
00000050: 6cbc 85bd c974 433d a7ab 5bbc 47b4 8d3d
00000060: c456 85bd b669 c33c 3c3a 133d e04e 453e
00000070: 2759 463d 26cd cfbd 50af 183e 4cdf ef3d
00000080: c06c 003e 9c7c a63d 4900 cb3c cc5a c3bd
00000090: ca36 f5bc 42d9 87bd 07dd db3c 2ada 7ebd
000000a0: b72f 0ebd d704 a23d cc4f e6bb 051d 1d3c
000000b0: 60ef c4bc 04e6 08bd 7003 d2bb 542e 33bc
000000c0: 624d 3d3d 5ea0 23bd 18d0 403e 88c5 e4bd
000000d0: 48f0 38bd 8d64 91bc 6403 623d 0f67 a73c
000000e0: 15b8 b73d 300c 42bd 7b26 f1bb 8347 82bd
000000f0: 25ad eebd 6e61 9f3d d779 b93c 6c06 47bd
00000100: d789 49bd 48f4 203c ed8d a83d 0db2 c0bc
00000110: beb1 99bd 7358 c23c 65be 073d ca29 ecbd
00000120: 7d3d cc3c 5969 173d a1e5 de3c ec3d b0bc
00000130: 92ef 19be 62a5 95bc d481 7ebd a89b 763c
00000140: 1d02 14bd 16d9 86be 52b4 2cbd 22a0 d8bd
00000150: 1f3a 1ebe 8db1 6cbe c2b4 d2bd 3e6d 85be
00000160: 688c 89bd 6778 a43d c249 c63c 7529 dcbc
00000170: 5a9d c23d ce82 193e 70e1 43bd 0e08 d7bd
00000180: 8d4f dd3d c350 2d3d ecbe 95bc b22d 353c
00000190: 7a65 003d 3adf e9bd 9e16 52bd bc01 1f3e
000001a0: 7757 9a3c 6c27 033c 5791 4abd cda9 e93b
000001b0: 68d3 183e 0328 493d 8150 0d3e fddd 613d
000001c0: 9b79 2c3e 3371 aa3b 1111 e63d be3e 2c3d
000001d0: b5bc 05bd 3b90 c73c 847b df3d c7aa 15bc
000001e0: 9f6e 01bd 4caa d43d f0e9 ad3d 656a fd3d
000001f0: 5a15 1d3d b384 1fbd 8580 e03c b137 84bd
00000200: f925 283d 1acf aa3d 071e 9d3c bbee 9b3b
00000210: 2b78 a3bd 1506 d13c a863 9a3c 8cef 98be
00000220: 54b0 29be a1fd a0be fc1c 42be d5a7 fdbc
00000230: 0b57 a5be 7a4d babd 4c0d 09be 92f2 39be
00000240: af22 eebd 29b4 103e e608 143e ecca 41bd
00000250: 2f12 80be 3d8e 1ebe a4b5 47bd 0157 993d
00000260: 59a1 17be 8454 d33d 7d11 f93d dd30 1ebd
00000270: 8dd0 5dbd 8e94 cf3d d646 b9bc 4d38 20bd
00000280: 2e8e 7f3d 9c86 2e3d e5dc 91bd 39fb 25bc
00000290: faa2 d1bd 69fa cfbd 3967 aa3c 5c5c 893d
000002a0: 0065 27bd 6e0e fd3d a6c9 c9bd 9ce0 7cbd
000002b0: 5821 05bc 3030 8c3d f85c 08be 4250 e6bd
000002c0: ca21 4d3c 3125 0b3c f07a fbbc e953 203d
000002d0: 4660 723b 4a38 a5bc 7b65 413d ab3b 8cbd
000002e0: c93f bbbd f339 853d 217d b2bc d8d0 bbbc
000002f0: 0cea c4bd 4457 17be cfbd 2dbe c679 5b3c
00000300: 0747 14be f8a8 32be 5cd9 20bd 1cbe 34be
00000310: 1562 08be 846e 4bbd 4377 9f3d e146 dd3d
00000320: 980c 413d fcb2 20bc 79f8 d8bc cbc9 a5bb
00000330: ef7d d8bd 25f4 02bc 30a1 7dbd 9067 30bc
00000340: 5e5c f13d 4db5 533d e6bc f33c b545 723c
00000350: a458 bfbb da90 31bd 7a3b e5bd 5d87 313c
00000360: a1b7 2a3d 60fb 903d 8f2c 6e3c e9b0 1a3e
00000370: ad71 e1bc e35b 81bd 706d 9abb 0804 523b
00000380: fade 60bd 170d 66be 5887 b2bd c8cb f7bb
00000390: 42b0 10bc 221b b13d 89b3 1e3d a86f 77bd
000003a0: 0b02 a2bd 5a73 273d 3a49 d83d 53b0 b5bd
000003b0: 2e9b 11bd 4eb5 0f3d b7f0 95bd e8f6 c13d
000003c0: 7d0e af3d 3783 b2bd 12be 36bd 780f 9bbc
000003d0: fe11 3ebe 46a9 2a3d b686 413d 92b4 c1bc
000003e0: 59f3 0abe 1852 f6bd fa82 233e 2a90 063d
000003f0: 8e97 24bd 414a f33d acba 5a3d 95d4 413d
-0.13434967 -0.0676718 -0.072068766 0.030326828 0.07511121 -0.045265142 0.039499234 0.12741046
0.08835447 -0.023491997 0.037617113 -0.06481093 0.14875351 0.04904486 -0.09593155 -0.020306017
-0.11791888 0.014524682 -0.17036027 -0.061908215 -0.06530079 0.047718797 -0.013407624 0.06919151
-0.0651069 0.023854118 0.03594421 0.1926837 0.048424866 -0.10146551 0.14910626 0.117125124
0.12541485 0.08129236 0.02478041 -0.095388025 -0.029933352 -0.066332355 0.026838792 -0.062219776
-0.034713473 0.079110794 -0.0070285555 0.009589438 -0.024039924 -0.033422485 -0.006409101 -0.010936338
0.046216376 -0.03994786 0.18829381 -0.111704886 -0.045151025 -0.017748142 0.055179015 0.020434884
0.08970658 -0.047374904 -0.0073593236 -0.06361296 -0.116541184 0.07782255 0.022641106 -0.04859011
-0.04920372 0.009823866 0.08230195 -0.023522401 -0.07504605 0.023723816 0.03314056 -0.11531408
0.024931664 0.0369657 0.027209105 -0.021513902 -0.15032795 -0.018267337 -0.062135532 0.01505176
-0.036134828 -0.26337498 -0.042164154 -0.10577418 -0.15451859 -0.23114605 -0.10288383 -0.26059908
-0.067162335 0.080307774 0.024205092 -0.026875237 0.09502669 0.14991304 -0.047822416 -0.10499583
0.10806189 0.04231335 -0.018279515 0.011058258 0.031346776 -0.1141953 -0.0512911 0.15528005
0.018840535 0.008005004 -0.049455013 0.0071308375 0.14924395 0.049110424 0.13800241 0.055143345
0.16843264 0.0052014827 0.11233724 0.042052023 -0.03265067 0.024360767 0.109122306 -0.009134955
-0.031599637 0.10384044 0.08491886 0.12373809 0.03835044 -0.03894491 0.027405033 -0.06455935
0.04105184 0.08340283 0.019179357 0.0047586835 -0.079819046 0.025515595 0.018846348 -0.2987026
-0.1657117 -0.31443503 -0.18956369 -0.030963818 -0.3229297 -0.09096809 -0.13383979 -0.1815894
-0.11627709 0.14131226 0.1445652 -0.047312662 -0.25013873 -0.15483947 -0.04875721 0.07487298
-0.14807643 0.103188545 0.12161539 -0.03862082 -0.054153968 0.101357564 -0.022616785 -0.039116193
0.062391452 0.042608842 -0.071222104 -0.010130697 -0.102361634 -0.10155184 0.020801174 0.06707069
-0.040867805 0.12356268 -0.098529145 -0.06173764 -0.008125626 0.068451285 -0.13316715 -0.11245777
0.012520263 0.008492754 -0.03069827 0.039142523 0.0036983653 -0.020168442 0.04721592 -0.06847318
-0.091430254 0.065051936 -0.021788182 -0.022926733 -0.096149534 -0.14779383 -0.16966937 0.013395732
-0.1448022 -0.17447269 -0.03926979 -0.17650646 -0.13318665 -0.049665943 0.07786419 0.10804535
0.04713115 -0.009808298 -0.026485668 -0.005059456 -0.10570895 -0.007992779 -0.0619213 -0.010766879
0.11785196 0.051686574 0.02975316 0.014787127 -0.005839424 -0.04335103 -0.11192985 0.010835496
0.04167903 0.07079196 0.014536991 0.15106548 -0.027520025 -0.06316354 -0.004712753 0.003204586
-0.054900147 -0.22465931 -0.08717221 -0.0075621344 -0.008831086 0.08647753 0.038745437 -0.060409218
-0.07910546 0.040881492 0.10560842 -0.08871522 -0.03554838 0.035085015 -0.07321303 0.09470922
0.08547685 -0.087164335 -0.04461486 -0.018928275 -0.18561551 0.041665338 0.04724761 -0.023645673
-0.13569392 -0.12027377 0.15967932 0.03285233 -0.040183596 0.11879397 0.05340068 0.047321875
