rl_energy_manager_20250325_1542/models/checkpoint_1000/actor.pth (torch, 82676 bytes, 6 tensors)

layer1.weight f4 [128, 18]
00000000: 2a1f a53e ffda ddbc ab1f 2abe ceda a3be
00000010: 83d8 1cbe a5e7 4ebe 409d debe 9553 2ebe
00000020: c247 1f3d 5e11 31be c285 963e e794 b73d
00000030: 33bc 9d3e 3c45 be3d 5fd5 cf3d 9407 693e
00000040: 508e 843e bafd 5c3e 265a e1bd 8c16 763d
00000050: ee67 debd 6070 e2bc 5e0f c4bd 531c 203e
00000060: 8d85 3ebe c089 debd b44e 88bd 621f 11be
00000070: e83d b63c a762 6ebe 3ff9 593e e306 4dbe
00000080: f955 3a3e c4aa 203d a4bd 9cbd d925 153e
00000090: d132 983e 06f6 013e 0863 4bbe eb30 073e
000000a0: 5e75 a4be 7b95 09be ffe6 e4bd cf45 d03e
000000b0: f8bd cb3c fa07 d3bd d9e9 6d3e 6b0c 133e
000000c0: c90e 973e b521 9f3c 0bd9 95bc 6c01 fd3c
000000d0: 155b a5bd 94db aa3e ba09 8b3d cef2 c73d
000000e0: 3eaa 983d 805b 86bb bfe3 3c3e 2a7d 2bbe
000000f0: 5026 733c c0bc 24be ded8 943d 563d a6bd
00000100: aae9 933d f423 49bd 692e 483e d40d 0fbe
00000110: 33f2 0fbe 6cf4 0fbe b716 593e cadd a03d
00000120: a14a 9f3e c197 fbbe 5e94 00bf eb40 993e
00000130: 350f c4be f2f1 7bbe fab1 a1be 1555 173f
00000140: 3f54 cbbe 9089 24be 11d1 52bd 4cb1 bbbe
00000150: a24e 72be 2b23 04bd 06dd 883e e53a f3be
00000160: 84f1 bbbe 69b8 ab3d 7cf3 043d 36ad b3bc
00000170: 5696 263e 1fe8 fa3c f796 7abe 401e e3bd
00000180: 18a2 253e 7c9b 43be a4f2 1fbd ac89 69be
00000190: 24dc 56be c4f3 bb3d 438c 45bd af6f 8cbe
000001a0: a4d1 27bd 64b2 c4be 27cf 96be 5292 55be
000001b0: bf35 88be ba2d bebd fd95 6d3e 600c 063f
000001c0: ee14 f03d 5a34 06be d982 c0bc 8952 043f
000001d0: 511f 4d3d 8560 54be fe8f 57be f660 05be
000001e0: 0ace 5bbe 8f6a ae3d 2da1 143e b8db 87be
000001f0: 4054 68be 4e3e 81be 66dd 8fbd 38e4 47be
00000200: 22fb 403e 025b 11bd f445 463e b49f 833d
00000210: 05c6 55be 864e 12be 9799 97bd da09 b9bd
00000220: 2aca f5be a6b3 febe 7324 42be 48c6 11be
00000230: fd3b bfbc ef69 23bf 5109 0abe cf32 d2be
00000240: 751f 8fbc c5fa 91bd 0086 62bd cabb f23c
00000250: 5edc 123c 8abc 96be 1716 a7bd 50bf bfbe
00000260: 32a9 36be a8a7 34be f2a0 913e e52f 093c
00000270: 2429 9c3e d89c 5c3d 271c dbbd ad74 3dbd
00000280: 3802 c93e 2a97 73bd cda6 41be 3716 5bbe
00000290: 5438 b63d a655 babe 82ca f9bd 08a4 493e
000002a0: 59de 443d 29f0 24bf 450c 02be a06b 38bc
000002b0: d9d2 39be 9144 e1be 5c7d c9be 5c1a 48be
000002c0: dab4 c8be 2e36 11bf eb43 2ebe 3ccb 02bf
000002d0: 954e 203e 71e0 063c f325 c2bc 034c 4c3e
000002e0: 7ffc 563e 0c68 3e3d e514 a63d a6f3 70bd
000002f0: e4cf 3cbe 0891 ce3c f021 a6bc 942e fdbc
00000300: 5883 983e 84af a73e a13a 84bd abdb 193e
00000310: b118 483e 40cb 45bc 141a 683d 1e46 873d
00000320: 4f37 5bbe 2824 b2bd 7141 4b3e 9a0b bc3d
00000330: f012 40bc 4d84 11be 2caa 13be 9533 58be
00000340: 1659 9dbd 1604 a33d 53e5 193e a6de de3d
00000350: 1359 55be f224 11be a85c 18bd 877a 693e
00000360: 5ca8 0b3d 1005 7abd 3ab5 c73d c4db b7bd
00000370: 9738 1cbe 392a 303e 2a7e dbbd b489 41bd
00000380: e61a 70be d988 213e addc 363e 02ed af3d
00000390: 224b 28be fa34 6ebe dc06 44be 47fb 333e
000003a0: 7ec1 e73d d31a 4b3e c55c e03d 2c58 743d
000003b0: 8044 17bb 5793 e63c 2fca 4ebe 42c1 61be
000003c0: 429b c53d 8f3a fa3c ec4b 42bd 48e7 0abe
000003d0: 3704 ecbe ceb2 15bf 09c4 02bf c99e 84bd
000003e0: 3399 a5be 9e8d cdbe 182d 00bf 5bdf b6be
000003f0: 48f0 b03c 8cb4 1abe 7f22 b6bd 2fa4 09bf
0.3225034 -0.027081965 -0.16613643 -0.32002872 -0.15316968 -0.20205553 -0.43479347 -0.17024072
0.038886793 -0.17291781 0.29398924 0.08963948 0.30807647 0.09290549 0.10148119 0.22756797
0.25889826 0.21581164 -0.110035226 0.060080096 -0.10859667 -0.027641475 -0.095732436 0.15635805
-0.18605633 -0.108661175 -0.066556364 -0.14172128 0.022246316 -0.2327982 0.21286486 -0.20022158
0.18196858 0.039225355 -0.076533586 0.14565219 0.2972627 0.12691507 -0.19861996 0.13202254
-0.32120794 -0.13435929 -0.111768715 0.4067826 0.024870858 -0.10304256 0.23233737 0.14360206
0.29503468 0.019425252 -0.01829197 0.030884467 -0.08074013 0.3337065 0.067889646 0.09763108
0.07454346 -0.004100263 0.18446253 -0.16746965 0.014840677 -0.16087627 0.07267927 -0.08117168
0.07222302 -0.049106553 0.19548954 -0.13970119 -0.14057235 -0.14058083 0.21200071 0.07854803
0.31111625 -0.49139217 -0.5022639 0.2993234 -0.38292852 -0.24604014 -0.31581098 0.591142
-0.39712712 -0.16068101 -0.051468913 -0.36658704 -0.23662809 -0.0322601 0.26731128 -0.4750587
-0.367077 0.08384783 0.032458767 -0.02193318 0.16268286 0.030628262 -0.24471651 -0.11089754
0.16175115 -0.19102281 -0.03904976 -0.22806424 -0.20982414 0.09177354 -0.048229467 -0.27428958
-0.040971413 -0.3841735 -0.2945492 -0.20856598 -0.26603505 -0.092860654 0.23201747 0.5236263
0.11722742 -0.13105908 -0.023499893 0.5168844 0.050078694 -0.20739944 -0.21051022 -0.13025269
-0.21465316 0.08516418 0.14514609 -0.2653482 -0.22688389 -0.25242847 -0.0702465 -0.19520652
0.188458 -0.035487182 0.19362622 0.06426945 -0.2087632 -0.14287767 -0.07402342 -0.09035082
-0.480058 -0.49746436 -0.18959217 -0.14235795 -0.023344034 -0.63833517 -0.13480116 -0.4105439
-0.017471055 -0.071279086 -0.055303574 0.02963056 0.008963672 -0.2944072 -0.0815851 -0.37450647
-0.1783798 -0.17642081 0.28443104 0.008373235 0.30500138 0.053860515 -0.10698729 -0.04625385
0.39259505 -0.059470333 -0.18911286 -0.21395193 0.088974625 -0.3639347 -0.121968284 0.19691479
0.04806361 -0.64428955 -0.12699993 -0.011256129 -0.18146838 -0.43997625 -0.39353454 -0.19541305
-0.3920048 -0.56723297 -0.17018096 -0.5109136 0.15654977 0.008232222 -0.023699736 0.19950871
0.20994757 0.046485946 0.08109454 -0.05882611 -0.18438679 0.02521564 -0.020279855 -0.030906
0.29787707 0.32751095 -0.06456495 0.15025203 0.19540669 -0.012072384 0.056665495 0.06605171
-0.21407817 -0.086983025 0.19849183 0.091819 -0.011723265 -0.14210625 -0.14420384 -0.21113427
-0.076830074 0.07959764 0.15028886 0.108823106 -0.2083476 -0.1417425 -0.03719774 0.22800647
0.034096107 -0.061039984 0.09751363 -0.08977464 -0.15255962 0.17203607 -0.10717423 -0.047250465
-0.23447761 0.1577486 0.17857619 0.085901275 -0.16434911 -0.23262396 -0.19143242 0.17576323
0.113162026 0.19834451 0.109551944 0.0596544 -0.00230816 0.028146429 -0.20194314 -0.22046378
0.09648754 0.030545501 -0.047435686 -0.1356479 -0.46096966 -0.5847596 -0.51080376 -0.06475598
-0.32343444 -0.40147108 -0.5006881 -0.35717282 0.02159895 -0.15107936 -0.08893298 -0.5376615

layer1.bias f4 [128]
00000000: b85d 37be 9a93 3fbe 6412 ae3d 4036 44be
00000010: 0c1f 2cbd 977b 913e 4f62 8f3e 28e5 0cbe
00000020: 7699 263e ae46 23be d36c a73d 90ac 42be
00000030: 53b4 14be 16d7 80be 29cc bf39 c8f0 5cbe
00000040: 763c 20be 8ee5 843d 8ec7 6e3e d928 a33e
00000050: d003 2f3e 8d01 40be e3fb 193e d9e8 a23d
00000060: 1ec3 26be 9ae1 cdbd 9073 04bd cd79 58bd
00000070: d9a3 64be 5c2d 583e 596f 513e fb5d 79be
00000080: 75da 1b3e 285b e4bd f69e 543e c647 093e
00000090: dbe0 813e ced3 0e3e a605 b5bd eaa3 adbd
000000a0: 474d 043e 3caf db3d 5916 8d3d bfd6 423e
000000b0: 4e0d 6d3c 5550 283e d4ae 75bd 65ef 0a3e
000000c0: ce4a 7e3b 59b2 693e 07c8 48bd 1ee9 673e
000000d0: 1e4c 823e 5e87 af3c 86da 22bc 18da d0bd
000000e0: 1e4c 963e 2e09 4fbe 0a0a ef3d 1327 0b3d
000000f0: 503f 913e 01dd c1bd df19 1f3e 5135 7a3e
00000100: d312 14be 74f0 843e 4346 823e 3a49 a33d
00000110: 2417 4abe a002 bb3d 2fdb b1bd c4e4 13be
00000120: 1cd4 5abe e71d da3d c417 15be ef63 243e
00000130: dc99 3ebe d98a 81bd 0228 60be 97ad 0b3e
00000140: 7f78 163e 092e 413e bbba 883e ee56 39be
00000150: 1196 9c3d 7d10 69be c69b 3abe b601 6f3e
00000160: 0225 113e a2de 4fbe 148f 61be 765a 58be
00000170: 2843 6c3e d6e2 0a3e 388d ecbd 0b5a 8cbb
00000180: d03e 11be 694c 59bd 42a3 c6bd 5577 b33e
00000190: 3166 d63d b0b2 1d3e 4f3f 713e 93bb 33be
000001a0: e3a1 44be 60d1 943d 5a45 08be cc75 a43d
000001b0: 6905 883e 0676 fcbd 5c6c 28be 5c55 653e
000001c0: 3924 43be 25fd 7a3e 11fe 03be a400 943e
000001d0: 05ec 3fbe 15e0 07be e27e 503d 4b17 dd3d
000001e0: 2fa7 8f3e 8deb 8b3e 1636 043d d914 7f3e
000001f0: 51b4 7d3e 2043 60bd 0d18 d23c f5c6 74be
-0.17906845 -0.1870865 0.084996015 -0.1916132 -0.042021796 0.28414604 0.2800469 -0.13759291
0.16269478 -0.15944931 0.081750534 -0.1901114 -0.14521913 -0.25164098 0.0003658247 -0.21576226
-0.15648064 0.064890966 0.23318312 0.31867102 0.17091298 -0.18750592 0.15037493 0.079545684
-0.16285369 -0.10052796 -0.03233677 -0.052850533 -0.22328128 0.21111053 0.20452632 -0.24352257
0.15220053 -0.11150199 0.20763764 0.13406286 0.25366864 0.13947985 -0.08838968 -0.0847853
0.12920104 0.10726783 0.06889028 0.19027232 0.014468504 0.16436894 -0.059981182 0.13567884
0.0038801911 0.2282194 -0.049018886 0.22647521 0.25448698 0.021426853 -0.009939795 -0.10197848
0.29354948 -0.20218346 0.11671837 0.03397281 0.28368616 -0.09465981 0.15537213 0.24434401
-0.14460306 0.259647 0.2544423 0.07972951 -0.1973539 0.0913136 -0.08684384 -0.14442736
-0.21369976 0.10650235 -0.14559847 0.16053747 -0.1861338 -0.06325311 -0.21890262 0.13640438
0.14694403 0.18865217 0.26704964 -0.18099567 0.076458104 -0.22760196 -0.18223485 0.23340496
0.14174274 -0.20299771 -0.22027236 -0.21128258 0.23072493 0.13563094 -0.11550373 -0.004283195
-0.14184117 -0.053051386 -0.09699108 0.3505198 0.1046871 0.15400195 0.23559307 -0.17552023
-0.1920238 0.072664976 -0.13307706 0.080302805 0.26566628 -0.12327199 -0.16447586 0.22395843
-0.19056787 0.2451063 -0.12889887 0.2890674 -0.18742378 -0.13269074 0.050902255 0.107954584
0.28057238 0.27328148 0.032278143 0.24910296 0.24775817 -0.054751515 0.025646234 -0.23904021

layer2.weight f4 [128, 128]
00000000: 0757 15bd 6e17 783d 1d02 2a3e d38c 8e3d
00000010: be60 a03c c67e 893d 489b bf3d 9e93 483d
00000020: 1d12 a33b a24a 053e 9ef3 8d3a ac2b b0bd
00000030: deac 003d 762c 92bb 281f 95ba eaef 743d
00000040: 031e 59bc 26b8 60bd a98d 083d a5a6 f83d
00000050: b4c1 9d3d 6b82 893d bcf4 74bd 3c05 fbbb
00000060: 1b31 903d a33a 823d 824d 413d f394 ccbc
00000070: fff9 8c3d 73cb f63c 5d59 c03d 8360 f23d
00000080: 02fc 5e3d 63e9 343d c1e8 133e e8c3 43bd
00000090: 527b c83d cb67 74bd e750 3bbd 93d2 9dbd
000000a0: a12f 0b3c a2e1 763d 95af bebd d5e5 9ebc
000000b0: e273 d43d bed8 983c c1ec ae3c e743 fdbc
000000c0: 5ade febc ee0c 0c3d 5e4b 0f3e 7126 12bd
000000d0: a151 853b f258 fd3c de01 e1bc 3822 003e
000000e0: 7731 a13d 0066 523c 8f7d 8ebd 0b71 c23d
000000f0: fb50 853d 1d3a 503d 8941 1dbc a841 e63c
00000100: ff48 b13c 6230 9b3d 83cb db3d 7e42 b13c
00000110: 758a 9f3d dd5e 183a 2695 1cbc aa49 923c
00000120: 73d5 a9bd 850a 6ebd 54ed 4b3c 2457 6c3d
00000130: b4bd 863d 7c60 ad3a 4a69 77bd 1b48 833d
00000140: c8a1 40bd 41d5 a93d fbef f43d e358 67bd
00000150: 4ab2 523d 7094 ca3d 0579 af3d aeaf 8bbc
00000160: 9d1d 9f3d 7213 8ebd 143b 6bbd b8b3 183e
00000170: ead0 053d 9de6 de3d ae3f e23c ecb9 e5bd
00000180: 3d6f 933d 7f65 293d c065 063c 5531 86bd
00000190: 112d 0d3d 367d adbd 0c0a f63d c90e 033d
000001a0: 106f 983c b61e 8a3d 8700 053d e9dd 233c
000001b0: 8a17 d93d a90b 783d e67f 5fbd f5e5 a13d
000001c0: 0f2b 8fbd d60f 1b3d 8a2f f0bc 37fb 04bb
000001d0: ad7a b1bd a8ec 943d 169f df3d 6bcf 263c
000001e0: ae78 1e3e 3b28 f3bb b81e 9b3d 1bc3 a23c
000001f0: 9f6f e8bb ca58 123d a258 1abb d4f4 b53c
00000200: 892a b8bd 4e0f 7d3d 823e d23d 9066 683c
00000210: 8c4f 0dbe b992 6f3d 5e95 253c 5e66 603e
00000220: d0c2 bf3c f569 403e 5852 273b 9e9b 403d
00000230: 0025 8fba 76d8 df3d 444e bc3d 79c8 88bd
00000240: 3d06 4fbd 6d21 0cbd b839 ba3c 556b 8f3c
00000250: 8752 fe3b 112f 2dbd 883e 623d 35f9 57bd
00000260: a9b9 17bd 68ea 67bc 154a 63bd 02d7 ddbd
00000270: dffc a23d 4671 5e3d dce1 9dbd 7140 883d
00000280: 2697 043e 8001 bd3d b0ee b03d 3b80 ae3d
00000290: 40d1 8b3d 5e8a c13c 60fe 9eba 500d 43bc
000002a0: 80ba cbbc 89bd bcbc f3fa d1bd f8a4 193e
000002b0: f335 c1bd d2b4 dc3d 51bf 28bc a2ed c4bb
000002c0: 420e 853c 111a 483d d87d e83d 2aea 253e
000002d0: f2f1 9d3d 8489 48be 68a3 9fbd 4a31 0f3e
000002e0: 1057 123e ae5c 2c3d fcb5 603c fb4b 12be
000002f0: 83e2 6a3b 7f53 173e 677a 94bd f881 923c
00000300: 9919 9ebd 4e81 c13d 5b7c c8bc 33ee b83c
00000310: d680 543d 5a95 b6bd 6748 8a3d 6cb0 cebd
00000320: 4e98 3b3d 2e74 9f3d 4713 e7bd 6169 9ebd
00000330: 0b5d a63c ffe2 0d3d b06d 10bc de71 2e3d
00000340: 8c91 083d 719f 6c3b b978 b33d 1a7d 0d3d
00000350: 096c 89bc 5bdd 56bc 0b04 8abd fdd0 7f3d
00000360: 2856 c83d bcf9 c0bc 2f68 38bd 2634 3a3d
00000370: 8304 2c3d 75ab 4ebd 5bf0 99bd f241 16bc
00000380: 710d 32bd c3ac 76bd 10b9 dc3b 47e2 4d3d
00000390: 5457 38bd beb5 433d f71e 44bd 9940 d1bc
000003a0: 2090 34bb 97bf debd 94e4 a3bd fbc7 df3d
000003b0: eee9 283d a7a7 18bd c098 40bb 1aeb 173e
000003c0: 4d25 3bbe 86df 6abc a66b 2bbd 2516 99bc
000003d0: 4057 47bb a9ba 30be 4462 9e3d ae69 99bd
000003e0: 6025 053e 05ab aabc 964c 1a3b 727b 093e
000003f0: 725b 5d3d 1579 a63d baf5 cabd 55f3 c8bd
-0.03645995 0.06056922 0.16602369 0.06960454 0.01957738 0.06713633 0.093557894 0.048968904
0.0049765245 0.13016751 0.001083005 -0.0860208 0.03141486 -0.0044608666 -0.0011377083 0.059799112
-0.013251784 -0.054863118 0.033338223 0.1214116 0.077029616 0.067143284 -0.05980371 -0.007660536
0.07040616 0.0635884 0.047193058 -0.024973368 0.068836205 0.030126309 0.09392045 0.118348144
0.054439552 0.044167887 0.14444257 -0.047794253 0.097891465 -0.059669297 -0.04573145 -0.077061795
0.008495242 0.060273774 -0.09310833 -0.019396702 0.103736654 0.018658038 0.021353127 -0.030916167
-0.031111885 0.03419202 0.13993594 -0.03568119 0.004068569 0.030926201 -0.02746671 0.12513053
0.07870763 0.0128417015 -0.06957542 0.094942175 0.065095864 0.05083667 -0.009598144 0.02810748
0.021641253 0.07577588 0.10732176 0.021638151 0.077900805 0.00058124756 -0.009557044 0.017857391
-0.08292665 -0.0581155 0.01244672 0.05770029 0.06579152 0.0013227607 -0.060403146 0.064102374
-0.047029287 0.08292628 0.11959835 -0.056481253 0.05143956 0.098915935 0.085680045 -0.017051544
0.0776932 -0.06937303 -0.05742939 0.14912307 0.03266994 0.1088383 0.027618255 -0.112171024
0.071989514 0.04135656 0.00820297 -0.06552378 0.034466807 -0.08471148 0.12013635 0.031996522
0.018607646 0.06744139 0.032471206 0.010001638 0.10600193 0.060557995 -0.054565333 0.07905189
-0.06990635 0.0378569 -0.029319543 -0.0020291337 -0.08665977 0.07271701 0.10919015 0.010181288
0.15475723 -0.0074205673 0.075742185 0.019868424 -0.0070933844 0.035729207 -0.0023551364 0.02221147
-0.08992488 0.061782174 0.10265829 0.014184609 -0.13799876 0.058489535 0.010106413 0.2191405
0.023408324 0.1879042 0.0025531258 0.047023408 -0.0010921061 0.109299585 0.091946155 -0.06678862
-0.05054306 -0.034211565 0.0227326 0.017507235 0.007761303 -0.042281214 0.055235416 -0.052727897
-0.037042294 -0.014155008 -0.055490572 -0.10832025 0.079583876 0.054307245 -0.07709095 0.06652916
0.12948284 0.09228802 0.08639276 0.08520552 0.06827021 0.023625549 -0.0012130253 -0.011905029
-0.024869204 -0.023039596 -0.10252943 0.15004337 -0.09434118 0.10776676 -0.01029952 -0.0060097734
0.01624215 0.048852984 0.11352128 0.16202608 0.07712163 -0.19583708 -0.07794839 0.13983646
0.14291024 0.042080574 0.013715263 -0.14286797 0.0035840578 0.14777945 -0.07249909 0.01788424
-0.07719726 0.09448491 -0.02447336 0.02257452 0.05188068 -0.08915205 0.06752091 -0.100922436
0.045799546 0.077858314 -0.11282974 -0.07734943 0.020308038 0.03464031 -0.008815214 0.04258906
0.03334193 0.0036105777 0.087632604 0.034543134 -0.016775148 -0.013114299 -0.067390524 0.062455166
0.09782058 -0.023556583 -0.045021232 0.04545989 0.04199649 -0.050456483 -0.07516547 -0.009170996
-0.04346985 -0.060223352 0.0067359284 0.050264623 -0.045005158 0.047780745 -0.047881093 -0.025543498
-0.0027551726 -0.108763866 -0.08002582 0.10926815 0.041238718 -0.03726926 -0.002938792 0.14835778
-0.18275948 -0.014335519 -0.04185071 -0.018687317 -0.0030416995 -0.17258705 0.077335864 -0.0749086
0.13002539 -0.020833502 0.0023544184 0.13425997 0.054042287 0.08128563 -0.0991015 -0.09812037

layer2.bias f4 [128]
00000000: 9fa7 cc3d 3eca 9d3d 9a62 ba3d 5dde 93bc
00000010: 9b94 c33d d8d3 773d 1e04 f53c 5303 adbb
00000020: 0a1b b2bd ec0d bbbd b90c 2ebc cdbf 383d
00000030: b8a6 a73d 2b85 953c 70b5 ccbc 2ba2 5bbd
00000040: def7 a0bd 0e85 3cbd 0336 0b3d 9823 f3bc
00000050: 5345 24bd ebc4 b73c c947 21bb a267 ffbc
00000060: b67c f23b fd38 d63c 37a5 93bc 850e 9c3d
00000070: 0031 083c 6b2e 9ebd a6db 293d 3e88 c03d
00000080: 86b4 e63d b379 dd3c 575d 2b3e c710 663c
00000090: e5ce 05bc 08bc ae3c cb4b 2fbd ed26 38bc
000000a0: 7333 143e c651 94bb 2c54 93bd 25b0 163e
000000b0: 8372 9a3c f928 a93d db43 f73c 7656 c03c
000000c0: dc2e 383d 88a5 92bd 34ac 743d dbda e03d
000000d0: a707 66bd 6f65 51bd a1bf 7d3d c5bb cebc
000000e0: 287c 113d 87a0 5bbd caf9 ac3d 2986 8abd
000000f0: 9e6d 5ebd b53b 9fbd 51bd 173c b364 9b3d
00000100: 4bff 213d 32e3 943d 8b45 213d 8ebb f83d
00000110: 4602 8a3c efa7 4e3d 7b60 1c3d ded8 a53d
00000120: ac6c 423d 6373 d83a 1e7b b53d f568 c63d
00000130: 20cf 63bc 99c4 acbd a174 94bc 6148 7f3d
00000140: 9c0c 483d 1eeb d23c da2f 203e b0ac 8c3d
00000150: 1860 363e 70a5 4dbd 8bc2 59bc 0c71 55bc
00000160: 1d60 663c 7831 d4bc 633c 823c 026d 3f3d
00000170: f2f5 ddbd 4fc0 003e 0157 2d3c 6f01 823c
00000180: c79b 7fbd 10d8 51bc d417 d1bc 3f3b aabd
00000190: 4b89 4c3d ecf5 aa3d 5411 cb3d 8880 6dbc
000001a0: d936 abbd 92cc 1f3d 5103 b3bb 9d43 933c
000001b0: 1a25 93bc 6dac 56bd d740 903d 72cb 2bbd
000001c0: b119 893d 29d3 4bbc 3d89 06bd 0e20 71bd
000001d0: 028c c7bd 01fd f83c 5da3 fd3d 5dd6 eb3d
000001e0: 2cb0 a5bd 199d d63d e1b7 8cbd e71a 9abd
000001f0: 5bf4 bbbd 447c 5d3d 3100 1f3c 5d7c a13d
0.09992909 0.0770459 0.09100838 -0.018050367 0.095498286 0.060504764 0.02990919 -0.0052799373
-0.086965635 -0.09133515 -0.0106231505 0.04510479 0.08186096 0.018251976 -0.02498886 -0.053621452
-0.07859777 -0.04602533 0.033987056 -0.029680058 -0.040105175 0.022432765 -0.0024609438 -0.031177346
0.0074001206 0.026150221 -0.018023117 0.07619957 0.008312464 -0.07723697 0.04146924 0.09400986
0.11264901 0.02703557 0.16734825 0.014042086 -0.008167003 0.021329895 -0.04279689 -0.011239749
0.14472751 -0.0045263497 -0.07193789 0.14715631 0.018853432 0.08259768 0.030183723 0.023478728
0.044966564 -0.07160479 0.05973454 0.10979243 -0.05615964 -0.051122125 0.06195033 -0.02523602
0.035518795 -0.053619888 0.08446081 -0.0676387 -0.054303758 -0.0777506 0.009261445 0.07587566
0.039550107 0.072698966 0.039372962 0.12145148 0.016846787 0.050453123 0.03817795 0.08098005
0.04746692 0.001651388 0.08861373 0.09687988 -0.013904363 -0.084359355 -0.01812202 0.062324885
0.04884015 0.025746878 0.15643254 0.06868875 0.17810094 -0.0502066 -0.013291012 -0.013027441
0.014061001 -0.025902495 0.015897935 0.046734817 -0.10837926 0.1257336 0.010579825 0.015869824
-0.06240442 -0.012807861 -0.025524057 -0.083120815 0.04993562 0.08347687 0.099154145 -0.014495976
-0.08360071 0.039013453 -0.005463042 0.017976576 -0.017962027 -0.05241053 0.07043617 -0.041942067
0.06694353 -0.012440481 -0.032845724 -0.05886846 -0.09743501 0.03039408 0.12384675 0.11515496
-0.08090243 0.10479183 -0.068710096 -0.075246625 -0.091774665 0.054073587 0.0097046355 0.078850485

layer3.weight f4 [9, 128]
00000000: ae74 a7bd 9973 16be b19b a23d 0aee 143e
00000010: 2adc 69be ce10 f7bd bcd7 043d f579 27be
00000020: 7062 7c3c 03cf 0abe 830d a0bd cb87 963e
00000030: ab7d e93d f4a2 da3c 3d64 a9bd 1e2c febc
00000040: beef 143d 3af8 083e 0a24 9abe 900b 01be
00000050: aeba d4bd f658 643d 443b 22be 2835 3a3e
00000060: ce0f babd b3e3 e4bc 411d 7cbb e367 e1bd
00000070: d5f9 abbd 60ab 0a3d cf9c b43c 05e7 e8bb
00000080: 093d 8abd 210d c03c 2c27 68be c706 58bd
00000090: e6e7 6dbd 072d 3f3d 31c6 d0bd d975 98be
000000a0: 00fa 84be 8a5b 8dbd 0c85 703d 4e31 b63d
000000b0: 07a8 f6bc ecf2 c2bd 115a 08bd e581 38bc
000000c0: 0a0b a4bd f516 87bd c8ea c3bd 13c1 c63e
000000d0: 1c8e 4e3d c1cf b13d 7ad0 2dbc b0da a9bd
000000e0: e819 a5bd a716 09bd c33b 523c 464f 04bd
000000f0: bc77 4d3c 5ffa af3d d192 b83e ef69 16bc
00000100: 5668 093d 9845 83bd 2347 a0bd e983 0ebd
00000110: 9dc9 d83d 62b6 f2bd 39ce 5d3e 6d91 32be
00000120: 1444 333c f2bd a73d f104 28be fa92 2fbe
00000130: bbd0 f0bc a92e 9bbd 4e35 38bc 9617 05be
00000140: dbcb 74bd 5941 2fbe e0ed b83e e1fc 67be
00000150: 70df 96be 791f b43d 8c61 03bd a9c5 60bd
00000160: 3cc0 a4bd 686a 58be d3bc 73bd dae8 5f3c
00000170: b696 413e 6987 0bbd 33a5 6fbd 0cfa 3fbe
00000180: aa23 17bc 26a7 8cbd 4b66 283d ea48 e6bc
00000190: 55ee 30bd 9425 28be 7972 b43d b16a 823d
000001a0: 5c29 84bd 73be 23be 1609 283e d319 423d
000001b0: 8d28 84be 8f66 863c 6281 5fbe 89fb d0bd
000001c0: 4f0b 8fbe 9a61 433d cc78 923d d652 b03b
000001d0: 3e30 a0bd bc8e 2b3d d6b8 353a 0a35 643e
000001e0: aad9 a23d f0ef a6bd 7c5f 69bd 6804 633d
000001f0: 8678 a3bd e5b9 11bd 6760 643d 9815 3cbe
00000200: ce41 02bc 0a16 57bc 6201 c7bd cd13 493b
00000210: c0bc 1ebe 05c4 14bd 32ab 6a3d 4515 0e3d
00000220: 32dd 5b3d fef1 243e c399 063b 154a 053e
00000230: 9406 b3bd 1fbe 2f3e bc03 a0bd be0d 5c3d
00000240: 89f3 f6ba 8698 eebd 0e64 ef3d 6bf3 a53d
00000250: 3398 ffbc 9ef4 af3d ef43 c13d 95d1 4dbd
00000260: 9833 b5bc dcf1 763d a54f f939 c4d6 8bbd
00000270: 0054 76bd 1d95 52bd 0a7e 3abd de74 a33c
00000280: 341e 093d a869 6abc 0ff8 4dbd daef 0b3d
00000290: 6c20 e6bc 19a2 823c 4899 633e e071 1b3c
000002a0: 41f0 333e a51c 0d3c 196f 6abd b4b2 4d3d
000002b0: 732e f2b9 f10e 4b3e d47b 1bbe a2e8 083d
000002c0: caa3 76be 6fb5 833d 801f f7bd d8d9 ecbe
000002d0: 478f 383e b4d5 0a3d 7d6d 523c f3a0 bbbd
000002e0: 913e 08be 1eba 143d 3fc9 18bd 2400 163d
000002f0: d978 9a3d 58e3 33bc 95ee 05bd 3851 cd3d
00000300: e8ec a4bd 867a 523e 2d47 ccbd 3007 363e
00000310: 5fff 953d 9e06 5ebd 188e 5dbe 446c 2d3e
00000320: 10c4 463d 07d7 1a3e 9fae 07bf 9c85 863e
00000330: 504b f6bc 6da2 7cbd 195a 67be af02 403a
00000340: 7241 533d abf2 dcbc 6aef f7be dbd6 f33b
00000350: 0f62 a7be 8e30 90bd ff22 e83c d2bc 6f3d
00000360: a729 06bd 85e5 c23d 8075 5fbe fa4a debc
00000370: 98a9 583e 65eb ca3d 3af5 0fbd 84d6 4c3e
00000380: ac5c 4c3e 4fd0 8a3d 35dd 9b3e c043 173b
00000390: b2c6 33bd e92f f03c 3da5 4cbe 40ec 39bb
000003a0: e4d0 a6bd 967d c0bc 28d4 38be 2078 b23d
000003b0: 89c4 123d 9949 73bd da43 59bc 2348 10bc
000003c0: 37bb 28be 0070 79bd 9038 703c bb6f 2cbd
000003d0: ebcf 05bd d88f 2fbd 7a38 82be cbc2 50bd
000003e0: 2dc9 c9bb 7c1e 863e bb15 603d 0463 88bd
000003f0: 5c50 883d f562 ea3d 0696 b9bd a053 253e
-0.08176552 -0.14692535 0.07939852 0.1454393 -0.22837892 -0.12063752 0.032432303 -0.16355117
0.015404329 -0.13555531 -0.07815077 0.29400477 0.114009224 0.02668903 -0.08271072 -0.031026896
0.03636145 0.13375941 -0.3010562 -0.12602067 -0.10387169 0.055748902 -0.1584292 0.1818434
-0.09085046 -0.027940607 -0.0038469585 -0.11006143 -0.08397261 0.033854842 0.022047428 -0.007107618
-0.06749923 0.02344376 -0.22671193 -0.05274084 -0.058082484 0.0466738 -0.10194052 -0.2977741
-0.25971985 -0.06902225 0.058720633 0.08896123 -0.030109419 -0.0951899 -0.03328902 -0.011261438
-0.08009918 -0.065961756 -0.09566265 0.3881918 0.050428495 0.08682204 -0.010608787 -0.082936645
-0.08061582 -0.03346887 0.012831631 -0.032302164 0.012540754 0.08592676 0.36049512 -0.00918053
0.033546768 -0.06409758 -0.07826068 -0.034793768 0.1058533 -0.11851193 0.21660699 -0.17438288
0.010941524 0.08190526 -0.16408135 -0.17145911 -0.029396405 -0.07577259 -0.011243178 -0.12997279
-0.059764724 -0.17114772 0.36118984 -0.2265506 -0.29467344 0.087950654 -0.03207545 -0.054876003
-0.08044478 -0.21134341 -0.05950625 0.013666356 0.18905148 -0.034064684 -0.058507156 -0.18747729
-0.009224812 -0.068678185 0.04111318 -0.02811094 -0.04319604 -0.16420585 0.088108964 0.06368006
-0.06453201 -0.1599062 0.16409716 0.04738791 -0.25812188 0.016406326 -0.218267 -0.102042265
-0.27938315 0.047700502 0.071519464 0.0053809686 -0.078217015 0.04188417 0.0006932145 0.22285858
0.079516724 -0.08151233 -0.056975827 0.055424124 -0.079819724 -0.035577673 0.055756 -0.18367612
-0.007950259 -0.013127813 -0.097170606 0.0030681968 -0.1550169 -0.03631975 0.05729217 0.034688253
0.053677745 0.16107938 0.0020538426 0.13016541 -0.08741489 0.17162369 -0.07813212 0.053724043
-0.001884089 -0.11650185 0.11689006 0.08103069 -0.031200504 0.08591579 0.094367854 -0.0502487
-0.022119328 0.06028925 0.0004755232 -0.06828073 -0.060138702 -0.051411737 -0.045530356 0.019953188
0.03347607 -0.014307417 -0.050285395 0.034164287 -0.028091632 0.015946435 0.22226441 0.009487599
0.17572118 0.008612786 -0.057234857 0.050219253 -0.00046192444 0.19829918 -0.15183955 0.03342498
-0.24085918 0.0643109 -0.12066555 -0.46259952 0.18023406 0.03389521 0.012843487 -0.09161558
-0.13305117 0.036310308 -0.0373013 0.036621228 0.07542581 -0.010979496 -0.032698233 0.10025257
-0.08052999 0.20554551 -0.09974513 0.1777618 0.07324099 -0.05420553 -0.21636236 0.16935831
0.048526824 0.15121089 -0.53000826 0.2627381 -0.030065209 -0.06167834 -0.22592963 0.00073246186
0.051576085 -0.026971182 -0.48424846 0.0074413843 -0.32692 -0.07040511 0.028337 0.058529682
-0.032754567 0.095164336 -0.21822166 -0.027135361 0.21158445 0.09908179 -0.035145976 0.20003706
0.19957227 0.06778013 0.30442205 0.0023081154 -0.043890662 0.02931972 -0.19984908 -0.0028369576
-0.081453115 -0.023497384 -0.18049681 0.08714318 0.03583196 -0.05939636 -0.013260806 -0.008806261
-0.16477667 -0.060897827 0.014661923 -0.042098742 -0.03266899 -0.04286179 -0.25433713 -0.05096702
-0.006158015 0.26195133 0.054708224 -0.06659511 0.06655952 0.11444656 -0.09061818 0.16145182

layer3.bias f4 [9]
00000000: 03be 85ba 2894 833c ce26 46bd 2e0a 7abb
00000010: 0b73 0a39 b70c d3bb 566b 0b3d 99b4 3fbd
00000020: 9729 ccbb
-0.0010203723 0.016061857 -0.04837685 -0.003815304 0.00013203562 -0.0064407247 0.03403791 -0.04680309
-0.006230544
