rl_energy_manager_20250325_1542/models/checkpoint_1000/critic.pth (torch, 165410 bytes, 10 tensors)

layer1_1.weight f4 [128, 27]
0	0x3d97586e	0.073899135
1	0xbcf114f2	-0.029428933
2	0x3e1184e3	0.14210849
3	0xbc99a029	-0.018753128
4	0xbe207b50	-0.1567204
5	0xbd9e283a	-0.07722516
6	0x3e110dde	0.14165446
7	0xbe15da50	-0.14634061
8	0xbd1edcab	-0.038784664
9	0x3d7011ec	0.05861084
10	0x3e19d016	0.15020785
11	0x3e3f6d67	0.18694077
12	0x3dc82dea	0.097743824
13	0xbd3d5d07	-0.046231296
14	0x3e2149fe	0.15750882
15	0xbd997a40	-0.074940205
16	0x3dbc68e0	0.09199691
17	0x3d12447e	0.03570985
18	0xbdff0aef	-0.12453257
19	0x3e1dc14b	0.15405767
20	0xbcbb3faa	-0.022857506
21	0x3c958262	0.018250648
22	0x3d9b574c	0.0758501
23	0x3e1303cc	0.14356917
24	0xbd8b06f1	-0.06788433
25	0x3d8e165c	0.069378585
26	0x3e4110e6	0.18854102
27	0x3e3dd091	0.18536593
28	0x3b01115e	0.001969419
29	0x3d89cd36	0.06728594
30	0xbdd1790f	-0.10228168
31	0xbc0be44b	-0.008538316
32	0xbe40f0bc	-0.18841833
33	0xbd461991	-0.048364226
34	0x3d98f203	0.07468035
35	0xbde0787e	-0.10960482
36	0xbdb933c0	-0.09043074
37	0xbd99a83f	-0.075027935
38	0xbdbeaf59	-0.09310789
39	0xbd843cc1	-0.064569004
40	0x3d751a83	0.059839737
41	0xbd6824fa	-0.05667589
42	0x3e6b5789	0.22982611
43	0xbd6dbbf4	-0.058040574
44	0xbdd9ca5d	-0.10634301
45	0x3d94fa52	0.07274307
46	0x3e219ad2	0.15781716
47	0xbe07f9df	-0.13278912
48	0xbe17ea78	-0.14835536
49	0x3bf342fa	0.0074237557
50	0xbd67411f	-0.05645859
51	0x3d86b3ba	0.06577249
52	0x3d6c6d07	0.057721164
53	0xbe16df64	-0.14733654
54	0x3ed5ec40	0.41781807
55	0xbdac07d5	-0.08399931
56	0xbd8c86d9	-0.06861658
57	0x3eb74a21	0.35798743
58	0xbe42f06a	-0.19037023
59	0x3dabd7e6	0.08390789
60	0xbe1f916b	-0.15582816
61	0x3c9aefea	0.018913228
62	0xbd9d21fc	-0.07672498
63	0xbdd9ef3f	-0.10641336
64	0xbca67a30	-0.020321935
65	0x3dc532d7	0.096288376
66	0xbe5b4215	-0.21411927
67	0xbdc60567	-0.09668999
68	0x3cc0826f	0.023499696
69	0x3ca97109	0.020683782
70	0xbe6d5e9a	-0.23180619
71	0x3db1aa33	0.08675041
72	0x3d3279b0	0.04357308
73	0xbe047bc8	-0.12937844
74	0xbe0fb0bd	-0.14032264
75	0xbd8148b2	-0.06312694
76	0xbe09cc45	-0.13456829
77	0x3dd919ce	0.10600625
78	0x3d5bb86f	0.053642686
79	0xbe35bc09	-0.17747511
80	0x3cf9aaef	0.030477015
81	0x3d47d85c	0.04879032
82	0x3c58e759	0.013238751
83	0xbdcf3497	-0.101174526
84	0x3e0a84a2	0.13527158
85	0x3c82a0d4	0.01594583
86	0xbe1394ff	-0.14412306
87	0xbdacc3c3	-0.08435776
88	0x3d89a065	0.06720046
89	0x3cfdb3d1	0.030969532
90	0x3e2dbce7	0.16966592
91	0xbdee2718	-0.1162855
92	0xbd99d713	-0.07511725
93	0xbe8aaf0f	-0.27086684
94	0x3d5b9fc7	0.053619172
95	0xbde8ce76	-0.11367504
96	0xbec7bdf6	-0.39012116
97	0x3c14c951	0.009081201
98	0xbd35a4d2	-0.044346638
99	0x3e276e81	0.16350748
100	0x3c89d2ec	0.016824208
101	0x3e12621b	0.14295237
102	0xbdb80fa1	-0.08987356
103	0xbda8b171	-0.08236969
104	0xbddc5212	-0.10757841
105	0xbe800cba	-0.2500971
106	0x3d3c7c78	0.04601714
107	0x3d38b571	0.04509491
108	0x3e74b900	0.23898697
109	0xba8c2bf8	-0.0010694256
110	0xbe0486b9	-0.12942018
111	0x3db61a19	0.088916965
112	0xbddcec77	-0.107872896
113	0xbded8988	-0.11598498
114	0x3dd7ed40	0.10543299
115	0x3e15455d	0.14577241
116	0x3cf750d5	0.03018991
117	0x3de37cb2	0.11107768
118	0x3df4894b	0.11940249
119	0xbdd63821	-0.104599245
120	0xbd273479	-0.040821526
121	0x3e6178a7	0.22018681
122	0xbd57e38a	-0.052707233
123	0xbbbcddf6	-0.0057637645
124	0x3d480d27	0.048840668
125	0x3ddf949d	0.109170176
126	0x3deee173	0.11664095
127	0xbdbc9ebe	-0.09209965
128	0x3d79d44b	0.060993474
129	0xbce6a2c4	-0.028153785
130	0xbe19211a	-0.14954033
131	0xbda48a9a	-0.08034249
132	0xbd34c6d9	-0.04413495
133	0xbe4ab766	-0.19796523
134	0x3d31e654	0.04343255
135	0xbd5f443e	-0.05450844
136	0xbda2856a	-0.07935603
137	0x3d5a7268	0.053331763
138	0xbd663a32	-0.056207843
139	0x3df1e48f	0.11811172
140	0x3cb3bc3d	0.021940345
141	0xbd81bba7	-0.0633462
142	0x3e1d8a83	0.1538487
143	0xbd8349c0	-0.06410551
144	0x3e27aeb3	0.16375236
145	0x3a991ba3	0.001168121
146	0x3e2caac5	0.16862018
147	0x3e1b77a4	0.15182358
148	0xbd8f555e	-0.069987044
149	0xbcd692c5	-0.026193032
150	0x3af78279	0.0018883488
151	0x3db5da54	0.088795334
152	0xbd072ad8	-0.032999843
153	0xbcccf1a6	-0.02501757
154	0x37a235cc	1.9336956e-05
155	0xbd91ab5a	-0.07112761
156	0x3e2fa08b	0.17151086
157	0x3e182a6f	0.14859937
158	0xbde7d32b	-0.11319574
159	0x3e568a7d	0.20951267
160	0x3e05c435	0.13063128
161	0xbe085ff8	-0.13317859
162	0x3db8a274	0.090153605
163	0xbdf2dbac	-0.11858305
164	0xbde24ee0	-0.110502005
165	0x3e29aa33	0.16568832
166	0x3cf347ad	0.029697264
167	0xbd7dad69	-0.061932955
168	0xbd58880d	-0.052864123
169	0xbc62c7bb	-0.013841565
170	0xbd8d0579	-0.068858095
171	0x3da0ab46	0.07845168
172	0x3db002df	0.085942976
173	0x3d953524	0.072855264
174	0xbcd05d89	-0.025435226
175	0xbda9e115	-0.08294884
176	0xbd13f2c9	-0.03612021
177	0x3da27592	0.07932581
178	0xbdb97b03	-0.09056666
179	0x3e1bb20d	0.1520464
180	0xbd86df66	-0.065855786
181	0xbdb2e412	-0.08734907
182	0x3ce5cb5a	0.028051067
183	0xbe57705d	-0.21038957
184	0x3e68cbdf	0.2273402
185	0x3e074518	0.13209951
186	0xbe2cee29	-0.16887726
187	0xbe12d538	-0.14339149
188	0x3e46a57d	0.19399066
189	0xbe15a02b	-0.1461188
190	0xbdb77223	-0.08957317
191	0xbdd720ea	-0.10504325
192	0xbd93b3c3	-0.07212021
193	0x3d17576a	0.0369486
194	0x3da2dec2	0.07952644
195	0x3d596faa	0.053085007
196	0xbd54dc23	-0.05196775
197	0x3dbf05f0	0.09327304
198	0xbe107472	-0.1410692
199	0x3baeefd6	0.0053386493
200	0x3d856512	0.06513418
201	0x3cebb9b8	0.028775081
202	0x3cb066eb	0.02153345
203	0xbd18e6a1	-0.03732932
204	0x3db59190	0.088656545
205	0x3da1963c	0.07889983
206	0xbe3dd8f5	-0.18539794
207	0xbe399940	-0.18124866
208	0xbe498ea0	-0.19683313
209	0x3ca5ee97	0.02025537
210	0x3d091ae1	0.0334729
211	0xbe34baeb	-0.17649429
212	0xbe219edd	-0.15783258
213	0xbe1c0021	-0.15234424
214	0xbbbe7a30	-0.0058129057
215	0xbc272a2f	-0.010202928
216	0x3e16cc0c	0.14726275
217	0x3e2812aa	0.1641337
218	0xbdd4ce4f	-0.10390913
219	0x3e4772b1	0.19477345
220	0x3d3d8927	0.046273377
221	0xbe010e94	-0.12603217
222	0xbdc7b3ec	-0.09751114
223	0x3e0505ee	0.12990543
224	0xbcee8b13	-0.02911905
225	0xbe09f137	-0.13470922
226	0x3dee8e33	0.11648216
227	0xbe3e7bd2	-0.18601921
228	0xbe5028df	-0.20328091
229	0x3d05cf6f	0.032668527
230	0x3dd521f9	0.104068704
231	0x3d5f7042	0.054550417
232	0x3e0151ed	0.12628908
233	0x3e492644	0.19643503
234	0xbe56090c	-0.20901889
235	0x3d9acbd8	0.07558411
236	0x3ce0e6b5	0.02745376
237	0xbc8a834e	-0.016908314
238	0x3e237fd4	0.15966731
239	0xbd3cce09	-0.046094928
240	0x3de957f3	0.11393728
241	0x3e0965da	0.1341776
242	0x3df2b951	0.118517525
243	0x3e100aa4	0.14066559
244	0x3e4090e6	0.18805274
245	0x3e3c8ed8	0.18413866
246	0xbc869ee3	-0.016433185
247	0xbe0367f8	-0.1283263
248	0x3c409b1c	0.011755731
249	0x3e2d8152	0.16943863
250	0x3e40231e	0.18763396
251	0x3e541143	0.2070971
252	0x3decd826	0.115646645
253	0x3d33eb00	0.043925285
254	0x3e2cf1ce	0.16889116
255	0x3e558d95	0.2085479

layer1_1.bias f4 [128]
0	0x3f04d2d9	0.5188423
1	0x3ed9e6ae	0.42558807
2	0x3d3e8ef8	0.046523064
3	0x3ea0ef3b	0.31432518
4	0x3eb93078	0.3616979
5	0x3f055775	0.52086574
6	0x3eb0b742	0.34514815
7	0xbe6b9604	-0.23006445
8	0xbe4bc48f	-0.198992
9	0x3e9c0741	0.30474284
10	0x3f076cc4	0.5290034
11	0x3f01a911	0.506486
12	0x3ea93219	0.33046034
13	0x3f0d03c4	0.5508387
14	0x3ee1adbc	0.4407786
15	0x3f025b36	0.50920427
16	0x3ee66ac8	0.45003343
17	0xbe541f46	-0.20715055
18	0x3e5e4a62	0.21708062
19	0x3ea22593	0.31669292
20	0x3ee60b27	0.44930384
21	0x3ef7c413	0.4839178
22	0x3ea0d596	0.31412953
23	0x3dce8188	0.100833
24	0x3edbed68	0.42954564
25	0x3eff8460	0.49905682
26	0x3ec03d09	0.37546566
27	0x3ef017f4	0.46893275
28	0x3f04b9e0	0.5184612
29	0x3ec6df69	0.38842323
30	0x3e9b858c	0.30375326
31	0x3e81ce38	0.25352645
32	0x3ec93e00	0.39305115
33	0x3ee8d1ca	0.45472556
34	0x3ecc7a0d	0.39936867
35	0x3ea7afb8	0.3275125
36	0x3ec1755e	0.37784857
37	0xbe0a27f3	-0.13491802
38	0x3efff12d	0.4998869
39	0x3e9ca4c4	0.30594456
40	0x3ed3e082	0.41382223
41	0x3ef4053f	0.47660252
42	0x3d230a41	0.0398047
43	0x3ee28aa7	0.44246408
44	0x3eb348e2	0.35016543
45	0x3eb50a15	0.35359254
46	0x3ed6c84a	0.41949683
47	0x3eb93797	0.36175224
48	0x3efbaf8e	0.49157375
49	0x3f08c25f	0.53421587
50	0x3ee318a7	0.44354746
51	0x3ea504f8	0.32230353
52	0x3ee09a15	0.43867555
53	0x3ecc119f	0.39857194
54	0x3ee97d8b	0.45603594
55	0xbe1500bc	-0.14551061
56	0x3c581848	0.013189383
57	0x3ee35c0e	0.4440617
58	0x3ec806f5	0.39067808
59	0x3ed2fb6b	0.41207442
60	0x3f090b45	0.5353282
61	0x3ebeb01d	0.3724374
62	0x3f0a0669	0.5391603
63	0xbe31968e	-0.17342588
64	0x3ef45d7d	0.47727576
65	0x3eb701c4	0.35743535
66	0x3eb4b5ca	0.35294944
67	0x3e8a76d7	0.27043793
68	0x3eeb4846	0.45953578
69	0x3eb3c6af	0.3511252
70	0x3eb94489	0.361851
71	0x3ef37230	0.47548056
72	0x3ed77240	0.42079353
73	0x3ecb5d80	0.39719772
74	0x3efc64b9	0.49295595
75	0x3f01dff2	0.5073234
76	0x3efd1903	0.49433145
77	0xbe218909	-0.15774931
78	0x3f03a4c1	0.5142327
79	0x3eebcc3c	0.46054256
80	0x3e8c9754	0.27459204
81	0x3ea5837e	0.32326883
82	0x3f05671b	0.5211045
83	0x3ef9e246	0.48805445
84	0x3efe3e17	0.49656746
85	0x3ebe6b34	0.37191164
86	0x3ed2e3e2	0.41189486
87	0x3ea8de4e	0.32982105
88	0x3ea44342	0.32082564
89	0x3edd97e3	0.43279943
90	0x3ea73aad	0.32661954
91	0xbdbf11d5	-0.09329573
92	0x3eca630b	0.3952869
93	0x3ecde644	0.4021474
94	0x3eeb412f	0.4594817
95	0x3ef96670	0.48710966
96	0x3e97b069	0.29626778
97	0x3ed72345	0.42019096
98	0x3d8d7237	0.069065504
99	0x3eb50905	0.35358444
100	0x3ec91a63	0.39277944
101	0x3ed3d2df	0.4137182
102	0x3f11f8ce	0.5702027
103	0x3eaaedc8	0.33384538
104	0x3ed6eb8d	0.41976586
105	0x3f0d129c	0.5510652
106	0x3ed2200c	0.41040075
107	0x3ee0d856	0.4391505
108	0x3e8dfa5a	0.27730066
109	0x3e61bc74	0.22044545
110	0x3f0767a4	0.5289252
111	0x3ef397dc	0.47576797
112	0x3e9c4b39	0.3052614
113	0x3edb2db8	0.42808318
114	0x3ed8753e	0.4227695
115	0x3ee20895	0.44147173
116	0x3ebf48ae	0.37360138
117	0xbd869305	-0.065710105
118	0x3ef07248	0.4696219
119	0x3edcf406	0.43154925
120	0x3ec76d0a	0.38950378
121	0x3ec539c6	0.3852064
122	0xbe1eb02f	-0.15496896
123	0x3ea3e2c3	0.32008943
124	0x3e837b72	0.2568012
125	0x3ef38226	0.47560233
126	0x3ed9afe5	0.4251701
127	0x3eff209a	0.4982956

layer2_1.weight f4 [128, 128]
0	0x3c886a0f	0.016652135
1	0x3c3d7d0b	0.011565457
2	0xbda22d4c	-0.07918796
3	0xbd1b650f	-0.037938174
4	0xbce9fe8b	-0.028563758
5	0x3d187dfc	0.037229523
6	0xbd9039fc	-0.0704231
7	0x3c363ac8	0.011122413
8	0xbd7ac6e3	-0.06122483
9	0xbd89a1dc	-0.06720325
10	0xbd62bba9	-0.055354748
11	0xbd9ac8ab	-0.07557806
12	0xbd8c994b	-0.06865176
13	0xbb2574b0	-0.0025246553
14	0xbdacd961	-0.08439899
15	0xbd1e23c8	-0.038608342
16	0xbd88148f	-0.06644546
17	0x3da37487	0.0798121
18	0x3d86733f	0.0656495
19	0x3d723ece	0.059141926
20	0xbd345e29	-0.04403511
21	0x3d8f424c	0.06995067
22	0x3cd72650	0.026263386
23	0xbd26dca4	-0.040737763
24	0x3d9632f7	0.073339395
25	0xbd86b8cd	-0.06578217
26	0xbda14362	-0.078741804
27	0x3d8f6bac	0.07002959
28	0x3d882536	0.066477224
29	0xbd105bcc	-0.035243794
30	0xbcbe2880	-0.023212671
31	0x3d3936b6	0.045218192
32	0xbdae5b44	-0.08513501
33	0x3d953ec5	0.07287363
34	0x3da6ed8a	0.08150776
35	0x3d8dae0b	0.06917962
36	0xbc829d70	-0.015944213
37	0x3d226b4a	0.0396531
38	0xbd665ac0	-0.05623889
39	0xbd2f7dd7	-0.04284462
40	0xbc8b8385	-0.017030487
41	0x3c73b465	0.014874552
42	0xbdb1dbea	-0.086845234
43	0x3a25c260	0.00063232146
44	0xbd8760b6	-0.06610243
45	0xbd59ecc7	-0.053204324
46	0x3caf4bf9	0.021398531
47	0x3d332a32	0.043741412
48	0xbc91596d	-0.017742837
49	0xbbfdb420	-0.00774242
50	0x3d954202	0.072879806
51	0x3d17fdc2	0.037107237
52	0xbd319e37	-0.043363776
53	0x3d788e44	0.06068255
54	0xbda29e89	-0.079403944
55	0x3d18fcb2	0.037350364
56	0x3d1b0702	0.03784848
57	0xbda277aa	-0.0793298
58	0x3b324360	0.0027200803
59	0xbda5246a	-0.08063586
60	0xbd8f45e9	-0.06995756
61	0x3da50117	0.080568485
62	0x3cfbcd50	0.030737549
63	0x3ccd6278	0.025071368
64	0x3d8f5720	0.0699904
65	0x3c86d178	0.016457304
66	0xbc981d90	-0.018568784
67	0xbd20ff4f	-0.03930598
68	0x3d3d249e	0.0461775
69	0x3d353041	0.04423547
70	0xbda12f5b	-0.078703605
71	0x3d542f34	0.05180283
72	0xbd9ee0aa	-0.07757695
73	0x3d92d0ed	0.07168756
74	0xbcfdb59a	-0.030970383
75	0x3cce32dc	0.025170736
76	0x3d2eced2	0.042677708
77	0x3c836390	0.016038686
78	0xbd06e8e6	-0.032936953
79	0x3da71ec4	0.08160165
80	0x3d815113	0.06314292
81	0x3d44ed6e	0.048077993
82	0xbd82b0f1	-0.06381405
83	0x3bb59839	0.005541828
84	0x3d97fe33	0.074215315
85	0xbd4807ec	-0.04883568
86	0x3cf0ff78	0.029418692
87	0x3c72bd78	0.014815681
88	0xbdb48c90	-0.08815873
89	0x3d544dd4	0.051832035
90	0x3b7e7600	0.0038827658
91	0xbc8e4e80	-0.017371416
92	0x3d4c56af	0.049887355
93	0xbd1b113d	-0.037858237
94	0x3d0891bb	0.033342104
95	0x3d006f58	0.031356186
96	0xbdb08f22	-0.086210504
97	0xbca31ae7	-0.019910289
98	0x3be8dda0	0.007106498
99	0xbce1fa51	-0.02758518
100	0x3d870fc1	0.06594802
101	0xbd059f64	-0.03262271
102	0x3d5e1c1a	0.05422602
103	0x3cdbc579	0.02682756
104	0xbd880360	-0.06641269
105	0xbdb3c538	-0.08777851
106	0x3d028e1b	0.031873804
107	0xb9dbc5b3	-0.00041918232
108	0xbd08c9a4	-0.033395424
109	0xbdbb9154	-0.091585785
110	0xbda1bd54	-0.078974396
111	0xbd629fe8	-0.05532828
112	0xbcb30486	-0.021852743
113	0x3d9beb8c	0.076132864
114	0xbda41bec	-0.08013138
115	0xbce20119	-0.027588414
116	0x3d5e897a	0.054330327
117	0xbd7cdfe1	-0.061736945
118	0x3d77c0fa	0.06048677
119	0xbc468e27	-0.012118853
120	0xbbb0d289	-0.0053961915
121	0xbda20b36	-0.079122946
122	0xbdb32485	-0.087472
123	0xbb0dced4	-0.0021638172
124	0xbd1ce322	-0.03830255
125	0xbda1b932	-0.07896651
126	0xbd4aa697	-0.04947528
127	0x3d5038bf	0.050835367
128	0x3e9102d4	0.2832247
129	0x3e461905	0.19345482
130	0x3ca9b9c5	0.020718465
131	0x3e05d33e	0.13068864
132	0x3e330d04	0.17485434
133	0x3ecaca5e	0.3960752
134	0x3e744819	0.23855628
135	0x3d10e6b1	0.035376254
136	0xbe04dfb8	-0.12975967
137	0x3e2e9a12	0.1705096
138	0x3e941388	0.2892115
139	0x3e321e5d	0.17394395
140	0x3daeee49	0.08541543
141	0x3e8ada26	0.2711956
142	0x3eb7b08c	0.35876882
143	0x3e9f8502	0.31156164
144	0x3edff125	0.43738666
145	0xbe13debf	-0.1444044
146	0x3dc615b8	0.09672111
147	0x3e3fdfbf	0.18737696
148	0x3eb13a32	0.34614712
149	0x3f007fac	0.5019481
150	0x3e16b821	0.14718677
151	0x3d7ec92f	0.062203582
152	0x3e877687	0.26457617
153	0x3e7359ca	0.2376472
154	0x3e6ca6e6	0.23110542
155	0x3eba7076	0.36413926
156	0x3e3b5ef9	0.18297948
157	0x3e7bb7dd	0.24581857
158	0x3dc2ad12	0.09505667
159	0x3dbbed48	0.09176117
160	0x3ec7c449	0.3901694
161	0x3e3a7bbe	0.18211266
162	0x3ed7a92b	0.42121252
163	0x3e951460	0.29117107
164	0x3e8de2ec	0.2771219
165	0xbd44c5a5	-0.04804005
166	0x3e98faf1	0.29878953
167	0x3e1177d0	0.14205861
168	0x3ead6443	0.33865556
169	0x3e903641	0.28166392
170	0x3dfe29cb	0.12410315
171	0x3e9441a7	0.2895634
172	0x3e869907	0.26288626
173	0x3e96db1b	0.2946404
174	0x3e9286c4	0.28618443
175	0x3e090ea7	0.13384496
176	0x3f0cb117	0.5495772
177	0x3ef3af5d	0.4759473
178	0x3e3a5173	0.18195133
179	0x3e8e1332	0.2774902
180	0x3e640162	0.22266153
181	0x3e4ada1d	0.19809766
182	0x3e49b2f2	0.19697168
183	0xbe27ed55	-0.16399129
184	0x3e0207fa	0.12698355
185	0x3e6a04dc	0.22853416
186	0x3e60c135	0.21948703
187	0x3e882229	0.26588562
188	0x3f239455	0.6389821
189	0x3e2a3f3a	0.16625682
190	0x3ee53562	0.4476729
191	0xbc87d202	-0.016579632
192	0x3e93d119	0.28870466
193	0x3eaa84a7	0.3330433
194	0x3e6d8db2	0.23198584
195	0x3e331e74	0.17492086
196	0x3ecb5ab7	0.39717647
197	0x3e0dd930	0.13852382
198	0x3eaae654	0.3337885
199	0x3ebff910	0.37494707
200	0x3ea93b38	0.33052993
201	0x3e8fa829	0.28057984
202	0x3e73a03f	0.23791598
203	0x3ee8fe71	0.45506623
204	0x3f102d37	0.5631899
205	0x3bbbab7b	0.005727229
206	0x3ed1d435	0.40982214
207	0x3eb51d28	0.35373807
208	0x3df6847c	0.12036988
209	0x3e59c9d8	0.21268404
210	0x3e2b2dfe	0.16716763
211	0x3ea7b056	0.3275172
212	0x3e922bf1	0.2854915
213	0x3ea5f044	0.3240987
214	0x3e8bfa96	0.2733962
215	0x3e0cf99c	0.13767093
216	0x3e1930bf	0.14960001
217	0x3ed5364f	0.41642997
218	0x3de38013	0.111084126
219	0xbd761718	-0.060080618
220	0x3dbab1a4	0.091159135
221	0x3e3e55f1	0.18587472
222	0x3f1c8692	0.6114284
223	0x3ea28904	0.3174516
224	0x3ebc5307	0.36782095
225	0x3ee8d334	0.45473635
226	0xbbe7533d	-0.0070594833
227	0x3e3a2351	0.18177535
228	0x3ead8287	0.33888647
229	0x3ea2ef75	0.31823316
230	0x3f21ef50	0.63255787
231	0x3e9fcb70	0.31209898
232	0x3e864dee	0.2623133
233	0x3ee21edb	0.44164166
234	0x3ec4effb	0.3846434
235	0x3e9356aa	0.28777057
236	0x3e8a37b1	0.26995614
237	0x3dc50b26	0.09621267
238	0x3e853e9b	0.26024327
239	0x3e45c6b3	0.19314079
240	0x3e064da9	0.13115562
241	0x3ebc48dd	0.3677434
242	0x3ec6b2cf	0.38808295
243	0x3e72097d	0.23636432
244	0x3e64e442	0.22352698
245	0xbda3b599	-0.079936214
246	0x3e8d900e	0.27648968
247	0x3eaf7a2b	0.34272894
248	0x3e56b1fd	0.20966335
249	0x3e91d3a7	0.2848179
250	0x3c2a8a0f	0.010408892
251	0x3e2c4cc8	0.16826165
252	0x3e0aa3b3	0.13539009
253	0x3ed10294	0.4082228
254	0x3eaac03a	0.33349782
255	0x3ebe3453	0.37149295

layer2_1.bias f4 [128]
0	0xbcfba6ae	-0.030719128
1	0x3eb17dad	0.34666196
2	0xbc6fb58c	-0.0146306865
3	0x3d24a645	0.04019763
4	0x3e4fc174	0.2028864
5	0x3c9a59de	0.01884168
6	0xbdb1cf41	-0.08682109
7	0x3edb45e7	0.4282677
8	0x3d2b4126	0.041810177
9	0x3e2d6f61	0.16937019
10	0x3e772863	0.241365
11	0x3f157eed	0.583968
12	0x3e43d733	0.1912506
13	0x3d8f5cc1	0.07000113
14	0x3e3c953c	0.18416303
15	0x3ef8c8a0	0.48590565
16	0x3e492049	0.19641222
17	0x3e948ab4	0.29012072
18	0xbd27ea75	-0.04099508
19	0xbe8d7e4e	-0.27635425
20	0xbcea5461	-0.028604688
21	0x3eaa4c68	0.33261418
22	0xbc3e838e	-0.011628045
23	0x3e9a2190	0.3010373
24	0x3e9b0237	0.30275127
25	0xbbcb2969	-0.006200005
26	0x3e93bee9	0.2885659
27	0x3d93c558	0.07215375
28	0x3d523f9b	0.05133019
29	0x3e99c700	0.30034637
30	0xbda2c2ef	-0.07947337
31	0x3e296e50	0.16545987
32	0x3e4f947b	0.20271485
33	0x3c5b0999	0.0133689875
34	0xbe87813e	-0.2646579
35	0x3e57a2ea	0.2105824
36	0x3cc7b468	0.024378017
37	0x3bc68f31	0.00605955
38	0xba2a5440	-0.00064975396
39	0x3e97ee55	0.2967402
40	0xbd1dc176	-0.038514577
41	0x3ccc3722	0.024928633
42	0x3e62743f	0.22114657
43	0xbdff9d09	-0.12481124
44	0xbe1659fe	-0.14682767
45	0x3e9e59eb	0.30927977
46	0x3e9f5566	0.3111984
47	0x3ea1e2c0	0.3161831
48	0x3e26348b	0.16230981
49	0x3d24c8b1	0.040230457
50	0x3e2ede11	0.17076899
51	0x3e5ab256	0.21357092
52	0x3e836b78	0.2566793
53	0xbc775e34	-0.015098143
54	0xbd9a33a6	-0.075293824
55	0x3e85889c	0.26080787
56	0x3e704f63	0.23467784
57	0xbd1752c4	-0.036944166
58	0x3d1cbf3e	0.03826832
59	0x3c0195fe	0.007909296
60	0x3f04a973	0.5182106
61	0xbe7ede5f	-0.24889515
62	0x3e80ef88	0.25182748
63	0x3e684ec9	0.22686304
64	0x3e50f99f	0.20407723
65	0x3e96e930	0.29474783
66	0x3e9867aa	0.2976659
67	0xbc655bb8	-0.013998918
68	0xbd80c992	-0.062884465
69	0x3e93e2b9	0.28883913
70	0xbda19a3d	-0.07890747
71	0x3e2c4ce6	0.1682621
72	0x3eba900a	0.36438018
73	0x3eadb1d7	0.33924744
74	0xbda3d3f4	-0.07999411
75	0x3ea4c01f	0.32177827
76	0x3e3f2ba4	0.18668991
77	0x3e806355	0.25075784
78	0x3c4762cf	0.012169554
79	0x3d752c1f	0.05985653
80	0x3e8fe348	0.2810309
81	0x3d4c365c	0.04985653
82	0x3ea7a48b	0.32742724
83	0x3e98843d	0.2978839
84	0x3e66b079	0.22528256
85	0x3e8157cc	0.25262296
86	0x3e8cd8ea	0.27509242
87	0x3ea8920c	0.32923925
88	0x3d3c753e	0.04601025
89	0x3e8ff46d	0.2811617
90	0x3eaa7304	0.33290875
91	0x3e976abc	0.2957362
92	0x3d299cb0	0.041409194
93	0xbcd47edf	-0.025939403
94	0xbd1be775	-0.03806253
95	0xbc52f96f	-0.012876852
96	0x3e7c0911	0.24612834
97	0xbdabbca4	-0.0838559
98	0x3e8a8f88	0.2706263
99	0x3e523ae3	0.20530276
100	0x3e30f39f	0.17280434
101	0xbd61b6c7	-0.05510595
102	0x3ca1fd7a	0.019774187
103	0xbe991f8e	-0.29906887
104	0x3e4e0ff8	0.20123279
105	0xbcf13aca	-0.029446978
106	0x3e4989d6	0.19681486
107	0x3e665d4d	0.22496529
108	0x3e391af2	0.18076685
109	0xbd2fcacf	-0.042918023
110	0xbe27d1ca	-0.16388622
111	0x3e76dd2c	0.24107808
112	0x3ea7a637	0.32744
113	0x3e841a25	0.25801197
114	0x3e9d637f	0.30739972
115	0x3c14971e	0.009069232
116	0x3d775f6a	0.06039373
117	0x3d954d39	0.0729012
118	0xbdb56be3	-0.088584684
119	0x3e606efe	0.2191734
120	0xbd2748c0	-0.040840864
121	0x3ecca532	0.39969784
122	0xbda5e8b4	-0.08101025
123	0x3e79aa18	0.24381292
124	0x3e318d4c	0.17339057
125	0xbd89c448	-0.06726891
126	0x3e8ee073	0.27905616
127	0x3e59719c	0.21234745

layer3_1.weight f4 [1, 128]
0	0x3b34d602	0.002759338
1	0xbe9b3e17	-0.30320808
2	0x3d87fa38	0.06639522
3	0x3ec4d6b6	0.3844506
4	0xbeb3237b	-0.34988007
5	0x3d99aadd	0.07503293
6	0x3d0135c0	0.0315454
7	0xbf29c9c8	-0.6632352
8	0x3d4a132f	0.0493347
9	0xbe9e7c2a	-0.30954105
10	0xbeb345c7	-0.35014173
11	0xbf0fc8d9	-0.56165844
12	0xbed2537d	-0.41079322
13	0x3ce2fe0f	0.027709035
14	0xbeaad63b	-0.3336657
15	0xbf2355bb	-0.6380269
16	0xbec410bc	-0.38294017
17	0xbf007b9a	-0.501886
18	0x3d8a881b	0.06764241
19	0x3f135e29	0.5756555
20	0x3c283871	0.010267363
21	0xbea09fe8	-0.31372
22	0x3d2b0243	0.041750204
23	0xbea48134	-0.32129824
24	0xbea4f04e	-0.32214588
25	0x3d0f6435	0.035007674
26	0xbeadf5d9	-0.3397663
27	0x3d46aa5c	0.04850231
28	0x3ccef049	0.025261061
29	0xbeaa9674	-0.33317912
30	0xbc9a1c3c	-0.018812291
31	0xbebc0d28	-0.36728787
32	0xbebc3993	-0.36762676
33	0x3c8705a4	0.016482182
34	0x3f23556f	0.63802236
35	0xbea41af6	-0.3205182
36	0x3d9d582c	0.07682833
37	0x3c5f0c97	0.0136138415
38	0x3d8a590b	0.06755265
39	0xbea92a61	-0.33040145
40	0x3d28f62a	0.041250385
41	0x3cf2058a	0.029543657
42	0xbed30b82	-0.41219717
43	0x3eadb885	0.3392984
44	0x3eec0e43	0.4610463
45	0xbea35b48	-0.3190558
46	0xbe9b87b2	-0.30376965
47	0xbe98e73b	-0.29863915
48	0xbea4b2a7	-0.3216755
49	0x3d9fbd3d	0.07799766
50	0xbec88532	-0.3916412
51	0xbeb9a668	-0.3625977
52	0xbe9ea2d5	-0.30983606
53	0x3d60da70	0.05489582
54	0x3b23e179	0.0025006218
55	0xbe9dcfc9	-0.3082259
56	0xbeb85c02	-0.36007696
57	0x3c8defec	0.017326318
58	0x3d191862	0.03737677
59	0x3d5ec07a	0.05438278
60	0xbf235286	-0.63797796
61	0x3f229d64	0.6352141
62	0xbe9a9946	-0.30195063
63	0xbea3f665	-0.32023922
64	0xbebfb2a4	-0.3744098
65	0xbebbaa50	-0.36653376
66	0xbea97ca3	-0.33102903
67	0xbd146c1e	-0.03623592
68	0xbdabc9b9	-0.08388085
69	0xbe9978c8	-0.2997496
70	0x3e8b9b38	0.2726686
71	0xbec8812c	-0.3916105
72	0xbe9ab22e	-0.30214065
73	0xbeedff6d	-0.46483937
74	0x3d75997a	0.05996082
75	0xbe989fdb	-0.2980946
76	0xbebe869a	-0.37212068
77	0xbeae8e95	-0.34093156
78	0x3cfb3596	0.0306652
79	0x3d5676b1	0.052359287
80	0xbeacc9a1	-0.3374758
81	0x3c6c5253	0.0144239245
82	0xbe991adb	-0.29903302
83	0xbe9983d5	-0.29983392
84	0xbeb9ed9c	-0.36314094
85	0xbeb566e1	-0.35430053
86	0xbe9b9ae9	-0.30391625
87	0xbeeb9262	-0.4601012
88	0x3d2762bd	0.04086565
89	0xbe9bcfda	-0.30432016
90	0xbe929688	-0.2863047
91	0xbe98dce5	-0.2985603
92	0x3d8c6897	0.068558864
93	0x3c7f6660	0.015588373
94	0x3d8a5eb9	0.06756348
95	0x3d51e013	0.051239084
96	0xbeaa4227	-0.33253595
97	0x3d53060e	0.051519446
98	0xbe9bc726	-0.30425376
99	0xbeb21e40	-0.34788704
100	0xbec6d660	-0.3883543
101	0x3d95716f	0.07297026
102	0x3d0147fd	0.031562794
103	0x3f1afa9c	0.6053865
104	0xbebb4117	-0.36573097
105	0x3ec7369d	0.38908854
106	0xbea3aa12	-0.3196569
107	0xbea7939b	-0.32729802
108	0xbebaa923	-0.36457166
109	0x3d50c7a1	0.05097163
110	0x3f038059	0.5136772
111	0xbeb0b2e6	-0.3451149
112	0xbe9ae104	-0.30249798
113	0xbeab3f0a	-0.33446532
114	0xbea8c5fc	-0.3296355
115	0x3d8dc2f1	0.06921948
116	0x3cdf0730	0.027225107
117	0x3d35ec5f	0.044414874
118	0x3d23ee67	0.04002228
119	0xbe976024	-0.29565537
120	0x3d3cf668	0.04613343
121	0xbea76c5a	-0.32699853
122	0x3d84a067	0.06475907
123	0xbeb695e8	-0.35661244
124	0xbec15226	-0.37757987
125	0x3bb88bfd	0.0056319223
126	0xbea72c88	-0.32651162
127	0xbea36ee4	-0.3192054

layer1_2.weight f4 [128, 27]
0	0x3da95fe5	0.082702436
1	0xbdf99fde	-0.12188695
2	0xbd96e3eb	-0.07367691
3	0x3e248a0b	0.16068284
4	0x3e44db9d	0.19224401
5	0xbe404946	-0.18777952
6	0x3dd6c9c3	0.10487702
7	0x3d7079c8	0.05870989
8	0xbd8e9100	-0.0696125
9	0x3cf58e60	0.029975116
10	0x3e05bb36	0.13059697
11	0x3da50c50	0.08058989
12	0xbc8f483f	-0.017490504
13	0xbdc91a35	-0.09819452
14	0x3e3a4729	0.18191208
15	0x3e24b1bd	0.16083427
16	0xbbd9a804	-0.0066423435
17	0x3cf19eeb	0.029494723
18	0xbd884a57	-0.06654804
19	0xbdc63ec5	-0.09679941
20	0xbe05b97c	-0.13059038
21	0xba721211	-0.00092342595
22	0x3d962fa5	0.07333306
23	0x3d06d9d9	0.0329226
24	0xbe0dca47	-0.13846694
25	0xbc877664	-0.016535945
26	0xbe51932c	-0.20466298
27	0xbcaee7de	-0.021350797
28	0x3dd458cf	0.103685014
29	0xbdda1a39	-0.10649533
30	0x3ce10914	0.02747015
31	0x3e0b4c59	0.13603343
32	0x3dd4c31f	0.10388779
33	0xbdb03ae1	-0.0860498
34	0x3dd8aedc	0.10580227
35	0xbd9a29c7	-0.075275
36	0xbe03a967	-0.1285759
37	0xbdbb4104	-0.0914326
38	0x3dfc2725	0.12312154
39	0x3e721b22	0.23643163
40	0x3db9a786	0.09065156
41	0xbe1248fd	-0.14285655
42	0x3cf3e09e	0.029770192
43	0xbe28a6f3	-0.16469936
44	0x3d996a3d	0.074909665
45	0xbe409919	-0.18808402
46	0x3d90e1ff	0.07074355
47	0x3d419712	0.047263213
48	0xbe70edfc	-0.23528284
49	0xbdedcee8	-0.1161173
50	0xbe4fed03	-0.20305257
51	0x3de9f8ea	0.1142443
52	0xbd4968b5	-0.049172122
53	0xbcd4ab4b	-0.025960585
54	0x3dbaa333	0.09113159
55	0x3dd479b9	0.10374779
56	0x3e2a7e63	0.16649775
57	0xbddf2f63	-0.1089771
58	0xbd1ecaed	-0.038767744
59	0x3e42eef4	0.19036466
60	0x3de52f73	0.11190691
61	0x3e0ef03b	0.13958828
62	0x3e56aff9	0.20965566
63	0x3d6e6664	0.058203116
64	0x3e140061	0.1445327
65	0x3e486033	0.19567947
66	0x3d5ff711	0.05467898
67	0xbd667c38	-0.056270808
68	0xbe09a78a	-0.13442817
69	0x3c3b327b	0.01142561
70	0xbe22179f	-0.15829323
71	0xbe0cb91d	-0.1374249
72	0x3e1e0675	0.1543215
73	0x3e686b82	0.22697261
74	0x3da5adb5	0.080897726
75	0x3e22e2a2	0.15906766
76	0x3e327a06	0.17429361
77	0x3e3c6a45	0.18399914
78	0x3d1f56a0	0.03890097
79	0x3de0d20c	0.10977563
80	0x3e53d13a	0.20685282
81	0x3ce9c472	0.028536055
82	0xbc896b8b	-0.016774913
83	0xbdac4de0	-0.08413291
84	0xbd433df8	-0.04766652
85	0xbd2f6754	-0.04282315
86	0xbe39541f	-0.18098496
87	0xbe086b96	-0.13322291
88	0xbd74b8bc	-0.05974649
89	0x3e1aaf6f	0.15105985
90	0xbd81b4c0	-0.063333035
91	0x3e2f89c6	0.171424
92	0xbde6d48c	-0.11271009
93	0x3d961bb8	0.07329506
94	0x3e1aceb1	0.15117909
95	0x3d592531	0.053013984
96	0x3ccbafd1	0.02486411
97	0x3e0866d4	0.13320476
98	0x3cd56579	0.026049362
99	0xbe3d3df5	-0.18480666
100	0x3e6f7373	0.23383884
101	0xbe0e2c34	-0.1388405
102	0xbe54a68f	-0.20766662
103	0xbd850350	-0.064947724
104	0xbe22b3d7	-0.15888916
105	0x3c50b715	0.012738963
106	0x3d2c852a	0.042119183
107	0xbd361d1a	-0.044461347
108	0x3d8cdebf	0.06878423
109	0xbe1705ba	-0.14748278
110	0xbd3b4437	-0.04571935
111	0x3cc7747c	0.024347536
112	0x3dc33b12	0.09532751
113	0x3c92fe36	0.017943483
114	0xbe22e11a	-0.15906182
115	0x3e6b51a7	0.22980367
116	0xbe19f902	-0.15036395
117	0x3e393735	0.18087466
118	0xbe4619d3	-0.19345789
119	0xbe217c36	-0.15770039
120	0xbdf35a48	-0.11882454
121	0x3e03258a	0.12807289
122	0xbde9d874	-0.11418238
123	0x3b681683	0.0035413809
124	0xbd9d2f9f	-0.07675099
125	0xbe258e6e	-0.16167614
126	0x3d4ff82c	0.050773785
127	0xbe041d37	-0.1290177
128	0x3cc18e7e	0.023627516
129	0x3dce5380	0.1007452
130	0xbe1cd1be	-0.15314385
131	0x3cb45f47	0.022018088
132	0xbe0626a6	-0.1310068
133	0x3cd2e07d	0.02574181
134	0x3e392c1a	0.1808323
135	0x3de1bd91	0.11022485
136	0x3c45e881	0.012079359
137	0xbe2acd8a	-0.1667997
138	0xbcbef50a	-0.023310203
139	0xbcd4ab9c	-0.025960736
140	0x3d493f46	0.049132608
141	0xbe064e60	-0.13115835
142	0x3dd164cc	0.102243036
143	0x3e3c7d8f	0.18407272
144	0xbdd47297	-0.10373419
145	0x3e220f47	0.1582614
146	0xbe0cd79a	-0.1375412
147	0x3e33abcb	0.17546003
148	0x3e38b854	0.18039066
149	0x3e192ffa	0.14959708
150	0x3e50a017	0.2037357
151	0x3d5655ba	0.05232785
152	0xbdfa0e39	-0.12209744
153	0xbc26a0e2	-0.010170193
154	0x3e4ff768	0.20309222
155	0x3e0e5db4	0.13902932
156	0xbc9eb5e6	-0.019373845
157	0xbe1ffe9e	-0.15624472
158	0x3c8fc771	0.017551156
159	0xbcacab52	-0.021077786
160	0x3e359d07	0.17735682
161	0xbde42bc0	-0.11141157
162	0xbda1ad52	-0.07894386
163	0xbd309de2	-0.04311932
164	0xbd9ff1f1	-0.078098185
165	0xbccaee5a	-0.024771858
166	0x3d0952b7	0.03352615
167	0xbc8610d1	-0.01636544
168	0x3e14337a	0.14472762
169	0xbe073f87	-0.13207828
170	0x3dfd0c17	0.123558216
171	0x3cde1310	0.0271087
172	0xbdb9f3f5	-0.09079734
173	0x3e0536db	0.13009207
174	0x3e715dfe	0.23571011
175	0xbd741e6b	-0.05959932
176	0x3d92a0cb	0.07159575
177	0x3e278ebe	0.16363046
178	0xbd89e8a7	-0.06733828
179	0x3d97a584	0.074046165
180	0x3d1132ba	0.035448767
181	0xbd9d9405	-0.07694248
182	0x3e0a1300	0.1348381
183	0xbd8d76c8	-0.06907421
184	0xbe0c77e9	-0.13717617
185	0x3d2eea1e	0.04270374
186	0xbe06e13d	-0.13171859
187	0xbd6f8b26	-0.05848231
188	0x3dc7730d	0.09738741
189	0x3f0574a4	0.52131104
190	0xbdc1e78a	-0.09467991
191	0x3d06ea7c	0.032938465
192	0x3f3dea1a	0.74185336
193	0xbd86b249	-0.06576974
194	0x3d963b8a	0.07335575
195	0x3e5eeed1	0.21770789
196	0xbec9ae9e	-0.39391035
197	0x3e2bdacf	0.16782688
198	0x3a18fb00	0.0005835742
199	0xbe1c491c	-0.15262264
200	0xbe7efb61	-0.24900581
201	0xbedf527d	-0.4361762
202	0xbec35416	-0.3815009
203	0xbe224dce	-0.15849993
204	0xbe0917c1	-0.13387968
205	0xbc9e9159	-0.019356417
206	0xbe94ba3d	-0.2904834
207	0x3e0f0104	0.13965231
208	0xbd4de467	-0.05026665
209	0x3e969f12	0.29418236
210	0xbe13f1ca	-0.14447704
211	0x3d389de9	0.04507247
212	0xbe457ae5	-0.19285162
213	0x3ea3f98a	0.3202632
214	0xbe39df4b	-0.18151586
215	0x3e8bdd21	0.27317145
216	0xbef56cfa	-0.47934705
217	0x3e1fcde8	0.15605891
218	0x3dc87020	0.09787011
219	0xbdc46976	-0.095904276
220	0x3c047387	0.0080841845
221	0x3e6b7106	0.22992334
222	0xbda2fa3f	-0.07957887
223	0x3e4807b0	0.19534183
224	0x3e4c765f	0.1996703
225	0x3dd1c6b6	0.10242979
226	0xbe328d3b	-0.17436688
227	0x3db1b8b3	0.08677807
228	0xbd7c2a5d	-0.06156384
229	0xbb0b19f7	-0.0021225193
230	0x3d9c6562	0.07636525
231	0x3c3f1cab	0.01166455
232	0x3ca69faa	0.020339806
233	0xbd7595ce	-0.059957318
234	0xbd8949b8	-0.06703514
235	0xbd7fc714	-0.062445715
236	0x3dbd5f41	0.09246684
237	0xbd9a57d3	-0.075362824
238	0xbdb9f498	-0.09079856
239	0xbda300f6	-0.07959168
240	0xbcc7fc25	-0.024412224
241	0xbd71a396	-0.0589939
242	0xbd5dd188	-0.054154903
243	0x3c8753a1	0.01651937
244	0x3dc0194f	0.09379827
245	0x3d6030f4	0.054734185
246	0x3dd85971	0.105639346
247	0x3e3f8cb8	0.18706024
248	0x3db4169b	0.08793374
249	0xbe303cdd	-0.17210717
250	0xbe08d98b	-0.13364236
251	0xbca5da71	-0.020245763
252	0x3c7bfc30	0.01537995
253	0x3dc7bd44	0.097528964
254	0xbe5cfdde	-0.21581218
255	0x3e062914	0.13101608

layer1_2.bias f4 [128]
0	0x3efab61b	0.4896706
1	0x3ed0dc99	0.40793303
2	0x3ec6a479	0.38797358
3	0x3ec53b37	0.3852174
4	0x3ee51527	0.447427
5	0x3eb4c3e9	0.35305718
6	0x3eacaa23	0.33723554
7	0x3f227dae	0.6347302
8	0xbe69e4da	-0.22841206
9	0x3ef2168c	0.47282827
10	0x3ecf3187	0.40467474
11	0x3ec04c31	0.3755813
12	0x3f0ead23	0.55732936
13	0x3edf3a5a	0.43599206
14	0x3ebe8c82	0.37216574
15	0x3f015c64	0.505316
16	0x3ec20edb	0.3790196
17	0x3ee2fcd1	0.4433351
18	0x3f0fd355	0.5618184
19	0x3ee05934	0.43818057
20	0x3eb899ab	0.3605474
21	0x3eca73cc	0.3954147
22	0x3ea42648	0.32060456
23	0x3ef3b62e	0.4759993
24	0x3ecd67b1	0.40118173
25	0x3efa655c	0.48905456
26	0x3ee35ed5	0.4440829
27	0x3ee1ee92	0.44127327
28	0x3f008e19	0.50216824
29	0x3ed885d0	0.4228959
30	0x3efa4bb6	0.48885888
31	0x3e1d7eac	0.15380353
32	0x3ec7d02c	0.3902601
33	0x3f011f4e	0.5043839
34	0x3edffae1	0.43746093
35	0x3f06631c	0.5249498
36	0x3ee130fd	0.43982688
37	0x3f05dfc4	0.52294564
38	0x3edf213c	0.43580043
39	0x3ef94681	0.48686603
40	0x3e5fb94b	0.21848027
41	0x3ee22f9f	0.44176957
42	0x3ece32c7	0.40273115
43	0x3eefc085	0.46826568
44	0x3ec0ea32	0.37678677
45	0x3f04ea9f	0.51920503
46	0x3f01da15	0.5072339
47	0x3ebf93c9	0.3741744
48	0x3eeb4e51	0.45958188
49	0x3f0567a1	0.5211125
50	0x3f040ba3	0.51580256
51	0x3f061e13	0.5238964
52	0x3ee475e2	0.44621187
53	0x3ef2b4ca	0.47403556
54	0x3edabb06	0.42720813
55	0x3ebb5580	0.3658867
56	0x3ea5c3d8	0.3237598
57	0x3efe1f06	0.49633044
58	0x3ef9e802	0.4880982
59	0xbe8e1aa7	-0.2775471
60	0x3ec5c41c	0.38626182
61	0x3f0dda90	0.55411625
62	0x3f0d7203	0.55252093
63	0x3e98bacc	0.29830015
64	0x3f001f19	0.5004745
65	0x3ef7ccfd	0.4839858
66	0x3edc5e75	0.43040815
67	0x3ef8ade1	0.4857016
68	0x3ef85185	0.48499694
69	0x3ef845b7	0.48490688
70	0x3ca114e7	0.019663287
71	0x3effb44a	0.49942237
72	0x3ed433a5	0.41445652
73	0x3ef8fd83	0.48630914
74	0x3f08aa7e	0.5338515
75	0x3ed7b74f	0.4213204
76	0x3ee4a4b2	0.44656903
77	0x3ee68ce3	0.45029363
78	0x3eb854b1	0.36002114
79	0x3ebde21a	0.37086564
80	0x3f046c5c	0.51727843
81	0x3eded432	0.43521267
82	0x3eef13c3	0.46694764
83	0x3eb5ef6e	0.35534233
84	0x3edddf80	0.4333458
85	0x3f053432	0.5203277
86	0x3f1369bc	0.5758321
87	0x3f0422bb	0.51615494
88	0x3f019272	0.5061408
89	0x3ef15813	0.47137508
90	0x3cf61fb2	0.03004441
91	0x3a90dd75	0.0011052327
92	0x3eef42b9	0.46730593
93	0x3ec4f53e	0.38468355
94	0x3eb01f99	0.34399107
95	0x3eefc92e	0.46833175
96	0x3ede9b03	0.4347764
97	0x3f000b72	0.50017464
98	0x3ef03950	0.46918726
99	0x3eff9009	0.49914578
100	0x3ec2eb79	0.38070276
101	0x3f03072e	0.5118283
102	0x3ed18356	0.40920514
103	0x3ef35fda	0.47534066
104	0x3f029836	0.51013505
105	0x3ecf872b	0.40532812
106	0x3eb9ba53	0.36274967
107	0x3efc97b9	0.49334505
108	0x3ef13fe4	0.47119057
109	0x3ef48a40	0.47761726
110	0x3e7dfa2c	0.24802464
111	0x3efa3299	0.48866728
112	0x3ec77d83	0.38962945
113	0x3eeacafa	0.45857984
114	0x3ed11753	0.40838107
115	0x3f001aec	0.5004108
116	0x3ede8c33	0.4346634
117	0x3ef31393	0.4747587
118	0x3f01234a	0.5044447
119	0x3f144245	0.5791362
120	0xbdadfd21	-0.08495546
121	0x3ee91848	0.45526338
122	0x3ed3a2c3	0.41335115
123	0x3ee66d55	0.4500529
124	0x3ef47d31	0.47751763
125	0x3f05491b	0.52064675
126	0x3ec013eb	0.37515196
127	0x3ee45ce4	0.4460212

layer2_2.weight f4 [128, 128]
0	0x3e50eba9	0.20402397
1	0x3ec20d7a	0.37900907
2	0x3eac2903	0.3362504
3	0x3e89323d	0.2679614
4	0x3e8c961b	0.2745827
5	0x3e51c118	0.20483816
6	0x3e8bfc1c	0.27340782
7	0x3e538e6e	0.20659801
8	0x3e81867c	0.25297916
9	0x3eaf05bc	0.34184062
10	0x3e74e254	0.23914462
11	0x3e9eb2f5	0.30995908
12	0x3ea890ec	0.32923067
13	0x3e8d655c	0.27616394
14	0x3e83ca4f	0.25740287
15	0x3ed31765	0.41228786
16	0x3e8d2e20	0.27574253
17	0x3e5bc0b8	0.21460235
18	0x3f043bd8	0.51653814
19	0x3e46ad35	0.1940201
20	0x3e8910b4	0.26770556
21	0x3e0866c0	0.13320446
22	0x3df4d586	0.11954789
23	0x3e77ac60	0.2418685
24	0x3e8673c8	0.2626021
25	0x3eb87c96	0.36032552
26	0x3e1223ca	0.14271465
27	0x3e879d21	0.26487067
28	0x3ebeda81	0.3727608
29	0x3e7d0cda	0.24711934
30	0x3e7bffef	0.2460935
31	0x3dd5ae60	0.1043365
32	0x3ea44580	0.32084274
33	0x3eb3e3e1	0.35134795
34	0x3e8f24d1	0.27957776
35	0x3e42178b	0.18954293
36	0x3eb0a510	0.34500933
37	0x3e5df570	0.21675658
38	0x3e9caef8	0.3060224
39	0x3ec7dbad	0.39034787
40	0x3d013bd5	0.0315512
41	0x3e94888d	0.2901043
42	0x3e81fc05	0.25387588
43	0x3dd5452e	0.104135856
44	0x3ea9ed46	0.33188838
45	0x3e5a7929	0.21335281
46	0x3e2108a0	0.15725946
47	0x3e673240	0.22577763
48	0x3e66d378	0.22541606
49	0x3eba00a8	0.36328626
50	0x3e82d0b2	0.25549847
51	0x3e924f64	0.28576195
52	0x3e8d5281	0.27602008
53	0x3e3f2e16	0.18669924
54	0x3eb1030e	0.34572643
55	0x3dd4c554	0.103892
56	0x3e4b524a	0.1985561
57	0x3ea7a658	0.32744098
58	0x3e981258	0.29701495
59	0xbe525152	-0.20538834
60	0x3e72053d	0.23634811
61	0x3eac49b2	0.33649975
62	0x3f3e12cc	0.7424743
63	0x3e465ed6	0.19372115
64	0x3e254d08	0.16142666
65	0x3d967b99	0.07347793
66	0x3e88689c	0.2664231
67	0x3ea3deb2	0.3200584
68	0x3eb0aa02	0.34504706
69	0x3e8b9fdf	0.2727041
70	0x3d944fce	0.07241784
71	0x3e4705f6	0.19435868
72	0x3eaac152	0.33350617
73	0x3ecc110b	0.39856753
74	0x3f0b346e	0.54376876
75	0x3e914b2d	0.28377667
76	0x3eb3cb91	0.35116246
77	0x3e4cfdb7	0.2001866
78	0x3dda3e64	0.10656431
79	0x3e9d3d0a	0.30710632
80	0x3f05e038	0.52295256
81	0x3e9df516	0.30851048
82	0x3e395cd5	0.18101819
83	0x3ea3f1fc	0.32020557
84	0x3e2bf234	0.16791612
85	0x3e8cec12	0.27523857
86	0x3e87e2e7	0.265403
87	0x3eadf4db	0.33975872
88	0x3eea5837	0.45770428
89	0x3eade75b	0.33965573
90	0x3db40f90	0.08792031
91	0x3d9ca319	0.07648296
92	0x3e9a82c2	0.30177885
93	0x3e133cd9	0.1437868
94	0x3e5628aa	0.2091395
95	0x3e9d8a95	0.30769792
96	0x3eebaca8	0.46030164
97	0x3e9cdd1b	0.3063744
98	0x3ec271b8	0.37977386
99	0x3e71d646	0.23616895
100	0x3ea1c4d6	0.31595486
101	0x3e6d1995	0.2315429
102	0x3e97eff7	0.29675266
103	0x3efd3fc9	0.49462727
104	0x3e8a7f61	0.27050307
105	0x3e845a61	0.25850204
106	0x3e620fec	0.22076386
107	0x3ea57db8	0.32322478
108	0x3e5db4d4	0.21651012
109	0x3e572d2e	0.21013328
110	0x3b110ffd	0.0022134774
111	0x3ed39d78	0.41331077
112	0x3e868b42	0.2627812
113	0x3e44466a	0.19167486
114	0x3eae0d75	0.33994642
115	0x3eb4b614	0.35295165
116	0x3e9fb0ea	0.31189662
117	0x3eb096cb	0.34490046
118	0x3e5e1b58	0.21690118
119	0x3f2c0d14	0.67207456
120	0x3d1da960	0.038491607
121	0x3e39117a	0.18073073
122	0x3e42642b	0.18983524
123	0x3e53fc1d	0.20701642
124	0x3e5c7b92	0.21531513
125	0x3e1f082b	0.1553046
126	0x3e87fb9b	0.26559147
127	0x3e8c3f96	0.27392262
128	0x3e805355	0.25063577
129	0x3ecc6b7c	0.39925754
130	0x3ebee5a2	0.3728457
131	0x3eac2b68	0.33626866
132	0x3e983d7a	0.29734403
133	0x3e35eb39	0.17765512
134	0x3e8083ae	0.25100464
135	0x3e2df153	0.16986589
136	0x3e0a207f	0.13488959
137	0x3ea3f0dc	0.320197
138	0x3eaa32bf	0.3324184
139	0x3eb6f6a6	0.35735053
140	0x3e94ec74	0.2908665
141	0x3ea9fdbc	0.33201396
142	0x3e661c4f	0.22471736
143	0x3efe14cc	0.49625242
144	0x3e8dc149	0.27686527
145	0x3e983254	0.29725897
146	0x3f284ae8	0.657393
147	0x3e89f148	0.26941895
148	0x3e6f1f2e	0.23351738
149	0x3e6103f3	0.21974163
150	0x3e43d28d	0.19123287
151	0x3e8f399f	0.2797365
152	0x3e6becb6	0.23039517
153	0x3ee2d7a8	0.44305158
154	0x3ea64407	0.32473776
155	0x3ea61b2a	0.324426
156	0x3ed7487a	0.42047483
157	0x3ead0524	0.33792984
158	0x3ec8ad00	0.3919449
159	0x3d70b3b4	0.05876513
160	0x3e9b6a65	0.3035461
161	0x3ee26957	0.44220993
162	0x3ec4afce	0.38415378
163	0x3e2028cb	0.15640561
164	0x3ecdee0a	0.40220672
165	0x3eab7359	0.3348644
166	0x3eb3e55c	0.35135925
167	0x3ed00263	0.4062682
168	0x3e10f669	0.14156498
169	0x3ea88ff1	0.3292232
170	0x3e539a8c	0.20664424
171	0x3d47a4d9	0.048741195
172	0x3ec8ea0f	0.39241073
173	0x3eac453c	0.33646572
174	0x3e63690f	0.22208045
175	0x3e91ec2e	0.28500503
176	0x3e96832c	0.2939695
177	0x3edf1070	0.43567228
178	0x3edd6d20	0.43247318
179	0x3ec4613b	0.3835543
180	0x3ea36a90	0.31917238
181	0x3ea03a8c	0.31294668
182	0x3ec8c2c3	0.3921109
183	0x3e218f87	0.15777408
184	0x3e222b70	0.15836883
185	0x3ea0fda1	0.31443503
186	0x3efe1e67	0.4963257
187	0xbe99e80f	-0.3005986
188	0x3ea0a6ed	0.31377354
189	0x3f06376a	0.52428305
190	0x3f53a9ca	0.8268095
191	0x3d907a3c	0.07054564
192	0x3ebc23c2	0.3674603
193	0x3df44d69	0.11928827
194	0x3e7ae3fc	0.24501032
195	0x3ed378e6	0.41303176
196	0x3e8f1f87	0.2795374
197	0x3e934f0b	0.28771242
198	0x3c3d0bf1	0.011538492
199	0x3eb0bbf9	0.34518412
200	0x3ec1f428	0.3788159
201	0x3eac8f05	0.33702865
202	0x3f20276d	0.6256016
203	0x3ea5b3b4	0.32363665
204	0x3ee877b9	0.4540384
205	0x3ec72f92	0.3890348
206	0x3de74829	0.1129306
207	0x3eb43726	0.35198325
208	0x3f1760ac	0.59131885
209	0x3eb71d23	0.35764417
210	0x3e640e2b	0.2227103
211	0x3ead7bec	0.33883607
212	0x3e6e2711	0.2325709
213	0x3ec17db1	0.37791207
214	0x3e8cadc6	0.2747633
215	0x3e9a1ee7	0.30101702
216	0x3f0636a9	0.52427155
217	0x3ed4266b	0.4143556
218	0xbc67da24	-0.01415113
219	0xbd2ff339	-0.042956565
220	0x3ee1bc29	0.44088867
221	0x3d401a53	0.046900105
222	0x3e25af76	0.16180214
223	0x3ed9419c	0.42432868
224	0x3f0521fb	0.52004975
225	0x3ebe98be	0.37225908
226	0x3eee924a	0.46595985
227	0x3e8f3a85	0.27974334
228	0x3e288316	0.16456255
229	0x3edbd39f	0.42934892
230	0x3ebdbe53	0.37059268
231	0x3efe3a34	0.4965378
232	0x3eb59baf	0.3547034
233	0x3eb9a7df	0.36260888
234	0x3e4e86cb	0.20168607
235	0x3e9918ea	0.2990182
236	0x3ead7547	0.33878538
237	0x3e492c8c	0.196459
238	0xbd4ceaa7	-0.05002847
239	0x3eba1395	0.36343065
240	0x3eba9759	0.36443594
241	0x3e0daaa4	0.13834625
242	0x3e8c6709	0.2742236
243	0x3ee90f52	0.455195
244	0x3ee5527d	0.44789496
245	0x3ec5f95b	0.38666806
246	0x3ec92e69	0.3929322
247	0x3f1dcda5	0.61641914
248	0xbd363cde	-0.04449164
249	0x3e3be4fc	0.1834907
250	0x3e82b49a	0.25528413
251	0x3e9bf730	0.30462027
252	0x3e21f0ad	0.15814467
253	0x3e8b253f	0.27176854
254	0x3eb4bb79	0.3529928
255	0x3f050406	0.51959264

layer2_2.bias f4 [128]
0	0x3e78fccd	0.24315186
1	0x3ebd8d0e	0.3702168
2	0x3ea781b6	0.3271615
3	0x3ead8494	0.33890212
4	0xbe2d8102	-0.16943744
5	0x3d5d1388	0.053973705
6	0x3e83f533	0.2577301
7	0x3e3e6d14	0.18596298
8	0x3c9aea2e	0.018910494
9	0xbd604b1c	-0.05475913
10	0xbd62058a	-0.055181064
11	0x3e6db330	0.23212886
12	0xbcc5b99e	-0.02413636
13	0x3e90e366	0.2829849
14	0x3e79e218	0.24402654
15	0x3e59c2ab	0.21265666
16	0xbdd71240	-0.10501528
17	0xbcd911c0	-0.026497722
18	0xbcfc688b	-0.030811569
19	0x3e83fa9d	0.2577714
20	0x3f11e7da	0.569944
21	0x3e87ef84	0.26549923
22	0x3d16ce0d	0.0368176
23	0x3d8a01d3	0.06738629
24	0xbcab5c43	-0.020918017
25	0xbc5061ff	-0.012718677
26	0xbd19a41e	-0.03751003
27	0x3e9cba57	0.30610916
28	0xbd8236d5	-0.06358115
29	0x3cd91904	0.026501186
30	0x3e2bb3bf	0.16767786
31	0x3eb833c3	0.3597699
32	0xbe21fce6	-0.1581913
33	0x3e56e23b	0.20984738
34	0xbd1ce1c8	-0.03830126
35	0x3ea398c7	0.31952497
36	0x3e9be865	0.3045074
37	0x3e94983e	0.29022402
38	0x3e6e3a47	0.23264419
39	0xbd6b5dc5	-0.057462472
40	0x3e9c7d26	0.3056423
41	0x3e938518	0.2881248
42	0x3e5b7a50	0.21433377
43	0x3e931c43	0.287325
44	0x3eb47eb7	0.35252926
45	0x3e5b63bc	0.21424764
46	0x3e937c92	0.28805977
47	0x3e8db468	0.27676702
48	0xbdac9ef5	-0.08428756
49	0xbe99ba05	-0.30024734
50	0x3e426797	0.18984829
51	0xbd44fc89	-0.0480924
52	0x3e5ceb8d	0.2157423
53	0x3e8ca87c	0.27472293
54	0x3d2e554c	0.042561814
55	0xbda0a8bd	-0.07844684
56	0x3e3a1ea3	0.1817575
57	0x3e8f3cb6	0.27976006
58	0x3b16bc43	0.0023000396
59	0xbe183cc9	-0.14866938
60	0x3ea25785	0.31707397
61	0x3d5e934c	0.054339692
62	0x3eb78117	0.35840675
63	0x3e9e75a7	0.30949137
64	0x3e8e9e12	0.27854973
65	0xbdbd241a	-0.092354015
66	0xbd080ba7	-0.033214238
67	0xbd61de9e	-0.055143945
68	0xbe939033	-0.28820953
69	0x3e3b83da	0.18312016
70	0x3c483bf7	0.012221328
71	0xbe07e6eb	-0.13271682
72	0x3e580eb8	0.21099365
73	0x3e46f59e	0.19429633
74	0x3edeb266	0.43495482
75	0x3e8ddf50	0.27709436
76	0x3cf7b253	0.030236399
77	0x3e7cda53	0.24692659
78	0xbd9234e8	-0.07138997
79	0xbd883746	-0.066511676
80	0x3d82b4b8	0.063821256
81	0x3c829539	0.015940296
82	0x3e8fd835	0.2809464
83	0x3e9a26dd	0.30107775
84	0x3e5b015e	0.2138724
85	0xbd6a8314	-0.057253912
86	0xbe0af198	-0.13568723
87	0xbd661615	-0.056173403
88	0x3e8bfdb8	0.2734201
89	0x3e2de93a	0.169835
90	0xbc71d15d	-0.014759389
91	0x3d67a3a9	0.056552563
92	0x3eb12d6a	0.3460496
93	0x3bc78db4	0.0060898904
94	0xbd73ccd4	-0.05952151
95	0xbdea9cf6	-0.11455719
96	0x3cc93067	0.024559213
97	0x3c461a10	0.012091175
98	0x3d95a9ff	0.07307815
99	0x3e3d760e	0.18502066
100	0xbc922be3	-0.017843192
101	0xbd724af5	-0.059153516
102	0x3cff37d2	0.031154547
103	0x3ecfeb8e	0.406094
104	0x3c51cb33	0.012804794
105	0x3e712b2d	0.23551627
106	0xbe9b8c51	-0.3038049
107	0x3e8d3948	0.27582765
108	0xbc944acf	-0.018102078
109	0x3d264bd1	0.040599648
110	0x3e8b2070	0.27173185
111	0x3e2b92fe	0.16755292
112	0x3c356821	0.01107219
113	0x3e96b3c2	0.2943402
114	0xbdebad39	-0.11507649
115	0x3e2b8453	0.16749696
116	0x3e9cc7f5	0.30621305
117	0xbcede699	-0.029040622
118	0x3d908a85	0.070576705
119	0x3cdac745	0.026706347
120	0x3c81180f	0.015758542
121	0x3e6d752f	0.23189233
122	0xbd687d33	-0.056760024
123	0x3d01c0db	0.031678062
124	0xbdb0707a	-0.08615203
125	0x3bd64ca0	0.006539896
126	0xbd62452c	-0.05524175
127	0x3e76b446	0.24092206

layer3_2.weight f4 [1, 128]
0	0xbeb831ae	-0.35975403
1	0xbead27ae	-0.33819336
2	0xbeafc697	-0.343312
3	0xbeaa68fc	-0.33283222
4	0x3f149d86	0.5805286
5	0x3cbab4c2	0.02279127
6	0xbeb4c1b4	-0.35304034
7	0xbeb89bf7	-0.36056492
8	0x3c757b30	0.0149829835
9	0x3d923f96	0.07141034
10	0x3cf2ca0d	0.029637361
11	0xbeba1f43	-0.36351976
12	0x3d4f1da7	0.050565388
13	0xbea35e6a	-0.3190797
14	0xbeb24fab	-0.34826407
15	0xbebba8d2	-0.36652237
16	0x3eba4fd5	0.36389032
17	0x3c571ffb	0.013130183
18	0x3da0e035	0.07855264
19	0xbeb3fc00	-0.35153198
20	0xbf173ffd	-0.59082013
21	0xbea5b574	-0.32365
22	0x3d0d264e	0.03446036
23	0x3d49ecbf	0.049298044
24	0x3e6848d8	0.22684038
25	0x3d9ffabc	0.07811496
26	0xbca67810	-0.020320922
27	0xbea5c455	-0.32376352
28	0x3ce4483e	0.027866479
29	0x3d71e702	0.059058197
30	0xbeb8ae94	-0.36070693
31	0xbea4abc0	-0.32162285
32	0x3f2cce50	0.6750231
33	0xbec35648	-0.38151765
34	0x3e68435c	0.22681946
35	0xbea7b101	-0.3275223
36	0xbea0f229	-0.31434754
37	0xbeb003f6	-0.34378022
38	0xbeb6ecfd	-0.35727683
39	0x3cf65323	0.03006894
40	0xbebecd45	-0.37265983
41	0xbeb7b4ac	-0.3588003
42	0xbea7f098	-0.32800746
43	0xbea99733	-0.33123168
44	0xbe9ccdb6	-0.30625695
45	0xbeaa5708	-0.33269525
46	0xbe9d850d	-0.30765572
47	0xbec20157	-0.37891647
48	0x3dae6571	0.08515442
49	0x3f099f95	0.5375913
50	0xbeb4652d	-0.3523344
51	0xbd5ab3f1	-0.05339426
52	0xbe9e1903	-0.30878457
53	0xbec58b14	-0.3858267
54	0x3d877756	0.066145584
55	0x3d82004e	0.06347714
56	0xbed37366	-0.4129898
57	0xbeaf23e3	-0.34207067
58	0x3c1a56ca	0.009420106
59	0x3f0324d5	0.51228076
60	0xbe9c6a21	-0.3054972
61	0x3cc04214	0.023469009
62	0xbea63761	-0.32464126
63	0xbeaceaf1	-0.33772996
64	0xbeac879c	-0.33697212
65	0x3d812fc1	0.063079365
66	0x3b1848cf	0.0023236757
67	0x3b691838	0.0035567414
68	0x3f1f3837	0.6219515
69	0xbeca1af3	-0.39473686
70	0x3d54aaa6	0.051920556
71	0x3f0ce371	0.5503455
72	0xbea21416	-0.3165595
73	0xbeb839d1	-0.3598161
74	0xbed9bf5a	-0.42528802
75	0xbeb2f5f5	-0.34953275
76	0x3ec078c4	0.37592137
77	0xbea9e9e2	-0.3318625
78	0x3d229bc3	0.039699327
79	0x3cac9304	0.021066196
80	0x3c880f28	0.01660879
81	0x3c9f4a06	0.019444477
82	0xbebd3914	-0.3695761
83	0xbea63945	-0.32465568
84	0xbeadbd75	-0.33933607
85	0x3d846a8c	0.06465635
86	0x3f0e4560	0.5557461
87	0x3cfd7045	0.030937323
88	0xbeaf03a8	-0.34182477
89	0xbeabe85e	-0.3357572
90	0x3d1827db	0.037147384
91	0x3d6502d0	0.055910885
92	0xbea4ac7b	-0.32162842
93	0x3c481f98	0.012214564
94	0x3daab484	0.08335212
95	0x3ef66ff4	0.48132288
96	0x3c49e231	0.012321995
97	0x3ccbffd0	0.024902254
98	0x3c4720c6	0.01215381
99	0xbebf6bd6	-0.3738696
100	0x3c78cd53	0.015185672
101	0x3d81790f	0.06321918
102	0x3d7a8bc5	0.06116845
103	0xbeec6d70	-0.46177244
104	0x3b75af75	0.0037488614
105	0xbeb7f03f	-0.3592548
106	0x3f189182	0.5959703
107	0xbeb1d6d9	-0.34734228
108	0x3ca96a60	0.020680606
109	0x3e624167	0.22095262
110	0xbe9f0636	-0.31059426
111	0xbec1a3b0	-0.37820196
112	0x3b653736	0.0034975535
113	0xbea074cc	-0.3133911
114	0x3ec5fc51	0.38669065
115	0xbec38618	-0.38188243
116	0xbeba2a49	-0.36360386
117	0x3bc82c31	0.0061087837
118	0x3cc8fcef	0.02453467
119	0x3c52cc37	0.012866071
120	0x3cd74022	0.026275698
121	0xbea52947	-0.32258055
122	0x3ea55caf	0.32297274
123	0x3adcb737	0.001683927
124	0x3c0f26c4	0.00873727
125	0x3d59bb89	0.053157363
126	0x3c5659fd	0.013082978
127	0xbebdfefb	-0.37108597
