rl_energy_manager_20250325_1542/models/checkpoint_700/actor.pth (torch, 82676 bytes, 6 tensors)

layer1.weight f4 [128, 18]
00000000: 40d8 8a3e 12f5 eabc ab1f 2abe e958 cfbd
00000010: 83d8 1cbe 8ec7 53be f0ad cebe 2fcf b8bd
00000020: c247 1f3d 5e11 31be 4b6b 913e 56af c63d
00000030: 751c 863e 87ff c93d b269 133e 1be1 0a3e
00000040: e1f1 563e fab1 103e 265a e1bd 8c16 763d
00000050: ee67 debd 6070 e2bc 5e0f c4bd 531c 203e
00000060: 8d85 3ebe c089 debd b44e 88bd 621f 11be
00000070: e83d b63c a762 6ebe 3ff9 593e e306 4dbe
00000080: f955 3a3e c4aa 203d a4bd 9cbd d925 153e
00000090: 18b1 973e f448 db3d acf2 57bd 0d2a 9d3d
000000a0: 7be2 6d3d 10b4 2abe b25b afbd 9980 be3e
000000b0: 7469 803d fa07 d3bd 3918 5d3e e833 173e
000000c0: c973 703e e4f1 ea3b f8c9 fabc 029c 613d
000000d0: 1079 afbd c3dc b93e ba09 8b3d cef2 c73d
000000e0: 3eaa 983d 805b 86bb bfe3 3c3e 2a7d 2bbe
000000f0: 5026 733c c0bc 24be ded8 943d 563d a6bd
00000100: aae9 933d f423 49bd 692e 483e d40d 0fbe
00000110: 33f2 0fbe 6cf4 0fbe b716 593e cadd a03d
00000120: 0c6e a03e 62fd f1be 5e94 00bf bf1d 6f3e
00000130: 350f c4be fc4b 4bbe de8f 93be be75 033f
00000140: 3f54 cbbe 9089 24be c1ac cb3c 9b3a b9be
00000150: 68e1 5abe ce14 953c 12d9 9a3e ee0d bfbe
00000160: 41ff a8be bbb3 0d3e c755 9f3d f5cf e53b
00000170: 005b 473e 22ea b13d 36c0 60be cd17 a6bd
00000180: 4f6a 443e 1434 c6bd 63df 0bbc ac89 69be
00000190: e933 61be d80a 813d 1e4c bbbd 7d8e 89be
000001a0: 2094 01bd 3313 a0be a1d5 90be 0058 21be
000001b0: 5d1f 07be 5c70 babd 5379 a23e 24b2 d13e
000001c0: 20fe 0c3e 4e5f 2fbe 8cd9 97bd ee8e cb3e
000001d0: 4518 dc3d 8560 54be 9d4e a1be f5d9 89be
000001e0: 1421 56be 33b5 823d 917a 8b3d 1da5 90be
000001f0: 81c3 8abe ea46 43be 28dd abbd 38e4 47be
00000200: 22fb 403e e8d4 90be f445 463e b49f 833d
00000210: 05c6 55be 2595 a8be 9799 97bd da09 b9bd
00000220: 9d78 c7be f118 c7be 371b 10be 2b90 3fbe
00000230: 4903 393d 4442 f8be 406d 2ebd af3f 8fbe
00000240: 83ee af3c d6a9 603c 2705 263c d64f 3a3d
00000250: 5cdb 2d3c 4339 56be 096e 863b b6b8 b5be
00000260: a9e7 bbbd a8a7 34be d925 6e3e 4378 623d
00000270: 24fc 9e3e 067b 2abc 4dd0 00be 3ba3 aebd
00000280: 92e3 c53e e01c 42bd 7fc5 43be 3716 5bbe
00000290: 5438 b63d 6396 e8be 82ca f9bd 08a4 493e
000002a0: 59de 443d a307 10bf 450c 02be a06b 38bc
000002b0: a56c f9bd 55b3 b2be 7c8b b4be d71a 30be
000002c0: 7c34 a5be 4bf2 cebe 8d9f c2bd eb92 bbbe
000002d0: 785a 163e 8b7a 8f3c c9e9 83bd 700d 883d
000002e0: aedc e3bb e12f 273d 0e1f 793d cbbe e1bd
000002f0: fa4f 37be 0891 ce3c 5e77 45bb f046 2d3b
00000300: d037 a43e 77c1 a23e 3ece 89bd 7a63 df3d
00000310: e87e 323e b00c 55bc 141a 683d 1e46 873d
00000320: 4f37 5bbe 2824 b2bd 7141 4b3e 9a0b bc3d
00000330: f012 40bc 4d84 11be 2caa 13be 9533 58be
00000340: 1659 9dbd 1604 a33d 53e5 193e a6de de3d
00000350: 1359 55be f224 11be a85c 18bd 877a 693e
00000360: 5ca8 0b3d 1005 7abd 3ab5 c73d c4db b7bd
00000370: 9738 1cbe 392a 303e 2a7e dbbd b489 41bd
00000380: e61a 70be d988 213e addc 363e 02ed af3d
00000390: 224b 28be fa34 6ebe dc06 44be 47fb 333e
000003a0: 7ec1 e73d d31a 4b3e a934 913d 2c58 743d
000003b0: 8044 17bb d119 66be 2fca 4ebe 42c1 61be
000003c0: 429b c53d 6a99 a0be ec4b 42bd 48e7 0abe
000003d0: df2d aebe 632d e7be 69c1 dfbe c2d8 1ebe
000003e0: f9b6 5cbe ca6c 76be c405 c6be 9246 8bbe
000003f0: 73cf 013c c2f0 febd 7f22 b6bd a92c d4be
0.2711811 -0.028681312 -0.16613643 -0.1012438 -0.15316968 -0.20681593 -0.4036708 -0.09023892
0.038886793 -0.17291781 0.2840217 0.097014114 0.26193586 0.09863191 0.14395788 0.13562433
0.20990707 0.14130393 -0.110035226 0.060080096 -0.10859667 -0.027641475 -0.095732436 0.15635805
-0.18605633 -0.108661175 -0.066556364 -0.14172128 0.022246316 -0.2327982 0.21286486 -0.20022158
0.18196858 0.039225355 -0.076533586 0.14565219 0.296273 0.10707274 -0.052721664 0.07674036
0.058077317 -0.16670251 -0.08562411 0.37207487 0.062701136 -0.10304256 0.21591271 0.14765894
0.23481669 0.007169949 -0.030613884 0.05508042 -0.08568013 0.3630124 0.067889646 0.09763108
0.07454346 -0.004100263 0.18446253 -0.16746965 0.014840677 -0.16087627 0.07267927 -0.08117168
0.07222302 -0.049106553 0.19548954 -0.13970119 -0.14057235 -0.14058083 0.21200071 0.07854803
0.3133396 -0.47263628 -0.5022639 0.23351191 -0.38292852 -0.19853204 -0.288207 0.51351535
-0.39712712 -0.16068101 0.024862649 -0.36177525 -0.21375048 0.018198397 0.30243737 -0.37315315
-0.33007243 0.13838093 0.077800326 0.007013316 0.19468307 0.086872354 -0.21948323 -0.081100084
0.19181179 -0.09677902 -0.008537146 -0.22806424 -0.21992458 0.063008964 -0.091453776 -0.26866522
-0.031635404 -0.31264648 -0.28287986 -0.15756226 -0.13195558 -0.09103462 0.31733188 0.40956223
0.13768816 -0.171262 -0.07414541 0.39757484 0.107468165 -0.20739944 -0.3150529 -0.269241
-0.20911056 0.06382217 0.06810487 -0.2825097 -0.27102283 -0.1907002 -0.083917916 -0.19520652
0.188458 -0.28287435 0.19362622 0.06426945 -0.2087632 -0.32926288 -0.07402342 -0.09035082
-0.38959208 -0.38886216 -0.14072882 -0.1870734 0.04516915 -0.48488057 -0.042584658 -0.27978274
0.021476036 0.013712367 0.010133064 0.045486294 0.010611381 -0.20920281 0.0041024727 -0.35492486
-0.09175045 -0.17642081 0.23256625 0.05529047 0.31051743 -0.010405308 -0.1257946 -0.085272275
0.38650185 -0.04739082 -0.19118308 -0.21395193 0.088974625 -0.45427236 -0.121968284 0.19691479
0.04806361 -0.5626165 -0.12699993 -0.011256129 -0.121789254 -0.34902444 -0.35262668 -0.17197739
-0.32266605 -0.4041923 -0.09503088 -0.36635527 0.14682949 0.017514488 -0.06441075 0.06643188
-0.0069537973 0.040817145 0.06082063 -0.11022719 -0.17901602 0.02521564 -0.0030130963 0.0026439987
0.32073832 0.31788227 -0.06728791 0.109076455 0.17431223 -0.013003513 0.056665495 0.06605171
-0.21407817 -0.086983025 0.19849183 0.091819 -0.011723265 -0.14210625 -0.14420384 -0.21113427
-0.076830074 0.07959764 0.15028886 0.108823106 -0.2083476 -0.1417425 -0.03719774 0.22800647
0.034096107 -0.061039984 0.09751363 -0.08977464 -0.15255962 0.17203607 -0.10717423 -0.047250465
-0.23447761 0.1577486 0.17857619 0.085901275 -0.16434911 -0.23262396 -0.19143242 0.17576323
0.113162026 0.19834451 0.07090122 0.0596544 -0.00230816 -0.22470786 -0.20194314 -0.22046378
0.09648754 -0.31367046 -0.047435686 -0.1356479 -0.34019372 -0.45151815 -0.43702248 -0.15512374
-0.21554174 -0.24064937 -0.38676274 -0.27202278 0.007922995 -0.12448265 -0.08893298 -0.41440323

layer1.bias f4 [128]
00000000: 5874 c4bd 9a93 3fbe 288b a03d 4036 44be
00000010: 23b9 84bd b363 893e 7826 613e 453d 26be
00000020: 0e64 613e a610 0fbe 0b9e b73d 90ac 42be
00000030: 53b4 14be 5587 96be 012b afba c8f0 5cbe
00000040: 9985 85bd c715 ab3d cc71 843e 4e96 863e
00000050: 42e7 603e 0998 e5bd aee2 113e 3b1f 813d
00000060: 1ec3 26be 9ae1 cdbd dd89 e6bc 9348 99bd
00000070: d9a3 64be d90b 5b3e 6f27 643e fcfd 8cbe
00000080: 5e70 213e f379 17be d76a 353e 2c79 0b3e
00000090: c572 6c3e 3e3d ae3d b688 f0bd eaa3 adbd
000000a0: b32c 2a3d aaab f33d 88c2 5b3b 11de 3b3e
000000b0: 04c0 df3c 768d 053e fe56 e8bd a6a0 133e
000000c0: ef97 9d3d 2a3d 743e 65b9 7ebd ed57 863e
000000d0: 2b26 3a3e c2c1 adbd 0eb2 13bd 51c2 b0bd
000000e0: 21a7 853e 2e09 4fbe 6158 bb3d 9eb8 f0bb
000000f0: a067 773e efe7 81bd 6e72 733e 362a 783e
00000100: 8f03 b6bd f8c4 803e 0766 6e3e 17f5 4a3c
00000110: 2417 4abe 258b 053d 2fdb b1bd b742 0fbe
00000120: 1cd4 5abe 126e 223d 6180 0ebe d8a5 e63d
00000130: 7179 07be d98a 81bd 0228 60be 448e 1b3e
00000140: 233a 453e 61b7 1d3e aaaa 5b3e ee56 39be
00000150: e472 b33d 57f1 17be c69b 3abe c128 5a3e
00000160: 2e5e ee3d a2de 4fbe 148f 61be 2af8 84be
00000170: d743 713e 4659 0b3e 9232 f3bd efa7 293b
00000180: 3d21 b3bd 9171 b7bd 42a3 c6bd 659d b13e
00000190: b363 803d 189f ff3d c493 713e 93bb 33be
000001a0: e3a1 44be 0107 183d 5a45 08be 2400 b03d
000001b0: f446 943e 0676 fcbd 5c6c 28be c807 643e
000001c0: edc6 0cbe e6a2 2a3e 11fe 03be ec52 973e
000001d0: 05ec 3fbe b5db 06be 87fe 743d 258c b23d
000001e0: 55ac 743e bb3a 843e 9a0f a03d 9730 5a3e
000001f0: 6809 8d3e 2043 60bd 8ad8 f4bc 9a06 8cbe
-0.09592503 -0.1870865 0.07839042 -0.1916132 -0.064806245 0.26833877 0.21987331 -0.1623431
0.22010824 -0.13971195 0.08965691 -0.1901114 -0.14521913 -0.29400125 -0.0013364257 -0.21576226
-0.06519622 0.08353763 0.2586807 0.26286548 0.21963218 -0.11210639 0.14246628 0.06304785
-0.16285369 -0.10052796 -0.02814191 -0.074845456 -0.22328128 0.21391238 0.22280668 -0.27537525
0.15765521 -0.14792614 0.17716537 0.13620442 0.23090656 0.08507775 -0.117448255 -0.0847853
0.041546535 0.11897977 0.0033532698 0.1834643 0.02731324 0.13042244 -0.113447174 0.14416751
0.07694995 0.23851457 -0.062188525 0.26238957 0.18178622 -0.08484222 -0.036058478 -0.08630813
0.26104072 -0.20218346 0.09147716 -0.007346227 0.24160624 -0.06343066 0.2377412 0.24234852
-0.088873975 0.25150275 0.23281108 0.012387536 -0.1973539 0.0326034 -0.08684384 -0.13990293
-0.21369976 0.039655752 -0.1391616 0.11262101 -0.1322992 -0.06325311 -0.21890262 0.15190989
0.19260459 0.15401985 0.21451822 -0.18099567 0.08762148 -0.14838158 -0.18223485 0.21304609
0.11639057 -0.20299771 -0.22027236 -0.25970584 0.23561035 0.13608274 -0.1187488 0.002588745
-0.08746574 -0.08957208 -0.09699108 0.34690395 0.06269016 0.124815166 0.23591524 -0.17552023
-0.1920238 0.037116054 -0.13307706 0.08593777 0.28960383 -0.12327199 -0.16447586 0.22268593
-0.13747759 0.16663703 -0.12889887 0.29555452 -0.18742378 -0.13169749 0.05981305 0.08718137
0.23893864 0.25826058 0.07815476 0.21307598 0.2754624 -0.054751515 -0.02988841 -0.27348787

layer2.weight f4 [128, 128]
00000000: 3a7c b6bc 6e17 783d 2651 293e d38c 8e3d
00000010: bdfe 943d 1349 493d 010c bc3d 8d67 993d
00000020: e2e4 0fbc 4267 fa3d 1d73 ea3b ac2b b0bd
00000030: deac 003d 4e72 0d3d 64d0 9d3a eaef 743d
00000040: a9ea f53b 52eb 46bd dedf 4c3c 563f f33d
00000050: 8a5b 9f3d 91c6 983d 5975 46bd 00e6 bfbc
00000060: 1b31 903d a33a 823d 8648 a13d 9848 cabc
00000070: fff9 8c3d 2459 303c f092 c43d 539b 2d3e
00000080: d6e4 273d eba5 ad3d cca1 ef3d 68d4 06bd
00000090: 60bb c33d e035 53bd bfdb 68bd 93d2 9dbd
000000a0: 1da2 433d 2af1 313d 5cfe 63bd 5b65 46bd
000000b0: 8fa6 cc3d 6b71 363c 8398 293d 5de9 19bd
000000c0: d897 203b 50e3 1e3b 276e 143e d64c 8abd
000000d0: 5772 72ba eaf6 07bd 50e0 9fbc d152 143e
000000e0: 6dcb ca3c 0066 523c 5871 91bd e02d c63d
000000f0: f0e1 843d 5c07 6d3d c529 c4bc 25a9 c13c
00000100: f295 063d 0348 693d 76b8 b63d 14a6 193c
00000110: 758a 9f3d 2498 e83b 2695 1cbc 4fd1 a83c
00000120: 73d5 a9bd e167 3ebd 04de 3f3c 4831 9c3d
00000130: d187 8e3d 7c60 ad3a 4a69 77bd 4e87 993d
00000140: e6cb 2abd 40d6 a43d e195 d53d e358 67bd
00000150: 27f6 b73c 0ad2 ec3d 0579 af3d ad13 d2bc
00000160: 3d2d b43d 7213 8ebd 143b 6bbd dacc 4f3e
00000170: 1d08 ab3c 2ff5 d03d 0810 353d 29d0 adbd
00000180: 9b08 d33d 1883 4c3d c065 063c 168a 0bbe
00000190: 4576 5f3d 19de aebd cefb f03d c90e 033d
000001a0: 106f 983c 1fb2 aa3d 8700 053d 9c94 32bc
000001b0: b039 c33d a90b 783d e67f 5fbd e211 863d
000001c0: b42a 66bd 60fc 1d3d 8a2f f0bc 85bf eabc
000001d0: ad7a b1bd c9ff b53d b53c bd3d bc95 2c3c
000001e0: c55e 013e 61a1 b4bc 962e a53d 7f49 a63c
000001f0: 9fb6 56bd ca58 123d f46b 463d a64a 4c3d
00000200: 09b8 6bbd 4e0f 7d3d d9d5 c03d 9066 683c
00000210: 44a7 0abe c186 5e3d 63fc 09bd 3dc9 bc3d
00000220: 7dca 433d 0e83 433d 7bad 48bb 9e9b 403d
00000230: 0025 8fba 7171 dc3c abee a43d 79c8 88bd
00000240: 6fd1 c2bc 122d aabc 19c9 183d 7d4b 593d
00000250: 273e a43d b2f1 9cbc 16ea 2a3d 1463 0abd
00000260: a9b9 17bd 68ea 67bc c2f5 6cbd 13b4 9fbd
00000270: dffc a23d 5dbb ac3d 0fae 72bc cb10 09bd
00000280: d22c 363e 95cb 373b e833 9e3d 8cf6 a03d
00000290: 3ba2 e93d de2b 7c3d dc7b 113d 500d 43bc
000002a0: 60fb d8bd 05a5 edbb ccc1 98bd d541 203e
000002b0: d89d 8cbd 3a40 e73d 4def c0bc 904f 423c
000002c0: f575 b73c 03d0 333d 0db4 d73d 54fc 1a3e
000002d0: 6493 9b3d ac37 f3bd a57e 71bd 003d 2c3d
000002e0: a458 183e ae5c 2c3d ac67 b33c 4850 0cbe
000002f0: a0aa 1d3d c4f0 5ebb 4ae6 4cbd ed9e 123d
00000300: bcf9 7dbd b1e3 ea3d 6a6b c5bc 6acb 1fbd
00000310: d680 543d 8e0e afbd 6748 8a3d 260e a4bb
00000320: 4e98 3b3d 0662 9f3d 1a5d eebd c9fb b1bd
00000330: e35f f83c ffe2 0d3d b06d 10bc 0fb0 903d
00000340: f9b4 363d fb7a aa3c 318c c83d 1a7d 0d3d
00000350: 60d5 a4bc 5114 9c3c 0b04 8abd b944 803d
00000360: 2733 a83d bcf9 c0bc 2f68 38bd 47b5 58bd
00000370: 127c 833d 486e d2bc 6f65 8abd 928c 3c3b
00000380: 5a59 3b3a cb36 bbbd 10b9 dc3b 1191 473d
00000390: d537 69bd 1eb8 593d 5872 83bc 9940 d1bc
000003a0: 2090 34bb c374 a7bd 94e4 a3bd 08c0 e33d
000003b0: b1c8 943d a7a7 18bd c098 40bb 796f 0c3e
000003c0: 397e 38be ecac 6fbb a66b 2bbd 1980 013c
000003d0: 4057 47bb 5767 a1bd 3bd1 cc3d d42d 8dbd
000003e0: a3c1 063e 8fea 8bbc 72fc 923c 96b9 f23d
000003f0: 64c9 6a3d 1579 a63d cca7 b6bd 9391 fbbd
-0.022276033 0.06056922 0.16534862 0.06960454 0.0727515 0.049141955 0.09181977 0.07490454
-0.008782597 0.12226726 0.007154836 -0.0860208 0.03141486 0.034532838 0.0012040255 0.059799112
0.0075047803 -0.048564263 0.012504546 0.11877315 0.077811316 0.074597485 -0.048451755 -0.023425102
0.07040616 0.0635884 0.07875161 -0.024692819 0.068836205 0.01076344 0.095983386 0.16953783
0.04098972 0.08478912 0.11700782 -0.03291741 0.09557223 -0.05156505 -0.05685019 -0.077061795
0.047762025 0.043442883 -0.055662498 -0.048436504 0.09992706 0.011135439 0.041405212 -0.03757607
0.0024504568 0.0024244376 0.14495145 -0.067529365 -0.00092486053 -0.03319446 -0.01951614 0.14484717
0.024755204 0.0128417015 -0.07101697 0.09676719 0.06488407 0.057868347 -0.023945699 0.023640225
0.032857843 0.05695344 0.08921902 0.009377975 0.077900805 0.0070982147 -0.009557044 0.020607619
-0.08292665 -0.046485785 0.0117106475 0.07626587 0.06959499 0.0013227607 -0.060403146 0.074965104
-0.04169836 0.080486774 0.10428978 -0.056481253 0.022456242 0.11563499 0.085680045 -0.025644148
0.08797691 -0.06937303 -0.05742939 0.20292988 0.020877892 0.10203015 0.04420474 -0.08486969
0.10304376 0.04992971 0.00820297 -0.13626894 0.05455615 -0.085384555 0.11766778 0.031996522
0.018607646 0.08334755 0.032471206 -0.010899689 0.095324874 0.060557995 -0.054565333 0.065463796
-0.05619307 0.03857076 -0.029319543 -0.028655777 -0.08665977 0.08886678 0.092400946 0.010533746
0.12633808 -0.022049608 0.08065526 0.020298718 -0.052420255 0.035729207 0.048442796 0.049875878
-0.057548556 0.061782174 0.09415788 0.014184609 -0.1354037 0.05432773 -0.03368796 0.09218071
0.04780053 0.047732405 -0.003062098 0.047023408 -0.0010921061 0.026909562 0.08053335 -0.06678862
-0.023781506 -0.020773444 0.037301157 0.053050507 0.08019667 -0.019158218 0.041727148 -0.033785895
-0.037042294 -0.014155008 -0.05785156 -0.07798018 0.079583876 0.08434174 -0.014812007 -0.03346328
0.17790535 0.0028044928 0.07724744 0.07859525 0.11407896 0.061565273 0.035518512 -0.011905029
-0.10594821 -0.007252338 -0.07458839 0.15650113 -0.06866044 0.11291547 -0.023551608 0.0118597895
0.022395113 0.043899547 0.10532389 0.15135318 0.07596472 -0.11875853 -0.05895867 0.04205036
0.14877564 0.042080574 0.02190002 -0.137025 0.0384928 -0.003401802 -0.05002431 0.035796095
-0.062005743 0.1146921 -0.02409907 -0.03901235 0.05188068 -0.08547698 0.06752091 -0.0050065694
0.045799546 0.07782368 -0.116388515 -0.08690602 0.03031916 0.03464031 -0.008815214 0.070648305
0.044606183 0.020810595 0.097923644 0.034543134 -0.020121276 0.019052656 -0.067390524 0.06263108
0.082128815 -0.023556583 -0.045021232 -0.052907255 0.06420149 -0.025687352 -0.06757628 0.002877031
0.00071467983 -0.0914131 0.0067359284 0.04872233 -0.05693801 0.053154103 -0.016045734 -0.025543498
-0.0027551726 -0.081765674 -0.08002582 0.111206114 0.07264841 -0.03726926 -0.002938792 0.13714398
-0.180169 -0.0036571575 -0.04185071 0.007904076 -0.0030416995 -0.07881039 0.10000845 -0.06893507
0.13159804 -0.01707962 0.01794264 0.11851804 0.057320967 0.08128563 -0.089187235 -0.122836255

layer2.bias f4 [128]
00000000: 2f80 ba3d 6339 b53d 24e7 703d b531 bfbc
00000010: 349c 9f3d a672 783d 1e04 f53c c5a8 d33c
00000020: 0a1b b2bd ba48 a8bd b639 84bb 4a6c 323d
00000030: e69d bc3d e0e6 183c c973 07bd 2ba2 5bbd
00000040: def7 a0bd 85ec ebbc 1f48 2b3d f12d f2bc
00000050: 3c08 46bd 69f2 f33c eadc aeb8 fa64 b0bc
00000060: b67c f23b 4a16 2c3d 4fa8 cdbc f927 893d
00000070: 48ed 3b3c 6b2e 9ebd a6db 293d dc8c ac3d
00000080: 455a f63d 4d3c df3c 3163 2a3e c710 663c
00000090: 0332 48bc 08bc ae3c c9f7 70bd 4701 0abc
000000a0: e312 2d3e 5f54 35bc 2c54 93bd 6c32 233e
000000b0: 8372 9a3c d98d 943d be4f ee3b 7656 c03c
000000c0: 83eb 103d f568 74bd b17e aa3c bf49 063e
000000d0: 387f 5abd 6f65 51bd cf94 683d 1399 b9bc
000000e0: 137e 653c 87a0 5bbd cdb3 7b3d 2986 8abd
000000f0: 9e6d 5ebd b53b 9fbd 0783 b43c 308f af3d
00000100: 4bff 213d 676d 5d3d 8b45 213d 293c da3d
00000110: 0d04 683d efa7 4e3d 797d c0bb 6c67 f83d
00000120: ac6c 423d af81 a83c e050 7fbc a4f4 073e
00000130: 20cf 63bc 99c4 acbd 9df9 20bd 9fe4 8d3d
00000140: f24f 483d 2aff 113d 2a0d 883d 4404 d83c
00000150: 8c92 3e3e 70a5 4dbd 1be7 47bc 0c71 55bc
00000160: aeb5 8a3c cf23 87bd fa32 1abc 026d 3f3d
00000170: 08b6 eabd ad5b 123e 0157 2d3c 8397 b0ba
00000180: 896d 6bbd f185 54bb f9b1 7bbd 0c0a aabd
00000190: 4b89 4c3d 435e 853d 348c 6a3d 8880 6dbc
000001a0: d936 abbd c117 0f3d 330c f3bc 9d43 933c
000001b0: d928 0cbd 0536 53bd acca 803d 0942 21bd
000001c0: 3471 ec3c 05d3 b83c 3d89 06bd 0e20 71bd
000001d0: 028c c7bd 01fd f83c d229 fe3d 3307 1b3e
000001e0: 2cb0 a5bd 5b7c a93d e1b7 8cbd e71a 9abd
000001f0: 5bf4 bbbd a210 833d 3100 1f3c 7012 803d
0.0910648 0.08848836 0.058814183 -0.023339132 0.07793465 0.060656212 0.02990919 0.025837312
-0.086965635 -0.082169965 -0.0040352 0.043560304 0.09209804 0.009332389 -0.033069406 -0.053621452
-0.07859777 -0.028799305 0.041816827 -0.029562922 -0.048347697 0.029778676 -8.338115e-05 -0.021532524
0.0074001206 0.042013444 -0.02510467 0.06697077 0.0114701465 -0.07723697 0.04146924 0.08425304
0.12028936 0.027250433 0.16639401 0.014042086 -0.012218955 0.021329895 -0.058830056 -0.008423156
0.16901736 -0.011067479 -0.07193789 0.15937203 0.018853432 0.07253618 0.0072726896 0.023478728
0.03538085 -0.059670407 0.020812364 0.1311407 -0.05334398 -0.051122125 0.05678254 -0.022656
0.014007109 -0.053619888 0.06145077 -0.0676387 -0.054303758 -0.0777506 0.022035135 0.08572233
0.039550107 0.054059412 0.039372962 0.10656006 0.056644488 0.050453123 -0.0058743325 0.12129101
0.04746692 0.02056965 -0.015583247 0.13276917 -0.013904363 -0.084359355 -0.03930055 0.06928372
0.048904367 0.035643734 0.06643136 0.026369222 0.1861059 -0.0502066 -0.012201096 -0.013027441
0.016932335 -0.06598627 -0.009411568 0.046734817 -0.11460501 0.14292784 0.010579825 -0.0013472888
-0.057477508 -0.0032428468 -0.061449025 -0.083026975 0.04993562 0.065121196 0.057262614 -0.014495976
-0.08360071 0.034934763 -0.029668903 0.017976576 -0.034218643 -0.05156519 0.062886566 -0.039369617
0.028862573 0.02256156 -0.032845724 -0.05886846 -0.09743501 0.03039408 0.1241032 0.15139465
-0.08090243 0.08275672 -0.068710096 -0.075246625 -0.091774665 0.06399657 0.0097046355 0.06253517

layer3.weight f4 [9, 128]
00000000: 5716 9ebd 749f ecbd 8a84 f23d d794 213e
00000010: 0bf4 77be 5c10 f3bd bcd7 043d d850 85bd
00000020: 7062 7c3c f96f 0bbc 56f7 93bd 7722 973e
00000030: 64a2 f53d ed03 7abb 9c1d a7bd 1e2c febc
00000040: beef 143d cb75 0a3e 3b96 b4bd 26c1 f9bd
00000050: a40a d5bd 8302 543d ec14 6abd 3145 453e
00000060: ce0f babd 6948 f0bc d045 0a3b 8bd3 dabd
00000070: 3258 b9bd 60ab 0a3d cf9c b43c 8315 1cbc
00000080: 421f 6dbd 920d c03c e787 74be c706 58bd
00000090: 85fe 57bd 072d 3f3d a449 ecbd ecd9 3fbe
000000a0: 6918 56be afce 80bd 0c85 703d 5907 aa3d
000000b0: 07a8 f6bc ad61 02be 3420 a8bc e581 38bc
000000c0: 933a a4bd 78e2 4abd b7f2 16bc 0932 853e
000000d0: 254c d33c c1cf b13d 12e6 513b 726f d8bc
000000e0: 967f 86bd a716 09bd 6c86 c33b 464f 04bd
000000f0: bc77 4d3c 5ffa af3d 64c0 b53e 463e 49bc
00000100: 5668 093d 7232 99bd 2347 a0bd 383c 50bd
00000110: a69f 023e 62b6 f2bd 40a5 4f3e 2520 3abe
00000120: 1444 333c 4435 073e 04b8 a2bd 8bb8 17be
00000130: bbd0 f0bc a92e 9bbd 084b 03bd b461 02be
00000140: 4298 6bbd 1b0a 1dbe 9d66 a23e 0e32 edbd
00000150: 7bf7 92be 791f b43d ee43 e6bc a9c5 60bd
00000160: c5f7 a4bd 4a7f 4fbd edb1 23bd dae8 5f3c
00000170: a2bd 423e 80b8 4abd 33a5 6fbd 795b 59be
00000180: af30 89bc 6051 7cbd d971 eb3c ea48 e6bc
00000190: 55ee 30bd 33ec 2abe 38f9 053e b16a 823d
000001a0: 5c29 84bd 9966 22be de9e 213e d319 423d
000001b0: d22b 0cbe 5d78 863c 649d 21be 6720 c3bd
000001c0: 431a 80be 2a11 65bd cc78 923d d652 b03b
000001d0: 3e30 a0bd bc8e 2b3d 16c1 133d 1e27 7b3e
000001e0: aad9 a23d b5ff ddbd 7c5f 69bd 6804 633d
000001f0: 8678 a3bd a6df 14bd 6760 643d a6c2 61bd
00000200: 498b 8fbc 6bf9 593d 764d 3fbc 9516 da3b
00000210: f41f d0bd 77cd 90bc 32ab 6a3d f2c1 57bd
00000220: 32dd 5b3d e65e d43d aebd cd3c 9e86 d83d
00000230: 7bbf b4bd 3f65 78ba c6a6 3ebd be0d 5c3d
00000240: 89f3 f6ba 66e0 2ebd b862 22bd f7de 963d
00000250: 2241 17bd aeec 963d 4db5 88bc 3d65 06bd
00000260: 9833 b5bc 2396 3e3d c98c 71bc c265 6abd
00000270: f2ea 04be 1d95 52bd 0a7e 3abd 0890 053b
00000280: 0597 7f3d a869 6abc 8bf2 85bc daef 0b3d
00000290: 70e3 63bc 19a2 823c 70b4 503d c9b2 bebd
000002a0: af52 e03d 626d e03b 196f 6abd 7aa0 ba3d
000002b0: 732e f2b9 e44a 653c 3aed e4bd a2e8 083d
000002c0: 835f 10be dfef 203d 46d2 20be 519a 78be
000002d0: dbc1 093d b4d5 0a3d 87d6 ba3c 89bb 68bd
000002e0: e3ec 28be 1eba 143d 02b1 60bd 2400 163d
000002f0: d978 9a3d 58e3 33bc fdf7 9bbc 729e ad3d
00000300: e8ec a4bd 03f7 e83c 2d47 ccbd a0b1 0a3d
00000310: dd2a 303d 9e06 5ebd 532b c2bd 9df9 233e
00000320: 10c4 463d a24b 363e 04ed bcbd 5d8f 893e
00000330: 504b f6bc 6da2 7cbd d7f9 1fbd 6efd 793d
00000340: 0969 443d 6a00 45bd 6631 92be 3a86 46bc
00000350: 251b 19be 8e30 90bd 94ae b53c d2bc 6f3d
00000360: 9332 0abd 0de0 4a3d b1f7 4cbe fa4a debc
00000370: c1ca d13d 483f 2c3e 3af5 0fbd be74 a13c
00000380: 284c 7d3d b7a8 493d 5ab6 323e eb46 173b
00000390: b2c6 33bd b7fd 813d 2cd9 cabd 40ec 39bb
000003a0: e4d0 a6bd 9b48 0fbc 95cb a2bd 2078 b23d
000003b0: bd3a 3abd d558 73bd fe5b 813d 0901 023b
000003c0: e64f 09be 62c9 663d 9038 703c bb6f 2cbd
000003d0: ebcf 05bd d88f 2fbd fde9 3cbe 6456 a63b
000003e0: 2dc9 c9bb 0089 9a3d bb15 603d 0463 88bd
000003f0: 5c50 883d 5b04 e93d 0696 b9bd 05da 603d
-0.07719105 -0.11553851 0.11841686 0.15779434 -0.24214189 -0.11868355 0.032432303 -0.0650956
0.015404329 -0.008510583 -0.0722491 0.29518482 0.11993864 -0.0038149313 -0.081599444 -0.031026896
0.03636145 0.13521497 -0.08817717 -0.12195043 -0.1040242 0.051760208 -0.05714886 0.19264676
-0.09085046 -0.029331403 0.002109874 -0.1068488 -0.09050025 0.033854842 0.022047428 -0.009526613
-0.057891138 0.02344397 -0.23879968 -0.05274084 -0.052732963 0.0466738 -0.11537483 -0.18735474
-0.20907749 -0.06289422 0.058720633 0.08302183 -0.030109419 -0.12732573 -0.020523168 -0.011261438
-0.08018985 -0.049532384 -0.009213141 0.26014736 0.025793144 0.08682204 0.0032028002 -0.026420329
-0.06567304 -0.03346887 0.005966952 -0.032302164 0.012540754 0.08592676 0.35498345 -0.012282914
0.033546768 -0.07480325 -0.07826068 -0.05083868 0.12756214 -0.11851193 0.20277882 -0.18176325
0.010941524 0.13203913 -0.079452544 -0.14816491 -0.029396405 -0.07577259 -0.032053977 -0.12732583
-0.05751825 -0.15335886 0.31718913 -0.11581813 -0.28704438 0.087950654 -0.028108563 -0.054876003
-0.08055071 -0.0506585 -0.039964605 0.013666356 0.19017652 -0.04949236 -0.058507156 -0.212263
-0.016746847 -0.061601043 0.02874081 -0.02811094 -0.04319604 -0.16691665 0.1308335 0.06368006
-0.06453201 -0.1585945 0.1578326 0.04738791 -0.13688591 0.016414816 -0.15782696 -0.09527665
-0.25020036 -0.055924572 0.071519464 0.0053809686 -0.078217015 0.04188417 0.036072813 0.24526641
0.079516724 -0.10839788 -0.056975827 0.055424124 -0.079819724 -0.0363461 0.055756 -0.05511727
-0.017522471 0.05321638 -0.011676183 0.006655524 -0.101623446 -0.017676098 0.05729217 -0.052675195
0.053677745 0.10369663 0.02511486 0.10572551 -0.088255845 -0.0009475536 -0.046545766 0.053724043
-0.001884089 -0.04269447 -0.039644927 0.07366746 -0.03692735 0.07369362 -0.016688013 -0.032811392
-0.022119328 0.0465299 -0.014743038 -0.05722595 -0.1298025 -0.051411737 -0.045530356 0.0020380039
0.062399883 -0.014307417 -0.016351005 0.034164287 -0.013909206 0.015946435 0.05095333 -0.09311444
0.10953271 0.006848977 -0.057234857 0.0911264 -0.00046192444 0.013994906 -0.1117806 0.03342498
-0.14098935 0.03929126 -0.15705213 -0.24277617 0.03363214 0.03389521 0.022807373 -0.056819472
-0.16496615 0.036310308 -0.054856308 0.036621228 0.07542581 -0.010979496 -0.019039148 0.08477487
-0.08052999 0.028438097 -0.09974513 0.033860803 0.043009628 -0.05420553 -0.0948092 0.16013189
0.048526824 0.17802289 -0.09224895 0.2686719 -0.030065209 -0.06167834 -0.039056625 0.061032705
0.04795173 -0.048096098 -0.28553313 -0.012116963 -0.14951761 -0.07040511 0.022177972 0.058529682
-0.033739638 0.049530078 -0.20016362 -0.027135361 0.1024375 0.16821015 -0.035145976 0.019708987
0.061840206 0.049233165 0.17452374 0.0023083042 -0.043890662 0.063472204 -0.099047035 -0.0028369576
-0.081453115 -0.008745338 -0.079489864 0.08714318 -0.045466173 -0.05941089 0.06316374 0.0019837043
-0.13409385 0.056344397 0.014661923 -0.042098742 -0.03266899 -0.04286179 -0.18448634 0.0050762165
-0.006158015 0.07545662 0.054708224 -0.06659511 0.06655952 0.11377784 -0.09061818 0.05489542

layer3.bias f4 [9]
00000000: 3983 703b 2efc 1f3d 7336 91bd 05d3 48bc
00000010: 6033 5bba 0b26 cbba 7b2e 433d f835 33bd
00000020: fe5f 8abc
0.0036699309 0.039058857 -0.070904635 -0.012257342 -0.00083618425 -0.0015499009 0.04765175 -0.04375264
-0.016891476
