rl_energy_manager_20250326_0915/models/best_reward_model/actor.pth (torch, 427912 bytes, 14 tensors)

layer1.weight f4 [256, 18]
0.03691658 0.013989777 -0.06669868 -0.05573573 -0.07612383 -0.008931431 -0.09183659 -0.029175589
0.04692247 0.013364834 0.0043601273 -0.021092454 -0.028166054 -0.099650845 0.10380711 -0.032833796
0.083737984 0.003602429 -0.012849375 0.023385417 -0.14498405 -0.007502827 0.051201332 -0.0932156
-0.017421443 0.0009092719 -0.023370475 -0.019672561 -0.016200902 -0.042899095 0.06356335 -0.015418608
-0.06610075 -0.10932616 -0.06231845 0.10738187 -0.06287862 -0.0023079813 0.022448767 -0.062437095
0.018464774 0.017263945 0.023654217 -0.092641234 -0.04511373 -0.022465197 0.07404886 0.02768224
0.10679555 -0.04959602 0.01566357 -0.041070007 0.040662155 -0.09555377 -0.14308503 -0.101473756
0.038012315 -0.055812057 -0.056233227 -0.106890514 0.0016695482 0.021745361 -0.0070701013 0.06518287
0.072091505 -0.0341757 -0.032872986 -0.043846954 0.075119674 0.026930088 0.008661991 -0.033501495
0.042313877 0.0695955 -0.081835434 -0.019641375 0.009686031 0.050973073 -0.001804874 -0.030031009
0.030864008 -0.121845186 -0.031718068 0.021440528 0.051842712 -0.092855595 -0.13437715 0.010495489
-0.027179496 0.018590124 0.042342376 -0.09914498 -0.009619474 0.101742536 -0.0022280645 0.09449914
-0.048151433 0.056530617 0.0062060277 0.10097909 0.070208885 0.07298432 0.0054742023 -0.058260523
0.014231458 -0.001614208 -0.03214982 0.022729443 0.095075175 -0.052468225 -0.117941886 0.037314903
-0.057677995 0.063967064 0.052204378 0.08117344 0.01972051 -0.07156882 -0.12607217 -0.029888427
0.013633697 -0.05931221 -0.07690693 -0.058335766 -0.1510044 -0.043126397 0.11377658 0.034318343
-0.105243295 -0.03284087 -0.055340756 0.009624716 -0.025070053 -0.055318907 0.0026870563 -0.117453255
0.030453973 0.09490647 0.06322312 0.0067566633 0.061531175 0.051347785 -0.10897394 0.010345223
-0.03578836 -0.091423884 0.0043661464 -0.10518324 -0.06702184 -0.041388877 -0.0042937337 -0.059892494
0.02392498 0.1344726 -0.04012772 0.12571144 -0.025338275 0.0073639206 -0.039349683 -0.012933873
-0.06549296 -0.010796008 -0.06506235 -0.030172035 0.015013361 -0.0980157 -0.045238245 0.018375196
-0.14717913 -0.029164646 -0.010359012 -0.12835813 0.023963919 0.04159866 -0.04375294 -0.051187616
-0.07390007 -0.116914086 0.085859984 -0.037154965 0.03956556 0.031959716 0.029077053 -0.0308774
-0.03656998 -0.017908502 -0.09436637 -0.0520093 -0.114759274 -0.072413415 -0.050599296 -0.096263744
0.018128984 0.009262393 -0.013014846 0.049827825 0.048147295 -0.1347996 0.0453548 0.06634009
-0.10883029 0.09037125 -0.021818897 -0.13396648 -0.101366796 0.056957178 -0.02146184 -0.023184335
-0.09499305 0.031628132 0.06909273 -0.03399756 0.04266935 0.065206766 -0.036458578 0.11620368
-0.025410207 0.10381751 0.073305115 0.058167346 0.0823958 0.012737426 -0.028984316 0.065497115
-0.019323308 0.00055218214 0.040940344 0.020522421 -0.14184017 0.02367635 -0.013177384 0.075437024
0.053162366 -0.04707376 -0.0036044738 -0.0019338194 0.10918923 0.01175596 -0.09328465 0.05850107
0.005355203 0.014383667 0.072976544 0.055381652 -0.05618413 0.035414893 0.0058569233 0.029074298
-0.0118655795 -0.04142252 0.0041769953 -0.049968943 -0.10048035 7.855236e-05 -0.04481639 -0.08585789
00000000: d735 173d 6135 653c 5199 88bd 264b 64bd
00000010: d0e6 9bbd 2355 12bc d214 bcbd a501 efbc
00000020: c731 403d 2df8 5a3c 66df 8e3b 15ca acbc
00000030: 7fbc e6bc be15 ccbd d298 d43d bb7c 06bd
00000040: d27e ab3d bb16 6c3b 2f86 52bc c692 bf3c
00000050: b376 14be 46da f5bb 7db8 513d d2e7 bebd
00000060: 6ab7 8ebc 345c 6e3a 7073 bfbc 5a28 a1bc
00000070: c1b7 84bc f6b6 2fbd 802d 823d 549e 7cbc
00000080: d45f 87bd 65e6 dfbd a241 7fbd 07eb db3d
00000090: 82c6 80bd 8041 17bb 7ae6 b73c 0abe 7fbd
000000a0: 7043 973c 1e6d 8d3c 7dc6 c13c b0ba bdbd
000000b0: 2dc9 38bd ef08 b8bc eea6 973d ddc5 e23c
000000c0: a0b7 da3d 3225 4bbd e350 803c 0639 28bd
000000d0: 5c8d 263d b2b1 c3bd e284 12be 79d1 cfbd
000000e0: cdb2 1b3d 2f9b 64bd d054 66bd 6ae9 dabd
000000f0: bed4 da3a 5423 b23c 4fac e7bb 997e 853d
00000100: b6a4 933d d2fb 0bbd d3a5 06bd dd98 33bd
00000110: 58d8 993d 7d9c dc3c 06eb 0d3c dd38 09bd
00000120: 5151 2d3d 1688 8e3d 5699 a7bd f3e6 a0bc
00000130: 29b2 1e3c 24c9 503d 8691 ecba 9703 f6bc
00000140: 84d6 fc3c f889 f9bd ceea 01bd 0ca4 af3c
00000150: 0659 543d 132b bebd 2a9a 09be 46f5 2b3c
00000160: 89a7 debc 514a 983c 336f 2d3d 860c cbbd
00000170: 009b 1dbc 645e d03d b804 12bb c488 c13d
00000180: 703a 45bd a68c 673d ef5b cb3b 20ce ce3d
00000190: adc9 8f3d ce78 953d f060 b33b 96a2 6ebd
000001a0: 102b 693c d593 d3ba 88af 03bd 1933 ba3c
000001b0: c6b6 c23d ece8 56bd 848b f1bd 83d7 183d
000001c0: c33f 6cbd 2a01 833d 42d4 553d 433e a63d
000001d0: e88c a13c ac92 92bd 1019 01be 93d8 f4bc
000001e0: df5f 5f3c 5cf1 72bd 6181 9dbd 7cf1 6ebd
000001f0: e6a0 1abe 4ea5 30bd b203 e93d 6491 0c3d
00000200: cc89 d7bd 2684 06bd fdac 62bd fcb0 1d3c
00000210: b65f cdbc 1496 62bd 5319 303b 558b f0bd
00000220: 9c7a f93c 535e c23d 207b 813d 0067 dd3b
00000230: 1d08 7c3d 0e52 523d bb2d dfbd 037f 293c
00000240: d196 12bd 723c bbbd e411 8f3b 4f6a d7bd
00000250: bf42 89bd 6287 29bd 73b2 8cbb d551 75bd
00000260: 52fe c33c 2fb3 093e f75c 24bd 80ba 003e
00000270: 3792 cfbc 0b4d f13b 222d 21bd 98e8 53bc
00000280: 2c21 86bd bde1 30bc 693f 85bd 582b f7bc
00000290: 9afa 753c 75bc c8bd bd4b 39bd 9487 963c
000002a0: 20b6 16be b2ea eebc d8b8 29bc 5070 03be
000002b0: fb4f c43c 5b63 2a3d 4836 33bd 1baa 51bd
000002c0: eb58 97bd a770 efbd 5cd7 af3d ce2f 18bd
000002d0: 7f0f 223d 31e8 023d 0033 ee3c 9af2 fcbc
000002e0: 67ca 15bd dab4 92bc 2843 c1bd b407 55bd
000002f0: e906 ebbd 7c4d 94bd 3541 4fbd ed25 c5bd
00000300: 3c83 943c 4bc1 173c 383c 55bc 4318 4c3d
00000310: 1936 453d e808 0abe f4c5 393d 50dd 873d
00000320: 6ae2 debd 9014 b93d 8bbd b2bc 822e 09be
00000330: 6599 cfbd ee4b 693d bed0 afbc 13ed bdbc
00000340: b78b c2bd 808c 013d 7d80 8d3d 0741 0bbd
00000350: 0ec6 2e3d 208b 853d 9755 15bd 32fc ed3d
00000360: 1129 d0bc 469e d43d fe20 963d e240 6e3d
00000370: 21bf a83d a3b0 503c 8470 edbc 5a23 863d
00000380: ea4b 9ebc 51c0 103a 10b1 273d a31e a83c
00000390: 8d3e 11be e8f4 c13c f4e5 57bc ba7e 9a3d
000003a0: c8c0 593d 6ad0 40bd 0939 6cbb 3678 fdba
000003b0: 9a9e df3d 129c 403c 060c bfbd d19e 6f3d
000003c0: b37a af3b 79a9 6b3c ba74 953d dfd7 623d
000003d0: 5521 66bd 350f 113d 6feb bf3b 392d ee3c
000003e0: d967 42bc a9aa 29bd 2ddf 883b 3cac 4cbd
000003f0: a4c8 cdbd 7abc a438 6491 37bd 43d6 afbd

layer1.bias f4 [256]
-0.0054777614 -0.007441467 -0.013182 -0.013340028 -0.0075892713 -0.0006031965 -0.010179906 -0.0009753694
-0.013269563 -0.013339377 -0.0024522562 -0.001980545 0.00816746 -0.0004801469 -0.0053806864 0.0017608256
-0.0059127314 0.0068312455 -0.0049667354 -0.009335039 -0.0022414322 -0.0016308395 -6.551008e-05 -0.006068969
0.0034102506 -0.0068141147 -0.0037449677 -0.011265561 0.0008150965 0.03829305 -0.006836282 0.00053548557
0.0010507419 -0.007566985 0.0045150733 0.019580273 -0.003027442 -0.00014018745 -0.009096474 0.0038147045
-0.0022722348 0.0023946536 0.022786407 0.0013478119 -0.00798518 0.006066127 -0.003867324 0.004051216
-0.0063993554 0.00094939966 0.0028444978 -0.0036152997 -0.0039639417 6.255367e-05 -0.0048527205 -0.0015490913
-0.0047892295 -0.006318804 0.00055813405 -0.00069832325 0.0050479043 -0.013310633 0.002926265 -0.0020708304
-0.003605358 -0.004640007 -0.0052563497 -0.0036838432 0.001803718 0.00075826066 0.0022355118 -0.00705448
-0.00045481866 0.000702723 -0.0025809645 0.0074659074 0.0021514383 0.00022574994 0.0053211907 -0.0016560341
-0.0072528883 0.0032395546 0.005649238 -0.002639849 -0.0055209887 -0.008590666 0.008934441 0.00013534052
0.0041322284 0.009579805 -0.0027387291 0.009781069 -0.009498652 -0.012085913 -0.010272663 0.0027494438
-0.013490603 -0.002054464 -0.0015484516 0.002264973 -0.011050014 0.0016943344 -0.013310889 -0.00084803614
-0.00082443096 -0.013199473 0.0022256554 -0.002773457 -0.013180969 0.07198065 0.0061229058 -0.0009081073
0.00016684824 0.004574765 -0.0015644401 0.0012318718 -0.0131331 -0.0015003908 -0.0051261093 -0.0037216316
0.004505805 -0.011998985 0.0052508377 0.024457486 0.0009845439 -0.0018716073 0.0072926087 -0.0075604715
0.00929499 -0.0032370263 -0.0001179678 0.0031966139 0.0025926193 0.009835818 -0.01259683 0.0049179783
0.0025792236 -0.01355442 -0.001176302 -0.0031048497 0.0014073653 -0.0032034712 0.0011004857 0.0015261743
-0.004155476 -0.0020273195 -0.004560207 -0.0014362375 -0.0024700172 -0.0035213078 -0.0027105878 0.0023301896
-0.0038401263 0.0030921714 0.0003674124 -0.013254892 0.0068569 -0.002560617 -0.002799053 0.0041594333
-0.0030542898 0.0065244697 -0.0097698225 -0.003250198 -0.0027320464 0.0064102877 -0.004190444 0.0038655878
-0.013087011 -0.013234378 0.004845912 -0.0033079856 0.0008299063 0.00598168 0.00019188308 -0.003083718
0.0016612649 -0.002544225 -0.00423318 0.003611591 0.007645213 0.006105498 -0.0038120807 -0.00096467015
-0.0005110878 -0.0132087935 0.0017991249 0.00021927216 -0.013430257 -0.0048956093 -0.0007603953 -0.003150564
-0.0035657855 0.0074778865 -0.0063155703 -0.009641921 -0.0050641536 -0.00587603 -0.0021130324 -0.009386039
-0.0012682365 -0.013120409 0.0057769585 -0.0074663563 0.0016538348 -0.003895892 -0.005614762 -0.005666798
-0.0022695211 0.0061705024 0.0065471577 0.0005766233 0.016753951 -0.0019446829 0.0083320895 0.005262005
0.0046305354 -0.00029099392 0.004006603 -0.0066776793 0.0044202656 -0.0034721154 -0.0006073516 -0.0025223787
0.00053126155 0.0019484286 -0.0065251235 0.0059091933 0.00036533686 0.0017225714 -0.0060273428 -0.0059971213
-0.0066197673 0.00032233636 -0.005417646 0.0011849325 0.008363935 -0.0033179426 -0.002728751 0.0007988486
-0.013497285 0.011873428 -0.00063422683 0.008609092 -0.0005326749 0.0002515257 -0.0014529361 -0.0088790925
-0.0018403714 0.0039458806 0.0041737948 0.008381863 -0.010010003 -0.0013501686 -0.0064632236 -0.0011113461
00000000: cb7e b3bb 8dd7 f3bb 51f9 57bc 2290 5abc
00000010: 6caf f8bb d51f 1eba 9fc9 26bc efaf 7fba
00000020: 9568 59bc 678d 5abc 08b6 20bb 08cc 01bb
00000030: cfd0 053c 3abc fbb9 7850 b0bb 81cb e63a
00000040: 96bf c1bb a4d8 df3b ffbf a2bb fef1 18bc
00000050: fee4 12bb e5c1 d5ba 7562 89b8 34de c6bb
00000060: 837e 5f3b f048 dfbb 226e 75bb 3093 38bc
00000070: 33ac 553a 2cd9 1c3d e402 e0bb d45f 0c3a
00000080: 0cb9 893a 79f4 f7bb 2ef3 933b cf66 a03c
00000090: 0c68 46bb 48ff 12b9 6109 15bc 1f00 7a3b
000000a0: c6e9 14bb 9fef 1c3b 8faa ba3c 10a9 b03a
000000b0: 46d4 02bc 5dc6 c63b ee72 7dbb 10c0 843b
000000c0: afb1 d1bb 22e1 783a c16a 3a3b aaee 6cbb
000000d0: f4e3 81bb 3f2f 8338 9203 9fbb e10a cbba
000000e0: f8ee 9cbb f80d cfbb be4f 123a ae0f 37ba
000000f0: e468 a53b d714 5abc 94c6 3f3b c5b6 07bb
00000100: df47 6cbb 330b 98bb 753d acbb a26c 71bb
00000110: bc6a ec3a 03c6 463a aa81 123b 4429 e7bb
00000120: ba74 eeb9 f136 383a 6625 29bb 92a4 f43b
00000130: 25ff 0c3b 4ab7 6c39 625d ae3b 490f d9ba
00000140: a3a9 edbb b54e 543b 3e1d b93b 5101 2dbb
00000150: 69e9 b4bb ddbf 0cbc c361 123c 32ea 0d39
00000160: a567 873b 9df4 1c3c 407c 33bb c740 203c
00000170: 3ca0 1bbc fe03 46bc ac4e 28bc 0330 343b
00000180: b107 5dbc 30a4 06bb 6af5 caba f16f 143b
00000190: 1e0b 35bc 6e14 de3a ea15 5abc be4e 5eba
000001a0: a01e 58ba 9a42 58bc 4ddc 113b e3c2 35bb
000001b0: fef4 57bc 976a 933d a8a2 c83b 0d0e 6eba
000001c0: fcf3 2e39 e9e7 953b e60d cdba c276 a13a
000001d0: 372c 57bc c3a8 c4ba ecf8 a7bb 9ee6 73bb
000001e0: 6fa5 933b 6497 44bc 380f ac3b 115b c83c
000001f0: d00b 813a b850 f5ba d6f6 ee3b d5bd f7bb
00000200: 044a 183c 4a24 54bb 7b65 f7b8 487e 513b
00000210: efe8 293b 6926 213c ef62 4ebc fe26 a13b
00000220: 3108 293b 5c13 5ebc 252e 9aba bc7a 4bbb
00000230: 5877 b83a 54f1 51bb 2c3e 903a e909 c83a
00000240: a92a 88bb c7dc 04bb ca6d 95bb 2240 bcba
00000250: 03e0 21bb bec5 66bb 1ea4 31bb 18b6 183b
00000260: a1aa 7bbb 07a6 4a3b 42a1 c039 0c2b 59bc
00000270: d9af e03b 06d0 27bb 5170 37bb db4b 883b
00000280: 7b2a 48bb 38cb d53b 9b11 20bc 4601 55bb
00000290: 220c 33bb 640d d23b fe4f 89bb cd55 7d3b
000002a0: e76a 56bc 01d5 58bc 75ca 9e3b caca 58bb
000002b0: 128e 593a f801 c43b 3934 4939 3418 4abb
000002c0: cdbe d93a 03bd 26bb 7db6 8abb 71b0 6c3b
000002d0: b284 fa3b a110 c83b 1ad4 79bb ebe1 7cba
000002e0: 86fa 05ba b269 58bc 9dd0 eb3a 6cec 6539
000002f0: 950a 5cbc 596b a0bb 4455 47ba b179 4ebb
00000300: f4af 69bb 0f09 f53b d8f2 cebb 26f9 1dbc
00000310: 33f1 a5bb b68b c0bb cd7a 0abb e7c7 19bc
00000320: f53a a6ba fcf6 56bc a44c bd3b 56a8 f4bb
00000330: 7dc5 d83a 3952 7fbb 0afc b7bb 8cb0 b9bb
00000340: 3fbc 14bb ed31 ca3b 8a89 d63b 8928 173a
00000350: 953f 893c bbe4 feba 5183 083c e66c ac3b
00000360: bfbb 973b 8b90 98b9 d249 833b 6fd0 dabb
00000370: e0d7 903b 6e8c 63bb ad36 1fba 7e4e 25bb
00000380: 5c44 0b3a 6a62 ff3a b4d0 d5bb e8a1 c13b
00000390: af8a bf39 e8c7 e13a 0481 c5bb 8083 c4bb
000003a0: a2ea d8bb 41ff a839 8286 b1bb bd4f 9b3a
000003b0: e308 093c d771 59bb d8d4 32bb d269 513a
000003c0: b723 5dbc c488 423c 3e42 26ba 260d 0d3c
000003d0: 35a3 0bba 35df 8339 7270 beba 9d79 11bc
000003e0: 9e38 f1ba 724c 813b 54c4 883b 1554 093c
000003f0: ff00 24bc 24f8 b0ba 73c9 d3bb 96aa 91ba

layer2.weight f4 [256, 256]
0.020256707 0.00032056947 0.045306638 -0.019692514 -0.04118672 -0.0034654352 0.00256006 0.00022029843
-0.055971272 -0.008055188 -0.0766565 0.061680388 0.025705338 0.120626986 -0.12873827 0.057110213
-0.0034899202 -0.17866325 0.06543525 -0.057855334 -0.047976203 0.008993128 -0.10142021 -0.021066135
-0.025534453 -0.0713563 -0.09821409 0.057118542 0.09671366 0.041736614 -0.053021595 0.005836503
0.110893086 -0.002935846 0.023338677 0.095670685 0.048000447 -0.025095869 0.05651219 -0.07781603
-0.06347829 -0.010478651 0.050873563 -0.12077163 -0.047360476 -0.10009194 -0.025007129 0.02901911
0.002388831 0.14345244 -0.06760063 0.054798882 -0.010516565 -0.12207099 0.017701715 -0.05527592
0.08181039 -0.008543388 0.0010451578 -0.14391147 -0.016040117 -0.016794289 0.029002776 0.102047995
0.10269367 -0.10378428 -0.059092283 -0.11157868 -0.08913124 -0.04278076 -0.08629345 0.027709616
0.017597798 0.020732887 -0.038952965 0.0698338 -0.015931074 0.043811012 -0.020534756 -0.0151873585
0.08991691 0.091831885 0.057799716 0.013925978 0.0051962114 0.023286197 0.02515915 -0.046281993
0.03795294 0.007841339 0.05586365 -0.057547994 -0.049636804 0.042078517 -0.0002349811 -0.03566411
0.051171206 0.004169143 0.101185836 0.001378591 -0.0014420116 -0.033621106 0.023745004 0.0019251534
-0.1006062 0.08926851 -0.056941815 -0.04594937 -0.10294916 -0.059136607 0.04112867 -0.007214048
0.09006001 -0.05090825 -0.10831295 0.110775985 0.0070211464 -0.043453984 -0.0407061 0.03848067
-0.09355651 0.08166224 -0.09374336 0.0057256124 0.09921945 0.066608034 -0.027559614 0.098119676
0.0077517796 -0.05381617 -0.031186543 -0.07251134 0.08298645 0.053721312 0.10705334 -0.044908486
-0.07141367 0.03965922 0.002348101 -0.0622646 -0.023580596 -0.055135857 0.04399288 -0.09626045
0.055383235 0.015198228 0.029269671 -0.06282507 0.028207174 -0.025314562 -0.048269164 0.052726768
0.021536758 -0.035855204 0.08289155 0.14788519 0.019749528 -0.026269732 -0.045291837 0.012598766
0.049153473 -0.07011191 -0.074204415 0.0028456997 0.009222197 -0.09179532 -0.06888102 -0.031244872
-0.057900585 0.06525062 0.015870567 -0.09762825 0.10460399 -0.011438848 -0.06357304 -0.048444916
0.033623386 0.05630228 -0.047474954 0.034576293 -0.055807777 0.07877755 0.01612296 0.03972372
-0.07306374 0.012203388 -0.0098801665 0.079971395 -0.06597484 0.06872246 0.0046133283 0.020810092
0.020747464 0.028682714 -0.024808913 -0.04352865 -0.10464727 0.009810799 -0.020493567 -0.039521236
0.08509166 -0.019031016 -0.040961396 -0.03671328 -0.044947464 -0.09104235 -0.17368844 -0.02052276
-0.0072048465 -0.00037364563 0.041480646 0.07504518 -0.12823254 0.050462805 0.019271756 0.02223725
-0.06900738 -0.0441408 -0.059247896 0.014251074 0.010496381 -0.011226615 -0.13234912 -0.06130723
0.06374758 -0.032180224 -0.08024318 0.046455648 0.04613113 -0.07155386 0.07257466 -0.0065356656
-0.14462751 -0.055938777 -0.07762603 0.02042055 0.12189249 0.096168876 0.035648752 -0.12214845
0.023630958 -0.03969699 -0.045489162 -0.09688037 -0.008737608 0.0025288016 -0.039868426 -0.010433197
-0.020528527 -0.041616555 -0.047984026 0.0333022 0.03115961 -0.004556221 0.01531156 -0.0009855393
00000000: 65f1 a53c 1b12 a839 7493 393d 3252 a1bc
00000010: 68b3 28bd 5b1c 63bb aec6 273b e9ff 6639
00000020: 2242 65bd e8f9 03bc 15fe 9cbd 93a4 7c3d
00000030: 0094 d23c 480b f73d f7d3 03be 66ec 693d
00000040: 25b7 64bb 80f3 36be eb02 863d b7f9 6cbd
00000050: b282 44bd ea57 133c 66b5 cfbd e392 acbc
00000060: a12d d1bc 4023 92bd 7824 c9bd 22f5 693d
00000070: d011 c63d 03f4 2a3d 2c2d 59bd 2340 bf3b
00000080: ea1b e33d 5367 40bb c130 bf3c feee c33d
00000090: 1e9c 443d da95 cdbc 5379 673d 035e 9fbd
000000a0: e800 82bd a6ae 2bbc cc60 503d 1e57 f7bd
000000b0: 0ffd 41bd 01fd ccbd c0db ccbc 7cb9 ed3c
000000c0: ef8d 1c3b 32e5 123e 3372 8abd cb74 603d
000000d0: ac4d 2cbc 5b00 fabd 3003 913c 0169 62bd
000000e0: 358c a73d 91f9 0bbc adfd 883a 875d 13be
000000f0: 9066 83bc 2d94 89bc 3b97 ed3c 8afe d03d
00000100: 0f51 d23d da8c d4bd c00a 72bd 5d83 e4bd
00000110: 718a b6bd e13a 2fbd 9fba b0bd 47ff e23c
00000120: 4229 903c 04d8 a93c 258d 1fbd 0605 8f3d
00000130: e281 82bc 2d73 333d 8138 a8bc 66d4 78bc
00000140: 5b26 b83d 5b12 bc3d 65bf 6c3d c929 643c
00000150: fb44 aa3b b2c2 be3c 901a ce3c 3092 3dbd
00000160: 8b74 1b3d f678 003c 48d1 643d 72b7 6bbd
00000170: f64f 4bbd 865a 2c3d 4265 76b9 8814 12bd
00000180: e698 513d 4e9d 883b 853a cf3d d7b1 b43a
00000190: e101 bdba 49b6 09bd e284 c23c 6e55 fc3a
000001a0: a00a cebd 69d2 b63d d23b 69bd 6835 3cbd
000001b0: 02d7 d2bd 3a39 72bd 8976 283d d263 ecbb
000001c0: 6271 b83d 2b85 50bd 2ed3 ddbd 85de e23d
000001d0: a511 e63b cefc 31bd 71bb 26bd e89d 1d3d
000001e0: 8e9a bfbd 883e a73d 85fc bfbd eb9d bb3b
000001f0: 9133 cb3d cb69 883d b3c4 e1bc f8f2 c83d
00000200: a402 fe3b 586e 5cbd ec7a ffbc d380 94bd
00000210: cdf4 a93d e10a 5c3d c83e db3d f6f1 37bd
00000220: 5541 92bd b571 223d 99e2 193b 2a09 7fbd
00000230: 182c c1bc 23d6 61bd e131 343d 3324 c5bd
00000240: 88d9 623d fd01 793c f3c6 ef3c 6eaa 80bd
00000250: bb12 e73c 7c60 cfbc e3b5 45bd 06f8 573d
00000260: db6d b03c e8dc 12bd 0cc3 a93d 376f 173e
00000270: c3c9 a13c 9f33 d7bc ef83 39bd 0e6b 4e3c
00000280: 2755 493d d596 8fbd 7cf8 97bd eb7e 3a3b
00000290: b318 173c 2fff bbbd 7e11 8dbd 3ff5 ffbc
000002a0: 2a29 6dbd 1ea2 853d fe02 823c 52f1 c7bd
000002b0: 9e3a d63d 026a 3bbc 9532 82bd 2d6e 46bd
000002c0: adb8 093d 389d 663d 1975 42bd df9f 0d3d
000002d0: b296 64bd 2056 a13d 4c14 843c 57b5 223d
000002e0: 71a2 95bd b8f0 473c 6ce0 21bc 0bc8 a33d
000002f0: d11d 87bd 5cbe 8c3d 672b 973b ed79 aa3c
00000300: 96f6 a93c 03f8 ea3c 103c cbbc 194b 32bd
00000310: 4f51 d6bd 79bd 203c 20e2 a7bc 05e1 21bd
00000320: 8944 ae3d efe6 9bbc 23c7 27bd aa60 16bd
00000330: d51a 38bd 6974 babd 62db 31be 591f a8bc
00000340: a216 ecbb dee5 c3b9 9ce7 293d 4ab1 993d
00000350: 644f 03be 16b2 4e3d cddf 9d3c e52a b63c
00000360: be53 8dbd fccc 34bd ecad 72bd 567d 693c
00000370: 03f9 2b3c d6ef 37bc 8786 07be 4a1d 7bbd
00000380: 178e 823d 69cf 03bd 8956 a4bd 4748 3e3d
00000390: fff3 3c3d d58a 92bd 06a2 943d 2329 d6bb
000003a0: 3c19 14be 0f20 65bd 65fa 9ebd ff48 a73c
000003b0: c5a2 f93d 30f4 c43d 6d04 123d f728 fabd
000003c0: b695 c13c 5099 22bd d852 3abd 3769 c6bd
000003d0: 2f28 0fbc 40ba 253b 134d 23bd 00f0 2abc
000003e0: 712b a8bc 1f76 2abd e68a 44bd e367 083d
000003f0: 7042 ff3c 5a4c 95bb 56dd 7a3c 362d 81ba

layer2.bias f4 [256]
-0.0018773879 0.00080947526 -0.001580983 -0.005930998 0.0073741702 0.018913412 -0.002916031 -0.0038301935
0.0008932089 -0.0010506694 -0.0031950437 0.0012029618 -0.0015096457 -2.6573975e-05 0.0017886006 0.007969863
-0.0015419762 -0.0016376771 -0.0026829033 -0.0042821234 -0.0050596036 0.007445039 -0.0033480101 -0.0016241502
0.015018717 0.06614968 -0.0025788965 -0.0016622986 0.002698141 -0.003913827 0.015307787 0.0003714446
0.0046270667 -0.0010409435 -0.00071528816 0.0025213647 0.003912395 -0.00032650869 0.0005380024 0.0040835515
-0.0024325862 -0.0022440604 0.001036653 -0.0016540604 -0.00071367534 0.003069052 -0.0005199703 -0.0017534816
0.0033797056 -0.0030589364 -0.0045550196 -0.003924104 0.0028412018 -0.0020603107 0.0057094125 0.0016410032
-0.0008697139 -0.0004336388 -0.0015536707 0.0025718864 -0.005576197 -0.00057556306 -0.0035057394 -0.004803602
0.008887523 -0.0016908303 -0.004265432 0.00038398878 -0.0029110683 0.0014976166 0.0016580067 0.005891058
-0.00023833968 0.004138624 -0.0026460353 -0.005228465 0.009816217 -0.00317189 -0.0009729157 0.0058971923
-0.00069530297 0.0015556884 0.0024382763 -0.0015657343 -0.00055183953 -0.002208858 -0.00041842763 -0.0018578827
-0.0034589893 -0.0077020857 0.0019900082 0.0017585418 0.012056337 -0.00018331922 0.0068975296 -0.0017446323
-0.00103324 -0.0017282388 -0.0047704293 -0.00035408727 0.0068479893 -0.0052774874 -0.001274184 -0.004060188
0.00086579466 -0.0057801963 0.0010919828 -0.0013476878 -0.0050130016 0.00035834406 -0.006723354 0.0024283226
0.0011800408 -0.00180441 -0.0026275986 -0.0026136967 -0.00152427 0.002261268 0.005092057 -0.0029881736
-0.0033044075 -0.002572764 -0.0016239947 0.005823434 -0.0033282454 -0.008814318 -0.0014064783 -0.0051292833
-0.00040263127 -0.0011640821 -0.0034997996 -0.00080570736 -0.0018762347 -0.00050574285 -0.0006844131 -0.0011998718
-0.004534101 0.0026257306 -0.0011817319 -0.0034405529 -0.002977073 0.0015829888 -0.0016411636 0.00082060695
-0.0016013468 -0.0015567167 -0.0027748614 -0.006590879 0.002288169 0.004212485 -0.00013872396 -4.880265e-05
0.0037256514 -0.0014145109 -0.0016213468 -0.0061203665 0.0015362533 0.00298729 0.013621405 0.003973325
0.011211025 -0.0033174052 0.009334354 -0.0015982294 0.011850652 -0.0065071625 -0.0053409883 -0.0031179013
-0.001186445 0.0035361687 0.0022991474 0.00296026 -0.005463263 -0.0014531483 0.0042740903 -0.0017622835
-0.0032716568 0.013879577 -0.0010159225 -0.00093347486 0.00046412917 -0.002325125 0.024084348 -0.0023153278
-0.0016038425 -0.007570002 -0.0015016412 -0.0015632621 0.0026494064 0.0024092372 -0.0041693645 -0.00018188737
-0.0016817112 -0.00014799747 -0.0057727955 0.0016050007 0.04013634 -0.0028881242 -0.0014764962 0.009798014
-0.00043649843 -0.0021827077 -0.0040043 0.0012117574 -0.0027959505 -0.0009689113 0.009542539 -0.00038832452
0.0021312041 -0.003545123 -0.0015568376 0.001826482 0.00354157 0.0038807644 -0.0008831309 0.0025373355
-0.0035528373 0.02240895 -0.0009270192 -0.0016375849 -0.0017540794 -0.0017074 -0.0016585928 0.005230081
0.0029730897 -0.00422456 -0.0072766705 0.0036049564 -0.004463555 0.007318786 0.0014158553 -0.00013286722
0.0018829366 0.004786442 -0.0038880052 0.056443524 0.006922741 -0.0005656921 -0.0016181495 -0.003512524
-0.0020024902 -0.0038941074 0.0003813851 0.009186441 0.00062925793 0.0015579523 -0.0015465756 -0.0009170398
-0.0016292947 0.0014606596 -0.0034546664 -0.0023946245 -0.0016155682 0.0021889755 0.0029626158 0.0073125428
00000000: af12 f6ba f732 543a fd38 cfba d158 c2bb
00000010: 06a3 f13b 4df0 9a3c e21a 3fbb fc03 7bbb
00000020: 3c26 6a3a 9db6 89ba f063 51bb b3ac 9d3a
00000030: 4edf c5ba 2deb deb7 7a6f ea3a 0794 023c
00000040: 231c caba 53a7 d6ba a6d3 2fbb 0e51 8cbb
00000050: 08cb a5bb 84f5 f33b 4a6a 5bbb 70e1 d4ba
00000060: 1111 763c 7c79 873d b402 29bb 7ce1 d9ba
00000070: 4bd3 303b 8f3f 80bb 83cd 7a3c 73be c239
00000080: a69e 973b 4570 88ba 2d82 3bba 7b3d 253b
00000090: 8c33 803b 412f abb9 bb08 0d3a 50cf 853b
000000a0: 066c 1fbb 1611 13bb 4de0 873a 0fcd d8ba
000000b0: f115 3bba 2622 493b 9e4e 08ba 14d5 e5ba
000000c0: 0d7e 5d3b 7078 48bb 4642 95bb c595 80bb
000000d0: 7533 3a3b 4706 07bb 0616 bb3b ee16 d73a
000000e0: 83fd 63ba 045a e3b9 8aa4 cbba 188d 283b
000000f0: 88b8 b6bb 62e1 16ba 8cc0 65bb 8967 9dbb
00000100: f99c 113c da9e ddba 09c5 8bbb 1a52 c939
00000110: 9fc7 3ebb ad4b c43a 7951 d93a c709 c13b
00000120: d2ea 79b9 4b9d 873b 1b69 2dbb 8b53 abbb
00000130: 33d4 203c 7cdf 4fbb 440b 7fba 3c3d c13b
00000140: fe44 36ba 3ee8 cb3a 7dcb 1f3b 5339 cdba
00000150: 53a9 10ba 7dc2 10bb 6860 dbb9 3384 f3ba
00000160: 36b0 62bb c761 fcbb cc6a 023b df7e e63a
00000170: f187 453c 6139 40b9 ac04 e23b 25ac e4ba
00000180: c86d 87ba 1286 e2ba 4351 9cbb caa4 b9b9
00000190: 1965 e03b c6ee acbb 8502 a7ba 530b 85bb
000001a0: 7ff6 623a cd67 bdbb dd20 8f3a e6a4 b0ba
000001b0: 1b44 a4bb 20e0 bb39 954f dcbb 7e24 1f3b
000001c0: 99ab 9a3a f481 ecba ca33 2cbb 8e4a 2bbb
000001d0: 04ca c7ba c831 143b 45db a63b 3cd5 43bb
000001e0: c28e 58bb d19b 28bb 38dc d4ba 81d2 be3b
000001f0: b11e 5abb ee69 10bc 9559 b8ba 8c13 a8bb
00000200: 4118 d3b9 1d94 98ba e55c 65bb 1b36 53ba
00000210: fdeb f5ba d493 04ba 306a 33ba 0445 9dba
00000220: cc92 94bb 7314 2c3b 58e4 9aba e67a 61bb
00000230: ff1a 43bb 4a7c cf3a 501c d7ba 001e 573a
00000240: 48e4 d1ba bf0a ccba 73da 35bb 4df8 d7bb
00000250: 1bf5 153b e308 8a3b 6e76 11b9 72b1 4cb8
00000260: 0f2a 743b 1c67 b9ba 5f83 d4ba 5b8d c8bb
00000270: 1b5c c93a 69c6 433b 502c 5f3c aa32 823b
00000280: 72ae 373c d368 59bb 1eef 183c ae7b d1ba
00000290: 3d29 423c 093a d5bb 7503 afbb b455 4cbb
000002a0: 7d82 9bba 11bf 673b 4bad 163b ec00 423b
000002b0: 2c05 b3bb 9177 beba ab0d 8c3b 6cfc e6ba
000002c0: 4b69 56bb 2a67 633c b428 85ba 70b4 74ba
000002d0: 5d56 f339 2061 18bb 8a4c c53c c1bc 17bb
000002e0: 0638 d2ba c80d f8bb b8d2 c4ba 5fe6 ccba
000002f0: aaa1 2d3b 4be4 1d3b 2a9f 88bb 05b9 3eb9
00000300: dd6c dcba c52f 1bb9 b829 bdbb e35e d23a
00000310: 0166 243d af46 3dbb fe86 c1ba d987 203c
00000320: d4d9 e4b9 c20b 0fbb 8136 83bb d5d3 9e3a
00000330: 443c 37bb 89fe 7dba 4f58 1c3c 0998 cbb9
00000340: acab 0b3b 4b55 68bb cd0e ccba 9166 ef3a
00000350: af19 683b 6c54 7e3b e981 67ba 6d49 263b
00000360: b8d6 68bb f992 b73c 3503 73ba 3ba4 d6ba
00000370: 23e9 e5ba d6ca dfba 2465 d9ba 1961 ab3b
00000380: 2bd8 423b 2e6e 8abb 2371 eebb 2241 6c3b
00000390: 0343 92bb 6dd2 ef3b 3894 b93a 4652 0bb9
000003a0: decc f63a 96d7 9c3b e7cd 7ebb 5331 673d
000003b0: 29d8 e23b f44a 14ba 1618 d4ba 6032 66bb
000003c0: 363c 03bb 4834 7fbb a4f4 c739 ba82 163c
000003d0: c9f4 243a 3434 cc3a 77b6 caba 8065 70ba
000003e0: 0f8e d5ba 9a73 bf3a af67 62bb 22ef 1cbb
000003f0: 79c1 d3ba ea74 0f3b 7228 423b 0e9e ef3b

layer3.weight f4 [128, 256]
-0.036649585 -0.041271064 0.029709853 0.07938514 0.021813342 -0.00080767175 0.12351058 0.015402499
-0.031054348 -0.042044614 -0.15445141 -0.054993317 -0.108069055 0.02453661 -0.041547555 0.08191874
-0.07810473 0.06682514 -0.041291114 -0.02053656 0.11083623 -0.08507443 0.020839736 -0.0104963
-0.016117776 -0.046030294 -0.02376668 0.07980496 0.05969808 -0.019947711 0.112827085 0.09281014
0.098958984 -0.010916914 0.12438341 -0.004170655 0.028989373 0.016760983 -0.0730691 -0.020875812
-0.0326739 -0.046282984 -0.040595237 -0.064960785 0.038523868 -0.08539382 0.020501036 -0.05909161
-0.002051656 -0.06665669 -0.08708422 -0.016255805 -0.059971 -0.03428971 -0.024740487 -0.092245914
-0.03559069 -0.05690448 -0.029615985 -0.025954055 -0.073693946 -0.038874514 -0.13007599 -0.04681996
-0.0053219944 0.10214387 0.033079296 -0.024192298 0.0077224094 0.023527328 -0.0022402473 0.03918556
-0.12624358 0.01341199 0.0054127173 0.020198854 -0.0044425237 -0.021999825 -0.029877255 0.07911197
0.06907592 -0.057630386 -0.0046533276 -0.066940345 -0.06025987 -0.13657239 -0.024242232 -0.028260032
-0.09458267 0.04828863 -0.037620485 0.0080335345 -0.14619137 -0.02713916 -0.04767018 -0.07264178
-0.03228465 -0.046269704 0.08612659 0.0084959995 0.010937921 -0.114324756 0.018236523 0.094646476
-0.11269842 -0.008475796 -0.0081571555 -0.046911325 0.053364452 -0.011364266 -0.053391535 -0.06616839
-0.0016335519 -0.07850687 -0.05916268 0.09492213 -0.037026558 -0.034929663 0.064439684 0.0067877835
-0.0049336646 -0.04287675 -0.03612381 0.12039033 -0.03133623 0.100309424 -0.001100299 0.07521102
0.009932295 0.025511313 -0.0028736594 -0.0831453 0.10057737 0.053978354 0.052852932 0.043497104
-0.029779227 -0.024315862 -0.1158632 0.045314826 -0.17325836 -0.019173924 -0.032403495 0.026516397
-0.116426826 0.023094576 0.0349009 -0.0009485359 0.022849161 0.029695524 0.014518844 -0.007234767
0.06923217 -0.01450838 -0.0070363777 -0.029601468 0.054469638 -0.051922385 0.028734688 -0.032641023
0.09864766 -0.04729028 -0.029562777 0.04094069 0.03236895 -0.085711926 0.06288949 -0.056593865
0.011335014 0.13329308 -0.039748874 0.009927386 0.094194986 -0.14350407 0.089775175 -0.006919819
0.095765054 0.00987685 0.04586128 0.006568729 0.0013356009 0.04681156 -0.080078445 -0.040153645
-0.010540763 -0.0053681144 -0.026783383 -0.02266343 -0.03984407 0.047618333 -0.02473684 -0.042762794
0.017038038 0.09645594 0.051914424 -0.09114579 -0.025280315 0.021802042 0.035177853 -0.0098794475
-0.01647525 -0.071574226 -0.007725006 -0.079335146 0.027951015 0.1746989 0.10343952 0.063974805
0.015123461 0.03950547 0.06557726 -0.09070819 -0.025571404 0.14031759 -0.021696424 0.05960784
-0.055422094 -0.0018602152 -0.02835556 -0.14145668 -0.020558873 0.007757672 -0.1066121 0.08193183
0.09114158 -0.012359693 0.0059857173 0.045243222 0.027763493 0.020382546 0.006721546 -0.077937156
-0.013438776 -0.03593545 -0.031175291 0.051528025 -0.02915943 0.0050605736 -0.04193564 -0.05085119
0.032456357 0.06947468 -0.07998128 0.006325413 0.08485471 0.07218463 -0.017663911 -0.09645879
0.031004105 0.037696045 -0.115025185 -0.16269992 -0.10722972 0.043262143 0.084544495 0.02822294
00000000: e01d 16bd d90b 29bd 1462 f33c ad94 a23d
00000010: e5b1 b23c efb9 53ba 1df3 fc3d c35a 7c3c
00000020: b065 febc f936 2cbd 8328 1ebe ac40 61bd
00000030: 4f53 ddbd 0001 c93c c52d 2abd 03c5 a73d
00000040: 5ff5 9fbd 9edb 883d df20 29bd 4a3c a8bc
00000050: 1bfe e23d 813b aebd 18b8 aa3c acf8 2bbc
00000060: 6d09 84bc 438a 3cbd 57b2 c2bc c870 a33d
00000070: f985 743d 6269 a3bc e311 e73d 3e13 be3d
00000080: 02ab ca3d dbdc 32bc bbbc fe3d fda9 88bb
00000090: 1f7b ed3c 544e 893c 41a5 95bd c003 abbc
000000a0: 11d5 05bd 3a93 3dbd 3147 26bd 290a 85bd
000000b0: 34cb 1d3d f5e2 aebd caf1 a73c 0b0a 72bd
000000c0: 1375 06bb 4d83 88bd 3659 b2bd e52a 85bc
000000d0: 27a4 75bd 5e73 0cbd 90ac cabc 6deb bcbd
000000e0: 8bc7 11bd ac14 69bd 399d f2bc 999d d4bc
000000f0: daec 96bd e23a 1fbd a432 05be 49c6 3fbd
00000100: 2064 aebb ce30 d13d 287e 073d ed2e c6bc
00000110: 440c fd3b 62bc c03c 1dd1 12bb 0a81 203d
00000120: ff45 01be f7bd 5b3c 2a5d b13b 1178 a53c
00000130: 9792 91bb fa38 b4bc 25c1 f4bc 7505 a23d
00000140: ad77 8d3d d70d 6cbd f17a 98bb 0518 89bd
00000150: 0ed3 76bd a2d9 0bbe a597 c6bc 9581 e7bc
00000160: 8fb4 c1bd 4cca 453d f017 1abd 169f 033c
00000170: 31b3 15be f252 debc cf41 43bd 37c5 94bd
00000180: e93c 04bd 4d85 3dbd 2363 b03d ce32 0b3c
00000190: f734 333c 1923 eabd c364 953c 03d6 c13d
000001a0: 6ece e6bd 11de 0abc 97a5 05bc 1726 40bd
000001b0: af94 5a3d 3031 3abc 15b1 5abd 4b83 87bd
000001c0: e81c d6ba 36c8 a0bd 9154 72bd 8966 c23d
000001d0: 29a9 17bd 6812 0fbd f4f8 833d 0e6c de3b
000001e0: 94aa a1bb 889f 2fbd 8ff6 13bd 358f f63d
000001f0: 6b5a 00bd 076f cd3d e837 90ba 3c08 9a3d
00000200: 11bb 223c 1afd d03c 0154 3cbb 1548 aabd
00000210: 82fb cd3d 6818 5d3d 517c 583d 052a 323d
00000220: 91f3 f3bc 0f32 c7bc af49 edbd 0a9c 393d
00000230: a46a 31be a212 9dbc 87b9 04bd ea38 d93c
00000240: 3071 eebd d630 bd3c 3ff4 0e3d 2ba7 78ba
00000250: 2a2e bb3c 0744 f33c 72e0 6d3c a011 edbb
00000260: 99c9 8d3d 8eb4 6dbc 6a91 e6bb c77e f2bc
00000270: 8e1b 5f3d 91ac 54bd 0265 eb3c 98b2 05bd
00000280: c907 ca3d 74b3 41bd a32d f2bc 6db1 273d
00000290: 4e95 043d bc89 afbd 34cc 803d f8ce 67bd
000002a0: 7fb6 393c fb7d 083e b7cf 22bd 7aa6 223c
000002b0: 4de9 c03d bbf2 12be 0cdc b73d a6bf e2bb
000002c0: 7820 c43d 83d2 213c 0ad9 3b3d 7e3e d73b
000002d0: 540f af3a 7abd 3f3d 2b00 a4bd 2678 24bd
000002e0: 2ab3 2cbc 02e7 afbb d368 dbbc a8a8 b9bc
000002f0: 8933 23bd 710b 433d eaa4 cabc 0a28 2fbd
00000300: 5b93 8b3c b18a c53d 38a4 543d a5aa babd
00000310: aa18 cfbc 329a b23c a716 103d 68dd 21bc
00000320: 1af7 86bc 8295 92bd 0c22 fdbb 777a a2bd
00000330: 87f9 e43c 45e4 323e 19d8 d33d 3905 833d
00000340: 65c8 773c 7dd0 213d 5f4d 863d 37c5 b9bd
00000350: 1f7b d1bc 6aaf 0f3e b3bc b1bc 5a27 743d
00000360: 4702 63bd 77d2 f3ba eb49 e8bc 05da 10be
00000370: 156b a8bc 1234 fe3b 7257 dabd e0cb a73d
00000380: 70a8 ba3d 4f80 4abc d623 c43b f550 393d
00000390: 4470 e33c 4cf9 a63c 6a40 dc3b 849d 9fbd
000003a0: 502e 5cbc 0d31 13bd 5363 ffbc 0d0f 533d
000003b0: c2df eebc 2bd3 a53b b5c4 2bbd 5649 50bd
000003c0: f5f0 043d be48 8e3d 3acd a3bd 6945 cf3b
000003d0: 4ec8 ad3d 89d5 933d e8b3 90bc 308c c5bd
000003e0: 52fc fd3c 2b67 1a3d 5392 ebbd cf9a 26be
000003f0: 419b dbbd a533 313d aa25 ad3d cc33 e73c

layer3.bias f4 [128]
0.0020532773 0.0024347438 0.018386977 -0.0054910956 -0.0035906222 0.0007896228 0.0037903467 0.00086352054
-0.0031854035 -0.0031088754 -0.0007747227 0.0053600315 -0.0009870508 0.008290377 -0.0029970212 0.03715035
-0.00057809113 -0.0038253604 0.00097007025 -0.001340084 -0.0014773346 -0.0032469388 0.0015886411 0.004085015
0.0061553665 0.00047410053 0.0053683114 0.004105909 0.009664465 0.008289555 0.00040033343 -0.0045027486
-0.00021081563 0.005997384 -0.002720588 0.0030073205 -0.0023920138 0.005228777 -0.0017165372 0.025034688
-0.0048779305 -0.0011813786 -0.002099819 -0.00077953853 0.0028866804 -0.0025975436 -0.0058031483 -0.0052540237
0.0057338974 -0.0027260876 -0.00012699261 0.003701106 0.002355533 -0.0017923163 -0.0005906065 -0.006042787
-0.0048206495 -0.00374131 0.000992252 0.0013308211 0.0011707273 0.017158909 -0.0030405538 -0.0017042612
0.022789614 -0.0006343916 0.010464402 -0.0018624732 0.0002963151 0.00014580612 0.020456262 0.0045609935
-0.0017017997 -0.0037238444 0.0066158287 0.0046875705 -0.0034633244 0.0029439654 0.00017314816 -0.0021475893
0.008962004 -0.0022010123 0.0031487125 0.004208071 -0.0018880734 0.010355375 -0.0016110154 0.00979433
0.006697925 0.035064775 0.007005114 -0.0012438374 0.0031127487 0.0018404163 -0.0052143843 -0.0066779996
-0.003602887 0.036669668 0.0037461447 -0.0026663982 -0.007501524 0.0058859545 0.0008140076 -0.0012387035
0.016386254 0.0008241312 0.0028202648 0.001080393 0.0079606995 0.0050544385 -0.0018486177 -0.0001515841
0.0037232735 -0.0011461391 1.9643994e-06 0.0011946498 -0.0024433979 -0.0019325446 0.005170803 0.0015325171
-0.0002909673 -0.0038244268 0.0038818016 -0.0009931546 -0.0015718387 -0.0072889375 0.007984224 0.006166066
00000000: 4790 063b 3990 1f3b 49a0 963c a6ee b3bb
00000010: a550 6bbb b0fe 4e3a 7767 783b e25d 623a
00000020: 34c2 50bb 46be 4bbb c316 4bba 34a3 af3b
00000030: ee5f 81ba 5dd4 073c ac69 44bb f72a 183d
00000040: 0a8b 17ba e6b2 7abb 504c 7e3a c2a5 afba
00000050: 20a3 c1ba 98ca 54bb f339 d03a 97db 853b
00000060: f5b2 c93b b290 f839 a9e8 af3b dc8a 863b
00000070: b457 1e3c ead0 073c d8e3 d139 cb8b 93bb
00000080: 640e 5db9 b485 c43b e44b 32bb 7716 453b
00000090: 55c3 1cbb 2956 ab3b 6efd e0ba 8c15 cd3c
000000a0: 0cd7 9fbb 7dd8 9aba 1e9d 09bb f259 4cba
000000b0: 762e 3d3b 8d3b 2abb 5628 bebb f229 acbb
000000c0: 6be3 bb3b 29a8 32bb 5229 05b9 418e 723b
000000d0: 495f 1a3b 28ec eaba eed2 1aba 9202 c6bb
000000e0: 8af6 9dbb c430 75bb 740e 823a f26e ae3a
000000f0: 1773 993a d790 8c3c 0744 47bb 8461 dfba
00000100: 49b1 ba3c 4d4d 26ba e272 2b3c 3b1e f4ba
00000110: bd5a 9b39 88e3 1839 e493 a73c 6374 953b
00000120: ec0e dfba be0b 74bb 98c9 d83b 319a 993b
00000130: f1f8 62bb 8bef 403b 1b8f 3539 92be 0cbb
00000140: 5fd5 123c dc3e 10bb a15a 4e3b dce3 893b
00000150: 3b79 f7ba 97a9 293c b528 d3ba 6678 203c
00000160: 447a db3b 15a0 0f3d 288b e53b 4208 a3ba
00000170: 42ff 4b3b 203a f13a 6ddd aabb 1fd3 dabb
00000180: 6a1e 6cbb ef32 163d e181 753b bdbe 2ebb
00000190: 58cf f5bb f7de c03b 2063 553a fe5b a2ba
000001a0: 773c 863c 820a 583a 31d4 383b f99b 8d3a
000001b0: 986d 023c b49f a53b 514d f2ba 8cf2 1eb9
000001c0: 2a02 743b 0c3a 96ba 20d4 0336 cc95 9c3a
000001d0: 6a21 20bb 704d fdba d76f a93b bede c83a
000001e0: f88c 98b9 3ca3 7abb d365 7e3b bd2c 82ba
000001f0: 2806 ceba 0ad8 eebb 43d0 023c b60c ca3b

layer4.weight f4 [9, 128]
0.10133457 0.016794877 -0.023171682 -0.016235605 0.08435302 0.11668808 -0.08511509 -0.1870183
-0.0373334 0.061875153 -0.20283467 -0.08932387 -0.06396036 0.035847157 0.20516656 0.14777377
0.05135844 0.14333662 0.029635334 -0.05973427 0.16774277 0.029179515 -0.02516907 -0.007893566
0.016659766 -0.13755836 0.08769542 0.041081112 0.048987005 -0.16307306 -0.11016039 0.08394668
-0.13099293 0.17041917 0.06677833 -0.097367056 -0.06269669 -0.062423326 0.19496733 -0.13291645
-0.081211485 0.021660343 -0.08338242 -0.06856935 -0.07571135 0.10635742 0.036149733 -0.072911546
0.052951716 0.17120372 -0.073918566 -0.11969031 -0.12751849 0.086275086 -0.06377556 0.048706573
-0.033153675 -0.011271568 -0.08234446 -0.000104351435 -0.17741464 0.071815304 0.043559473 -0.0029604682
-0.21637368 0.0024614204 0.04823212 0.062852174 0.12971433 0.021802558 -0.12167693 -0.102990285
-0.12534808 0.11214723 -0.038824707 0.04080523 -0.038367707 -0.14406526 0.13314202 0.05104197
0.22312517 -0.0840347 -0.09396573 -0.12888761 -0.013838933 -0.098546356 -0.0073937043 0.18260127
-0.0421662 0.08454351 -0.066081166 -0.01210888 0.01192203 -0.16500814 0.08605638 0.0639921
0.036737774 0.110978946 -0.1365898 -0.077865064 0.10190635 0.019763375 -0.080599785 -0.0070233154
-0.008268275 -0.1531783 0.13952573 0.0043336777 -0.030738082 0.032264784 -0.026893843 0.0100170355
-0.10535887 -0.025186218 0.07619053 0.0806711 0.017449062 0.16733758 0.057266537 0.040642325
0.06954505 0.08358048 0.11333548 0.009992787 0.15754762 0.058912862 -0.017891118 0.1320908
0.15699136 -0.19777851 -0.11843262 -0.018150771 -0.14940947 0.03506347 -0.21336351 -0.067515805
0.08475313 0.070741616 0.12660734 -0.114669874 0.08935425 -0.017959079 0.11455722 -0.30202818
-0.05815518 -0.07103415 -0.054759063 0.06142515 -0.024046136 -0.0043778457 -0.032884505 0.06063769
-0.058513805 -0.032703396 -0.015106236 -0.108812734 -0.29850206 -0.101001084 -0.015304202 0.1112159
0.008167029 -0.053780157 -0.09747578 -0.17148386 0.16282536 0.0280056 0.14607108 -0.18694492
0.055076085 -0.0026123957 -0.07460928 -0.009384725 -0.15785661 0.026316304 0.012357887 0.22532856
-0.104481675 -0.04962925 0.124410786 -0.084161624 -0.037901882 0.004725219 0.09088387 0.08458395
-0.03742064 0.17671596 0.030666227 -0.13831995 1.5528311e-06 -0.10601851 0.09526098 0.028766444
-0.33230454 -0.010507882 -0.057274695 -0.10568278 -0.031363625 -0.07433271 -0.23630187 -0.2296507
-0.044990484 0.044351544 -0.0014858368 -0.05089645 -0.0795306 -0.048557572 0.058843333 0.10184153
-0.21316276 0.083871506 0.061195742 0.0051760604 0.0005599251 -0.11852965 -0.06720255 -0.23697622
-0.09295272 -0.20992813 0.012066865 0.14270891 -0.056540247 0.11124698 -0.00056967745 -0.006353626
0.061880253 -0.032752752 -0.036915135 0.008139141 -0.037798304 0.054431837 -0.010308525 -0.014657375
-0.015939992 -0.11265588 -0.026709195 0.04897611 0.0004987897 -0.062304188 -0.1123934 -0.041977894
-0.13708119 -0.009419758 0.15259036 0.008474417 -0.0034847213 -0.0072911656 -0.07728152 -0.011929509
-0.1608985 0.14591464 0.06962986 -0.07954298 -0.051884983 0.00451936 -0.048597064 -0.05306003
00000000: 8088 cf3d 6995 893c 8ad2 bdbc 8800 85bc
00000010: 47c1 ac3d 29fa ee3d d250 aebd ba81 3fbe
00000020: e8ea 18bd cd70 7d3d e4b3 4fbe 6fef b6bd
00000030: a6fd 82bd 78d4 123d 2f17 523e 0252 173e
00000040: 3a5d 523d d6c6 123e cdc5 f23c ecab 74bd
00000050: c3c4 2b3e e109 ef3c 5e2f cebc 0454 01bc
00000060: 107a 883c 19dc 0cbe a899 b33d ab44 283d
00000070: 99a6 483d a0fc 26be c59b e1bd 3dec ab3d
00000080: 0323 06be 5d82 2e3e 14c3 883d 6168 c7bd
00000090: 1f67 80bd 9aaf 7fbd 84a5 473e 401b 08be
000000a0: 3552 a6bd 0871 b13c 67c4 aabd 166e 8cbd
000000b0: 8d0e 9bbd ebd1 d93d be11 143d a652 95bd
000000c0: e6e3 583d 0750 2f3e 9e62 97bd 3120 f5bd
000000d0: 3594 02be feb0 b03d c39c 82bd 8b80 473d
000000e0: 26cc 07bd 62ac 38bc 36a4 a8bd 40d7 dab8
000000f0: 2fac 35be e713 933d 6b6b 323d 6a04 42bb
00000100: 1091 5dbe c84f 213b 0b8f 453d a4b8 803d
00000110: d5d3 043e 479b b23c c131 f9bd 92ec d2bd
00000120: 3f5b 00be 72ad e53d a806 1fbd 6323 273d
00000130: 7527 1dbd d885 13be 6256 083e 6211 513d
00000140: ed7a 643e 631a acbd 1b71 c0bd 1dfb 03be
00000150: b1bc 62bc acd2 c9bd e346 f2bb d4fb 3a3e
00000160: 77b6 2cbd 2625 ad3d 9055 87bd 5364 46bc
00000170: 9e54 433c e5f7 28be 543e b03d 4a0e 833d
00000180: 597a 163d ee48 e33d 32de 0bbe b877 9fbd
00000190: 47b4 d03d cde6 a13c 8011 a5bd d723 e6bb
000001a0: a977 07bc c6da 1cbe d5df 0e3e 8601 8e3b
000001b0: 6ece fbbc 1428 043d 7a50 dcbc 7e1e 243c
000001c0: 64c6 d7bd 5453 cebc c809 9c3d e436 a53d
000001d0: 56f1 8e3c 8b5a 2b3e 5190 6a3d 9178 263d
000001e0: a36d 8e3d 3e2c ab3d 6f1c e83d c9b8 233c
000001f0: 2a54 213e 9d4e 713d 6590 92bc d042 073e
00000200: 58c2 203e 7386 4abe cd8c f2bd edb0 94bc
00000210: ccfe 18be b79e 0f3d f77b 5abe ba45 8abd
00000220: 0d93 ad3d fbe0 903d 5ba5 013e 0ad8 eabd
00000230: 5cff b63d eb1e 93bc fa9c ea3d 70a3 9abe
00000240: 2034 6ebd 5a7a 91bd 0a4b 60bd f098 7b3d
00000250: 67fc c4bc 0874 8fbb e7b1 06bd 3a5f 783d
00000260: 2cac 6fbd fff3 05bd 2580 77bc 36d9 debd
00000270: 43d5 98be a8d9 cebd 7abe 7abc 29c5 e33d
00000280: 01cf 053c 9548 5cbd 62a1 c7bd 7799 2fbe
00000290: b1bb 263e 006c e53c a893 153e 7d6e 3fbe
000002a0: 7697 613d ba34 2bbb c0cc 98bd 64c2 19bc
000002b0: 2aa5 21be 4a95 d73c bc78 4a3c 88bc 663e
000002c0: 7dfa d5bd 0a48 4bbd 15cb fe3d ee5c acbd
000002d0: 013f 1bbd 03d6 9a3b 5321 ba3d 5a3a ad3d
000002e0: 6346 19bd 07f5 343e bd37 fb3c bfa3 0dbe
000002f0: df6a d035 3c20 d9bd 3018 c33d 9ba7 eb3c
00000300: d223 aabe 4029 2cbc df98 6abd 3770 d8bd
00000310: 2577 00bd bf3b 98bd 1ef9 71be 8e29 6bbe
00000320: f147 38bd f7a9 353d 69c0 c2ba cc78 50bd
00000330: f0e0 a2bd 4ee4 46bd b505 713d 4b92 d03d
00000340: 5747 5abe d3c4 ab3d 63a8 7a3d f19b a93b
00000350: f0c7 123a acbf f2bd 7ea1 89bd e5a9 72be
00000360: ff5d bebd 66f7 56be 1ab4 453c 4922 123e
00000370: bf96 67bd 75d5 e33d 6856 15ba 1432 d0bb
00000380: 2676 7d3d c027 06bd 5334 17bd 085a 053c
00000390: 65d2 1abd ebf3 5e3d 16e5 28bc 7d25 70bc
000003a0: 9694 82bc 20b8 e6bd 3ecd dabc 2c9b 483d
000003b0: 36c1 023a ad32 7fbd 832e e6bd 03f1 2bbd
000003c0: 035f 0cbe 5455 1abc a640 1c3e 48d8 0a3c
000003d0: ec5f 64bb bbea eebb c645 9ebd fd73 43bc
000003e0: 94c2 24be a66a 153e 1a9a 8e3d 6ee7 a2bd
000003f0: 5985 54bd 2417 943b b70d 47bd 7955 59bd

layer4.bias f4 [9]
-0.006958135 -0.0050144517 0.012771299 0.0024929813 -0.0021386058 0.012814127 -0.010640633 -0.007736848
0.004433694
00000000: 1101 e4bb 4550 a4bb b63e 513c 4961 233b
00000010: da27 0cbb 58f2 513c 0d56 2ebc 6385 fdbb
00000020: 8548 913b

layer_norm1.weight f4 [256]
0.9987205 0.9968296 1.0 1.0 0.99781454 1.0022639 0.99277866 1.000974
1.0 1.0 0.9972076 0.99561346 1.0055746 0.9979197 0.99940586 0.99696815
0.99442357 1.0140296 0.99684757 0.9975754 1.001872 0.999173 0.99984306 0.9974697
1.0063673 0.9930099 1.001331 0.9934047 0.9998379 1.0745238 0.99417037 1.0017387
0.99798757 0.99741876 1.0035511 1.0387795 1.0007411 1.0012455 0.99318254 1.0050288
0.9983135 0.99938005 1.0318148 1.0028133 0.9980381 1.0043861 0.995891 1.003929
0.99635893 1.0013115 1.0021331 0.99485177 0.9979226 1.0004007 0.9934805 0.9967439
0.9968839 0.99790806 0.99912614 0.9997182 1.0071645 1.0 1.0050715 0.9952857
0.9941571 0.99571466 0.9944673 0.9957266 0.99716324 0.9997333 1.0042276 0.995172
0.99848837 0.9986953 1.0001714 1.0066161 1.0045842 0.99923545 1.0121913 0.99847054
0.9945797 1.0086943 1.0059003 0.99772376 0.9956319 0.9913378 1.001737 0.9989074
1.005189 1.0179111 0.9966094 1.0182754 0.9932012 1.0000131 0.99517494 1.0017676
1.0006506 0.99865437 1.0027045 1.0016408 0.99782765 1.002671 0.9994951 0.9951359
1.0010618 1.0 1.0047666 0.9967036 1.0 1.1518421 1.0066175 1.0010167
0.9992025 1.0043344 0.99778324 1.0005039 0.9994501 1.0001017 0.9964928 0.99857825
1.0029763 1.0007005 1.0040556 1.051265 0.9946137 0.99504644 1.0033696 0.99466354
1.0051025 0.9946019 0.99737275 1.0059584 1.0030218 1.0189265 0.99828863 1.0042603
1.0025706 1.0 0.9976783 0.9969276 0.9959348 0.9972501 1.0000281 0.9958395
0.99382216 0.9954817 0.9963244 0.9977238 0.99806595 0.9992896 0.99525434 1.0061429
0.99714524 1.0025598 0.9999075 1.0 1.00527 0.99510235 0.9971989 1.0047252
0.99426734 1.0043991 0.99871725 0.99547935 0.9968497 1.0106072 0.9956056 1.0076844
1.0005811 1.0 1.0014303 0.99664 1.0007352 1.0069219 0.9984897 0.99835205
1.0003453 0.9991468 1.0000907 1.0032483 1.0084522 1.0069879 0.99877334 0.9989384
0.9980513 1.0002848 1.0005616 0.9996106 1.0 0.9938439 1.0012583 0.9984471
0.9972873 1.0076003 0.9962061 0.9978929 0.9962705 0.9977848 0.9968312 1.0035841
1.0007322 1.0 0.9999405 0.99392146 1.0007076 0.9972116 0.99685735 0.99411243
0.99733305 1.0064873 1.0051444 1.0041623 1.0238293 0.9921816 1.0096488 1.00603
1.0050979 1.0019401 1.0023462 0.99596924 1.0128297 0.99458736 0.99815243 0.99665576
1.001006 1.0029978 0.9943132 1.0002989 1.0006809 0.99986243 0.996457 0.9922114
0.99854803 0.99686193 0.99688226 1.0022044 1.0086553 0.99931955 0.9948452 0.9993711
1.0 1.0109372 0.9980563 1.0091445 1.0051129 1.0022706 0.9970877 0.9933844
1.0000652 1.0008868 1.0044435 1.0111575 0.99834704 0.9975332 0.9956758 1.000278
00000000: 26ac 7f3f 3a30 7f3f 0000 803f 0000 803f
00000010: c670 7f3f 2f4a 803f be26 7e3f eb1f 803f
00000020: 0000 803f 0000 803f ff48 7f3f 86e0 7e3f
00000030: abb6 803f aa77 7f3f 10d9 7f3f 4e39 7f3f
00000040: 8b92 7e3f b9cb 813f 6731 7f3f 1a61 7f3f
00000050: 573d 803f cdc9 7f3f b7f5 7f3f 2d5a 7f3f
00000060: a5d0 803f e635 7e3f 9d2b 803f c54f 7e3f
00000070: 60f5 7f3f ff89 893f f381 7e3f f938 803f
00000080: 1d7c 7f3f d656 7f3f 5d74 803f baf6 843f
00000090: 4918 803f d028 803f 3641 7e3f c9a4 803f
000000a0: 7991 7f3f 5fd7 7f3f 8212 843f 305c 803f
000000b0: 6d7f 7f3f b98f 803f b6f2 7e3f bf80 803f
000000c0: 6111 7f3f fa2a 803f e645 803f 9bae 7e3f
000000d0: db77 7f3f 210d 803f bd54 7e3f 9c2a 7f3f
000000e0: c933 7f3f e776 7f3f bbc6 7f3f 88ed 7f3f
000000f0: c4ea 803f 0000 803f 2fa6 803f 0bcb 7e3f
00000100: 1481 7e3f 28e7 7e3f 6995 7e3f f0e7 7e3f
00000110: 1746 7f3f 86ee 7f3f 888a 803f 98c3 7e3f
00000120: ef9c 7f3f 7faa 7f3f 9e05 803f ccd8 803f
00000130: 3796 803f e5cd 7f3f 7c8f 813f c49b 7f3f
00000140: c69c 7e3f e51c 813f 57c1 803f d36a 7f3f
00000150: bbe1 7e3f 50c8 7d3f eb38 803f 65b8 7f3f
00000160: 08aa 803f e94a 823f cb21 7f3f d956 823f
00000170: 6f42 7e3f 6e00 803f c9c3 7e3f ec39 803f
00000180: 5215 803f d0a7 7f3f 9f58 803f c435 803f
00000190: a271 7f3f 8657 803f e9de 7f3f 3ac1 7e3f
000001a0: cb22 803f 0000 803f 319c 803f f827 7f3f
000001b0: 0000 803f 906f 933f d8d8 803f 5121 803f
000001c0: bccb 7f3f 088e 803f b96e 7f3f 8310 803f
000001d0: f6db 7f3f 5503 803f 271a 7f3f d3a2 7f3f
000001e0: 8761 803f f416 803f e584 803f da8f 863f
000001f0: 019f 7e3f 5dbb 7e3f 6a6e 803f 45a2 7e3f
00000200: 33a7 803f 3b9e 7e3f d253 7f3f 3fc3 803f
00000210: 0563 803f 2f6c 823f d88f 7f3f 9a8b 803f
00000220: 3c54 803f 0000 803f d867 7f3f a636 7f3f
00000230: 95f5 7e3f c84b 7f3f ec00 803f 56ef 7e3f
00000240: 216b 7e3f e4d7 7e3f 1e0f 7f3f d46a 7f3f
00000250: 4081 7f3f 71d1 7f3f fdc8 7e3f 4ac9 803f
00000260: e944 7f3f e153 803f f0f9 7f3f 0000 803f
00000270: b0ac 803f 07bf 7e3f 6d48 7f3f d69a 803f
00000280: 4e88 7e3f 2690 803f efab 7f3f bcd7 7e3f
00000290: 8b31 7f3f 945b 813f 02e0 7e3f cdfb 803f
000002a0: 0b13 803f 0000 803f de2e 803f cd23 7f3f
000002b0: 1718 803f d1e2 803f 059d 7f3f 0094 7f3f
000002c0: 510b 803f 16c8 7f3f f902 803f 716a 803f
000002d0: f614 813f fbe4 803f 9caf 7f3f 6dba 7f3f
000002e0: 4a80 7f3f 5509 803f 6712 803f 7be6 7f3f
000002f0: 0000 803f 8e6c 7e3f 3b29 803f 3b9a 7f3f
00000300: 384e 7f3f 0cf9 803f 5d07 7f3f e975 7f3f
00000310: 950b 7f3f d36e 7f3f 5430 7f3f 7275 803f
00000320: fe17 803f 0000 803f 1afc 7f3f a371 7e3f
00000330: 3017 803f 4249 7f3f 0b32 7f3f 277e 7e3f
00000340: 3851 7f3f 93d4 803f 92a8 803f 6488 803f
00000350: d70c 833f 9dff 7d3f 2c3c 813f 97c5 803f
00000360: 0ca7 803f 933f 803f e14c 803f d7f7 7e3f
00000370: 67a4 813f 479d 7e3f eb86 7f3f d524 7f3f
00000380: f720 803f 3b62 803f 4f8b 7e3f cb09 803f
00000390: 5016 803f fcf6 7f3f ce17 7f3f 9101 7e3f
000003a0: d8a0 7f3f 5832 7f3f ad33 7f3f 3c48 803f
000003b0: 9e1b 813f 68d3 7f3f 2dae 7e3f c9d6 7f3f
000003c0: 0000 803f 6466 813f 9e80 7f3f a62b 813f
000003d0: 8aa7 803f 674a 803f 2441 7f3f 714e 7e3f
000003e0: 2302 803f 0f1d 803f 9b91 803f 9c6d 813f
000003f0: ac93 7f3f 565e 7f3f 9ce4 7e3f 1c09 803f
