rl_energy_manager_20250326_0915/models/best_reward_model/critic.pth (torch, 865250 bytes, 26 tensors)

q1_layer1.weight f4 [256, 27]
0	0xbd40b5d5	-0.04704841
1	0x3cf3a65e	0.029742416
2	0xbdc4e4a7	-0.096139245
3	0x3c0bf412	0.008542078
4	0x3c3d5d3e	0.011557875
5	0xbde919ad	-0.113818504
6	0xbdeadf73	-0.11468401
7	0xbe15df93	-0.14636068
8	0xbd2610d1	-0.04054338
9	0x3d28d1bf	0.041215654
10	0xbd1c2685	-0.038122673
11	0x3a54fea0	0.00081251
12	0x3dc51b8d	0.096243955
13	0xbd93da9e	-0.07219432
14	0xbe1d5316	-0.15363726
15	0x3d463d81	0.0483985
16	0x3d4fbf54	0.050719574
17	0xbd22affc	-0.039718613
18	0x3cc512ae	0.024056759
19	0x3d607cc9	0.054806504
20	0x3c4a1fcb	0.012336682
21	0xbc01f06b	-0.007930855
22	0x3c7fe877	0.015619389
23	0xbdbbbc69	-0.09166796
24	0x3dce577f	0.10075282
25	0xbb47c4fd	-0.0030482404
26	0x3cc56f4b	0.02410092
27	0xbcc7f9a4	-0.02441103
28	0xbe091a89	-0.13389029
29	0xbc63926a	-0.013889888
30	0xbe047f70	-0.12939239
31	0xbe3e00da	-0.18555012
32	0xbbabe717	-0.005246054
33	0xbda891fa	-0.08230968
34	0xbcedd107	-0.029030336
35	0xbc082333	-0.008309173
36	0xbc599bd1	-0.013281778
37	0xbc1c9a94	-0.009558339
38	0x3d822ca4	0.06356171
39	0x3dc3535a	0.095373824
40	0xbcd376fd	-0.025813574
41	0x3d664b42	0.056224115
42	0x3c60ec87	0.0137282675
43	0xbcc895e8	-0.024485543
44	0xbc95b179	-0.018273102
45	0x3dd59c2d	0.10430179
46	0x3ca1bd98	0.019743726
47	0xbc813343	-0.015771514
48	0x3d2dbf67	0.042418864
49	0x3d4d4ca9	0.050121937
50	0x3bcf1421	0.006319538
51	0x3c892070	0.0167391
52	0x3dcc76a9	0.0998357
53	0x3d2f171e	0.042746656
54	0x3d394457	0.04523119
55	0xbcb5f89f	-0.022213278
56	0x3ac23e71	0.0014819634
57	0xbc112ef9	-0.008861297
58	0x3df53bdb	0.11974307
59	0x3c3c1c64	0.011481378
60	0xbc6fec9d	-0.014643815
61	0x3d0fee0f	0.03513914
62	0x3d249332	0.04017944
63	0x3ccf5262	0.025307838
64	0x3e12f887	0.14352618
65	0x3d1ffd25	0.039059777
66	0xbd982430	-0.07428777
67	0xbc07f90a	-0.008299122
68	0xbd1cff3d	-0.03832935
69	0xbd8301ea	-0.063968495
70	0xbd96102d	-0.07327304
71	0x3d13fad1	0.03612787
72	0xbd7e031f	-0.062014695
73	0x3d930bf8	0.07180017
74	0x3db991bd	0.090610005
75	0x3d4dbd1c	0.050229177
76	0x3c5d1737	0.013494304
77	0xbd394ffd	-0.0452423
78	0x3befc588	0.0073172487
79	0x3c54f23e	0.012997208
80	0x3d58bcaa	0.0529143
81	0xbb84b4ce	-0.004049874
82	0x3d68e923	0.05686296
83	0x3d5e8d9d	0.05433427
84	0x3d431387	0.047626045
85	0x3d06776a	0.032828726
86	0x3d374c6a	0.04475061
87	0x3c7969b2	0.015222954
88	0x3c4b931e	0.012425212
89	0xbbddbec9	-0.006767128
90	0xbd2d1b90	-0.042262614
91	0x3d41efea	0.04734794
92	0x3ce52d71	0.02797577
93	0xbd198b66	-0.037486456
94	0xbcbbba03	-0.022915846
95	0xbc8da5eb	-0.01729103
96	0xbd0f6a1c	-0.035013303
97	0x3ced3776	0.02895711
98	0x3d564173	0.05230851
99	0xbd3c5f6e	-0.045989446
100	0xbd14d0b2	-0.03633184
101	0xbcbeedaf	-0.023306696
102	0x3dc2e1e1	0.09515739
103	0xbd8bb24e	-0.06821118
104	0xbddd29c7	-0.10798984
105	0xbd93d603	-0.07218554
106	0xbd46ca34	-0.04853268
107	0x3ddea2ef	0.10870921
108	0xbe072caf	-0.13200639
109	0xbdf56d1c	-0.119837016
110	0xbcbec994	-0.02328948
111	0x3c35c8d2	0.011095243
112	0x3cc8b2ac	0.02449926
113	0x3ca4c3e6	0.020112943
114	0xbd50c02c	-0.05096452
115	0x3c229d31	0.009925173
116	0xbe0ab02f	-0.13543771
117	0xbdbf0e51	-0.093289025
118	0x3ce32cce	0.027731325
119	0x3d9a8945	0.07545713
120	0x3d27eab3	0.04099531
121	0xbe066be8	-0.131271
122	0xbdfdc990	-0.123919606
123	0x3cce16e3	0.025157398
124	0xbcc76489	-0.024339931
125	0xbcbb105e	-0.022834953
126	0x3c34d7bd	0.011037764
127	0xbc8753f7	-0.01651953
128	0xbd809e8b	-0.0628024
129	0x3dc11e4e	0.09429608
130	0x3cd9125f	0.026498018
131	0x3d7bcbe1	0.06147373
132	0xbc12e186	-0.008964902
133	0x3da7a5ed	0.08185945
134	0x3d160acb	0.036631387
135	0xbb04e8a8	-0.0020280275
136	0x3debb75e	0.11509584
137	0x3ca78f24	0.020453997
138	0xbd0aebfd	-0.033916462
139	0x3d9e8e09	0.07741935
140	0x3ccf3cb1	0.025297495
141	0xbd2364ea	-0.03989116
142	0xb9aca90a	-0.0003293234
143	0x3d8d1d27	0.06890326
144	0xbd8aa16f	-0.06769072
145	0x398f6835	0.00027352726
146	0xbbf5257b	-0.0074812747
147	0x3d2df6c9	0.04247168
148	0xbdafb79e	-0.08579944
149	0xbdc6c6f2	-0.097059146
150	0xbcd659d4	-0.02616588
151	0xbdc3eb18	-0.09566325
152	0x3dbe8b9b	0.093039714
153	0x3b14b42e	0.0022690403
154	0xbddc9b8f	-0.10771858
155	0x3da61dec	0.08111176
156	0x3c24d4ab	0.01006047
157	0x3d8a2130	0.06744611
158	0xbcab5378	-0.020913824
159	0x3c842177	0.016129239
160	0x3cb26c4b	0.021780154
161	0xbca43019	-0.020042466
162	0xbdc7381d	-0.097275
163	0xbcd97e0d	-0.026549364
164	0x3dc9df13	0.09857001
165	0x3b80f0d0	0.003934957
166	0x3b9335a6	0.0044924794
167	0xbcc5e4ee	-0.024157014
168	0xbd9a80fe	-0.075441346
169	0x3dde7b19	0.10863323
170	0xbd9ddf18	-0.077085674
171	0x3cf7d05f	0.030250726
172	0xbca8ab94	-0.020589627
173	0x3e0827c9	0.13296427
174	0x3ce023cb	0.027360817
175	0x3ce4605c	0.027877979
176	0x3ceaf95d	0.028683359
177	0xbd857aff	-0.065176
178	0xbdb450b0	-0.088044524
179	0xbcbbb134	-0.022911645
180	0xbce65bde	-0.028119978
181	0xbb00455b	-0.001957259
182	0xbdefd20b	-0.117099844
183	0xbcbb95b9	-0.022898542
184	0x3d0083bb	0.031375628
185	0x3d87d848	0.06633049
186	0x3d98743a	0.074440435
187	0x3d4ec0cc	0.050476834
188	0xbb576706	-0.0032867803
189	0x3c84fbf2	0.016233418
190	0x3d4edab5	0.050501544
191	0xbc8e42c2	-0.017365817
192	0x3b0471cf	0.0020209437
193	0x3da5702e	0.08078037
194	0xbcb4fb79	-0.022092568
195	0x3b2210cc	0.002472925
196	0x3dca980e	0.098922834
197	0x3ab5d202	0.0013871791
198	0x3cdd3e80	0.027007341
199	0x3b7a7477	0.003821639
200	0xbde1d82c	-0.1102756
201	0x3d301bec	0.04299538
202	0xbd66be4c	-0.056333825
203	0x3d12dadd	0.035853256
204	0x3dab4671	0.08363045
205	0xbcc92ac9	-0.024556534
206	0x3d9ae65f	0.07563471
207	0x3d5f1005	0.054458637
208	0x3d824e25	0.06362561
209	0x3d4b542f	0.04964083
210	0xbb5e3418	-0.0033905562
211	0xbc53af15	-0.012920161
212	0xbd20b7cd	-0.039237786
213	0xbc84e3bc	-0.016221873
214	0x3da31081	0.07962132
215	0x3d55f2e9	0.05223361
216	0xbcbfb6ae	-0.023402538
217	0x3ddc85d7	0.107677154
218	0xbc990ebe	-0.018683787
219	0xbd6ac832	-0.057319827
220	0x3b90afc3	0.0044154837
221	0x3c993b1b	0.018704941
222	0x3d747f4b	0.05969171
223	0xbd2a50bd	-0.041580904
224	0x3d99dcd6	0.07512824
225	0xbd198059	-0.037475917
226	0xbcb0dbf9	-0.021589266
227	0xbc4d52a3	-0.012531909
228	0x3d3de4d0	0.04636079
229	0x3da7188c	0.08158979
230	0xbc4213fd	-0.011845586
231	0x3d560ef4	0.052260354
232	0x3ca1d6d8	0.019755766
233	0xbc938331	-0.018006893
234	0xbcdfe99b	-0.027333071
235	0xbcabeae6	-0.020986032
236	0x3bf0b7e8	0.007346142
237	0xbc404eef	-0.011737569
238	0xbd8ed9ed	-0.0697516
239	0x3d0ea272	0.03482289
240	0xbca2e64b	-0.019885203
241	0xbc4a1253	-0.01233347
242	0x3c407b99	0.011748218
243	0x3d2468f8	0.04013917
244	0xbd785ad8	-0.06063351
245	0x3bdaaa1e	0.0066731116
246	0x3c151690	0.009099618
247	0x3db7b391	0.089697964
248	0x3d954555	0.07288615
249	0xbcccac87	-0.024984611
250	0xba132632	-0.00056132965
251	0x3e0d7cdd	0.13817163
252	0xbdc6ad6e	-0.09701048
253	0x3c95e3ff	0.018297194
254	0x3d8174b7	0.0632109
255	0x3e3dd918	0.18539846

q1_layer1.bias f4 [256]
0	0xbcf6e481	-0.030138256
1	0xbd100dde	-0.035169475
2	0x3cbb8e7e	0.022895094
3	0x3cc8a6fb	0.024493685
4	0xbd1a4546	-0.03766372
5	0x3c5c1e00	0.013434887
6	0xbbbd866b	-0.005783846
7	0x3b50bee5	0.0031852063
8	0x3b724414	0.0036966847
9	0x3cc0deb2	0.02354369
10	0xbb06d161	-0.0020571577
11	0x3bdcc269	0.0067370427
12	0xbc42de99	-0.011893892
13	0x3b50b715	0.0031847407
14	0xbd11c0eb	-0.03558437
15	0xbd8558ee	-0.065111026
16	0xbbd35a20	-0.0064499527
17	0x3c15d6c0	0.009145439
18	0x3bc7945a	0.006090683
19	0x3d01a41f	0.03165066
20	0x3cfce429	0.030870514
21	0xbcb89fe8	-0.022537187
22	0xbd18855b	-0.037236553
23	0xbc858c46	-0.01630224
24	0xbd3a99f8	-0.045556992
25	0x3bbb0a60	0.005708024
26	0xbc87629a	-0.01652651
27	0xbd37e179	-0.04489276
28	0x3b6b5207	0.0035907046
29	0xbc8cd03b	-0.017189136
30	0x3d3249c3	0.043527376
31	0xbc9ca4c2	-0.019121531
32	0x3caeac18	0.021322295
33	0x3c5d7f29	0.013519087
34	0xbc95e0fd	-0.01829576
35	0xbcc243ef	-0.023714034
36	0xbd55b2e9	-0.052172575
37	0xbc2687e8	-0.0101642385
38	0xbc5f3b0b	-0.013624917
39	0x3c8e98d9	0.017406868
40	0x3bb743e3	0.0055928095
41	0x3bb823a5	0.0056194835
42	0xbd338f17	-0.043837633
43	0x3c3689fe	0.011141298
44	0xbc9e570b	-0.019328615
45	0xbbcef881	-0.006316245
46	0xbce59b83	-0.028028255
47	0xbcaf24e2	-0.021379892
48	0x3d8935fa	0.06699748
49	0xbc0078ed	-0.007841331
50	0xbcd204e8	-0.025637105
51	0x3cbf539f	0.023355303
52	0x3ca098a8	0.019604042
53	0xbcde485c	-0.027134113
54	0xbcf469ae	-0.029835548
55	0xbbf95d25	-0.0076099806
56	0xbd0501b1	-0.032472316
57	0x3cf4dd3f	0.029890655
58	0x3cddf0dc	0.02709239
59	0x3be5221f	0.006992593
60	0x3c6e4c4e	0.01454456
61	0xbc84a849	-0.016193526
62	0xbc986d17	-0.018606706
63	0x3cb677f4	0.022273995
64	0xbd1ba443	-0.03799845
65	0x3b9ecd3e	0.004846244
66	0xbb9e89ba	-0.0048381956
67	0x3cee2982	0.029072527
68	0x3bbcd828	0.0057630725
69	0xbd24cb98	-0.040233225
70	0x3d0f91be	0.0350511
71	0x3d1e0a01	0.03858376
72	0xbcd32f25	-0.025779316
73	0x3d66d686	0.05635693
74	0x3c47f1b0	0.012203619
75	0xbb7dccb3	-0.0038726747
76	0x3b5f4f4b	0.0034074362
77	0xbcc42a61	-0.02394599
78	0xbc4063ab	-0.011742513
79	0xbd535578	-0.05159518
80	0x3d27e194	0.040986612
81	0x3bfb5884	0.007670464
82	0xb9eb6ba2	-0.00044902886
83	0x3d20964a	0.039205827
84	0xbd39221c	-0.045198545
85	0x3d14f5d9	0.03636727
86	0x3d25b88b	0.040459197
87	0x3cc29e2e	0.023757067
88	0x3ce5409b	0.027984908
89	0xbce774fc	-0.028254025
90	0xbd76daf3	-0.0602674
91	0x3cc6b55d	0.024256403
92	0xbc97b479	-0.018518673
93	0x3c8e469e	0.017367657
94	0xbd10dbf1	-0.035366002
95	0xbd37cdb8	-0.044873923
96	0xbcbdbd22	-0.023161475
97	0xbb835d25	-0.0040089064
98	0xbcf9f705	-0.030513296
99	0x3ba049f6	0.0048916293
100	0xbbfed7f4	-0.0077772085
101	0xbd2abba5	-0.041682858
102	0x3b5ba354	0.00335141
103	0x3b139977	0.0022521892
104	0xbc95679f	-0.018237887
105	0xbcca7dcf	-0.024718193
106	0xbcd5ed7a	-0.026114214
107	0xbc1c6c8a	-0.009547362
108	0x3cd302ba	0.025758136
109	0xbd2843ba	-0.041080214
110	0x3a1d6565	0.00060041837
111	0x3bdf555d	0.006815596
112	0xbd43b6d5	-0.047781784
113	0xbc2fe328	-0.010735311
114	0x3ce45f1f	0.027877389
115	0xbc2819b4	-0.010260034
116	0xbd1aafd7	-0.03776535
117	0xbd2760a7	-0.04086366
118	0xbc545dca	-0.012961814
119	0xbd0ce473	-0.034397554
120	0xbd2461a4	-0.04013218
121	0xbcdc2f32	-0.026877973
122	0x3d702fbb	0.05863927
123	0xbc92d3b8	-0.017923221
124	0x3c32a667	0.010903931
125	0xbcf3151f	-0.029673157
126	0xbd18e6f3	-0.037329625
127	0x3d95d4df	0.073159926
128	0xbb5688b5	-0.0032735292
129	0xbc1644a0	-0.009171635
130	0x3c854eb4	0.01627288
131	0x3c9602ce	0.018311884
132	0xbd13a659	-0.036047313
133	0x3b052781	0.0020317736
134	0x3bf7dbf2	0.0075640613
135	0xbd0d95aa	-0.03456656
136	0xbd5f9ffc	-0.054595932
137	0xbb3242e7	-0.0027200521
138	0xbcf15196	-0.029457849
139	0x3d1b1a8d	0.037867118
140	0x3ca376c2	0.01995409
141	0x3a8c9298	0.0010724841
142	0x3d66ba7a	0.05633018
143	0xbc6cd919	-0.014456057
144	0xbc91cfaf	-0.017799227
145	0xbccdd643	-0.025126582
146	0xbc445014	-0.011981983
147	0x3ca7c1d2	0.020478163
148	0xbb1f7087	-0.0024328546
149	0x3ba7aaf8	0.0051168166
150	0x3cf055c0	0.029337764
151	0xbcf69076	-0.030098181
152	0x3d07e279	0.033174966
153	0xbce720dd	-0.028213913
154	0x3c808e66	0.0156929
155	0xbccb310e	-0.024803665
156	0x3cfec92d	0.031101787
157	0xbd094c6f	-0.03352016
158	0xbd368456	-0.0445598
159	0xbcab8298	-0.020936295
160	0xbc82404f	-0.015899805
161	0x3d2771bb	0.040879946
162	0x3d23ce0c	0.039991423
163	0x3c5c7cd1	0.013457493
164	0x3ce9a5f7	0.028521521
165	0xbd42322b	-0.047411125
166	0xbccb6ee3	-0.024833148
167	0x3c66be0e	0.0140833985
168	0xbae3c8b6	-0.0017378542
169	0x3c093a3a	0.008375699
170	0x3bd9b0a5	0.006643372
171	0xbb855a76	-0.0040696217
172	0xbbea6b04	-0.0071538705
173	0x3d4661c8	0.048433095
174	0xbd56bd32	-0.052426524
175	0xbcac2919	-0.02101569
176	0x3be31a31	0.0069306125
177	0x3bfc48b0	0.0076990947
178	0x3d2e451e	0.042546384
179	0x3d13e4ed	0.036106993
180	0xbcc6a91c	-0.02425056
181	0xbb979e5e	-0.004627033
182	0xbbafa215	-0.005359898
183	0xbcd62171	-0.026138993
184	0xbc3ed6bf	-0.011647879
185	0xbcc78252	-0.024354134
186	0xbd0e2f6d	-0.034713197
187	0xbd45703d	-0.048202742
188	0xbc6f6472	-0.01461135
189	0xbd1e83f0	-0.038700044
190	0xbc973147	-0.018456114
191	0xba9d469d	-0.0011999194
192	0xbc84a0e1	-0.016189994
193	0xbd1d4a5b	-0.03840099
194	0xbc8ebcb3	-0.017423963
195	0x3a385ee0	0.00070331804
196	0x3d2bebb6	0.04197284
197	0x3d11c49d	0.035587896
198	0x3c427e87	0.011870987
199	0xbb8a6e30	-0.004224561
200	0x3bc2b508	0.0059419908
201	0xbc2db5e9	-0.010602453
202	0xbcfd62c8	-0.030930892
203	0xbbcb26c9	-0.006199692
204	0xbd731d9f	-0.05935442
205	0x3cbc2b9d	0.022970015
206	0xbcf23c67	-0.029569818
207	0x3bd52501	0.0065046553
208	0xbcb5c2d5	-0.02218763
209	0xbc2aed4f	-0.010432555
210	0xbcde4a33	-0.02713499
211	0x3c5c6ccc	0.013453674
212	0xbbcaf6d9	-0.0061939773
213	0xbc223209	-0.009899625
214	0xbd780070	-0.060547292
215	0xbc11fefa	-0.008910889
216	0x3c79e04b	0.0152512295
217	0xbd221b08	-0.03957656
218	0xbc117aaa	-0.008879343
219	0xbd4b3a39	-0.049616072
220	0xb9969c96	-0.00028726895
221	0x3d068e12	0.032850333
222	0xbbf0975e	-0.007342263
223	0xbc449427	-0.011998213
224	0x3b920ed6	0.004457335
225	0xbcbdeef6	-0.023185235
226	0x3d1c141a	0.038105108
227	0xbd199e87	-0.0375047
228	0x3ce61247	0.028084887
229	0xbc1df023	-0.009639773
230	0x3cea54f9	0.028604971
231	0xbc744edf	-0.014911382
232	0x3c850119	0.016235875
233	0x3c55a0be	0.013038812
234	0x3ce82de5	0.028342197
235	0xbcba19b4	-0.022717334
236	0xbce6017e	-0.028076883
237	0x3c2b02d6	0.010437688
238	0x3ca8ac55	0.020589987
239	0x37e3f897	2.7176267e-05
240	0xbc3bbc5d	-0.0114584835
241	0x3cdf6140	0.027268052
242	0xbd15c74a	-0.03656701
243	0xbcb5a618	-0.022173926
244	0x3c78c4a4	0.0151836015
245	0x3aa00716	0.0012209143
246	0xbbae4b82	-0.00531906
247	0x3c497b3e	0.01229745
248	0x3ce43c2d	0.027860725
249	0xbcf6b77a	-0.030116785
250	0xbd412554	-0.04715474
251	0x3c913fe4	0.01773066
252	0x3bf97ad7	0.0076135206
253	0xbd172a6c	-0.03690569
254	0x3c9c885a	0.019107986
255	0xbcff7f3c	-0.0311886

q1_layer2.weight f4 [256, 256]
0	0xbb958bf2	-0.004563802
1	0x3d18bdcc	0.03729038
2	0x3e1049fe	0.14090726
3	0xbdd5b607	-0.104351096
4	0xbca6ef37	-0.020377738
5	0xbd6b2efd	-0.05741786
6	0x3d9cb365	0.07651404
7	0x3cec461d	0.028842026
8	0x3df82070	0.12115562
9	0xbdef2550	-0.11677039
10	0xbcb7605b	-0.022384813
11	0xbbf4999b	-0.0074646003
12	0x3da25452	0.07926239
13	0xbbd00351	-0.0063480516
14	0xbd07ed8e	-0.033185534
15	0xbcd1d93c	-0.02561628
16	0x3ba67e9b	0.0050810105
17	0xbd838acb	-0.06422957
18	0x3baf6dcf	0.0053536664
19	0x3e0364ec	0.12831467
20	0x3baf4b44	0.0053495485
21	0xbceb640d	-0.028734231
22	0x3d3390c1	0.04383922
23	0xbd7584fd	-0.05994128
24	0xbd24f205	-0.04026987
25	0xbd31194a	-0.04323701
26	0xbd291190	-0.041276515
27	0xbd83f8e3	-0.06443956
28	0xbd0de82a	-0.034645237
29	0x3cbff5b6	0.023432594
30	0x3c558add	0.013033596
31	0xbce58582	-0.028017763
32	0xbdd8babc	-0.10582492
33	0xbc6134b0	-0.013745472
34	0xbb1513b1	-0.0022747333
35	0xbd67d751	-0.056601826
36	0xba07d23d	-0.0005181169
37	0xbcd7df91	-0.026351722
38	0x3d3262de	0.04355132
39	0xbdec4bef	-0.11537921
40	0xbde2f1fb	-0.1108131
41	0xbb8261c1	-0.0039789383
42	0x3c91515b	0.017738989
43	0x3d9a6ccc	0.075402826
44	0x3d4689b2	0.04847116
45	0xbbc63403	-0.0060486807
46	0x3c9bc2ef	0.01901385
47	0x3d2a00e5	0.04150476
48	0x3dc280d1	0.09497226
49	0xbd98ed9a	-0.07467194
50	0x3d71f7b5	0.059074122
51	0x3dbcfd20	0.09227967
52	0xbc07041b	-0.008240725
53	0xbda3949c	-0.07987329
54	0x3d9e3a8b	0.0772601
55	0xbc740b25	-0.014895235
56	0x3e04f0fc	0.12982553
57	0xbcc61c58	-0.024183437
58	0xbd281628	-0.041036755
59	0x3ba851f7	0.005136724
60	0xbdfa06c6	-0.12208323
61	0xbd43f3f5	-0.047840077
62	0x3b892daa	0.004186352
63	0x3d54420b	0.051820796
64	0x3d93acfc	0.072107285
65	0x3d1f6db9	0.038923
66	0xbca72010	-0.02040103
67	0x3d5e03d0	0.054202855
68	0xbba61f59	-0.005069655
69	0xbdbb36d9	-0.09141321
70	0xbaf59845	-0.0018737396
71	0xbc7f90a0	-0.015598446
72	0xbd291b2e	-0.041285686
73	0xbdf1a64e	-0.11799298
74	0x3d8a86e8	0.067640126
75	0x3cb3c87a	0.02194618
76	0xbd95dc44	-0.07317403
77	0x3dc24d35	0.09487382
78	0x3d64305b	0.055710178
79	0xbcf631ac	-0.030052982
80	0x3c4aecb5	0.012385537
81	0x3ccc8a73	0.024968361
82	0xbc0c4ddd	-0.008563486
83	0xbcb747aa	-0.02237304
84	0xbdaa17c0	-0.08305311
85	0x3dcd2a78	0.10017866
86	0xbda78163	-0.081789754
87	0x3c4c696b	0.0124763055
88	0xbdd26bb6	-0.102744505
89	0x3c0ac2e2	0.008469315
90	0xbd7e5bb7	-0.062099185
91	0xbbf2fd77	-0.0074154693
92	0xbd4e776b	-0.050406855
93	0xbcdde020	-0.02708441
94	0xbc1c47c2	-0.009538593
95	0x3c67cb49	0.014147588
96	0xbca74942	-0.020420674
97	0xbcba2261	-0.022721471
98	0xbe0dd910	-0.13852334
99	0xbe0a6692	-0.1351569
100	0xbd8f2331	-0.06989134
101	0xbcb9a717	-0.022662682
102	0xbd6f4791	-0.05841786
103	0xbd7b363a	-0.06133101
104	0xbdb82ca6	-0.08992891
105	0x3d724b28	0.059153706
106	0xbd217c31	-0.03942508
107	0xbdbfadc5	-0.09359316
108	0xbe46c61c	-0.1941151
109	0xba52e254	-0.000804459
110	0x3ca4bf92	0.02011088
111	0xbd14f28a	-0.036364116
112	0xbc09aef5	-0.008403529
113	0xbb19c761	-0.0023464786
114	0xbce50312	-0.027955566
115	0x3c6f2b2a	0.014597693
116	0x3cb80112	0.022461448
117	0xbd5173da	-0.051135875
118	0xbd860948	-0.06544739
119	0x3cda2d7f	0.026633022
120	0xbbb883a8	-0.005630929
121	0x3b2063af	0.0024473479
122	0xbdf88f66	-0.12136726
123	0x3c8f93cf	0.017526535
124	0xbdc02503	-0.093820594
125	0xbe65739d	-0.22407384
126	0xbdb41c52	-0.08794464
127	0xbd0e9496	-0.03480967
128	0x3d05b8d6	0.032646976
129	0xbd5d9731	-0.054099265
130	0x3d640a12	0.055673666
131	0xbd5059a3	-0.050866734
132	0x3d5af852	0.053459473
133	0xbd3b99b6	-0.045800887
134	0x3ceffbe8	0.029294923
135	0xbc2fb43e	-0.010724125
136	0xbccb7fa0	-0.02484113
137	0x3d4504bb	0.048100214
138	0xbc16cd3f	-0.009204208
139	0xbd66563b	-0.05623458
140	0x3b8d8303	0.0043185963
141	0xbcba6e87	-0.022757782
142	0x3d55218c	0.052033946
143	0xbd3fb02b	-0.046798866
144	0xbca65eca	-0.02030887
145	0xbdf7688d	-0.12080488
146	0x3d3c9e91	0.04604966
147	0xb9ca340b	-0.00038567217
148	0x3d665264	0.056230918
149	0x3d546c34	0.051861003
150	0xbcfdcea6	-0.030982327
151	0x3d5cb948	0.053887635
152	0xbdeaeebd	-0.11471317
153	0x3b11b75d	0.0022234537
154	0x3e199384	0.14997679
155	0x3d28b4fb	0.04118822
156	0xbc1f2e57	-0.009715638
157	0x3ba4cd57	0.005029361
158	0xbd9a571f	-0.07536148
159	0xbd829701	-0.06376458
160	0xbc9eee94	-0.019400872
161	0xbdedb574	-0.11606875
162	0xbd9cf93c	-0.07664725
163	0xbe044f8a	-0.12920967
164	0xbd9751af	-0.07388627
165	0xbd84514c	-0.06460819
166	0xbd222cc2	-0.039593466
167	0x3d69b79b	0.057059865
168	0xb9fbfcf3	-0.00048062913
169	0x3d0b9354	0.03407605
170	0x3dba489a	0.09095879
171	0x3cd09470	0.025461406
172	0xbe1b3a32	-0.15158918
173	0xbdced836	-0.10099833
174	0x3c8b43ff	0.017000197
175	0x3d2e2c73	0.04252286
176	0xbde6cb0c	-0.11269197
177	0x3ddb64bd	0.10712574
178	0xbd514a2b	-0.051096123
179	0xbd6f6cef	-0.058453497
180	0xbd0157bc	-0.03157781
181	0xbd10d785	-0.035361785
182	0xbc05e0e9	-0.008171299
183	0xbb779982	-0.0037780707
184	0x3c8f3613	0.01748184
185	0xbbbdfc2f	-0.005797885
186	0xbcea7095	-0.028618136
187	0xbd6293e8	-0.055316836
188	0xbde36aab	-0.1110433
189	0x3d6bdf71	0.057586137
190	0xbcadbe01	-0.021208765
191	0xbd950367	-0.072760396
192	0xbc8010af	-0.015632955
193	0x3c876756	0.016528767
194	0x3c2d49a2	0.010576637
195	0x3c307a51	0.01077135
196	0x3ccc7bd6	0.024961393
197	0x3c8c74cc	0.017145537
198	0xbd04fc21	-0.03246701
199	0xbdeb9d19	-0.115045734
200	0x3da9fb7c	0.0829992
201	0xbddfe915	-0.10933129
202	0xbc0c1ff7	-0.008552543
203	0xbceca294	-0.028886117
204	0xbcb55512	-0.022135291
205	0xbdd37ee2	-0.10326935
206	0x3c11a61b	0.0088897
207	0xbd848144	-0.06469968
208	0x3d9fcda8	0.07802898
209	0xbe13c535	-0.14430697
210	0x3d8166cd	0.06318436
211	0xbd73d85c	-0.05953251
212	0xbe365596	-0.17806086
213	0xbafa58d4	-0.0019099959
214	0xbd5028b7	-0.05082008
215	0xbd003253	-0.031297993
216	0x3d1dc252	0.038515396
217	0xbb99c6bf	-0.004692882
218	0xbd65cc16	-0.056102835
219	0x3d84c23b	0.06482359
220	0x3ca8288a	0.020527143
221	0x3c4391a7	0.011936582
222	0x3dd80394	0.105475575
223	0x3ca1f025	0.01976783
224	0xbc28fe6b	-0.010314564
225	0xbcddf607	-0.027094854
226	0x3c8472ea	0.016168077
227	0xbd564ece	-0.052321248
228	0x3d8c85a8	0.068614304
229	0x3ddce477	0.10785764
230	0x3d1d3409	0.038379703
231	0xbbcd91d6	-0.0062734885
232	0x3e11d936	0.14243016
233	0xbd791c0d	-0.060817767
234	0x3da8931d	0.08231185
235	0xbdba517f	-0.090975754
236	0xbdbe5b1f	-0.09294724
237	0x3a8de498	0.0010825573
238	0xbd59dac2	-0.05318714
239	0x3b3f7214	0.0029212283
240	0xbba01462	-0.0048852423
241	0xba83a8e3	-0.0010044839
242	0x3b76a51f	0.003763504
243	0x3d39d982	0.045373447
244	0xbd17cd01	-0.03706074
245	0xbcba2e47	-0.022727145
246	0x3be87262	0.0070937136
247	0xbb47e3c4	-0.003050075
248	0xbdf93e5a	-0.12170096
249	0xbd8f67df	-0.07002234
250	0x3ce30fc5	0.02771748
251	0x3c0c61c2	0.008568229
252	0x3c3bf2a9	0.011471429
253	0x3d8be873	0.068314455
254	0x3dcc288a	0.0996867
255	0xbd53bbf5	-0.05169292

q1_layer2.bias f4 [256]
0	0xbc4e97dc	-0.012609448
1	0xbd0307fc	-0.031990036
2	0xbc7d9eae	-0.015479727
3	0xbc726b41	-0.014796079
4	0xbc88c038	-0.01669322
5	0x3c3ea3f7	0.011635772
6	0xbc8cc4e4	-0.017183729
7	0xbcd35413	-0.025796926
8	0x3b366256	0.002782961
9	0xbcb02189	-0.021500366
10	0x3c93e80b	0.018054983
11	0xbc757cd4	-0.014983375
12	0xbc57a754	-0.013162453
13	0x3cb9f680	0.022700548
14	0xbc3b5036	-0.011432698
15	0x3b0d0efc	0.0021523824
16	0xbc59ee63	-0.013301465
17	0x3c6d2805	0.014474873
18	0x3d0aa740	0.03385091
19	0xbc27469a	-0.010209704
20	0x3ccc9e7a	0.024977911
21	0xbc6b7260	-0.014370531
22	0xbc70e201	-0.014702321
23	0x3cb1a567	0.021685315
24	0x3c783645	0.015149658
25	0xbc5e26bc	-0.01355904
26	0x3baa1d69	0.0051914942
27	0xbc5d6d51	-0.013514833
28	0x3cf2139b	0.029550364
29	0xbca66af3	-0.02031467
30	0xbd42ce89	-0.04756025
31	0xbd0d402a	-0.03448502
32	0xbc9404e8	-0.018068746
33	0xbd02ba0e	-0.031915717
34	0xbc2199a2	-0.009863289
35	0xbb7b023d	-0.0038300895
36	0xbc822da7	-0.01589091
37	0x3c1a3d94	0.009414095
38	0x3ca026e5	0.019549796
39	0xbc76a9fc	-0.015055176
40	0xbc47afd9	-0.012187921
41	0xbc9da560	-0.019243896
42	0xbca4cab1	-0.020116182
43	0xbce0740d	-0.027399087
44	0xbc6a80ee	-0.014312966
45	0x3c3e5bca	0.011618564
46	0x3cc6c3eb	0.024263343
47	0xbce6f905	-0.028194914
48	0x3bfda8e0	0.0077410787
49	0x3b5f63ce	0.0034086588
50	0x3c569989	0.013098129
51	0xbcc12406	-0.023576748
52	0x3b89f73e	0.004210382
53	0xbc8bd77a	-0.01707052
54	0xbca8b1fc	-0.020592682
55	0x3d23bf5d	0.03997742
56	0xbc8f0edb	-0.017463138
57	0xbc6542c2	-0.013992967
58	0x3ca7cfcc	0.020484827
59	0xbc621575	-0.013799061
60	0xbcbfa3d9	-0.023393558
61	0x3c61948c	0.0137683265
62	0xbb1b6d7a	-0.0023716376
63	0x3c0d2c32	0.008616494
64	0x3cba69d2	0.022755537
65	0x3ce09368	0.027414039
66	0x3c7f247c	0.015572663
67	0x3cdcf2fd	0.026971335
68	0x3c01bb16	0.00791814
69	0x3c53bd64	0.012923572
70	0xbc634dce	-0.013873531
71	0xbc83a68b	-0.016070625
72	0x3cd86498	0.026415154
73	0x3ce7962d	0.028269852
74	0x3be6e9b2	0.0070469016
75	0x3c7c6ef1	0.01540731
76	0x3cb4d2c8	0.022073165
77	0xbc0f2e1f	-0.0087390235
78	0x3c8ad2c0	0.016946197
79	0x3c859bf9	0.016309725
80	0xbc80af56	-0.015708607
81	0xbc6960dc	-0.0142442845
82	0x3cf60043	0.030029422
83	0xbb9d609c	-0.0048027765
84	0xbc6f5533	-0.014607715
85	0xbc97f813	-0.018550908
86	0x3d196db0	0.03745812
87	0xbc92215a	-0.017838169
88	0xbc97b924	-0.0185209
89	0x3cc5cd86	0.024145853
90	0xbc6e1f7c	-0.014533874
91	0x3c08097f	0.008303045
92	0x3b0c2524	0.0021384442
93	0xbcf82c51	-0.03029457
94	0xbcb16da8	-0.021658733
95	0xbcf70dc0	-0.030157924
96	0xbc96f9fc	-0.018429749
97	0xbd44dabf	-0.048060175
98	0xbc5e9f32	-0.01358776
99	0xbd4d8292	-0.05017335
100	0x3d087a2e	0.033319645
101	0xbceb0cdb	-0.028692653
102	0xbc95f01a	-0.018302966
103	0x3c894124	0.016754694
104	0xbc6cd795	-0.014455696
105	0xbba2bf52	-0.004966655
106	0xbc90a134	-0.017654993
107	0x3d08f214	0.03343399
108	0x3cac51f3	0.02103517
109	0xbc809b41	-0.01569903
110	0xbd084615	-0.03326996
111	0xbb508c1b	-0.003182179
112	0xbc48db8c	-0.012259375
113	0x3d1b8f9a	0.037978746
114	0xbc845aaf	-0.016156523
115	0xbcebd627	-0.02878864
116	0xbc96c226	-0.018403124
117	0xbc563c89	-0.013075956
118	0xbc43110c	-0.01190592
119	0xbc87c1e3	-0.016571945
120	0xbcac5084	-0.021034487
121	0xbcb49922	-0.022045676
122	0x3c640afb	0.013918634
123	0x3d1e77e1	0.038688544
124	0xbc58ff1e	-0.013244418
125	0x3caaa1e4	0.020829149
126	0xbc8dea00	-0.017323494
127	0x3c9c143e	0.019052621
128	0xbcce7839	-0.025203811
129	0x3c6c1bc2	0.014410915
130	0x3d3451c9	0.04402331
131	0xbc6ea517	-0.014565728
132	0xbbd658a8	-0.0065413304
133	0xbb2aa206	-0.0026036515
134	0xbcf7ef2d	-0.030265415
135	0xbc6a6710	-0.014306799
136	0xbc696140	-0.014244378
137	0x3c82eae9	0.015981155
138	0xbc67d576	-0.014150014
139	0x3c3738ea	0.011183003
140	0xbc5a73f9	-0.013333314
141	0xbcad9c2b	-0.02119263
142	0xbc7dc37d	-0.015488503
143	0xbc71fa7b	-0.014769192
144	0x3ccad1a8	0.024758175
145	0xbc2f7c1b	-0.010710741
146	0xbcb8c219	-0.02255349
147	0xbc8e0f07	-0.01734115
148	0x3b326be7	0.002722496
149	0x3c64f61a	0.013974691
150	0xbd3afe4a	-0.045652665
151	0xbc9e5760	-0.019328773
152	0xbc9736b7	-0.018458707
153	0xbc5635b4	-0.013074327
154	0xbd4396c8	-0.047751218
155	0xbc3924e3	-0.011300298
156	0xbc6271ec	-0.013821106
157	0x3c3a805c	0.011383142
158	0xbc589af2	-0.013220536
159	0xbc991230	-0.01868543
160	0x3cd3e53d	0.025866145
161	0xbc239305	-0.009983783
162	0xbc91fe3a	-0.01782142
163	0x3cd45e1e	0.025923785
164	0xbcc31dfc	-0.023818009
165	0xbc68bc25	-0.014205013
166	0xbcc685de	-0.024233755
167	0xbc9657b0	-0.01835236
168	0x3c07e9f6	0.008295527
169	0xbc179e2c	-0.00925402
170	0xbca673da	-0.020318914
171	0xbc36a04a	-0.011146614
172	0x3bf3d6e4	0.0074413884
173	0xbca5eb7e	-0.020253893
174	0xbcbd1119	-0.023079442
175	0xbc6f3567	-0.014600134
176	0x3c971712	0.018443618
177	0xbc68ecf6	-0.014216652
178	0xbc80a61a	-0.015704203
179	0x3ba47987	0.00501937
180	0xbc8b8eff	-0.01703596
181	0x3cb226a2	0.021746937
182	0x3cdd6631	0.027026268
183	0xbc786f0a	-0.0151631925
184	0x3c0027d9	0.007822
185	0xbc4e7761	-0.012601704
186	0x3c30222f	0.0107503375
187	0x3bc784d6	0.0060888333
188	0x3c948954	0.01813189
189	0xbc628943	-0.013826671
190	0x3d15c50b	0.036564868
191	0xbc04643f	-0.008080541
192	0x3c7d0bc6	0.015444702
193	0xbcbf2b6d	-0.023336137
194	0xbc1c7433	-0.009549188
195	0x3c30207b	0.010749931
196	0xbc026124	-0.00795773
197	0xbc3d343b	-0.011548097
198	0xbc4587f5	-0.01205634
199	0x3d08946c	0.03334467
200	0xbc886b9b	-0.016652873
201	0x3c1f5857	0.009725652
202	0xbc96cc44	-0.018407948
203	0x3bfe66ce	0.00776372
204	0xbc5ea455	-0.0135889845
205	0xbcec639c	-0.028856091
206	0xbc963a15	-0.018338243
207	0xbbd8eb90	-0.006619878
208	0xbc31d8b5	-0.01085489
209	0xbcc5aa21	-0.024128975
210	0x3c7f9a0b	0.015600692
211	0xbc8ddf00	-0.017318249
212	0x3cb210c2	0.021736506
213	0xbd23762d	-0.039907623
214	0xbc51bf7e	-0.012802003
215	0xbce70b7b	-0.028203717
216	0xbc48216d	-0.012215001
217	0xbc85a53a	-0.016314138
218	0xbc81ffb2	-0.015868995
219	0xbd30e009	-0.043182407
220	0x3cf091c2	0.029366378
221	0xbca57b7e	-0.020200487
222	0xbc5585d7	-0.013032398
223	0x3cc616f5	0.024180869
224	0x3ccfbb3b	0.025357833
225	0xbd723504	-0.05913259
226	0xbc752916	-0.014963409
227	0xbcb7cb5f	-0.022435842
228	0xbc853731	-0.016261669
229	0xbcd47717	-0.025935693
230	0x3be4bf75	0.0069808313
231	0xbbf689de	-0.0075237593
232	0xbc95c13d	-0.01828062
233	0xbd53d369	-0.05171529
234	0xbd63fb65	-0.05565967
235	0xbb6e8cd8	-0.0036399867
236	0xbbeafc27	-0.007171172
237	0xbc79ceac	-0.015247028
238	0xbcfc640c	-0.030809425
239	0xbc7e1f1f	-0.01551035
240	0x3ca19ca7	0.019728018
241	0x3d26ae54	0.040693596
242	0xbce9b99b	-0.028530886
243	0x3c09b7cd	0.008405638
244	0x3cb88368	0.022523597
245	0xbcc25ea0	-0.023726761
246	0xbd13111e	-0.035904996
247	0xbc8eb357	-0.0174195
248	0xbc734ecb	-0.014850329
249	0x3cc30ecb	0.023810765
250	0xbbf13f60	-0.007362291
251	0x3c83d543	0.016092902
252	0x3c3b4cd0	0.011431888
253	0xbcbab843	-0.022792941
254	0x3bf5370b	0.0074833683
255	0xbc346672	-0.011010753

q1_layer3.weight f4 [128, 256]
0	0x3d90531e	0.07047103
1	0x3d191191	0.03737027
2	0x3d40207b	0.046905976
3	0x3d4614b4	0.048359588
4	0xbddc03cc	-0.10742912
5	0xbd5bcb69	-0.053660784
6	0x3a15ff2d	0.0005721923
7	0xbb951657	-0.0045497823
8	0xbceb5e2d	-0.02873143
9	0xbd8e09c0	-0.069354534
10	0x3d35dadd	0.044398177
11	0x3d381715	0.044943888
12	0x3d6336e3	0.055472266
13	0xbdb367cf	-0.08760034
14	0xbc1104b3	-0.008851218
15	0xb90bf4cb	-0.00013347265
16	0xbc79fdd9	-0.015258276
17	0x3d817abf	0.0632224
18	0xbcafa222	-0.021439616
19	0xbd39254f	-0.045201596
20	0x3cc89858	0.024486706
21	0xbd8a1f4a	-0.06744249
22	0xbdb5e238	-0.088810384
23	0xbd514be3	-0.05109776
24	0x3d44d3fa	0.04805372
25	0xbd2db075	-0.04240461
26	0xbdd8b0e2	-0.10580613
27	0x3c264733	0.010148811
28	0xbc99ac95	-0.018759051
29	0x3cdae4d2	0.026720438
30	0xbe09c8e0	-0.13455534
31	0xbd2a9971	-0.04165024
32	0x3d8e9b9d	0.06963275
33	0x3d9a1324	0.07523182
34	0xbdfae0c2	-0.122499004
35	0x3d891aeb	0.06694587
36	0x3b984dc8	0.004647944
37	0x3cbfd383	0.023416286
38	0xbc10df21	-0.008842261
39	0x3cafbc00	0.02145195
40	0x3da54195	0.080691494
41	0xbbaadae6	-0.005214083
42	0xbdb660d0	-0.08905184
43	0x3e0c7a5a	0.13718548
44	0x3d0f68f7	0.03501221
45	0x3d9da171	0.07696808
46	0x3c94874f	0.018130926
47	0xbcb7292f	-0.022358505
48	0xbc55fd71	-0.013060913
49	0x3d755781	0.059897903
50	0x3d2285b7	0.0396783
51	0x3dd70fab	0.10501035
52	0x3c6a4b16	0.014300128
53	0xbda632ec	-0.08115181
54	0x3d872d9b	0.066004954
55	0xbd86834c	-0.06568012
56	0xbd6d5e51	-0.057951275
57	0xbd5894a0	-0.052876115
58	0x3c566b49	0.013087102
59	0x3ce5d13f	0.028053878
60	0xbcf696a2	-0.030101124
61	0x3d84d199	0.0648529
62	0xbcf25543	-0.029581672
63	0xbd8bc730	-0.068251014
64	0x3cc39ec3	0.023879414
65	0x3d37cb32	0.044871517
66	0xbc4e4e17	-0.01259186
67	0xbb86f5f4	-0.0041186754
68	0xbd0af651	-0.033926312
69	0xbd5b88be	-0.053597204
70	0xbd402797	-0.046912756
71	0x3d642a1c	0.05570422
72	0xbd206d39	-0.039166663
73	0xbdc17cce	-0.09447633
74	0x3ccf3ee5	0.025298545
75	0xbdbfd55b	-0.09366866
76	0xbbf3c5c0	-0.007439345
77	0xbce41e2c	-0.027846418
78	0xbdb264d2	-0.08710636
79	0xbcce18fe	-0.025158402
80	0x3d7b36ab	0.061331432
81	0x3d96b02f	0.07357823
82	0x3dfe96c1	0.12431098
83	0x3d08fdf7	0.033445325
84	0xbd6ad7a6	-0.057334565
85	0xbb74110f	-0.0037241613
86	0xbd2ad36d	-0.041705538
87	0xbdb43ce8	-0.088006794
88	0x3c9b548d	0.018961215
89	0x3d82292d	0.0635551
90	0x3c808ba1	0.01569158
91	0xbad107dc	-0.0015947777
92	0x3c8b1e57	0.01698224
93	0xbd88e335	-0.06683961
94	0xbdf9ad57	-0.12191265
95	0xbd89df8c	-0.06732091
96	0xbd194ed7	-0.037428703
97	0x3d0dc899	0.034615133
98	0xbdfc774a	-0.1232744
99	0xbb3a2895	-0.0028405536
100	0xbc8132dc	-0.015771322
101	0xbd97e5de	-0.074168906
102	0xbce347bb	-0.027744165
103	0xbc3dd519	-0.011586451
104	0xbda051a3	-0.07828071
105	0x3cd4c13c	0.025971048
106	0x3d3b94b7	0.045796122
107	0x3cb287c8	0.021793261
108	0x3a1d7212	0.00060060725
109	0x3bc5ddf8	0.0060384236
110	0xbbb7f90f	-0.005614407
111	0xbdc94e74	-0.09829417
112	0xbcb37ff8	-0.021911606
113	0xbe290a83	-0.16507916
114	0xbd60e111	-0.05490214
115	0xbd6bc2fa	-0.05755899
116	0x3d4eb451	0.050464932
117	0xbe11e870	-0.14248824
118	0x3c626ebd	0.013820347
119	0xbd45fc9b	-0.048336606
120	0x3c616a48	0.01375825
121	0xbb264e69	-0.0025376326
122	0xbd004ec2	-0.03132511
123	0xbd16abbc	-0.036784872
124	0xbe2f318f	-0.17108749
125	0xbd4a24f7	-0.04935166
126	0xbb826a2e	-0.0039799428
127	0xbd875e95	-0.06609837
128	0x3d0c2511	0.034215037
129	0x3d3fae00	0.0467968
130	0x3da77dae	0.081782684
131	0xbd9bc681	-0.07606221
132	0x3ce36ca1	0.02776176
133	0xbd6548eb	-0.055977743
134	0xbdb786a9	-0.08961231
135	0xbbe068cc	-0.0068484303
136	0x3c9a1022	0.01880652
137	0xbd8390c5	-0.06424097
138	0xbcf027da	-0.029315878
139	0xbd8f4a16	-0.06996553
140	0xbc0605a5	-0.008180057
141	0x3dc704c3	0.09717705
142	0x3d91993e	0.07109307
143	0xbdab4851	-0.08363403
144	0x3d3dca59	0.046335552
145	0x3ca8e292	0.02061585
146	0xbbb761e8	-0.005596388
147	0x3b2eb067	0.0026655437
148	0x3ce98463	0.02850551
149	0xbcff8cfa	-0.031195153
150	0xbe036401	-0.12831117
151	0xbe26772b	-0.16256396
152	0xbcd00a01	-0.025395395
153	0x3c9767aa	0.018482048
154	0xbcf1bff2	-0.029510472
155	0x3df072da	0.11740656
156	0x3d21fe9f	0.039549466
157	0xbd940556	-0.0722758
158	0x3e36118e	0.17780134
159	0xbc9c7ffa	-0.019103993
160	0xbdbb19a5	-0.09135751
161	0x3c35e47f	0.011101841
162	0x3da5242e	0.08063541
163	0xbd9907a3	-0.0747216
164	0x3bcdd19b	0.0062810904
165	0xbcfe1fe6	-0.03102107
166	0x3d942513	0.07233634
167	0x3c57975f	0.013158648
168	0xbd5befea	-0.053695597
169	0xbd078d17	-0.033093538
170	0xbc2a249d	-0.010384706
171	0x3c68d295	0.014210363
172	0x3cdf23d1	0.027238758
173	0xbb907e4a	-0.004409586
174	0xbc041a7e	-0.008062957
175	0xbd373cc3	-0.04473568
176	0xbd2227a7	-0.039588597
177	0x3bf85019	0.0075779078
178	0x3d21bf6f	0.039489206
179	0xbd89d9a1	-0.067309625
180	0x3d82f0ff	0.063936226
181	0xbcf4392b	-0.029812416
182	0x3adc7525	0.001681958
183	0x3a29d214	0.00064781425
184	0xbde409c4	-0.11134675
185	0x3d8209a7	0.06349497
186	0xbda646f2	-0.081190005
187	0xbd369a74	-0.04458089
188	0xbc8b8a14	-0.017033614
189	0x3db3057a	0.08741279
190	0xbd554781	-0.052070145
191	0xbdae6f80	-0.08517361
192	0xbd08bf37	-0.03338548
193	0xbd16fce4	-0.03686227
194	0xbdebde5f	-0.11517023
195	0x3d53b1e9	0.05168334
196	0x3d97a26c	0.074040264
197	0xbd21b40a	-0.03947834
198	0x3c41cf73	0.011829245
199	0xbdb96e05	-0.09054188
200	0x3d2a05b4	0.041509345
201	0x3c1569e1	0.009119482
202	0x3d4007c9	0.046882425
203	0x3d3ca753	0.04605801
204	0xbd4ef969	-0.050530825
205	0x3dd59a83	0.104298614
206	0xbcc1b973	-0.023648
207	0xbce8baa4	-0.02840931
208	0x3d9a1e41	0.07525302
209	0xbc2b5acf	-0.010458662
210	0xbd94d9ea	-0.07268126
211	0xbc9dbe31	-0.01925573
212	0xbdbf651c	-0.09345457
213	0xbe09f414	-0.13472015
214	0xbcb28ecc	-0.021796606
215	0xbe1d0507	-0.15333949
216	0xbd87bc1e	-0.066276774
217	0xbd9fff8f	-0.07812416
218	0xbd1ef88a	-0.038811244
219	0xbd5fa54b	-0.054600995
220	0x3aca645b	0.0015441285
221	0x3ca4d745	0.02012218
222	0xbc8eefa7	-0.01744826
223	0xbd7904fe	-0.060795777
224	0x3c8f67f9	0.017505633
225	0x3c91247b	0.01771759
226	0x3c814060	0.015777767
227	0xbdc8f0f2	-0.09811582
228	0xbcbc22a9	-0.022965746
229	0xbd1cf792	-0.03832204
230	0x3d45f4d1	0.04832918
231	0x3c9f5abd	0.019452447
232	0xbd3ba455	-0.045811016
233	0xbcce48d5	-0.025181213
234	0x3d1fdefe	0.03903102
235	0xbc866f1b	-0.016410401
236	0xbca11385	-0.019662628
237	0xbd03c201	-0.03216744
238	0xbd8a22b1	-0.06744898
239	0xbc56f336	-0.013119509
240	0x3c9973be	0.018731948
241	0xbd586da5	-0.05283894
242	0x3cf8600d	0.030319238
243	0xbdc7ad89	-0.09749896
244	0x3c0d3c99	0.008620405
245	0x3cf58224	0.029969282
246	0x3ca0bbe7	0.019620849
247	0xbd649d6b	-0.055814188
248	0x3d080c31	0.03321475
249	0xbb1e3f96	-0.0024146787
250	0x3d7fac0f	0.062419947
251	0x3ce08c6d	0.02741071
252	0xbbf7c6fd	-0.007561563
253	0x3c9b6a7b	0.018971672
254	0xbd77a6a8	-0.06046167
255	0x3cf7890e	0.03021672

q1_layer3.bias f4 [128]
0	0xbc688835	-0.014192631
1	0xbc4a4c15	-0.012347241
2	0x3c80098b	0.01562955
3	0x3aec0094	0.0018005543
4	0xbc80754d	-0.015680933
5	0x3cbd2fbc	0.02309405
6	0xbc7fdf13	-0.01561715
7	0xbc663072	-0.014049636
8	0xbc6e8119	-0.0145571465
9	0xbc480a61	-0.012209506
10	0xbc38cad8	-0.0112788305
11	0x3c945e15	0.018111268
12	0x3c45f1ab	0.012081544
13	0xbc67e6ce	-0.014154149
14	0xbc4afef6	-0.012389889
15	0xbc2987b8	-0.010347299
16	0xbc89cdd7	-0.016821785
17	0x3ca68b71	0.020330163
18	0x3bea0b32	0.007142448
19	0x3ce6246f	0.028093545
20	0xbbbd9e7b	-0.0057867146
21	0xbc53b416	-0.012921354
22	0xbc4443a2	-0.011979016
23	0xbc19790e	-0.009367241
24	0xbc878059	-0.016540693
25	0x3cb8f702	0.02257872
26	0x3c908745	0.017642627
27	0x3c5ef03f	0.013607084
28	0x3c87aecc	0.016562842
29	0xbc46f94a	-0.012144396
30	0x3cca22a7	0.024674727
31	0xbc644b9c	-0.013934042
32	0xbc2f2572	-0.01069008
33	0xbc1b2b6a	-0.0094708
34	0xbc38e702	-0.011285545
35	0x3ca21058	0.019783184
36	0xbc4aa8cc	-0.012369346
37	0xbc4d7b3c	-0.012541588
38	0xbc4d09bf	-0.012514531
39	0xbca0927b	-0.019601097
40	0x3c818365	0.015809724
41	0x3c97ab0a	0.018514175
42	0x3c732378	0.014839999
43	0xbc86068c	-0.016360544
44	0x3ca9cb77	0.020726902
45	0x3c80361d	0.015650803
46	0xbc72ca0e	-0.014818681
47	0xbba6f917	-0.005095612
48	0xbc7a9106	-0.015293365
49	0xbc22ecef	-0.009944185
50	0x3c9c4b0c	0.019078754
51	0x3adc0172	0.0016785099
52	0x3c81677e	0.01579642
53	0x3c47ca47	0.012194223
54	0xbc47d5a9	-0.012196937
55	0xbc52d06d	-0.012867075
56	0x3c8c061d	0.017092759
57	0xbc74ee91	-0.014949457
58	0xbc8d2ab6	-0.01723228
59	0x3c6a642d	0.01430611
60	0xbc72c058	-0.014816366
61	0xbc30dac1	-0.0107943425
62	0xbc2374b6	-0.0099765565
63	0xbc7b0e1f	-0.015323191
64	0xbc6ae21f	-0.014336138
65	0xbba88cef	-0.0051437537
66	0xbc2b159f	-0.010442167
67	0xbc35db62	-0.011099668
68	0xbc7efa97	-0.015562675
69	0xbc6b37a8	-0.014356531
70	0x3d1edc03	0.03878404
71	0xbc8806ec	-0.016604863
72	0xbbb36b97	-0.005475472
73	0xbc3fe8ab	-0.011713187
74	0xbc577972	-0.013151513
75	0xbc5ec968	-0.013597824
76	0xbc76b8d2	-0.015058713
77	0xbc72246a	-0.01477919
78	0x3caecfca	0.021339316
79	0xbc2f0c06	-0.010684019
80	0xbc0cda2f	-0.008596941
81	0xbc62d9a2	-0.013845833
82	0xbbab6c18	-0.0052313916
83	0xbc3bbbca	-0.011458347
84	0xbc42dbd0	-0.011893228
85	0xbb8edd86	-0.0043599037
86	0xbc3067b1	-0.010766909
87	0x3cfb9bb5	0.030713895
88	0x3cb40631	0.021975609
89	0x3ceb2b19	0.028707074
90	0xbc4908e0	-0.012270182
91	0xbc417f62	-0.011810156
92	0xbc247d3e	-0.010039626
93	0xbc55ec3a	-0.013056809
94	0xbc56695a	-0.013086641
95	0x3bd31e51	0.006442823
96	0x3c6be98a	0.014398942
97	0x3ce35b7d	0.027753586
98	0x3ca70626	0.020388674
99	0x3c87079e	0.016483124
100	0xbc8cbc63	-0.017179674
101	0xbbed5540	-0.0072428286
102	0x3c61b3c4	0.01377577
103	0x3c53c03b	0.012924249
104	0xbc320490	-0.010865346
105	0xbc61dcc5	-0.013785546
106	0xbc55108c	-0.013004433
107	0xbbe58272	-0.0070040757
108	0xbc829b21	-0.015943112
109	0x3c8fd9ce	0.017559912
110	0xbc36ad73	-0.011149752
111	0xbc714acf	-0.014727308
112	0xbb3a6ef0	-0.0028447472
113	0xbc346eaa	-0.0110127125
114	0x3c8a4f97	0.016883655
115	0xbc6e9ca1	-0.01456371
116	0xbbf17e7d	-0.007369815
117	0xbc302753	-0.010751563
118	0x3cb2dfd9	0.021835255
119	0xbc909dc7	-0.01765336
120	0xbc265adb	-0.010153498
121	0xbb79a45a	-0.0038092346
122	0xbc05c5cc	-0.008164834
123	0xbc1a673c	-0.009424027
124	0x3c6f2a5f	0.014597504
125	0x3c613498	0.0137454495
126	0xbc471a98	-0.012152337
127	0x3c626099	0.013816976

q1_layer4.weight f4 [1, 128]
0	0x3ddaede2	0.10689904
1	0x3de910ec	0.11380181
2	0xbedc4948	-0.4302466
3	0x3d9c8350	0.07642233
4	0x3d9fdb06	0.07805447
5	0xbeedd161	-0.46448806
6	0x3d317ff6	0.043334924
7	0x3d9bdf73	0.07610979
8	0x3d138c92	0.03602273
9	0xbcc645de	-0.024203237
10	0x3d9b1e62	0.075741544
11	0xbecb6708	-0.39727044
12	0xbee30fd4	-0.44348013
13	0x3e18fa61	0.14939262
14	0xbb91b8bc	-0.004447071
15	0xbcdd536e	-0.027017321
16	0xbc644802	-0.013933184
17	0xbee13816	-0.43988103
18	0xbec1d12b	-0.37854895
19	0xbf0e9a34	-0.55704045
20	0x3d771c7b	0.060329895
21	0x3bd7c3db	0.006584627
22	0x3e4b1363	0.19831614
23	0xbcc6e7f4	-0.024280526
24	0x3b43eb86	0.0029895022
25	0xbef89e18	-0.48558116
26	0xbeede68b	-0.46464953
27	0xbf0bddc8	-0.54635286
28	0xbed69b0c	-0.41915166
29	0xbcfb55f3	-0.030680632
30	0xbeda9753	-0.42693576
31	0x3d171e9f	0.036894437
32	0x3dd230bf	0.10263204
33	0x3bad65c2	0.0052916715
34	0xbc94d52a	-0.01816805
35	0xbedc3b7c	-0.43014133
36	0xbc099fc0	-0.008399904
37	0x3ddafef3	0.10693159
38	0x3ce8fc18	0.02844052
39	0x3d3154f7	0.04329392
40	0xbee142ae	-0.43996185
41	0xbed9d453	-0.42544803
42	0xbed6d3ed	-0.41958562
43	0xbceb87ce	-0.02875128
44	0xbee999c0	-0.45625114
45	0xbedc8483	-0.43069848
46	0xbd15124a	-0.036394395
47	0x3dedf24f	0.11618482
48	0x3d61bb15	0.055110056
49	0x3e19f587	0.15035067
50	0xbee11acf	-0.43965766
51	0x3bed34d3	0.007238963
52	0xbeea18cd	-0.45722046
53	0xbf091ce9	-0.5355974
54	0x3d2f16ce	0.042746358
55	0xbc8e9c53	-0.017408526
56	0xbee52c41	-0.44760326
57	0x3dce8ad5	0.10085074
58	0xbd146c89	-0.03623632
59	0xbecc4421	-0.39895728
60	0xbc7d6c48	-0.015467711
61	0x3e0ca7ba	0.13735858
62	0x3cb75f3e	0.022384282
63	0xbd19492c	-0.037423298
64	0xbc962b75	-0.018331269
65	0xbdc976d8	-0.09837121
66	0xbd7c560d	-0.061605502
67	0x3d1fdcd7	0.03902897
68	0x3d8da64c	0.06916484
69	0x3e09890e	0.13431188
70	0xbef6f09d	-0.48230448
71	0xbd39d2de	-0.045367114
72	0xbbc5eb40	-0.006040007
73	0x3dd0f719	0.1020338
74	0x3cd058cf	0.025432972
75	0xbd3db0fe	-0.04631137
76	0x3e1cc05a	0.15307751
77	0xbd14daab	-0.03634135
78	0xbee23a1b	-0.44184956
79	0xbd131af8	-0.03591439
80	0x3cedf387	0.029046787
81	0x3caf2a22	0.021382395
82	0x3bece4f1	0.0072294404
83	0x3e14a461	0.1451583
84	0x3d985b1e	0.07439254
85	0xbe45babc	-0.19309515
86	0x3bdb06c0	0.0066841543
87	0xbef1a27f	-0.47194287
88	0xbedbb7b6	-0.42913598
89	0xbee2f4bc	-0.44327343
90	0x3ca450e0	0.020058095
91	0xbd4a4cff	-0.049389835
92	0x3dfaf076	0.122528955
93	0xbd55f0e1	-0.052231673
94	0xbc9bebc1	-0.019033315
95	0xbeb9e9fb	-0.36311325
96	0xbf034476	-0.5127634
97	0xbeec7b83	-0.46187982
98	0xbee23dd8	-0.44187808
99	0xbeffa84f	-0.49933097
100	0xbbe25968	-0.0069076307
101	0x3d96d2aa	0.073644
102	0xbecfc75e	-0.40581793
103	0xbefdce4d	-0.49571458
104	0x3d79b86e	0.0609669
105	0x3cf9f7a7	0.030513598
106	0x3ca79a7b	0.020459404
107	0x3dc39505	0.095499076
108	0xbc88b5b1	-0.0166882
109	0xbee0891f	-0.43854615
110	0x3d7924fd	0.06082629
111	0xbd79cb02	-0.06098462
112	0xbd8424ef	-0.06452357
113	0x3d31b07e	0.043381207
114	0xbeee9c07	-0.46603414
115	0x3d04e2d3	0.03244288
116	0x3cb3a662	0.021929923
117	0x3e08f837	0.13375936
118	0xbeecae82	-0.4622689
119	0x3d1ff01c	0.039047346
120	0x3e3ec099	0.18628158
121	0x3db08265	0.08618621
122	0xbdbae12f	-0.091249816
123	0xbdd4348c	-0.10361585
124	0xbef62afb	-0.48079666
125	0xbed7425f	-0.42042825
126	0x3d96fa37	0.073719434
127	0xbee813e2	-0.4532767

q1_layer_norm1.weight f4 [256]
0	0x3f7c8a36	0.98648393
1	0x3f79c081	0.9755936
2	0x3f834226	1.0254562
3	0x3f8138ff	1.0095519
4	0x3f7b0eb0	0.98069286
5	0x3f815a06	1.0105598
6	0x3f7d51dd	0.9895304
7	0x3f7b84f4	0.98249745
8	0x3f7f5326	0.9973625
9	0x3f8131da	1.0093338
10	0x3f7962b1	0.97416216
11	0x3f7e0596	0.99227273
12	0x3f79fbb8	0.9764972
13	0x3f7c58ef	0.985732
14	0x3f7a16a0	0.97690773
15	0x3f7dd04f	0.9914598
16	0x3f78b02d	0.9714382
17	0x3f7dd17a	0.9914776
18	0x3f81213e	1.008827
19	0x3f819ae1	1.012539
20	0x3f840855	1.0315043
21	0x3f7a4830	0.977664
22	0x3f78471c	0.96983504
23	0x3f7bcaa5	0.98356086
24	0x3f7b2854	0.9810841
25	0x3f7e7ca7	0.99408954
26	0x3f7a3090	0.9773035
27	0x3f780089	0.96875817
28	0x3f7d5a1c	0.9896562
29	0x3f7a6b69	0.97820145
30	0x3f870f71	1.0551587
31	0x3f79a147	0.97511715
32	0x3f820d36	1.0160282
33	0x3f803660	1.0016594
34	0x3f77ca58	0.9679313
35	0x3f7bad05	0.9831088
36	0x3f7c43a0	0.9854069
37	0x3f7bbf1a	0.9833847
38	0x3f7cd896	0.98767984
39	0x3f817f4f	1.0116976
40	0x3f7db304	0.9910128
41	0x3f7fef69	0.99974686
42	0x3f76f1d6	0.9646276
43	0x3f7ee379	0.99565846
44	0x3f7b38ee	0.9813374
45	0x3f7dabb6	0.99090135
46	0x3f77fd82	0.968712
47	0x3f79d384	0.9758837
48	0x3f8bd30a	1.0923779
49	0x3f7e6dd7	0.9938635
50	0x3f776d62	0.9665128
51	0x3f82e3f2	1.0225813
52	0x3f815b19	1.0105926
53	0x3f7cfb2e	0.9882077
54	0x3f790ae8	0.97282267
55	0x3f7b33c5	0.9812587
56	0x3f79f5e0	0.976408
57	0x3f82925f	1.0200919
58	0x3f84ce35	1.0375429
59	0x3f7f2968	0.99672556
60	0x3f81c10a	1.0137036
61	0x3f7b4b42	0.9816171
62	0x3f7b2c54	0.98114514
63	0x3f824681	1.0177766
64	0x3f787441	0.9705239
65	0x3f7fe129	0.9995294
66	0x3f7a0946	0.976704
67	0x3f842d83	1.0326389
68	0x3f7fc8b8	0.9991565
69	0x3f7c1507	0.98469585
70	0x3f861da5	1.0477797
71	0x3f891b20	1.0711403
72	0x3f7b7a8c	0.98233867
73	0x3f89f29d	1.0777165
74	0x3f822675	1.0167986
75	0x3f77f251	0.9685412
76	0x3f81aa75	1.0130144
77	0x3f792bd9	0.9733253
78	0x3f7baedb	0.98313683
79	0x3f7ade9f	0.9799594
80	0x3f84965e	1.0358388
81	0x3f7e110a	0.9924475
82	0x3f7b11fd	0.9807432
83	0x3f87241c	1.0557895
84	0x3f7aa55f	0.97908586
85	0x3f847668	1.0348635
86	0x3f874e03	1.0570682
87	0x3f835f22	1.0263407
88	0x3f83364f	1.0250949
89	0x3f798114	0.9746258
90	0x3f7c05e0	0.98446465
91	0x3f847157	1.0347089
92	0x3f787e22	0.97067463
93	0x3f80a80a	1.0051281
94	0x3f79c881	0.9757157
95	0x3f78b537	0.9715151
96	0x3f7b0d4c	0.98067164
97	0x3f7e9568	0.99446726
98	0x3f77b72b	0.9676387
99	0x3f767cce	0.96284187
100	0x3f7ad97e	0.97988117
101	0x3f7da70f	0.99083036
102	0x3f804f8a	1.0024273
103	0x3f7a9107	0.97877544
104	0x3f7a3c6a	0.97748435
105	0x3f7af42c	0.98028827
106	0x3f74914e	0.9553422
107	0x3f7e2de9	0.99288803
108	0x3f8147ee	1.0100076
109	0x3f7a4796	0.9776548
110	0x3f7c2298	0.98490286
111	0x3f7c63d3	0.9858982
112	0x3f7c0063	0.9843809
113	0x3f772a37	0.9654879
114	0x3f84b933	1.0369018
115	0x3f79c9e3	0.9757368
116	0x3f7bf2aa	0.9841715
117	0x3f7d48ef	0.9893941
118	0x3f7b7625	0.9822715
119	0x3f758919	0.9591232
120	0x3f766f7e	0.96263874
121	0x3f79d360	0.9758816
122	0x3f8d84fb	1.1056207
123	0x3f7927f7	0.97326607
124	0x3f7a6550	0.9781084
125	0x3f78e5d3	0.97225684
126	0x3f7816f0	0.9691
127	0x3f8c5d3e	1.0965955
128	0x3f795984	0.97402215
129	0x3f7c87f4	0.9864495
130	0x3f82c2f0	1.021574
131	0x3f80720b	1.0034803
132	0x3f766324	0.96245027
133	0x3f7c7f95	0.98632175
134	0x3f7f82d4	0.99809
135	0x3f7de101	0.99171454
136	0x3f79e8e5	0.97620994
137	0x3f7b705f	0.9821834
138	0x3f7a1403	0.97686785
139	0x3f848217	1.03522
140	0x3f833094	1.02492
141	0x3f793265	0.9734252
142	0x3f85b7e1	1.044674
143	0x3f799970	0.9749975
144	0x3f7a9e47	0.9789776
145	0x3f795305	0.973923
146	0x3f729abc	0.94767356
147	0x3f7f97af	0.99840826
148	0x3f7d4dbf	0.98946756
149	0x3f7a93e8	0.9788194
150	0x3f834645	1.025582
151	0x3f7e4306	0.9932102
152	0x3f868cb9	1.0511695
153	0x3f783c20	0.96966743
154	0x3f82ab34	1.0208497
155	0x3f7a06f4	0.9766686
156	0x3f840e80	1.0316925
157	0x3f775930	0.96620464
158	0x3f7872a9	0.9704996
159	0x3f7a1a96	0.97696817
160	0x3f7c36dd	0.98521215
161	0x3f83438a	1.0254986
162	0x3f84742e	1.0347955
163	0x3f80cd44	1.0062642
164	0x3f844e45	1.0336386
165	0x3f7f29fb	0.9967343
166	0x3f776fbb	0.9665486
167	0x3f7ac4cf	0.97956556
168	0x3f7c3d85	0.9853137
169	0x3f8025cf	1.0011538
170	0x3f804046	1.0019615
171	0x3f7c96e1	0.9866772
172	0x3f7d25b2	0.98885643
173	0x3f86bab2	1.0525725
174	0x3f79d344	0.9758799
175	0x3f764e5c	0.96213317
176	0x3f7dd82f	0.99157995
177	0x3f7d43de	0.9893168
178	0x3f85d9e4	1.045712
179	0x3f87323d	1.0562207
180	0x3f7c88a2	0.98645985
181	0x3f7c8cd3	0.9865238
182	0x3f7c2e17	0.9850783
183	0x3f785286	0.9700092
184	0x3f7dcff8	0.9914546
185	0x3f7beddd	0.98409826
186	0x3f7baa79	0.98306996
187	0x3f754443	0.95807284
188	0x3f793653	0.9734852
189	0x3f7b720c	0.98220897
190	0x3f7bbd33	0.9833557
191	0x3f7a35ca	0.97738326
192	0x3f7ab06d	0.97925454
193	0x3f7c71ef	0.9861135
194	0x3f7a8fa4	0.9787543
195	0x3f7f8900	0.9981842
196	0x3f872ee9	1.0561191
197	0x3f834e0c	1.0258193
198	0x3f7e47e9	0.99328476
199	0x3f7b36cf	0.98130506
200	0x3f7c4139	0.9853702
201	0x3f7b0d5c	0.9806726
202	0x3f753188	0.95778704
203	0x3f7c9066	0.98657835
204	0x3f7abaa8	0.97941065
205	0x3f83b865	1.0290648
206	0x3f790acc	0.972821
207	0x3f80fa37	1.007636
208	0x3f7bd149	0.9836622
209	0x3f7cfa5a	0.98819506
210	0x3f7f4aa8	0.9972329
211	0x3f804e94	1.002398
212	0x3f7a82c8	0.97855806
213	0x3f7a5fe5	0.97802573
214	0x3f7e9732	0.99449456
215	0x3f7c0d08	0.98457384
216	0x3f7e4f8e	0.9934014
217	0x3f780cb6	0.96894395
218	0x3f803a50	1.0017796
219	0x3f79795d	0.9745081
220	0x3f79b3a2	0.9753972
221	0x3f8385de	1.0275228
222	0x3f7c9afc	0.9867399
223	0x3f743bd7	0.9540381
224	0x3f7f9088	0.9982991
225	0x3f794b3b	0.9738042
226	0x3f82e774	1.0226884
227	0x3f7a9f33	0.9789917
228	0x3f827ee9	1.019498
229	0x3f7d64a0	0.98981667
230	0x3f839909	1.0281078
231	0x3f79879e	0.9747256
232	0x3f81ae13	1.0131248
233	0x3f7ffec3	0.9999811
234	0x3f8156c2	1.0104601
235	0x3f774224	0.965853
236	0x3f789160	0.97096825
237	0x3f7fc555	0.9991048
238	0x3f811873	1.0085586
239	0x3f80f020	1.007328
240	0x3f7d4ee9	0.9894853
241	0x3f84c7d3	1.0373482
242	0x3f7e1d26	0.99263227
243	0x3f7c49d0	0.9855013
244	0x3f7f6b86	0.9977344
245	0x3f7d7065	0.98999625
246	0x3f7b576f	0.9818029
247	0x3f7e598d	0.99355394
248	0x3f8240c7	1.0176018
249	0x3f775ae6	0.96623075
250	0x3f779451	0.9671069
251	0x3f812bd2	1.0091498
252	0x3f80ec31	1.007208
253	0x3f7a8f0f	0.9787454
254	0x3f8109a4	1.0081067
255	0x3f7b1f14	0.98094296
