rl_energy_manager_20250325_1542/models/checkpoint_900/actor.pth (torch, 82676 bytes, 6 tensors)

layer1.weight f4 [128, 18]
00000000: 7593 b03e ffda ddbc ab1f 2abe 38a9 72be
00000010: 83d8 1cbe a5e7 4ebe 844c d6be 6b58 14be
00000020: c247 1f3d 5e11 31be 62ea 873e e904 7b3d
00000030: beae 893e db22 8e3d 12ef ce3d 2cbe 373e
00000040: 4d53 693e 7bac 253e 265a e1bd 8c16 763d
00000050: ee67 debd 6070 e2bc 5e0f c4bd 531c 203e
00000060: 8d85 3ebe c089 debd b44e 88bd 621f 11be
00000070: e83d b63c a762 6ebe 3ff9 593e e306 4dbe
00000080: f955 3a3e c4aa 203d a4bd 9cbd d925 153e
00000090: 6373 973e 2d5a e33d ff55 3abe 89ec fa3d
000000a0: 0209 7fbe f25a 19be 7e37 bfbd 1c54 cf3e
000000b0: a439 a53c fa07 d3bd aa71 6b3e 50de 163e
000000c0: ea04 953e 70ca 673c fa20 c6bc 42e2 1d3d
000000d0: 842d bebd a83c ac3e ba09 8b3d cef2 c73d
000000e0: 3eaa 983d 805b 86bb bfe3 3c3e 2a7d 2bbe
000000f0: 5026 733c c0bc 24be ded8 943d 563d a6bd
00000100: aae9 933d f423 49bd 692e 483e d40d 0fbe
00000110: 33f2 0fbe 6cf4 0fbe b716 593e cadd a03d
00000120: b925 9a3e e592 f6be 5e94 00bf 4e4d 883e
00000130: 350f c4be 7b5b 64be 2b4a 9bbe 599f 0b3f
00000140: 3f54 cbbe 9089 24be 77a2 f0bc 0d06 c2be
00000150: 00b8 56be dde2 2fbd 18c2 813e 3369 f4be
00000160: dfd8 c1be 653e 9a3d d71d 053d ea02 74bc
00000170: 8861 2e3e bc89 883d 9689 79be 8df3 d4bd
00000180: 9560 2c3e 0eff 24be 994d 02bd ac89 69be
00000190: af87 6cbe 75b3 a13d f66f 86bd 11c4 8bbe
000001a0: c388 90bd 620a c5be a9b4 a9be 7afb 53be
000001b0: 12de 6cbe e775 69bd b327 813e 11dd fa3e
000001c0: 5444 c83c d05a d7bd e166 13bb f0ba 043f
000001d0: 2d5d bf3d 8560 54be 5b09 6bbe 8fa2 37be
000001e0: f272 67be 6cb9 a23d 37b8 0d3e ac8c 8ebe
000001f0: 1fe6 84be 1e43 80be 0f4b f0bd 38e4 47be
00000200: 22fb 403e ce98 55be f445 463e b49f 833d
00000210: 05c6 55be e916 92be 9799 97bd da09 b9bd
00000220: 68b7 d5be 0481 e7be ce39 16be e4ae 12be
00000230: 5df2 333c a330 0fbf 06de afbd 4a42 a6be
00000240: 6bd9 0f3c 749a 2fbd 7c2c 21bd 01cc 2e3d
00000250: 5edc 123c 324b 86be edf5 3cbd af86 b4be
00000260: fe08 1cbe a8a7 34be e67d 853e dd57 b53b
00000270: febc 973e 0720 183d 483d bcbd 0e11 28bd
00000280: f804 c63e 82ef 6bbd bcdf 68be 3716 5bbe
00000290: 5438 b63d c4f8 dfbe 82ca f9bd 08a4 493e
000002a0: 59de 443d 2b2b 29bf 450c 02be a06b 38bc
000002b0: bd97 27be 5b79 d8be 9a2c c0be c926 1cbe
000002c0: fdb2 c3be 3af3 06bf 840f 1cbe c39d e4be
000002d0: 162f 1d3e 12ac 4cbc cba6 36bd cc47 3e3e
000002e0: fe07 3f3e 048e c93c a281 633d 58de 8fbd
000002f0: 99bd 51be 0891 ce3c 9c5f 7ebc 119f c3bc
00000300: e78a 983e bf52 ab3e 627b 57bd 3186 0f3e
00000310: b96e 563e ba13 40bc 141a 683d 1e46 873d
00000320: 4f37 5bbe 2824 b2bd 7141 4b3e 9a0b bc3d
00000330: f012 40bc 4d84 11be 2caa 13be 9533 58be
00000340: 1659 9dbd 1604 a33d 53e5 193e a6de de3d
00000350: 1359 55be f224 11be a85c 18bd 877a 693e
00000360: 5ca8 0b3d 1005 7abd 3ab5 c73d c4db b7bd
00000370: 9738 1cbe 392a 303e 2a7e dbbd b489 41bd
00000380: e61a 70be d988 213e addc 363e 02ed af3d
00000390: 224b 28be fa34 6ebe dc06 44be 47fb 333e
000003a0: 7ec1 e73d d31a 4b3e 071d 213d 2c58 743d
000003b0: 8044 17bb 5e65 21be 2fca 4ebe 42c1 61be
000003c0: 429b c53d 84f9 15be ec4b 42bd 48e7 0abe
000003d0: aef0 bebe 46ee 05bf 13a4 e4be bff2 33bd
000003e0: b2b2 76be 5f01 93be 578c d5be 5d50 86be
000003f0: e799 873c c2fd ffbd 7f22 b6bd f1a6 eabe
0.344875 -0.027081965 -0.16613643 -0.23697364 -0.15316968 -0.20205553 -0.41855252 -0.14486854
0.038886793 -0.17291781 0.26546007 0.06128398 0.2689113 0.06940242 0.10104193 0.17943639
0.22785683 0.16179077 -0.110035226 0.060080096 -0.10859667 -0.027641475 -0.095732436 0.15635805
-0.18605633 -0.108661175 -0.066556364 -0.14172128 0.022246316 -0.2327982 0.21286486 -0.20022158
0.18196858 0.039225355 -0.076533586 0.14565219 0.2958022 0.11101184 -0.18196867 0.12252147
-0.2490578 -0.14976099 -0.09336756 0.40493858 0.020169087 -0.10304256 0.22992578 0.14733243
0.29105312 0.014147386 -0.024185646 0.038545854 -0.09286025 0.33640027 0.067889646 0.09763108
0.07454346 -0.004100263 0.18446253 -0.16746965 0.014840677 -0.16087627 0.07267927 -0.08117168
0.07222302 -0.049106553 0.19548954 -0.13970119 -0.14057235 -0.14058083 0.21200071 0.07854803
0.30106905 -0.48158947 -0.5022639 0.2662148 -0.38292852 -0.22300522 -0.30330023 0.5454002
-0.39712712 -0.16068101 -0.029374344 -0.3789524 -0.20968628 -0.042940963 0.25343394 -0.4773651
-0.37860772 0.07531432 0.03249916 -0.014893273 0.17029393 0.06666896 -0.24368891 -0.10398016
0.16833718 -0.1611292 -0.031812284 -0.22806424 -0.23098634 0.07895557 -0.065643236 -0.27298024
-0.07057335 -0.38484484 -0.33145645 -0.207014 -0.23131588 -0.056997206 0.252256 0.48996785
0.024446644 -0.10515368 -0.002249174 0.51847744 0.09343944 -0.20739944 -0.22952788 -0.17933105
-0.22602442 0.07945523 0.13839804 -0.278417 -0.25956818 -0.25051206 -0.11733066 -0.19520652
0.188458 -0.20859072 0.19362622 0.06426945 -0.2087632 -0.28533104 -0.07402342 -0.09035082
-0.4174149 -0.4521562 -0.14670488 -0.14324528 0.010983077 -0.5593359 -0.085872695 -0.3247245
0.008779864 -0.042871907 -0.039349064 0.042675022 0.008963672 -0.26229244 -0.04613297 -0.35259005
-0.15237805 -0.17642081 0.26072615 0.0055341558 0.29636377 0.03713992 -0.09191376 -0.04103189
0.38675666 -0.05760146 -0.22741598 -0.21395193 0.088974625 -0.4374448 -0.121968284 0.19691479
0.04806361 -0.66081494 -0.12699993 -0.011256129 -0.16366477 -0.42280087 -0.37534028 -0.1524917
-0.38222495 -0.52714884 -0.15240294 -0.44651613 0.15349993 -0.012492197 -0.04459266 0.18582076
0.18655393 0.024603851 0.05554355 -0.070248306 -0.20482482 0.02521564 -0.015525725 -0.02387956
0.29793474 0.33461568 -0.0526079 0.14016034 0.20940675 -0.011723453 0.056665495 0.06605171
-0.21407817 -0.086983025 0.19849183 0.091819 -0.011723265 -0.14210625 -0.14420384 -0.21113427
-0.076830074 0.07959764 0.15028886 0.108823106 -0.2083476 -0.1417425 -0.03719774 0.22800647
0.034096107 -0.061039984 0.09751363 -0.08977464 -0.15255962 0.17203607 -0.10717423 -0.047250465
-0.23447761 0.1577486 0.17857619 0.085901275 -0.16434911 -0.23262396 -0.19143242 0.17576323
0.113162026 0.19834451 0.039334323 0.0596544 -0.00230816 -0.15761325 -0.20194314 -0.22046378
0.09648754 -0.14645964 -0.047435686 -0.1356479 -0.37293 -0.523167 -0.4465643 -0.043932673
-0.24091604 -0.28711984 -0.41708633 -0.26233187 0.016552879 -0.12499572 -0.08893298 -0.4583049

layer1.bias f4 [128]
00000000: 4790 1bbe 9a93 3fbe dd5a 9b3d 4036 44be
00000010: 93cd 87bd 9667 8c3e 119a 7b3e 7d94 25be
00000020: ee84 503e 5b6c 27be bb0f a83d 90ac 42be
00000030: 53b4 14be 04f6 8bbe 14e6 793b c8f0 5cbe
00000040: 5bb3 0dbe dc7f a93d 8097 803e 8830 933e
00000050: 5dce 4b3e f7e6 26be a4ba 163e fe38 6c3d
00000060: 1ec3 26be 9ae1 cdbd 0676 e8bc 8f93 8fbd
00000070: d9a3 64be bdc2 5a3e 9559 5e3e 4b34 89be
00000080: 32b8 243e 4827 1abe 92fe 3a3e a970 103e
00000090: a710 7b3e 4e56 c63d bf11 c7bd eaa3 adbd
000000a0: a96e cb3d a9c6 ee3d b834 443d 2f03 343e
000000b0: 27ff ee3b 27c3 303e 5596 dcbd 30ed 143e
000000c0: 5210 833c 5948 613e 7e47 86bd 3612 793e
000000d0: 6914 5d3e 5dde adbc 1460 eebc c495 f0bd
000000e0: 541a 903e 2e09 4fbe bc41 023e f16f 853c
000000f0: 7611 893e fefa bcbd 2356 443e 73d0 743e
00000100: aeb1 06be 1cd7 823e 0f48 723e 659d 4a3d
00000110: 2417 4abe 5381 843d 2fdb b1bd c2da 27be
00000120: 1cd4 5abe a781 883d 5fa0 23be 49ee 0b3e
00000130: 15b3 3cbe d98a 81bd 0228 60be fd6a 193e
00000140: 7805 303e 793d 233e dcf6 6f3e ee56 39be
00000150: 60c5 7d3d ea61 40be c69b 3abe 8e9e 503e
00000160: 4148 ff3d a2de 4fbe 148f 61be fb16 7bbe
00000170: d308 6f3e 36d5 093e 8fe8 f4bd b853 47bc
00000180: d8d2 e9bd 3c21 c2bd 42a3 c6bd aff0 ab3e
00000190: c0fd e13d 398f 1f3e 783f 6b3e 93bb 33be
000001a0: e3a1 44be f8f9 493d 5a45 08be 81e5 843d
000001b0: 4334 8e3e 0676 fcbd 5c6c 28be 9aa7 613e
000001c0: df9e 3ebe 79b8 4d3e 11fe 03be d512 973e
000001d0: 05ec 3fbe b6c7 1abe 7da1 663d fd7e b13d
000001e0: 8180 803e f894 893e d065 1a3d 7bd1 623e
000001f0: ae65 8a3e 2043 60bd 4d48 a6bc fb07 76be
-0.15191756 -0.1870865 0.0758569 -0.1916132 -0.06631007 0.2742278 0.2457049 -0.16169925
0.20363209 -0.16349928 0.08206125 -0.1901114 -0.14521913 -0.27336133 0.0038131522 -0.21576226
-0.1383795 0.0827634 0.25115585 0.28747964 0.1990294 -0.16299044 0.14719635 0.05767154
-0.16285369 -0.10052796 -0.02837659 -0.070105664 -0.22328128 0.2136335 0.2171386 -0.2679771
0.1608589 -0.15054047 0.18261173 0.14105476 0.24518071 0.0968443 -0.09720182 -0.0847853
0.09933216 0.11658985 0.04790184 0.1757934 0.0072936 0.17261945 -0.10770861 0.14543605
0.015998993 0.22000255 -0.06556605 0.24323353 0.21589817 -0.021224195 -0.029098548 -0.117473155
0.28145087 -0.20218346 0.12720388 0.01628873 0.26771134 -0.092275605 0.19173484 0.23907642
-0.13153717 0.2555474 0.236603 0.04946651 -0.1973539 0.06469979 -0.08684384 -0.16392043
-0.21369976 0.06665354 -0.15979145 0.13665117 -0.1842769 -0.06325311 -0.21890262 0.14982219
0.17189586 0.15941419 0.23434013 -0.18099567 0.06195581 -0.18787351 -0.18223485 0.20372984
0.12464953 -0.20299771 -0.22027236 -0.24520485 0.2334321 0.1346024 -0.119584195 -0.012165956
-0.114171684 -0.09478995 -0.09699108 0.33582065 0.11034727 0.15581979 0.2297343 -0.17552023
-0.1920238 0.049310654 -0.13307706 0.06489087 0.27774248 -0.12327199 -0.16447586 0.22036591
-0.18615292 0.20089902 -0.12889887 0.29506555 -0.18742378 -0.15115246 0.05630635 0.08666799
0.2509804 0.26871467 0.037694752 0.22150223 0.270307 -0.054751515 -0.020298148 -0.24026482

layer2.weight f4 [128, 128]
00000000: 0556 dbbc 6e17 783d dbb4 2a3e d38c 8e3d
00000010: 4630 063d 4578 713d 5038 bb3d 5421 a43d
00000020: 906a 8cbb d656 173e 09f9 c4ba ac2b b0bd
00000030: deac 003d 1e31 d83c 2569 28bb eaef 743d
00000040: d4ea 68bb 1cf8 55bd e603 953c 65de e23d
00000050: b8cd 913d 8b4e 9a3d 4398 73bd b85c 4fbc
00000060: 1b31 903d a33a 823d eeac 713d c763 95bc
00000070: fff9 8c3d 35ec a43c 34aa af3d dfe6 1c3e
00000080: e87c 223d 108e 9e3d fdef 053e 65e8 7bbd
00000090: e44b b53d c4f0 85bd c7d8 28bd 93d2 9dbd
000000a0: 6203 1e3d d102 473d 8356 c8bd 2072 07bd
000000b0: e42b cf3d 1c99 983c 8829 283d 1f4b 21bd
000000c0: df24 70bc db56 b73c 0bf4 123e fc35 41bd
000000d0: aec2 00bc b014 4a3c 48df b5bc 3afb 1a3e
000000e0: 5fee 5a3d 0066 523c cddc 8abd 89ea bd3d
000000f0: 953a 6c3d 2282 aa3d ad0f 84bc 588f b33c
00000100: 1dac e43c 8e12 833d 7e0e c23d e71a f93c
00000110: 758a 9f3d 3890 8ebb 2695 1cbc 8b38 b03c
00000120: 73d5 a9bd 7be9 7abd b807 db3c 7485 6b3d
00000130: 96be 9a3d 7c60 ad3a 4a69 77bd 61fc 763d
00000140: e798 55bd 71c4 a03d 8576 de3d e358 67bd
00000150: ce75 453d 3b66 d93d 0579 af3d 39d3 bdbc
00000160: 1219 af3d 7213 8ebd 143b 6bbd 2a7f 3e3e
00000170: b358 c33c 4d40 d13d 4084 0b3d ea17 d3bd
00000180: 538c a83d b6ec 4a3d c065 063c 70a9 c5bd
00000190: 25e0 f73c 2a8d afbd 9ed8 e83d c90e 033d
000001a0: 106f 983c 6784 853d 8700 053d f26e 1f3b
000001b0: 7a83 c43d a90b 783d e67f 5fbd 5314 983d
000001c0: 6df0 82bd b10e 023d 8a2f f0bc caaa 56bc
000001d0: ad7a b1bd edab a33d a37e dc3d 9ed7 b93b
000001e0: deff 083e 70fe a9bc 3e53 a73d c25a 7b3c
000001f0: 8dac d1bc ca58 123d 710b 4d3c cc04 203d
00000200: f8f6 a5bd 4e0f 7d3d 6424 c73d 9066 683c
00000210: 8f9b 16be 050f 5e3d 9257 d03b 34a5 4e3e
00000220: e37d e73c 363d 233e 326d 803b 9e9b 403d
00000230: 0025 8fba 5c8c e03d db1b d93d 79c8 88bd
00000240: 8ae5 36bd 7cd8 8fbc 7b7b e43c 6be5 e83c
00000250: 5682 143d 37cd 22bd 984a 5a3d 3801 78bd
00000260: a9b9 17bd 68ea 67bc a467 6fbd 2b4e f8bd
00000270: dffc a23d 0968 803d cf4a 3cbd 72bc 813d
00000280: 14e1 123e 3af4 9e3d 7e79 ac3d bbd9 b93d
00000290: 575c a93d 391c e03c 275d c43c 500d 43bc
000002a0: 3978 61bd e8e8 babc 1aa7 cfbd 938b 1e3e
000002b0: 4a2b c0bd 1e27 f93d 08d3 20ba 1438 2cba
000002c0: 9aa7 f83c ae7d 343d 85f4 e43d fc4f 233e
000002d0: 2bcf a43d 8e04 41be 2c6c 9cbd 566f f13d
000002e0: 4375 123e ae5c 2c3d c942 d03c 8550 14be
000002f0: d631 933c cc1b ea3d 8404 80bd 90d2 7d3c
00000300: e3bd 93bd 7de7 be3d ac25 dfbc 2d8c 1b3c
00000310: d680 543d b821 b4bd 6748 8a3d 4470 43bd
00000320: 4e98 3b3d d36c 9a3d 2698 08be e3d5 a8bd
00000330: 694d 12ba ffe2 0d3d b06d 10bc 69db 523d
00000340: d33f 4c3d e53f 813b ca6a bb3d 1a7d 0d3d
00000350: 83e5 ecbc 901a 9a3b 0b04 8abd d78a 723d
00000360: 7bdc b63d bcf9 c0bc 2f68 38bd c23b 233d
00000370: e593 353d b1a6 4bbd 123e 90bd 0aef 37bc
00000380: af35 aebc 3fbe 87bd 10b9 dc3b ca52 543d
00000390: 8279 5fbd 6050 873d d6e3 20bd 9940 d1bc
000003a0: 2090 34bb 2210 ddbd 94e4 a3bd 3f81 c73d
000003b0: 4e48 423d a7a7 18bd c098 40bb 8fdb 163e
000003c0: cd1b 3ebe f546 b5bb a66b 2bbd 69dc 3ebc
000003d0: 4057 47bb 7149 fbbd 42db a03d 335d a4bd
000003e0: c092 053e c08d b3bc cd99 cd3b a0d2 043e
000003f0: 30dd 5a3d 1579 a63d c0b8 c8bd 92c5 b7bd
-0.026774416 0.06056922 0.16670553 0.06960454 0.03276088 0.05895259 0.091416 0.08014169
-0.004285164 0.14779219 -0.0015027832 -0.0860208 0.03141486 0.026390608 -0.0025697437 0.059799112
-0.003554036 -0.05223857 0.018190335 0.11077575 0.07119316 0.07534512 -0.05947138 -0.012656383
0.07040616 0.0635884 0.05900281 -0.018236054 0.068836205 0.020132164 0.085773855 0.15322445
0.0396699 0.0774194 0.1307983 -0.061500926 0.088523656 -0.06540063 -0.04122236 -0.077061795
0.038577445 0.04858667 -0.09782126 -0.033067822 0.10115793 0.018627696 0.041055232 -0.03937828
-0.014657228 0.022380283 0.14350908 -0.047170624 -0.007858915 0.012334034 -0.022201195 0.15134898
0.053449985 0.0128417015 -0.06780396 0.0927325 0.057673056 0.08325602 -0.016120756 0.021918938
0.027914101 0.064000234 0.094754204 0.030408336 0.077900805 -0.0043506883 -0.009557044 0.021511337
-0.08292665 -0.06125782 0.026737079 0.057500318 0.07555883 0.0013227607 -0.060403146 0.06029928
-0.052147772 0.07849968 0.108624496 -0.056481253 0.04820805 0.10615202 0.085680045 -0.023172008
0.08549704 -0.06937303 -0.05742939 0.18603197 0.023846006 0.102173425 0.03406167 -0.103072956
0.0822989 0.04954215 0.00820297 -0.09651458 0.030258248 -0.08571847 0.113694414 0.031996522
0.018607646 0.06519394 0.032471206 0.0024327603 0.0959539 0.060557995 -0.054565333 0.074257515
-0.06393514 0.031752292 -0.029319543 -0.013102243 -0.08665977 0.079917766 0.107663415 0.0056714555
0.13378856 -0.020751208 0.08170174 0.015341463 -0.025594974 0.035729207 0.012514935 0.039067075
-0.08103746 0.061782174 0.09723738 0.014184609 -0.14707778 0.054213542 0.0063580954 0.20180207
0.02825827 0.15941319 0.003919267 0.047023408 -0.0010921061 0.109642714 0.10601016 -0.06678862
-0.0446525 -0.017559282 0.027890911 0.028429708 0.03625711 -0.03974649 0.053293794 -0.060548037
-0.037042294 -0.014155008 -0.05844845 -0.12124284 0.079583876 0.06269843 -0.04596978 0.06334771
0.14343673 0.07761426 0.0842161 0.09074732 0.082695656 0.027357208 0.0239702 -0.011905029
-0.055046294 -0.022816136 -0.10139294 0.15482931 -0.09383257 0.12165664 -0.0006134962 -0.00065696356
0.030353356 0.04406517 0.11179451 0.1594848 0.08047327 -0.18849394 -0.0763782 0.11788814
0.14302544 0.042080574 0.02542247 -0.14483841 0.0179681 0.11431083 -0.06250861 0.015492097
-0.072139524 0.09321497 -0.027239643 0.00949387 0.05188068 -0.08795494 0.06752091 -0.047714487
0.045799546 0.07540288 -0.1333929 -0.08243921 -0.0005580993 0.03464031 -0.008815214 0.051478777
0.049865555 0.0039443844 0.09151228 0.034543134 -0.028918033 0.0047028735 -0.067390524 0.05921444
0.08928772 -0.023556583 -0.045021232 0.03985191 0.044330496 -0.049719516 -0.07043089 -0.011226425
-0.021265833 -0.066280834 0.0067359284 0.051836766 -0.05455924 0.06607127 -0.03927978 -0.025543498
-0.0027551726 -0.10794093 -0.08002582 0.097414486 0.047432236 -0.03726926 -0.002938792 0.14732192
-0.18565293 -0.0055321404 -0.04185071 -0.01164923 -0.0030416995 -0.12269867 0.0785432 -0.08025589
0.13044262 -0.021918178 0.006274438 0.12970972 0.053433597 0.08128563 -0.09800863 -0.089732304

layer2.bias f4 [128]
00000000: bfd3 bb3d fb0a a33d b70f a43d c939 dcbc
00000010: 78e8 b13d cf99 773d 1e04 f53c 7349 303c
00000020: 0a1b b2bd 8ea5 aabd fa67 47bc fa7f 1b3d
00000030: 47f1 c43d e4ba cb3c 6883 bebc 2ba2 5bbd
00000040: def7 a0bd 02be febc a35f 2b3d 88d4 04bd
00000050: 1afd 32bd 8733 c83c 233b a1ba e61e d3bc
00000060: b67c f23b 9610 f53c 15b3 e3bc 0267 9e3d
00000070: dbc1 bd3b 6b2e 9ebd a6db 293d 2e50 bc3d
00000080: fe52 e33d b379 dd3c a0b3 233e c710 663c
00000090: 90c8 b9bb 08bc ae3c 4712 34bd 2b56 a6bc
000000a0: feed 263e eccd b5bb 2c54 93bd 0c09 213e
000000b0: 8372 9a3c fa5b b63d 31a4 a53c 7656 c03c
000000c0: 02b3 1a3d fb52 90bd 9b67 253d 14f6 193e
000000d0: c8ca 63bd 6f65 51bd d0f2 4d3d 96a9 75bc
000000e0: 2233 0a3d 87a0 5bbd fbdd ac3d 2986 8abd
000000f0: 9e6d 5ebd b53b 9fbd dd2d 883c 96c4 953d
00000100: 4bff 213d 6e86 8d3d 8b45 213d bc4a f33d
00000110: d858 c23c efa7 4e3d 283f 6c3c df73 af3d
00000120: ac6c 423d bf06 c43c 01df 223d 54eb b23d
00000130: 20cf 63bc 99c4 acbd 9df9 20bd 1b52 813d
00000140: 6556 3d3d c5e5 b53c fcc3 be3d 8c1c 513d
00000150: 682f 493e 70a5 4dbd 0167 46bc 0c71 55bc
00000160: 4f2c 833c d0cf 85bd f923 b23b 026d 3f3d
00000170: 61c0 e4bd c6dd 063e 0157 2d3c a2b3 a83c
00000180: 7a70 77bd 47f1 36bc 3ce3 3ebd 0c0a aabd
00000190: 4b89 4c3d 90fd 8f3d eb52 ac3d 8880 6dbc
000001a0: d936 abbd a1b1 1c3d cc81 a6bc 9d43 933c
000001b0: d1b9 02bd 6dac 56bd 49fb 7c3d 4dcc 38bd
000001c0: 33f2 4a3d 425a e03c 3d89 06bd 0e20 71bd
000001d0: 028c c7bd 01fd f83c 1fcb 013e dda0 033e
000001e0: 2cb0 a5bd fca0 e23d e1b7 8cbd e71a 9abd
000001f0: 5bf4 bbbd 550d 7e3d 3100 1f3c 6f10 bc3d
0.09171247 0.07961079 0.0801081 -0.026883023 0.08686918 0.060449418 0.02990919 0.010759699
-0.086965635 -0.08332358 -0.012170786 0.037963845 0.096163325 0.02486939 -0.023256019 -0.053621452
-0.07859777 -0.031096462 0.041839253 -0.032429248 -0.043698408 0.024438633 -0.0012300949 -0.02577157
0.0074001206 0.029915135 -0.027795354 0.07734491 0.0057909316 -0.07723697 0.04146924 0.091949806
0.11099814 0.02703557 0.1598649 0.014042086 -0.005669661 0.021329895 -0.043962743 -0.02030476
0.16301724 -0.0055482294 -0.07193789 0.15726107 0.018853432 0.08904262 0.020219894 0.023478728
0.03776837 -0.07047077 0.04038201 0.15035278 -0.05561331 -0.051122125 0.050280392 -0.014994046
0.03374017 -0.053619888 0.08440777 -0.0676387 -0.054303758 -0.0777506 0.016623432 0.073128864
0.039550107 0.06910406 0.039372962 0.11879489 0.023724005 0.050453123 0.0144193545 0.085670225
0.04746692 0.023928998 0.039763454 0.087362915 -0.013904363 -0.084359355 -0.03930055 0.063144885
0.04622497 0.02220429 0.09314725 0.051052615 0.1964699 -0.0502066 -0.012109519 -0.013027441
0.016012339 -0.06533778 0.005436417 0.046734817 -0.11169506 0.13170537 0.010579825 0.020593468
-0.06041 -0.011165923 -0.046603426 -0.083026975 0.04993562 0.07030785 0.08414253 -0.014495976
-0.08360071 0.038255338 -0.020325564 0.017976576 -0.03191549 -0.05241053 0.06176308 -0.04511671
0.049547385 0.027386788 -0.032845724 -0.05886846 -0.09743501 0.03039408 0.12675141 0.12854333
-0.08090243 0.110658616 -0.068710096 -0.075246625 -0.091774665 0.062024433 0.0097046355 0.09182822

layer3.weight f4 [9, 128]
00000000: 0503 a2bd 1c02 06be d9a9 ca3d 92b8 193e
00000010: 6f1b 6abe aa36 edbd bcd7 043d c4a0 16be
00000020: 7062 7c3c 61dc 2ebd 77c5 96bd c1b0 953e
00000030: a563 f23d d785 a33c dd31 9abd 1e2c febc
00000040: beef 143d c840 113e c070 45be 37aa fabd
00000050: d586 cfbd 3504 623d f7a5 fdbd 7335 413e
00000060: ce0f babd 1ba7 e2bc 9933 fcb8 57d1 d5bd
00000070: a9b4 b2bd 60ab 0a3d cf9c b43c 9137 d4bb
00000080: ed0b 85bd 210d c03c 04ac 67be c706 58bd
00000090: 4111 5abd 072d 3f3d d4ec d4bd f1d5 80be
000000a0: 506b 81be c19b 80bd 0c85 703d a796 b53d
000000b0: 07a8 f6bc 3b3f d1bd 7802 adbc e581 38bc
000000c0: 52a8 a6bd 680e 81bd 5791 87bd 07b4 c93e
000000d0: b657 383d c1cf b13d 7787 27bc a36f 72bd
000000e0: 8888 8dbd a716 09bd da37 413c 464f 04bd
000000f0: bc77 4d3c 5ffa af3d a3a5 b73e 362a 22bc
00000100: 5668 093d 6faf 8abd 2347 a0bd 6fc9 1abd
00000110: 2206 e43d 62b6 f2bd e310 5e3e 3593 37be
00000120: 1444 333c 2c20 013e a4d9 21be 3fa5 1dbe
00000130: bbd0 f0bc a92e 9bbd 084b 03bd a330 f4bd
00000140: a227 6cbd a346 2bbe 636d af3e 328c 26be
00000150: 1337 90be 791f b43d 8622 edbc a9c5 60bd
00000160: e65a a3bd 00e0 f1bd d587 2ebd dae8 5f3c
00000170: 3aa6 483e 9c66 23bd 33a5 6fbd 94c6 44be
00000180: fe5c 61bc a95a 83bd a64c 2d3d ea48 e6bc
00000190: 55ee 30bd 6d89 23be b2bd e83d b16a 823d
000001a0: 5c29 84bd 901e 1fbe 9a74 293e d319 423d
000001b0: 4801 38be 8f66 863c 49fb 3ebe 996d c9bd
000001c0: a89f 85be b2f5 403d cc78 923d d652 b03b
000001d0: 3e30 a0bd bc8e 2b3d 1daa 2c3d 21ef 713e
000001e0: aad9 a23d 126c afbd 7c5f 69bd 6804 633d
000001f0: 8678 a3bd 89dd 0bbd 6760 643d 2efa 07be
00000200: 2106 50bc ac78 033c beee 99bd e5d1 feb9
00000210: 9b9d 0cbe 7d4d eabc 32ab 6a3d 9150 f03c
00000220: 32dd 5b3d a84b c83d 973d fa3b 1ed3 f73d
00000230: 82a8 bebd a63b d43d 58ca 84bd be0d 5c3d
00000240: 89f3 f6ba eaae d9bd a295 8e3d fe0e 963d
00000250: e9f8 0abd 5df7 963d aef8 173d 1179 47bd
00000260: 9833 b5bc 2218 213d ff11 52bc 185d 87bd
00000270: dcd9 aebd 1d95 52bd 0a7e 3abd 2e85 563c
00000280: 042d 423d a869 6abc f88c 2abd daef 0b3d
00000290: 109c 9bbc 19a2 823c debc 223e 5a34 17bd
000002a0: 4587 2e3e 3b3c 3a3b 196f 6abd be52 6a3d
000002b0: 732e f2b9 2db7 023e f8ff 0ebe a2e8 083d
000002c0: 27f2 53be 5c9c 533d cc5c a7bd 7496 ddbe
000002d0: cb81 fd3d b4d5 0a3d b940 1e3d 2e48 3ebd
000002e0: d0c4 17be 1eba 143d 136b 33bd 2400 163d
000002f0: d978 9a3d 58e3 33bc ed28 18bd d700 b93d
00000300: e8ec a4bd 8425 083e 2d47 ccbd 8d5c 033e
00000310: f5d5 4a3d 9e06 5ebd c369 23be 3a71 143e
00000320: 10c4 463d ecbb 203e 129b aebe 652c 803e
00000330: 504b f6bc 6da2 7cbd d7f9 1fbd 1246 983c
00000340: db62 363d 1861 0cbd 0845 b1be 5fd7 133c
00000350: 6c30 98be 8e30 90bd 66b7 ae3c d2bc 6f3d
00000360: 484b 0abd c3f2 9a3d 1792 60be fa4a debc
00000370: e2be 2c3e 3370 003e 3af5 0fbd 23c2 0d3e
00000380: 53c8 ff3d 2ccc 5a3d bcdd 803e eb46 173b
00000390: b2c6 33bd e9e9 1d3d a877 2dbe 40ec 39bb
000003a0: e4d0 a6bd f121 97bc 9903 16be 2078 b23d
000003b0: 5486 ab3a 9949 73bd ce17 a03b 1007 90bb
000003c0: 23eb 18be ade1 43bd 9038 703c bb6f 2cbd
000003d0: ebcf 05bd d88f 2fbd 9210 72be f770 34bd
000003e0: 2dc9 c9bb 376b 493e bb15 603d 0463 88bd
000003f0: 5c50 883d 1149 df3d 0696 b9bd de9e 0f3e
-0.07910732 -0.13086742 0.09895677 0.15011814 -0.22862028 -0.11582692 0.032432303 -0.14709765
0.015404329 -0.04269064 -0.07361882 0.29236415 0.11835412 0.01996128 -0.07529042 -0.031026896
0.03636145 0.14184868 -0.19281292 -0.12239497 -0.10133139 0.055179793 -0.12385171 0.18868046
-0.09085046 -0.027667573 -0.00012025907 -0.10440319 -0.087258644 0.033854842 0.022047428 -0.0064763506
-0.06496415 0.02344376 -0.22624213 -0.05274084 -0.05323911 0.0466738 -0.10396734 -0.25163224
-0.25277185 -0.06279708 0.058720633 0.08866625 -0.030109419 -0.102171384 -0.021119341 -0.011261438
-0.08137573 -0.06301576 -0.06619518 0.39395162 0.045005523 0.08682204 -0.010225168 -0.059188496
-0.06910807 -0.03346887 0.011793101 -0.032302164 0.012540754 0.08592676 0.35868558 -0.009897759
0.033546768 -0.067717426 -0.07826068 -0.03778976 0.11133982 -0.11851193 0.2168613 -0.17927249
0.010941524 0.12609929 -0.1580568 -0.15395068 -0.029396405 -0.07577259 -0.032053977 -0.11923339
-0.057654984 -0.16726165 0.34263143 -0.16264418 -0.28167018 0.087950654 -0.028947126 -0.054876003
-0.07976322 -0.11810303 -0.04261001 0.013666356 0.1959466 -0.039892778 -0.058507156 -0.19216377
-0.013755081 -0.064137764 0.042309426 -0.02811094 -0.04319604 -0.15970393 0.113643065 0.06368006
-0.06453201 -0.15539002 0.16548386 0.04738791 -0.17969239 0.016406326 -0.18650545 -0.09835357
-0.2609837 0.047109313 0.071519464 0.0053809686 -0.078217015 0.04188417 0.04215442 0.23626377
0.079516724 -0.08565535 -0.056975827 0.055424124 -0.079819724 -0.03414682 0.055756 -0.1327903
-0.012696774 0.008024376 -0.075162396 -0.0004860304 -0.13731997 -0.028601402 0.05729217 0.029335292
0.053677745 0.09780055 0.0076367366 0.12100814 -0.09309484 0.103629395 -0.064839065 0.053724043
-0.001884089 -0.10629065 0.06962134 0.07327078 -0.033928785 0.073713996 0.037102394 -0.048699442
-0.022119328 0.039329655 -0.012821673 -0.06609553 -0.08537647 -0.051411737 -0.045530356 0.013093276
0.04740621 -0.014307417 -0.041638345 0.034164287 -0.018995315 0.015946435 0.1589236 -0.03691516
0.17043789 0.0028417248 -0.057234857 0.057207815 -0.00046192444 0.12765189 -0.13964832 0.03342498
-0.20697843 0.051662788 -0.081719965 -0.4327885 0.12378272 0.03389521 0.038635943 -0.046455555
-0.14821172 0.036310308 -0.043803286 0.036621228 0.07542581 -0.010979496 -0.037148405 0.09033363
-0.08052999 0.13295561 -0.09974513 0.12828274 0.04952045 -0.05420553 -0.15958314 0.14496318
0.048526824 0.15696687 -0.34102684 0.2503387 -0.030065209 -0.06167834 -0.039056625 0.0185881
0.04452787 -0.034272283 -0.3462298 0.009023516 -0.29724443 -0.07040511 0.021327686 0.058529682
-0.0337632 0.075658344 -0.21930729 -0.027135361 0.16869691 0.125428 -0.035145976 0.13843589
0.12489381 0.05341737 0.2516917 0.0023083042 -0.043890662 0.038553152 -0.16940176 -0.0028369576
-0.081453115 -0.018448802 -0.1464981 0.08714318 0.0013086298 -0.05939636 0.0048856502 -0.004395373
-0.14933448 -0.047822643 0.014661923 -0.042098742 -0.03266899 -0.04286179 -0.23639134 -0.044053044
-0.006158015 0.19669805 0.054708224 -0.06659511 0.06655952 0.10902608 -0.09061818 0.14025447

layer3.bias f4 [9]
00000000: 827e 853b dab5 ba3c 1f43 65bd 5b1b 21bb
00000010: 6d85 92ba e1be 39bc e4d8 273d a25e 08bd
00000020: a3a4 40bc
0.004073919 0.022791792 -0.055972215 -0.0024582956 -0.001117868 -0.011337013 0.040978327 -0.033293374
-0.011758002
