rl_energy_manager_20250325_1542/models/checkpoint_900/critic.pth (torch, 165410 bytes, 10 tensors)

layer1_1.weight f4 [128, 27]
000000 b5 df 98 3d 47 8a e1 bc 57 c9 0f 3e f5 68 89 bc
       0.07464544 -0.027531756 0.14041649 -0.01677368
000010 20 5b 21 be 3b 21 9f bd d1 c9 0f 3e 34 ca 15 be
       -0.15757418 -0.0777001 0.1404183 -0.14627916
000020 38 b9 21 bd ec 11 70 3d e0 83 19 3e 56 4a 3f 3e
       -0.03948328 0.05861084 0.14991713 0.186807
000030 a3 3d c7 3d 80 12 3d bd 03 eb 21 3e 0e 57 a0 bd
       0.09728553 -0.04616022 0.15812306 -0.07829104
000040 34 ea b7 3d bd b3 15 3d 54 13 ff bd 58 98 1d 3e
       0.089802176 0.036548365 -0.124548584 0.15390146
000050 d7 b6 bb bc 36 4c 95 3c 01 36 9b 3d d2 ef 12 3e
       -0.022914333 0.018224817 0.0757866 0.14349297
000060 b8 53 8a bd aa 6c 8d 3d e8 a6 41 3e c4 a7 3e 3e
       -0.06754249 0.06905492 0.18911326 0.18618685
000070 06 dd 13 3b af 10 83 3d d4 8f ce bd d7 69 25 bc
       0.002256216 0.063996665 -0.10086027 -0.010096035
000080 71 26 43 be 49 b8 51 bd 8b 8f 96 3d 76 20 e5 bd
       -0.19057633 -0.05120114 0.073515974 -0.11187832
000090 c0 33 b9 bd 31 fc 9a bd 4f 38 bf bd aa 54 85 bd
       -0.09043074 -0.07567633 -0.09336912 -0.06510289
0000a0 37 6a 74 3d f1 d5 66 bd 60 d4 67 3e 4e 82 77 bd
       0.059671607 -0.056356374 0.22639608 -0.060427003
0000b0 0f 79 d8 bd 46 75 95 3d a3 a4 21 3e 6f 16 08 be
       -0.10569965 0.07297759 0.1578546 -0.13289808
0000c0 23 fe 17 be 3d 99 e7 3b cc 49 67 bd 75 32 88 3d
       -0.14843039 0.007067828 -0.056466863 0.06650249
0000d0 94 9e 6b 3d 4b bd 16 be 11 6b d0 3e 26 c6 80 bd
       0.05752428 -0.14720647 0.40706685 -0.06287794
0000e0 03 91 15 bd 71 e1 bc 3e 12 81 1e be 5d 64 da 3d
       -0.036515247 0.36890748 -0.15478924 0.10663674
0000f0 6d 4d 0c be 53 b9 84 3c 19 80 4e bd 3f ef d9 bd
       -0.1370141 0.01620165 -0.050415132 -0.10641336
000100 3f 83 90 3a be ea bd 3d b8 1a 65 be de eb 86 bd
       0.0011025443 0.09273289 -0.22373474 -0.06587957
000110 37 0f c5 3c 6f 0a 88 3d 00 35 52 be 48 da f3 3d
       0.024055107 0.06642615 -0.2052803 0.11906868
000120 7d 80 4b 3d d8 af 1a be 43 17 13 be 42 6f 81 bd
       0.049683083 -0.15106142 -0.14364342 -0.06320049
000130 c6 93 f2 bd 0b 0d c8 3d af e4 95 3d f6 b6 37 be
       -0.11844592 0.09768113 0.073190086 -0.17940888
000140 88 5d 3e 3d 8d 03 4a 3d fe 2a 9c 3c 93 26 c7 bd
       0.046475917 0.049319793 0.019063469 -0.09724154
000150 1c 1e 0e 3e e5 f0 d0 3c 07 9f 10 be fb 8d aa bd
       0.13878673 0.025505492 -0.14123164 -0.08327862
000160 c5 f0 8c 3d c9 02 0e 3d e7 bc 2d 3e a1 ed ee bd
       0.06881861 0.034670625 0.16966592 -0.11666418
000170 64 c4 99 bd 29 f7 8a be fa f3 5c 3d 75 1f e8 bd
       -0.07508162 -0.27141693 0.05394361 -0.11334125
000180 b2 f7 c8 be a8 ac e8 3b ed 3d 31 bd 7f 14 27 3e
       -0.39251477 0.0071006604 -0.043271948 0.16316412
000190 f5 80 80 3c 54 16 12 3e 5c 09 b8 bd 74 b6 a8 bd
       0.015686492 0.1426633 -0.0898616 -0.08237925
0001a0 f2 e5 dc bd 67 29 7f be b1 d4 3a 3d 00 a3 3a 3d
       -0.10786046 -0.24918137 0.045612995 0.045565605
0001b0 ae 29 75 3e 8a fa 59 3a cb 52 06 be a5 86 ba 3d
       0.23941681 0.00083152263 -0.1311752 0.09107713
0001c0 37 ee de bd 9b 81 ee bd 37 80 d5 3d bf 6a 15 3e
       -0.108852796 -0.11645814 0.10424846 0.14591502
0001d0 13 53 f1 3c b2 7c e3 3d 8e e9 f3 3d a0 d7 d6 bd
       0.029458558 0.11107768 0.119097814 -0.10490346
0001e0 5a fe 29 bd ef ae 61 3e e3 a6 55 bd 91 bb 0e bc
       -0.041502334 0.22039388 -0.05216111 -0.0087117115
0001f0 09 70 3f 3d 16 c6 e1 3d f5 f0 ee 3d 65 d8 bd bd
       0.046737704 0.1102411 0.11667053 -0.092697896
000200 9d 15 79 3d 54 79 e7 bc ff ff 18 be b8 3a a5 bd
       0.060811628 -0.028256096 -0.14941405 -0.0806784
000210 3e f0 32 bd f9 34 4b be 49 d6 35 3d 75 64 5c bd
       -0.043686144 -0.19844426 0.04439381 -0.05380674
000220 1b 5d 9e bd 3a 08 54 3d 96 4e 5e bd eb 59 f0 3d
       -0.07732602 0.051765658 -0.054274164 0.117359005
000230 ab eb b0 3c dc fa 83 bd fd c2 1d 3e f8 73 84 bd
       0.02159675 -0.06444332 0.15406413 -0.06467432
000240 b3 ae 27 3e 61 88 ca 3a 7d b1 2d 3e 80 2c 1c 3e
       0.16375236 0.0015452021 0.16962238 0.1525135
000250 49 fb 8e bd 45 fb cd bc f2 97 cb ba 97 24 b2 3d
       -0.069815226 -0.025144229 -0.0015532954 0.08698385
000260 df d2 02 bd 3a 50 c8 bc 54 76 ab 3a 9b 7a 92 bd
       -0.031939384 -0.024452318 0.0013081529 -0.071522914
000270 6a 36 30 3e 69 49 18 3e 17 c5 e8 bd 2b 65 58 3e
       0.17208257 0.14871754 -0.11365717 0.21132343
000280 b3 8a 05 3e 01 f5 08 be 2e 65 b9 3d ce 1f ef bd
       0.13041191 -0.13374712 0.090525016 -0.11675988
000290 49 0b e6 bd 18 ce 2b 3e 18 76 ea 3c fa e9 7f bd
       -0.11232621 0.16777837 0.028620765 -0.062478997
0002a0 9a e2 5d bd bd aa 62 bc 48 a9 8e bd 46 ab a0 3d
       -0.054171182 -0.0138346525 -0.069658816 0.07845168
0002b0 46 77 b0 3d fc ff 95 3d 0f dd cf bc 36 c9 a9 bd
       0.086164996 0.07324216 -0.025373964 -0.08290331
0002c0 43 00 12 bd 05 50 9c 3d 1f 67 bd bd 65 b7 1c 3e
       -0.03564478 0.0763245 -0.092481844 0.15304334
0002d0 37 53 87 bd af 4e b4 bd 27 b1 e9 3c 9a 39 57 be
       -0.06607669 -0.0880407 0.028526856 -0.21018067
0002e0 75 7f 6a 3e e0 a4 07 3e 25 b9 2f be a3 61 13 be
       0.22900183 0.13246489 -0.17160471 -0.14392714
0002f0 54 f7 47 3e 90 82 e9 bd d1 59 8e bd 79 25 ad bd
       0.19527942 -0.11401856 -0.06950725 -0.08454413
000300 a5 ae d4 bd 05 50 77 3d 2e a7 cb 3d ff 8b 94 3d
       -0.10384873 0.060379047 0.09943996 0.07253265
000310 85 4e 4b bd 5f 92 e8 3d 72 74 10 be 75 de a1 bc
       -0.04963543 0.11356043 -0.1410692 -0.019759396
000320 f8 7f 4f 3d a3 65 8f 3c 6a e1 ba 3b dd 58 9c bd
       0.05065915 0.017504519 0.005703141 -0.07634137
000330 8a 1e 54 3d 1b a7 79 3d d0 37 5a be ec ed 46 be
       0.051786937 0.06095038 -0.21310353 -0.19426697
000340 0c 28 4e be 13 86 b7 3c 46 c1 8c 3c 55 f5 21 be
       -0.20132464 0.022402799 0.017182004 -0.15816243
000350 2e d5 15 be 56 47 1e be e3 90 99 3c 74 63 9e 3c
       -0.14632103 -0.154569 0.018745845 0.019334532
000360 98 27 21 3e df 7a 27 3e 41 72 d6 bd 1b 46 4b 3e
       0.1573776 0.16355465 -0.10471011 0.19850962
000370 e8 f9 33 3d 1b 32 00 be d3 84 cb bd 20 96 ee 3d
       0.0439395 -0.12519114 -0.099374436 0.11649728
000380 db 83 e9 bc 37 f1 09 be 85 fe eb 3d 6a 25 4a be
       -0.028505256 -0.13470922 0.11523155 -0.19740835
000390 a6 c9 54 be 91 0c 0f 3d 65 55 c4 3d c5 21 7c 3d
       -0.20780048 0.034924094 0.095866 0.061555643
0003a0 d0 80 06 3e ec 66 51 3e f6 e5 51 be 5d 59 87 3d
       0.13135076 0.20449418 -0.2049788 0.066088416
0003b0 4d 60 db 3c d2 dd 9d bc 50 ac 2b 3e 77 8b 45 bd
       0.026779318 -0.019270811 0.16764951 -0.048228707
0003c0 62 2f ec 3d 62 53 0b 3e 27 05 e4 3d 30 e9 0f 3e
       0.11532475 0.13606027 0.11133795 0.14053798
0003d0 23 66 41 3e 4c 65 39 3e 27 a7 80 bc af ba 05 be
       0.18886618 0.18105048 -0.015704704 -0.13059495
0003e0 da c8 26 3c ad 1a 2b 3e df 37 3f 3e 9d 0e 52 3e
       0.010179723 0.16709395 0.18673657 0.20513387
0003f0 26 d8 ec 3d 67 79 2c 3d e7 6b 2a 3e 4c a9 50 3e
       0.115646645 0.042107966 0.16642724 0.20377082

layer1_1.bias f4 [128]
000000 2a ff 01 3f 7f 1c d4 3e c5 19 2d 3d 42 ce 9a 3e
       0.50779974 0.4142799 0.042260904 0.30235487
000010 5e 39 b3 3e fe 96 02 3f 30 8a aa 3e 7e c5 6f be
       0.35004705 0.51011646 0.33308554 -0.23415181
000020 56 17 49 be 4d e1 94 3e 1d 9e 04 3f 85 9d fd 3e
       -0.19637808 0.2907814 0.5180376 0.4953424
000030 35 c6 9e 3e ad 4d 0a 3f 67 1b dc 3e 89 51 ff 3e
       0.31010595 0.54024774 0.42989656 0.49866894
000040 88 0c df 3e d8 5a 47 be 26 91 4e 3e b0 b4 99 3e
       0.43564248 -0.19468248 0.20172557 0.30020666
000050 f2 45 e0 3e 3c 61 f2 3e c9 2f 9a 3e 5e 42 a7 3d
       0.43803364 0.4733981 0.30114582 0.081669554
000060 52 01 d6 3e c8 ff f9 3e 01 7b ba 3e 0b 4d ea 3e
       0.41797882 0.48827958 0.3642197 0.45761904
000070 f6 e4 01 3f eb 4a c1 3e 52 57 92 3e ee 6c 7a 3e
       0.5073999 0.3775247 0.28582245 0.24455616
000080 04 76 c3 3e f7 1f e3 3e ac d2 c6 3e 50 70 a1 3e
       0.38175976 0.44360325 0.38832605 0.31531
000090 a9 a0 bb 3e 3b 34 fa bd 42 26 fa 3e 92 d1 94 3e
       0.3664601 -0.122169934 0.48857313 0.2906614
0000a0 ee 48 ce 3e 02 46 ee 3e f8 6f 60 3b d1 4e dc 3e
       0.40290016 0.46537787 0.0034246426 0.43028882
0000b0 04 10 ad 3e 8e ef ae 3e 23 2a d1 3e d2 ae b0 3e
       0.3380128 0.3416714 0.4085246 0.34508377
0000c0 0c 3a f6 3e 66 cf 05 3f 37 46 dd 3e ed 06 9e 3e
       0.4809116 0.5226959 0.43217632 0.3086466
0000d0 94 f5 da 3e fd 3d c6 3e 2a d1 e3 3e ee 34 08 be
       0.42765486 0.38719168 0.44495517 -0.13301441
0000e0 94 6e 42 bc 4d a3 dd 3e b9 74 c1 3e 7b 01 cd 3e
       -0.011867184 0.4328865 0.37784365 0.40040192
0000f0 0c 23 06 3f 5c 6c b2 3e 59 3d 07 3f dc f9 1e be
       0.5239723 0.34848297 0.52827984 -0.15525001
000100 ee bd ee 3e b4 13 b1 3e d4 97 ae 3e ab d1 83 3e
       0.4662928 0.34585345 0.3410021 0.257459
000110 b7 f0 e5 3e 05 fe ac 3e 8d 76 b3 3e d4 0e ee 3e
       0.44910213 0.33787552 0.35051385 0.46495688
000120 9d b1 d1 3e ef 75 c5 3e 79 bc f6 3e 28 44 fe 3e
       0.4095582 0.3856654 0.48190668 0.49661374
000130 da 7b f7 3e 45 31 15 be 88 f2 00 3f 70 6e e6 3e
       0.4833668 -0.14569576 0.50370073 0.45006132
000140 33 19 80 3e 34 90 9f 3e 20 98 02 3f f2 2f f4 3e
       0.25019225 0.31164706 0.51013374 0.4769283
000150 2f d7 f8 3e 70 0d b8 3e 9f 3c cd 3e 92 11 a1 3e
       0.48601672 0.35947752 0.40085313 0.31458718
000160 f2 22 9e 3e ef 19 d8 3e c7 64 a0 3e d2 7f c8 bd
       0.30886036 0.42207286 0.31326887 -0.09790005
000170 c7 0d bf 3e 41 29 c8 3e dd 39 e5 3e 1c d8 f3 3e
       0.373152 0.39093974 0.4477071 0.47625816
000180 99 58 95 3e 69 ce d1 3e 19 9f 61 3d 78 05 af 3e
       0.29169157 0.4097779 0.055083368 0.3418386
000190 28 93 c3 3e 19 0c ce 3e b1 2d 0f 3f fb 84 a4 3e
       0.3819821 0.40243605 0.55929095 0.32132706
0001a0 bb 36 d1 3e c3 62 0a 3f 98 8f cc 3e 07 3b db 3e
       0.4086207 0.5405695 0.39953303 0.42818472
0001b0 ee 06 87 3e 8a 9d 2b 3e e4 b7 04 3f 90 fc ed 3e
       0.26372474 0.16759315 0.51843095 0.46481752
0001c0 35 fb 93 3e 55 9b d5 3e 0a e7 d2 3e 92 66 dc 3e
       0.28902593 0.4172007 0.41191894 0.43047005
0001d0 83 2a b8 3e 9f 4e 85 bd b5 d1 ea 3e d2 f4 d2 3e
       0.35969934 -0.065091364 0.4586312 0.41202408
0001e0 3d b1 c1 3e 73 e2 be 3e 0a f5 0f be cc a5 9d 3e
       0.37830535 0.37282142 -0.14058319 0.30790555
0001f0 6f 72 78 3e ab 29 ee 3e cd 0c d4 3e 08 51 f9 3e
       0.24262403 0.46516165 0.41416016 0.48694634

layer2_1.weight f4 [128, 128]
000000 0f 6a 88 3c 0b 7d 3d 3c 4c 2d a2 bd 0f 65 1b bd
       0.016652135 0.011565457 -0.07918796 -0.037938174
000010 8b fe e9 bc fc 7d 18 3d fc 39 90 bd c8 3a 36 3c
       -0.028563758 0.037229523 -0.0704231 0.011122413
000020 e3 c6 7a bd dc a1 89 bd a9 bb 62 bd ab c8 9a bd
       -0.06122483 -0.06720325 -0.055354748 -0.07557806
000030 4b 99 8c bd b0 74 25 bb 61 d9 ac bd c8 23 1e bd
       -0.06865176 -0.0025246553 -0.08439899 -0.038608342
000040 8f 14 88 bd 87 74 a3 3d 3f 73 86 3d ce 3e 72 3d
       -0.06644546 0.0798121 0.0656495 0.059141926
000050 29 5e 34 bd 4c 42 8f 3d 50 26 d7 3c a4 dc 26 bd
       -0.04403511 0.06995067 0.026263386 -0.040737763
000060 f7 32 96 3d cd b8 86 bd 62 43 a1 bd ac 6b 8f 3d
       0.073339395 -0.06578217 -0.078741804 0.07002959
000070 36 25 88 3d cc 5b 10 bd 80 28 be bc b6 36 39 3d
       0.066477224 -0.035243794 -0.023212671 0.045218192
000080 44 5b ae bd c5 3e 95 3d 8a ed a6 3d 0b ae 8d 3d
       -0.08513501 0.07287363 0.08150776 0.06917962
000090 70 9d 82 bc 4a 6b 22 3d c0 5a 66 bd d7 7d 2f bd
       -0.015944213 0.0396531 -0.05623889 -0.04284462
0000a0 85 83 8b bc 65 b4 73 3c ea db b1 bd 60 c2 25 3a
       -0.017030487 0.014874552 -0.086845234 0.00063232146
0000b0 b6 60 87 bd c7 ec 59 bd f9 4b af 3c 32 2a 33 3d
       -0.06610243 -0.053204324 0.021398531 0.043741412
0000c0 6d 59 91 bc 20 b4 fd bb 02 42 95 3d c2 fd 17 3d
       -0.017742837 -0.00774242 0.072879806 0.037107237
0000d0 37 9e 31 bd 44 8e 78 3d 89 9e a2 bd b2 fc 18 3d
       -0.043363776 0.06068255 -0.079403944 0.037350364
0000e0 02 07 1b 3d aa 77 a2 bd 60 43 32 3b 6a 24 a5 bd
       0.03784848 -0.0793298 0.0027200803 -0.08063586
0000f0 e9 45 8f bd 17 01 a5 3d 50 cd fb 3c 78 62 cd 3c
       -0.06995756 0.080568485 0.030737549 0.025071368
000100 20 57 8f 3d 78 d1 86 3c 90 1d 98 bc 4f ff 20 bd
       0.0699904 0.016457304 -0.018568784 -0.03930598
000110 9e 24 3d 3d 41 30 35 3d 5b 2f a1 bd 34 2f 54 3d
       0.0461775 0.04423547 -0.078703605 0.05180283
000120 aa e0 9e bd ed d0 92 3d 9a b5 fd bc dc 32 ce 3c
       -0.07757695 0.07168756 -0.030970383 0.025170736
000130 d2 ce 2e 3d 90 63 83 3c e6 e8 06 bd c4 1e a7 3d
       0.042677708 0.016038686 -0.032936953 0.08160165
000140 13 51 81 3d 6e ed 44 3d f1 b0 82 bd 39 98 b5 3b
       0.06314292 0.048077993 -0.06381405 0.005541828
000150 33 fe 97 3d ec 07 48 bd 78 ff f0 3c 78 bd 72 3c
       0.074215315 -0.04883568 0.029418692 0.014815681
000160 90 8c b4 bd d4 4d 54 3d 00 76 7e 3b 80 4e 8e bc
       -0.08815873 0.051832035 0.0038827658 -0.017371416
000170 af 56 4c 3d 3d 11 1b bd bb 91 08 3d 58 6f 00 3d
       0.049887355 -0.037858237 0.033342104 0.031356186
000180 22 8f b0 bd e7 1a a3 bc a0 dd e8 3b 51 fa e1 bc
       -0.086210504 -0.019910289 0.007106498 -0.02758518
000190 c1 0f 87 3d 64 9f 05 bd 1a 1c 5e 3d 79 c5 db 3c
       0.06594802 -0.03262271 0.05422602 0.02682756
0001a0 60 03 88 bd 38 c5 b3 bd 1b 8e 02 3d b3 c5 db b9
       -0.06641269 -0.08777851 0.031873804 -0.00041918232
0001b0 a4 c9 08 bd 54 91 bb bd 54 bd a1 bd e8 9f 62 bd
       -0.033395424 -0.091585785 -0.078974396 -0.05532828
0001c0 86 04 b3 bc 8c eb 9b 3d ec 1b a4 bd 19 01 e2 bc
       -0.021852743 0.076132864 -0.08013138 -0.027588414
0001d0 7a 89 5e 3d e1 df 7c bd fa c0 77 3d 27 8e 46 bc
       0.054330327 -0.061736945 0.06048677 -0.012118853
0001e0 89 d2 b0 bb 36 0b a2 bd 85 24 b3 bd d4 ce 0d bb
       -0.0053961915 -0.079122946 -0.087472 -0.0021638172
0001f0 22 e3 1c bd 32 b9 a1 bd 97 a6 4a bd bf 38 50 3d
       -0.03830255 -0.07896651 -0.04947528 0.050835367
000200 5a d3 8c 3e 3e 92 3c 3e 88 96 9d 3c ec 29 f9 3d
       0.27504998 0.18415162 0.019236818 0.12166199
000210 35 4f 2a 3e 8e 1e c4 3e c9 84 6c 3e 79 a5 a3 3c
       0.16631778 0.3830456 0.23097529 0.019976364
000220 ac 94 0a be 0b 82 28 3e a1 1d 8f 3e a9 fd 28 3e
       -0.13533276 0.16455857 0.27952293 0.16503014
000230 f3 f2 9c 3d 3d 50 84 3e 31 41 b1 3e af 4e 98 3e
       0.076635264 0.25842467 0.3462005 0.2974753
000240 2b 91 db 3e 58 81 12 be c2 7a b7 3d e1 e0 38 3e
       0.42884192 -0.14307153 0.08958961 0.18054534
000250 64 3a ab 3e fc 87 fa 3e 7c eb 0e 3e e1 6a 74 3d
       0.33442986 0.48931873 0.13957018 0.05967224
000260 ca 43 83 3e 27 7f 68 3e 6f 20 63 3e 9c f3 b4 3e
       0.25637656 0.22704755 0.22180341 0.3534211
000270 b8 82 31 3e 4d 17 6f 3e c6 01 b2 3d 23 56 b5 3d
       0.17335021 0.23348732 0.086917445 0.0885432
000280 47 e2 c0 3e 48 db 2e 3e a9 d0 d1 3e 27 7e 8f 3e
       0.37672636 0.17075837 0.40979508 0.28025934
000290 41 1f 89 3e 1f 96 41 bd c9 c0 94 3e fc 02 09 3e
       0.26781657 -0.047262307 0.29053333 0.13380045
0002a0 84 a2 a7 3e 09 a8 8b 3e 2a 8a f8 3d da a6 8e 3e
       0.32741177 0.27276638 0.12135728 0.27861673
0002b0 7c 43 81 3e 9e b4 91 3e e7 8f 8d 3e 64 5a 00 3e
       0.252468 0.28458112 0.2764885 0.12534481
0002c0 ba 67 09 3f 46 b6 ee 3e 3a 33 32 3e df 97 89 3e
       0.536739 0.4662344 0.17402354 0.2687368
0002d0 9e 54 59 3e 46 30 41 3e 6c 1b 3f 3e 14 4f 1e be
       0.21223685 0.18866071 0.18662804 -0.15459853
0002e0 55 46 02 3e 97 2a 5e 3e 53 7f 5a 3e 6d 7e 82 3e
       0.12722142 0.21695934 0.21337633 0.2548708
0002f0 18 47 20 3f 31 6c 24 3e dc 61 df 3e 98 49 31 bc
       0.6260848 0.16056897 0.43629348 -0.010820769
000300 d9 64 8d 3e b3 8c a5 3e 0d bd 64 3e d5 5a 2c 3e
       0.27616003 0.32333907 0.22337742 0.16831525
000310 44 f6 c3 3e 74 56 08 3e 44 62 a5 3e 7c 95 ba 3e
       0.38273823 0.13314229 0.32301533 0.36442173
000320 53 d4 a4 3e 12 cc 8a 3e 58 f1 68 3e a6 f0 e0 3e
       0.3219324 0.27108818 0.22748315 0.439336
000330 54 a9 0d 3f 9f 22 ff 3b df a4 cb 3e 89 91 ae 3e
       0.553365 0.0077861096 0.39774224 0.3409541
000340 59 dd ef 3d 22 2e 50 3e a3 58 22 3e 25 af a0 3e
       0.117121406 0.20330098 0.15854125 0.31383625
000350 67 5c 8c 3e ce f3 a1 3e 22 2b 86 3e 54 e3 05 3e
       0.27414247 0.3163132 0.26204783 0.13075
000360 2c 49 12 3e 3d 90 cd 3e 59 50 d1 3d 9e e3 8b bd
       0.14285725 0.40149108 0.10220403 -0.06830524
000370 17 21 ae 3d a7 b2 34 3e 92 53 18 3f 87 e1 9d 3e
       0.08502405 0.17646275 0.5950252 0.30836126
000380 43 f4 b4 3e 07 de e1 3e 4c 5a 17 bc 22 2b 32 3e
       0.35342607 0.44114706 -0.009237837 0.17399266
000390 1b 1e a7 3e c1 da 9d 3e d3 25 1f 3f 1b f8 9a 3e
       0.32640156 0.30830958 0.6216709 0.30267414
0003a0 f1 df 81 3e 82 7d db 3e b4 fc be 3e d7 57 8e 3e
       0.25366166 0.42869192 0.37302172 0.2780139
0003b0 9c f9 83 3e e1 09 c3 3d 5a 09 7f 3e e9 37 3c 3e
       0.25776374 0.095233686 0.24905911 0.18380703
0003c0 97 b5 fc 3d 82 4c b5 3e f7 17 c1 3e 42 15 66 3e
       0.12339323 0.35409933 0.37713596 0.22469047
0003d0 ee 2e 5e 3e 73 52 9d bd 83 49 88 3e 8a 96 aa 3e
       0.2169759 -0.076817416 0.26618585 0.33317977
0003e0 0b 1a 4d 3e e2 25 8d 3e 73 e1 b5 3b 31 0a 24 3e
       0.20029466 0.27567965 0.0055505573 0.16019513
0003f0 fa 33 03 3e 8d 29 ca 3e 69 e0 a5 3e bb 01 b9 3e
       0.12812796 0.39484826 0.32397774 0.36134133

layer2_1.bias f4 [128]
000000 ae a6 fb bc 3c d8 ab 3e 8c b5 6f bc b3 3f 25 3d
       -0.030719128 0.3356341 -0.0146306865 0.04034395
000010 87 7d 44 3e de 59 9a 3c 41 cf b1 bd f5 ad d5 3e
       0.1918851 0.01884168 -0.08682109 0.4173428
000020 26 41 2b 3d 38 26 22 3e 80 e5 6b 3e d5 b1 12 3f
       0.041810177 0.15834892 0.23036766 0.573026
000030 06 9a 38 3e c1 5c 8f 3d 59 4f 31 3e 28 30 f3 3e
       0.18027505 0.07000113 0.17315425 0.47497678
000040 fa e0 3d 3e 5f ef 8e 3e 75 ea 27 bd 7b aa 8b be
       0.18542853 0.27917 -0.04099508 -0.27278504
000050 61 54 ea bc b3 a7 a4 3e 8e 83 3e bc da 7d 94 3e
       -0.028604688 0.32159194 -0.011628045 0.29002267
000060 c5 5e 95 3e 69 29 cb bb 73 1c 8e 3e 58 c5 93 3d
       0.29173866 -0.006200005 0.2775608 0.07215375
000070 9b 3f 52 3d e3 23 94 3e ef c2 a2 bd e3 2c 1e 3e
       0.05133019 0.2893363 -0.07947337 0.1544681
000080 16 53 44 3e 99 09 5b 3c 50 e5 85 be 7b 5b 4c 3e
       0.1917232 0.0133689875 -0.26151514 0.19956772
000090 68 b4 c7 3c 31 8f c6 3b 40 54 2a ba ef 4a 92 3e
       0.024378017 0.00605955 -0.00064975396 0.28572795
0000a0 76 c1 1d bd 22 37 cc 3c 13 37 57 3e 94 48 fd bd
       -0.038514577 0.024928633 0.21017103 -0.12367359
0000b0 fa ed 12 be 74 b6 98 3e 6d b0 99 3e 29 3d 9c 3e
       -0.14348593 0.298267 0.30017415 0.30515411
0000c0 ef ec 1a 3e b1 c8 24 3d 4b 9f 23 3e 66 70 4f 3e
       0.15129445 0.040230457 0.15978734 0.2025772
0000d0 85 8d 7b 3e 34 5e 77 bc a6 33 9a bd 14 c8 7f 3e
       0.24565704 -0.015098143 -0.075293824 0.24978667
0000e0 5d 0e 65 3e c4 52 17 bd 3e bf 1c 3d fe 95 01 3c
       0.2236876 -0.036944166 0.03826832 0.007909296
0000f0 4a dd 01 3f 9d 9a 7b be e4 94 76 3e 6f 07 5d 3e
       0.50728285 -0.24570699 0.24080235 0.21584867
000100 34 b9 45 3e b7 48 91 3e b6 c4 92 3e b8 5b 65 bc
       0.1930893 0.2837579 0.28665704 -0.013998918
000110 92 c9 80 bd 1d 3d 8e 3e 60 ad 9e bd 17 0e 21 3e
       -0.062884465 0.27781 -0.077479124 0.15728031
000120 a0 ea b4 3e 20 15 a8 3e f4 d3 a3 bd 1f 1a 9f 3e
       0.35335255 0.32828617 -0.07999411 0.31074616
000130 fa ea 33 3e c9 81 75 3e cf 62 47 3c 1f 2c 75 3d
       0.17570105 0.2397529 0.012169554 0.05985653
000140 d2 40 8a 3e 5c 36 4c 3d ce fe a1 3e b1 de 92 3e
       0.2700258 0.04985653 0.31639713 0.28685525
000150 96 6e 5b 3e c8 6c 77 3e c5 33 87 3e 1b f5 a2 3e
       0.21428904 0.2416259 0.26406685 0.31827626
000160 3e 75 3c 3d 97 4f 8a 3e 63 cc a4 3e f8 c4 91 3e
       0.04601025 0.27013847 0.32187185 0.28470588
000170 b0 9c 29 3d df 7e d4 bc 75 e7 1b bd 6f f9 52 bc
       0.041409194 -0.025939403 -0.03806253 -0.012876852
000180 3a c3 70 3e a4 bc ab bd 8c ea 84 3e 25 f7 46 3e
       0.23511973 -0.0838559 0.25960195 0.19430216
000190 32 b4 25 3e c7 b6 61 bd 7a fd a1 3c 77 9d 97 be
       0.1618202 -0.05510595 0.019774187 -0.29612324
0001a0 a4 ce 42 3e ef 38 f3 bc 4b 42 3e 3e cd 16 5b 3e
       0.1902414 -0.029690234 0.18579976 0.21395417
0001b0 d6 d9 2d 3e cf ca 2f bd fd 40 25 be ed 98 6b 3e
       0.16977629 -0.042918023 -0.16138072 0.23007555
0001c0 ba 00 a2 3e 34 ef 7c 3e 64 c0 97 3e 1e 97 14 3c
       0.3164118 0.24700624 0.2963897 0.009069232
0001d0 6a 5f 77 3d 39 4d 95 3d e3 6b b5 bd 99 23 55 3e
       0.06039373 0.0729012 -0.088584684 0.2081436
0001e0 c0 48 27 bd 8f 01 c7 3e b4 e8 a5 bd 7c 67 6e 3e
       -0.040840864 0.38868377 -0.08101025 0.23281664
0001f0 a6 4d 26 3e 48 c4 89 bd d4 3c 89 3e e5 29 4e 3e
       0.16240558 -0.06726891 0.2680422 0.20133169

layer3_1.weight f4 [1, 128]
000000 02 d6 34 3b 63 e2 95 be 38 fa 87 3d 80 8f b6 3e
       0.002759338 -0.29274282 0.06639522 0.35656357
000010 f4 c3 ad be dd aa 99 3d c0 35 01 3d 79 fa 26 bf
       -0.33938563 0.07503293 0.0315454 -0.6522594
000020 2f 13 4a 3d 47 2c 99 be a2 fc ad be d9 fb 0c bf
       0.0493347 -0.29916593 -0.33981806 -0.5507179
000030 48 f3 cc be 0f fe e2 3c df 7d a5 be c4 81 20 bf
       -0.4002936 0.027709035 -0.32322595 -0.62698007
000040 25 c1 be be 7e 82 fb be 1b 88 8a 3d 94 03 11 3f
       -0.37256733 -0.49122995 0.06764241 0.56646085
000050 71 38 28 3c 19 3e 9b be 43 02 2b 3d 09 2d 9f be
       0.010267363 -0.30320814 0.041750204 -0.31089047
000060 1d a7 9f be 35 64 0f 3d a2 a0 a8 be 5c aa 46 3d
       -0.31182185 0.035007674 -0.32935053 0.04850231
000070 49 f0 ce 3c 2a 38 a5 be 3c 1c 9a bc c9 b4 b6 be
       0.025261061 -0.32269412 -0.018812291 -0.35684803
000080 b7 df b6 be a4 05 87 3c 5b ed 20 3f 30 cd 9e be
       -0.35717556 0.016482182 0.62862176 -0.3101592
000090 2c 58 9d 3d 97 0c 5f 3c 0b 59 8a 3d ff c6 a3 be
       0.07682833 0.0136138415 0.06755265 -0.3198776
0000a0 2a f6 28 3d 8a 05 f2 3c 29 aa cd be 45 12 a9 3e
       0.041250385 0.029543657 -0.40168884 0.3302175
0000b0 b5 78 e7 3e 1a 1c 9e be 67 3a 96 be 38 95 93 be
       0.4520928 -0.30880815 -0.29341432 -0.28824782
0000c0 1e 5b 9f be 3d bd 9f 3d 09 2b c3 be fc 51 b4 be
       -0.31124204 0.07799766 -0.3811877 -0.352188
0000d0 2d 4f 99 be 70 da 60 3d 79 e1 23 3b bd 82 98 be
       -0.2994322 0.05489582 0.0025006218 -0.29787245
0000e0 5d 1f b3 be ec ef 8d 3c 62 18 19 3d 7a c0 5e 3d
       -0.34984866 0.017326318 0.03737677 0.05438278
0000f0 99 86 20 bf bb 4d 20 3f 2a 4f 95 be 7e aa 9e be
       -0.6270538 0.6261861 -0.2916196 -0.3098945
000100 b9 5c ba be da 5d b6 be e8 2b a4 be 1e 6c 14 bd
       -0.36398867 -0.35618478 -0.32064748 -0.03623592
000110 b9 c9 ab bd c0 23 94 be af cc 86 3e 3c 27 c3 be
       -0.08388085 -0.28933525 0.26328036 -0.3811587
000120 63 5c 95 be f1 89 e8 be 7a 99 75 3d d3 3f 93 be
       -0.29172048 -0.4541774 0.05996082 -0.28759632
000130 c6 31 b9 be 44 35 a9 be 96 35 fb 3c b1 76 56 3d
       -0.36170787 -0.3304845 0.0306652 0.052359287
000140 1a 7b a7 be 53 52 6c 3c 7c be 93 be d3 31 94 be
       -0.32711107 0.0144239245 -0.28856266 -0.28944263
000150 18 98 b4 be d5 11 b0 be 18 48 96 be f2 19 e6 be
       -0.35272288 -0.34388605 -0.29351878 -0.4494167
000160 bd 62 27 3d a1 86 96 be 18 4a 8d be e6 82 93 be
       0.04086565 -0.2939959 -0.27595592 -0.28810805
000170 97 68 8c 3d 60 66 7f 3c b9 5e 8a 3d 13 e0 51 3d
       0.068558864 0.015588373 0.06756348 0.051239084
000180 15 ef a4 be 0e 06 53 3d a2 75 96 be 47 ca ac be
       -0.32213655 0.051519446 -0.29386622 -0.33748075
000190 7a 76 c1 be 6f 71 95 3d fd 47 01 3d 1c 87 18 3f
       -0.37785703 0.07297026 0.031562794 0.5958116
0001a0 9d ed b5 be 85 54 b4 3e 60 5a 9e be 09 41 a2 be
       -0.35532847 0.35220733 -0.30928326 -0.31690243
0001b0 69 5e b5 be a1 c7 50 3d 3a d2 00 3f 3f 5a ab be
       -0.35423592 0.05097163 0.5032078 -0.3346729
0001c0 ce 87 95 be 03 f5 a5 be c3 73 a3 be f1 c2 8d 3d
       -0.29205173 -0.32413492 -0.31924257 0.06921948
0001d0 30 07 df 3c 5f ec 35 3d 67 ee 23 3d 48 14 92 be
       0.027225107 0.044414874 0.04002228 -0.28531098
0001e0 68 f6 3c 3d ad 0a a2 be 67 a0 84 3d 97 40 b1 be
       0.04613343 -0.3164877 0.06475907 -0.3461959
0001f0 7e 09 bc be fd 8b b8 3b f8 cd a1 be 52 1d 9e be
       -0.36725992 0.0056319223 -0.31602454 -0.30881745

layer1_2.weight f4 [128, 27]
000000 58 22 ab 3d 5a d8 f7 bd 3f 9a 9b bd 2f 7a 26 3e
       0.0835616 -0.12101813 -0.075977795 0.16257547
000010 74 67 43 3e d2 72 3e be 1e 32 d0 3d 42 36 74 3d
       0.19082433 -0.18598488 0.10165809 0.059622057
000020 c5 33 91 bd 60 8e f5 3c 83 26 05 3e f7 74 a5 3d
       -0.070899524 0.029975116 0.13002972 0.0807895
000030 b2 25 91 bc 2e 91 ca bd 5f f6 3a 3e f0 4b 21 3e
       -0.01771817 -0.09890972 0.18258046 0.15751624
000040 1a 79 1e bc 38 2e f9 3c 7f 62 88 bd b1 fa c6 bd
       -0.009672428 0.030417547 -0.06659412 -0.09715784
000050 b6 cf 05 be 65 ba 6f ba aa b3 94 3d 95 96 07 3d
       -0.13067517 -0.00091449014 0.07260831 0.03310259
000060 f2 f5 0d be 4b 64 8a bc b4 59 51 be c0 e6 a9 bc
       -0.13863352 -0.016893527 -0.20444375 -0.020739913
000070 50 1d d6 3d 85 c7 de bd 44 d0 ee 3c 06 dd 09 3e
       0.1045481 -0.10877899 0.029152043 0.1346322
000080 66 69 d8 3d bd c9 b6 bd f9 b1 da 3d a8 c7 9c bd
       0.10566978 -0.08925197 0.10678477 -0.07655269
000090 67 a9 03 be 1e 8e bc bd 75 97 fc 3d be f4 71 3e
       -0.1285759 -0.09206794 0.12333576 0.23628518
0000a0 74 0b b8 3d e7 d0 11 be 67 6d d8 3c 64 e0 2b be
       0.089865595 -0.14239846 0.026419355 -0.16784817
0000b0 91 3d 9b 3d 2c cd 40 be 18 e5 90 3d a5 6e 40 3d
       0.07580102 -0.18828267 0.07074946 0.04698052
0000c0 16 f1 70 be 48 4f ef bd c2 69 50 be 20 44 ea 3d
       -0.23529467 -0.116850436 -0.20352843 0.11438775
0000d0 46 b6 4b bd b7 2e d2 bc b4 19 bb 3d 6f 1e d6 3d
       -0.049734376 -0.025657041 0.09135762 0.104550235
0000e0 95 18 28 3e ca 02 f7 bd 5d ce 24 bd 7c b3 44 3e
       0.16415627 -0.12061079 -0.040235866 0.19209093
0000f0 b5 99 de 3d c0 f4 05 3e ea 50 55 3e 64 66 6e 3d
       0.10869161 0.13081646 0.20831648 0.058203116
000100 f6 43 17 3e 63 26 4e 3e 3f ec 80 3d f2 6d 70 bd
       0.14772019 0.20131831 0.0629506 -0.058698602
000110 ad 2d 0b be ec b1 00 3c 40 9c 23 be df a9 0b be
       -0.13591643 0.00785492 -0.15977573 -0.1363902
000120 0f 37 26 3e f4 37 73 3e a3 17 a1 3d 8a 6b 28 3e
       0.1623194 0.23751813 0.078658365 0.16447273
000130 c0 f2 36 3e f5 ed 42 3e fc ac 3e 3d 3e b3 db 3d
       0.1786604 0.19036086 0.04655169 0.10727547
000140 c0 ad 4f 3e 43 fc ec 3c d1 70 82 bc 17 0c b1 bd
       0.20281124 0.028928882 -0.015922936 -0.08644884
000150 89 99 3c bd 0c 57 35 bd 59 82 37 be 12 b9 0b be
       -0.04604486 -0.044272467 -0.17920817 -0.13644817
000160 6a 7e 70 bd b7 5a 19 3e c0 b4 81 bd 9e ef 2e 3e
       -0.058714308 0.14976011 -0.063333035 0.17083594
000170 d9 8a e6 bd f1 b8 95 3d d1 29 1a 3e 86 b9 5a 3d
       -0.11256952 0.073106654 0.15055014 0.053399585
000180 49 74 b0 3c d7 24 05 3e 2e 06 dc 3c 2a a7 3d be
       0.021539824 0.13002335 0.026858415 -0.185208
000190 33 f7 6f 3e 8e 11 0e be a9 e3 54 be 6b 32 86 bd
       0.23434143 -0.13873884 -0.2078997 -0.06552585
0001a0 1e 01 23 be 24 e6 4e 3c 8d 13 2b 3d 0f 0d 34 bd
       -0.15918395 0.012628112 0.041766692 -0.043957766
0001b0 ea 2e 8e 3d ba 1a 16 be 35 89 44 bd fd db d7 3c
       0.06942542 -0.14658633 -0.047982413 0.026350016
0001c0 e3 6a c0 3d 6f e9 a1 3c 17 25 26 be d9 69 6c 3e
       0.09395387 0.01976463 -0.16225086 0.23087253
0001d0 f9 41 1b be 35 37 39 3e 42 fb 46 be 38 96 21 be
       -0.15161885 0.18087466 -0.19431785 -0.1577996
0001e0 96 61 f4 bd b7 3e 02 3e c9 f1 e8 bd d8 a2 86 36
       -0.119326755 0.12719236 -0.11374242 4.0124687e-06
0001f0 4e 07 a4 bd f7 de 24 be 25 90 4e 3d b3 18 04 be
       -0.08009206 -0.1610068 0.050430436 -0.12900047
000200 67 05 c1 3c 97 2b ce 3d 9e 34 1d be c4 c4 b3 3c
       0.023562146 0.10066908 -0.15352103 0.021944411
000210 48 9f 06 be 4b 1b cf 3c 4f af 39 3e 96 e8 e1 3d
       -0.13146698 0.025281569 0.18133281 0.1103069
000220 96 72 52 3c 8d 47 2d be 05 fa bc bc 58 be e1 bc
       0.012844702 -0.16921826 -0.023068437 -0.027556583
000230 11 3d 50 3d 1b 9f 09 be 3d 36 d3 3d 81 0e 3b 3e
       0.050839487 -0.134396 0.103130795 0.18267252
000240 97 72 d4 bd 87 f0 21 3e 0c 1e 0c be 7c fd 33 3e
       -0.10373419 0.1581441 -0.13683337 0.17577165
000250 3a 18 38 3e f7 b8 19 3e 6c 7f 4d 3e 72 b6 48 3d
       0.17977992 0.15011965 0.20068139 0.04900212
000260 2f 59 f8 bd af 97 23 bc cb ac 50 3e af a8 0e 3e
       -0.121263854 -0.009984895 0.20378415 0.13931535
000270 15 b4 9c bc 95 e8 20 be a9 ca 8d 3c ab 29 ad bc
       -0.019128839 -0.15713723 0.01730855 -0.021138033
000280 70 1a 35 3e 51 b7 e4 bd 6a 7b 9d bd 75 47 2d bd
       0.17685866 -0.11167777 -0.07689555 -0.042304475
000290 3d cb a4 bd 30 4d bb bc f4 33 03 3d 9b 75 6f bc
       -0.08046577 -0.022863954 0.03203197 -0.014615442
0002a0 dd df 10 3e 93 26 06 be 7b 47 fa 3d 10 13 de 3c
       0.14147897 -0.13100652 0.12220665 0.0271087
0002b0 be f2 bf bd 95 39 01 3e ee fc 6c 3e 51 39 77 bd
       -0.09372471 0.12619622 0.2314336 -0.060357396
0002c0 7b e3 91 3d 50 f2 22 3e ec 7d 91 bd d3 bf 96 3d
       0.071234666 0.15912747 -0.07104096 0.07360806
0002d0 df f1 10 3d c6 17 9a bd b3 26 0a 3e 58 33 8b bd
       0.035386916 -0.07524066 0.13491325 -0.067969024
0002e0 1d 1a 0c be 2f 4f 23 3d 92 32 05 be d0 5b 70 bd
       -0.13681836 0.039870437 -0.13007572 -0.05868131
0002f0 fb b3 ca 3d 7b 46 03 3f 8b f7 c3 bd be f4 e9 3c
       0.0989761 0.5127942 -0.095686994 0.028559085
000300 90 f3 39 3f fa 19 8e bd e0 74 96 3d f6 4c 5a 3e
       0.7263727 -0.069385484 0.07346511 0.21318421
000310 01 46 cc be 9e 72 28 3e 00 fb 18 3a 96 30 24 be
       -0.3989716 0.16449973 0.0005835742 -0.16034159
000320 02 b3 82 be 2b b3 e0 be f3 59 c3 be cd 92 2c be
       -0.25527197 -0.43886694 -0.38154563 -0.16852875
000330 2e 3f 0c be 51 86 fd bc 7f fd 95 be 9d 04 0e 3e
       -0.13695976 -0.030947836 -0.29294965 0.13868947
000340 72 39 5f bd 68 84 97 3e c2 f9 11 be 34 92 44 3d
       -0.054498143 0.29593205 -0.14255431 0.047990993
000350 e8 07 4d be 80 63 a5 3e 31 93 3e be b4 0f 8b 3e
       -0.20022547 0.32302475 -0.18610837 0.27160418
000360 a9 f0 d9 be 4d 2d 1a 3e 7c 6f bb 3d 0c e9 c0 bd
       -0.42566422 0.15056343 0.09152123 -0.0941945
000370 72 84 a2 3a 32 04 66 3e 56 d4 ac bd 8c 46 46 3e
       0.0012399091 0.22462538 -0.08438937 0.19362849
000380 42 72 46 3e b6 c6 d1 3d dc 99 37 be 23 ed a0 3d
       0.19379523 0.10242979 -0.17929786 0.0785773
000390 ab d3 9e bd 72 30 02 bb 48 2c aa 3d 69 a1 22 3c
       -0.07755216 -0.0019865301 0.08309227 0.0099261785
0003a0 98 62 7b 3c d2 46 79 bd 3a 31 9c bd fa b5 81 bd
       0.015343331 -0.060858555 -0.07626577 -0.063335374
0003b0 a7 f9 b5 3d 0f 3b bb bd a9 9d dc bd c0 58 9f bd
       0.08885508 -0.09142124 -0.10772259 -0.077805996
0003c0 56 d4 3a bd 3a a9 b8 bd 4a 3b 43 bd d3 a6 8d 3c
       -0.045612656 -0.090166524 -0.047663964 0.017291462
0003d0 2f f8 c1 3d 7a f2 56 3d 8c e4 dd 3d 07 21 3e 3e
       0.094711654 0.052477337 0.108346075 0.18567286
0003e0 02 da b7 3d 9a 80 33 be df 83 07 be 83 06 b0 bc
       0.089771286 -0.17529526 -0.13233899 -0.02148748
0003f0 30 fc 7b 3c 92 9e c6 3d 61 c3 5c be 20 e8 05 3e
       0.01537995 0.09698214 -0.21558906 0.1307683

layer1_2.bias f4 [128]
000000 8f 36 f5 3e bb 2d cb 3e 14 b6 bf 3e 9f 44 bf 3e
       0.47893187 0.39683327 0.37443602 0.3735704
000010 a7 6c df 3e 22 6d ae 3e f1 2a a7 3e 0e fa 19 3f
       0.43637583 0.34067637 0.3264995 0.6014718
000020 44 52 65 be e3 ae ec 3e 04 a1 c9 3e 12 86 ba 3e
       -0.22394663 0.46227178 0.39380658 0.36430413
000030 58 08 0c 3f 7c 6f d9 3e ee d7 b7 3e 9d a6 fc 3e
       0.5470023 0.42467868 0.3590693 0.49345866
000040 36 d7 bb 3e 51 a8 dc 3e a0 16 0d 3f 6f d9 da 3e
       0.3668763 0.43097165 0.5511265 0.42744014
000050 c4 4b b2 3e 85 68 c3 3e b3 64 9b 3e e0 62 ee 3e
       0.3482343 0.3816568 0.30350265 0.4655981
000060 08 70 c7 3e 32 5c f5 3e 50 6f dd 3e 09 5a dc 3e
       0.3895266 0.47921902 0.43248987 0.4303744
000070 dc cb fb 3e 0f 69 d2 3e 9e c0 f4 3e 66 c2 eb 3d
       0.4917897 0.41095778 0.47803205 0.11511688
000080 5a b1 c1 3e 6f 35 fd 3e 43 5a da 3e 32 55 01 3f
       0.3783062 0.4945483 0.4264699 0.5052062
000090 b0 f6 da 3e 1b fe 02 3f 9b 93 d9 3e b5 11 f4 3e
       0.42766333 0.51168984 0.42495427 0.4766976
0000a0 70 e8 56 3e 09 c4 dc 3e 5d fc c6 3e b7 98 e5 3e
       0.20987105 0.43118313 0.38864413 0.44843075
0000b0 42 10 bb 3e f6 0b 02 3f ce a8 fd 3e d2 ea b7 3e
       0.3653584 0.507995 0.4954285 0.3592134
0000c0 9d f8 e5 3e 30 e8 02 3f 53 79 01 3f 5f 62 03 3f
       0.4491624 0.5113554 0.5057575 0.5132198
0000d0 d3 90 de 3e 1a 25 ec 3e ec 78 d4 3e 2a fe b3 3e
       0.43469867 0.46122056 0.41498506 0.3515485
0000e0 cd a4 9d 3e aa 6d f8 3e a4 b8 f4 3e ae be 76 be
       0.30789796 0.48521167 0.4779712 -0.24096176
0000f0 1e 47 c0 3e 2a 67 0b 3f 85 96 0a 3f 1d 2c 91 3e
       0.37554258 0.5445429 0.54135925 0.28353968
000100 99 8e fa 3e 16 e9 ed 3e 2c 81 d4 3e df a9 f3 3e
       0.48936918 0.46466893 0.415048 0.4759054
000110 fb fd f2 3e 7f c6 f2 3e be cc 79 3c b1 1e fa 3e
       0.47459397 0.47417066 0.015246568 0.4885154
000120 1f 0e ce 3e a1 08 f3 3e 88 9d 05 3f 43 40 d2 3e
       0.4024515 0.4746752 0.521935 0.41064653
000130 97 e1 de 3e c7 d4 e0 3e 83 f0 b0 3e 07 ee b7 3e
       0.43531486 0.43912336 0.34558496 0.35923788
000140 f5 98 01 3f bd 1c d9 3e 15 56 e9 3e 62 c1 af 3e
       0.5062402 0.42404738 0.45573488 0.34327227
000150 ca af d7 3e 97 73 02 3f a8 67 0e 3f 3d 68 01 3f
       0.42126304 0.50957626 0.55626917 0.5054968
000160 50 e9 fd 3e 38 1a ec 3e 27 08 20 3c bb 72 6f bc
       0.49592066 0.46113753 0.009767569 -0.014614756
000170 b8 f9 e9 3e e3 a1 a5 3e bf c9 a9 3e 9e 44 ea 3e
       0.45698333 0.32350072 0.33161733 0.45755476
000180 0c 6a d9 3e 11 9f fa 3e f7 f9 ea 3e c4 c8 f9 3e
       0.4246372 0.48949483 0.45893833 0.48785985
000190 e0 c8 bb 3e ff 44 00 3f 1e b8 cb 3e 39 e1 ed 3e
       0.36676693 0.5010528 0.39788908 0.46460894
0001a0 66 d7 ff 3e a9 a2 c9 3e f6 52 b1 3e 63 d3 f6 3e
       0.49969023 0.39381912 0.34633607 0.4820815
0001b0 a0 64 eb 3e 1d b7 ee 3e 3a 9a 60 3e 7d 55 f4 3e
       0.45975208 0.4662408 0.21933833 0.47721472
0001c0 5a 04 c2 3e 81 fb e2 3e 62 4e cb 3e 9a d2 fa 3e
       0.37893945 0.44332507 0.3970824 0.489888
0001d0 fd 35 d9 3e 8a e1 ed 3e 3f eb fc 3e 8c 84 11 3f
       0.42424002 0.46461135 0.4939823 0.56842875
0001e0 d4 af bc bd 95 6c df 3e 5b 85 cd 3e af 79 e0 3e
       -0.09213224 0.4363753 0.40140805 0.43842837
0001f0 d8 7a ea 3e 94 82 02 3f 04 7a ba 3e ae 42 df 3e
       0.45796847 0.50980496 0.36421216 0.4360556

layer2_2.weight f4 [128, 128]
000000 d9 9e 45 3e 12 15 bd 3e 65 1e a8 3e f4 cc 84 3e
       0.19298877 0.36930138 0.3283569 0.25937617
000010 6a 60 87 3e 0c cf 4a 3e a5 24 86 3e cf 9c 4b 3e
       0.26440746 0.19805545 0.26199833 0.19884036
000020 17 8e 80 3e 24 69 a9 3e a0 ff 67 3e b0 ed 99 3e
       0.25108406 0.33088028 0.22656107 0.30064154
000030 e1 21 a3 3e 80 38 88 3e f1 83 7d 3e 5e 5f cc 3e
       0.31861785 0.26605606 0.24757363 0.3991651
000040 29 21 89 3e cc be 52 3e c7 6a 01 3f 00 23 3d 3e
       0.26783112 0.20580596 0.50553554 0.18470383
000050 e2 77 84 3e 61 74 fa 3d a1 4d e0 3d 85 89 6b 3e
       0.25872713 0.12229229 0.109523065 0.23001678
000060 fc 12 82 3e c3 d0 b1 3e 30 16 09 3e 57 67 80 3e
       0.2540511 0.34729585 0.1338737 0.25078842
000070 3b 7b b8 3e 42 66 73 3e 7b 0b 71 3e e9 ca d2 3d
       0.36031517 0.23769477 0.23539536 0.10292608
000080 b7 33 9f 3e f6 89 ac 3e cf 46 8a 3e e3 da 3a 3e
       0.31094143 0.33699006 0.27007148 0.18247561
000090 60 56 aa 3e e9 b4 53 3e d4 01 96 3e 18 8c c1 3e
       0.33269024 0.2067448 0.2929827 0.37802196
0000a0 5f 94 ca 3c 90 18 8e 3e 65 d6 7a 3e 08 60 c6 3d
       0.024728952 0.27753115 0.24495848 0.09686285
0000b0 48 e4 a3 3e 00 5d 51 3e 9c 81 17 3e 72 37 5b 3e
       0.32010102 0.20445633 0.14795536 0.2140787
0000c0 5a ce 5a 3e 14 26 b2 3e 4b 53 77 3e 17 48 8c 3e
       0.2136778 0.34794676 0.24152867 0.2739875
0000d0 a1 87 87 3e 22 5f 35 3e aa ab aa 3e 1c 55 c6 3d
       0.26470664 0.17712072 0.33334094 0.09684202
0000e0 7f 0d 45 3e c8 48 a2 3e 2e c3 91 3e a6 46 ef bd
       0.1924343 0.31696153 0.28469223 -0.11683397
0000f0 a5 31 67 3e c4 1c a5 3e b2 c0 3a 3f 85 6b 40 3e
       0.22577532 0.3224851 0.7295028 0.18791015
000100 7e d4 1b 3e b2 11 89 3d 0b eb 84 3e d7 9f 9c 3e
       0.15217778 0.06692828 0.25960574 0.30590698
000110 fc 56 ab 3e 8f c3 85 3e c3 1f 91 3d ed 27 3c 3e
       0.334648 0.26125762 0.07086136 0.18374605
000120 ca dd a5 3e 37 24 c7 3e 34 d5 08 3f e1 22 8c 3e
       0.32395774 0.38894817 0.5345032 0.2737036
000130 9c f9 ad 3e 19 5c 41 3e 5c 14 cd 3d d0 a4 98 3e
       0.339795 0.18882789 0.10013649 0.29813242
000140 6e 5e 03 3f 49 55 99 3e bc 71 2f 3e 29 7e 9f 3e
       0.51315963 0.2994788 0.1713323 0.3115094
000150 29 c9 23 3e 6d ef 87 3e 6f fe 81 3e fb be a8 3e
       0.15994705 0.26549855 0.2538943 0.32958207
000160 2a 60 e3 3e 91 eb a7 3e de 00 b7 3d 2b 88 91 3d
       0.44409305 0.3279691 0.08935712 0.0710605
000170 40 9a 94 3e 24 0a 10 3e 99 45 4f 3e e4 15 97 3e
       0.29023933 0.14066368 0.20241393 0.2950889
000180 cc a0 e5 3e a1 52 97 3e 27 0e bc 3e 09 d8 68 3e
       0.4484924 0.29555228 0.36729547 0.22738661
000190 27 7c 9e 3e 0a 61 61 3e ef 14 93 3e a7 8a f8 3e
       0.30954096 0.22009674 0.2872691 0.48543283
0001a0 71 25 83 3e 2e fb 7f 3e 77 8e 54 3e e5 4b 9f 3e
       0.25614503 0.24998161 0.20757471 0.3111259
0001b0 ac ac 54 3e 77 68 4e 3e 26 89 15 3b b4 4d cf 3e
       0.20768994 0.20157038 0.0022817343 0.4048897
0001c0 c0 9c 81 3e c7 a3 3c 3e 22 ce a8 3e 0f d3 ad 3e
       0.25314903 0.18421851 0.32969767 0.33950087
0001d0 1e f6 98 3e 13 6e aa 3e 9f 06 51 3e 57 40 29 3f
       0.29875273 0.33287105 0.20412682 0.661138
0001e0 7c 60 11 3d 75 fd 2b 3e 4b c8 3a 3e fe d2 4a 3e
       0.035492405 0.16795905 0.18240468 0.1980705
0001f0 15 04 54 3e 54 7e 15 3e 1a 91 82 3e e9 7d 86 3e
       0.20704682 0.14598972 0.2550133 0.26267937
000200 ef 55 75 3e 88 71 c7 3e a6 d9 ba 3e 9d c4 a7 3e
       0.23958562 0.38953805 0.36494178 0.32767192
000210 08 06 93 3e 25 f7 2e 3e d0 54 75 3e 6c fd 25 3e
       0.2871554 0.17086466 0.23958135 0.16209954
000220 64 2f 08 3e 6a 52 9e 3e 13 bf a3 3e e8 2f b2 3e
       0.13299328 0.30922252 0.31981716 0.34802175
000230 93 7b 8f 3e 27 cf a4 3e 04 08 5c 3e 72 5a f7 3e
       0.28023967 0.32189295 0.21487433 0.48311192
000240 12 b3 89 3e cc af 93 3e e7 78 25 3f 99 2a 85 3e
       0.26894432 0.2884506 0.6463761 0.26009062
000250 65 ea 65 3e 91 d3 55 3e 4e 8b 39 3e e4 25 89 3e
       0.22452696 0.20881487 0.18119547 0.2678672
000260 7b 28 63 3e 87 29 dc 3e b3 bb a1 3e a8 e2 9e 3e
       0.22183411 0.43000433 0.31588516 0.310323
000270 f8 e6 d0 3e 23 30 a8 3e cc 30 c3 3e 10 ee 6a 3d
       0.40801215 0.32849225 0.38123167 0.05735594
000280 ff 56 96 3e d3 0c db 3e 08 d0 bf 3e 0a ea 18 3e
       0.29363248 0.42783222 0.37463403 0.14933029
000290 11 9d c7 3e 47 51 a6 3e d7 35 ad 3e 8d b0 c9 3e
       0.3898702 0.32483885 0.3383014 0.3939251
0002a0 fe f7 09 3e 94 1d a2 3e fe 75 4a 3e 89 d1 29 3d
       0.13473508 0.3166319 0.19771573 0.041459594
0002b0 f5 de c2 3e bc b5 a7 3e bf de 59 3e bb ec 8b 3e
       0.38060728 0.3275584 0.21276377 0.2732905
0002c0 79 7e 90 3e 1b 33 d7 3e 85 43 d6 3e d7 57 be 3e
       0.2822149 0.42031178 0.41848388 0.3717639
0002d0 9f 9d 9d 3e 6e 51 9b 3e 0b 69 c2 3e 51 55 1a 3e
       0.30784318 0.30335563 0.37970766 0.15071608
0002e0 e5 e4 1b 3e 32 9e 9b 3e ef cc f7 3e f3 fd 58 be
       0.15224035 0.3039413 0.4839854 -0.21190624
0002f0 3a 3b 9b 3e 9b 9f 02 3f 86 56 50 3f 6d 90 84 3d
       0.30318624 0.5102479 0.81382024 0.064728595
000300 fa 65 b7 3e b3 df e6 3d 00 e7 73 3e 6f 37 cc 3e
       0.3581999 0.11273136 0.23818588 0.39886042
000310 99 ca 89 3e a7 70 8d 3e 0f 8e 23 3c 02 4b ab 3e
       0.26912382 0.2762501 0.0099826 0.33455664
000320 e2 0e bd 3e a5 a0 a7 3e 65 c7 1d 3f bf 89 a0 3e
       0.36925417 0.3273975 0.61632377 0.31355092
000330 c5 a3 e2 3e af 5c c1 3e 42 1a da 3d 54 9d af 3e
       0.4426557 0.37766024 0.106495395 0.3429972
000340 1e de 14 3f ce 7b b2 3e c4 1f 5a 3e 9f 06 a9 3e
       0.58151424 0.3486008 0.2130118 0.33012864
000350 6c fb 65 3e 63 7f bc 3e 7e c7 86 3e 1f e7 94 3e
       0.22459191 0.36815938 0.26324075 0.2908258
000360 79 b9 02 3f 74 28 ce 3e d3 3a 50 bc e8 2f 46 bd
       0.5106426 0.40265238 -0.012709337 -0.04838553
000370 87 d1 db 3e 53 4e 33 3d 36 ca 1e 3e 92 ca d2 3e
       0.42933294 0.043775868 0.15506825 0.41170174
000380 fb 1a 02 3f 5f 0c b9 3e 6c 2c e8 3e e0 b9 8a 3e
       0.5082242 0.3614225 0.4534639 0.27094936
000390 c9 ef 21 3e 46 f5 d5 3e af e1 b8 3e 8f 83 f9 3e
       0.15814127 0.4178869 0.36109683 0.48733184
0003a0 f3 3e ae 3e 9c 49 b5 3e 04 01 41 3e ee e4 92 3e
       0.340324 0.35407722 0.18848044 0.28690284
0003b0 bb ef a8 3e f7 64 40 3e 87 9f 4c bd 55 c2 b5 3e
       0.329954 0.18788515 -0.049956825 0.35499826
0003c0 28 a7 b5 3e 95 05 06 3e 15 26 87 3e e5 29 e2 3e
       0.35479093 0.13088067 0.26396242 0.44172588
0003d0 36 95 de 3e 79 ce bf 3e b2 a1 c2 3e 1e 00 1b 3f
       0.43473214 0.37462214 0.3801399 0.60547054
0003e0 f4 87 42 bd ec cc 2e 3e e7 ca 7d 3e 19 61 97 3e
       -0.047492936 0.17070359 0.24784432 0.29566267
0003f0 94 76 19 3e b8 5e 86 3e 1f 4f af 3e 2f 22 02 3f
       0.1498664 0.2624414 0.34240052 0.5083341

layer2_2.bias f4 [128]
000000 27 c0 6d 3e a4 ec b7 3e 58 e2 a1 3e 2c e4 a7 3e
       0.23217832 0.3592273 0.31618 0.3279127
000010 d4 58 2b be 88 13 5d 3d b2 ab 7c 3e 26 30 33 3e
       -0.16733104 0.053973705 0.24674872 0.17498836
000020 2e ea 9a 3c 1c 4b 60 bd 8a 05 62 bd 78 76 62 3e
       0.018910494 -0.05475913 -0.055181064 0.22115505
000030 9e b9 c5 bc fd 41 8b 3e 90 a3 6e 3e 6a 86 4e 3e
       -0.02413636 0.27198783 0.23304582 0.20168462
000040 02 a9 d5 bd c0 11 d9 bc 8b 68 fc bc 31 b7 7c 3e
       -0.10432626 -0.026497722 -0.030811569 0.24679257
000050 8c 1c 0f 3f 68 4e 82 3e 0d ce 16 3d d3 01 8a 3d
       0.55902934 0.25450444 0.0368176 0.06738629
000060 61 0b 9d bc ff 61 50 bc 1e a4 19 bd 9b 19 97 3e
       -0.019170465 -0.012718677 -0.03751003 0.29511723
000070 d5 36 82 bd 04 19 d9 3c d4 76 20 3e 75 92 b2 3e
       -0.06358115 0.026501186 0.1567033 0.34877363
000080 a2 c1 1f be 52 a7 4b 3e d5 e2 15 bd fc f7 9d 3e
       -0.15601209 0.19888046 -0.036593277 0.3085326
000090 7b 46 96 3e ca f8 8e 3e 65 fd 62 3e c5 5d 6b bd
       0.29350647 0.27924186 0.22166975 -0.057462472
0000a0 6e df 96 3e a0 e6 8d 3e f9 38 50 3e c0 7b 8d 3e
       0.29467338 0.27715015 0.20334233 0.27633476
0000b0 38 dc ae 3e c5 22 50 3e 2a da 8d 3e 1a 17 88 3e
       0.3415239 0.20325764 0.27705508 0.26580125
0000c0 f5 9e ac bd d2 2b 98 be 7a 29 37 3e 89 fc 44 bd
       -0.08428756 -0.29720932 0.17886916 -0.0480924
0000d0 5b a7 51 3e 81 0b 87 3e 4c 55 2e 3d bd a8 a0 bd
       0.20473997 0.26375964 0.042561814 -0.07844684
0000e0 fe e6 2e 3e 3f 9d 89 3e 43 bc 16 3b 2f f9 15 be
       0.17080304 0.26877782 0.0023000396 -0.14645837
0000f0 d4 b4 9c 3e 4c 93 5e 3d 5a e0 b1 3e d9 d5 98 3e
       0.3060671 0.054339692 0.3474148 0.29850653
000100 f2 fd 88 3e 1a 24 bd bd a7 0b 08 bd 9e de 61 bd
       0.26756245 -0.092354015 -0.033214238 -0.055143945
000110 f5 16 92 be b0 4a 30 3e f7 3b 48 3c 54 bb 05 be
       -0.2853314 0.17215991 0.012221328 -0.13059741
000120 06 cc 4c 3e 9f b8 3b 3e e3 16 d9 3e 52 40 88 3e
       0.19999704 0.18332146 0.42400274 0.26611573
000130 3e fe ef 3c 87 99 71 3e e8 34 92 bd 46 37 88 bd
       0.029296037 0.23593722 -0.07138997 -0.066511676
000140 b8 b4 82 3d 39 95 82 3c 2f 3a 8a 3e d0 85 94 3e
       0.063821256 0.015940296 0.26997516 0.2900834
000150 15 c2 4f 3e 14 83 6a bd 25 2a 09 be 15 16 66 bd
       0.2028888 -0.057253912 -0.13394983 -0.056173403
000160 d7 5d 86 3e 36 a9 22 3e 5d d1 71 bc a9 a3 67 3d
       0.2624347 0.15884861 -0.014759389 0.056552563
000170 5b 8c ab 3e b4 8d c7 3b d4 cc 73 bd 16 17 e7 bd
       0.3350552 0.0060898904 -0.05952151 -0.112837
000180 67 30 c9 3c 10 1a 46 3c ff a9 95 3d 02 3b 32 3e
       0.024559213 0.012091175 0.07307815 0.17405322
000190 e3 2b 92 bc f5 4a 72 bd d2 37 ff 3c 91 51 ca 3e
       -0.017843192 -0.059153516 0.031154547 0.39515355
0001a0 33 cb 51 3c c6 ed 65 3e 72 fb 99 be e4 99 87 3e
       0.012804794 0.22453985 -0.3007465 0.26484597
0001b0 cf 4a 94 bc 0e dc 2d 3d 69 7e 85 3e 7f 58 20 3e
       -0.018102078 0.04244619 0.26073006 0.15658759
0001c0 21 68 35 3c 26 12 91 3e e5 98 e8 bd 21 4a 20 3e
       0.01107219 0.2833416 -0.11357287 0.15653278
0001d0 f0 29 97 3e 99 e6 ed bc 85 8a 90 3d 45 c7 da 3c
       0.29524183 -0.029040622 0.070576705 0.026706347
0001e0 0f 18 81 3c 48 33 62 3e 0c cc 51 bd db c0 01 3d
       0.015758542 0.22089875 -0.051219985 0.031678062
0001f0 7a 70 b0 bd a0 4c d6 3b 2c 45 62 bd 3f 79 6b 3e
       -0.08615203 0.006539896 -0.05524175 0.2299547

layer3_2.weight f4 [1, 128]
000000 9c e1 b2 be 7d bb a7 be 61 74 aa be bb 0e a5 be
       -0.3493775 -0.3276023 -0.33291915 -0.322378
000010 e5 3a 12 3f c2 b4 ba 3c 2b 55 af be d6 3f b3 be
       0.57121116 0.02279127 -0.34244666 -0.3500964
000020 30 7b 75 3c 96 3f 92 3d 0d ca f2 3c d7 c1 b4 be
       0.0149829835 0.07141034 0.029637361 -0.35304138
000030 a7 1d 4f 3d 22 00 9e be f2 f4 ac be 2e 4e b6 be
       0.050565388 -0.30859476 -0.33780628 -0.3560652
000040 f2 11 b6 3e fb 1f 57 3c 35 e0 a0 3d 33 a0 ae be
       0.35560566 0.013130183 0.07855264 -0.34106597
000050 82 76 14 bf 6f 54 a0 be 4e 26 0d 3d bf ec 49 3d
       -0.5799333 -0.31314418 0.03446036 0.049298044
000060 20 2a 66 3e bc fa 9f 3d 10 78 a6 bc 24 75 a0 be
       0.22477007 0.07811496 -0.020320922 -0.3133937
000070 3e 48 e4 3c 02 e7 71 3d 91 52 b3 be 4d 4c 9f be
       0.027866479 0.059058197 -0.3502393 -0.311129
000080 74 7c 2a 3f 25 f2 bd be 29 68 60 3e 00 55 a2 be
       0.6659615 -0.37098804 0.21914734 -0.31705475
000090 5c 90 9b be 5b ae aa be 08 9c b1 be 23 53 f6 3c
       -0.30383575 -0.33336148 -0.34689355 0.03006894
0000a0 0e 72 b9 be 54 5d b2 be 72 99 a2 be 6e 3e a4 be
       -0.3621983 -0.3483683 -0.31757694 -0.3207888
0000b0 34 72 97 be 21 f6 a4 be 14 29 98 be 12 ac bc be
       -0.29579318 -0.3221903 -0.2971884 -0.3685003
0000c0 71 65 ae 3d 7e df 07 3f 3c 08 af be f1 b3 5a bd
       0.08515442 0.53075397 -0.3418597 -0.05339426
0000d0 da c2 98 be 62 32 c0 be 56 77 87 3d 4e 00 82 3d
       -0.2983616 -0.3753844 0.066145584 0.06347714
0000e0 7c 11 ce be 47 d0 a9 be ca 56 1a 3c 12 06 01 3f
       -0.40247715 -0.33166716 0.009420106 0.5039989
0000f0 6a 09 97 be 14 42 c0 3c 10 e7 a0 be 97 96 a7 be
       -0.2949937 0.023469009 -0.31426287 -0.32732078
000100 67 2a a7 be c1 2f 81 3d cf 48 18 3b 38 18 69 3b
       -0.32649538 0.063079365 0.0023236757 0.0035567414
000110 c0 35 1d 3f b8 be c4 be a6 aa 54 3d c0 d4 0a 3f
       0.6141014 -0.38426757 0.051920556 0.5423088
000120 4a c4 9c be 5f df b2 be 7c 4d d4 be 8d a0 ad be
       -0.30618507 -0.34936044 -0.41465366 -0.33911553
000130 14 a1 b5 3e d7 8e a4 be c3 9b 22 3d 04 93 ac 3c
       0.35474455 -0.32140228 0.039699327 0.021066196
000140 28 0f 88 3c 06 4a 9f 3c 65 d7 b7 be 6a dc a0 be
       0.01660879 0.019444477 -0.3590652 -0.31418163
000150 75 6b a8 be 8c 6a 84 3d 11 01 0c 3f 45 70 fd 3c
       -0.32894483 0.06465635 0.5468913 0.030937323
000160 20 a4 a9 be 22 93 a6 be db 27 18 3d d0 02 65 3d
       -0.3313303 -0.32534128 0.037147384 0.055910885
000170 61 55 9f be 98 1f 48 3c 84 b4 aa 3d 7a e0 f1 3e
       -0.31119826 0.012214564 0.08335212 0.47241575
000180 31 e2 49 3c d0 ff cb 3c c6 20 47 3c 26 19 ba be
       0.012321995 0.024902254 0.01215381 -0.36347312
000190 53 cd 78 3c 0f 79 81 3d c5 8b 7a 3d b3 f8 e6 be
       0.015185672 0.06321918 0.06116845 -0.45111617
0001a0 75 af 75 3b 31 8f b2 be fa 85 16 3f 99 77 ac be
       0.0037488614 -0.3487487 0.5879818 -0.33684996
0001b0 60 6a a9 3c 9f 76 60 3e d2 ad 99 be c1 51 bc be
       0.020680606 0.2192025 -0.30015427 -0.36781123
0001c0 36 37 65 3b 0a 21 9b be f9 97 c1 3e 67 34 be be
       0.0034975535 -0.30298644 0.37811258 -0.37149355
0001d0 a1 da b4 be 31 2c c8 3b ef fc c8 3c 37 cc 52 3c
       -0.3532305 0.0061087837 0.02453467 0.012866071
0001e0 22 40 d7 3c 73 d4 9f be 66 6c 6d 3e 37 b7 dc 3a
       0.026275698 -0.31216773 0.23185882 0.001683927
0001f0 c4 26 0f 3c 89 bb 59 3d fd 59 56 3c 7c b3 b8 be
       0.00873727 0.053157363 0.013082978 -0.36074436
