rl_energy_manager_20250325_1542/models/checkpoint_600/actor.pth (torch, 82676 bytes, 6 tensors)

layer1.weight f4 [128, 18]
00000000: 58f3 7a3e 693d 303d d3b3 1ebe bee6 9fbc
00000010: 83d8 1cbe 07b2 f2bd 7f8e 9cbe 1779 eebb
00000020: 2707 a93d 5e11 31be 173b 563e 8abf a83d
00000030: f289 623e 877c 5f3c 024a b43d 2cff 353d
00000040: 6994 213e 1e86 623d 265a e1bd 8c16 763d
00000050: ee67 debd 6070 e2bc 5e0f c4bd 531c 203e
00000060: 8d85 3ebe c089 debd b44e 88bd 621f 11be
00000070: e83d b63c a762 6ebe 3ff9 593e e306 4dbe
00000080: f955 3a3e c4aa 203d a4bd 9cbd d925 153e
00000090: 4b94 9a3e 546b 143e 958c b6bb 1b06 e03d
000000a0: 5a3c 303d 4df4 00be e226 8bbc 748f cc3e
000000b0: 0f9e d03d fa07 d3bd bf26 4d3e df26 0a3e
000000c0: cafc 4b3e f01e ab3c e56a 5fbd 693a 5b3d
000000d0: c367 6bbd 05e6 cd3e ba09 8b3d cef2 c73d
000000e0: 3eaa 983d 805b 86bb bfe3 3c3e 2a7d 2bbe
000000f0: 5026 733c c0bc 24be ded8 943d 563d a6bd
00000100: aae9 933d f423 49bd 692e 483e d40d 0fbe
00000110: 33f2 0fbe 6cf4 0fbe b716 593e cadd a03d
00000120: 8bd6 853e 42c9 e2be 5e94 00bf afba a03e
00000130: 350f c4be 9cfc 0ebe 761a 0dbe 1a5a 153f
00000140: b0ce c6be 9089 24be 72b9 343d 03b9 b9be
00000150: ab25 73be adc4 463d 6d78 8e3e 30a4 a5be
00000160: 39ec 95be 697d 493e a145 803d a139 073d
00000170: 5143 543e 8869 303e 74e3 46be f892 5cbd
00000180: ff48 673e b489 adbd 3a9f 613c ac89 69be
00000190: 3054 51be 2ac4 6e3d 9656 d4bd 4041 75be
000001a0: 6e97 c4bb f6e2 85be 96ae 81be 40a4 d6bd
000001b0: 3396 ffbd 05a3 c6bc dc40 b03e d6a3 ee3e
000001c0: 2777 013e e20d d5bd a2a7 d0bc 5efe c33e
000001d0: b9f0 273e 8560 54be f4d2 93be 7325 62be
000001e0: b234 35be fa2a a33d a811 d73d f978 89be
000001f0: a9e6 77be b166 26be 67f5 65bd 38e4 47be
00000200: 22fb 403e 8fda 81be f445 463e b49f 833d
00000210: 05c6 55be cfb5 55be 9799 97bd da09 b9bd
00000220: 714f ccbe dae4 bebe 4be9 06be c2f7 2fbe
00000230: d6b4 d03c 2019 efbe a3da 05bd bf70 89be
00000240: c8ec 3cbb da59 643d 0b49 6b3d 6ee2 883d
00000250: c005 923d 460d 2ebe 7883 173d 9904 9bbe
00000260: 557d 3fbd a8a7 34be 0a70 7c3e fdda c33d
00000270: 6618 b33e cbef e4bc cd0e c8bd a167 85bd
00000280: 9079 c13e e866 5dbc 143e 10be 3716 5bbe
00000290: 5438 b63d 29e7 d1be 82ca f9bd 08a4 493e
000002a0: 59de 443d 572e f5be 450c 02be a06b 38bc
000002b0: 3ea4 0fbe 75f1 a8be 947e bbbe 8990 46be
000002c0: e492 a6be dd25 b5be 5a1d b9bd d948 bfbe
000002d0: a6f4 0f3e d61d 863d f325 d8bc d322 0fbd
000002e0: 69a8 4d3d 4a2b ae3d f5e2 9d3d f02a a9bd
000002f0: 890f 07be 0891 ce3c c76c d9bb 2606 ebba
00000300: f47a a03e 87ef 853e cc25 8bbd d5be 793d
00000310: e77e db3d 1d37 98bd 141a 683d 1e46 873d
00000320: 4f37 5bbe 2824 b2bd 7141 4b3e 9a0b bc3d
00000330: f012 40bc 4d84 11be 2caa 13be 9533 58be
00000340: 1659 9dbd 1604 a33d 53e5 193e a6de de3d
00000350: 1359 55be f224 11be a85c 18bd 877a 693e
00000360: 5ca8 0b3d 1005 7abd 3ab5 c73d c4db b7bd
00000370: 9738 1cbe 392a 303e 2a7e dbbd b489 41bd
00000380: e61a 70be d988 213e addc 363e 02ed af3d
00000390: 224b 28be fa34 6ebe dc06 44be 47fb 333e
000003a0: 7ec1 e73d d31a 4b3e a47e a13d 2c58 743d
000003b0: 8044 17bb 6710 3bbe 2fca 4ebe 42c1 61be
000003c0: 429b c53d fb1b 78be ec4b 42bd 48e7 0abe
000003d0: e373 acbe 2acc d9be 8664 d7be 894f 3ebe
000003e0: 3b5e 67be 728a 6dbe bc9e c1be 989a 8dbe
000003f0: 64b3 853c c2f0 febd 7f22 b6bd 0a1f d5be
0.24506891 0.043027315 -0.15498285 -0.019519206 -0.15316968 -0.11850362 -0.30577466 -0.0072776186
0.08253317 -0.17291781 0.20920978 0.08239658 0.22122934 0.0136405295 0.08803178 0.044432804
0.1577927 0.055303685 -0.110035226 0.060080096 -0.10859667 -0.027641475 -0.095732436 0.15635805
-0.18605633 -0.108661175 -0.066556364 -0.14172128 0.022246316 -0.2327982 0.21286486 -0.20022158
0.18196858 0.039225355 -0.076533586 0.14565219 0.30191264 0.14494067 -0.005570958 0.109386645
0.043026306 -0.12593193 -0.016986314 0.39953196 0.10186397 -0.10304256 0.20034312 0.1349139
0.1992065 0.020888776 -0.054545302 0.0535225 -0.057472 0.40214553 0.067889646 0.09763108
0.07454346 -0.004100263 0.18446253 -0.16746965 0.014840677 -0.16087627 0.07267927 -0.08117168
0.07222302 -0.049106553 0.19548954 -0.13970119 -0.14057235 -0.14058083 0.21200071 0.07854803
0.26140246 -0.44294173 -0.5022639 0.31392428 -0.38292852 -0.1396355 -0.13779625 0.5834061
-0.38829565 -0.16068101 0.044122167 -0.36273965 -0.23744838 0.04852741 0.27826253 -0.32351828
-0.29281786 0.19676746 0.06263281 0.033013944 0.20728804 0.17227757 -0.19422704 -0.053851098
0.2258644 -0.084735304 0.013770873 -0.22806424 -0.20442271 0.058292545 -0.103680775 -0.23950672
-0.005999497 -0.2614972 -0.2532851 -0.10480547 -0.1247982 -0.024247656 0.34424484 0.46609372
0.1264311 -0.104030386 -0.025470559 0.38280004 0.16400422 -0.20739944 -0.28871882 -0.22084598
-0.17695883 0.079671815 0.105014145 -0.26850107 -0.24209084 -0.16250111 -0.056142237 -0.19520652
0.188458 -0.2536206 0.19362622 0.06426945 -0.2087632 -0.20870136 -0.07402342 -0.09035082
-0.3990436 -0.37283975 -0.13174932 -0.17184356 0.025476854 -0.46698856 -0.03267921 -0.2684383
-0.0028827656 0.05574975 0.057442706 0.06683813 0.07130003 -0.16997251 0.036990613 -0.30276945
-0.046750385 -0.17642081 0.24652115 0.09563253 0.34979552 -0.027946373 -0.09768448 -0.06513906
0.37788057 -0.013513304 -0.14086181 -0.21395193 0.088974625 -0.40996674 -0.121968284 0.19691479
0.04806361 -0.47886917 -0.12699993 -0.011256129 -0.14027497 -0.32996717 -0.3662001 -0.19391073
-0.32533944 -0.3538045 -0.090388015 -0.37360266 0.1405817 0.065486595 -0.026385283 -0.03494532
0.050209437 0.085043505 0.07709304 -0.08260143 -0.1318952 0.02521564 -0.0066352817 -0.001793091
0.31343806 0.26159307 -0.067943186 0.060973007 0.10717564 -0.07432387 0.056665495 0.06605171
-0.21407817 -0.086983025 0.19849183 0.091819 -0.011723265 -0.14210625 -0.14420384 -0.21113427
-0.076830074 0.07959764 0.15028886 0.108823106 -0.2083476 -0.1417425 -0.03719774 0.22800647
0.034096107 -0.061039984 0.09751363 -0.08977464 -0.15255962 0.17203607 -0.10717423 -0.047250465
-0.23447761 0.1577486 0.17857619 0.085901275 -0.16434911 -0.23262396 -0.19143242 0.17576323
0.113162026 0.19834451 0.07885483 0.0596544 -0.00230816 -0.18267976 -0.20194314 -0.22046378
0.09648754 -0.24229424 -0.047435686 -0.1356479 -0.33682165 -0.42538577 -0.4206888 -0.18585028
-0.2259454 -0.23197344 -0.37816417 -0.27657008 0.016320892 -0.12448265 -0.08893298 -0.41625243

layer1.bias f4 [128]
00000000: 9066 d0bc 9a93 3fbe c53c 913d 4036 44be
00000010: 6283 c7bd d789 8e3e d346 843e 1895 29be
00000020: e55b 5e3e bcb8 c2bd d64a d13d 90ac 42be
00000030: 53b4 14be 3816 9cbe 3ac4 e93c c8f0 5cbe
00000040: a3bd 47bd 847f c43d d3bc 823e afde 903e
00000050: a846 653e 9216 1cbd 35a5 1e3e bdb4 643d
00000060: 1ec3 26be 9ae1 cdbd 42ae 2fbd 31f6 50bd
00000070: d9a3 64be c98c 5d3e 3de9 803e a326 94be
00000080: 7000 163e ca8e 0dbe 633a 503e 2757 0e3e
00000090: 962e 583e 7f0c d03d 1df1 c1bd eaa3 adbd
000000a0: 6a20 453d 1947 b63d f014 6ebc 8fca 1c3e
000000b0: d762 fc3c e967 273e a86b 48be 55be 173e
000000c0: 1684 e83d 3847 853e f2fb 9bbb 8755 6c3e
000000d0: 35e9 513e 98c2 86bd 2543 6cbd 77b9 60bd
000000e0: 1b9c 4e3e 2e09 4fbe 2142 c43d 771e 84bc
000000f0: 08af 803e bf40 fcbc 50c8 7c3e a228 6f3e
00000100: 563f c9bd 486c 813e b2ce 7c3e 4289 3dba
00000110: 2417 4abe 1321 173d 2fdb b1bd bc32 f4bd
00000120: 1cd4 5abe 6093 0c3d 41a7 bebd f619 f73d
00000130: 0e92 e5bd d98a 81bd 0228 60be e31d 283e
00000140: 34c9 463e 247e 253e 3196 533e ee56 39be
00000150: cbc9 c93d 45ea 23be c69b 3abe 5349 a33d
00000160: dea3 933d a2de 4fbe 148f 61be ce28 8dbe
00000170: 5228 723e a838 0c3e 3aa8 b5bc 3594 f8bc
00000180: f2d1 dbbd 627c b1bd 42a3 c6bd 066b ae3e
00000190: 66cc 883d 9753 2d3e 4ca9 743e 93bb 33be
000001a0: e3a1 44be 4c4f 223d 5a45 08be 7407 cd3d
000001b0: 666d 903e 0676 fcbd 5c6c 28be 5a6f 823e
000001c0: e348 cebd 1cf5 4a3e 11fe 03be b7d0 983e
000001d0: 05ec 3fbe e1ef c1bd 3ba1 4b3d 4734 d33d
000001e0: a429 863e ff7c 7f3e be14 de3d a0fe 613e
000001f0: c05b 5a3e 2043 60bd 2a4b 89bd b080 9bbe
-0.02543953 -0.1870865 0.07091669 -0.1916132 -0.09741856 0.27839538 0.25835285 -0.16560781
0.21714742 -0.095078915 0.10219352 -0.1901114 -0.14521913 -0.30485702 0.02853595 -0.21576226
-0.048764836 0.09594634 0.25534686 0.28294894 0.22390234 -0.038107462 0.15492709 0.055836428
-0.16285369 -0.10052796 -0.042890795 -0.051016036 -0.22328128 0.21635737 0.25177947 -0.28935727
0.14648604 -0.13824001 0.20334773 0.13900433 0.21111521 0.101586334 -0.09469817 -0.0847853
0.048126616 0.089002796 -0.014531359 0.15311645 0.03080885 0.16348232 -0.19572318 0.148187
0.113533184 0.26030898 -0.004760259 0.23079501 0.20499118 -0.065800846 -0.05768122 -0.054864373
0.20176737 -0.20218346 0.095829256 -0.016127808 0.25133538 -0.030792592 0.24685788 0.23355344
-0.098265335 0.25277925 0.24688223 -0.0007230231 -0.1973539 0.036896776 -0.08684384 -0.11923739
-0.21369976 0.034320235 -0.09309245 0.120654985 -0.11209498 -0.06325311 -0.21890262 0.16417651
0.1941269 0.161614 0.20662762 -0.18099567 0.09852942 -0.16007335 -0.18223485 0.0797297
0.072089896 -0.20299771 -0.22027236 -0.27570194 0.23648193 0.13693488 -0.022174943 -0.030344108
-0.10733403 -0.08666302 -0.09699108 0.34066027 0.06679611 0.16926418 0.23892707 -0.17552023
-0.1920238 0.039626405 -0.13307706 0.10011187 0.28208464 -0.12327199 -0.16447586 0.2547558
-0.10072496 0.19820064 -0.12889887 0.29846737 -0.18742378 -0.094695814 0.04971431 0.103127055
0.26203644 0.24950026 0.108438 0.22069788 0.21324062 -0.054751515 -0.067037895 -0.30371618

layer2.weight f4 [128, 128]
00000000: 6cac cebc 6e17 783d 2c9c 353e d38c 8e3d
00000010: d724 983d 4194 443d 010b be3d c753 e53c
00000020: 32a8 ed3a e2de 9f3d 8fd8 be3c ac2b b0bd
00000030: deac 003d 1518 463b 1e87 04bc eaef 743d
00000040: 4cf3 ee3c 29a7 38bd f223 3b3c 0cae 063e
00000050: 0971 b83d ca92 803d de29 1ebd 9e25 b1bc
00000060: 1b31 903d a33a 823d 799d 8e3d c180 c9bc
00000070: fff9 8c3d ca9d 363c 3917 e63d 2bcf 0f3e
00000080: 981c 3f3d 2ac4 293d f829 ea3d b19e 20bc
00000090: 7b6b da3d 0b1b 2fbd fffc 9bbd 93d2 9dbd
000000a0: dabd 723c 6861 603d e514 e2bc fac5 58bd
000000b0: 815e da3d c327 313c 6ddf 6bb9 6342 09bd
000000c0: 02e4 daba 3013 edb9 394e 133e 0eb9 9fbd
000000d0: 86e5 b93b d021 80bd e6e0 99bc 4512 e03d
000000e0: 684e 803c 0066 523c 8e95 97bd f161 e83d
000000f0: 5583 a03d 6107 bd3c 0e11 92bc 7a95 fa3c
00000100: 0d42 f53c 0f34 773d 4f8d b93d c6ea edbc
00000110: 758a 9f3d 8ca6 b03c 2695 1cbc 1df3 6d3b
00000120: 73d5 a9bd b382 01bd 9a1a 05bc 210a 9d3d
00000130: 3da7 633d 7c60 ad3a 4a69 77bd d338 ba3d
00000140: d417 0ebd 21d9 bb3d 9a0a e23d e358 67bd
00000150: f61d 8e3c d21b e93d 0579 af3d ef99 15bd
00000160: 9152 9a3d 7213 8ebd 143b 6bbd f60f 293e
00000170: 11e4 d33c 3b51 d63d ebed 393d dc48 b7bd
00000180: f417 da3d 6a01 3e3d c065 063c f779 0cbe
00000190: 4690 ce3c 0c99 9bbd 98b3 f93d c90e 033d
000001a0: 106f 983c 7508 c53d 8700 053d d5de 31bc
000001b0: 91a2 d23d a90b 783d e67f 5fbd de34 6a3d
000001c0: 66b0 28bd d7cf 2b3d 8a2f f0bc 5705 b3bc
000001d0: ad7a b1bd 5345 933d 45a6 9c3d f6bf 903c
000001e0: 64f0 023e 01ae 85bc 275c a53d eedf 8f3c
000001f0: bc8c 77bd ca58 123d 8b0a 583d 0cfb 9b3c
00000200: 76cd 2fbd 4e0f 7d3d c4fa b93d 9066 683c
00000210: 6018 8cbd e40c e63c 4e80 a3bc a582 093e
00000220: ad4b c03c ba0c 9b3d a8d5 dbbb 9e9b 403d
00000230: 0025 8fba 3441 983d 5ae2 a63d 79c8 88bd
00000240: 69aa fabb 2680 f3bb db20 f5bb d63b 083d
00000250: 9b48 233d eaab 2abc b925 803d 3deb 5abd
00000260: a9b9 17bd 68ea 67bc ec74 68bd 4b18 abbd
00000270: dffc a23d 1a55 9c3c 4d8c c5bc cf84 e43c
00000280: 204f eb3d 41dc 4a3d 6a74 923d f335 ef3d
00000290: 0623 c93d 0782 4b3d 7477 4e3d 500d 43bc
000002a0: 0811 67bd d21e 17bd 34b6 163c ce02 0c3e
000002b0: 8d61 a9bd 6324 013e fd0f b93c 9f3c 9abb
000002c0: 1727 013d 0fbd ab3b 6c84 ea3d 176f fa3d
000002d0: 760b b23d 9dd4 edbd dc57 05bd aa91 9d3d
000002e0: 575f e43d ae5c 2c3d f40d 043d 26b9 f6bd
000002f0: 5ae7 f33c 77f9 173c cdd0 b4bd 68c8 cd3c
00000300: 734d eebc 452b bf3d 153a 0cbd 1e65 043d
00000310: d680 543d 97a8 90bd 6748 8a3d e351 8f3c
00000320: 4e98 3b3d 62f5 d03d fdf0 dbbd 9be9 8dbd
00000330: 0a9f 393d ffe2 0d3d b06d 10bc 369e 5a3d
00000340: 6c0a ce3c 2f0f 1c3c 26d4 a43d 1a7d 0d3d
00000350: 5ba2 7fbd 78e8 463d 0b04 8abd bac6 f93c
00000360: aaf5 9a3d bcf9 c0bc 2f68 38bd e6a4 0f3c
00000370: df86 1c3d 1405 46bd 6963 55bd 483a 7e3a
00000380: 77d7 2b3d e539 73bd 10b9 dc3b 2d8f b6ba
00000390: 1f1a 42bc 300a 833d c673 4dbd 9940 d1bc
000003a0: 2090 34bb 4080 99bd 94e4 a3bd 188f ae3d
000003b0: 10d3 0d3d a7a7 18bd c098 40bb d717 ea3d
000003c0: 8c00 1bbe 46d9 85bc a66b 2bbd f9d0 01bd
000003d0: 4057 47bb 3fc3 63bd 637b 303d 61f8 86bd
000003e0: fb63 e23d 60b6 99bc 138a 24bc 9c7c dc3d
000003f0: 46fe 8d3c 1579 a63d e546 6cbd b428 93bd
-0.025228702 0.06056922 0.17735356 0.06960454 0.07428902 0.04799295 0.092794426 0.02799405
0.0018131791 0.078061834 0.023296623 -0.0860208 0.03141486 0.0030226756 -0.008088855 0.059799112
0.029168747 -0.04508129 0.011422144 0.13152331 0.09005935 0.06277998 -0.038614146 -0.021624383
0.07040616 0.0635884 0.06963629 -0.024597527 0.068836205 0.011146018 0.11234898 0.14043872
0.04665813 0.041446842 0.11433786 -0.00980346 0.106650315 -0.0427504 -0.076166146 -0.077061795
0.014815772 0.054780394 -0.027597854 -0.05292318 0.106625564 0.010812703 -0.00022494579 -0.033510577
-0.0016700032 -0.00045218458 0.14385308 -0.07798968 0.0056731133 -0.06256449 -0.018783998 0.10940985
0.015662387 0.0128417015 -0.07401572 0.11346806 0.078375496 0.023074808 -0.017830398 0.030588854
0.029938722 0.06035238 0.090601556 -0.029042613 0.077900805 0.02156379 -0.009557044 0.0036308237
-0.08292665 -0.031618785 -0.008124018 0.076679476 0.055579413 0.0013227607 -0.060403146 0.090928696
-0.034690693 0.091722734 0.11037178 -0.056481253 0.01734827 0.113822594 0.085680045 -0.036523756
0.075352795 -0.06937303 -0.05742939 0.16509995 0.025865586 0.10464712 0.045392912 -0.08949444
0.106491 0.046388067 0.00820297 -0.13718401 0.02521528 -0.07597551 0.12192458 0.031996522
0.018607646 0.09620754 0.032471206 -0.01085635 0.10284913 0.060557995 -0.054565333 0.057179324
-0.04118385 0.04194626 -0.029319543 -0.021853132 -0.08665977 0.07190957 0.07648901 0.01766966
0.12787014 -0.016318323 0.08074217 0.017562833 -0.06043695 0.035729207 0.05274443 0.019040607
-0.042920552 0.061782174 0.09081033 0.014184609 -0.06840587 0.028082319 -0.019958641 0.13428743
0.023473585 0.07570787 -0.0067088194 0.047023408 -0.0010921061 0.074343115 0.08148642 -0.06678862
-0.007649709 -0.007431048 -0.0074807233 0.03326019 0.039864164 -0.010416964 0.06257195 -0.053446997
-0.037042294 -0.014155008 -0.05675213 -0.08354243 0.079583876 0.019083548 -0.024114752 0.02789536
0.11489701 0.049526457 0.071511105 0.11680212 0.09821133 0.04968455 0.050406888 -0.011905029
-0.056412727 -0.036894627 0.009198714 0.13672945 -0.082705595 0.12611537 0.022590632 -0.0047069336
0.03153142 0.0052410434 0.11451039 0.1222822 0.08693592 -0.116128184 -0.032554492 0.07693799
0.11150997 0.042080574 0.03223987 -0.12047033 0.029773403 0.009275786 -0.08828888 0.025119975
-0.029089665 0.09334425 -0.03423508 0.032322995 0.05188068 -0.07063406 0.06752091 0.017495101
0.045799546 0.10203053 -0.10739324 -0.06929322 0.045317687 0.03464031 -0.008815214 0.053373538
0.025151454 0.009525104 0.080482766 0.034543134 -0.062410694 0.048561543 -0.067390524 0.030490268
0.07566388 -0.023556583 -0.045021232 0.008767342 0.03821456 -0.048344687 -0.052096758 0.00096980156
0.04195353 -0.059381384 0.0067359284 -0.0013928168 -0.011847048 0.063984275 -0.05015924 -0.025543498
-0.0027551726 -0.07495165 -0.08002582 0.08523387 0.034625113 -0.03726926 -0.002938792 0.11430328
-0.15136927 -0.016338956 -0.04185071 -0.031693432 -0.0030416995 -0.055606123 0.04308642 -0.06590343
0.11054226 -0.018763721 -0.010042685 0.10765955 0.017333161 0.08128563 -0.057684798 -0.07185498

layer2.bias f4 [128]
00000000: b2d4 cb3d 1340 973d a799 793d a2e6 44bb
00000010: a2e3 bc3d 5919 803d 1e04 f53c ffd4 a13c
00000020: 0a1b b2bd cc7c 90bd 99ce 4dbc 9e00 893d
00000030: 1828 a53d c614 6ebb d0e3 b7bc 2ba2 5bbd
00000040: def7 a0bd e285 4bbd f657 383d d6d1 c1bc
00000050: 26e1 30bd 5e5a d63b cb43 013c d8fb 11bd
00000060: b67c f23b 3ab4 c63c edaa d3bc 53ca 9e3d
00000070: 411f 023b 6b2e 9ebd a6db 293d 4854 aa3d
00000080: 8448 d13d 315f df3c 486b 273e c710 663c
00000090: 094d b3bc 08bc ae3c d471 83bd 7c31 27bc
000000a0: 7307 473e 7134 cbbb 2c54 93bd a748 253e
000000b0: 8372 9a3c 68e0 033d 3754 973c 7656 c03c
000000c0: 7426 113d b25c 18bd 2d2e f7bc c145 c03d
000000d0: 34d7 4ebd 6f65 51bd eb45 543d 466d 0bbd
000000e0: 3be8 273b 87a0 5bbd a163 713d 2986 8abd
000000f0: 9e6d 5ebd b53b 9fbd 65cb 243b 9457 ad3d
00000100: bba9 3a3d 69c1 0f3d 8b45 213d d1d5 f33d
00000110: c4af 8a3d efa7 4e3d e8b7 51bd 4a70 f73d
00000120: ac6c 423d 89e8 bd3c bb3d babc e184 173e
00000130: 20cf 63bc 99c4 acbd 9df9 20bd bfb4 893d
00000140: df08 5d3d e12c 2c3d 0404 a83d bcee 233d
00000150: e56f 213e 70a5 4dbd a982 40bc edef 51bc
00000160: 2451 263c c512 87bd 0beb 69bc 026d 3f3d
00000170: 35dd fdbd 3b5a 0f3e 0157 2d3c aca0 d3bc
00000180: 1a74 e5bc 4c81 17bc bf14 9abd 0c0a aabd
00000190: 4b89 4c3d 1cf8 ad3d 1213 573d 8880 6dbc
000001a0: d936 abbd 5bce 203d f993 b7bd 9d43 933c
000001b0: a3a6 26bd 62ab 47bd eef4 9c3d a5af 3abd
000001c0: 1418 b03c 7d5b de3c 3d89 06bd 0e20 71bd
000001d0: 028c c7bd 01fd f83c df13 043e 58eb 133e
000001e0: 2cb0 a5bd bbea 693d e1b7 8cbd e71a 9abd
000001f0: 5bf4 bbbd 6c94 873d 3100 1f3c 3977 8f3d
0.09952678 0.07385268 0.06093755 -0.0030044694 0.09223105 0.06254835 0.02990919 0.019754885
-0.086965635 -0.07055053 -0.012561464 0.06689571 0.08064288 -0.00363283 -0.022447497 -0.053621452
-0.07859777 -0.049688227 0.04500576 -0.023659628 -0.04318347 0.0065415343 0.007889698 -0.035640568
0.0074001206 0.02425586 -0.02583834 0.07753434 0.0019855055 -0.07723697 0.04146924 0.083168566
0.102189094 0.02726707 0.16349518 0.014042086 -0.02188732 0.021329895 -0.06418195 -0.010204669
0.19436435 -0.00620132 -0.07193789 0.16140996 0.018853432 0.032196432 0.018472774 0.023478728
0.035437062 -0.037197776 -0.030173386 0.093883045 -0.050498202 -0.051122125 0.05182449 -0.03403976
0.0025620598 -0.053619888 0.058932904 -0.0676387 -0.054303758 -0.0777506 0.0025145647 0.0846397
0.045572024 0.03509656 0.039372962 0.119060166 0.06771806 0.050453123 -0.051200777 0.12081964
0.04746692 0.02318217 -0.022734514 0.14796783 -0.013904363 -0.084359355 -0.03930055 0.06723928
0.05396354 0.042034987 0.08203891 0.040022597 0.1576534 -0.0502066 -0.011749902 -0.01281355
0.010151181 -0.06595377 -0.01427723 0.046734817 -0.123957075 0.13999264 0.010579825 -0.02583345
-0.028009463 -0.009247135 -0.07523488 -0.083026975 0.04993562 0.08494589 0.05250842 -0.014495976
-0.08360071 0.039259296 -0.089637704 0.017976576 -0.04068626 -0.048747428 0.07663904 -0.045577664
0.021495856 0.027143234 -0.032845724 -0.05886846 -0.09743501 0.03039408 0.12898205 0.14445245
-0.08090243 0.057108622 -0.068710096 -0.075246625 -0.091774665 0.06620106 0.0097046355 0.07005162

layer3.weight f4 [9, 128]
00000000: a5ad b9bd c589 f9bd 281b c03d c2f8 1d3e
00000010: dfa7 80be 5b7e 08be bcd7 043d 9385 8dbd
00000020: 7062 7c3c 66e5 0fbc 57c9 99bd 61d2 943e
00000030: 42b3 f33d 7ea8 07bd b8f5 c5bd 1e2c febc
00000040: beef 143d adb4 0f3e 5c50 b4bd 9e63 0abe
00000050: 3af5 e5bd 346b 353d f85e 81bd 2e72 553e
00000060: ce0f babd 623e 04bd 06f3 1c3b 9742 eabd
00000070: ef62 d6bd 60ab 0a3d cf9c b43c 6965 eabc
00000080: 5849 91bd 800d c03c da9c 6dbe c706 58bd
00000090: c92b c9bc 072d 3f3d 5e3a 02be ca90 55be
000000a0: 54e2 62be bc0d 96bd 0c85 703d 5a49 9b3d
000000b0: 07a8 f6bc cab9 2cbe 8924 fcbc e581 38bc
000000c0: 56cd aabd 4689 68bd 269e 29bc a879 343e
000000d0: c862 863a c1cf b13d a546 973c 3530 b5bc
000000e0: 54b4 c3bd a716 09bd f266 05bc 464f 04bd
000000f0: bc77 4d3c 5ffa af3d 394f b73e 5759 bbbc
00000100: 7fc8 053d e9fe 80bd 2347 a0bd 2021 8cbd
00000110: 44f6 0e3e 62b6 f2bd 42e0 343e ce5d 3fbe
00000120: 1444 333c 7d5f 073e 44f0 49bd cd99 3fbe
00000130: bbd0 f0bc a92e 9bbd 084b 03bd c1d5 1ebe
00000140: 348f 83bd 9764 1abe 99d0 963e 4ef2 18be
00000150: 0d15 b2be 791f b43d 7101 25bd ea5e 60bd
00000160: 8636 a6bd 877f 4fbd c6c3 6dbd dae8 5f3c
00000170: 4c3e e43d d47a 37bd 33a5 6fbd ca25 82be
00000180: 81ae eebc 412b 7dbd 0787 e9bc ea48 e6bc
00000190: 55ee 30bd 0861 35be 0af9 a23d b16a 823d
000001a0: 5c29 84bd 18f6 34be eb18 063e d319 423d
000001b0: cce0 36be 2d37 9e3c c7e4 32be ffc9 c9bd
000001c0: 35b8 75be 4ba5 20be cc78 923d d652 b03b
000001d0: 3e30 a0bd bc8e 2b3d c918 76bd 97ea 6f3e
000001e0: aad9 a23d ecf6 2fbe 7c5f 69bd 6804 633d
000001f0: 8678 a3bd 976f 11bd 6760 643d b187 70bd
00000200: f2f6 9cbc 4a42 513d 15ae 27bc d772 893b
00000210: 8c5b e9bd d218 a7bc 32ab 6a3d 43b3 05bd
00000220: 32dd 5b3d 8865 cd3d c446 913c 7e60 c43d
00000230: 6855 bfbd b4ec 68bc 4577 49bd be0d 5c3d
00000240: 89f3 f6ba c075 49bd 3ac1 e5bc 03d1 8f3d
00000250: c1d7 1dbd a8c4 933d c443 db3a 833b 98bc
00000260: 9833 b5bc 3057 273d 25fc 72bc 8d0f 76bd
00000270: 5d6a f2bd 1d95 52bd 0a7e 3abd 49d7 caba
00000280: 3565 6a3d 7d69 6abc 5b35 21bd daef 0b3d
00000290: e2e4 95bc 19a2 823c a790 cb3c 8d3b 7bbd
000002a0: 5f5e 093e acef bf3a 196f 6abd 2503 963d
000002b0: 732e f2b9 d1f0 02bd 1eb3 ecbd a2e8 083d
000002c0: 0740 1abe ecb7 023d 952e 08be 9945 94be
000002d0: d9dc 163d b4d5 0a3d 4005 d43c ff83 6fbd
000002e0: fce1 1dbe 1eba 143d 2bca 6cbd 2400 163d
000002f0: d978 9a3d 58e3 33bc 9c92 11bd 2349 9c3d
00000300: 7425 a8bd c83b 00bc 2d47 ccbd 723a 433b
00000310: 326f 533d 9e06 5ebd efc2 b3bd 12cc 093e
00000320: 10c4 463d 45f0 4a3e 1969 9ebd 1212 903e
00000330: 504b f6bc 6da2 7cbd d7f9 1fbd b721 553d
00000340: 43a9 4d3d 639a 58bd 6566 87be 8b17 403c
00000350: f028 18be 8e30 90bd 4a34 ba3c 4ead 6f3d
00000360: 3505 1dbd 04e0 4a3d dd2e 33be fa4a debc
00000370: ffdb f23d 8286 1c3e 3af5 0fbd d50a d3bb
00000380: 3819 583d d326 453d e719 2e3e eb46 173b
00000390: b2c6 33bd 6403 513d c6ba cabd 40ec 39bb
000003a0: e4d0 a6bd f907 ddbb 846a a1bd 2078 b23d
000003b0: 68c5 fe3b 6f72 71bd 4b08 803d 3ba3 e9ba
000003c0: 7e0a 0bbe ebc3 f13c 9038 703c bb6f 2cbd
000003d0: ebcf 05bd d88f 2fbd 19e2 2fbe 29cc c63a
000003e0: 2dc9 c9bb 10cc 743d bb15 603d 0463 88bd
000003f0: 5c50 883d bbec d83d 0696 b9bd 67e9 943d
-0.09066323 -0.121844806 0.0938018 0.15426925 -0.25128075 -0.13329451 0.032432303 -0.06910243
0.015404329 -0.00878272 -0.07509106 0.29066756 0.11899425 -0.03311967 -0.09666008 -0.031026896
0.03636145 0.14033766 -0.0880439 -0.13514563 -0.11228414 0.04429169 -0.06316942 0.20844337
-0.09085046 -0.032286055 0.0023948564 -0.11438482 -0.10468089 0.033854842 0.022047428 -0.02861281
-0.07094067 0.023443937 -0.23204365 -0.05274084 -0.024557011 0.0466738 -0.12717578 -0.20856014
-0.2215665 -0.073268384 0.058720633 0.0758235 -0.030109419 -0.16867748 -0.03077914 -0.011261438
-0.08339946 -0.05677154 -0.010352647 0.17624533 0.0010252828 0.08682204 0.018466303 -0.022117713
-0.09555879 -0.03346887 -0.00814222 -0.032302164 0.012540754 0.08592676 0.3580263 -0.022869749
0.03266191 -0.0629862 -0.07826068 -0.068422556 0.1396113 -0.11851193 0.17663673 -0.18688127
0.010941524 0.1322002 -0.0493014 -0.18711014 -0.029396405 -0.07577259 -0.032053977 -0.15511228
-0.06423798 -0.15077434 0.29456022 -0.14936182 -0.34781685 0.087950654 -0.040284578 -0.054778017
-0.08115868 -0.05065873 -0.058048032 0.013666356 0.11144695 -0.044794872 -0.058507156 -0.25419456
-0.029135944 -0.06180883 -0.028506769 -0.02811094 -0.04319604 -0.17712796 0.07957657 0.06368006
-0.06453201 -0.17672002 0.13095443 0.04738791 -0.1785919 0.01931342 -0.17470084 -0.09852981
-0.2399605 -0.15688054 0.071519464 0.0053809686 -0.078217015 0.04188417 -0.06008223 0.23429333
0.079516724 -0.17184037 -0.056975827 0.055424124 -0.079819724 -0.03550681 0.055756 -0.058723155
-0.019160721 0.05108861 -0.0102343755 0.004194598 -0.11394414 -0.020397577 0.05729217 -0.03264166
0.053677745 0.10029131 0.017733939 0.09588717 -0.09342462 -0.014216591 -0.04918601 0.053724043
-0.001884089 -0.04918456 -0.02804624 0.07022288 -0.038535837 0.072152436 0.001672857 -0.018583065
-0.022119328 0.040854633 -0.014830624 -0.060073424 -0.118366934 -0.051411737 -0.045530356 -0.0015475537
0.057225425 -0.014307377 -0.039357524 0.034164287 -0.018297616 0.015946435 0.024849249 -0.06133609
0.13414906 0.0014643571 -0.057234857 0.073248185 -0.00046192444 -0.03196794 -0.115576014 0.03342498
-0.15063487 0.031913683 -0.1329902 -0.2895935 0.03683171 0.03389521 0.02588141 -0.05847549
-0.15418237 0.036310308 -0.05780999 0.036621228 0.07542581 -0.010979496 -0.03554021 0.07631137
-0.082102686 -0.007826753 -0.09974513 0.0029789475 0.051619716 -0.05420553 -0.08777415 0.13456753
0.048526824 0.19818218 -0.077348895 0.28138787 -0.030065209 -0.06167834 -0.039056625 0.052034106
0.05021025 -0.05288161 -0.26445308 0.011724363 -0.14859366 -0.07040511 0.022730011 0.058514886
-0.038335044 0.049530044 -0.17498346 -0.027135361 0.11858367 0.15285686 -0.035145976 -0.0064405003
0.052758425 0.04813273 0.17002068 0.0023083042 -0.043890662 0.051028624 -0.098989055 -0.0028369576
-0.081453115 -0.006745335 -0.07881644 0.08714318 0.0077749975 -0.058947023 0.06251582 -0.0017825136
-0.13578221 0.029512366 0.014661923 -0.042098742 -0.03266899 -0.04286179 -0.17176093 0.0015167046
-0.006158015 0.05976492 0.054708224 -0.06659511 0.06655952 0.10592028 -0.09061818 0.072710805

layer3.bias f4 [9]
00000000: 35b8 42bc 3320 103d e46d 7dbd 8c1f a93b
00000010: c38d 51bc 0358 37bb 0b0a 083d 8017 35bd
00000020: a313 b1bc
-0.011884739 0.035186958 -0.061872378 0.0051612314 -0.012790146 -0.0027976043 0.033212703 -0.044211864
-0.021615809
