rl_energy_manager_20250326_0759/models/checkpoint_300/actor.pth (torch, 117576 bytes, 14 tensors)

layer1.weight f4 [128, 18]
0.068989724 -0.06691952 0.063298546 -0.09022867 0.07966297 -0.044588167 0.08266204 -0.0033187983
0.09499314 0.06528333 -0.04498174 0.0013946464 -0.11546187 -0.03609502 -0.01012467 0.12157255
-0.028812459 -0.0908405 -0.034266848 0.08037229 0.027202025 -0.041641776 0.12413787 -0.0032542122
-0.016810913 -3.5903828e-05 -0.08665462 -0.0064132274 0.04746979 0.03559753 0.019361539 0.041682243
-0.09802484 -0.017069794 0.040125143 0.0046862606 -0.00932312 0.10340291 0.074143164 0.1058241
-0.024853962 0.022731345 -0.14136423 0.08768081 0.024058279 0.050948422 0.10929729 -0.007105775
-0.10695778 0.006343017 -0.0012192993 0.12049415 0.044055596 -0.025536006 -0.022291277 0.027075095
-0.06273401 0.09548248 -0.018496094 0.07591907 -0.0077515035 -0.08032605 0.060314935 -0.10298902
-0.08393366 -0.0841259 0.13658164 -0.09966921 -0.036240116 0.077748545 0.0824219 0.17899887
-0.10071843 0.012985712 0.16632716 -0.23578462 -0.022797972 -0.07523445 -0.18812284 -0.06959165
0.0051805247 -0.17906371 0.041749652 0.08838855 0.0619421 -0.16558072 0.01654282 -0.14656317
-0.12523219 0.06546018 0.07928343 -0.075012386 -0.079758696 -0.100289024 -0.024958117 -0.06859122
0.036205374 0.06645209 0.15054257 0.26074678 -0.080788925 -0.10429908 0.09459045 -0.044410355
0.11602599 -0.045781177 -0.12178501 -0.05969284 0.0006021659 0.12824942 0.15134157 0.025207387
0.10354265 -0.043470863 0.11185143 -0.046685185 0.12876952 0.14517905 -0.0067548025 -0.04156078
-0.0023026825 0.01697616 0.12753978 -0.032547943 0.14739376 0.02605185 -0.069261216 0.049052145
-0.14755177 0.057311423 -0.15990123 0.07590208 -0.1891338 0.15029438 -0.10202578 0.23327024
0.123147614 -0.14824125 -0.039491538 -0.022601936 -0.047663428 -0.059712898 0.005764023 -0.06634027
-0.05369595 0.009670971 0.027459478 -0.028768167 0.052541208 -0.063500024 -0.109200336 0.038646236
0.05649077 0.018428076 -0.015268234 0.14367719 0.06961592 -0.0067885965 -0.052526116 -0.02291441
0.022165883 0.0719044 -0.02974338 -0.038087107 0.10505241 0.0024115152 -0.041507307 0.1065897
-0.09651774 0.010270851 0.10030496 0.025376493 0.027178723 0.25409418 0.0019989945 -0.007158326
0.058873214 0.10392605 -0.013489318 -0.080675334 -0.095952004 -0.119450144 0.1571163 -0.12876175
-0.0826808 0.01982607 -0.13276614 -0.017012723 0.04728337 -0.14853057 -0.043111846 -0.008278928
-0.13300714 -0.0997767 -0.088027805 -0.07951399 0.054348603 -0.071413375 0.11207172 -0.094336875
0.009211872 0.017248768 -0.045700956 -0.13905422 -0.19552726 -0.19538516 -0.0028927536 0.030819513
-0.029005395 0.07227248 0.013784149 0.029058369 0.03729305 -0.019854136 0.0075646252 -0.11909378
-0.13584958 -0.06194412 -0.028731413 -0.0030293132 0.1121444 -0.04498795 -0.027508738 0.10979849
-0.009248283 -0.03116817 0.047174167 -0.020575356 -0.10887223 -0.17329253 -0.117026664 -0.01075436
-0.0021035704 0.1474549 0.07582016 -0.075590156 0.025934814 0.11206932 -0.071007274 0.07103224
-0.09016023 0.14377306 0.00515432 0.12998703 -0.03912678 0.0697963 0.118111216 0.029175535
0.0018175527 -0.058505636 -0.0019306957 0.2185037 0.12988189 0.115820974 -0.13361053 -0.17117402
00000000: 7c4a 8d3d 1a0d 89bd aba2 813d cfc9 b8bd
00000010: 5726 a33d 15a2 36bd b74a a93d 3280 59bb
00000020: c38b c23d 44b3 853d c63e 38bd 91cc b63a
00000030: 4677 ecbd 5fd8 13bd f2e1 25bc 07fb f83d
00000040: 1b08 ecbc 960a babd 655b 0cbd 3a9a a43d
00000050: c8d6 de3c 9190 2abd ff3b fe3d 9f44 55bb
00000060: 0ab7 89bc 7197 16b8 fa77 b1bd 0d26 d2bb
00000070: af6f 423d b7ce 113d 179c 9e3c 00bb 2a3d
00000080: 3fc1 c8bd f4d5 8bbc 435a 243d 348f 993b
00000090: 00c0 18bc e8c4 d33d 5fd8 973d 4eba d83d
000000a0: 899a cbbc 1637 ba3c c9c1 10be ff91 b33d
000000b0: de15 c53c 4baf 503d 42d7 df3d 90d7 e8bb
000000c0: ae0c dbbd 15d9 cf3b e5d0 9fba a3c5 f63d
000000d0: a473 343d e330 d1bc 329c b6bc 97cc dd3c
000000e0: b07a 80bd 528c c33d 1f85 97bc 757b 9b3d
000000f0: 5300 febb fc81 a4bd cb0c 773d e8eb d2bd
00000100: 69e5 abbd 334a acbd 0fdc 0b3e 5f1f ccbd
00000110: 8470 14bd a13a 9f3d d0cc a83d 7b4b 373e
00000120: 7745 cebd 06c2 543c ab51 2a3e 8671 71be
00000130: d0c2 babc 8514 9abd 46a3 40be 1186 8ebd
00000140: 64c1 a93b 7a5c 37be af01 2b3d 0e05 b53d
00000150: 00b7 7d3d fe8d 29be cf84 873c a814 16be
00000160: de3c 00be fd0f 863d 5a5f a23d 18a0 99bd
00000170: 8758 a3bd 5564 cdbd f774 ccbc 8e79 8cbd
00000180: 164c 143d 0918 883d d527 1a3e 9a80 853e
00000190: aa74 a5bd c29a d5bd a3b8 c13d a2e7 35bd
000001a0: 099f ed3d 0b85 3bbd 6b6a f9bd 7b80 74bd
000001b0: abda 1d3a d153 033e 49f9 1a3e b97f ce3c
000001c0: 2b0e d43d 810e 32bd 5d12 e53d f738 3fbd
000001d0: 28dc 033e d1a9 143e 6457 ddbb a33b 2abd
000001e0: 9ae8 16bb 9711 8b3c ca99 023e fe50 05bd
000001f0: 64ee 163e b06a d53c d3d8 8dbd e7ea 483d
00000200: d017 17be 62bf 6a3d 26bd 23be 8d72 9b3d
00000210: 4aac 41be c5e6 193e e4f2 d0bd 65de 6e3e
00000220: d134 fc3d 8ecc 17be e1c1 21bd b227 b9bc
00000230: ba3a 43bd 8395 74bd 21e0 bc3b 68dd 87bd
00000240: 49f0 5bbd fe72 1e3c b3f2 e03c 38ab ebbc
00000250: 7335 573d 4d0c 82bd 6da4 dfbd 844b 1e3d
00000260: de62 673d 7af6 963c 9d27 7abc 1d20 133e
00000270: cb92 8e3d e072 debb a025 57bd 00b7 bbbc
00000280: 3a95 b53c 9d42 933d 64a8 f3bc 3a01 1cbd
00000290: b825 d73d 830a 1e3b 9103 2abd b34b da3d
000002a0: 18ab c5bd 1247 283c b06c cd3d 5de2 cf3c
000002b0: eaa5 de3c a218 823e 9001 033b 6490 eabb
000002c0: 0a25 713d 2ed7 d43d 4d02 5dbc 1c39 a5bd
000002d0: 7c82 c4bd 47a2 f4bd 18e3 203e 1fda 03be
000002e0: 8d54 a9bd 486a a23c d9f3 07be 445e 8bbc
000002f0: 35ac 413d 6618 18be 0c96 30bd 57a4 07bc
00000300: 0633 08be ba57 ccbd ec47 b4bd 3bd8 a2bd
00000310: a49c 5e3d 2d41 92bd dc85 e53d b133 c1bd
00000320: 64ed 163c 4a4d 8d3c ed30 3bbd 3b64 0ebe
00000330: 4c38 48be 0c13 48be 5a94 3dbb 3479 fc3c
00000340: b99c edbc 9803 943d e9d6 613c d10b ee3c
00000350: 99c0 183d 24a5 a2bc ade0 f73b 71e7 f3bd
00000360: 271c 0bbe 1eb9 7dbd 245e ebbc 7187 46bb
00000370: f7ab e53d 4945 38bd 015a e1bc 08de e03d
00000380: 1c86 17bc 6454 ffbc b339 413d a68d a8bc
00000390: 67f8 debd 9973 31be adab efbd 0e33 30bc
000003a0: 0edc 09bb 6bfe 163e 9a47 9b3d 03cf 9abd
000003b0: 3f75 d43c 9a84 e53d 436c 91bd 5a79 913d
000003c0: eda5 b8bd 3f39 133e 92e5 a83b 521b 053e
000003d0: 6743 20bd 5df1 8e3d 4be4 f13d 8801 ef3c
000003e0: f33a ee3a 9ba3 6fbd 660f fdba 6fbf 5f3e
000003f0: c2ff 043e 8c33 ed3d 33d1 08be 3e48 2fbe

layer1.bias f4 [128]
0.005953061 -0.0043840716 0.005371511 -0.008644046 -0.02858603 0.0053512384 -0.0015060747 -0.003801962
0.0058901357 -0.002367076 -0.016907461 -0.006619184 0.00160687 0.016377099 0.011278519 0.02808124
-0.0015028091 0.010845158 -0.007438238 -0.009911551 -0.0076561356 -0.028326076 -0.006477086 -0.005609981
0.011538033 -0.012536855 -0.0018191063 -0.002211869 0.005296358 0.01876854 -0.014161052 -0.009104648
-0.0024705012 0.008355899 -0.0052532363 0.0019198025 -0.028129116 -0.0023756968 -0.005482902 -0.005059952
-0.0042387904 0.0139689585 8.764258e-05 0.0044259764 -0.007994554 -0.0028129274 -0.013714142 -0.0066248556
-0.0045330385 0.030401725 0.010102482 0.021941163 -0.00682586 -0.001391988 0.0068304846 -0.027875714
0.006474472 -0.0069247233 -0.00921508 -0.0033538966 0.014292229 -0.002101408 0.001317339 -0.0055584507
-0.0043814983 0.00013742522 0.0041847667 -0.011789343 -0.028196244 -0.004971767 0.008291453 -0.0104424395
0.022581143 -0.006244101 0.0057534883 0.00889862 -0.0016536763 0.0066757156 -0.0043860027 -0.009701815
0.00048374597 0.005801185 -0.0020914688 -0.0029236956 0.0107418755 0.001339427 0.008733079 0.0025118722
-0.028559653 -0.0014127262 0.0013379861 0.00065756036 0.0013642727 -0.014624673 -0.0024667913 -0.028458271
-0.015246348 -0.028789429 -0.027996087 -0.009965128 -0.0047407574 0.0022467899 0.015411654 0.003402769
-0.010169711 -0.014140129 -0.0064356276 -0.027778476 -0.01662672 -0.009961825 0.021701269 0.007844649
-0.0107820295 -0.025661523 0.00301018 -0.015061585 -0.0012948682 -0.010143505 -0.0034917595 -0.027244765
0.0056389743 0.012147586 0.017482286 0.00785931 -0.0021919317 -0.006573694 -0.010876704 -0.009240346
00000000: e511 c33b 42a8 8fbb 8003 b03b c29f 0dbc
00000010: 402d eabc 7159 af3b 7b67 c5ba 562a 79bb
00000020: 0a02 c13b f220 1bbb 8481 8abc bde5 d8bb
00000030: 9c9d d23a 4429 863c 8ac9 383c a10a e63c
00000040: e8f9 c4ba e4af 313c 76bc f3bb 0f64 22bc
00000050: 52e0 fabb 160c e8bc bc3d d4bb eed3 b7bb
00000060: 050a 3d3c 6267 4dbc 146f eeba 01f5 10bb
00000070: 128d ad3b 7bc0 993c c203 68bc a92b 15bc
00000080: 22e8 21bb 2ee7 083c 5723 acbb e2a1 fb3a
00000090: 086f e6bc 94b1 1bbb eaa9 b3bb f4cd a5bb
000000a0: 8de5 8abb 0fde 643c c0cc b738 c807 913b
000000b0: 97fb 02bc 1759 38bb 48b1 60bc 5115 d9bb
000000c0: e289 94bb 0a0d f93c e184 253c f4bd b33c
000000d0: 77ab dfbb 5e73 b6ba 42d2 df3b 9c5b e4bc
000000e0: cf27 d43b cae8 e2bb d9fa 16bc 0ccd 5bbb
000000f0: f429 6a3c c7b7 09bb 90aa ac3a aa23 b6bb
00000100: ac92 8fbb cd19 1039 5e20 893b 1728 41bc
00000110: cffb e6bc 34ea a2bb e0d8 073c c416 2bbc
00000120: 17fc b83c 519b ccbb c287 bc3b 84cb 113c
00000130: 2bc0 d8ba f6bf da3b 75b8 8fbb 5df4 1ebc
00000140: 499f fd39 de17 be3b 0611 09bb 799b 3fbb
00000150: b1fe 2f3c b68f af3a 3015 0f3c 399e 243b
00000160: eff5 e9bc 3a2b b9ba 5d5f af3a 2160 2c3a
00000170: 65d1 b23a 539c 6fbc e4a9 21bb 5221 e9bc
00000180: d2cb 79bc cfd7 ebbc 0d58 e5bc c744 23bc
00000190: 5b58 9bbb e13e 133b 2981 7c3c fe00 5f3b
000001a0: dc9e 26bc 00ac 67bc f5e1 d2bb b08f e3bc
000001b0: c234 88bc ec36 23bc dcc6 b13c d886 003c
000001c0: 1ca7 30bc 1d38 d2bc 7146 453b dec4 76bc
000001d0: 91b8 a9ba f230 26bc 01d6 64bb 6a30 dfbc
000001e0: 25c7 b83b ab06 473c 0337 8f3c 56c4 003c
000001f0: 83a6 0fbb 2468 d7bb 3434 32bc d264 17bc

layer2.weight f4 [128, 128]
0.0937755 0.023031676 0.07283034 0.04178963 -0.13438427 -0.029082894 0.091237076 -0.1908504
0.060482662 -0.028213983 0.16446367 -0.10341451 0.112368494 0.07762508 0.081352964 -0.014219178
-0.051632337 -0.067704305 -0.037093047 -0.1379221 -0.04799977 0.054568782 0.0027716286 -0.07717429
-0.028910613 -0.13136847 -0.0029653744 -0.052191462 -0.030235365 0.082252875 0.04282137 0.15140544
0.06755306 0.085940175 -0.030815786 -0.10001989 0.08112573 0.026460359 0.02271414 0.12360235
0.023289762 0.07199321 -0.059658356 0.13175115 0.06824421 0.106517345 -0.06521045 0.06957605
-0.08848445 0.062323034 0.10784504 -0.1259446 -0.14133261 0.10696902 0.01557646 -0.033256773
-0.061683066 0.18712239 0.07965787 -0.055085745 0.04975174 -0.06907427 0.16056961 0.050664455
0.08010142 -0.02588698 0.17676328 -0.0013858358 -0.17400385 -0.013498845 0.011255932 0.14294176
-0.12933052 0.14920813 0.052315768 0.23990478 0.17081831 0.17711602 -0.04374911 -0.17042357
-0.02053713 0.09822283 -0.014188795 0.08923185 -0.005432621 0.03503996 -0.11245222 0.0045911055
0.042035867 -0.022104882 -0.032720223 -0.07944199 0.03082918 0.07707385 -0.030319672 -0.09261753
0.012013024 -0.022686737 0.13938195 -0.0041095214 0.05100771 0.11695767 0.009280284 -0.07930955
-0.09029925 -0.000988468 0.10852294 0.026530331 0.010533676 -0.097790174 0.101592235 0.033935353
0.050431658 -0.0095133465 0.07403233 0.12051048 0.10972055 -0.022016948 -0.08254501 -0.03278756
-0.054159716 0.06593459 -0.05470176 -0.0064375196 -0.022417728 -0.03412736 0.09796895 0.11993791
0.17881241 0.02879605 0.048459735 -0.1957913 0.11298496 -0.025181847 0.049994703 -0.023767443
0.04706647 0.089062706 0.021637106 0.033080515 -0.089021266 -0.13353704 0.00045272429 -0.07733066
-0.088162154 0.11323389 -0.020436382 -0.096577704 0.14299573 0.13033427 -0.016564189 0.11493094
0.008679919 0.05868463 -0.004624407 0.095349945 -0.085594565 0.013336128 0.0009926279 -0.06910752
0.025465464 -0.1516419 0.09448935 -0.039956007 -0.058913615 0.07516191 0.066211104 0.06271053
-0.101155326 -0.2248295 -0.09009308 0.17231463 -0.01683114 0.0044449912 0.0022446131 0.17316665
-0.060447574 0.04762818 0.013727115 -0.06713988 0.03781412 -0.033276025 0.06479974 0.13156642
0.047530428 0.07490315 -0.05547596 0.01509496 0.014376584 -0.038300436 0.1119377 -0.0813191
-0.034145925 0.02497651 0.19022214 -0.015182968 0.0046068523 0.044425543 -0.059427932 0.02581171
0.051681865 0.10200308 -0.05312786 -0.18641718 -0.09673463 0.061572287 0.11558274 0.11623662
0.0014110251 0.14987914 -0.056319963 -0.014396846 -0.15463269 0.022495585 0.047299333 0.06142635
-0.031101014 -0.04616057 0.10700647 0.054983824 0.10213561 0.06968944 -0.0017831222 -0.103010714
-0.08425649 -0.026516985 0.040451758 0.24982414 -0.079880424 -0.069107436 0.055635512 -0.019780613
0.001414623 0.028081525 0.07918812 -0.06942278 0.02687793 0.1252766 -0.043458242 0.10841481
0.017908044 -0.1331817 0.025053756 -0.05796742 -0.036752917 -0.038000703 0.031193154 0.21027203
0.058214024 0.13754909 -0.077685066 0.079187565 -0.11198152 -0.06812344 -0.058654185 0.02658628
00000000: 5f0d c03d edac bc3c 1328 953d 9a2b 2b3d
00000010: 089c 09be 403f eebc 81da ba3d 4a6e 43be
00000020: abbc 773d 0321 e7bc 2a69 283e fdca d3bd
00000030: 7421 e63d e6f9 9e3d 629c a63d 8ef7 68bc
00000040: 6e7c 53bd 8ea8 8abd e1ee 17bd 733b 0dbe
00000050: 689b 44bd 8483 5f3d 36a4 353b 8e0d 9ebd
00000060: f3d5 ecbc 7585 06be ba56 42bb b7c6 55bd
00000070: 28b0 f7bc 3274 a83d 7665 2f3d 070a 1b3e
00000080: 4259 8a3d 6701 b03d 6371 fcbc 3ad7 ccbd
00000090: 3f25 a63d 65c3 d83c 0113 ba3c 3b23 fd3d
000000a0: 2cca be3c 2d71 933d 525c 74bd c6e9 063e
000000b0: 9fc3 8b3d c425 da3d 0e8d 85bd e37d 8e3d
000000c0: 5637 b5bd 7046 7f3d dcdd dc3d 9ff7 00be
000000d0: 7fb9 10be 9312 db3d 6934 7f3c 4138 08bd
000000e0: 62a7 7cbd 039d 3f3e aa23 a33d 97a1 61bd
000000f0: 7bc8 4b3d d076 8dbd 5c6c 243e 8885 4f3d
00000100: 370c a43d ef10 d4bc 6f01 353e efa4 b5ba
00000110: 112e 32be 422a 5dbc cd6a 383c 535f 123e
00000120: 386f 04be 04ca 183e 0f49 563d 99a9 753e
00000130: ffea 2e3e e75d 353e 4432 33bd 8483 2ebe
00000140: 7c3d a8bc 0d29 c93d 1f78 68bc 30bf b63d
00000150: 2104 b2bb 1086 0f3d 594d e6bd fc70 963b
00000160: cd2d 2c3d 4c15 b5bc a405 06bd 7bb2 a2bd
00000170: 7a8d fc3c e5d8 9d3d f660 f8bc 42ae bdbd
00000180: 46d2 443c 89d9 b9bc 24ba 0e3e 2aa9 86bb
00000190: 76ed 503d 8187 ef3d 550c 183c 0c6d a2bd
000001a0: d0ee b8bd 7b8f 81ba 4641 de3d 2356 d93c
000001b0: 7095 2c3c 3746 c8bd 970f d03d ccff 0a3d
000001c0: 6d91 4e3d dedd 1bbc 439e 973d 33ce f63d
000001d0: 2bb5 e03d e35c b4bc 5c0d a9bd 404c 06bd
000001e0: 94d6 5dbd b708 873d f40e 60bd d4f1 d2bb
000001f0: 62a5 b7bc 21c9 0bbd f2a3 c83d 02a2 f53d
00000200: 9a1a 373e b2e5 eb3c b77d 463d 847d 48be
00000210: a964 e73d 294a cebc 3fc7 4c3d f1b3 c2bc
00000220: c5c8 403d 8266 b63d 4d40 b13c 6f7f 073d
00000230: c850 b6bd efbd 08be a05b ed39 895f 9ebd
00000240: 5c8e b4bd 2be7 e73d 336a a7bc 88ca c5bd
00000250: 796d 123e 5976 053e 9fb1 87bc ea60 eb3d
00000260: 3836 0e3c 4b5f 703d 5688 97bb d546 c33d
00000270: 344c afbd c67f 5a3c 111b 823a 3e88 8dbd
00000280: f39c d03c 0448 1bbe a283 c13d e9a8 23bd
00000290: 674f 71bd 7dee 993d b099 873d 616e 803d
000002a0: 862a cfbd b439 66be b982 b8bd 3f73 303e
000002b0: 75e1 89bc 4aa7 913b 5c1a 133b 9952 313e
000002c0: e097 77bd c415 433d b1e7 603c a280 89bd
000002d0: fbe2 1a3d 714c 08bd bab5 843d 59b9 063e
000002e0: 44af 423d d366 993d c33a 63bd da50 773c
000002f0: c48b 6b3c ebe0 1cbd 983f e53d a18a a6bd
00000300: 99dc 0bbd 8a9b cc3c 98c9 423e fcc1 78bc
00000310: 14f5 963b 8ff7 353d b46a 73bd 1473 d33c
00000320: 5db0 533d fee6 d03d 999c 59bd 25e4 3ebe
00000330: ce1c c6bd 3933 7c3d a5b6 ec3d 770d ee3d
00000340: 25f2 b83a eb79 193e c3af 66bd c0e0 6bbc
00000350: 0858 1ebe a948 b83c f2bc 413d 329a 7b3d
00000360: 8ec7 febc de12 3dbd 3526 db3d b836 613d
00000370: 7a2c d13d 56b9 8e3d a7b7 e9ba 48f7 d2bd
00000380: ab8e acbd 263a d9bc beb0 253d e6d1 7f3e
00000390: 5998 a3bd 3388 8dbd 10e2 633d f40a a2bc
000003a0: df6a b93a 3a0b e63c 622d a23d 882d 8ebd
000003b0: 1b2f dc3c 8248 003e 4501 32bd 9508 de3d
000003c0: e4b3 923c c960 08be 893d cd3c 3f6f 6dbd
000003d0: 3a8a 16bd a0a6 1bbd c988 ff3c 8d51 573e
000003e0: d471 6e3d abd9 0c3e 5919 9fbd 172d a23d
000003f0: 9156 e5bd 4d84 8bbd 5f3f 70bd 78cb d93c

layer2.bias f4 [128]
-0.00082939235 -0.008632888 0.013744381 -0.003323427 -0.0015415279 -0.013245866 4.243208e-05 -0.015414524
-0.013026358 0.003998725 0.0074347467 -0.0059055085 0.011981481 -0.0031804517 0.053417575 -0.003342607
-0.004103328 -0.012965264 -0.009608951 -0.013442992 -0.00013248049 -0.005814701 1.3734052e-05 -0.0022826323
0.0046190266 -0.005521986 0.0035879791 0.05740455 -0.0070852367 -0.012230057 -0.0039052034 0.009117214
0.0010636284 -0.013016045 -0.010074542 -0.012575896 -0.00748764 -0.005231137 0.022443488 0.00010521435
-0.0021280195 0.0073606023 0.016657071 0.001329311 -0.013346299 0.0061250324 -0.009691393 -0.0020981568
-0.0017380881 -0.0016320628 -0.008238675 0.007806891 -0.010228512 0.0033105817 0.0063198754 0.012052105
-0.00043519767 -0.006818681 0.0193845 -0.007285796 0.00984339 -0.0010366497 -0.0048898603 -0.005946508
0.012461155 -0.0047271624 0.004184379 0.0017983409 -0.0003546064 -0.0063806404 -0.0036524527 0.015216105
-0.0008322624 -0.013511455 -0.012826965 -0.010950388 0.0035702295 -0.0014877535 -0.0031161134 0.0006681354
0.0008585941 0.0013255969 -0.001041082 0.00466985 -0.0012406275 -0.013003917 0.039655283 -0.008365191
0.0004965673 -0.010084017 -0.0065401224 0.0057681506 0.00072711153 -0.0074387477 -0.006070938 -0.0012487075
-0.0015825582 -0.003691801 -0.011656098 0.004334467 -0.0024903507 0.0007645642 0.016664108 0.0019884577
-0.0051282416 -0.011998017 -0.012903882 0.013513031 -0.0020025815 -0.012780832 -0.009983733 -0.0106514795
-0.0043536015 0.0003114153 0.0011645744 -0.013597107 0.0139933275 0.0016802517 -0.0029154809 -0.012819838
-0.012133501 -0.005146484 0.017124372 -0.007768943 -0.005504065 0.0031926036 0.00061355566 0.017917456
00000000: 946b 59ba f570 0dbc 1d30 613c dacd 59bb
00000010: 180d caba 3005 59bc 19f9 3138 338d 7cbc
00000020: 816c 55bc bd07 833b 2d9f f33b ff82 c1bb
00000030: f94d 443c 206f 50bb 63cc 5a3d a40f 5bbb
00000040: 3675 86bb 426c 54bc dd6e 1dbc ff3f 5cbc
00000050: 76ea 0ab9 3f89 bebb 4e6b 6637 3798 15bb
00000060: 345b 973b c7f1 b4bb 4d24 6b3b 0921 6b3d
00000070: 462b e8bb 9460 48bc 71ee 7fbb 5e60 153c
00000080: 7269 8b3a 4041 55bc b10f 25bc 220b 4ebc
00000090: e05a f5bb f569 abbb 68db b73c 86a6 dc38
000000a0: 3e76 0bbb 3531 f13b 6974 883c 473c ae3a
000000b0: 6faa 5abc 7fb4 c83b a6c8 1ebc 3b81 09bb
000000c0: 8fd0 e3ba f1ea d5ba 82fb 06bc f3d0 ff3b
000000d0: 7d95 27bc 58f6 583b f516 cf3b 3176 453c
000000e0: 3e2b e4b9 3e6f dfbb 3ecc 9e3c b0bd eebb
000000f0: 2c46 213c 31e0 87ba 1f3b a0bb edda c2bb
00000100: df29 4c3c 50e6 9abb 1d1d 893b 4fb6 eb3a
00000110: 77ea b9b9 b114 d1bb fd5d 6fbb f84c 793c
00000120: 2f2c 5aba 265f 5dbc 3128 52bc 4269 33bc
00000130: 83fa 693b b900 c3ba b537 4cbb cf25 2f3a
00000140: 4613 613a a7bf ad3a ea74 88ba 8b05 993b
00000150: 8d9c a2ba 620e 55bc 946d 223d 270e 09bc
00000160: 112c 023a 6f37 25bc 864e d6bb c102 bd3b
00000170: a19b 3e3a bdc0 f3bb b8ee c6bb acab a3ba
00000180: d76d cfba 25f2 71bb 38f9 3ebc 2508 8e3b
00000190: 2735 23bb 096d 483a 2b83 883c c950 023b
000001a0: cf0a a8bb 5593 44bc ce6a 53bc c365 5d3c
000001b0: be3d 03bb b266 51bc d092 23bc 8b83 2ebc
000001c0: a8a8 8ebb 7445 a339 a2a4 983a 66c6 5ebc
000001d0: 4544 653c e43b dc3a a711 3fbb 4c0a 52bc
000001e0: 97cb 46bc d6a3 a8bb 6948 8c3c 9e92 febb
000001f0: 725b b4bb 003b 513b 06d7 203a a1c7 923c

layer3.weight f4 [64, 128]
-0.06797093 0.10166404 -0.06536954 0.21196431 0.023067135 -0.025594225 -0.1136208 -0.07282593
0.0040174625 0.065036386 -0.09187829 0.021682665 -0.13024826 -0.0132072335 0.1318803 0.053215005
0.055589214 -0.11417187 -0.14021215 -0.026052603 -0.067137584 0.07670951 0.08262571 0.0999562
-0.0463556 -0.067909576 0.0060913945 -0.1380031 0.04613528 -0.11348977 0.0586663 0.060670704
0.0094230315 -0.08061473 -0.043159198 0.018801764 0.061008092 -0.009356267 0.034427945 -0.043607216
-0.2601425 -0.23311907 -0.09351341 -0.1888333 -0.066451244 -0.04369749 0.05969123 0.09052485
-0.004096295 0.012366237 0.009482137 -0.056740586 -0.055425823 -0.016318992 -0.035628565 -0.1440217
0.007140938 0.107878156 -0.014086578 0.035547245 0.014109909 0.058310647 0.05595374 0.043970525
0.028780527 0.05542751 -0.07627547 0.09615612 0.04725754 -0.14526367 -0.05228453 0.06613971
-0.10986662 0.09522827 -0.021851353 -0.14303756 0.029097546 -0.123280026 0.1743114 0.026846318
-0.05873422 0.29414195 0.032378525 -0.0044101593 -0.045310136 -0.07205785 0.047120806 0.069909915
-0.071815126 0.0980991 -0.014480658 0.09681128 0.110537805 -0.05983072 0.05888811 -0.16811305
0.05708404 0.064725235 0.05690338 0.10583641 -0.03634764 -0.07260887 -0.021021826 0.08915139
-0.13798457 0.094941236 -0.093171686 0.020772325 -0.035831273 -0.10008555 0.104998596 0.12823418
0.041804675 -0.0013074841 0.048439763 0.0626861 0.033976845 -0.06486079 -0.011658806 0.13898237
-0.06802943 -0.022163322 -0.00025216144 -0.1150052 -0.027746795 0.06828081 -0.092388816 -0.07159593
-0.043540638 0.110619955 0.054436926 0.049102437 0.01881187 0.0016949611 0.010366836 0.033441484
0.13224201 0.046288732 0.14457713 -0.022967316 -0.023600074 0.014548394 -0.09994888 -0.03527105
0.046192434 0.113827236 0.015422757 0.03800876 -0.023183662 0.0259942 -0.16320625 0.0891038
-0.042277828 -0.079142466 0.011428997 -0.023926536 0.05512118 -0.1081956 -0.092502594 -0.0635542
-0.122388765 0.16098693 0.034154482 0.008339827 -0.06360673 -0.22338153 0.13522586 0.095803685
0.0751976 0.0033022852 0.023620948 0.06878057 -0.113082096 -0.03396239 -0.055466343 0.18951818
-0.027629398 0.15123643 0.031152148 -0.07296306 0.15413283 -0.080479436 0.017552294 -0.09991438
0.059251428 0.057322115 -0.20363401 0.02727835 0.053622082 -0.27378976 -0.047315545 0.03292833
0.11118602 0.1023044 0.037948046 0.0308288 0.20439813 0.13598952 -0.014815385 0.09445722
0.050583042 0.057743248 0.035492904 0.018902784 0.086769715 0.015210513 -0.19330814 0.046355307
0.07454559 0.19039851 0.10099932 0.0017940303 -0.029792422 -0.04237254 0.025922637 0.048826855
0.09004086 -0.08433986 -0.04726121 -0.111196905 -0.048727725 -0.13672422 0.087215595 -0.047442276
0.0025119819 -0.06364016 -0.08533814 -0.078117736 -0.034888797 -0.041267432 0.11685228 0.05965079
-0.13533019 0.057096727 -0.01587246 0.032294195 -0.07055515 0.10662646 -0.08355415 -0.04240473
0.0478098 0.07860771 -0.030165501 0.12890467 0.16949166 0.014575078 0.19576725 0.045637857
-0.052415553 -0.046521418 -0.058832783 0.020933958 -0.05413134 -0.050434135 0.10841457 -0.001412347
00000000: 5834 8bbd 3c35 d03d 77e0 85bd 2c0d 593e
00000010: 4af7 bc3c fbaa d1bc 06b2 e8bd c325 95bd
00000020: eba4 833b cc31 853d af2a bcbd d89f b13c
00000030: cd5f 05be 2763 58bc a10b 073e faf7 593d
00000040: 84b1 633d f1d2 e9bd c693 0fbe 456c d5bc
00000050: 6e7f 89bd e019 9d3d ab37 a93d d6b5 cc3d
00000060: 5fdf 3dbd 2d14 8bbd 529a c73b af50 0dbe
00000070: 59f8 3c3d 536d e8bd 134c 703d d881 783d
00000080: 0f63 1a3c 5619 a5bd b3c7 30bd 2806 9a3c
00000090: 9fe3 793d 074b 19bc 5104 0d3d 7b9d 32bd
000000a0: 6631 85be c4b6 6ebe f583 bfbd 845d 41be
000000b0: 9717 88bd 24fc 32bd cb7e 743d 1865 b93d
000000c0: 373a 86bb c29b 4a3c f75a 1b3c d168 68bd
000000d0: 3006 63bd 68af 85bc 42ef 11bd 6d7a 13be
000000e0: 88fe e93b 39ef dc3d 64cb 66bc fd99 113d
000000f0: 3f2d 673c 25d7 6e3d c02f 653d 701a 343d
00000100: 24c5 eb3c f507 633d 5036 9cbd 80ed c43d
00000110: 1f91 413d 00c0 14be 4e28 56bd 4274 873d
00000120: c001 e1bd 0a07 c33d 9c01 b3bc 7078 12be
00000130: fa5d ee3c 3d7a fcbd b07e 323e cfec db3c
00000140: 4b93 70bd c699 963e 589f 043d 1983 90bb
00000150: 1f97 39bd 1193 93bd bf01 413d ee2c 8f3d
00000160: cf13 93bd 2ee8 c83d 4840 6dbc fe44 c63d
00000170: a561 e23d 0f11 75bd a934 713d d425 2cbe
00000180: f4d0 693d aa8e 843d 8513 693d c2c0 d83d
00000190: 43e1 14bd f6b3 94bd f735 acbc 0195 b63d
000001a0: d44b 0dbe 8d70 c23d ccd0 bebd b92a aa3c
000001b0: d0c3 12bd a7f9 ccbd 8109 d73d d24f 033e
000001c0: 613b 2b3d e35f abba c668 463d 9261 803d
000001d0: 4e2b 0b3d bcd5 84bd 9404 3fbc 6551 0e3e
000001e0: 0453 8bbd db8f b5bc 8934 84b9 d987 ebbd
000001f0: 3f4d e3bc cfd6 8b3d 5936 bdbd e3a0 92bd
00000200: ab57 32bd b78c e23d 41f9 5e3d a31f 493d
00000210: 5a1b 9a3c 7529 de3a a9d9 293c f0f9 083d
00000220: 736a 073e 4199 3d3d 070c 143e f425 bcbc
00000230: f154 c1bc 635c 6e3c 00b2 ccbd 6078 10bd
00000240: 4734 3d3d 411e e93d bbaf 7c3c 13af 1b3d
00000250: aaeb bdbc caf1 d43c 8a1f 27be 0e7c b63d
00000260: 842b 2dbd 7215 a2bd b040 3b3c 9501 c4bc
00000270: bfc6 613d a895 ddbd 0072 bdbd b428 82bd
00000280: f6a6 fabd c2d9 243e 92e5 0b3d c5a3 083c
00000290: 3f44 82bd 21be 64be a678 0a3e b934 c43d
000002a0: 3301 9a3d 276b 583b b880 c13c d4dc 8c3d
000002b0: 9697 e7bd 261c 0bbd ad30 63bd 0e11 423e
000002c0: 0c57 e2bc b9dd 1a3e ca32 ff3c a86d 95bd
000002d0: ffd4 1d3e 67d2 a4bd d4c9 8f3c e99f ccbd
000002e0: a0b1 723d 98ca 6a3d 6f85 50be d976 df3c
000002f0: d4a2 5b3d 2c2e 8cbe f2cd 41bd dbdf 063d
00000300: 7fb5 e33d f884 d13d 696f 1b3d ae8c fc3c
00000310: be4d 513e d640 0b3e 3bbc 72bc c972 c13d
00000320: 2a30 4f3d 2f84 6c3d 0261 113d 03da 9a3c
00000330: 52b4 b13d 8435 793c 92f2 45be 10df 3d3d
00000340: 5cab 983d d4f7 423e bbd8 ce3d ab25 eb3a
00000350: 3d0f f4bc d48e 2dbd b65b d43c abfe 473d
00000360: 5867 b83d 60ba acbd f894 41bd 34bb e3bd
00000370: b996 47bd 6f01 0cbe 179e b23d d552 42bd
00000380: 10a0 243b c655 82bd c3c5 aebd 31fc 9fbd
00000390: 8ee7 0ebd 0a08 29bd 4050 ef3d 6354 743d
000003a0: ff93 0abe 42de 693d f606 82bc eb46 043d
000003b0: 387f 90bd f95e da3d 701e abbd 95b0 2dbd
000003c0: 35d4 433d 14fd a03d a41d f7bc 96ff 033e
000003d0: 398f 2d3e 4fcc 6e3c 3677 483e c3ee 3a3d
000003e0: b1b1 56bd 3e8d 3ebd a5fa 70bd b17d ab3c
000003f0: d3b8 5dbd 0694 4ebd 7508 de3d 801e b9ba

layer3.bias f4 [64]
-0.004058824 -0.005476844 -0.00089985924 0.00891381 -0.0006796305 0.06629486 -0.0025559538 0.0055480422
0.013495489 0.0012963711 0.0031730998 0.00028276353 0.0024061329 -0.00761232 -0.0035798112 -0.0039093047
-0.0020256934 0.04647281 0.005519925 0.0057407483 0.002691383 0.022810495 0.012718144 -0.008189039
0.010012967 0.0021960097 0.015276693 0.0010972166 -0.011483344 0.019611906 0.002128487 0.00070509827
0.08178422 -0.006877621 -0.000775396 0.0527604 0.0027574806 0.0056696213 0.031386886 -0.012514169
0.010408354 -0.0011879548 0.0035788268 -0.0070712953 0.008447481 0.0054977722 -0.004826068 -0.0023812302
0.01639043 0.0043702046 0.008444668 0.008191755 -0.0058246907 -0.0064241253 0.0024128573 -0.011189185
-7.011152e-05 0.011928582 0.0008853219 0.05976012 -0.002069937 -0.0015149816 0.005741305 -0.0059956545
00000000: e2ff 84bb 1977 b3bb 88e4 6bba 3b0b 123c
00000010: 3b29 32ba 99c5 873d ca81 27bb 5acc b53b
00000020: 2f1c 5d3c ffea a93a c8f3 4f3b e13f 9439
00000030: 36b0 1d3b c570 f9bb 449b 6abb a019 80bb
00000040: 7fc1 04bb 465a 3e3d 7de0 b43b e31c bc3b
00000050: ea61 303b 13dd ba3c c35f 503c 522b 06bc
00000060: 6d0d 243c eeea 0f3b 184b 7a3c 7bd0 8f3a
00000070: a324 3cbc 26a9 a03c 167e 0b3b 58d6 383a
00000080: 7c7e a73d ab5d e1bb f243 4bba 4a1b 583d
00000090: d9b6 343b 3bc8 b93b 898f 003d 3b08 4dbc
000000a0: cd87 2a3c 26b5 9bba c08a 6a3b 53b6 e7bb
000000b0: 4e67 0a3c a826 b43b fe23 9ebb 6a0e 1cbb
000000c0: 3945 863c ef33 8f3b 815b 0a3c b636 063c
000000d0: 0cdd bebb 7881 d2bb 0721 1e3b d852 37bc
000000e0: d608 93b8 1970 433c f214 683a 07c7 743d
000000f0: c8a7 07bb 5992 c6ba 8f21 bc3b 3277 c4bb

layer4.weight f4 [9, 64]
0.107670374 -0.014393225 -0.15253146 0.009134257 0.1447842 0.42636967 -0.15917517 -0.15807709
-0.1235375 -0.08802382 0.21557492 0.14081138 -0.14790374 -0.23347525 -0.11393381 0.07503273
0.25181603 0.07176668 0.021425905 0.22192237 0.07173193 0.006429811 -0.08522844 -0.033369727
-0.12144985 -0.07385303 0.25364137 0.10187779 -0.15399405 0.37516165 0.07248693 -0.00040872785
0.2778946 0.1613782 -0.0073849913 0.27349055 0.14946991 0.23382705 0.057788678 0.007900844
-0.08226514 -0.007166494 -0.13789989 0.20082496 -0.0874757 0.15441547 0.190708 0.08370436
0.072928436 -0.07565175 0.2166403 -0.061246324 -0.12612073 0.04160821 0.03484569 0.066343896
-0.19987504 0.04893896 -0.080699086 0.3014739 -0.0113630295 -0.1745957 -0.10083799 0.0607764
-0.20255679 0.010355638 -0.13127813 -0.054895274 0.13454859 -0.292668 0.049755514 -0.005812028
-0.217231 -0.10281109 0.27847868 0.020103589 0.15117382 -0.013018305 0.26471078 -0.19672011
0.21957467 -0.19053026 0.100281015 0.0519449 0.27159187 -0.00084687973 -0.12154885 0.07632938
-0.112671666 0.20288739 -0.07489198 -0.19208306 0.03294431 -0.2661804 0.13025093 -0.051289853
-0.5442167 0.0021609226 0.054911885 -0.2603474 -0.070359685 0.2032565 -0.031934973 0.04728027
-0.104632586 -0.046976995 0.10893212 0.09638586 0.041712787 0.022806717 -0.060633224 -0.065110415
-0.19075935 0.19304484 -0.040594127 0.009499338 0.09307115 0.11854604 -0.069462 0.013690212
0.00045625644 -0.014535796 -0.085496105 -0.17725839 0.06443025 0.117685646 -0.23316184 -0.1362861
0.010196276 0.03735708 -0.18971486 0.10287609 -0.11021391 0.366576 -0.07858196 -0.09149709
0.021139255 -0.10502298 -0.0769849 -0.04252832 0.13169158 0.04575812 -0.23577075 -0.07602111
0.005573076 0.15530616 -0.12163615 -0.04928949 0.12089763 0.013250755 -0.13275883 0.2466893
-0.28125378 -0.034960248 -0.08466803 0.011253471 0.15027057 -0.01915394 0.030839827 0.20859407
0.19657402 -0.20015635 0.1643515 0.14322425 0.25825596 0.0030176337 -0.13899428 0.23129357
0.110668495 0.306004 0.1971722 -0.10941644 -0.049761754 0.0966709 -0.025084948 -0.01831203
0.021028636 0.06773923 -0.23219067 0.031835996 0.12408047 -0.059527542 0.0229911 0.11236708
-0.22946253 -0.055852074 0.3031801 0.2542059 -0.026771521 -0.045366146 -0.04601115 0.035671167
-0.005676959 -0.09891779 -0.12803242 0.047854085 -0.08482472 0.17236991 0.24214116 0.0008716557
0.10638325 0.030967731 0.36185548 0.061641105 -0.028731711 -0.16348563 -0.21726876 0.03499793
0.124481745 0.12806278 0.06546763 0.0447719 0.016725825 0.2536819 0.19597857 0.15408315
0.20033272 -0.03250065 0.008371378 -0.030249225 -0.09483773 -0.116313614 -0.02529594 -0.07498639
0.4512468 -0.110364065 0.12270438 0.25995317 0.062251806 -0.11269098 0.16284876 -0.13779065
-0.066846065 0.15325168 0.17919922 0.026067832 -0.08200008 -0.18913819 0.0016570257 0.0840715
0.18581404 -0.046253935 0.092629746 -0.03503815 -0.10375067 -0.17895147 0.2555488 -0.06084528
0.08586651 0.27799636 0.039168198 0.063537985 0.10246387 0.29237932 0.0039447905 0.013611811
00000000: 4982 dc3d 90d1 6bbc 3531 1cbe daa7 153c
00000010: 4f42 143e 204d da3e d1fe 22be f6de 21be
00000020: 3b01 fdbd d545 b4bd acbf 5c3e dc30 103e
00000030: 1474 17be 2314 6fbe 2156 e9bd c3aa 993d
00000040: 08ee 803e 69fa 923d 6185 af3c 9e3f 633e
00000050: 31e8 923d 2ab1 d23b 408c aebd b2ae 08bd
00000060: b3ba f8bd 4240 97bd 48dd 813e 4ea5 d03d
00000070: 9eb0 1dbe 3015 c03e 0774 943d 864a d6b9
00000080: 3348 8e3e 5440 253e ccfd f1bb f406 8c3e
00000090: a40e 193e 5c70 6f3e d2b3 6c3d 8b72 013c
000000a0: a07a a8bd e9d4 eabb a135 0dbe 0fa5 4d3e
000000b0: 7626 b3bd 171f 1e3e f548 433e 316d ab3d
000000c0: 815b 953d 4eef 9abd f4d6 5d3e 6ddd 7abd
000000d0: cb25 01be 5f6d 2a3d 5bba 0e3d 4fdf 873d
000000e0: 0bac 4cbe 3874 483d 9045 a5bd c95a 9a3e
000000f0: 002c 3abc 37c9 32be 2684 cebd adf0 783d
00000100: 0c6b 4fbe b2aa 293c c66d 06be ded9 60bd
00000110: 1bc7 093e 95d8 95be 70cc 4b3d d372 bebb
00000120: ce71 5ebe 9f8e d2bd c294 8e3e 48b0 a43c
00000130: 4fcd 1a3e bb4a 55bc 2c88 873e ff70 49be
00000140: 2fd8 603e 5d1a 43be 2260 cd3d 2dc4 543d
00000150: 170e 8b3e 2301 5eba 9aee f8bd 9452 9c3d
00000160: 67c0 e6bd b6c1 4f3e f760 99bd 6cb1 44be
00000170: 9df0 063d cc48 88be 8060 053e 4f15 52bd
00000180: c951 0bbf 449e 0d3b 49eb 603d 414c 85be
00000190: bd18 90bd 7922 503e 3fce 02bd f5a8 413d
000001a0: 9c49 d6bd f36a 40bd ce17 df3d f365 c53d
000001b0: 07db 2a3d 27d5 ba3c 8b5a 78bd 9c58 85bd
000001c0: 6b56 43be 8cad 453e 0746 26bd 1da3 1b3c
000001d0: 169c be3d 44c8 f23d 1842 8ebd e94c 603c
000001e0: b435 ef39 8c27 6ebc 9518 afbd 3983 35be
000001f0: 02f4 833d 2c05 f13d fac1 6ebe 958e 0bbe
00000200: 480e 273c bd03 193d 9d44 42be b3b0 d23d
00000210: d5b7 e1bd d9af bb3e 94ef a0bd d462 bbbd
00000220: 3b2c ad3c 4a16 d7bd 42aa 9dbd 2d32 2ebd
00000230: 28da 063e de6c 3b3d e36d 71be f5b0 9bbd
00000240: 5a9e b63b 9408 1f3e 601c f9bd c7e3 49bd
00000250: 2d99 f73d b219 593c eef1 07be 1f9c 7c3e
00000260: 7f00 90be 7a32 0fbd 6f66 adbd 7a60 383c
00000270: 87e0 193e b9e8 9cbc cea3 fc3c af99 553e
00000280: b34a 493e c9f5 4cbe c24b 283e 61a9 123e
00000290: 203a 843e 7ec3 453b 8454 0ebe 39d8 6c3e
000002a0: 2aa6 e23d 8eac 9c3e 82e7 493e ba15 e0bd
000002b0: fbd2 4bbd 65fb c53d f37e cdbc 1c03 96bc
000002c0: 3f44 ac3c deba 8a3d 64c3 6dbe 7666 023d
000002d0: e71d fe3d 27d3 73bd d557 bc3c b620 e63d
000002e0: 3af8 6abe 25c5 64bd 6c3a 9b3e 4727 823e
000002f0: f34f dbbc dad1 39bd 3076 3cbd ee1b 123d
00000300: c905 babb 6995 cabd ee1a 03be a502 443d
00000310: 95b8 adbd bd81 303e daf3 773e d37f 643a
00000320: 76df d93d 0ab0 fd3c 1f45 b93e 627b 7c3d
00000330: c45e ebbc c768 27be b47b 5ebe fd59 0f3d
00000340: 49f0 fe3d e422 033e e513 863d bd62 373d
00000350: 9904 893c 98e2 813e 9bae 483e f9c7 1d3e
00000360: 0524 4d3e 671f 05bd 1b28 093c 39cd f7bc
00000370: 493a c2bd d535 eebd 6e39 cfbc 7792 99bd
00000380: d209 e73e 8e06 e2bd 6f4c fb3d 9518 853e
00000390: c0fb 7e3d 87ca e6bd d3c1 263e fe18 0dbe
000003a0: 97e6 88bd 02ee 1c3e 0080 373e 358c d53c
000003b0: a8ef a7bd 71ad 41be 8e30 d93a ae2d ac3d
000003c0: 0946 3e3e c474 3dbd aab4 bd3d 2a84 0fbd
000003d0: 3b7b d4bd 0e3f 37be 4bd7 823e e638 79bd
000003e0: c8da af3d 8a55 8e3e d56e 203d 3420 823d
000003f0: 94d8 d13d beb2 953e 4d43 813b 1304 5f3c

layer4.bias f4 [9]
-0.0076629873 -0.011619769 -0.0142139075 0.014693236 -0.017853497 0.009280385 -0.011687559 -0.00920071
0.01569371
00000000: cc19 fbbb d860 3ebc 73e1 68bc e6bb 703c
00000010: 7f41 92bc c20c 183c 2d7d 3fbc 93be 16bc
00000020: 1890 803c

layer_norm1.weight f4 [128]
1.0034782 0.9956003 1.0053227 0.9828047 1.0 1.0070586 0.99952894 0.9938875
1.0088961 0.99391973 0.985305 0.9961372 1.0092605 1.0162544 1.003509 1.0429327
0.99815315 1.0169266 0.99077076 0.9953992 0.99449956 1.0 0.98941183 0.99081945
1.0119104 0.990379 0.9996752 0.99845284 0.99850017 1.023253 0.9986575 0.99134165
0.9959932 1.014453 0.9909734 1.0078592 1.0 0.9946711 0.9926577 0.98973554
0.99323004 1.0251122 0.99435633 1.0005596 0.9933303 1.0036157 0.9890138 0.9868169
0.99421954 1.0568272 1.0283597 1.0360849 0.9970584 0.9990535 1.0024557 1.0
1.0061904 0.9944536 0.9955698 0.9986438 1.010763 1.0064163 1.0030261 0.99558705
0.9909751 1.0032387 1.0030292 1.0007879 1.0 0.99461097 1.0104661 0.9973598
1.0202618 0.9952154 1.0087774 1.009371 0.9971918 1.006386 0.9922968 0.99092066
1.0006145 1.0052824 0.995231 1.0058843 1.0322138 1.0049081 1.0254027 1.0000875
1.0 0.991887 0.99774224 1.0003184 0.99499303 0.98812014 0.99691373 1.0
1.0022568 1.0 1.0 0.99321103 0.99687105 1.0084668 1.0109853 1.001373
1.0023009 0.992811 0.9938883 1.0002583 0.99464893 0.9896397 1.0351448 1.0131294
0.99224174 0.99991554 1.0068707 1.0002111 0.9959924 0.98867124 0.99675757 0.99962616
1.008305 1.0179634 1.0678304 1.0059556 0.99839836 0.9964696 0.9884318 1.0012375
00000000: f971 803f a9df 7e3f 6aae 803f 1799 7b3f
00000010: 0000 803f 4ce7 803f 21e1 7f3f 696f 7e3f
00000020: 8223 813f 8671 7e3f f33c 7c3f d902 7f3f
00000030: 732f 813f a014 823f fc72 803f d27e 853f
00000040: f786 7f3f a72a 823f 27a3 7d3f 7bd2 7e3f
00000050: 8697 7e3f 0000 803f 184a 7d3f 58a6 7d3f
00000060: 4886 813f 7a89 7d3f b7ea 7f3f 9b9a 7f3f
00000070: b59d 7f3f f4f9 823f 05a8 7f3f 91c8 7d3f
00000080: 69f9 7e3f 99d9 813f 6fb0 7d3f 8801 813f
00000090: 0000 803f c4a2 7e3f d11e 7e3f 4f5f 7d3f
000000a0: 5344 7e3f e036 833f 238e 7e3f 5612 803f
000000b0: e54a 7e3f 7b76 803f 0230 7d3f 08a0 7c3f
000000c0: 2c85 7e3f 1d46 873f 4aa1 833f 6e9e 843f
000000d0: 383f 7f3f f8c1 7f3f 7850 803f 0000 803f
000000e0: d9ca 803f 8394 7e3f aadd 7e3f 1fa7 7f3f
000000f0: af60 813f 40d2 803f 2963 803f cbde 7e3f
00000100: 8bb0 7d3f 206a 803f 4363 803f d119 803f
00000110: 0000 803f d39e 7e3f f456 813f f952 7f3f
00000120: f097 823f 70c6 7e3f 9e1f 813f 1233 813f
00000130: f647 7f3f 42d1 803f 2a07 7e3f faac 7d3f
00000140: 2314 803f 18ad 803f 75c7 7e3f d1c0 803f
00000150: 951f 843f d4a0 803f 6540 833f de02 803f
00000160: 0000 803f 4eec 7d3f 096c 7f3f 6f0a 803f
00000170: ddb7 7e3f 71f5 7c3f bd35 7f3f 0000 803f
00000180: f349 803f 0000 803f 0000 803f 1443 7e3f
00000190: f132 7f3f 7115 813f f767 813f fe2c 803f
000001a0: 654b 803f dd28 7e3f 776f 7e3f 7708 803f
000001b0: 50a1 7e3f 0759 7d3f a07f 843f 39ae 813f
000001c0: 8e03 7e3f 77fa 7f3f 24e1 803f eb06 803f
000001d0: 5cf9 7e3f 8f19 7d3f 812b 7f3f 80e7 7f3f
000001e0: 2310 813f a04c 823f abae 883f 27c3 803f
000001f0: 0997 7f3f a218 7f3f de09 7d3f 8d28 803f

layer_norm1.bias f4 [128]
0.006165115 -0.00562456 0.0043582944 -0.0056582005 0.0 0.0061658965 -0.0014395011 -0.0040660244
0.0073731993 -0.00084504083 -0.01836567 -0.0020631535 0.010087496 0.019938173 0.010557556 0.034490626
-0.00062614755 0.013186853 -0.005616585 -0.008339972 -0.005848119 0.0 -0.009907089 -0.0049105077
0.013726552 -0.01267634 -0.003226964 -0.0018298433 0.0037933448 0.017518457 -0.0006060233 -0.0060199527
-0.0010263396 0.013234516 -0.0026160434 0.0050255307 0.0 -0.0017819827 -0.0037374522 -0.0064354613
-0.0041395156 0.018121658 -0.0019025062 0.0050941235 -0.0094632 0.0005016709 -0.016181102 -0.0048122653
-0.0055646775 0.030116348 0.016992647 0.021830842 -0.0045401817 0.00046097828 0.007150761 0.0
0.007082544 -0.0026807708 -0.004491132 -0.0038125354 0.013537851 -0.0028307866 0.0031410474 -0.0040888335
-0.0060662334 0.0027886785 0.0064448286 0.0018033698 0.0 -0.0036793824 0.012433144 -0.008280091
0.022991395 -0.003919508 0.007725864 0.009695007 -0.0014046071 0.006460876 -0.0034477212 -0.004949031
0.004715607 0.007648018 0.0029200385 0.0020548836 0.017967977 0.0035826662 0.01629104 0.004210639
0.0 -0.0044894516 0.0015265514 0.0016785719 0.003946368 -0.011324603 -0.00079936296 0.0
-0.00062655966 0.0 0.0 -0.008656716 -0.0026781857 0.0053882934 0.017691908 0.004066624
-0.007522214 -0.013949611 -0.003129877 0.00025936757 -0.0045012934 -0.01141673 0.026080493 0.008782879
-0.008786927 -0.0006775792 0.005293021 0.0011039549 -0.00020344701 -0.010218253 -0.0020506773 -0.00040951054
0.011046965 0.018079739 0.025198957 0.008785206 0.0005062577 -0.0027030592 -0.01005127 -0.010131188
00000000: bc04 ca3b 3b4e b8bb 06d0 8e3b 6d68 b9bb
00000010: 0000 0000 4a0b ca3b a4ad bcba 493c 85bb
00000020: e19a f13b bb85 5dba 9a73 96bc f935 07bb
00000030: 0646 253c 6155 a33c 99f9 2c3c 0b46 0d3d
00000040: 0d24 24ba ac0d 583c 540b b8bb 61a4 08bc
00000050: 94a1 bfbb 0000 0000 5851 22bc 53e8 a0bb
00000060: 55e5 603c 6cb0 4fbc 797b 53bb 5ad7 efba
00000070: c499 783b de82 8f3c 89dd 1eba 0643 c5bb
00000080: 3e86 86ba 95d5 583c ed71 2bbb 35ad a43b
00000090: 0000 0000 6b91 e9ba 0bf0 74bb 90e0 d2bb
000000a0: c6a4 87bb df73 943c 845d f9ba 9bec a63b
000000b0: 8a0b 1bbc 9082 033a 3b8e 84bc 35b0 9dbb
000000c0: e657 b6bb 8fb6 f63c 2a34 8b3c 98d6 b23c
000000d0: cec5 94bb 75af f139 ee50 ea3b 0000 0000
000000e0: af14 e83b dfaf 2fbb 592a 93bb bbdb 79bb
000000f0: ddcd 5d3c b884 39bb 08da 4d3b 9ffb 85bb
00000100: 41c7 c6bb 43c2 363b 242f d33b 0d5f ec3a
00000110: 0000 0000 cb21 71bb 63b4 4b3c 38a9 07bc
00000120: 7358 bc3c 376f 80bb 3f29 fd3b ced7 1e3c
00000130: cb1a b8ba c2b5 d33b 2af3 61bb 7b2b a2bb
00000140: 6185 9a3b 3a9c fa3b 1e5e 3f3b 3aab 063b
00000150: 9431 933c 2acb 6a3b ca74 853c 66f9 893b
00000160: 0000 0000 401c 93bb 9116 c83a 8703 dc3a
00000170: 8950 813b d48a 39bc 578c 51ba 0000 0000
00000180: b53f 24ba 0000 0000 0000 0000 e6d4 0dbc
00000190: 8084 2fbb 4890 b03b 9fee 903c 5141 853b
000001a0: e87c f6bb e98c 64bc 9f1e 4dbb bafb 8739
000001b0: 967f 93bb 3c0d 3bbc c2a6 d53c 11e6 0f3c
000001c0: 0bf7 0fbc 929f 31ba 1471 ad3b 94b2 903a
000001d0: 6454 55b9 766a 27bc a864 06bb 93b3 d6b9
000001e0: 54fe 343c f61b 943c 0b6e ce3c d3ef 0f3c
000001f0: 61b6 043a cf25 31bb 15ae 24bc 48fd 25bc

layer_norm2.weight f4 [128]
0.99686205 0.98990214 1.0222223 0.9982008 0.9951294 1.0 0.9949038 0.9954141
1.0 1.0095581 1.011059 0.9896269 1.0157722 0.9963051 1.1060648 0.99487484
0.9993315 1.0 0.9991865 0.9920027 1.0019023 0.9952401 0.9984697 1.0001417
1.0178956 0.99222845 1.0033209 1.1517718 0.9909025 0.999614 0.9982188 1.0010545
0.9995284 0.99965405 0.9985624 0.99970216 0.9940901 0.9989884 1.0184835 0.9940937
0.9987689 1.010825 1.0248688 1.0024478 1.0 1.032985 1.0004241 0.9980662
0.9994926 0.9984896 0.99332666 1.0026462 0.99922395 1.0049752 1.0047653 1.0126629
1.0001515 0.99306935 1.0268946 0.99923104 1.0272692 1.0005798 0.99474746 0.99755543
1.0109558 0.99494195 1.0100279 1.0111934 0.99852794 0.9958206 1.000318 1.0104469
0.9961695 1.0 0.9997242 0.9934833 1.0004811 1.0042367 0.9959669 0.9999871
0.9981924 0.99412906 0.99493307 1.007905 0.995926 1.0000426 1.0860649 0.99567217
1.0087132 0.99259245 0.999717 1.0091127 0.99813265 0.9934228 0.9960746 0.9970566
0.99785924 0.99652493 0.9900834 1.0095882 1.0004853 0.9999794 1.0841691 0.99972093
0.9982652 0.98948514 1.0 1.0002991 0.9949578 1.0 0.9922489 0.9959665
0.99842846 0.9931986 0.99878246 1.0 1.023454 1.0120707 0.9978147 0.9991379
1.0010478 0.99844986 1.0181727 0.9962691 0.9996368 1.005224 1.0027374 1.0326408
00000000: 5a32 7f3f 3a6a 7d3f 2ed8 823f 168a 7f3f
00000010: cdc0 7e3f 0000 803f 04b2 7e3f 75d3 7e3f
00000020: 0000 803f 3339 813f 626a 813f 3058 7d3f
00000030: d304 823f da0d 7f3f 8893 8d3f 1eb0 7e3f
00000040: 30d4 7f3f 0000 803f b0ca 7f3f e4f3 7d3f
00000050: 563e 803f 0ec8 7e3f b69b 7f3f a504 803f
00000060: 674a 823f af02 7e3f d26c 803f 426d 933f
00000070: c9ab 7d3f b4e6 7f3f 448b 7f3f 8e22 803f
00000080: 18e1 7f3f 54e9 7f3f c9a1 7f3f 7bec 7f3f
00000090: b07c 7e3f b4bd 7f3f ab5d 823f ed7c 7e3f
000000a0: 52af 7f3f b762 813f e72e 833f 3650 803f
000000b0: 0000 803f da38 843f e60d 803f 4481 7f3f
000000c0: bfde 7f3f 049d 7f3f a84a 7e3f b656 803f
000000d0: 24cd 7f3f 07a3 803f 269c 803f f09e 813f
000000e0: f704 803f cb39 7e3f 4871 833f 9bcd 7f3f
000000f0: 8f7d 833f 0013 803f c5a7 7e3f cb5f 7f3f
00000100: 0067 813f 84b4 7e3f 9848 813f c96e 813f
00000110: 879f 7f3f 19ee 7e3f 6c0a 803f 5356 813f
00000120: f704 7f3f 0000 803f eded 7f3f ec54 7e3f
00000130: c40f 803f d48a 803f b0f7 7e3f 28ff 7f3f
00000140: 8a89 7f3f 3e7f 7e3f efb3 7e3f 0803 813f
00000150: 02f5 7e3f 6501 803f 2d04 8b3f 5fe4 7e3f
00000160: 841d 813f 8a1a 7e3f 74ed 7f3f 9b2a 813f
00000170: 9f85 7f3f f550 7e3f bffe 7e3f 1a3f 7f3f
00000180: b473 7f3f 421c 7f3f 1b76 7d3f 303a 813f
00000190: e70f 803f a6fe 7f3f 0ec6 8a3f b6ed 7f3f
000001a0: 4f8e 7f3f e64e 7d3f 0000 803f cd09 803f
000001b0: 8eb5 7e3f 0000 803f 0604 7e3f a9f7 7e3f
000001c0: 0299 7f3f 4342 7e3f 35b0 7f3f 0000 803f
000001d0: 8a00 833f 888b 813f c970 7f3f 80c7 7f3f
000001e0: 5622 803f 699a 7f3f 7c53 823f 7e0b 7f3f
000001f0: 33e8 7f3f 2eab 803f b359 803f 932d 843f

layer_norm2.bias f4 [128]
-0.0010749437 -0.009064311 0.019652983 -0.0021945825 -0.0018581424 0.0 -0.00034368533 -0.015751796
0.0 0.007589734 0.009330236 -0.0062662233 0.012245998 -0.0022582933 0.060499605 -0.0032210837
-0.004332681 0.0 -0.0018826453 -0.014041077 0.0001775699 -0.0054045315 0.00092699437 -0.0010263225
0.0055586817 -0.0072395154 0.004548916 0.06193378 -0.0074924533 6.976037e-05 -0.0039090673 0.009020148
0.0011812705 -0.00034006772 -0.0016772321 -0.00030540387 -0.007204616 -0.001619512 0.024614522 -0.00046539737
-0.0014686919 0.008329227 0.019214408 0.0021754086 0.0 0.007743143 0.00010432955 -0.0011517898
-0.00030843084 -0.0016270069 -0.008677725 0.007924125 -0.0013111654 0.002977082 0.0061271596 0.012366646
0.000119049255 -0.0064370567 0.020472798 -0.0009502284 0.014156372 -0.00070538983 -0.005611863 -0.007149622
0.016484747 -0.004755753 0.005188159 0.0039045974 0.0012137676 -0.006132853 -0.0034506954 0.016052684
0.00025401323 0.0 -0.00027790698 -0.008146555 0.0042475965 -0.0010247023 -0.0035741967 0.0018983784
0.0014518795 0.0022140688 -0.0007034379 0.0068014367 -0.0011745759 0.0013661385 0.044124745 -0.008678501
0.0018875774 -0.010643668 -0.0069294474 0.006121384 0.00052164984 -0.008016184 -0.004483409 -0.0010573689
-0.0023163257 -0.0030964976 -0.011669054 0.006774028 -0.0018824224 8.536984e-05 0.021944119 0.004071902
-0.0049764635 -0.0124784345 0.0 0.014072406 0.0008809531 0.0 -0.010300357 -0.011231608
-0.004992014 0.00025682562 0.00035433436 0.0 0.018001031 0.0038089468 -0.0029874472 -0.0005807428
0.00080475444 -0.0034922638 0.019048935 -0.008286805 -0.0052150637 0.0051335124 0.00046721002 0.019887641
00000000: 20e5 8cba 7a82 14bc 4bff a03c fcd2 0fbb
00000010: ea8c f3ba 0000 0000 aa30 b4b9 e909 81bc
00000020: 0000 0000 4eb3 f83b d9dd 183c e454 cdbb
00000030: 70a3 483c e0ff 13bb 6fce 773d d118 53bb
00000040: 2af9 8dbb 0000 0000 18c3 f6ba 8c0c 66bc
00000050: 0f32 3a39 7f18 b1bb 8a01 733a ab85 86ba
00000060: 9a25 b63b 7539 edbb 130f 953b 46ae 7d3d
00000070: 4183 f5bb 504c 9238 a217 80bb 3ec9 133c
00000080: dcd4 9a3a 1e4b b2b9 92d6 dbba 9d1e a0b9
00000090: b314 ecbb ce45 d4ba 65a4 c93c 9400 f4b9
000000a0: 1f81 c0ba 4f77 083c 8967 9d3c 4d91 0e3b
000000b0: 0000 0000 31ba fd3b 80cb da38 a7f7 96ba
000000c0: e3b4 a1b9 4b41 d5ba 042d 0ebc 30d4 013c
000000d0: 69db abba 261b 433b 57c6 c83b 799d 4a3c
000000e0: 15aa f938 f2ed d2bb 92b6 a73c c018 79ba
000000f0: 21f0 673c e9e9 38ba b8e3 b7bb 6047 eabb
00000100: 050b 873c 26d6 9bbb 6f01 aa3b 46e4 7f3b
00000110: 4817 9f3a 1af6 c8bb 1025 62bb eb80 833c
00000120: 142d 8539 0000 0000 0bb4 91b9 2179 05bc
00000130: 6c2f 8b3b 4e4f 86ba 123d 6abb 02d3 f83a
00000140: fe4c be3a e919 113b eb66 38ba 96de de3b
00000150: 3af4 99ba 0010 b33a 26bc 343d 4530 0ebc
00000160: 9668 f73a c762 2ebc 6b10 e3bb e495 c83b
00000170: 54bf 083a 5056 03bc 90e9 92bb 6a97 8aba
00000180: 7fcd 17bb 9cee 4abb 8f2f 3fbc aaf8 dd3b
00000190: 9dbb f6ba 9508 b338 27c4 b33c 976d 853b
000001a0: 9a11 a3bb 5972 4cbc 0000 0000 f38f 663c
000001b0: c3ef 663a 0000 0000 d4c2 28bc c704 38bc
000001c0: 0c94 a3bb 8da6 8639 f4c5 b939 0000 0000
000001d0: e676 933c 869f 793b 0cc9 43bb fd3c 18ba
000001e0: 28f6 523a 77de 64bb 830c 9c3c 61c5 07bc
000001f0: 20e3 aabb 0637 a83b def3 f439 68eb a23c

layer_norm3.weight f4 [64]
0.9959967 0.9989633 1.0052326 1.0212238 1.0445504 1.309168 1.0136921 1.0129763
1.0257311 1.0056752 1.0206382 1.0054 1.0117029 1.0053953 1.0016876 1.0076154
0.9960346 1.1959045 0.9975275 1.0524437 1.0521009 1.0929937 1.0487372 0.9953895
1.0344216 1.0122231 1.0415543 1.000456 0.9938223 1.0687895 1.0150273 0.9976392
1.4455951 1.0008693 1.002623 1.182702 1.0486165 1.0529742 1.0992198 0.9942621
1.0152478 1.0157262 1.0170615 0.99649674 0.9965303 0.99836546 0.9967151 1.0154948
1.1184684 1.0348824 1.0330147 1.1711738 1.0256102 1.0110415 1.0370648 0.9924629
1.0357856 0.9790672 0.9970811 1.3038393 1.0078341 1.014442 1.0396364 1.0220505
00000000: a4f9 7e3f 0fbc 7f3f 76ab 803f 76b7 823f
00000010: d4b3 853f d192 a73f aac0 813f 35a9 813f
00000020: 284b 833f f7b9 803f 46a4 823f f2b0 803f
00000030: 7b7f 813f cbb0 803f 4d37 803f 8bf9 803f
00000040: 20fc 7e3f 6613 993f f65d 7f3f 7ab6 863f
00000050: 3eab 863f 38e7 8b3f 053d 863f d9d1 7e3f
00000060: ed67 843f 8790 813f a751 853f f10e 803f
00000070: 236b 7e3f 18ce 883f 6aec 813f 4865 7f3f
00000080: 4309 b93f 7c1c 803f f355 803f c762 973f
00000090: 1139 863f dcc7 863f 3cb3 8c3f f687 7e3f
000000a0: a4f3 813f 5103 823f 122f 823f 691a 7f3f
000000b0: 9c1c 7f3f e194 7f3f b928 7f3f bcfb 813f
000000c0: f929 8f3f 0777 843f d339 843f 06e9 953f
000000d0: 3247 833f cf69 813f 8abe 843f 0c12 7e3f
000000e0: 9f94 843f 26a4 7a3f b540 7f3f 35e4 a63f
000000f0: b500 813f 3cd9 813f ce12 853f 8dd2 823f

layer_norm3.bias f4 [64]
-0.003631478 -0.006345941 0.00712382 0.014457177 0.0057806633 0.17474018 0.0070003015 0.016230058
0.02088895 0.004801392 0.012580026 0.003945537 0.009789514 0.003998734 0.0023614655 0.0100703165
-0.0048580016 0.11674565 -0.0062272255 0.02187242 0.021508807 0.026964918 0.03225098 -0.004057229
0.020854468 0.011428963 0.015742043 -0.000828532 -0.0066020326 0.05594503 0.0071023414 -0.004046031
0.25157714 -0.00073426706 -0.0024790214 0.119531445 0.023675751 0.012617727 0.06712926 -0.0123186875
0.010823111 0.011356899 0.010433048 -0.0058559775 -0.0012837778 -0.0018503895 -0.0037501277 0.00772219
0.056230042 0.012275354 0.019812798 0.0671202 0.019922098 0.010926959 0.0176873 -0.010996609
0.016120303 -0.030015878 6.755727e-05 0.1775367 0.007617587 0.010599562 0.015383976 0.023184882
00000000: 17fe 6dbb 9df1 cfbb ef6e e93b ccdd 6c3c
00000010: b86b bd3b 17ef 323e c962 e53b e6f4 843c
00000020: 4e1f ab3c ff54 9d3b 741c 4e3c 9049 813b
00000030: 3364 203c d007 833b d1c2 1a3b f8fd 243c
00000040: df2f 9fbb 5818 ef3d c10d ccbb ca2d b33c
00000050: 3d33 b03c 88e5 dc3c 9b19 043d 81f2 84bb
00000060: fdd6 aa3c 8c40 3b3c 75f5 803c d731 59ba
00000070: dd55 d8bb 9e26 653d c2ba e83b 9194 84bb
00000080: b8ce 803e d47b 40ba 1477 22bb e7cc f43d
00000090: a6f3 c13c 95ba 4e3c 117b 893d 52d4 49bc
000000a0: 6b53 313c 4912 3a3c 60ef 2a3c 80e3 bfbb
000000b0: 6f44 a8ba c588 f2ba b4c4 75bb 6d0a fd3b
000000c0: 7951 663d 911e 493c 734e a23c 5176 893d
000000d0: ab33 a33c fd06 333c f5e4 903c 1f2b 34bc
000000e0: ba0e 843c dce3 f5bc 88ad 8d38 2ecc 353e
000000f0: f49c f93b c9a9 2d3c 120d 7c3c 39ee bd3c
