rl_energy_manager_20250326_0759/models/checkpoint_300/critic.pth (torch, 239522 bytes, 26 tensors)

q1_layer1.weight f4 [128, 27]
00000000: 68ed a3be c0ef 0dbe 0221 54be 087e a9be
00000010: 4c8b 1cbe 035c 7fbe b69d c5bd 81d8 17be
00000020: 192a 23be 4c74 c5bc 6f1c 8b3d 1ca5 853b
00000030: affb 1f3e 620b 67be d665 0b3d f4c0 bcbd
00000040: eb39 123e 2cc3 53be 7084 be3c 0475 05bd
00000050: 8276 343d aef6 3dbd 44c4 1f3e 8dd3 243d
00000060: e0df 0bbc 89e0 f93c b7b5 d2bc 8964 8c3d
00000070: 3bd2 d73b 166b 063e 5689 21bd 1737 6f3b
00000080: d15a 923d b199 023d f519 373e 7103 543d
00000090: ce25 4dbe cb98 c13c 6b9b b73d 261c 95bd
000000a0: c3fd 4dbc 077e 0fbd 6c33 8f3c d9ed 10be
000000b0: 2344 76bd 1bc2 d03d ff59 3c3d 2f81 b8bd
000000c0: 8be3 113d fa55 c2bb 88c6 1a3d e3fd 8c3c
000000d0: 7ecd 1e3d 5264 3ebb 4e8d 5f3d cd0e d53d
000000e0: a90c 263e cd89 173e 29d0 d63d efee 0e3e
000000f0: f15b 573c 10c6 513e eb0c 2c39 a497 1d3d
00000100: 023a 3ebd 048c f23c 7190 ef3b c36b a83d
00000110: df82 5b3d 42cd 1bbe 6e13 afbd 15f0 873d
00000120: c8e5 de3d db7e 983d 1aad bdbc fec3 533d
00000130: a92d 89bd aa87 00bd 6469 b03c ff92 e2bc
00000140: 8095 fdbc efc8 b1be dfb5 37be e744 c4be
00000150: 45e4 eebe d3d8 89be d408 48be 1706 85be
00000160: b67d 32be 70df a0be 620f b03d fe86 a43d
00000170: b789 363e 4db9 293e de90 b0bd 1c35 b6bd
00000180: 5a69 88bc fd6d a63b aab5 e9bd b665 e1bd
00000190: d2cd 493d ef6a 973d 55cf ecbd aaab 0e3e
000001a0: ad23 83bc c0b0 c7bd 9dbd 8d3d a819 383d
000001b0: 3d56 2c3d 1912 df3c 1bb7 e73c f928 d63c
000001c0: 821b ef3d 0ec3 a93d fe73 f83d 9b77 cf3c
000001d0: c407 5b3b ecfb 65be 5f3b 6fbc 07e0 413d
000001e0: 79ad d6bd 8de6 873c b4d3 79bd cff2 28bc
000001f0: cf7c 6d3c 7c3c 203e 8fff df3d 7bfd 6a3d
00000200: 5915 213d 8d40 95bd 6b97 fcbd 95bc cb3d
00000210: b43b a2bd 41f9 e93d 120b bcbd 7d0a b53c
00000220: 4277 a63c 777e babd 1fb6 a7bc 0c08 76bd
00000230: 0f50 263e 0dfe 123d 7cf5 a23d efa3 96bc
00000240: 21ce bcbc c181 37bd d91c e9bc a46d 30bc
00000250: a15f 2b3e 144e 9c3c 57d9 74bd 9368 b5bd
00000260: 6b9a f13d 5b52 a23d fff7 053d a545 553b
00000270: 9fef cebc e0ae 33bc 89ff 193d 9ddc 8fbb
00000280: 5bf7 483d 5019 8fbd a81c c8be 0b84 a1be
00000290: 1d09 e2bd 606b bebe e6aa 86be c134 1ebe
000002a0: 6500 96be ffa0 9cbe 3440 35be 1d2a 39ba
000002b0: c713 453d 34b7 293e da94 833e 01ed 32be
000002c0: 6caf 18be 6221 12be 3eb7 a33c 65f1 dbbd
000002d0: 99d1 09bd a86c e83d 375f dbbd 936b 17bd
000002e0: c94c 93bb 1751 9d3d 76a7 0abd f4f4 cdbd
000002f0: dba9 d23c 6edc 9cbe b354 a1bd 3057 66be
00000300: ef35 97be 890c 9fbe 1624 94be efcd 80bd
00000310: 5b43 5cbe 03ae 72be 622d e8bc 2b1e 813d
00000320: d74f e23c dcaa f4bd 7588 cfbd 7921 a5bd
00000330: ac9f 55bc cdef 10be 77a9 35be cc4a 19be
00000340: e938 2bbb 8d11 03be 235c 853c b164 903d
00000350: d2cc f1bc 1a24 5a3d e81d 16bd 2cad d13d
00000360: 69da 5fbd 7c13 3cbe 2dc1 9bbd f3b9 64bd
00000370: db8c c0bd 2fa3 043d 1017 47bd ff43 acbd
00000380: 3154 72bd cddb ccbc 0d30 03bd 2f5a 8a3d
00000390: 46c8 2cbc 0bbc d0bd a277 62bd 4763 15be
000003a0: 5fa9 e5bb 5d04 9f3d 07e2 823d 8aee 0cbe
000003b0: 4a76 86bc 15a8 6bbd c94e 903c a0d4 573d
000003c0: e313 17be 86ee c9bc a608 e6bc 6687 abbe
000003d0: a9c1 1abe 49b1 32bd 540d 58be 6406 5fbe
000003e0: 0e64 88be 856d 36be 8354 aa3d c5d5 d2bd
000003f0: a89e fcbd 7267 7d3c 22bd 0b3c bd07 b43d
-0.32017064 -0.13860989 -0.20715716 -0.33103967 -0.15287513 -0.24937443 -0.096492216 -0.14828683
-0.15934028 -0.024103306 0.06792533 0.0040785205 0.15623353 -0.22562936 0.034032665 -0.092164904
0.14279906 -0.20679921 0.02325651 -0.032582298 0.04405833 -0.04637783 0.15602213 0.040240813
-0.008537263 0.030502575 -0.025721414 0.06855113 0.0065863407 0.13126788 -0.039437614 0.0036501342
0.07146228 0.031884853 0.17880996 0.051761094 -0.20033953 0.023632428 0.089651905 -0.072807595
-0.012572709 -0.0350323 0.017480575 -0.14153232 -0.060123574 0.10193273 0.045984264 -0.09009015
0.035617393 -0.0059306594 0.03778699 0.017210906 0.03877019 -0.0029051495 0.054578118 0.10403214
0.16215767 0.1479866 0.10488922 0.13958333 0.013144479 0.20485711 0.0001640801 0.038474694
-0.04644204 0.02960778 0.00731092 0.08223679 0.053591605 -0.15215018 -0.08548628 0.06637589
0.10883671 0.07446071 -0.02315383 0.051700585 -0.06698162 -0.03137938 0.02153463 -0.027657984
-0.030955076 -0.34723613 -0.17940472 -0.38333818 -0.4665853 -0.26923236 -0.19534618 -0.2598121
-0.17430767 -0.3142047 0.08596684 0.0803356 0.17825972 0.16574593 -0.08621381 -0.088968486
-0.016651798 0.0050790296 -0.11411603 -0.11005728 0.04926855 0.07393443 -0.11562983 0.13932672
-0.016008222 -0.09750509 0.069209315 0.044946343 0.04207443 0.02723031 0.028285554 0.026142584
0.116751686 0.08289157 0.12131499 0.025325587 0.0033421377 -0.22459382 -0.0146015575 0.04733279
-0.10482306 0.016589427 -0.06099291 -0.010311796 0.014495089 0.15648073 0.10937416 0.057370644
0.039327 -0.07287703 -0.12333568 0.099480785 -0.07921544 0.114244945 -0.09181799 0.022099728
0.020320538 -0.091061525 -0.020472584 -0.060066268 0.16241477 0.035886813 0.07956979 -0.018388717
-0.023047509 -0.044801477 -0.028456138 -0.010768328 0.16735698 0.0190802 -0.059777584 -0.088578366
0.11797031 0.07925864 0.03270721 0.0032542732 -0.025260745 -0.010966986 0.037597213 -0.004390313
0.04906402 -0.0698725 -0.39084363 -0.31546053 -0.110368945 -0.37191296 -0.2630226 -0.15449812
-0.29297176 -0.3059158 -0.17700273 -0.00070634653 0.048114564 0.16573793 0.25699502 -0.17473222
-0.14910668 -0.14270547 0.019984838 -0.10739402 -0.033647154 0.113488495 -0.1071152 -0.036967825
-0.0044952375 0.07681482 -0.03385111 -0.10056487 0.025715759 -0.30636925 -0.07877483 -0.22494197
-0.29533336 -0.3106425 -0.2893378 -0.06289279 -0.21510069 -0.23699193 -0.028341953 0.06304582
0.027625961 -0.11946651 -0.10133449 -0.08063025 -0.013038557 -0.14153977 -0.17740427 -0.14969939
-0.002612645 -0.12799664 0.016279286 0.07050455 -0.029516611 0.053257085 -0.036649615 0.10238108
-0.05465165 -0.18366808 -0.07605205 -0.055841397 -0.09401866 0.032382187 -0.04860598 -0.08411407
-0.059162322 -0.025007153 -0.032028247 0.067554824 -0.010545796 -0.10192116 -0.055289872 -0.14588653
-0.007008716 0.07764504 0.063907675 -0.1376287 -0.016413826 -0.057533342 0.017615693 0.05269301
-0.1475368 -0.02464987 -0.028080296 -0.33501738 -0.15112938 -0.043626104 -0.21098834 -0.21779782
-0.26638836 -0.17815216 0.083169006 -0.102946796 -0.12334949 0.015466558 0.0085289795 0.087905385

q1_layer1.bias f4 [128]
00000000: a079 62be 47f0 583c d2e2 c53d dca0 83be
00000010: e924 4c3d 0dfa a13c 4618 8bbe e420 61be
00000020: 345f 75bd 5ada 40be 32f9 1ebe 0b50 dabb
00000030: 316c 0fbe 6c1e f6bd 0786 20be 7c1b e23d
00000040: 97ed d73d 3e15 3ebd 3123 c9bc 0f1d 6fbd
00000050: 86b8 dbbd b8f1 5abe 0e87 893d ef0f e4bd
00000060: 4d73 703c bfaf a13d 059c 453d d064 46be
00000070: eb03 e6bd 285c 833d 8ad7 693d 1c5c 2cbe
00000080: 2a9b 4a3c aeef 093d 709f 67be db25 35be
00000090: 1bd6 a4bd 015e 28be 01bd 63be 2338 673d
000000a0: 9a69 c13d ef4f 9bbd e8d0 b43c e59b 053e
000000b0: 4c94 15be 4af8 eebd 4f4c c23d 68dd 33be
000000c0: 1716 7e3d ff67 edbd 80e4 1ebe 1f3a 15bd
000000d0: 41f7 56be db49 3bbe d394 44bd 4493 de3c
000000e0: f055 19be 025e 48be 511c 423d 67ce fb3c
000000f0: 2e60 a23c d79d 7dbd e616 50bc 3a2b 40be
00000100: 2ba1 acbd 97c9 90bd 7b75 87bd 95d0 2c3b
00000110: 16d1 febb 3cde 4cbe 4c2a 80bc 91e1 b83d
00000120: a9fc 803d b7b6 683d a5df a1bd 0610 bd3d
00000130: f7be febc 4f5c 033d e23c 35be 3d52 44be
00000140: 624c 64be 25e0 63bd 2c87 4fbe 19f9 9e3d
00000150: 6bee 9c3d fb04 953d 75e0 8e3c 0387 ccbb
00000160: dcdb ad3d def7 d3bc f9e1 9dbd 39f8 4dbe
00000170: 187a 34be 0242 bcbc 8297 9b3d c2e4 80bc
00000180: 32d6 c43d b303 49be 0628 b33d b3e6 58be
00000190: 4c17 39be 6a62 b9bc 57d2 8d3d c3f2 263d
000001a0: 84c8 1dbe d9f2 9bbc c599 43be 2d5e 933d
000001b0: b7e6 543c ec2a 813d 6f21 0c3d 1ce9 263d
000001c0: 5e6a 16be 85c4 89bc 6997 a73d e7e2 4fbe
000001d0: 2469 0f3d 9c61 25be d0d9 1cbc 52da 59be
000001e0: cf27 6abc 5d65 133d b4af b8bd 3b2b f93d
000001f0: 4cf3 b43d d02d dcbb a9ce aa3d 1a98 42be
-0.22116709 0.01324088 0.09662403 -0.25708663 0.049839888 0.019772554 -0.27166957 -0.21985203
-0.059905246 -0.18833295 -0.15524748 -0.006662374 -0.14006115 -0.12017521 -0.15676127 0.110403985
0.105433635 -0.046406977 -0.024552913 -0.05837732 -0.107285544 -0.21381271 0.06715213 -0.111358516
0.014675927 0.07894849 0.048244495 -0.19374394 -0.11231216 0.06414062 0.05709032 -0.16832012
0.012366096 0.033675842 -0.22619414 -0.17690222 -0.0804865 -0.1644211 -0.22240068 0.05645002
0.0944397 -0.075836055 0.02207227 0.1304775 -0.14607352 -0.11668451 0.09487211 -0.17564929
0.062032785 -0.11592101 -0.15516853 -0.03643238 -0.20992757 -0.18289892 -0.047993492 0.027169831
-0.14974189 -0.19567111 0.047390286 0.030738069 0.019821253 -0.061918106 -0.012700772 -0.1876649
-0.08429178 -0.070697 -0.066142045 0.0026369442 -0.00777639 -0.2000665 -0.015645169 0.090273984
0.06298191 0.056814875 -0.07903985 0.09231572 -0.031096919 0.032070454 -0.17699006 -0.19171996
-0.22294763 -0.055633683 -0.20266408 0.07762355 0.07662662 0.072763406 0.017441014 -0.0062416806
0.084892005 -0.025875028 -0.077091165 -0.2011422 -0.176247 -0.022980694 0.07597257 -0.01573408
0.09611167 -0.19630317 0.08747868 -0.21181755 -0.18075293 -0.022629935 0.06924885 0.04075886
-0.15408522 -0.019036697 -0.19101627 0.07195697 0.01299446 0.06307015 0.034211572 0.040749654
-0.14689013 -0.01681734 0.08183176 -0.203014 0.03501238 -0.16150516 -0.009573415 -0.21274689
-0.014291718 0.03598534 -0.09017888 0.12166449 0.08835468 -0.0067193285 0.083401985 -0.19003335

q1_layer2.weight f4 [128, 128]
00000000: 2c43 653c c090 d7bd 3a5d a53d fe78 8bbc
00000010: 8613 be3d be45 c63d 813c b3bc 8197 003e
00000020: 9bfb 0d3e 12ef dd3c 4fae 3dbb ef9e 32bd
00000030: 9845 433d 6eb2 6cbd 9bae 96bc 6d65 143d
00000040: eb48 4a3e 0afb 2c3d 56d4 c03d d66d f43d
00000050: 752a 933d 8f22 d83d 3b0c 89bd cd2b d03c
00000060: 2e96 a9bc 8072 8b3d 25e3 0c3d dabd a93c
00000070: e55e 043b 35ec 9fbd a5e5 f93d 0f08 e43d
00000080: 776f 153e 57ed f23d 578c 203e 2039 be3c
00000090: dffb a13d c934 83be 8aed 1b3d fbc0 143e
000000a0: a9c6 3bbd 15e0 ae3c 3cb6 4cbc 1132 083e
000000b0: f9d5 4abd 4015 2cbd f63a 65bc 3080 ef3c
000000c0: 5be1 c53d d660 81bc ae44 3d3d 18ba 62bd
000000d0: 1bd0 fcbc 6d5b cfbb f532 32bd 6fdd 5d3d
000000e0: a5db 883d cf75 d63c 7ed3 0c3e b798 ac3c
000000f0: c2bd c43d 2ad3 a63d c616 ca3d 9b1d 05be
00000100: 5c4f 133e fb00 89bd 5f51 c93d a2a1 cf3d
00000110: ac40 0cbd 87f2 833d e03a 583d 9f31 8b3d
00000120: 9482 053e 33ad 84bd a7d6 2abd 9ab8 293e
00000130: 656e a43d 1122 76bd b6c9 67bd d908 49bc
00000140: a5a4 993c 5135 edb9 a147 86bb 6a48 5f3d
00000150: bb72 6c3d 1646 873d 43c9 bc3d e414 c6ba
00000160: 06b4 643d 850f 313d e46a cfbc 97bf 073d
00000170: fee0 47bc e1a8 b93a d9f9 ec3d ca9b 083c
00000180: edcd 3b3e 2107 d9ba 6075 a3bb 9690 77bd
00000190: e98a 9bbd 713b 86bc 3804 a8bd 8e57 8f3d
000001a0: bb54 383d 995b 683d ede6 3c3d e83e 3c3e
000001b0: f649 343d 16c5 0a3e 2860 d53d c48e 28bd
000001c0: 0f0a 86bd c856 583d c4a9 383e e6f4 223d
000001d0: f48b 4f3d ef82 143e 8a68 753d 4d92 61bd
000001e0: da37 a1bb 1c76 cbbd 0f7b 283d 9a89 2e3e
000001f0: 7170 583e a1b4 48bc 0204 a13d 2485 c73d
00000200: 6237 b739 01c8 ff3d 45b7 373d 3cc5 163d
00000210: 6eea 043e 4285 f03d 68f0 153e c01f 8c3d
00000220: e9a7 0e3d 2c3d da3d cde1 2d3d fff8 9f3d
00000230: 3956 83bd 494a ed3d f1d4 fc3c bc21 463e
00000240: 6a7d 653d 3292 85bd d757 c63d 5787 663d
00000250: f282 9e3d f5da da3c 1d2b e33d 9c05 cebb
00000260: 0aa2 6cbc ffad 943d c7df 993d 651e c6bb
00000270: 93f3 09bd fb22 273c 153b bf3d 02e0 fcbc
00000280: 3ca5 13be 2868 0bbd 2f16 a4bd 440a e53c
00000290: 7c15 2dbd 9104 bc3c 02f5 f0bd 43c0 2a3d
000002a0: 2e4a 8b3e 7bbb 9c3d 55dc 473c 2673 1a3e
000002b0: b08e 443d 5380 8d3d abcb 713d 2c45 9ebd
000002c0: 46cb c73d 994b 7bbc c468 6c3c 1531 313e
000002d0: 0156 643d d67b 0cbe e50c ab3d 9a89 bf3d
000002e0: 8c8c 65bd 85ce 043c 38b4 e43c 39a2 463d
000002f0: a7a4 853d 58c7 573c 9c6d bdbb 32b3 31bd
00000300: 0ad2 a6bd b74c 113e 9222 1c3d 0bc5 12be
00000310: bec4 253c ad2d 563c 2936 733d d021 a23d
00000320: f459 c03d 1980 163d d32f 80bd 7d48 cd3d
00000330: e721 70bc 24a6 fc3b 905e 4d3d 0cb3 193e
00000340: c175 03be 679d e6bc fd23 d83b a3eb dd3c
00000350: ca4c e939 8d27 3c3d fb46 0b3e a1d5 813d
00000360: dd63 aebd 3474 8a3d 5636 2d3c 5e30 a1bc
00000370: a1f6 fe3c 76ef 8ebc 377e 843d 3384 1e3d
00000380: 9769 aa3d d3b7 763d 14bd 503e 49b6 613d
00000390: 3845 1b3d 9324 a2bc 23b0 0bbe 23f9 c5bb
000003a0: 0c0f aabd 4f74 ca3d 4178 a53c 6973 d8bc
000003b0: 823f a6bd bcf0 1e3c 1600 513e 8dd3 803d
000003c0: 2394 edbd 3ae0 4f3c 91e5 a93d 3f9f 9f3c
000003d0: d1d2 553e 6716 273c 862e 99bd c747 a0bd
000003e0: e9a0 7e3c 4148 af3d 1259 fabc fd83 cf3d
000003f0: 16e0 033e c61e 77bd 43d9 c8bd caaa 863d
0.013993066 -0.10525656 0.08074422 -0.017025467 0.092810676 0.09681271 -0.021879436 0.12557794
0.13865511 0.027091537 -0.0028943007 -0.043608602 0.04767379 -0.05778735 -0.018393805 0.03622954
0.19754378 0.042231597 0.094155 0.11935012 0.071858324 0.105534665 -0.06691786 0.02541151
-0.020701494 0.068089485 0.03439631 0.020720411 0.0020198163 -0.07808725 0.12202004 0.111343496
0.14593302 0.11861675 0.15678535 0.023220599 0.07909369 -0.2562621 0.03806833 0.14526741
-0.045843754 0.021347085 -0.01249462 0.13300349 -0.049520466 -0.042012453 -0.013991108 0.02923593
0.09662124 -0.015793245 0.046208076 -0.055353254 -0.030860951 -0.0063280375 -0.043505628 0.054166254
0.06682519 0.026179222 0.13752553 0.021068914 0.09606506 0.08145745 0.09867625 -0.12999575
0.14385742 -0.0668964 0.098299734 0.10138251 -0.034241363 0.06442743 0.052790523 0.06796574
0.13038093 -0.06478348 -0.041708615 0.16574326 0.080288686 -0.060091082 -0.05658885 -0.012270176
0.018755266 -0.00045243886 -0.0040978943 0.05451242 0.057726603 0.06605165 0.09218075 -0.0015112427
0.055835746 0.04322769 -0.025319524 0.0331417 -0.012199638 0.001416471 0.11571092 0.008337924
0.18340273 -0.0016557911 -0.0049883574 -0.060440622 -0.075948544 -0.016385766 -0.0820393 0.069991216
0.04500268 0.05672798 0.046118665 0.18383372 0.044015847 0.13551745 0.10418731 -0.041151777
-0.06544887 0.052817136 0.1803351 0.039784335 0.05067058 0.14503072 0.05991415 -0.055071164
-0.004919988 -0.09934637 0.041132983 0.17044678 0.21136643 -0.012250097 0.078620926 0.097421914
0.00034945743 0.124893196 0.044852514 0.03680919 0.12980053 0.11744167 0.14642489 0.06841993
0.0348281 0.10656199 0.04245167 0.07811164 -0.0641293 0.115864344 0.030863257 0.19348806
0.056027807 -0.06522025 0.09684723 0.056281414 0.077398196 0.026715735 0.110922076 -0.00628729
-0.01444293 0.072597496 0.07513385 -0.006046104 -0.033679556 0.010201211 0.09337441 -0.030868534
-0.144185 -0.034034878 -0.08012044 0.027958997 -0.042256817 0.022951396 -0.117654815 0.04168726
0.27205032 0.076529466 0.012198527 0.15082988 0.04798764 0.069092415 0.059032124 -0.07728037
0.09755568 -0.015337848 0.014429275 0.1730388 0.055746082 -0.13719115 0.08352069 0.09352417
-0.05604224 0.008105879 0.027917966 0.04849455 0.065255456 0.013170086 -0.0057808887 -0.043383785
-0.081455305 0.1418942 0.038118906 -0.14332978 0.010117708 0.013072413 0.059377823 0.079166055
0.09392157 0.036743257 -0.06259122 0.10023592 -0.01465652 0.007710235 0.05013901 0.15009707
-0.12837888 -0.028151227 0.006596087 0.0270899 0.00044498435 0.045936156 0.13601296 0.063395746
-0.08515141 0.06760445 0.010572037 -0.019676384 0.031123461 -0.017448168 0.06469386 0.038700294
0.08320921 0.060233902 0.20384628 0.05510548 0.03790781 -0.01979283 -0.1364141 -0.0060416623
-0.08303651 0.09885465 0.020198943 -0.02642222 -0.08117582 0.00970095 0.20410189 0.0629035
-0.116005205 0.012687737 0.082957394 0.019485114 0.20881201 0.010198212 -0.07479577 -0.078261904
0.015541294 0.08558703 -0.03056005 0.10132597 0.12878451 -0.060332082 -0.098070644 0.06575544

q1_layer2.bias f4 [128]
00000000: 73a9 313d 94fb 293d 0d05 88bd e61e 9d3c
00000010: 054f f23b ea79 5cbd 9497 84bd 1930 6bbd
00000020: 7e0a 853d 1f17 69bd dba2 053d db01 88bd
00000030: 329e 3bbd 3acf 353d c513 54bd 9a8a 523d
00000040: 5e24 9e3b 516b e7bd fa93 5ebd 9f59 803d
00000050: 6f46 30bd cbb6 3ebd 6273 3abd 8559 053c
00000060: 1b26 f43c 5242 84bd 2505 81bd 86eb 16bb
00000070: 63a7 473d c2e8 bdba fa99 bfbd 9560 88bd
00000080: c3cf 70bd 52ab 77bd bb09 7cbd d507 83bd
00000090: ee66 8abd 142d 9bbd 7a39 5cbd 782f 6fbd
000000a0: b98d ac3c 6c4d e73c d12e 073c 4d97 d43c
000000b0: 3983 3cbd 6f56 a7bc a79e 8fbd aeff 74bd
000000c0: aa22 e63c ae99 6dbd ed55 5dbc 04ea 1c3d
000000d0: 39e6 32bd 3477 81bd ebd8 4fbd c772 80bd
000000e0: 83cf 6bbd 3749 69bd b4ca adbd e647 d1bd
000000f0: 8106 5abd 38cd 4fbd 59e4 55bd 9e60 99bd
00000100: d43c b8bd c179 57bd 5fa2 4c3d dce2 67bd
00000110: cd4a 153d 939e a7bd 3a0e 2c3d 9c56 54bd
00000120: 24d7 4abd aed5 57bd d91b 87bd 538e 953d
00000130: d94b 233d 010f 88bd 68d4 40bd 4f2c 51bd
00000140: e6d5 9cbd 503f 393c 6c3c 8db9 bbc1 48bd
00000150: 9f10 e8bd 733e 47bd f6e6 4cbc 0285 60bd
00000160: c7e9 6cbd ff74 0f3d b4fa 66bd 7368 86bd
00000170: 8dc1 50bd f41c aa3c e917 84bd e801 1e3d
00000180: d5df 223d b2d3 3fbd b5b7 69bd f708 65bd
00000190: cc56 763d 8137 0e3d 860b 09bb d6c3 233d
000001a0: ef01 50bd 0c48 123d 7165 6bbc 41de 96bd
000001b0: 3a4e fabc 60bd 303d b46d 14bc 81d7 6b3d
000001c0: 831d 633d ae0f 033d 0a40 4fbd 5ca4 013d
000001d0: 57ce 7e3d 6e6f 59bd 4f91 1b3d de35 c9bc
000001e0: a6d9 853a e973 3bbc f4a8 72bd d713 a7bd
000001f0: a3e8 653c 6093 57bd 7550 50bd 2bfb ee3c
0.04337449 0.04149969 -0.06641588 0.019179773 0.007394674 -0.053827204 -0.06474224 -0.057418916
0.06496142 -0.056906816 0.032626014 -0.06640979 -0.045805164 0.04438708 -0.051776666 0.051401712
0.0048261127 -0.11299766 -0.05434034 0.06267094 -0.04303592 -0.046561044 -0.045520194 0.008139019
0.029803326 -0.06457962 -0.06299809 -0.0023028567 0.048743617 -0.0014488923 -0.093555406 -0.066590466
-0.058791887 -0.06046612 -0.061532717 -0.06397978 -0.067579135 -0.07576957 -0.05376575 -0.05839488
0.021063672 0.02823516 0.008250908 0.025951052 -0.04602358 -0.020426957 -0.070126824 -0.059814148
0.028092701 -0.05800789 -0.013509256 0.038309112 -0.04367659 -0.06321564 -0.05074398 -0.06271892
-0.057570945 -0.05695459 -0.08485928 -0.10218792 -0.05322886 -0.05073282 -0.052219722 -0.074891314
-0.08995977 -0.052606348 0.049959537 -0.056612834 0.03644829 -0.081845425 0.042005755 -0.05184041
-0.04952158 -0.052694015 -0.065971084 0.07302537 0.039867256 -0.06643487 -0.047077566 -0.051067647
-0.076579854 0.011306599 -0.00026938634 -0.04901288 -0.11331295 -0.04864354 -0.012506237 -0.054814346
-0.057840135 0.035023686 -0.056391433 -0.06562891 -0.050965834 0.020765759 -0.06449873 0.038576037
0.039764244 -0.046832748 -0.057059962 -0.055916753 0.06014137 0.0347209 -0.002091141 0.039981686
-0.050783094 0.03571324 -0.014367447 -0.0736661 -0.03055488 0.043149352 -0.009059358 0.057578567
0.055448066 0.031997375 -0.05059818 0.031650886 0.0622085 -0.053084783 0.037980374 -0.024561819
0.0010211959 -0.011441209 -0.059243158 -0.08158081 0.014032516 -0.052630782 -0.05085798 0.0291725

q1_layer3.weight f4 [64, 128]
00000000: 4f74 0ebe c6fc 0d3e d0fb f63c 9bf2 cebd
00000010: 65ed 643d 92b8 233d a1d7 a2bd ebe1 54bd
00000020: 0190 5abe 7279 dcbd 38c9 52be 81a2 a0bd
00000030: 4cf3 f83d f425 25bd ff6c 2abd ff98 71bd
00000040: 447f 69bd 6e93 693c feb4 863d 81e4 e9bd
00000050: a2a3 27bc 3219 183d 54dc c1bd fd5a 9d3c
00000060: 2805 e33d c9a3 bebd bee0 513d e733 7d3d
00000070: 112e 163d 6f1e b7bd 6a3d b03d a411 5a3d
00000080: cd63 673d 7050 3f3d 9a61 b8bd b677 09be
00000090: 3175 47bd 686b 02bd 373f fabd 89b9 de3c
000000a0: 884d 363d a16f 9c3b e673 4bbd 2b32 b6bd
000000b0: eeb6 d8ba 792b 983d 5152 313e 9d08 d8bb
000000c0: f1ac 6dbc 0b92 5ebd 7883 42bd f000 2d3d
000000d0: af4a 443d 8956 d43d 4c8f b039 86ae 8abd
000000e0: 125c d53d 8e79 9e3d 4fb9 82bd 66ea 2a3e
000000f0: 56cb d13d e94e ff3d 508f 1f3e 14a8 353d
00000100: 3a0a 18be 7cfe 87bd 0abf 86bc abac bb3d
00000110: 6a7b f5bd 272a a8bd d623 0b3e 7556 a7bd
00000120: a08e 75bc 11e7 39bd 6edd fe3c 4e18 d2bd
00000130: d273 213c 76a6 dcbd d5d3 34bd 3f2d ca3d
00000140: bdb2 a63d 3c2a 30bd 71b9 03be c11a cebd
00000150: b7c6 823b f5ba efbb 614f cb3d fc68 3abc
00000160: 8b71 2c3e 3c41 bebc c662 8d3d 235f f33d
00000170: 1ac7 5bbd 8df3 18bd 1c12 ddbc 2802 06bd
00000180: 5692 753d 7fd9 aebc c538 913c 444e 3c3d
00000190: fe4a 1abd e6bf 93b9 fa2d 943c 7ba4 b33d
000001a0: 39bf 6dbd ce94 b9bd f6b6 943d a6b7 433d
000001b0: e4e7 603d 5b5a 49bc 4cff 763d 10f2 193d
000001c0: c98d 123d c00b 96bd a5f5 d4bd adbf b63b
000001d0: 4473 11be 5cde 233d 2b57 7abd f652 14bd
000001e0: 37fe 12bd ef3d de3d af8d 08bd e6da 2a3a
000001f0: 103e aaba e352 22bb 468a b43c adc9 d73a
00000200: 0e07 da3c fb82 293e 1c14 9139 d411 ae3d
00000210: 6f85 553e d278 36bd eb5a 10bc f356 11bc
00000220: afb7 513d bbda bb3d c67c f03d 0f7c a9bd
00000230: c5aa 433a beff f13d 5518 5d3d 63ad 973d
00000240: 4030 bc3d 965b 72bb df0e 3ebe d333 8e3d
00000250: ae6e 2a3e a8ec 8ebc 1851 10be d9b2 0e3e
00000260: 6845 d63d e786 43bd f0e2 cebc b98b 523d
00000270: 0f77 de3d 88fe 58bd d49e a1bd 65cf 963d
00000280: 840b 46bd 2a9c 933d ecf3 1d3e 1c96 733d
00000290: ea37 aa3d 28e9 00be 9861 183e bcdd 3e3d
000002a0: 2f03 6d3d 7ad3 773e 42c1 5fbd 35db 243e
000002b0: 3c9c af3d de49 20be d846 99bc 8096 0a3d
000002c0: b4fa 0e3d 83b7 c23c e727 873c 9f12 c23c
000002d0: b0e6 bebd 5469 be3c 6f73 9a3d 0ad1 42bd
000002e0: aef6 943d c800 e53d f3b5 a23d 5116 75bd
000002f0: becb 13be 4f05 95bc 7b1e fb3c 8aef 4cbd
00000300: b4f8 04be 3086 753d aec0 bebc c83f 96bd
00000310: 827f 093e 2e17 bd3c a6e3 153e f362 f03d
00000320: 19f1 4abb b608 fcbd 0cfe c33d 79d7 923d
00000330: 6a46 1dbd d9be 69be 710f 16bd fb93 903d
00000340: 8c4d 413e 49aa f73c 708e 403d 3e44 21bd
00000350: 5b8e 06be b8b1 91bd 3178 5c3c 09b0 bb3c
00000360: 7d96 a5bc 2ef1 653d b371 9ebd e2b5 4cbb
00000370: de8f 883c aaf3 5f3d a9eb ea3d 36c5 a0bd
00000380: a5a3 aa3c 29c8 f4bd 824b 06bd f186 0ebe
00000390: aa31 c93d 69ce 7c3d a4df 1d3d f3ec 483d
000003a0: 0e9b d33d 963b 243e e950 96bc 4c5e 7f3d
000003b0: 5a34 dbbb 66ab d5bc 68fe 813d 2556 bf3d
000003c0: 9f9f 1c3e 2945 673b 429f 063d c629 de3d
000003d0: 5232 ef3d 5db6 753c f30b 6ebc 8c6e d13c
000003e0: 2869 193e 1360 d33d 6c3d d33d 4bb8 97bd
000003f0: 2417 783b f7be 883e d8b0 1fbc 6fb7 9bbc
-0.13911556 0.13865957 0.03014937 -0.10104867 0.05589046 0.03997094 -0.07951284 -0.051973265
-0.21343996 -0.10765351 -0.20584571 -0.07843495 0.1215578 -0.040319398 -0.041607853 -0.0589838
-0.057006136 0.014256341 0.0657749 -0.11420537 -0.010231884 0.037133403 -0.094658524 0.019208426
0.11084968 -0.09308583 0.05123972 0.061817076 0.036665026 -0.089413516 0.08605464 0.05323948
0.05649166 0.04670757 -0.09002991 -0.13424572 -0.048695747 -0.03184071 -0.122190885 0.02718808
0.044507533 0.0047740494 -0.049671076 -0.088962875 -0.001653401 0.07430167 0.17316557 -0.0065928237
-0.0145065645 -0.054338496 -0.04748866 0.042237222 0.047922786 0.10368068 0.000336761 -0.06771569
0.10417952 0.077380285 -0.06383001 0.16690978 0.102438614 0.12466223 0.15582013 0.044349745
-0.14847651 -0.06640336 -0.016448516 0.09163793 -0.1198643 -0.08211165 0.13587889 -0.08170787
-0.014987618 -0.045386378 0.031111445 -0.10258542 0.009854274 -0.107739374 -0.04414733 0.09871911
0.0813956 -0.043009028 -0.12863709 -0.10063697 0.003990974 -0.007315988 0.0992725 -0.011377569
0.16840188 -0.023224466 0.06903605 0.1188338 -0.053656675 -0.037341643 -0.026986174 -0.0327169
0.05995401 -0.021343945 0.017727265 0.045973077 -0.037669174 -0.00028181 0.01808833 0.087716065
-0.058043692 -0.09061585 0.072614595 0.047782563 0.054908648 -0.012289609 0.060302064 0.037584364
0.035779748 -0.0732646 -0.103984155 0.0055770488 -0.14204127 0.04000698 -0.061118286 -0.03621193
-0.03588697 0.10851657 -0.033338245 0.0006517604 -0.0012988467 -0.0024768643 0.02203859 0.0016463302
0.026614692 0.16553871 0.00027671538 0.08499494 0.20851682 -0.044548817 -0.008810739 -0.008870828
0.051200565 0.09172579 0.11742549 -0.082756154 0.00074641063 0.11816357 0.053978283 0.07406118
0.091888905 -0.003698086 -0.1856036 0.069434784 0.16643783 -0.01744683 -0.14093435 0.13935412
0.10462457 -0.047736075 -0.025254697 0.05140278 0.108625524 -0.052977115 -0.07891622 0.07363776
-0.048350826 0.0720752 0.1542508 0.059469327 0.08311446 -0.12588942 0.14880979 0.04659818
0.057864364 0.24201766 -0.054627664 0.16099246 0.08574721 -0.15653178 -0.018710539 0.033834934
0.034907058 0.023769146 0.01649852 0.02369052 -0.09321344 0.023243584 0.075415485 -0.047562636
0.07273613 0.1118179 0.0794486 -0.059835736 -0.1443319 -0.018191008 0.030654183 -0.05003313
-0.12985498 0.059942424 -0.023285236 -0.07336384 0.13427547 0.023082342 0.14637622 0.11737623
-0.003096646 -0.12306349 0.0956994 0.071700044 -0.03839723 -0.22826709 -0.03663582 0.07059475
0.18877238 0.030232565 0.04701084 -0.03937172 -0.13140242 -0.07113975 0.01345639 0.022911089
-0.02021336 0.05613821 -0.0773653 -0.003123634 0.016670164 0.054675736 0.1147073 -0.07850115
0.020829985 -0.1195224 -0.032786854 -0.13918664 0.09823926 0.061720286 0.03854336 0.049054097
0.10332309 0.16038355 -0.018349128 0.062345788 -0.0066895904 -0.026082706 0.06347352 0.09342603
0.15295266 0.0035289025 0.032866724 0.108478114 0.1167952 0.014997092 -0.014529216 0.025565408
0.1498152 0.10321059 0.1031445 -0.07408198 0.003785559 0.26708195 -0.009746753 -0.019008366

q1_layer3.bias f4 [64]
00000000: f1e1 a3bb 981d 003d 35f8 09bd 851e 2e3d
00000010: e528 b6bc a068 96bb 3bfd 9ebc 1f3a 143d
00000020: 93b2 c9bc 00b9 c5bb 6513 c6bc a500 cbbc
00000030: fae7 4bbc 3d52 95bc f7f1 a0bc a85e ed3c
00000040: d0f3 5fbc 0363 5c3d 1aa6 fabc 889c 48bc
00000050: dc45 41bc 74e1 853d 3c87 a9bc e65a 223d
00000060: 7d91 bbbc 3e4b f3bc 780a 0d3d f626 b9bc
00000070: f079 f0bc d715 533d 445f b1bc 5126 08bd
00000080: df06 123d 3ae4 5b3d 55af 143d e382 c0bc
00000090: e299 83bc 4715 f9bc 9b29 f7bc 80b9 c6bc
000000a0: 7f19 81bc a298 dbbc fb1b c4bc e52e cfbc
000000b0: 2cc5 a0bc 1283 1dbc b05c 33bc ae15 073d
000000c0: 8716 643d 8867 e4bc 6ea4 debc 045f e8bc
000000d0: ce6d 8dbc f3fc 09bc e791 f6bc 40fc c5bb
000000e0: 7683 4d3b e525 ab3c f668 b6bc a91c 97bc
000000f0: 6079 dfbc 045e 76bc 4736 213d 5e5c ecbc
-0.0050012995 0.031278223 -0.033683974 0.042509574 -0.022236297 -0.004590109 -0.01940786 0.03618824
-0.024621284 -0.0060340166 -0.02417917 -0.02478058 -0.012445444 -0.01822769 -0.019646628 0.0289758
-0.013668969 0.053805362 -0.030596782 -0.012244351 -0.011796441 0.065371424 -0.020694368 0.03963747
-0.022896523 -0.029698964 0.034433812 -0.022601586 -0.02935502 0.0515345 -0.021651872 -0.033239666
0.035651084 0.05368445 0.036300022 -0.023499912 -0.016064588 -0.030405654 -0.030171206 -0.024258375
-0.015759228 -0.02680618 -0.023939123 -0.025290916 -0.019625269 -0.009613769 -0.010947391 0.03297966
0.055685546 -0.027881399 -0.027178016 -0.02836562 -0.017264273 -0.008422124 -0.030098869 -0.0060420334
0.0031358874 0.020892093 -0.022266846 -0.018446283 -0.027279556 -0.0150370635 0.039358404 -0.028852638

q1_layer4.weight f4 [1, 64]
00000000: db37 e73c ebaa 89bf 5c5c 8fbc 684c 83bf
00000010: 2cfa 90bc 8cae 4dbe 0754 013d c57a 73bf
00000020: 5a31 0d3d 31fb b1bc 707e 84bd b74b 0a3e
00000030: da66 273c bc09 4abc 9865 4bbe d750 9cbf
00000040: 7875 373e 89d4 84bf 579c 4e3d b780 2e3e
00000050: 6a58 4ebd 0312 87bf ed73 913d 3fde 79bf
00000060: acc8 143e ec52 b0bc 9cad 91bf 3154 c63d
00000070: e28c ac3d e7fe 7ebf 1ae9 0a3c 42e5 bb3c
00000080: d731 83bf 477b 78bf 9f20 89bf b6c5 9fbd
00000090: 2363 643c eabd 63bc 9d02 e33b f302 08bc
000000a0: 3c75 473d aa27 c03d 3877 88bc d173 33bd
000000b0: ec82 4b3e 02b8 d7ba 7a98 9ebd 794b 80bf
000000c0: 85bc 80bf 367b 193d 8167 0ebc 9e88 1a3e
000000d0: 1408 0e3e 485f 90bd d053 c7bb 976a 3cbc
000000e0: b568 033e 6e64 94bf ced8 c73d 3417 1c3e
000000f0: 9b29 0d3e 32e1 093d fceb 94bf 7728 08bd
0.028224876 -1.0755285 -0.017500095 -1.0257692 -0.017697416 -0.20086116 0.031574275 -0.95109206
0.034470893 -0.021726223 -0.064694285 0.13505445 0.010217393 -0.012331422 -0.19862974 -1.221217
0.17915905 -1.037736 0.050442066 0.17041288 -0.050377287 -1.0552372 0.07102189 -0.97604746
0.14529675 -0.021523915 -1.1381106 0.09684027 0.08425309 -0.996077 0.008478427 0.022936467
-1.0249585 -0.97063106 -1.071308 -0.07801382 0.013939652 -0.0139002595 0.0069278018 -0.008301484
0.048695788 0.09382565 -0.01665841 -0.043811623 0.19874161 -0.0016458037 -0.07743926 -1.0023032
-1.0057532 0.03747102 -0.008691669 0.15091178 0.13870269 -0.070494235 -0.0060829893 -0.011500022
0.12832911 -1.1593149 0.09758149 0.15243226 0.13785402 0.03366203 -1.1634517 -0.033241715

q1_layer_norm1.weight f4 [128]
00000000: bde9 793f 6ba6 803f bea9 8f3f 1f58 793f
00000010: e2ff 793f c17e 6d3f f474 7f3f dd13 793f
00000020: 8075 643f 2471 743f a98b 633f f46f 6b3f
00000030: 3f3e 6c3f 2f4a 673f bf1f 6b3f 3cce 913f
00000040: 1fff 903f 360f 5c3f 48ae 5a3f 755e 5a3f
00000050: c8dc 5b3f 36a1 6e3f 77f2 813f d073 603f
00000060: a3a8 743f bab4 883f 4089 743f f4aa 713f
00000070: 3ceb 5d3f 1a94 883f fb9a 873f 8cb1 703f
00000080: 1ddc 763f 3cbd 7a3f dd6a 6c3f 1b08 793f
00000090: cc7c 623f 63a1 6b3f 4d98 703f 844e 813f
000000a0: 56ee 8d3f 9d14 5d3f ea63 703f 727f 963f
000000b0: 0102 643f 0038 6d3f 448a 8c3f 7254 753f
000000c0: c17d 873f 1225 6d3f 0efe 6e3f cc37 643f
000000d0: d36d 763f 3d2e 713f 85f8 5c3f 9d13 773f
000000e0: d051 613f 2bac 713f 4afc 843f 2e16 7b3f
000000f0: 0554 7d3f 1931 663f 6e38 673f fcec 723f
00000100: fbc3 553f 3c6a 5c3f 6a22 573f 2089 743f
00000110: 8722 6e3f d7d6 793f 40a6 6c3f 3228 883f
00000120: 5fc8 813f fcc8 863f 9b81 633f b49c 8b3f
00000130: db71 683f 0a7d 793f 837a 733f 39ba 713f
00000140: 4de9 723f 6ca7 663f 493c 6e3f 5082 8c3f
00000150: de0e 853f afb6 813f 2a40 783f 2c08 5f3f
00000160: 22df 883f cc10 603f dbf7 4e3f e20f 793f
00000170: b4c3 683f e68a 6f3f 3a60 893f 3234 5f3f
00000180: 301b 8d3f 5202 783f ec4d 8b3f 853c 773f
00000190: fc08 723f dfb9 723f 148f 853f faf4 793f
000001a0: ef14 723f 2ad9 703f e23d 743f f324 883f
000001b0: 46d0 7c3f 649f 823f f845 7e3f 8fee 7f3f
000001c0: 5c5a 713f 8a42 683f d6bd 893f c61d 6e3f
000001d0: 2ade 763f 1fd4 713f e941 693f e2c1 743f
000001e0: ec41 693f 866a 813f 63aa 5d3f 5d1c 953f
000001f0: 2138 8c3f fc3b 693f 34a7 803f b9cc 763f
0.9762228 1.0050787 1.1223676 0.9740009 0.9765607 0.92771536 0.9978783 0.97295934
0.8924179 0.9548514 0.8888498 0.919677 0.9228248 0.9034757 0.91845316 1.1391063
1.1327857 0.8596071 0.8542218 0.8530038 0.8588376 0.9321474 1.0152119 0.87676716
0.9556982 1.0680153 0.95521927 0.9440148 0.86687064 1.0670197 1.0594171 0.94020915
0.96429616 0.97945 0.9235056 0.9727799 0.88471675 0.9204313 0.9398239 1.0102086
1.1088359 0.8635958 0.93902457 1.1757643 0.8906556 0.92663574 1.0979695 0.9583198
1.0585252 0.9263469 0.93356407 0.8914764 0.9626133 0.9421118 0.8631671 0.965143
0.8801546 0.9440333 1.0389493 0.9808072 0.9895633 0.8991867 0.9032048 0.9489286
0.8350217 0.860996 0.84036887 0.95521736 0.93021435 0.97593445 0.9244118 1.0637267
1.0139273 1.0530086 0.8886964 1.0907197 0.9079873 0.9745642 0.95108813 0.9442478
0.9488724 0.90099216 0.9306074 1.0977268 1.0395162 1.0133876 0.96972907 0.87121844
1.0693095 0.8752563 0.8084695 0.9728986 0.9092362 0.9357132 1.0732491 0.8718902
1.1023922 0.9687854 1.0883155 0.9657672 0.9454496 0.94814867 1.0434289 0.9763943
0.9456319 0.94081366 0.95406926 1.0636276 0.987553 1.0204892 0.99325514 0.99973387
0.942785 0.9072653 1.0761058 0.9301418 0.96432745 0.94464296 0.91116196 0.9560834
0.91116214 1.0110633 0.86588115 1.1649281 1.0954629 0.91107154 1.0051026 0.9640613

q1_layer_norm1.bias f4 [128]
00000000: 26a3 84bc 072a 2e3d 2881 063e d63e e7bc
00000010: 6c2b bb3d ee3b 893d 4176 363c fb57 3b3b
00000020: 2573 083d 98a7 ffbc 89cb 28bd b03f 853c
00000030: 9cc2 abbc 1cc3 503a 39d1 b1bb 2066 073e
00000040: 8feb f83d cf04 bb3c 2a8f 193d 63a6 843c
00000050: 32ba 4c3c f74b 3cbd 66e8 cc3d a51c 8e3a
00000060: dab7 803d af7e 013e b1ff b03d bfc1 08bd
00000070: 9842 18bd cf67 c83d d594 aa3d e904 bdba
00000080: 9df6 503d 3e06 a53d 8f40 04bd 329a e2bc
00000090: fca6 ca3c 6370 46bd d991 a43b 6e1e c63d
000000a0: e186 f03d 313c 413d cdb5 833d 6fa8 1e3e
000000b0: 9bff 65bb 605f 143d 3458 f23d 3201 02bd
000000c0: 19b9 cf3d 23e9 69bb 622a 16bd f67b cbbc
000000d0: 4958 44bc 78a7 efbb 50e9 aa3c 1389 983d
000000e0: 0fe9 97bb 6744 69bd b7b3 a33d 3b5a 9f3d
000000f0: 7e94 733d 6b16 89bc 2ab9 083d 4146 1ebd
00000100: c50f 923c 8b72 9e3b f277 cabc 968c 913c
00000110: 5430 8e3d dfd4 1b3c d925 823c fad2 043e
00000120: 92ce bd3d ada8 c13d 66ed efbc 32a4 053e
00000130: bdf8 903c ac12 cb3d a19a 0fbd dadd 1dbc
00000140: cffb 4ebd 7492 7a3b fae5 9dbc f209 cf3d
00000150: 44ff f53d 9352 f23d dcf6 933d 15bd 543d
00000160: 1a61 e93d 8798 4c3d 535d 953c 5d71 75bb
00000170: 435c 21bd 1672 c13c 709e d73d 8217 9f3d
00000180: f29d e93d 9b90 023c 13c2 e83d 1f06 59bc
00000190: 1b7a 8dba febb 823c f476 da3d ed02 d43d
000001a0: 8025 07bc 8d9b 993c cf18 40bd ce7d d53d
000001b0: 4511 853d b7c4 b93d 3bdc b73d 80f9 d13d
000001c0: 420a e1bc fb81 1a3d a147 ca3d 9212 e9bc
000001d0: 42ed 923d f949 1e3d eaaf fd3c feef 01bd
000001e0: 62d1 cc3c 7d07 b63d f9e1 2f3c d83d 203e
000001f0: 928c f53d 25b3 2e3d 3e4c 093e c8f5 c5bc
-0.016191076 0.04252055 0.13135207 -0.028228205 0.091391414 0.06700884 0.011136592 0.0028586376
0.033312935 -0.031207845 -0.04120973 0.01626572 -0.02096682 0.0007963644 -0.0054265526 0.13222551
0.12154304 0.022829441 0.037490048 0.01619262 0.012495564 -0.045970883 0.10005264 0.0010842277
0.06285067 0.12645982 0.08642519 -0.033387896 -0.037172884 0.09785425 0.08329169 -0.0014421019
0.05101644 0.08057831 -0.03228813 -0.027661417 0.024737827 -0.048447024 0.005022269 0.09673773
0.11744476 0.047176544 0.0643116 0.1549394 -0.003509498 0.03622377 0.1183323 -0.03173942
0.101427265 -0.0035691939 -0.036661513 -0.024839383 -0.011983939 -0.007313665 0.020863205 0.0744802
-0.004635937 -0.05695 0.07993262 0.07780882 0.059467785 -0.016734323 0.03337971 -0.038641218
0.017829785 0.004835432 -0.024715398 0.017767232 0.069428116 0.009511202 0.015887188 0.12971106
0.09267916 0.094560005 -0.029288005 0.13050917 0.017696733 0.09915671 -0.035059575 -0.009635413
-0.050533112 0.0038234266 -0.0192747 0.10109319 0.12011579 0.11832156 0.07224819 0.051938135
0.11395474 0.04995015 0.018232977 -0.0037451603 -0.03939463 0.02361397 0.105282664 0.07768156
0.11407079 0.007969047 0.11365142 -0.013246088 -0.0010793837 0.015958782 0.1066722 0.103521205
-0.008248687 0.01875093 -0.04689866 0.10424386 0.064974345 0.090707235 0.089775525 0.102526665
-0.027470712 0.037721615 0.098769434 -0.028451238 0.071741596 0.038644765 0.030967671 -0.031723015
0.025002185 0.08888147 0.010735028 0.15648592 0.11989702 0.042651314 0.1340799 -0.02416505

q1_layer_norm2.weight f4 [128]
00000000: 2161 853f 6026 863f 6933 7d3f 2a61 803f
00000010: 65cd 663f 9342 7e3f f717 783f 8dba 7c3f
00000020: 8f62 8e3f b26c 7b3f 53b1 833f 4ca6 793f
00000030: fd27 6f3f 6aef 863f 54e0 793f 58da 8a3f
00000040: 1ae0 703f eb1a 803f 9aa2 7b3f 5b2e 8a3f
00000050: 218a 7f3f 110b 7b3f 8681 7c3f 8cf0 663f
00000060: 6dc0 803f de74 7b3f ad57 7d3f a8e1 6b3f
00000070: 1b2c 853f be66 6c3f 3343 803f 2940 7d3f
00000080: b64d 7e3f e0f3 773f 1a82 7d3f fe64 793f
00000090: 01b4 793f 696a 7d3f 3a13 7b3f b328 7c3f
000000a0: 1d7e 7a3f 04cb 7f3f 563d 763f 03e7 733f
000000b0: 6f46 7c3f 7f9d 6d3f 3a5e 7d3f 2699 783f
000000c0: 5ca0 7e3f 922c 7d3f 3a7d 733f e150 833f
000000d0: 4790 7b3f 7eba 7d3f 12d0 7b3f a315 773f
000000e0: 93b3 7b3f 4744 7d3f df86 7e3f 1a6c 803f
000000f0: ed92 7d3f 669b 7c3f 07a6 7a3f 6918 7c3f
00000100: bed1 7f3f b7a5 793f 4f1d 833f c816 7c3f
00000110: 6d33 7f3f f0fe 803f 3255 823f 4c1f 7f3f
00000120: 4292 7a3f f3e5 7d3f 6bc5 743f 1253 8e3f
00000130: b287 823f 0f8d 7f3f c00e 7d3f 9185 7d3f
00000140: 2368 7e3f c411 723f cd00 783f a53a 7a3f
00000150: c549 803f dd5d 773f abad 613f 41ac 7d3f
00000160: 9d6f 7d3f 3221 833f e44f 7b3f 789f 7a3f
00000170: f11a 803f 2717 803f 318b 7e3f 5ec1 813f
00000180: efc2 843f dcd9 7e3f 8b70 7d3f 1120 7d3f
00000190: f5be 873f 8a3f 833f 113e 6f3f 0196 863f
000001a0: 3cea 7c3f afab 813f 9755 713f 6449 7e3f
000001b0: 6113 723f 7197 7d3f c4cd 6f3f 965e 8b3f
000001c0: 8b64 8d3f 5f9d 813f 9059 7c3f a554 803f
000001d0: b594 893f 4892 7f3f 42ad 853f 5f94 533f
000001e0: dad0 743f acda 6f3f b161 783f 4437 7e3f
000001f0: 3967 623f 7db7 7e3f 07f0 7a3f 3352 7c3f
1.0420266 1.0480461 0.9890657 1.0029652 0.9015716 0.99320334 0.9691157 0.98722154
1.1123828 0.9821273 1.028849 0.97519374 0.9342039 1.0541813 0.9760792 1.0847883
0.9409195 1.0008215 0.98294985 1.0795397 0.99820143 0.9806376 0.9863514 0.90210795
1.0058724 0.982252 0.9896191 0.921412 1.0404085 0.9234427 1.0020508 0.98926026
0.9933733 0.968565 0.99026644 0.97419727 0.9754029 0.98990494 0.9807621 0.984996
0.97848684 0.9991915 0.9618734 0.9527437 0.98544973 0.92818445 0.98971903 0.97108686
0.9946344 0.98896134 0.95112956 1.0259057 0.98267025 0.9911269 0.98364365 0.9651739
0.98320884 0.9893231 0.99424547 1.003299 0.99052316 0.9867462 0.9790959 0.98474747
0.99929416 0.97518486 1.0243319 0.9847226 0.99687845 1.0077801 1.018225 0.9965713
0.9787942 0.99179 0.95613736 1.1119101 1.0197661 0.99824613 0.9885063 0.9903193
0.9937765 0.9455836 0.9687622 0.97745734 1.0022513 0.966276 0.8815562 0.99090964
0.98998433 1.0244505 0.9816878 0.9789958 1.0008222 1.0007066 0.9943114 1.0137136
1.0371989 0.9955118 0.9899985 0.98877054 1.060515 1.0253766 0.9345408 1.0514528
0.98794913 1.0130519 0.94271225 0.99330735 0.9456082 0.99059206 0.9367335 1.088824
1.1046308 1.0126151 0.9857416 1.0025831 1.0748507 0.9983258 1.0443499 0.8264827
0.9563118 0.9369304 0.97024065 0.9930308 0.88438755 0.9949873 0.980225 0.98562926

q1_layer_norm2.bias f4 [128]
00000000: b0a2 933d 54b8 9d3d 20a7 3739 14d6 4e3d
00000010: de4f 093d d870 c2bb f604 abbc f69b 7ebc
00000020: 3f30 d23d 8cb8 293c 0c47 8a3d 08ac 09bd
00000030: 69f1 893c 3f08 933d 6dd7 04bd 48e7 af3d
00000040: ea9d 0a3d f8d4 923a 74cc d1bb 675f be3d
00000050: d553 daba c22f d6bc d786 75bc d787 443d
00000060: f91f 613d 25c5 fabc eb45 62bc 6df9 8d3c
00000070: 7e06 a13d 4ff5 cf3c a578 7a39 fb88 03bc
00000080: dd9c 11bc 710a 02bd 6630 43bc 7f58 16bd
00000090: 67c0 12bd 40b6 22bc 3343 67bc 79ed 97bc
000000a0: f3a2 473d 9d90 643d a901 2b3d 6c22 4b3d
000000b0: a39f e6bc 9850 a8bb 7cd1 65bb 511a bcbc
000000c0: ff68 793d 3c46 21bc ce82 14bb 9a3b 963d
000000d0: 03e8 f8bc dcc9 33bc af79 ccbc 0327 53bd
000000e0: 94e5 c5bc 0496 a8bb 3328 b5bb a164 733b
000000f0: cade 0cbb 8a3d 71bc fe85 d9bc 243c 4fbb
00000100: 50c8 2a3b 0c55 26bd 9ad5 af3d 160e c8bb
00000110: 47fc 873d 6087 643c 7eaa 9b3d 0d09 6cbc
00000120: 68cc 85bc e22e 3cbc 63a1 afbc 2b9c f03d
00000130: 1169 923d 8677 97bb f506 8dbc 80c5 1cbc
00000140: 6acd d0bb 8a52 163d 38b9 b73c 2ed0 85bc
00000150: 7da3 1f3b 6aa6 873c d320 043d 152f 6dbc
00000160: 5275 1abc 5638 703d 6fa5 e2bc ecf7 a1bc
00000170: c359 50bb 5369 233d 364a 95bb 08c8 8e3d
00000180: fdd9 8c3d 7850 33bc 9710 05bc 2036 ffbb
00000190: f749 b83d ed86 833d 4954 223d f394 7d3d
000001a0: d73c 9fbc 9b19 933d 2016 ac3a 3672 fcbb
000001b0: bb82 17bd 2b15 a53d 4205 103d 5411 b53d
000001c0: f107 b23d 9e88 893d 4e9d a0bc b26c 833d
000001d0: 5879 c43d 1dea df3b f489 803d 9f6e b53b
000001e0: cfb4 a23c dc49 a23b 254e 2ebd 27c6 07bc
000001f0: e0f0 4e3d 2ebf 153b 5b70 debc 5132 693d
0.072087646 0.077011734 0.00017514499 0.05049713 0.033523433 -0.005933862 -0.020876389 -0.015540114
0.102631085 0.010358941 0.06751832 -0.033611327 0.016838746 0.07179307 -0.03243201 0.08589035
0.033842005 0.0011202386 -0.0064025465 0.0929554 -0.0016657064 -0.02614582 -0.014985762 0.04798111
0.054962132 -0.030611584 -0.013810615 0.01733085 0.078625664 0.025385527 0.00023886802 -0.008028264
-0.008887497 -0.03174824 -0.011913395 -0.03670549 -0.03582802 -0.009931147 -0.014115143 -0.018545853
0.048739385 0.055801976 0.04174963 0.049593374 -0.028152293 -0.0051365606 -0.003506749 -0.022961767
0.060891148 -0.009843405 -0.0022660973 0.07335587 -0.03038407 -0.01097342 -0.024960367 -0.051550876
-0.024157323 -0.0051448364 -0.0055284738 0.0037138837 -0.0021495097 -0.014724145 -0.02655315 -0.003162154
0.0026059337 -0.04060845 0.08585663 -0.006105195 0.06639915 0.013948292 0.07600878 -0.014406455
-0.01633282 -0.011485787 -0.02143926 0.11748537 0.07148946 -0.0046224026 -0.017215231 -0.009568572
-0.0063721435 0.03669981 0.022427186 -0.01633462 0.0024358921 0.016558845 0.032257866 -0.014476557
-0.009427385 0.058647476 -0.027666776 -0.019771539 -0.0031791783 0.039895367 -0.004555966 0.06971747
0.068775155 -0.010944478 -0.008121631 -0.0077884346 0.08998483 0.064222194 0.03963116 0.061909627
-0.01943819 0.07182618 0.0013129152 -0.0077040447 -0.03698991 0.08060678 0.035161264 0.08841196
0.08692921 0.06715511 -0.019606259 0.06417216 0.09593457 0.0068333284 0.062763125 0.0055368687
0.019861607 0.0049526524 -0.042554993 -0.008286989 0.050522685 0.0022849548 -0.027153185 0.05693275

q1_layer_norm3.weight f4 [64]
00000000: e7d4 7c3f b46c f23f c9da 823f 64db f43f
00000010: f539 813f 7328 7f3f 05cf 7c3f 14cc f53f
00000020: 80b8 7e3f 1626 813f df11 833f 1781 7d3f
00000030: cf3e 7c3f 3431 823f 6fca 7f3f 8986 f03f
00000040: 05cd 7d3f 7396 f53f a1eb 7c3f 7da9 7e3f
00000050: 23f7 813f aa02 f83f ae80 7d3f 5609 f73f
00000060: ab6a 7c3f d058 813f 61e1 f23f 8768 7d3f
00000070: b0b1 7c3f 740d f73f 7d85 7d3f e843 7c3f
00000080: 78e0 f43f 12f6 f93f ef3d f23f b234 833f
00000090: 8ee2 7f3f 7f48 823f 8e27 7e3f 9c83 813f
000000a0: 6315 7e3f ff86 7d3f 901a 813f 8e71 823f
000000b0: bf01 7e3f a66b 7e3f 0002 823f dce7 f33f
000000c0: b28c f63f 7388 7c3f 371c 813f 9580 7d3f
000000d0: 20fc 7d3f 6c1e 813f 499d 7f3f b046 823f
000000e0: bbcc 7e3f 0d2e f03f d3c4 7c3f 4df2 7d3f
000000f0: 95bb 7c3f 5cbc 7c3f 4c82 f23f ac24 823f
0.98762363 1.8939424 1.0223018 1.9129453 1.0095812 0.99671096 0.98753387 1.9202905
0.99500275 1.0089748 1.0239829 0.990251 0.9853334 1.0171266 0.99918264 1.8791057
0.9914096 1.9186538 0.9879704 0.9947737 1.0153545 1.9375813 0.99024475 1.9299724
0.9860026 1.0105228 1.897503 0.9898762 0.9870863 1.930098 0.9903181 0.98541117
1.9131002 1.952822 1.8925151 1.0250456 0.9995507 1.0178374 0.99279106 1.0118289
0.99251384 0.9903411 1.0086231 1.0190904 0.99221414 0.9938301 1.015686 1.9055133
1.9261687 0.98645705 1.0086735 0.99024326 0.9921284 1.0087409 0.99849373 1.0177822
0.99531144 1.8764054 0.9873783 0.99197847 0.9872373 0.98724914 1.8946013 1.0167441

q1_layer_norm3.bias f4 [64]
00000000: b257 99bc acd8 643f 4883 043d e2fb 663f
00000010: 150a d33c 66f9 893b 0a4c 8ebc 3580 6a3f
00000020: cc78 a9bb d58e a83c 7b9d 273d cc38 63bc
00000030: c975 cabc a340 c23c 9541 543b 522d 623f
00000040: 04c8 36bc 4331 683f d2f8 80bc 0f1c 1ebc
00000050: 77d5 be3c fa3d 6e3f 71e9 51bc f586 6a3f
00000060: 2c43 a6bc 74a2 bc3c a3ef 633f 64e6 4fbc
00000070: 8baa 6bbc 476a 693f d05c 3dbc dede 9cbc
00000080: a1f6 663f e8d3 6c3f f609 653f d0b0 2c3d
00000090: a4c6 d3bb d208 db3c a872 26bc e46e 9c3c
000000a0: a086 2bbc e1d4 6abc 3e80 673c de4d 073d
000000b0: d0d8 1fbc 3036 afbb 0dfc b33c 2d58 673f
000000c0: b41f 6a3f 6b99 b2bc 8ff2 ba3c a1a2 80bc
000000d0: b486 25bc 23c5 a83c 0d60 823b 28b8 d53c
000000e0: c3b9 b5bb f8f5 623f a038 4dbc 517b 4abc
000000f0: 0b42 87bc 6243 92bc 8d5e 633f 10d4 b33c
-0.018718574 0.89393115 0.032351762 0.9022809 0.025761643 0.004210639 -0.017370243 0.9160188
-0.005171871 0.02057592 0.04092167 -0.013868522 -0.024714367 0.023712462 0.0032387723 0.88350403
-0.011156086 0.9070017 -0.015743647 -0.009650244 0.023295147 0.9306332 -0.012812004 0.9161218
-0.020295702 0.023026682 0.8903753 -0.012689207 -0.014383922 0.9117779 -0.011557773 -0.01914924
0.90220076 0.92510843 0.89468324 0.04216081 -0.006462889 0.026737604 -0.010159172 0.019095846
-0.010469109 -0.014332981 0.014129696 0.033033244 -0.009756282 -0.005347036 0.021970773 0.9036892
0.91454625 -0.021801671 0.02282074 -0.015702548 -0.0101029165 0.020601815 0.0039787353 0.02608879
-0.005545826 0.8865657 -0.0125257075 -0.0123585025 -0.016510984 -0.017854396 0.8881615 0.021951705

q2_layer1.weight f4 [128, 27]
00000000: 4e20 03be 0480 7abd f600 8dbd a6ac 0d3d
00000010: 74d3 a63d 55e0 32bd b387 353d bea2 033e
00000020: 28f1 b53d 4a72 c0bc 10dd 443d 2a45 82bd
00000030: 3dfc 0f3e 8426 383d 6671 bebd 5690 a2bc
00000040: b80d f9bd 2a4d 9e3c d283 28be 9268 81bd
00000050: 41ed 7bbd 23aa 403d c902 82bc 5294 883d
00000060: ed0c 88bd a9b1 a63c 0908 203d 1bb8 423e
00000070: 8040 403d 9acd cdbd 9de6 173e 16b7 e73d
00000080: 44af fc3d 46fe a03d 14d4 b93c b772 c0bd
00000090: ca36 f5bc df49 7cbd 0831 063d 8022 8fbd
000000a0: 7afb 09bd fde4 9e3d a02b 0abc 9e30 c63b
000000b0: d242 edbc 85f5 0bbd da51 bbbb d730 38bc
000000c0: 416e 3d3d 53a3 1fbd 7827 3f3e a89c e2bd
000000d0: 30a5 32bd 623a 96bc 93b4 5b3d 25c4 963c
000000e0: 52ad b73d eba8 41bd 2bcf 86bb 9131 7cbd
000000f0: f19f edbd 227e 9f3d 1518 c33c 6c06 47bd
00000100: 69c6 55bd 350f 813c d427 b73d d1e7 d3bc
00000110: 17f8 89bd 3f5a a23c b5f5 123d 7bb2 f0bd
00000120: 0041 d23c 4e53 183d 8102 df3c 269a b2bc
00000130: 1451 19be 2d49 97bc cfbd 7dbd 6e71 733c
00000140: d2a0 19bd 1cb4 93be c7dc 85bd 2248 f6bd
00000150: a3c9 38be cd83 82be 5cf2 f8bd 63e3 90be
00000160: 37ba b0bd 4ffd 803d c249 c63c b127 d8bc
00000170: 0bf6 e43d 384a 263e 9066 86bd f970 ecbd
00000180: 7a86 d63d 61cf 233d 20d0 c0bc 9313 d33b
00000190: 1c50 123d 8550 fabd 2786 61bd 791a 233e
000001a0: ac04 5e3c dd2f 383c bfa2 30bd 72eb 45ba
000001b0: b7d6 1a3e 3795 4f3d 1c15 0c3e a561 723d
000001c0: 88ab 283e 0d43 c23b 022c ef3d bed2 313d
000001d0: 6f5e 03bd 3b90 c73c d938 d63d ed66 81bc
000001e0: 464e c9bc 766c d73d 35ad ab3d c0de ff3d
000001f0: 5e15 143d 9354 20bd fce8 e33c 9585 85bd
00000200: 7dce 243d 9bb3 ab3d f9ad 943c f59d ce3b
00000210: 9643 a4bd 7ebc d53c 1017 9a3c 7ea6 a6be
00000220: 057f 42be 93fa a8be c2d7 5dbe 2a6c 63bd
00000230: 3e66 afbe 1e7f eabd 9ba7 1dbe c7b0 4cbe
00000240: af22 eebd fde7 103e e975 273e 9057 09bd
00000250: 16ff 89be e368 2abe 2c25 56bd a97e 943d
00000260: adde 1dbe 5499 c73d f6d5 023e 9505 47bd
00000270: db48 71bd da66 da3d 419c e7bc ef0f 0fbd
00000280: 6c8c 8d3d 1784 053d a250 91bd add4 dabb
00000290: 6d87 d2bd 6417 d0bd fb41 b83c 77e0 883d
000002a0: 6fcd 29bd 9b34 fd3d 5eab cbbd 9ce0 7cbd
000002b0: b25d b2bb 5dea 813d 23ba f4bd d197 d9bd
000002c0: 5083 543c b51e 303c 4235 bbbc aafe 293d
000002d0: 93bf 933b a9a4 99bc d5ae 363d 916a 89bd
000002e0: 3c5d b5bd e0b4 7c3d 5e6b a9bc 6822 b8bc
000002f0: 9c39 b6bd ef20 28be b877 34be f527 253c
00000300: 0796 13be 1f5d 34be 0634 36bd 7f58 3abe
00000310: 7a49 0cbe c774 5ebd 4377 9f3d 9829 cf3d
00000320: 2eb6 403d 9ca4 1fbc f684 e5bc d0d8 3abc
00000330: d7be dcbd 917d f9bb c37c 84bd 4747 5fbc
00000340: f56c f23d 9186 483d 662c cc3c 5d1d 9b3c
00000350: ddea 13bc 18be 38bd dc9c dcbd 4656 0d3c
00000360: 6601 2b3d c20b 8c3d 22f5 673c 5ce6 163e
00000370: cb01 eebc b47b 76bd dc7f 03bc f6c3 ac3b
00000380: 8804 59bd 170d 66be a3f6 b7bd 8f96 cbbb
00000390: a4ac f1bb e2f4 a93d cf22 223d 816b 6bbd
000003a0: 9377 93bd f165 2c3d 9a5e da3d 6a22 b4bd
000003b0: 9856 17bd d22c 0d3d c5c5 93bd 5f94 bd3d
000003c0: 313f ad3d 8fb4 b2bd 262e 2abd 2184 9dbc
000003d0: e175 3cbe 9c4a 223d 6ec8 323d 7432 fcbc
000003e0: 5aa1 0abe 6aeb f3bd 5166 223e e84e 063d
000003f0: 8e97 24bd 7d02 fe3d c544 543d c3cd 153d
-0.12805292 -0.06115724 -0.06884949 0.03458848 0.081458 -0.04367097 0.044318866 0.1285505
0.088838875 -0.023491997 0.048062384 -0.06360848 0.14061065 0.044958606 -0.09298973 -0.019844215
-0.1216082 0.019323904 -0.16456535 -0.06318773 -0.06150556 0.047037255 -0.015870469 0.06668915
-0.066430904 0.020348387 0.039070163 0.19015543 0.046936512 -0.10048981 0.14834066 0.11314218
0.12338117 0.07860999 0.022684135 -0.0939688 -0.029933352 -0.061593886 0.032761604 -0.06989002
-0.033687092 0.0775852 -0.008433253 0.006048276 -0.028962526 -0.034169693 -0.0057165446 -0.011242113
0.046247724 -0.038974117 0.186674 -0.11065036 -0.043614566 -0.018338386 0.053639006 0.018404076
0.08968605 -0.047280233 -0.004114052 -0.061570708 -0.11602772 0.0778773 0.023815194 -0.04859011
-0.05219117 0.015754322 0.089431435 -0.025867375 -0.067367725 0.019818423 0.035878856 -0.117527924
0.02566576 0.03718882 0.027222874 -0.02180202 -0.14972335 -0.01846751 -0.061948594 0.014858587
-0.037506886 -0.2884835 -0.065362506 -0.12025477 -0.18045668 -0.2549118 -0.121556014 -0.28298482
-0.08629268 0.06298315 0.024205092 -0.026386114 0.111797415 0.1623925 -0.06562531 -0.11544985
0.10474868 0.039992694 -0.023536742 0.0064415424 0.03572093 -0.12222389 -0.05505958 0.15928067
0.013550919 0.01124188 -0.043123957 -0.00075500377 0.1512097 0.05067941 0.13679928 0.059175152
0.16471684 0.005928403 0.11678316 0.04341387 -0.03207248 0.024360767 0.104600616 -0.01579615
-0.024573456 0.10518734 0.08382646 0.12493658 0.03615319 -0.039143156 0.027821057 -0.065196194
0.040235985 0.083838664 0.018149363 0.006305451 -0.080207035 0.026090857 0.018809825 -0.32548898
-0.18993767 -0.33003673 -0.21664336 -0.055523075 -0.34257692 -0.11450027 -0.15395968 -0.1998931
-0.11627709 0.14150997 0.16353573 -0.03353077 -0.26952428 -0.16641574 -0.052281544 0.07250721
-0.15416975 0.09746042 0.12776932 -0.048589308 -0.05890737 0.10664149 -0.02827275 -0.034927305
0.06911549 0.032596674 -0.070954576 -0.006678185 -0.10279737 -0.101607114 0.0224924 0.06683438
-0.041455682 0.12363549 -0.09944795 -0.06173764 -0.0054432983 0.063435294 -0.11949565 -0.1062466
0.01297076 0.010749509 -0.022852544 0.041502632 0.0045089214 -0.018755274 0.044600327 -0.06709779
-0.08855674 0.061695933 -0.02068108 -0.022477344 -0.08897707 -0.16418813 -0.17623794 0.010080327
-0.144127 -0.17613648 -0.044483207 -0.18197821 -0.13699904 -0.054310586 0.07786419 0.10115355
0.04704874 -0.009743836 -0.028017502 -0.011404231 -0.10778587 -0.0076138456 -0.06469109 -0.013627834
0.11837188 0.048956458 0.024923515 0.0189349 -0.009028164 -0.045103163 -0.10772106 0.008626526
0.04174938 0.0683818 0.014157565 0.14736313 -0.02905359 -0.060176566 -0.0080260895 0.005272384
-0.052982837 -0.22465931 -0.08982589 -0.0062130163 -0.0073753167 0.08298661 0.039583977 -0.05747557
-0.07200541 0.042089406 0.10662575 -0.087956265 -0.036947817 0.034466572 -0.07215456 0.09256815
0.084593184 -0.08725845 -0.041547917 -0.019228043 -0.18404342 0.039621934 0.043648176 -0.030785777
-0.13538113 -0.11910136 0.15859343 0.032790095 -0.040183596 0.12402818 0.051823396 0.036573183
